example/model/diff_robot_default/model_4500.pth (torch, 24610 bytes, 18 tensors)

MLP.0.weight f4 [32, 2]
0.34888318 -0.26582542 0.29119426 0.42614943 -0.04692683 0.3473776 -0.092601195 0.17269528
0.3415307 0.5786008 0.2044815 0.21893641 -0.34254447 -0.44648564 -0.50550044 0.16328499
0.41843328 -0.16047351 0.09847234 0.32435882 -0.30650234 0.47465447 0.458908 -0.44008437
-0.16209283 0.5163316 -0.06950857 0.39501768 0.53517085 0.15305698 -0.11873524 0.43687648
0.14011316 0.3111175 -0.01377025 0.097413726 -0.027865114 0.4027207 -0.18014431 -0.014841534
0.25504252 -0.033985108 -0.033200435 -0.3904118 -0.44836482 0.41929835 -0.35010827 0.065694846
-0.42588028 0.0975482 -0.02889809 -0.08462853 -0.22988532 0.0748788 0.22714727 -0.38345358
-0.62695843 -0.19970544 -0.11192196 0.036832973 -0.020027649 0.05828391 -0.43048653 0.06779139
00000000: d1a0 b23e 451a 88be 6a17 953e 4230 da3e
00000010: 5936 40bd 7adb b13e b2a5 bdbd 08d7 303e
00000020: 1ddd ae3e 2f1f 143f 9963 513e de30 603e
00000030: fd61 afbe c499 e4be 7a68 01bf 2e34 273e
00000040: e33c d63e 2b53 24be deab c93d 5c12 a63e
00000050: e0ed 9cbe e905 f33e fdf5 ea3e bd52 e1be
00000060: aafb 25be 4f2e 043f 825a 8ebd c23f ca3e
00000070: f500 093f f8ba 1c3e 762b f3bd 46ae df3e
00000080: d379 0f3e cb4a 9f3e 9d9c 61bc d980 c73d
00000090: 6145 e4bc 6831 ce3e c077 38be e829 73bc
000000a0: ef94 823e f833 0bbd 2efd 07bd 0ee4 c7be
000000b0: 1390 e5be 46ae d63e 6441 b3be 058b 863d
000000c0: fb0c dabe 5ac7 c73d b0bb ecbc b951 adbd
000000d0: 0f67 6bbe 0e5a 993d 4b99 683e 0754 c4be
000000e0: 5980 20bf 957f 4cbe 5737 e5bd 2cde 163d
000000f0: 0611 a4bc 1cbb 6e3d bb68 dcbe 36d6 8a3d

MLP.0.bias f4 [32]
0.03569723 0.04368924 0.32006368 -0.08504155 0.013798304 -0.18178351 -0.07378503 0.3114972
0.024895022 -0.05752612 0.2684964 -0.09824675 -0.32331938 0.14546502 -0.21810724 0.2103849
-0.049037274 -0.093890764 0.021928808 0.2580131 0.20477916 0.09794596 -0.160606 0.004613952
-0.1530632 0.04099079 -0.093585566 0.16339722 -0.13654079 -0.32777804 0.008391426 -0.2533826
00000000: 4237 123d 7df3 323d 63df a33e 442a aebd
00000010: 4812 623c 7525 3abe 9b1c 97bd 907c 9f3e
00000020: a5f0 cb3c 82a0 6bbd 5c78 893e 9835 c9bd
00000030: 1e8a a5be c8f4 143e 8157 5fbe 246f 573e
00000040: 4fdb 48bd cd49 c0bd 0ba4 b33c 4b1a 843e
00000050: a1b1 513e e497 c83d e675 24be a230 973b
00000060: 99bc 1cbe f5e5 273d caa9 bfbd 9a51 273e
00000070: 59d1 0bbe 86d2 a7be 317c 093c 5dbb 81be

MLP.1.weight f4 [32]
0.52009153 0.62101215 0.5872816 0.28206503 0.5641739 0.61397743 0.5280355 0.73780364
0.4904969 0.61520463 0.7523989 0.6012065 0.7290494 0.53239876 0.7481546 0.6452473
0.4749562 0.12896436 0.42894047 0.6070174 0.48521444 0.6299845 0.65883964 0.3710581
0.699224 0.32172266 0.4121345 0.55725014 0.6598701 0.47189027 0.0007772287 0.642747
00000000: b824 053f a7fa 1e3f 1658 163f d46a 903e
00000010: b36d 103f a02d 1d3f 562d 073f b3e0 3c3f
00000020: 6922 fb3e 0d7e 1d3f 379d 403f abe8 193f
00000030: fba2 3a3f 494b 083f 0f87 3f3f ed2e 253f
00000040: 762d f33e 3c0f 043e 169e db3e 7e65 1b3f
00000050: 076e f83e aa46 213f b7a9 283f 54fb bd3e
00000060: 5800 333f d5b8 a43e 4b03 d33e f2a7 0e3f
00000070: 3fed 283f 9a9b f13e efbe 4b3a 118b 243f

MLP.1.bias f4 [32]
0.019337535 0.003888845 0.021917943 -0.026997257 0.0063622063 -0.012495036 0.013910313 -0.028100125
0.021549057 -0.015957294 0.025717393 0.022782031 -0.026358675 -0.0067249388 -0.03716043 -0.03127604
0.001363544 -0.0041831345 0.0051592863 0.015729697 0.056461062 -0.005136991 0.012839025 0.017987223
-0.011093379 -0.024673244 -0.023386756 0.031612374 0.010424541 0.012186205 0.027815301 -0.042282224
00000000: c069 9e3c fedb 7e3b 428d b33c 5a29 ddbc
00000010: 0e7a d03b fbb7 4cbc 15e8 633c 3c32 e6bc
00000020: a687 b03c dfb8 82bc 48ad d23c 62a1 ba3c
00000030: 26ee d7bc e05c dcbb 8935 18bd 4e1b 00bd
00000040: f2b8 b23a ad12 89bb 3b0f a93b 91db 803c
00000050: b743 673d 3454 a8bb c65a 523c f159 933c
00000060: 01c1 35bc 8b1f cabc 9595 bfbc fa7b 013d
00000070: b2cb 2a3c a6a8 473c eadc e33c 2030 2dbd

MLP.3.weight f4 [32, 32]
-0.07327287 0.034726948 -0.07906927 0.0066622775 -0.020558879 -0.031911287 -0.1446711 0.05902104
0.034098905 -0.05260638 0.066703975 0.040365852 -0.04034093 0.034401778 0.015631601 0.10026898
-0.015000989 -0.0022399707 0.029694607 0.03187596 -0.061819226 -0.06859537 -0.007863282 0.019215217
-0.042487983 0.0052047744 0.026854424 -0.055967834 0.09108094 -0.025739677 -0.001682538 -0.053518645
-0.004358956 0.064421475 -0.04656335 0.0053022387 -0.015893225 -0.06233343 0.026963536 0.026526796
0.096556745 -0.013159122 0.0495403 -0.060738314 -0.0013114585 -0.02558307 -0.08705602 0.023830326
0.036091987 0.000994643 0.009208905 -0.06769411 -0.04834845 0.12826592 0.010424188 -0.08928793
-0.10591377 0.06892624 -0.02018924 -0.052974325 -0.13029987 -0.013868288 -0.0026129403 0.022235384
0.10909404 -0.01251082 -0.015107133 0.07208403 0.0977339 0.030284109 0.017624734 -0.016840506
-0.060971767 -0.04916556 -0.040043026 0.049344596 0.1482567 0.099337354 -0.11489345 -0.0885923
0.02802235 0.018199386 0.014565531 0.011440174 -0.019124577 0.12937331 0.0623082 0.06418778
0.075551346 0.08794063 0.08038231 0.066280365 0.07623766 0.10340642 1.4444575e-05 0.16459766
0.046335183 0.054717176 -0.021153472 -0.04389226 0.06423935 0.08574608 -0.041733168 -0.16394751
0.08932875 -0.0056472435 0.15629156 0.026871491 -0.12498384 -0.030375235 0.12165889 0.053288795
0.07003091 -0.009580608 -0.10140842 -0.042170998 0.04487594 -0.1440807 -0.043476027 0.0042553665
-0.15315726 -0.08024616 -0.035491437 0.1035934 0.08833971 -0.049233913 0.008658706 -0.067586854
0.038069017 0.06591716 -0.049273852 0.020493802 -0.06497068 -0.07807779 -0.10589558 -0.08847092
0.01571955 -0.074704275 0.00071794796 0.05115546 0.13944075 0.100369506 -0.07873198 -0.042547885
-0.0018464891 0.009370799 -0.02184602 -0.1097817 -0.09504672 0.033798836 -0.028156985 0.0018875569
0.14210933 0.08879018 0.07621016 -0.101797305 -0.0796736 0.0719339 -0.007828477 0.04958911
-0.082720384 -0.08984906 -0.13069509 0.068703964 -0.020737028 0.057705253 -0.12294151 0.13587639
-0.0029493556 -0.004678087 -0.08600925 0.05621708 0.09188709 -0.112262145 -0.13709992 -0.03190008
-0.011040856 0.0022632417 0.14595382 -0.0776268 0.016442964 -0.09669099 -0.017711006 0.027805239
-0.031422127 0.027798666 -0.018979114 0.02730731 0.1155665 -0.031969246 -0.020420969 0.1018918
0.03597127 -0.048931506 0.11085149 -0.01232698 -0.010988906 -0.032994017 -0.038559884 -0.002114287
-0.07492489 0.009216135 0.00019254949 -0.06126358 0.0045527616 0.09755955 -0.000678885 0.07060698
-0.029411176 -0.013096652 0.056263834 0.05349503 0.045707885 0.03387964 0.011859127 -0.011273618
-0.0537419 0.015888238 -0.04218017 -0.020520775 0.005681966 -0.07924554 0.002451945 -0.026318965
-0.02183762 -0.02560821 -0.069442004 0.0008603667 0.09349434 0.06252592 0.009728619 -0.002357772
-0.025047041 0.023572074 0.05554419 -0.059671447 -0.07296984 0.08048351 0.0617746 -0.066277966
0.003258963 0.0019059447 -0.03100828 0.008385303 -0.018680278 0.016607227 0.102618575 0.037818108
0.079170875 -0.03637395 0.014851999 0.06891503 -0.05424695 0.019340396 0.00021091891 0.0060247947
00000000: 1610 96bd d83d 0e3d 12ef a1bd 3c4f da3b
00000010: 186b a8bc 69b5 02bd a924 14be 0cc0 713d
00000020: 4bab 0b3d ca79 57bd 189c 883d aa56 253d
00000030: 883c 25bd e1e8 0c3d d80d 803c d359 cd3d
00000040: b5c6 75bc 79cc 12bb 1b42 f33c 5e90 023d
00000050: 2836 7dbd bb7b 8cbd ffd4 00bc 3b69 9d3c
00000060: e107 2ebd d08c aa3b cffd db3c 873e 65bd
00000070: a588 ba3d 04dc d2bc 9b88 dcba 5e36 5bbd
00000080: 93d5 8ebb 68ef 833d 36b9 3ebd 67be ad3b
00000090: 8232 82bc 5751 7fbd a2e2 dc3c b94e d93c
000000a0: 8bbf c53d 5c99 57bc c5ea 4a3d bdc8 78bd
000000b0: 3fe5 abba 9693 d1bc 6d4a b2bd d137 c33c
000000c0: 31d5 133d ae5e 823a f2e0 163c 36a3 8abd
000000d0: 0609 46bd 2458 033e 37ca 2a3c 97dc b6bd
000000e0: 52e9 d8bd 3329 8d3d e863 a5bc 9bfb 58bd
000000f0: 546d 05be d137 63bc dd3d 2bbb fb26 b63c
00000100: b26c df3d 2ffa 4cbc e983 77bc cba0 933d
00000110: b628 c83d 6116 f83c bf61 903c 1af5 89bc
00000120: 88bd 79bd d461 49bd 2804 24bd 8f1d 4a3d
00000130: 9bd0 173e 6271 cb3d 424d ebbd e16f b5bd
00000140: 218f e53c e116 953c 44a4 6e3c 916f 3b3c
00000150: 25ab 9cbc 707a 043e e236 7f3d e274 833d
00000160: aaba 9a3d 381a b43d 7b9f a43d 00be 873d
00000170: 7e22 9c3d bfc6 d33d fa56 7237 4a8c 283e
00000180: f6c9 3d3d 1e1f 603d 0c4a adbc 5fc8 33bd
00000190: ec8f 833d a49b af3d 66f0 2abd dbe1 27be
000001a0: fef1 b63d 830c b9bb e50a 203e 9a21 dc3c
000001b0: 87f7 ffbd 7cd5 f8bc 4c28 f93d 5a45 5a3d
000001c0: 5e6c 8f3d fcf7 1cbc 38af cfbd 7fbb 2cbd
000001d0: d5cf 373d e489 13be eb13 32bd 9a70 8b3b
000001e0: 42d5 1cbe 1958 a4bd 785f 11bd c728 d43d
000001f0: 73eb b43d 80a9 49bd 3fdd 0d3c fa6a 8abd
00000200: 42ee 1b3d 93ff 863d 61d3 49bd 9ee2 a73c
00000210: 590f 85bd 40e7 9fbd c8df d8bd 3e30 b5bd
00000220: 49c6 803c 8efe 98bd ac34 3c3a 6388 513d
00000230: 8ec9 0e3e 878e cd3d 3b3e a1bd b146 2ebd
00000240: e505 f2ba fb87 193c 6df6 b2bc 3ad5 e0bd
00000250: dba7 c2bd a670 0a3d 7aa9 e6bc e667 f73a
00000260: 1c85 113e a0d7 b53d 1314 9c3d 1b7b d0bd
00000270: ea2b a3bd 1552 933d 0343 00bc f31d 4b3d
00000280: 4e69 a9bd c902 b8bd efd4 05be aab4 8c3d
00000290: b3e0 a9bc 585c 6c3d c2c8 fbbd 2e23 0b3e
000002a0: fa49 41bb a34a 99bb 9e25 b0bd e243 663d
000002b0: 4c2f bc3d b2e9 e5bd ec63 0cbe a9a9 02bd
000002c0: b5e4 34bc e552 143b eb74 153e cdfa 9ebd
000002d0: 65b3 863c ed05 c6bd ac16 91bc d0c7 e33c
000002e0: 7db4 00bd 07ba e33c 167a 9bbc 94b3 df3c
000002f0: 21ae ec3d 2ff2 02bd e049 a7bc a6ac d03d
00000300: 9c56 133d 676c 48bd 1b06 e33d 1af7 49bc
00000310: d00a 34bc bc24 07bd f8f0 1dbd da8f 0abb
00000320: 3972 99bd 46ff 163c 1ce7 4939 85ef 7abd
00000330: 552f 953b 4dcd c73d 33f7 31ba 649a 903d
00000340: b5ef f0bc 5793 56bc e874 663d 9b1d 5b3d
00000350: 3138 3b3d 61c5 0a3d c94c 423c fbb4 38bc
00000360: 7720 5cbd 0d28 823c 1dc5 2cbd 2f1b a8bc
00000370: c92f ba3b 7c4b a2bd d0b0 203b df9a d7bc
00000380: cfe4 b2bc 4fc8 d1bc 9c37 8ebd 3b8a 613a
00000390: f679 bf3d 970d 803d c964 1f3c da84 1abb
000003a0: 742f cdbc 391a c13c 4e82 633d 0c6a 74bd
000003b0: 3671 95bd 8ad4 a43d 5d07 7d3d bebc 87bd
000003c0: 5494 553b e4d0 f93a 1405 febc 8362 093c
000003d0: 6207 99bc e10b 883c b029 d23d 29e7 1a3d
000003e0: 5724 a23d dafc 14bd cc55 733c 5323 8d3d
000003f0: 0d32 5ebd c06f 9e3c 1d2a 5d39 a46b c53b

MLP.3.bias f4 [32]
-0.09094166 0.025612399 0.17904244 -0.078744896 0.073348895 0.037072968 -0.092333876 -0.03583908
0.035938732 0.115556665 0.028673362 -0.13559708 0.13471836 -0.011475852 -0.038596563 -0.14768486
-0.11930578 0.027665481 0.106761485 -0.016978113 0.09463048 -2.220625e-37 0.09876303 -0.10184154
-0.044072293 0.0061345804 0.12540054 -0.0012176064 0.063122734 0.05724474 0.04809472 0.06955788
00000000: 9f3f babd 18d1 d13c e756 373e 0145 a1bd
00000010: f237 963d d3d9 173d 8b19 bdbd 00cc 12bd
00000020: 7e34 133d f9a8 ec3d 66e4 ea3c f6d9 0abe
00000030: 9cf3 093e 3605 3cbc 6e17 1ebd b33a 17be
00000040: 9756 f4bd b8a2 e23c c4a5 da3d af15 8bbc
00000050: a0cd c13d be20 9782 4544 ca3d 4c92 d0bd
00000060: 2685 34bd 9704 c93b 0069 003e 1798 9fba
00000070: 7e46 813d 7679 6a3d f8fe 443d 5d74 8e3d

MLP.5.weight f4 [32, 32]
0.022429304 0.009056666 -0.056042984 -0.025996195 0.026578248 -0.068883285 0.059332654 -0.003639518
-0.03420847 -0.0859239 0.009206184 0.02080257 -0.050227873 -0.0030450649 0.1239489 -0.0136948405
0.105254315 -0.05970959 0.035722654 -0.03758155 -0.013332752 1.9672874e-37 0.07809168 0.05520816
-0.084866926 0.047625404 0.120738 -0.0333133 -0.07763573 0.17111118 0.060180496 0.0077985246
-0.059868757 -0.055331293 -0.09935834 -0.01866642 0.05126694 -0.11092122 -0.0148912035 0.033351675
-0.1206924 0.041261163 -0.002360504 0.028583487 0.054706693 0.065220304 0.024735827 -0.03947296
0.12386711 0.09697553 -0.062435936 0.07332145 -0.11047304 -2.3565464e-37 -0.18655619 0.015719937
0.013940943 0.042108417 -0.12598719 -0.0068737566 0.107551195 -0.103233695 -0.052679937 0.05200699
-0.004564642 -0.07599708 -0.11550284 -0.15139805 0.046874624 -0.05809618 -0.019910991 -0.0066665607
0.07687504 -0.09561122 0.0007306164 -0.122079946 -0.11215645 -0.004166631 0.03066489 -0.042955145
0.07341629 -0.048748188 -0.111894205 -0.09753531 -0.07539577 -2.0431219e-37 0.031996705 -0.019166617
-0.061643954 -0.07530844 0.0277258 -0.02716585 0.03906404 0.05441322 0.024098862 -0.064440355
-0.012492077 0.006976579 0.094959974 -0.11340319 -0.022919338 0.006709494 0.034187753 0.0045162193
0.10573197 0.09349462 -0.047841117 -0.006891593 0.095742606 -0.049192198 -0.098023705 -0.062487453
0.028168758 0.111170225 -0.0019222015 -0.039187778 -0.04166283 2.097362e-37 -0.12206771 -0.0008687231
-0.14186414 -0.079051055 0.14417487 0.036875438 -0.065009646 0.06165485 0.062834255 0.002195409
-0.06994649 0.05328971 -0.0877444 -0.028871981 -0.07226067 0.0055060657 0.022408798 0.002408679
-0.10852192 0.012692847 -0.13219443 0.06461219 0.09902025 0.004754548 0.059947293 0.13554217
0.095177196 0.08974625 -0.03991233 -0.012638307 0.046861734 -2.0709936e-37 0.07442349 -0.07451156
0.02059093 0.09820647 -0.11927742 -0.031334028 -0.0409866 -0.14983985 -0.09069558 -0.13531487
0.00052700605 -0.04569332 -0.060481545 0.004938356 -0.009846762 0.026908817 0.007936582 -0.0007479312
-0.03741487 -0.08943398 0.052697908 0.0037782884 0.008801112 0.012192732 -0.1268492 -0.02356499
0.055534832 -0.052773263 0.01870981 0.004789098 -0.1316991 -1.8852334e-37 0.11400384 0.046456534
0.022107176 -0.047412183 -0.07080758 -0.14005993 -0.07069205 0.05363823 0.035741143 0.038500424
0.10277203 -0.049746327 0.124595255 0.045630265 -0.092877574 0.07261857 -0.032369714 -0.007858039
-0.090928674 0.024087103 -0.041072074 -0.13224052 -0.11297302 -0.03895355 -0.1043606 0.04242328
-0.0048354794 0.17272757 0.08568102 -0.04342555 -0.018184075 2.266229e-37 0.16643429 0.036807783
-0.013491882 0.19046889 0.03775141 -0.07826675 0.10760105 -0.08186525 0.110357 -0.01351251
0.0814069 -0.08402666 -0.11996052 -0.072672494 -0.10298395 0.03672153 0.03182999 -0.030256836
-0.07654706 0.024366815 -0.12698613 -0.15138035 -0.10121138 0.06361429 0.017610084 0.0660207
0.04707375 0.058742907 -0.02247446 0.096436724 0.014441273 2.1401635e-37 0.042353876 0.015901024
-0.02774496 0.0049574836 0.052781403 0.08351642 -0.12349417 -0.06789419 -0.050177272 0.025978694
00000000: a9bd b73c 6962 143c 548d 65bd f9f5 d4bc
00000010: a0ba d93c ae12 8dbd cc06 733d fb84 6ebb
00000020: 2e1e 0cbd dff8 afbd 89d5 163c 276a aa3c
00000030: bebb 4dbd b68f 47bb ecd8 fd3d 5360 60bc
00000040: 938f d73d 0b92 74bd eb51 123d 1def 19bd
00000050: 9d71 5abc fbe2 8502 88ee 9f3d f421 623d
00000060: b6ce adbd db12 433d 7c45 f73d 8773 08bd
00000070: 7bff 9ebd c537 2f3e d37f 763d c48a ff3b
00000080: f138 75bd 11a3 62bd 637c cbbd 52ea 98bc
00000090: 48fd 513d aa2a e3bd 3cfa 73bc c49b 083d
000000a0: 942d f7bd 7701 293d afb2 1abb eb27 ea3c
000000b0: 2014 603d 3992 853d caa2 ca3c 66ae 21bd
000000c0: 0aae fd3d 1b9b c63d d3bc 7fbd 8e29 963d
000000d0: b03f e2bd d460 a082 9608 3fbe 19c7 803c
000000e0: 8e68 643c e079 2c3d c902 01be 403d e1bb
000000f0: cd43 dc3d 306c d3bd ebc6 57bd 4805 553d
00000100: fe92 95bb 5ba4 9bbd c18c ecbd 1708 1bbe
00000110: 9bff 3f3d 43f6 6dbd 601c a3bc 2a73 dabb
00000120: a970 9d3d d1cf c3bd d686 3f3a 0d05 fabd
00000130: 48b2 e5bd 3c88 88bb ef34 fb3c bcf1 2fbd
00000140: 485b 963d 2eac 47bd ca28 e5bd 98c0 c7bd
00000150: 1969 9abd 340c 8b82 fa0e 033d 4f03 9dbc
00000160: 5f7e 7cbd 503b 9abd 3821 e33c eb8a debc
00000170: 9d01 203d 66e0 5e3d fa6a c53c 4ef9 83bd
00000180: 92ab 4cbc c99b e43b 607a c23d ef3f e8bd
00000190: 56c1 bbbc 51db db3b 7508 0c3d cbfc 933b
000001a0: 018a d83d 1b7a bf3d 0cf5 43bd dfd2 e1bb
000001b0: b314 c43d c27d 49bd a7c0 c8bd d8f2 7fbd
000001c0: 2bc2 e63c 37ad e33d 61f2 fbba 5d83 20bd
000001d0: a5a6 2abd 33bd 8e02 a3fe f9bd 05bb 63ba
000001e0: d544 11be 85e5 a1bd 94a2 133e b30a 173d
000001f0: c723 85bd cc89 7c3d 3faf 803d dae0 0f3b
00000200: 1b40 8fbd 5046 5a3d 56b3 b3bd ef84 ecbc
00000210: 67fd 93bd 3a6c b43b a892 b73c eeda 1d3b
00000220: be40 debd a9f5 4f3c fa5d 07be 6553 843d
00000230: 21cb ca3d 0acc 9b3b 4b8b 753d 91cb 0a3e
00000240: 43ec c23d e2cc b73d 1d7b 23bd e710 4fbc
00000250: 17f2 3f3d ccf1 8c82 586b 983d 8499 98bd
00000260: 4fae a83c 7920 c93d b847 f4bd 1c58 00bd
00000270: 91e1 27bd 9e6f 19be 9bbe b9bd fb8f 0abe
00000280: c726 0a3a eb28 3bbd 7fbb 77bd efd1 a13b
00000290: 5054 21bc e16f dc3c 7008 023c d010 44ba
000002a0: 5640 19bd 2a29 b7bd c3d9 573d 299d 773b
000002b0: 8a32 103c 06c4 473c c2e4 01be 5e0b c1bc
000002c0: 7e78 633d c728 58bd 5145 993c deed 9c3b
000002d0: 21dc 06be 664d 8082 d87a e93d 3549 3e3d
000002e0: 1c1a b53c 4733 42bd 9103 91bd df6b 0fbe
000002f0: fec6 90bd c3b3 5b3d 4e65 123d 9fb2 1d3d
00000300: 247a d23d cec2 4bbd cc2b ff3d cde6 3a3d
00000310: 9936 bebd 0bb9 943d 1b96 04bd 01bf 00bc
00000320: d038 babd 5152 c53c 313b 28bd 0f6a 07be
00000330: 665e e7bd c28d 1fbd 03bb d5bd 09c4 2d3d
00000340: f172 9ebb 7fdf 303e 8879 af3d fdde 31bd
00000350: c5f6 94bc 473b 9a02 c06d 2a3e c2c3 163d
00000360: 0e0d 5dbc 470a 433e 39a1 1a3d 514a a0bd
00000370: f05d dc3d f8a8 a7bd da02 e23d 9363 5dbc
00000380: a9b8 a63d 2b16 acbd dcad f5bd 51d5 94bd
00000390: 40e9 d2bd 5169 163d 2a60 023d 2fdd f7bc
000003a0: b4c4 9cbd ea9c c73c a708 02be 7303 1bbe
000003b0: e947 cfbd 3548 823d 0643 903c dc35 873d
000003c0: 68d0 403d 679c 703d 5c1c b8bc 9e80 c53d
000003d0: 179b 6c3c e8a6 9102 427b 2d3d dd42 823c
000003e0: 6649 e3bc 6372 a23b 5031 583d a80a ab3d
000003f0: 83ea fcbd 1c0c 8bbd af86 4dbd 45d1 d43c

MLP.5.bias f4 [32]
-0.099870324 0.08510015 0.10503697 -0.093871966 0.08228425 0.1309403 -0.069995224 -0.0080184555
0.09244635 0.043129206 -0.015516138 0.051335882 0.11550383 -0.0365144 -0.13878332 -0.11498076
0.08203485 -0.107703984 0.10268526 -0.13024488 -0.13248226 -0.13758178 -0.01720559 0.0008541874
0.04616602 -0.11617669 0.10872791 0.09987858 0.031381134 -0.01097687 0.006335758 0.062118623
00000000: d088 ccbd fd48 ae3d 9f1d d73d f23f c0bd
00000010: a584 a83d 3715 063e a859 8fbd d75f 03bc
00000020: 8354 bd3d 40a8 303d 6637 7ebc 9345 523d
00000030: 468d ec3d 2090 15bd 371d 0ebe 087b ebbd
00000040: e301 a83d e893 dcbd a64c d23d ea5e 05be
00000050: 6ea9 07be 3de2 0cbe bdf2 8cbc 8ceb 5f3a
00000060: 9518 3d3d 0bee edbd bdac de3d 248d cc3d
00000070: 8189 003d 54d8 33bc 319c cf3b 1970 7e3d

MLP.6.weight f4 [32]
0.6233568 0.48431537 0.68101895 0.6950922 0.5087416 0.4643252 0.72548103 0.6928983
0.53007406 0.5855426 0.597444 0.38854298 0.5437154 0.63949174 0.45544884 0.38071197
0.6860672 0.71735364 0.49596432 0.47492048 0.63590324 0.6112055 0.65179336 0.46748087
0.67676336 0.66418815 0.5347511 0.665779 0.440346 0.47729918 0.38744533 0.4241257
00000000: 5094 1f3f 2ff8 f73e 4257 2e3f 90f1 313f
00000010: e43c 023f 08bc ed3e 20b9 393f c861 313f
00000020: efb2 073f 1fe6 153f 17f2 183f 1bef c63e
00000030: ef30 0b3f bbb5 233f 9730 e93e aeec c23e
00000040: 1aa2 2f3f 7da4 373f 09ef fd3e c728 f33e
00000050: 8eca 223f f777 1c3f eedb 263f a759 ef3e
00000060: 5d40 2d3f 3c08 2a3f 73e5 083f 7e70 2a3f
00000070: 0875 e13e 8f60 f43e 3c5f c63e 0127 d93e

MLP.6.bias f4 [32]
-0.017404623 -0.008388187 -0.0029423917 0.0129127195 -0.0012751434 0.011495781 0.003679589 -0.025664818
0.0017244471 0.015645098 0.029645398 -0.024943195 -0.010765381 0.008575239 -0.0036690722 0.009233371
-0.008516523 0.013660127 0.0055492334 5.4600965e-05 -0.006047699 0.018667273 -0.015130536 -0.012037813
0.010192636 -0.028148433 0.0057132877 0.009503935 -0.018036388 0.004882888 0.012278004 -1.2601341e-06
00000000: 2494 8ebc 9b6e 09bc 24d5 40bb df8f 533c
00000010: b622 a7ba cd58 3c3c 4225 713b 063f d2bc
00000020: d806 e23a 262a 803c e8da f23c ac55 ccbc
00000030: 4861 30bc 297f 0c3c d174 70bb 9147 173c
00000040: e388 0bbc bace 5f3c 58d6 b53b 5703 6538
00000050: c72b c6bb 1cec 983c 11e6 77bc 3f3a 45bc
00000060: 04ff 263c 8b97 e6bc 8836 bb3b 65b6 1b3c
00000070: 0cc1 93bc a200 a03b ae29 493c e121 a9b5

MLP.8.weight f4 [32, 32]
-0.078173675 -0.09074247 0.109281205 0.008559774 0.05141793 -0.028595772 -0.09826061 -0.038322665
-0.023567025 -0.05865504 0.051182214 -0.090743795 0.053278685 0.03982838 -0.110021286 -0.026105875
-0.07713938 0.03993686 -0.010452924 0.11679357 -0.07969315 0.078744255 -0.060264032 -0.02861193
0.016978309 -0.012753383 -0.11131675 -0.042025335 -0.081153765 -0.009950626 -0.07557978 -0.0067183506
0.13164522 0.09770109 0.09843092 0.085643955 -0.08780346 0.04596207 -0.015661981 -0.052845046
-0.034091614 -0.11308756 -0.058130268 -0.061951246 0.0016174864 0.051121604 0.12328164 0.07509519
0.0027185956 -0.09441303 0.043066993 -0.10114784 -0.040992964 -0.008190708 0.012209515 -0.032918748
0.08900777 0.047456495 -0.13216607 0.051962063 -0.017599301 0.07413934 -0.010367054 0.015621045
0.14132075 -0.009477844 0.14487025 -0.014090101 -0.0032620295 0.11724748 -0.07654953 -0.022560015
0.029878005 0.04984172 -0.04684561 0.032221768 0.0985921 0.05930733 0.005751535 0.062866755
-0.1050425 0.07888458 -0.07119152 -0.08009076 0.046390414 -0.0026552193 0.10327429 -0.097445056
-0.0075858408 -0.016917868 -0.07519195 0.061836794 0.10418754 -0.02369744 -0.026537877 -0.08124477
-0.13743187 -0.07000098 0.10775866 -0.11434 0.118773066 0.073075846 -0.099891596 -0.1651791
-0.10044583 -0.05954597 0.02813892 -0.12916386 0.06648284 0.03572422 -0.10483188 -0.004112741
-0.013289274 0.040172048 0.054669276 0.056963123 -0.1428402 0.06325236 -0.11309452 -0.09863255
-0.06507654 -0.14499597 0.1185544 -0.066945076 -0.11991947 0.003978549 0.075258955 0.04741851
0.029380722 -0.026801523 -0.0025618281 -0.04579691 -0.035775032 -0.0544122 -0.04097389 0.040526435
-0.00021623894 0.025722343 -0.022032958 0.03252298 0.053237036 0.026023507 0.018129969 0.015057316
-0.06951919 0.0466416 0.021990461 -0.04011627 0.028157074 -0.02458134 0.0015297196 -0.014097415
0.002022689 -0.0022496167 0.0054605347 0.0350229 -0.035263043 0.010776373 -0.0068345945 -0.026936408
0.039941248 -0.14246781 -0.10020167 0.07524742 -0.06621944 0.09264686 0.13049716 -0.05958301
0.11675998 -0.036052585 0.08837712 -0.017109085 -0.05205141 -0.013202188 0.042628273 -0.06494032
-0.08673883 -0.04471153 -0.028221028 -0.10605605 0.03624837 0.08367067 -0.14667775 0.085081436
-0.024937104 0.031821743 -0.09655487 0.09745879 -0.012686456 0.01459772 0.013243708 -0.018321343
-0.022182673 0.16375 -0.07710288 0.019001585 -0.00803642 0.01779295 -0.16398038 0.04986991
-0.10528136 0.12150635 0.06634969 -0.014271521 -0.123184316 0.037674204 0.063015886 -0.049915865
0.09072049 0.032731224 0.09003988 0.012110405 0.030728212 -0.14149037 -0.1520669 0.034406953
-0.03767013 0.016828062 -0.010246878 -0.1478097 0.0029394706 0.020438736 -0.045181412 -0.03154806
0.0386033 0.026577456 -0.0039285123 -0.108230874 0.04766589 0.096076675 -0.07927763 -0.04026737
-0.026273362 0.06638251 -0.007132793 0.094245635 -0.02970499 -0.043294195 -0.038853273 0.044562217
-0.12527056 0.0026982538 -0.007004822 0.009657588 0.0018071296 0.08246172 0.1249859 0.03285656
0.008358292 0.11887041 -0.022264533 -0.0088274935 0.022219988 -0.020645957 -0.06215361 -0.01935472
00000000: 8519 a0bd 30d7 b9bd d3ce df3d 4b3e 0c3c
00000010: 9b9b 523d ae41 eabc dc3c c9bd 3af8 1cbd
00000020: a20f c1bc 4440 70bd 71a4 513d e2d7 b9bd
00000030: c03a 5a3d 1523 233d d752 e1bd fddb d5bc
00000040: 40fb 9dbd d594 233d be42 2bbc 7831 ef3d
00000050: 2a36 a3bd ab44 a13d 6bd7 76bd 9163 eabc
00000060: 1816 8b3c 91f3 50bc 09fa e3bd c222 2cbd
00000070: f233 a6bd f307 23bc 92c9 9abd 9c25 dcbb
00000080: 01ce 063e 8217 c83d 2696 c93d 1966 af3d
00000090: 4dd2 b3bd b942 3c3d 8e4d 80bc 0c74 58bd
000000a0: a6a3 0bbd 739a e7bd 011a 6ebd 97c0 7dbd
000000b0: d601 d43a e364 513d 167b fc3d 82cb 993d
000000c0: 772a 323b 9e5b c1bd 0467 303d 9926 cfbd
000000d0: 3de8 27bd 5232 06bc 6b0a 483c cfd5 06bd
000000e0: b549 b63d be61 423d 8b56 07be 2cd6 543d
000000f0: 692c 90bc 5ed6 973d 93da 29bc 69ef 7f3c
00000100: 63b6 103e f648 1bbc de58 143e 2bda 66bc
00000110: c6c7 55bb 721f f03d 00c6 9cbd c8cf b8bc
00000120: b8c2 f43c d526 4c3d 2fe1 3fbd f9fa 033d
00000130: a8ea c93d 3eec 723d 5f77 bc3b 49c0 803d
00000140: 8620 d7bd 3d8e a13d dccc 91bd a006 a4bd
00000150: e003 3e3d 3003 2ebb 7981 d33d 4691 c7bd
00000160: a592 f8bb 5797 8abc 3dfe 99bd 9448 7d3d
00000170: 4760 d53d 2221 c2bc f665 d9bc a863 a6bd
00000180: f1ba 0cbe ac5c 8fbd 93b0 dc3d 172b eabd
00000190: 4b3f f33d caa8 953d f793 ccbd b624 29be
000001a0: 8bb6 cdbd 7ae6 73bd 9883 e63c 8843 04be
000001b0: 2828 883d 8f53 123d 19b2 d6bd 2cc4 86bb
000001c0: 41bb 59bc 728b 243d e4ec 5f3d 2a52 693d
000001d0: b444 12be 748a 813d 1a9e e7bd ddff c9bd
000001e0: d946 85bd d379 14be a6cc f23d 801a 89bd
000001f0: 5798 f5bd 7d5e 823b 5e21 9a3d e939 423d
00000200: d7af f03c de8e dbbc 58e4 27bb 8a95 3bbd
00000210: d788 12bd 54df 5ebd 3dd4 27bd 0cff 253d
00000220: 33be 62b9 aab7 d23c 767e b4bc d136 053d
00000230: 140f 5a3d 402f d53c 4d85 943c f6b2 763c
00000240: 1460 8ebd 430b 3f3d 5725 b43c f550 24bd
00000250: aaa9 e63c ce5e c9bc df80 c83a d8f8 66bc
00000260: 178f 043b 4e6e 13bb 49ee b23b 2c74 0f3d
00000270: fb6f 10bd 628f 303c bcf4 dfbb bea9 dcbc
00000280: 6f99 233d 15e3 11be 8836 cdbd 521b 9a3d
00000290: 0f9e 87bd a3bd bd3d 0ca1 053e 500d 74bd
000002a0: db1f ef3d e0ab 13bd 10ff b43d 5a28 8cbc
000002b0: dc33 55bd fd4d 58bc fc9a 2e3d 6eff 84bd
000002c0: 21a4 b1bd 7023 37bd c92f e7bc ea33 d9bd
000002d0: 2c79 143d 875b ab3d b132 16be 2d3f ae3d
000002e0: e648 ccbc 8457 023d 8fbe c5bd 7998 c73d
000002f0: dada 4fbc 462b 6f3c 23fc 583c a416 96bc
00000300: 70b8 b5bc 14ae 273e 1de8 9dbd 36a9 9b3c
00000310: 30ab 03bc 85c2 913c 79ea 27be 6444 4c3d
00000320: c19d d7bd 52d8 f83d 59e2 873d 19d3 69bc
00000330: 0f48 fcbd 4450 1a3d 790e 813d 9474 4cbd
00000340: aacb b93d 2d11 063d d466 b83d b86a 463c
00000350: bbb9 fb3c dae2 10be 6db7 1bbe 4eee 0c3d
00000360: ff4b 1abd 01db 893c 85e2 27bc 6d5b 17be
00000370: 22a4 403b 236f a73c 2510 39bd 8a38 01bd
00000380: 7e1e 1e3d f7b8 d93c c0ba 80bb 26a8 ddbd
00000390: 4f3d 433d d9c3 c43d 4f5c a2bd 66ef 24bd
000003a0: 3c3b d7bc 8ef3 873d 34ba e9bb db03 c13d
000003b0: e157 f3bc 4155 31bd 9c24 1fbd df86 363d
000003c0: ed46 00be 30d5 303b b588 e5bb dc3a 1e3c
000003d0: 35dd ec3a b1e1 a83d 9cf8 ff3d 9a94 063d
000003e0: 38f1 083c 5472 f33d 1c64 b6bc 31a1 10bc
000003f0: b106 b63c b621 a9bc c994 7ebd ca8d 9ebc

MLP.8.bias f4 [32]
0.022107793 0.118759714 0.05120042 -0.11457313 0.035520498 0.00087746774 -0.04256074 -0.07021931
-0.13641308 0.006121751 -0.013792359 0.1479097 0.0065894322 -0.0012259602 0.042345557 -0.019039236
0.08317712 -0.13049078 0.13590367 0.08683216 0.053030685 -0.1050945 -0.01678905 0.025324112
0.0078574065 0.12752719 -0.016585754 -0.009396324 0.055548783 0.00615105 -0.0322003 0.1508202
00000000: 671b b53c 4b38 f33d 88b7 513d 51a5 eabd
00000010: f17d 113d dd05 663a 2c54 2ebd 24cf 8fbd
00000020: dfaf 0bbe f898 c83b 59f9 61bc a475 173e
00000030: 2aec d73b 66b0 a0ba 8972 2d3d 2cf8 9bbc
00000040: c458 aa3d 609f 05be 552a 0b3e 0fd5 b13d
00000050: b436 593d c93b d7bd 3189 89bc 8374 cf3c
00000060: 5abc 003c 7d96 023e d9de 87bc 0af3 19bc
00000070: 1f87 633d bf8e c93b 76e4 03bd 9c70 1a3e

MLP.10.weight f4 [32, 32]
-0.06221825 -0.059071478 -0.08617843 -0.052443493 -0.007941023 0.05807904 -0.047390282 0.0151452385
0.036412053 -0.03590767 -0.10415677 -0.05951415 0.0071156025 0.074565805 -0.016731374 0.0011057502
0.02238755 0.077008456 -0.012907144 0.05240275 0.02328746 0.12982954 -0.030178918 -0.021540822
0.030865185 -0.046436466 -0.011298625 -0.0016370384 -0.07172582 0.11038208 -0.004337992 0.015409386
0.06387632 -0.0027668946 -0.000425323 0.01508282 0.021696832 -0.0046909987 -0.0005813568 -0.016535677
0.013813569 0.0154041005 0.036061343 -0.107627586 0.026385248 -0.05067795 0.018782929 0.0013521527
0.034231454 0.02312715 0.1102066 -0.12996906 0.020754088 -0.09798679 0.0010212227 0.062003564
-0.092065744 0.098033294 -0.007789124 0.010329869 0.07450094 -0.11135566 -0.019104604 0.09947263
-0.039834198 -0.027120413 -0.095020466 -0.0066190804 0.027357245 0.057504017 0.15185466 0.024965877
-0.007599057 0.0592265 0.018534457 0.12038434 0.1435958 0.0315928 0.0038954136 0.010208463
-0.007640851 0.09147028 -0.050548512 0.10255223 -0.06541691 0.055404272 -0.046944413 -0.05249416
-0.12318232 -0.16278629 -0.010748967 0.003417572 0.066355914 0.063624375 -0.03452623 -0.1654919
0.018621063 0.1579591 -0.107067645 -0.10888111 -0.020630267 0.15150079 0.024624484 -0.053665645
-0.11440715 -0.052495636 -0.105803356 0.105095975 0.12920679 0.14990757 0.06872654 0.010548038
0.082815506 0.08723506 0.08198867 -0.14573212 -0.0117045 0.007861798 -0.0034366725 -0.12300215
0.025907774 0.12870225 -0.039117962 -0.0011156187 -0.023297505 -0.040496558 0.03016589 0.07213351
0.07890791 -0.07790536 0.13074185 0.071326725 0.0054838657 -0.035900403 0.108153 -0.068466164
0.037624292 0.044123143 -0.12310751 0.045791067 -0.07526312 -0.1640694 -0.06448513 0.0015904033
-0.048938908 0.009030038 0.1280415 0.106274866 -0.027698869 -0.1131411 0.05289468 -0.11223767
-0.033510946 0.017019486 0.003204872 0.012477135 0.04682191 -0.105117016 0.005159904 -0.12797618
0.04116176 -0.096901245 -0.06875662 0.008725917 0.0139339855 0.032615665 -0.06826362 -0.036002737
-0.13953124 -0.0638016 0.04323232 0.16408476 0.06857091 -0.15588632 -0.10376123 -0.0029027779
0.01882895 0.07675948 0.09176886 0.15155715 -0.014008662 0.07912484 0.03168575 0.07607641
-0.051137187 0.015615439 -0.035511952 0.017249536 -0.016035985 -0.03502395 -0.046101466 0.15546322
0.0397935 0.12272226 -0.08444903 -0.12104615 -0.054909356 -0.12964468 -0.047989745 -0.054012693
-0.07787612 0.12625778 -0.0111221615 0.05582738 0.08871076 -0.041347496 -0.050231244 -0.027032176
0.04216206 0.074543916 0.03822575 0.041327186 -0.03322969 -0.015590853 -0.009026427 -0.088059075
0.025880124 0.085703276 0.013308443 -0.034219384 -0.07079488 0.043759536 0.02882533 0.0058248965
-0.046373475 0.04983288 -0.0074760783 -0.11755733 -0.043350726 0.027964886 -0.11757466 0.003138877
0.070344 -0.06378785 0.11770478 -0.016597193 0.030304214 -0.013029795 0.044276427 0.022547
0.07152332 -0.10117904 -0.0023620005 0.11904169 0.028634485 -0.12711701 -0.012777271 -0.10084388
-0.10494401 0.05034095 -0.008856431 -0.0037085197 0.063235 0.08796672 -0.012491023 0.14431444
00000000: 90d8 7ebd eff4 71bd 517e b0bd fdce 56bd
00000010: 111b 02bc 4ae4 6d3d 501c 42bd bc23 783c
00000020: ce24 153d ec13 13bd 2550 d5bd 1cc5 73bd
00000030: 002a e93b f5b5 983d 3c10 89bc d2ee 903a
00000040: 1866 b73c 9cb6 9d3d 7c78 53bc 44a4 563d
00000050: 58c5 be3c 09f2 043e c739 f7bc 6176 b0bc
00000060: fcd8 fc3c 2a34 3ebd de1d 39bc e591 d6ba
00000070: fde4 92bd 0010 e23d b725 8ebb a677 7c3c
00000080: 97d1 823d ca54 35bb e3fd deb9 ef1d 773c
00000090: 8ebd b13c f3b6 99bb 3266 18ba d475 87bc
000000a0: 4f52 623c 7b61 7c3c 0fb5 133d da6b dcbd
000000b0: e025 d83c af93 4fbd a8de 993c b73a b13a
000000c0: 4836 0c3d 2675 bd3c ffb3 e13d 9c16 05be
000000d0: 7a04 aa3c 4cad c8bd 8cda 853a 73f7 7d3d
000000e0: f78c bcbd aec5 c83d e83b ffbb 9c3e 293c
000000f0: f393 983d 700e e4bd 4281 9cbc 4eb8 cb3d
00000100: 2f29 23bd a12b debc 179a c2bd dfe4 d8bb
00000110: 4d1c e03c 5589 6b3d ca7f 1b3e 3d85 cc3c
00000120: 8301 f9bb 7d97 723d 93d5 973c 118c f63d
00000130: c70a 133e 7467 013d 324a 7f3b 6641 273c
00000140: 1b60 fabb c554 bb3d f50b 4fbd e706 d23d
00000150: 4df9 85bd 97ef 623d c948 40bd 1e04 57bd
00000160: 0347 fcbd 73b1 26be 6f1c 30bc 58f9 5f3b
00000170: 9ce5 873d 7f4d 823d 606b 0dbd b576 29be
00000180: 338b 983c 08c0 213e 4846 dbbd 0ffd debd
00000190: ce00 a9bc 0623 1b3e 49b9 c93c 82d0 5bbd
000001a0: 4c4e eabd aa05 57bd 6eaf d8bd 8f3c d73d
000001b0: c94e 043e 5f81 193e 80c0 8c3d aed1 2c3c
000001c0: 2d9b a93d 4ca8 b23d ade9 a73d cd3a 15be
000001d0: 3bc4 3fbc c5ce 003c cc39 61bb 8de8 fbbd
000001e0: 8a3c d43c 86ca 033e 283a 20bd f439 92ba
000001f0: 69da bebc b8df 25bd 751e f73c bcba 933d
00000200: 789a a13d d88c 9fbd 31e1 053e bf13 923d
00000210: 00b2 b33b 4d0c 13bd 527f dd3d fd37 8cbd
00000220: ee1b 1a3d 78ba 343d ca1f fcbd 6a8f 3b3d
00000230: 8d23 9abd cf01 28be c810 84bd 1475 d03a
00000240: 2a74 48bd b9f2 133c 501d 033e a3a6 d93d
00000250: bde8 e2bc 85b6 e7bd 18a8 583d dddc e5bd
00000260: c642 09bd 736c 8b3c d408 523b e66c 4c3c
00000270: 55c8 3f3d 9747 d7bd 6914 a93b 300c 03be
00000280: 3c99 283d 2974 c6bd 45d0 8cbd 26f7 0e3c
00000290: 5f4b 643c 0198 053d cccd 8bbd 9b77 13bd
000002a0: 47e1 0ebe 6aaa 82bd 6014 313d d605 283e
000002b0: e86e 8c3d aaa0 1fbe c580 d4bd 883c 3ebb
000002c0: 2c3f 9a3c 1334 9d3d 50f1 bb3d cc31 1b3e
000002d0: 9684 65bc 340c a23d ebc8 013d f3cd 9b3d
000002e0: 3a75 51bd e6d7 7f3c fb74 11bd e64e 8d3c
000002f0: e65d 83bc 4675 0fbd e4d4 3cbd c031 1f3e
00000300: 82fe 223d cf55 fb3d 9df3 acbd 0be7 f7bd
00000310: a2e8 60bd 93c1 04be e590 44bd 6a3c 5dbd
00000320: 847d 9fbd b849 013e ba39 36bc 40ab 643d
00000330: fdad b53d fe5b 29bd 47bf 4dbd 9572 ddbc
00000340: 20b2 2c3d 7baa 983d 9b92 1c3d b246 293d
00000350: db1b 08bd c770 7fbc 94e3 13bc 5158 b4bd
00000360: 8e02 d43c 3385 af3d a80b 5a3c a029 0cbd
00000370: e8fc 90bd 333d 333d 1923 ec3c c6de be3b
00000380: 1df2 3dbd 901d 4c3d e4f9 f4bb e6c1 f0bd
00000390: 8890 31bd 9e16 e53c fcca f0bd 9eb5 4d3b
000003a0: 8410 903d 34a3 82bd 340f f13d d6f6 87bc
000003b0: 8b40 f83c ec7a 55bc 335b 353d 7cb4 b83c
000003c0: d27a 923d f536 cfbd cbcb 1abb 21cc f33d
000003d0: de92 ea3c f62a 02be c257 51bc 3c87 cebd
000003e0: e3ec d6bd 5032 4e3d 901a 11bc a30a 73bb
000003f0: 5a81 813d e527 b43d 26a7 4cbc 2ac7 133e

MLP.10.bias f4 [32]
0.13493973 -0.12909634 0.07438426 -0.016073668 0.056504708 -0.0769229 0.11089828 -0.11144973
-0.052989308 -0.084882595 0.14574255 -0.12631272 0.09518116 0.10051031 -0.0070655094 0.07779675
-0.11497071 0.15319292 -0.1485276 0.04461382 0.08317546 -0.06895863 0.005686823 0.007524267
0.1407445 -0.08873137 -0.05629815 0.088475145 0.076939635 0.013608595 0.07748606 -0.07386133
00000000: a42d 0a3e d531 04be c656 983d edac 83bc
00000010: 7b71 673d c189 9dbd a31e e33d c23f e4bd
00000020: 510b 59bd edd6 adbd 893d 153e 1f58 01be
00000030: 57ee c23d 59d8 cd3d ca85 e7bb e753 9f3d
00000040: c375 ebbd 9bde 1c3e 9f17 18be fbbc 363d
00000050: e557 aa3d 2f3a 8dbd 8758 ba3b 208e f63b
00000060: 541f 103e cbb8 b5bd e498 66bd 7532 b53d
00000070: 8792 9d3d 96f6 5e3c 03b1 9e3d 9c44 97bd

MLP.11.weight f4 [32]
0.81578803 0.72113794 0.77372783 0.7477416 0.8385858 0.84111845 0.8438813 0.7795486
0.7720107 0.7744818 0.8151653 0.71549773 0.66489273 0.5931509 0.76438713 0.83607423
0.58862406 0.5265444 0.6634866 0.77648836 0.8048222 0.77429324 0.7052521 0.7897816
0.60707474 0.67134994 0.68590415 0.639527 0.75879437 0.7763446 0.81211376 0.6775182
00000000: 7cd7 503f 7f9c 383f 0713 463f fe6b 3f3f
00000010: 8fad 563f 8a53 573f 9b08 583f 7f90 473f
00000020: 7ea2 453f 7044 463f acae 503f dc2a 373f
00000030: 6936 2a3f bdd8 173f e0ae 433f f608 563f
00000040: 11b0 163f 9dcb 063f 42da 293f f1c7 463f
00000050: d408 4e3f 1538 463f 678b 343f 202f 4a3f
00000060: 4069 1b3f 97dd 2b3f 6a97 2f3f 0bb8 233f
00000070: 5940 423f 85be 463f b0e6 4f3f d571 2d3f

MLP.11.bias f4 [32]
0.0027604762 0.016004466 0.0012020259 0.004086932 -0.0028630844 -0.0033727533 0.014324257 -0.01037965
0.005583898 0.004844346 0.01302985 0.0096123945 0.009984536 -0.013925587 -0.005529051 0.00549589
0.002096997 -0.012221459 -0.008415586 0.00035899432 0.0068540457 0.004073854 0.0051713604 0.005685087
0.036095228 0.018120605 0.004901753 -0.0058997055 0.00034571602 0.0061368886 0.0129910605 0.017866788
00000000: 1be9 343b cc1b 833c 4c8d 9d3a aceb 853b
00000010: 96a2 3bbb 6909 5dbb 4ab0 6a3c 680f 2abc
00000020: 22f9 b63b 52bd 9e3b 277b 553c 4e7d 1d3c
00000030: 2e96 233c 2528 64bc 0b2d b5bb de16 b43b
00000040: c66d 093b 843c 48bc 87e1 09bc 6737 bc39
00000050: e797 e03b f77d 853b 8474 a93b f749 ba3b
00000060: 97d8 133d aa71 943c e29e a03b 5152 c1bb
00000070: 3841 b539 f417 c93b 75d8 543c 5f5d 923c

MLP.13.weight f4 [4, 32]
-0.006675168 -0.13179521 -0.03443829 -0.112078026 -0.120458275 -0.12518151 -0.13632555 0.03356935
0.081297874 -0.14916648 0.024080368 0.0015672835 -0.017450247 0.0043236986 0.0659905 0.14966495
0.05999772 0.018540774 0.016874908 0.018821126 0.13952766 -0.044827484 -0.08352014 0.124085195
-0.008449317 0.0021889915 -0.06911709 0.011689515 -0.12881692 -0.15381825 0.16581237 0.089141
0.013782114 0.00083285273 0.007915006 -0.048167355 0.04446912 0.017790431 0.009160179 0.005449339
0.06371725 -0.014122689 0.020779105 -0.0073305303 -0.013764943 0.043038532 -0.046951175 0.02745447
-0.034379624 0.020544318 -0.012034823 0.021789173 0.015967006 -0.0351263 -0.043803357 -0.07797299
0.0070347544 -0.05987188 -0.021883912 0.036530267 0.02443073 -0.046082664 -0.0020114502 -0.053651314
-0.012657085 0.004826941 0.16525316 0.08723001 0.06540516 0.13229497 -0.102840364 -0.11532839
-0.051522337 -0.06550725 -0.08601792 -0.10145157 0.10532473 0.050687335 0.118774734 -0.10725042
-0.05203515 -0.04985141 0.07323999 -0.11115555 -0.04609214 -0.10144899 -0.057729203 0.047123924
-0.104439415 -0.046993393 -0.03680256 0.08156988 -0.01848367 -0.017340822 0.03609254 -0.037078466
0.13036887 -0.013510181 -0.012569458 0.026406914 -0.11554082 0.1165158 -0.064782806 0.08688038
0.03056248 -0.018943826 0.10784755 0.07711263 -0.017593 -0.022834795 -0.014880513 -0.06486351
0.021992138 0.055922415 0.035413776 0.06123058 -0.1110946 -0.033791065 -0.0020231542 0.06967972
-0.062374905 -0.059309788 0.05980981 -0.047183048 -0.032874864 -0.030828718 -0.06838251 0.017052623
00000000: 5ebb dabb 53f5 06be 2a0f 0dbd 2a89 e5bd
00000010: d4b2 f6bd 952f 00be ed98 0bbe 0480 093d
00000020: 807f a63d 19bf 18be 3144 c53c 4f6d cd3a
00000030: d2f3 8ebc d0ad 8d3b 0726 873d c541 193e
00000040: 2bc0 753d d2e2 973c 3f3d 8a3c c32e 9a3c
00000050: 57e0 0e3e 069d 37bd 9b0c abbd 6120 fe3d
00000060: 016f 0abc 2f75 0f3b 438d 8dbd 6185 3f3c
00000070: 95e8 03be 8882 1dbe b8ca 293e 8e8f b63d
00000080: 60ce 613c cd53 5a3a f1ad 013c 224b 45bd
00000090: 4125 363d 3dbd 913c 9314 163c 5e90 b23b
000000a0: 317e 823d da62 67bc f138 aa3c f234 f0bb
000000b0: 5b86 61bc 2c49 303d e04f 40bd 32e8 e03c
000000c0: a6d1 0cbd 8f4c a83c b52d 45bc 357f b23c
000000d0: 3dcd 823c 98e0 0fbd 266b 33bd 4eb0 9fbd
000000e0: cc83 e63b 373c 75bd e445 b3bc c3a0 153d
000000f0: f422 c83c 2dc1 3cbd 89d2 03bb 7bc1 5bbd
00000100: aa5f 4fbc 512b 9e3b 2038 293e a6a5 b23d
00000110: 24f3 853d 5578 073e f89d d2bd 4a31 ecbd
00000120: 1609 53bd aa28 86bd 2a2a b0bd d7c5 cfbd
00000130: 7eb4 d73d 869d 4f3d 2b40 f33d 1ca6 dbbd
00000140: cf22 55bd fe30 4cbd d9fe 953d 85a5 e3bd
00000150: 1dcb 3cbd 7dc4 cfbd 7575 6cbd 0405 413d
00000160: 55e4 d5bd 257c 40bd 48be 16bd 1c0e a73d
00000170: 116b 97bc 570e 8ebc c5d5 133d 97df 17bd
00000180: 6b7f 053e ce59 5dbc 21f0 4dbc 5053 d83c
00000190: aaa0 ecbd d69f ee3d d9ac 84bd 57ee b13d
000001a0: 2b5e fa3c 1530 9bbc 2ddf dc3d 3aed 9d3d
000001b0: 321f 90bc 0910 bbbc 65cd 73bc 29d7 84bd
000001c0: db28 b43c e70e 653d 090e 113d ebcc 7a3d
000001d0: 9185 e3bd 8068 0abd e596 04bb 3eb4 8e3d
000001e0: d47c 7fbd d2ee 72bd 22fb 743d 0343 41bd
000001f0: cba7 06bd 828c fcbc 210c 8cbd f1b1 8b3c

MLP.13.bias f4 [4]
-0.1323891 -0.004311122 0.094847545 0.11945241
00000000: 0291 07be 5044 8dbb 6e3f c23d 77a3 f43d
