example/model/diff_robot_default/model_3500.pth (torch, 24610 bytes, 18 tensors)

MLP.0.weight f4 [32, 2]
0.3671611 -0.2790792 0.2983804 0.43795556 -0.047336854 0.36511397 -0.103544556 0.18783875
0.3501093 0.594669 0.21135671 0.22776994 -0.3527729 -0.46782798 -0.52732176 0.17007743
0.45847592 -0.1797088 0.1021547 0.3356772 -0.31784487 0.4903367 0.47354642 -0.45547116
-0.1675188 0.5336182 -0.07152873 0.42799377 0.55823654 0.15623723 -0.12183994 0.45975298
0.14939022 0.32475096 -0.0140896095 0.12555945 -0.029320324 0.44669017 -0.18466498 -0.015512476
0.27873605 -0.03828826 -0.033595607 -0.41377234 -0.46453834 0.43388978 -0.39849353 0.06751908
-0.44035712 0.10440051 -0.031224668 -0.09906314 -0.25431696 0.07864535 0.23730603 -0.40439856
-0.64711577 -0.20697641 -0.11612134 0.038424496 -0.027537044 0.078221865 -0.45170924 0.07003129
00000000: 8afc bb3e 78e3 8ebe 51c5 983e b63b e03e
00000010: 4ae4 41bd 38f0 ba3e 2b0f d4bd cd58 403e
00000020: 8741 b33e 3a3c 183f e56d 583e 863c 693e
00000030: a69e b4be 2687 efbe 8ffe 06bf c728 2e3e
00000040: 5bbd ea3e 9505 38be 7c36 d13d e2dd ab3e
00000050: 90bc a2be 690d fb3e ad74 f23e 8433 e9be
00000060: 0c8a 2bbe 349b 083f a87d 92bd 0022 db3e
00000070: 97e8 0e3f a7fc 1f3e 3887 f9bd be64 eb3e
00000080: c0f9 183e c245 a63e 1bd8 66bc a892 003e
00000090: 2d31 f0bc 93b4 e43e d118 3dbe 0a28 7ebc
000000a0: 7eb6 8e3e 27d4 1cbd 8c9b 09bd f8d9 d3be
000000b0: f8d7 edbe cd26 de3e 5807 ccbe 7247 8a3d
000000c0: 7d76 e1be efcf d53d e0ca ffbc 9ee1 cabd
000000d0: d535 82be d010 a13d 5a00 733e 540d cfbe
000000e0: 61a9 25bf a0f1 53be 06d1 edbd 0163 1d3d
000000f0: 5e95 e1bc c932 a03d 6f46 e7be 916c 8f3d

MLP.0.bias f4 [32]
0.06755244 0.0356388 0.3455434 -0.10975854 0.00031851098 -0.19259341 -0.077689864 0.33352846
0.028723564 -0.058948454 0.28411734 -0.11154663 -0.3505672 0.15520276 -0.2308544 0.21537247
-0.047288656 -0.23208296 0.037662685 0.28375006 0.22498155 0.098012 -0.16456696 0.0074561466
-0.16042891 0.04203256 -0.11311636 0.16697374 -0.15876405 -0.35240096 0.015974468 -0.2650831
00000000: ef58 8a3d fef9 113d 11eb b03e 16c9 e0bd
00000010: d2fd a639 3537 45be dd1b 9fbd 3ec4 aa3e
00000020: ae4d eb3c ef73 71bd d477 913e 8f72 e4bd
00000030: 8b7d b3be 79ed 1e3e 1965 6cbe 9a8a 5c3e
00000040: c0b1 41bd 28a7 6dbe 3044 1a3d b047 913e
00000050: 9061 663e 84ba c83d 3e84 28be b152 f43b
00000060: 7a47 24be 552a 2c3d 8da9 e7bd 2afb 2a3e
00000070: 0b93 22be e66d b4be e3dc 823c f9b8 87be

MLP.1.weight f4 [32]
0.56682885 0.6740347 0.63694686 0.38519207 0.6201347 0.6606792 0.5805777 0.7798957
0.5381618 0.668072 0.78497154 0.6394949 0.7656033 0.5915034 0.7883018 0.6879087
0.5282879 0.28114182 0.4928852 0.66086334 0.54814506 0.67477316 0.7001803 0.44442013
0.7367448 0.4042779 0.49773452 0.5998077 0.7073197 0.5413067 0.0016948525 0.680256
00000000: b21b 113f 8a8d 2c3f f30e 233f e537 c53e
00000010: 26c1 1e3f 4622 293f bda0 143f 3fa7 473f
00000020: f9c4 093f c406 2b3f e5f3 483f f0b5 233f
00000030: 94fe 433f c46c 173f 26ce 493f c91a 303f
00000040: e03d 073f d2f1 8f3e 735b fc3e 572e 293f
00000050: 3c53 0c3f efbd 2c3f 043f 333f 098b e33e
00000060: 4f9b 3c3f 83fd ce3e 0fd7 fe3e ff8c 193f
00000070: e712 353f 1393 0a3f d025 de3a 4225 2e3f

MLP.1.bias f4 [32]
0.019964103 0.0019128997 0.019577505 -0.022916662 0.007104584 -0.010722474 0.013226545 -0.029196866
0.023379974 -0.016301727 0.023749873 0.022846777 -0.02531104 -0.006824099 -0.03751204 -0.036283165
0.007852437 0.0019464956 0.0070968783 0.013762699 0.04823018 -0.0028247125 0.013324794 0.020165375
-0.01145591 -0.028793603 -0.01624455 0.030569913 0.013247518 0.01691346 0.0354261 -0.03928932
00000000: c28b a33c 43ba fa3a 0161 a03c b9bb bbbc
00000010: 92cd e83b 51ad 2fbc 27b4 583c 442e efbc
00000020: 5c87 bf3c 338b 85bc 188f c23c 2a29 bb3c
00000030: 1959 cfbc b19c dfbb 3aa6 19bd a89d 14bd
00000040: 82a7 003c 8e21 ff3a ee8c e83b f27c 613c
00000050: 028d 453d d01e 39bb 3d50 5a3c db31 a53c
00000060: 92b1 3bbc 90e0 ebbc 4a13 85bc c16d fa3c
00000070: 1e0c 593c 198e 8a3c f51a 113d d7ed 20bd

MLP.3.weight f4 [32, 32]
-0.07940355 0.036958955 -0.09719105 0.020165874 -0.026800752 -0.037198685 -0.1563236 0.061418068
0.045069702 -0.066724196 0.07363762 0.04607282 -0.047989126 0.036605194 0.030874178 0.110790364
-0.020658514 -0.0039034802 0.03231537 0.038998775 -0.07815544 -0.0718346 -0.013374593 0.024705246
-0.057634942 0.009584455 0.047074273 -0.05836224 0.104478255 -0.031383164 -0.0029330042 -0.068442635
-0.007415805 0.06672722 -0.053127963 0.0150313405 -0.019211281 -0.07264527 0.030390909 0.029723313
0.10715669 -0.016043043 0.0549123 -0.06855429 -0.0009960813 -0.029069165 -0.09656932 0.026460052
0.039686427 0.010384421 0.010487644 -0.079376414 -0.058499593 0.13657212 0.013701798 -0.10362529
-0.11337289 0.087474816 -0.022404745 -0.06012027 -0.13410856 -0.017249584 -0.005509808 0.027003968
0.11545637 -0.011455034 -0.010033001 0.09141088 0.10267787 0.03128884 0.01860145 -0.016256226
-0.061864838 -0.053226035 -0.038262874 0.050459955 0.15215327 0.10794489 -0.12045935 -0.09031252
0.03168493 0.041196603 0.016392572 0.01914903 -0.013869737 0.13511048 0.061964717 0.07077517
0.07229182 0.101597 0.09108901 0.06996953 0.0753019 0.110681124 0.0045355065 0.16689347
0.046873655 0.05716225 -0.026597537 -0.048707638 0.067474276 0.09236752 -0.044172198 -0.16804732
0.09107277 -0.004824221 0.15984707 0.0272097 -0.12699269 -0.032586284 0.12441251 0.054781128
0.07697428 -0.036023263 -0.10831511 -0.052774213 0.044768915 -0.1502364 -0.04364741 0.0045351423
-0.15648341 -0.092781335 -0.036755532 0.10544356 0.091034114 -0.048946604 0.011164296 -0.06804865
0.041411836 0.07212818 -0.048896153 0.031142585 -0.06519978 -0.08495869 -0.11410653 -0.09166523
0.017953247 -0.07937778 0.0005520077 0.054604854 0.14604877 0.111264825 -0.08270645 -0.043270815
-0.00029253605 0.02976539 -0.021759486 -0.11958819 -0.09992129 0.034148254 -0.031078337 0.0007934558
0.14733028 0.10228262 0.08344477 -0.10733089 -0.08558066 0.0775201 -0.01206766 0.048181884
-0.08449927 -0.0971958 -0.13642119 0.089238845 -0.023786176 0.060973443 -0.12607719 0.13944237
-0.002650085 -0.0069231256 -0.08751912 0.057675686 0.09318005 -0.11759633 -0.140239 -0.032890998
-0.013829032 -0.0009888639 0.15349087 -0.083864324 0.01861049 -0.098514356 -0.018919319 0.030379951
-0.03294813 0.031012964 -0.02234527 0.028852195 0.12158732 -0.046948623 -0.03303498 0.10621457
0.0410191 -0.06131683 0.11428599 -0.010989982 -0.016273223 -0.030633008 -0.038522348 -0.008130661
-0.08090833 0.012738436 -0.005926262 -0.06174545 0.010039416 0.10532604 0.0029967641 0.0705536
-0.03892203 -0.03132743 0.06356412 0.048075728 0.04631879 0.038244225 0.012678639 -0.014484449
-0.055345923 0.02279619 -0.049490105 -0.022056608 0.00964348 -0.08174116 0.002764487 -0.020974668
-0.023391472 -0.034735523 -0.07982243 -0.0028124135 0.11359933 0.08027778 0.0128770135 -0.0020939193
-0.026944857 0.031543076 0.06062804 -0.06395955 -0.08130095 0.095461704 0.067956716 -0.07363968
0.0033536314 0.008330307 -0.03806129 0.023643252 -0.020188017 0.018695839 0.11060393 0.048029874
0.08871575 -0.04940855 0.021136139 0.075747795 -0.06306797 0.032196343 -0.0011353423 0.0049887653
00000000: 549e a2bd 4662 173d 1a0c c7bd e732 a53c
00000010: 408d dbbc a65d 18bd 4b13 20be 8391 7b3d
00000020: 029b 383d b2a6 88bd 52cf 963d dab6 3c3d
00000030: 3f90 44bd 54ef 153d d8eb fc3c 0fe6 e23d
00000040: 0b3c a9bc 88d1 7fbb 1f5d 043d 2ebd 1f3d
00000050: f60f a0bd 051e 93bd 1c21 5bbc a862 ca3c
00000060: 9e12 6cbd 1e08 1d3c f4d0 403d 3f0d 6fbd
00000070: b2f8 d53d a28b 00bd a537 40bb a72b 8cbd
00000080: 4800 f3bb 48a8 883d b59c 59bd 0346 763c
00000090: fa60 9dbc 0bc7 94bd 5bf6 f83c 4e7e f33c
000000a0: f774 db3d b36c 83bc b8eb 603d 3166 8cbd
000000b0: f18e 82ba 7522 eebc 23c6 c5bd c0c2 d83c
000000c0: 3c8e 223d 6b23 2a3c 5ed4 2b3c 1a90 a2bd
000000d0: 459d 6fbd 90d9 0b3e 827d 603c 7f39 d4bd
000000e0: 0c30 e8bd ff25 b33d 288a b7bc ac40 76bd
000000f0: c153 09be 004f 8dbc 9f8b b4bb 6d37 dd3c
00000100: 6474 ec3d e5ad 3bbc 7561 24bc a135 bb3d
00000110: c648 d23d ba28 003d 1162 983c c72b 85bc
00000120: fc65 7dbd 8b03 5abd 88b9 1cbd 19af 4e3d
00000130: 11ce 1b3e 3612 dd3d 64b3 f6bd c5f5 b8bd
00000140: 0fc8 013d c5bd 283d b749 863c 6dde 9c3c
00000150: e53d 63bc 675a 0a3e b7ce 7d3d 93f2 903d
00000160: bc0d 943d 1712 d03d e08c ba3d 2f4c 8f3d
00000170: e237 9a3d c9ac e23d 969e 943b 1fe6 2a3e
00000180: 97fe 3f3d f722 6a3d 14e3 d9bc a981 47bd
00000190: f42f 8a3d 2f2b bd3d e8ed 34bd 9914 2cbe
000001a0: 5c84 ba3d 8014 9ebb f3ae 233e e0e6 de3c
000001b0: 5f0a 02be 3279 05bd fccb fe3d 2d62 603d
000001c0: b1a4 9d3d 218d 13bd 50d4 ddbd c629 58bd
000001d0: 9c5f 373d 92d7 19be a0c7 32bd 889b 943b
000001e0: 303d 20be 2404 bebd f88c 16bd cbf2 d73d
000001f0: 1870 ba3d 3c7c 48bd 74ea 363c 175d 8bbd
00000200: 759f 293d f0b7 933d 5547 48bd bc1e ff3c
00000210: 7687 85bd d2fe adbd afb0 e9bd fbba bbbd
00000220: b012 933c d190 a2bd 9cb4 103a 57a9 5f3d
00000230: cf8d 153e d0de e33d 0062 a9bd bd3c 31bd
00000240: 865f 99b9 8cd6 f33c f340 b2bc a7ea f4bd
00000250: 89a3 ccbd 0adf 0b3d ff97 febc ebff 4f3a
00000260: c0dd 163e 8d79 d13d 17e5 aa3d 4cd0 dbbd
00000270: ea44 afbd dcc2 9e3d 6fb7 45bc 5e5a 453d
00000280: f40d adbd 970e c7bd ffb1 0bbe dbc2 b63d
00000290: 3adb c2bc 4abf 793d 611a 01be fbc9 0e3e
000002a0: 0cad 2dbb 63db e2bb 393d b3bd 573d 6c3d
000002b0: 2fd5 be3d 58d6 f0bd d09a 0fbe b6b8 06bd
000002c0: 2a93 62bc c49c 81ba b62c 1d3e 0fc1 abbd
000002d0: 0775 983c e5c1 c9bd b0fc 9abc 60df f83c
000002e0: 9ef4 06bd e60e fe3c 6d0d b7bc 705b ec3c
000002f0: c602 f93d 334d 40bd b04f 07bd 0687 d93d
00000300: a503 283d 5b27 7bbd c60e ea3d 530f 34bc
00000310: 6c4f 85bc 13f2 fabc 9cc9 1dbd 7736 05bc
00000320: 44b3 a5bd e0b4 503c 1731 c2bb cce8 7cbd
00000330: 5d7c 243c 2eb5 d73d 5c65 443b 687e 903d
00000340: b56c 1fbd 3151 00bd e82d 823d 0eeb 443d
00000350: c6b8 3d3d faa5 1c3d 11ba 4f3c 2f50 6dbc
00000360: 68b2 62bd 13bf ba3c 23b6 4abd 0fb0 b4bc
00000370: b0ff 1d3c e967 a7bd 652c 353b 11d3 abbc
00000380: 799f bfbc d646 0ebd f179 a3bd 7850 38bb
00000390: c4a6 e83d ad68 a43d 1cfa 523c 233a 09bb
000003a0: 76bb dcbc 5033 013d 1c55 783d 39fd 82bd
000003b0: 1d81 a6bd 6d81 c33d e42c 8b3d 67d0 96bd
000003c0: 99c8 5b3b d77b 083c 28e6 1bbd 7eaf c13c
000003d0: 5761 a5bc 0428 993c 5084 e23d f9ba 443d
000003e0: 9ab0 b53d 9f60 4abd b225 ad3c a921 9b3d
000003f0: c829 81bd 50e0 033d c4cf 94ba cc78 a33b

MLP.3.bias f4 [32]
-0.09401229 0.03047988 0.18766159 -0.08241597 0.080438375 0.040013064 -0.10263472 -0.04013894
0.036029875 0.1225875 0.03262037 -0.14090231 0.13732842 -0.013907568 -0.040718082 -0.15648435
-0.12580201 0.029273933 0.109913304 -0.02066176 0.09526548 -2.220625e-37 0.103682145 -0.11469
-0.0476812 0.008523724 0.1273946 -0.008027511 0.07035622 0.060996786 0.051447693 0.07446436
00000000: 8489 c0bd f1b0 f93c 5c2a 403e b4c9 a8bd
00000010: e0bc a43d bde4 233d 2732 d2bd bb68 24bd
00000020: 1094 133d 280f fb3d f09c 053d b248 10be
00000030: d29f 0c3e 91dc 63bc 01c8 26bd 6f3d 20be
00000040: 3ed2 00be e3cf ef3c 3a1a e13d da42 a9bc
00000050: 8c1a c33d be20 9782 4e57 d43d 97e2 eabd
00000060: 5d4d 43bd 17a7 0b3c bb73 023e d285 03bc
00000070: ec16 903d c4d7 793d d1ba 523d c580 983d

MLP.5.weight f4 [32, 32]
0.018589862 0.013996531 -0.06191194 -0.027164849 0.04018295 -0.07700717 0.053661335 0.0016631649
-0.03866749 -0.09420389 0.010110114 0.023717532 -0.057748757 -0.007296153 0.12694511 -0.020753527
0.110851906 -0.06753179 0.036675215 -0.04701714 -0.017538805 1.9672874e-37 0.08510159 0.07087174
-0.09026384 0.051144347 0.122928575 -0.03899091 -0.08289227 0.17253663 0.05557442 0.008515339
-0.06294849 -0.06872406 -0.102426484 -0.014521622 0.055654958 -0.11496276 -0.014331427 0.046537768
-0.12508215 0.051818144 -0.002857122 0.028956467 0.059017554 0.06876711 0.02623037 -0.0401015
0.13156185 0.10321353 -0.062407643 0.08135378 -0.11444414 -2.3565464e-37 -0.19581002 0.024383778
0.01674953 0.047182366 -0.13125437 -0.0070393276 0.112121105 -0.10818205 -0.053360462 0.058798674
0.0047953166 -0.08884367 -0.116880305 -0.15440507 0.056821674 -0.05972472 -0.011864482 -0.01594556
0.085646726 -0.10069209 0.002836949 -0.13005567 -0.117774144 -0.003109685 0.032222234 -0.042270232
0.07697734 -0.057599097 -0.1163185 -0.10401048 -0.08086464 -2.0431219e-37 0.033021066 -0.022468274
-0.07161511 -0.07766125 0.029765362 -0.020309452 0.04253799 0.057333045 0.023783416 -0.065789305
-0.018186938 0.00693685 0.09926627 -0.11893062 -0.021719834 0.00553723 0.030876003 0.0052777366
0.10916546 0.093805924 -0.050169494 -0.008104391 0.099818826 -0.046403673 -0.10333105 -0.073500454
0.02662336 0.113474295 -0.004974267 -0.042613544 -0.045701772 2.097362e-37 -0.12402707 -6.1325765e-05
-0.14737496 -0.08058172 0.14784898 0.036897298 -0.0683366 0.05861766 0.064492546 0.0011409743
-0.07477007 0.07436438 -0.08749924 -0.019986512 -0.077958964 0.008000935 0.034221176 0.0012230686
-0.11534475 0.006387864 -0.13476484 0.06641019 0.10220911 0.005095905 0.06306147 0.14741157
0.100507215 0.09463238 -0.030372765 -0.007348102 0.05861248 -2.0709936e-37 0.07591666 -0.08212969
0.019480478 0.10024892 -0.11917665 -0.038406104 -0.04098917 -0.15174688 -0.09131978 -0.13996343
-0.007689205 -0.04627409 -0.06303948 0.010651843 0.00625418 0.030409826 9.8705845e-05 -0.005784108
-0.046773404 -0.10059141 0.05594536 0.0022265397 0.019898789 0.013869955 -0.13220073 -0.033375077
0.05885625 -0.048194487 0.02634555 0.0052522784 -0.13452917 -1.8852334e-37 0.12182807 0.058356248
0.019022658 -0.049229037 -0.072166115 -0.14619546 -0.07338461 0.056905262 0.049415547 0.04684389
0.10935501 -0.07023438 0.1264165 0.041870806 -0.09721132 0.07526935 -0.039470334 -0.01703106
-0.09525742 0.019225566 -0.042716507 -0.13782026 -0.11736073 -0.036302626 -0.10891455 0.048078895
-0.005339362 0.17373596 0.085168764 -0.046563294 -0.020350173 2.266229e-37 0.17450267 0.036375787
-0.017467784 0.19756258 0.037420016 -0.09484731 0.10795787 -0.08573983 0.11435374 -0.016168503
0.09271479 -0.09574216 -0.1284818 -0.07913982 -0.11135363 0.0361698 0.03647845 -0.0403645
-0.07943847 0.025150534 -0.13138208 -0.15749396 -0.10837434 0.06030411 0.017126814 0.07325455
0.05287011 0.06000952 -0.024684913 0.099530116 0.013899902 2.1401635e-37 0.044013266 0.015937526
-0.023794565 0.003492546 0.052655447 0.090574846 -0.13258524 -0.073488675 -0.05208952 0.02669828
00000000: c449 983c b551 653c 6097 7dbd d188 debc
00000010: e196 243d efb5 9dbd fdcb 5b3d 8efe d93a
00000020: cd61 1ebd f8ed c0bd e4a4 253c 454b c23c
00000030: f689 6cbd 9114 efbb e6fd 013e 4d03 aabc
00000040: 5306 e33d 1b4e 8abd c038 163d 0b95 40bd
00000050: 8aad 8fbc fbe2 8502 be49 ae3d 3425 913d
00000060: 40dc b8bd bc7c 513d fac1 fb3d efb4 1fbd
00000070: 6cc3 a9bd 71ad 303e 01a2 633d ec83 0b3c
00000080: 23eb 80bd 33bf 8cbd fac4 d1bd 19ec 6dbc
00000090: 74f6 633d 9871 ebbd 5dce 6abc 639e 3e3d
000000a0: 8915 00be 433f 543d 8e3e 3bbb 1d36 ed3c
000000b0: 64bc 713d c5d5 8c3d 13e1 d63c 7841 24bd
000000c0: 26b8 063e 9d61 d33d 289f 7fbd d09c a63d
000000d0: b061 eabd d460 a082 6c82 48be 7dc0 c73c
000000e0: 4f36 893c 4c42 413d 8c67 06be 29aa e6bb
000000f0: c09f e53d 8d8e ddbd 8090 5abd e1d6 703d
00000100: 0822 9d3b acf3 b5bd f15e efbd 5d1c 1ebe
00000110: d8bd 683d e8a1 74bd 3f63 42bc 43a0 82bc
00000120: 8d67 af3d a837 cebd 1bec 393b 502d 05be
00000130: 9233 f1bd dbcb 4bbb 76fb 033d 8d23 2dbd
00000140: 4ca6 9d3d 08ed 6bbd 6538 eebd 7203 d5bd
00000150: 5c9c a5bd 340c 8b82 1941 073d 630f b8bc
00000160: f1aa 92bd dd0c 9fbd 7dd6 f33c 0260 a6bc
00000170: 513c 2e3d 0ed6 6a3d 70d5 c23c 8bbc 86bd
00000180: c6fc 94bc 844e e33b 1d4c cb3d e691 f3bd
00000190: cbed b1bc a771 b53b acef fc3c ddf0 ac3b
000001a0: 2492 df3d 521d c03d 877e 4dbd 48c8 04bc
000001b0: d06d cc3d c711 3ebd 3b9f d3bd 6887 96bd
000001c0: 3c19 da3c 3665 e83d 2dff a2bb 8a8b 2ebd
000001d0: c831 3bbd 33bd 8e02 e801 febd 059c 80b8
000001e0: 76e9 16be 0708 a5bd b965 173e 9f21 173d
000001f0: 0ff4 8bbd 1219 703d ab14 843d bf8c 953a
00000200: 0d21 99bd 5a4c 983d cd32 b3bd c1ba a3bc
00000210: f3a8 9fbd 5b16 033c 812b 0c3d 5f4f a03a
00000220: de39 ecbd 4951 d13b cbff 09be 1102 883d
00000230: 0353 d13d 8dfb a63b 5f26 813d 0ff3 163e
00000240: bad6 cd3d 9fce c13d 4ed0 f8bc 59c8 f0bb
00000250: a413 703d ccf1 8c82 327a 9b3d 9c33 a8bd
00000260: 8695 9f3c 4e4f cd3d e312 f4bd b84f 1dbd
00000270: 43e4 27bd 8963 1bbe dd05 bbbd 9352 0fbe
00000280: baf5 fbbb e689 3dbd d81a 81bd 1185 2e3c
00000290: ddef cc3b 071e f93c 4c00 cf38 9d88 bdbb
000002a0: 7895 3fbd df02 cebd f626 653d 23eb 113b
000002b0: c902 a33c cf3e 633c a15f 07be 4eb4 08bd
000002c0: 4013 713d 9567 45bd 9fd2 d73c 4e1b ac3b
000002d0: 04c2 09be 664d 8082 ff80 f93d f606 6f3d
000002e0: 68d5 9b3c 63a4 49bd d4cb 93bd 43b4 15be
000002f0: ac4a 96bd 7e15 693d f567 4a3d 61df 3f3d
00000300: 85f5 df3d 0bd7 8fbd 5473 013e b980 2b3d
00000310: bb16 c7bd d126 9a3d a5ab 21bd b984 8bbc
00000320: 5216 c3bd ef7e 9d3c 81f7 2ebd c120 0dbe
00000330: d35a f0bd 10b2 14bd 970e dfbd 60ee 443d
00000340: d1f5 aebb d7e7 313e f66c ae3d 27b9 3ebd
00000350: 68b5 a6bc 473b 9a02 d4b0 323e c7fe 143d
00000360: 9918 8fbc d84d 4a3e bb45 193d 4e3f c2bd
00000370: 0419 dd3d 5d98 afbd 4b32 ea3d cf73 84bc
00000380: 40e1 bd3d 7714 c4bd bc90 03be 0f14 a2bd
00000390: 5f0d e4bd c926 143d 6d6a 153d 3f55 25bd
000003a0: a3b0 a2bd 7e08 ce3c 0689 06be 1946 21be
000003b0: 5ef3 ddbd 7101 773d 884d 8c3c 7b06 963d
000003c0: 548e 583d 8bcc 753d 0438 cabc 72d6 cb3d
000003d0: 6abc 633c e8a6 9102 4147 343d 6a8f 823c
000003e0: d2ec c2bc 33e3 643b 3dad 573d 4e7f b93d
000003f0: 6dc4 07be 3b81 96bd d25b 55bd 5ab6 da3c

MLP.5.bias f4 [32]
-0.104881465 0.08935006 0.10761306 -0.09662243 0.08532938 0.13748628 -0.07203771 -0.009614363
0.09820204 0.04540422 -0.016724957 0.054321248 0.121360615 -0.03887569 -0.14254712 -0.12219474
0.084099405 -0.10967839 0.11165247 -0.13687643 -0.13532029 -0.14186402 -0.016957479 -0.0010810788
0.04741175 -0.1203256 0.11414633 0.10238107 0.034229927 -0.009102326 0.006902511 0.06465987
00000000: 18cc d6bd 2afd b63d 3c64 dc3d fbe1 c5bd
00000010: 2cc1 ae3d 34c9 0c3e 8288 93bd 9085 1dbc
00000020: 271e c93d c7f9 393d c702 89bc f57f 5e3d
00000030: ea8b f83d 1e3c 1fbd dff7 11be 3c41 fabd
00000040: 4f3c ac3d 109f e0bd 0daa e43d 5629 0cbe
00000050: 6791 0abe cd44 11be 69ea 8abc fcb2 8dba
00000060: d332 423d 456d f6bd 8dc5 e93d 2bad d13d
00000070: ae34 0c3d ec21 15bc 762e e23b 656c 843d

MLP.6.weight f4 [32]
0.67209595 0.5429798 0.7263813 0.7339314 0.55817705 0.51256764 0.7667292 0.73518485
0.58033013 0.6387974 0.64744586 0.46728703 0.5952243 0.6797509 0.5195931 0.4732854
0.7256203 0.7526729 0.5497094 0.54437834 0.6776044 0.6522311 0.6959648 0.5184084
0.7205589 0.69816023 0.57621527 0.71054405 0.53119594 0.544836 0.4553844 0.506841
00000000: 7b0e 2c3f b900 0b3f 20f4 393f eee2 3b3f
00000010: b1e4 0e3f a237 033f 5d48 443f 1335 3c3f
00000020: 8490 143f 3a88 233f 03bf 253f 3f40 ef3e
00000030: 9f60 183f 2804 2e3f 0e04 053f 7752 f23e
00000040: 41c2 393f 2caf 403f c1b9 0c3f 615c 0b3f
00000050: 7b77 2d3f 9ef8 263f c02a 323f 6ab6 043f
00000060: 8c76 383f a1ba 323f d882 133f 37e6 353f
00000070: 75fc 073f 5f7a 0b3f 2528 e93e 55c0 013f

MLP.6.bias f4 [32]
-0.015249165 -0.010475035 -0.001064756 0.0132737 -0.0015286573 0.009610387 0.003641423 -0.024420353
0.0033493554 0.01510261 0.028128238 -0.028020198 -0.00900722 0.0055334135 -0.003987342 0.008637701
-0.008243453 0.013449328 0.0043273563 0.0013128346 -0.0051615215 0.018130591 -0.014382223 -0.012383093
0.010278265 -0.026350357 0.005862453 0.010375611 -0.017623583 0.005237196 0.011649661 0.0025314915
00000000: a2d7 79bc 7b9f 2bbc 488f 8bba ef79 593c
00000010: 3a5d c8ba e274 1d3c f1a4 6e3b 310d c8bc
00000020: dc80 5b3b f070 773c 316d e63c 9d8a e5bc
00000030: 0593 13bc a351 b53b 40a8 82bb 2585 0d3c
00000040: 8c0f 07bc 925a 5c3c 7fcc 8d3b 6b13 ac3a
00000050: fb21 a9bb 9b86 943c 6aa3 6bbc 75e2 4abc
00000060: 2b66 283c b4dc d7bc d219 c03b 77fe 293c
00000070: 555f 90bc c99c ab3b 38de 3e3c 61e7 253b

MLP.8.weight f4 [32, 32]
-0.088166825 -0.0958771 0.12650324 0.0060009887 0.052852392 -0.03303242 -0.10750546 -0.044002444
-0.024807684 -0.069954306 0.05573275 -0.09855157 0.059831988 0.030361334 -0.11743835 -0.018875904
-0.078649506 0.036840867 -0.012612494 0.12340501 -0.08665792 0.08655653 -0.05866023 -0.029208535
0.032408543 -0.020385087 -0.12460607 -0.04460598 -0.09148602 -0.011181838 -0.08563456 -0.005452007
0.13731158 0.113769926 0.102824144 0.09041836 -0.09457662 0.053079486 -0.02124625 -0.055317394
-0.038665555 -0.124127805 -0.064756505 -0.07029828 0.0019067418 0.055353515 0.13170613 0.08436939
-0.0011501776 -0.094823055 0.0455138 -0.1105815 -0.049965415 -0.0061505823 0.018774541 -0.032654185
0.09427144 0.050916374 -0.14007142 0.056264613 -0.02306885 0.08825605 -0.013165509 0.017590936
0.14633797 -0.0047193603 0.15136397 -0.025757575 0.009451306 0.1294636 -0.089695275 -0.02405328
0.03276406 0.0743396 -0.049404405 0.045079365 0.107585825 0.06636641 0.0025215794 0.08342339
-0.11644171 0.08713421 -0.07767255 -0.08889912 0.0663776 -9.286368e-05 0.10924208 -0.10050411
-0.009273242 -0.019871982 -0.08325444 0.067136355 0.11032933 -0.032903854 -0.03907107 -0.091732875
-0.139174 -0.0741019 0.11383852 -0.11927479 0.12422319 0.073876664 -0.10145855 -0.16940224
-0.10608464 -0.06656743 0.026374927 -0.1350605 0.068324104 0.03711566 -0.10597667 -0.001970883
-0.008944379 0.035670377 0.055768743 0.061337177 -0.1475989 0.065041535 -0.116926044 -0.10821334
-0.06272782 -0.14833622 0.124370754 -0.0705193 -0.12586609 0.0077904877 0.07876036 0.05473735
0.04409871 -0.040906485 -0.0101919705 -0.0577455 -0.050834477 -0.05540508 -0.02880804 0.054881
0.00850231 0.025758905 -0.033932902 0.036956307 0.076344915 0.02445638 0.022873284 0.016442286
-0.07868886 0.05179538 0.027577763 -0.03789507 0.0372722 -0.031700425 0.0031974623 -0.021387849
-0.0046631205 -0.0024123283 0.005975946 0.032259792 -0.036907684 -0.019886691 -0.005792432 -0.03347314
0.037786968 -0.15417033 -0.10560037 0.07810799 -0.070558876 0.09237102 0.13482001 -0.06343846
0.119479395 -0.0320982 0.09733128 -0.016609712 -0.05987495 -0.011175128 0.04189513 -0.068921186
-0.09227139 -0.04458968 -0.028427845 -0.116494864 0.03535258 0.08763922 -0.14973761 0.0858067
-0.028428838 0.033193927 -0.10054175 0.104905 -0.012128958 0.021512995 0.01851821 -0.022122653
-0.0271981 0.17078596 -0.08195171 0.021489631 -0.003039555 0.014840644 -0.16523726 0.052682687
-0.11077641 0.12848036 0.064108446 -0.0153318 -0.12870188 0.04318212 0.065751195 -0.051206566
0.09278108 0.036076315 0.09110101 0.021141158 0.03335852 -0.14676894 -0.15575847 0.031839117
-0.035399336 0.016708871 -0.010638549 -0.15747733 0.0068871016 0.026105132 -0.04911277 -0.031819947
0.04026692 0.030553954 -0.0099914465 -0.11430756 0.05285664 0.10776983 -0.09168798 -0.047581904
-0.02670799 0.06957862 -0.004067036 0.10697334 -0.027376512 -0.043036155 -0.04652428 0.059463643
-0.13111322 0.01459484 -0.012385187 0.0060922164 0.0064785127 0.09004668 0.13169003 0.0046029566
0.013783358 0.12785238 -0.018192405 -0.020596528 0.027058702 -0.035044737 -0.074958436 -0.014411426
00000000: cf90 b4bd 375b c4bd 118a 013e f1a3 c43b
00000010: c07b 583d 014d 07bd d32b dcbd e83b 34bd
00000020: 7c39 cbbc 3444 8fbd 0648 643d 68d5 c9bd
00000030: 6312 753d 55b8 f83c 8583 f0bd a4a1 9abc
00000040: fe12 a1bd 73e6 163d a2a4 4ebc c4bb fc3d
00000050: b579 b1bd 8d44 b13d b645 70bd bd46 efbc
00000060: d2be 043d a0fe a6bc 7831 ffbd c3b4 36bd
00000070: 065d bbbd 0734 37bc 2c61 afbd c0a6 b2bb
00000080: 689b 0c3e 3500 e93d 7795 d23d 432d b93d
00000090: 63b1 c1bd e069 593d 9e0c aebc 7e94 62bd
000000a0: c65f 1ebd b836 febd 0f9f 84bd 8bf8 8fbd
000000b0: a3eb f93a 5eba 623d f9dd 063e dcc9 ac3d
000000c0: 8ec1 96ba 9732 c2bd ae6c 3a3d 8e78 e2bd
000000d0: 89a8 4cbd d38a c9bb 11cd 993c 65c0 05bd
000000e0: 6211 c13d b08d 503d e26e 0fbe b975 663d
000000f0: e3fa bcbc 97bf b43d 26b4 57bc de1a 903c
00000100: 9fd9 153e dda4 9abb 28ff 1a3e 8d01 d3bc
00000110: a7d9 1a3c 1b92 043e 28b2 b7bd 620b c5bc
00000120: 9b33 063d 5c3f 983d 465c 4abd 24a5 383d
00000130: f555 dc3d 1deb 873d 1541 253b e2d9 aa3d
00000140: fe78 eebd 6c73 b23d c912 9fbd be10 b6bd
00000150: fbf0 873d cfbf c2b8 50ba df3d 19d5 cdbd
00000160: ccee 17bc 91ca a2bc 4e81 aabd c97e 893d
00000170: 58f4 e13d 31c6 06bd fc08 20bd 72de bbbd
00000180: a183 0ebe bdc2 97bd 2c24 e93d 5746 f4bd
00000190: ba68 fe3d a64c 973d 80c9 cfbd c877 2dbe
000001a0: e742 d9bd 8154 88bd 3b10 d83c 4d4d 0abe
000001b0: 82ed 8b3d 9706 183d 4c0a d9bd ee29 01bb
000001c0: 728b 12bc 1a1b 123d c46d 643d b13c 7b3d
000001d0: 2b24 17be 7f34 853d ec76 efbd f59e ddbd
000001e0: 7177 80bd 73e5 17be 18b6 fe3d 6c6c 90bd
000001f0: 0ae3 00be 5947 ff3b 1d4d a13d 4634 603d
00000200: d9a0 343d 8f8d 27bd 39fc 26bc 8c86 6cbd
00000210: d037 50bd 70f0 62bd d7fe ebbc e6ca 603d
00000220: 464d 0b3c 5704 d33c 3afd 0abd 7f5f 173d
00000230: b95a 9c3d bf58 c83c c160 bb3c f9b1 863c
00000240: a027 a1bd 6427 543d c3ea e13c dc37 1bbd
00000250: bcaa 183d 4ed8 01bd 848c 513b 9235 afbc
00000260: 17cd 98bb 2718 1ebb ded1 c33b d822 043d
00000270: 832c 17bd 6ae9 a2bc 71ce bdbb 221b 09bd
00000280: 82c6 1a3d d4de 1dbe 0245 d8bd 15f7 9f3d
00000290: 2c81 90bd 042d bd3d 420e 0a3e 06ec 81bd
000002a0: 9db1 f43d 6779 03bd 9f55 c73d 1711 88bc
000002b0: 703f 75bd e217 37bc 3a9a 2b3d 8d26 8dbd
000002c0: c8f8 bcbd aba3 36bd 83e1 e8bc dc94 eebd
000002d0: decd 103d 317c b33d d154 19be 6cbb af3d
000002e0: 98e3 e8bc 5bf6 073d d5e8 cdbd 6fd8 d63d
000002f0: 89b8 46bc 053c b03c 80b3 973c 913a b5bc
00000300: 8dce debc 84e2 2e3e 4cd6 a7bd 060b b03c
00000310: 4533 47bb 2c26 733c f533 29be cdc9 573d
00000320: bede e2bd 5b90 033e 4a4b 833d 3b32 7bbc
00000330: 6dca 03be bcdf 303d 90a8 863d fabd 51bd
00000340: 0204 be3d c2c4 133d 2b93 ba3d 3930 ad3c
00000350: f2a2 083d 994a 16be 267f 1fbe bc69 023d
00000360: e5fe 10bd 0be1 883c 4f4d 2ebc bd41 21be
00000370: 32ad e13b 6eda d53c 792a 49bd a255 02bd
00000380: edee 243d 494c fa3c 2ab3 23bc 151a eabd
00000390: 3480 583d 6eb6 dc3d e8c6 bbbd 3ee5 42bd
000003a0: b7ca dabc 3c7f 8e3d c544 85bb d714 db3d
000003b0: b544 e0bc ae46 30bd 3e90 3ebd 2690 733d
000003c0: 8b42 06be 321f 6f3c 3deb 4abc 37a1 c73b
000003d0: b449 d43b 656a b83d c0d9 063e 66d4 963b
000003e0: 98d3 613c bceb 023e 3d08 95bc 0dba a8bc
000003f0: 36aa dd3c 128b 0fbd cf83 99bd e71d 6cbc

MLP.8.bias f4 [32]
0.026314277 0.12337414 0.049490727 -0.11878482 0.03626455 0.0023518596 -0.04814782 -0.08296321
-0.13945745 0.0040172706 -0.017393023 0.15106641 0.0056986827 -0.0017582491 0.04393153 -0.026709119
0.08617343 -0.13444066 0.13939446 0.08870414 0.068198785 -0.10901298 -0.028555384 0.025272861
0.007930774 0.13187055 -0.015247818 -0.008213746 0.05248323 0.0045217252 -0.03349154 0.15279707
00000000: 0a91 d73c 95ab fc3d cab6 4a3d 7545 f3bd
00000010: 238a 143d a821 1a3b a636 45bd 9ee8 a9bd
00000020: efcd 0ebe 4fa3 833b d07b 8ebc 27b1 1a3e
00000030: 04bc ba3b 0d75 e6ba 8cf1 333d 15cd dabc
00000040: b27b b03d d0aa 09be 6cbd 0e3e 84aa b53d
00000050: ceab 8b3d 3242 dfbd fbec e9bc 0809 cf3c
00000060: 14f0 013c 1309 073e fcd1 79bc f392 06bc
00000070: a8f8 563d fb2a 943b 6d2e 09bd d676 1c3e

MLP.10.weight f4 [32, 32]
-0.06357025 -0.060151473 -0.08640041 -0.051186107 -0.006509219 0.06578673 -0.042658076 0.012799344
0.046966918 -0.036167912 -0.10716675 -0.058907583 0.009743313 0.081512876 -0.021336066 -0.013363689
0.042273264 0.08377192 0.004878429 0.070167504 0.03005802 0.13746442 -0.028658375 -0.020983597
0.03589811 -0.0441993 -0.015679767 0.000503273 -0.07950424 0.114179246 -0.00071871275 0.02109976
0.06119928 -0.011568319 -0.009153188 0.008674462 0.018232953 -0.015680533 -0.0045203995 -0.015685871
0.020345384 0.018573891 0.025722845 -0.11713805 0.024302805 -0.070866354 0.026369872 0.0071639754
0.03836642 0.02013712 0.11181174 -0.13856012 0.022226088 -0.112876266 -0.006094589 0.061862968
-0.1026928 0.09953976 -0.009032261 0.020793427 0.096229896 -0.12632136 -0.017781103 0.094624385
-0.057179138 -0.024263589 -0.10647612 -0.007090398 0.040012818 0.06560832 0.16250208 0.0026174085
-0.0087962225 0.074588224 0.031354822 0.12522085 0.15040164 0.034879163 -0.011500123 0.011853338
-0.007505642 0.09540799 -0.050754067 0.108696304 -0.07538119 0.05770556 -0.057455108 -0.051363107
-0.12677258 -0.17595424 -0.006206133 -0.0007532911 0.06470631 0.067481816 -0.034749355 -0.17144656
0.020147827 0.16160266 -0.11223674 -0.11008639 -0.032661714 0.15662111 0.024665684 -0.06258684
-0.118146054 -0.057528958 -0.11149249 0.106847584 0.13219373 0.15352376 0.07780919 0.014392696
0.086578906 0.09048242 0.08485973 -0.14745861 -0.011571984 0.008564815 -0.0182557 -0.12625949
0.024977684 0.13851811 -0.039549462 -0.007139718 -0.01779346 -0.04229861 0.034280106 0.075498074
0.08196452 -0.07941349 0.13693774 0.07228588 0.013588575 -0.0402344 0.1079229 -0.079565905
0.037561007 0.04547369 -0.12704805 0.04701946 -0.07771335 -0.16806059 -0.06986636 0.015968634
-0.05221866 0.008017727 0.12830277 0.10476095 -0.03120369 -0.117304385 0.05649406 -0.11320355
-0.033078708 0.017722197 0.012544558 0.028589636 0.049440406 -0.105443075 0.011394233 -0.1317008
0.041484445 -0.09976214 -0.06975176 0.007866816 0.009530927 0.031519674 -0.072375 -0.025460724
-0.14094195 -0.072344884 0.0467629 0.16411194 0.06795554 -0.15959428 -0.1134345 -0.0027808042
0.020909045 0.07638435 0.095220685 0.15550058 -0.018704537 0.0820756 0.040358175 0.07663431
-0.051659442 0.01228312 -0.04178768 0.013746774 -0.021835532 -0.03643622 -0.042490598 0.15642402
0.04403281 0.12668823 -0.0881475 -0.12206547 -0.053313132 -0.13268411 -0.048194084 -0.04209847
-0.08052197 0.134703 -0.008635637 0.056775272 0.089693144 -0.041046314 -0.042381063 -0.018133776
0.04549058 0.07517579 0.039063536 0.042214736 -0.043719787 -0.018321045 -7.222052e-05 -0.0893114
0.027242487 0.09510739 0.009511574 -0.05402667 -0.068937674 0.043629635 0.036478136 0.008338117
-0.050511077 0.049547274 -0.006198082 -0.124038406 -0.090298906 0.028077073 -0.12692915 0.007742396
0.07660435 -0.06890129 0.11959837 -0.019292658 0.03127293 -0.014280777 0.047954008 0.008735952
0.07719818 -0.1056416 -0.0022969567 0.12071917 0.037558544 -0.13509154 -0.020997502 -0.10399877
-0.10674427 0.05035603 -0.016841901 -0.0068289316 0.063981146 0.0878812 -0.015647162 0.14563504
00000000: 1f31 82bd 6461 76bd b3f2 b0bd 86a8 51bd
00000010: 494b d5bb 31bb 863d 3cba 2ebd 57b4 513c
00000020: 6260 403d ce24 14bd 3e7a dbbd 1449 71bd
00000030: 6ba2 1f3c 39f0 a63d f9c8 aebc 60f3 5abc
00000040: bb26 2d3d 9d90 ab3d 3bdb 9f3b fbb3 8f3d
00000050: 3d3c f63c 79c3 0c3e f8c4 eabc cbe5 abbc
00000060: e609 133d 530a 35bd db72 80bc 14ee 033a
00000070: 1ed3 a2bd cfd6 e93d ff67 3cba 67d9 ac3c
00000080: 19ac 7a3d 0c89 3dbc 41f7 15bc 551f 0e3c
00000090: 465d 953c 7674 80bc dc1f 94bb a87f 80bc
000000a0: 5dab a63c 4628 983c b7b8 d23c 13e6 efbd
000000b0: ad16 c73c 6122 91bd a105 d83c c8bf ea3b
000000c0: 1b26 1d3d 9af6 a43c 8efd e43d b4e2 0dbe
000000d0: 7c13 b63c ac2b e7bd 1eb5 c7bb 0664 7d3d
000000e0: 9a50 d2bd 80db cb3d 0cfc 13bc fa56 aa3c
000000f0: 2e14 c53d 635a 01be ada9 91bc 6eca c13d
00000100: ac34 6abd 6fc4 c6bc 2710 dabd 9256 e8bb
00000110: 7be4 233d a85d 863d f266 263e d488 2b3b
00000120: 081e 10bc b6c1 983d ea6d 003d e539 003e
00000130: e302 1a3e 74dd 0e3d 036b 3cbc 8134 423c
00000140: e3f1 f5bb 4465 c33d 7fe3 4fbd 2b9c de3d
00000150: 7461 9abd aa5c 6c3d 0c56 6bbd 1f62 52bd
00000160: acd0 01be 592d 34be d15c cbbb 8378 45ba
00000170: be84 843d e833 8a3d 5755 0ebd b08f 2fbe
00000180: 0e0d a53c 2b7b 253e 60dc e5bd f974 e1bd
00000190: 4ac8 05bd 4961 203e b00f ca3c 872d 80bd
000001a0: 8ff6 f1bd 7ca3 6bbd 2d56 e4bd e8d2 da3d
000001b0: cb5d 073e 5535 1d3e 6d5a 9f3d 58cf 6b3c
000001c0: 4850 b13d d94e b93d f0ca ad3d 64ff 16be
000001d0: 6b98 3dbc 7053 0c3c fa8c 95bc 2b4a 01be
000001e0: 009e cc3c b1d7 0d3e 9efe 21bd 4cf4 e9bb
000001f0: 97c3 91bc 4f41 2dbd 4c69 0c3d bc9e 9a3d
00000200: 04dd a73d 8aa3 a2bd 6839 0c3e 9f0a 943d
00000210: 9da2 5e3c d4cc 24bd ae06 dd3d 73f3 a2bd
00000220: 92d9 193d 9f42 3a3d e218 02be 7a97 403d
00000230: 2d28 9fbd 1318 2cbe 1816 8fbd a7d0 823c
00000240: 3ce3 55bd c95c 033c cd61 033e e98c d63d
00000250: e29e ffbc 483d f0bd 5166 673d 43d7 e7bd
00000260: 8a7d 07bd 242e 913c b187 4d3c d034 ea3c
00000270: 0682 4a3d 8af2 d7bd e1ae 3a3c 93dc 06be
00000280: 98eb 293d 1850 ccbd 03da 8ebd d1e3 003c
00000290: 9b27 1c3c c61a 013d 5839 94bd 0293 d0bc
000002a0: 1653 10be 8e29 94bd 748a 3f3d f60c 283e
000002b0: 462c 8b3d af6c 23be 5950 e8bd 273e 36bb
000002c0: 7249 ab3c 666f 9c3d 1003 c33d 8b3b 1f3e
000002d0: 423a 99bc 4117 a83d 9d4e 253d 73f2 9c3d
000002e0: da98 53bd 243f 493c 8f29 2bbd 263a 613c
000002f0: 6ee0 b2bc 253e 15bd 9f0a 2ebd 9e2d 203e
00000300: bf5b 343d 8fba 013e ad86 b4bd 76fd f9bd
00000310: df5e 5abd 58de 07be 2967 45bd 726f 2cbd
00000320: b4e8 a4bd 95ef 093e 7d7c 0dbc 308d 683d
00000330: 0ab1 b73d 2e20 28bd c497 2dbd 498d 94bc
00000340: 5554 3a3d c4f5 993d 1601 203d 5ce9 2c3d
00000350: 8513 33bd 0416 96bc 1975 97b8 e5e8 b6bd
00000360: a32b df3c aac7 c23d 6fd6 1b3c 124b 5dbd
00000370: 322f 8dbd fdb4 323d 196a 153d 999c 083c
00000380: b4e4 4ebd 15f2 4a3d 4819 cbbb d907 febd
00000390: a2ee b8bd e401 e63c b7f9 01be edb3 fd3b
000003a0: bee2 9c3d 1f1c 8dbd fdef f43d a30b 9ebc
000003b0: 0b18 003d ecf9 69bc 6c6b 443d 3d21 0f3c
000003c0: 141a 9e3d a05a d8bd 8a88 16bb 9d3b f73d
000003d0: fdd6 193d 7055 0abe f402 acbc 4ffd d4bd
000003e0: bd9c dabd 2042 4e3d 07f8 89bc 3bc5 dfbb
000003f0: 8c08 833d 0ffb b33d 7a2e 80bc 5a21 153e

MLP.10.bias f4 [32]
0.13983665 -0.1405362 0.07999345 -0.01568625 0.05817949 -0.07835762 0.11520334 -0.1172693
-0.056183837 -0.085825644 0.15071 -0.13182782 0.095922604 0.10239395 -0.00829369 0.08023745
-0.12076743 0.15629892 -0.1553053 0.044288922 0.08512952 -0.07083068 0.008031407 0.005981986
0.14953719 -0.08992292 -0.06019571 0.0900088 0.080299124 0.015572444 0.081532896 -0.07546061
00000000: 5731 0f3e b9e8 0fbe 9bd3 a33d 7380 80bc
00000010: 9e4d 6e3d f679 a0bd bbef eb3d e32a f0bd
00000020: 0621 66bd 5bc5 afbd b953 1a3e dffd 06be
00000030: 1273 c43d ebb3 d13d 42e2 07bc 8853 a43d
00000040: ea54 f7bd d30c 203e 5a08 1fbe 4d68 353d
00000050: 6358 ae3d ad0f 91bd 2a96 033c 8904 c43b
00000060: 4720 193e 8229 b8bd c78f 76bd 8956 b83d
00000070: de73 a43d 9023 7f3c b8fa a63d 188b 9abd

MLP.11.weight f4 [32]
0.8482385 0.75516415 0.8093016 0.79066175 0.86659425 0.8687362 0.8711334 0.8147439
0.8136287 0.80508536 0.8481602 0.76047856 0.71208453 0.6489953 0.8004078 0.8656792
0.63718826 0.59548825 0.7159743 0.8161245 0.8372793 0.8112466 0.752189 0.821722
0.64338404 0.7136795 0.72916377 0.69766515 0.7968702 0.80992246 0.8441757 0.7223559
00000000: 2926 593f 7052 413f 642e 4f3f cf68 4a3f
00000010: 1fd9 5d3f 7f65 5e3f 9902 5f3f 0e93 503f
00000020: f849 503f 131a 4e3f 0721 593f b9ae 423f
00000030: 2c4b 363f 8e24 263f 87e7 4c3f 279d 5d3f
00000040: c51e 233f eb71 183f 174a 373f 89ed 503f
00000050: f057 563f dbad 4f3f 758f 403f 5f5c 523f
00000060: d1b4 243f b3b3 363f 7aaa 3a3f 2f9a 323f
00000070: afff 4b3f 1457 4f3f e61b 583f 51ec 383f

MLP.11.bias f4 [32]
0.0046997447 0.015447314 0.0039701485 0.0040707127 -0.0029877378 -0.0029289825 0.013533941 -0.011260444
0.0050868248 0.003641818 0.013643352 0.008792159 0.01013661 -0.013197856 -0.0057509933 0.005623029
0.0016383206 -0.012498968 -0.0078245895 1.3550719e-05 0.007570259 0.0027762419 0.004691349 0.0052427165
0.03453256 0.01740828 0.004808401 -0.0047585606 0.0006660199 0.005821899 0.013884841 0.016693885
00000000: 5100 9a3b bb16 7d3c 0518 823b 9d63 853b
00000010: eccd 43bb 2cf4 3fbb 76bd 5d3c ba7d 38bc
00000020: 61af a63b 91ab 6e3b 5e88 5f3c fd0c 103c
00000030: 0614 263c d23b 58bc d472 bcbb 6341 b83b
00000040: ebbc d63a 79c8 4cbc b532 00bc e557 6337
00000050: ef0f f83b 9cf1 353b e3b9 993b 18cb ab3b
00000060: 0372 0d3d cf9b 8e3c cb8f 9d3b b3ed 9bbb
00000070: d797 2e3a a1c5 be3b 3f7d 633c 9dc1 883c

MLP.13.weight f4 [4, 32]
-0.007439693 -0.13135923 -0.03686938 -0.11252089 -0.12193391 -0.12410125 -0.13737981 0.036076725
0.08246065 -0.1478316 0.023263495 0.0044298666 -0.01839934 0.0028891314 0.067433104 0.14976008
0.06105539 0.016277734 0.017815402 0.016019499 0.13912643 -0.044613075 -0.08395581 0.12391588
-0.009002987 0.0038362425 -0.066701025 0.008275019 -0.12996928 -0.15422949 0.16538079 0.0893387
0.013965995 6.605602e-06 0.0062280754 -0.04650184 0.043042358 0.017733615 0.009598123 0.005845667
0.063128605 -0.0144116245 0.020970916 -0.005760682 -0.015512039 0.041320197 -0.046874262 0.026245005
-0.031129079 0.019623352 -0.011796628 0.020637983 0.015277722 -0.03437287 -0.04200865 -0.074089445
0.007412203 -0.05803524 -0.020202585 0.034451872 0.023009075 -0.044991966 -0.001322615 -0.04874833
-0.01372405 0.0049748 0.16433749 0.08655957 0.06454772 0.13320938 -0.103358 -0.11438707
-0.050287258 -0.06383094 -0.087031774 -0.099543124 0.10318929 0.049919415 0.11909203 -0.106660485
-0.05064494 -0.05362089 0.07437446 -0.111167304 -0.04620632 -0.10038978 -0.05794579 0.04676528
-0.10472781 -0.045608494 -0.03655538 0.08160496 -0.018719463 -0.016864441 0.03524506 -0.037230633
0.13059923 -0.013072116 -0.0150368605 0.026725627 -0.11539191 0.118042275 -0.064944364 0.0885352
0.030285573 -0.015119934 0.10682973 0.07732464 -0.017938579 -0.023617888 -0.015701476 -0.0649181
0.022120224 0.050796073 0.036382742 0.061633836 -0.11103298 -0.033089597 -0.0027574303 0.06926302
-0.06289788 -0.051005684 0.061114714 -0.049862232 -0.031842638 -0.0309007 -0.06844629 0.016954508
00000000: abc8 f3bb 0983 06be 5904 17bd 5a71 e6bd
00000010: 7cb8 f9bd cc28 febd 4bad 0cbe 30c5 133d
00000020: 21e1 a83d 2b61 17be 1693 be3c 6a28 913b
00000030: 36ba 96bc 9557 3d3b 5e1a 8a3d b55a 193e
00000040: 3715 7a3d e258 853c 9bf1 913c 533b 833c
00000050: 2977 0e3e 33bc 36bd 06f1 abbd 9cc7 fd3d
00000060: 4481 13bc 7869 7b3b 8c9a 88bd f293 073c
00000070: ab16 05be 56ee 1dbe 9559 293e 35f7 b63d
00000080: a1d1 643c b0a5 dd36 e214 cc3b b778 3ebd
00000090: 2f4d 303d 1646 913c 7241 1d3c 028d bf3b
000000a0: 9249 813d bc1e 6cbc 33cb ab3c 1ac4 bcbb
000000b0: 3526 7ebc 5e3f 293d 3aff 3fbd c4ff d63c
000000c0: 6902 ffbc 27c1 a03c a546 41bc fd10 a93c
000000d0: 694f 7a3c 91ca 0cbd 4311 2cbd 35bc 97bd
000000e0: 11e2 f23b 5cb6 6dbd e47f a5bc 681d 0d3d
000000f0: 877d bc3c 7f49 38bd 985b adba 54ac 47bd
00000100: d6da 60bc a603 a33b 1648 283e 2546 b13d
00000110: 9831 843d 0a68 083e 5cad d3bd c543 eabd
00000120: 03fa 4dbd ccb9 82bd b73d b2bd 44dd cbbd
00000130: e854 d33d 4d78 4c3d 86e6 f33d d070 dabd
00000140: 1271 4fbd 94a1 5bbd a351 983d afab e3bd
00000150: d742 3dbd 2899 cdbd 9158 6dbd f38c 3f3d
00000160: 897b d6bd f9cf 3abd 18bb 15bd 8020 a73d
00000170: 8f59 99bc 4c27 8abc 205d 103d 267f 18bd
00000180: cebb 053e 6e2c 56bc 2a5d 76bc b4ef da3c
00000190: 9852 ecbd 26c0 f13d 8d01 85bd f151 b53d
000001a0: 7319 f83c 9ab9 77bc 8cc9 da3d 615c 9e3d
000001b0: edf3 92bc 4d7a c1bc 62a0 80bc c8f3 84bd
000001c0: 7935 b53c 8b0f 503d 1206 153d c373 7c3d
000001d0: 4265 e3bd f588 07bd 01b6 34bb c5d9 8d3d
000001e0: 9bd0 80bd 56eb 50bd 6c53 7a3d 573c 4cbd
000001f0: 6d6d 02bd 7723 fdbc 922d 8cbd 2ee4 8a3c

MLP.13.bias f4 [4]
-0.13317649 -0.0026874004 0.09584169 0.120342754
00000000: 6b5f 08be 191f 30bb a648 c43d 4376 f63d
