example/model/diff_robot_default/model_2000.pth (torch, 24610 bytes, 18 tensors)

MLP.0.weight f4 [32, 2]
0.39640737 -0.30517522 0.30998078 0.45831916 -0.04777181 0.40137962 -0.11796868 0.20694256
0.36522967 0.6199946 0.2263278 0.24414325 -0.37001574 -0.51031166 -0.57110584 0.18404083
0.5486436 -0.22038123 0.10908526 0.3565601 -0.3382151 0.52176255 0.5007924 -0.4843309
-0.17912523 0.5721677 -0.0779865 0.49593502 0.6061275 0.16387068 -0.12754501 0.50405055
0.16540408 0.3480393 -0.013424109 0.15905169 -0.028455859 0.5352804 -0.193993 -0.015268365
0.31888863 -0.047515728 -0.03512238 -0.46468222 -0.49774876 0.460286 -0.48444444 0.07252879
-0.47145307 0.11467104 -0.032673348 -0.12401383 -0.29543105 0.08455049 0.25712305 -0.45126724
-0.6830189 -0.2172207 -0.123661414 0.04181893 -0.046581652 0.13687322 -0.5002459 0.073310584
00000000: e8f5 ca3e ed3f 9cbe cdb5 9e3e cfa8 ea3e
00000010: 60ac 43bd a181 cd3e 9099 f1bd c0e8 533e
00000020: 62ff ba3e f7b7 1e3f 7ac2 673e b000 7a3e
00000030: b472 bdbe c9a3 02bf fe33 12bf 3375 3c3e
00000040: e873 0c3f 9eab 61be 1868 df3d 0c8f b63e
00000050: 882a adbe 3b92 053f ee33 003f 38fa f7be
00000060: 9b6c 37be 9579 123f 63b7 9fbd 32eb fd3e
00000070: 2c2b 1b3f b7cd 273e 299b 02be 7509 013f
00000080: b05f 293e 3532 b23e cbf0 5bbc 72de 223e
00000090: 431c e9bc 2308 093f 1aa6 46be 2a28 7abc
000000a0: 5f45 a33e da9f 42bd 7cdc 0fbd d4ea edbe
000000b0: edd8 febe 9baa eb3e 1a09 f8be f989 943d
000000c0: 4c62 f1be a6d8 ea3d 7dd4 05bd f7fa fdbd
000000d0: bd42 97be cf28 ad3d a2a5 833e 800c e7be
000000e0: 54da 2ebf 1a6f 5ebe 3242 fdbd 544a 2b3d
000000f0: 67cc 3ebd 7e28 0c3e 1e10 00bf dc23 963d

MLP.0.bias f4 [32]
0.1726562 0.027444374 0.41074768 -0.13913 -0.044384737 -0.23173408 -0.11354018 0.3934795
0.06988225 -0.06481687 0.31911597 -0.14618675 -0.40928409 0.16470912 -0.2790457 0.23213685
-0.028076801 -0.39469868 0.060676835 0.34533525 0.2759315 0.10589968 -0.19374748 -0.011027053
-0.17685616 0.006464686 -0.1813584 0.16425161 -0.23810904 -0.40425768 0.08195441 -0.30716488
00000000: c9cc 303e 06d3 e03c 854d d23e 1878 0ebe
00000010: c5cc 35bd b34b 6dbe c187 e8bd 2576 c93e
00000020: 6d1e 8f3d b5be 84bd 2b63 a33e fbb1 15be
00000030: af8d d1be 82a9 283e 14df 8ebe 48b5 6d3e
00000040: 5201 e6bc f215 cabe 4688 783d c8cf b03e
00000050: e546 8d3e eee1 d83d bd65 46be d0aa 34bc
00000060: c819 35be b7d5 d33b 04b6 39be 9331 283e
00000070: dbd2 73be ddfa cebe b7d7 a73d b744 9dbe

MLP.1.weight f4 [32]
0.67850983 0.7915112 0.75775343 0.5978004 0.75076586 0.7731934 0.7071126 0.8747242
0.65558225 0.7786871 0.8553656 0.7305053 0.84703094 0.72260976 0.8763109 0.78051245
0.6607659 0.4799205 0.64197314 0.78250945 0.69107616 0.77503455 0.79701006 0.60879767
0.8214136 0.6141116 0.67784303 0.7055354 0.81561965 0.7072934 0.056833185 0.76353484
00000000: d2b2 2d3f 7aa0 4a3f 21fc 413f 7209 193f
00000010: 3132 403f 01f0 453f 5505 353f eded 5f3f
00000020: 3dd4 273f 0a58 473f 3df9 5a3f 6502 3b3f
00000030: 05d7 583f f4fc 383f e955 603f aacf 473f
00000040: f427 293f 24b8 f53e 5a58 243f 8a52 483f
00000050: 5eea 303f aa68 463f da08 4c3f 2ada 1b3f
00000060: 2948 523f 6b36 1d3f 1f87 2d3f f89d 343f
00000070: 73cc 503f 2e11 353f eac9 683d 0577 433f

MLP.1.bias f4 [32]
0.018562412 -0.0009910241 0.013488975 -0.015105532 0.008905924 -0.004130817 0.010521038 -0.031786017
0.029751452 -0.015152672 0.021669077 0.019882716 -0.020797769 -0.0060777147 -0.038128857 -0.039518896
0.019110037 0.010507226 0.0031030406 0.009176702 0.03275503 0.0048381994 0.015145545 0.02561636
-0.009840537 -0.03738114 -0.00949646 0.027878273 0.019013055 0.023025202 0.04371203 -0.027408639
00000000: 3310 983c 40e5 81ba dd00 5d3c 317d 77bc
00000010: 27ea 113c ce5b 87bb 6f60 2c3c 0e32 02bd
00000020: 51b9 f33c ea42 78bc 5983 b13c 14e1 a23c
00000030: 1560 aabc 9127 c7bb 012d 1cbd 91de 21bd
00000040: a78c 9c3c 8026 2c3c 625c 4b3b e159 163c
00000050: 232a 063d c289 9e3b 0525 783c 67d9 d13c
00000060: 343a 21bc f71c 19bd 0a97 1bbc fa60 e43c
00000070: 44c1 9b3c 599f bc3c 630b 333d 1588 e0bc

MLP.3.weight f4 [32, 32]
-0.09129873 0.04086742 -0.13308018 0.07598374 -0.03981594 -0.047820747 -0.17538713 0.06598015
0.068877 -0.09604955 0.08763894 0.05666731 -0.063686416 0.039916303 0.0658123 0.13142304
-0.032091446 0.023855193 0.034879994 0.05673205 -0.11027136 -0.07619675 -0.025388129 0.030104097
-0.09347396 0.019555777 0.09116061 -0.06302533 0.12792647 -0.04943784 -0.027783506 -0.101451136
-0.0122424895 0.074492164 -0.06150134 0.0405021 -0.023618154 -0.0973979 0.034403276 0.03599601
0.12589794 -0.021304633 0.06610911 -0.08406027 -0.0034381747 -0.032659017 -0.1176384 0.034643486
0.049018957 0.03742658 0.015438899 -0.10272471 -0.07340049 0.15180719 0.01940304 -0.12878166
-0.13158396 0.12112533 -0.029589323 -0.07436039 -0.14521733 -0.04267248 -0.03405016 0.03439615
0.1278108 -0.010192217 0.0030760465 0.118649945 0.110400856 0.031465057 0.021226473 -0.015333411
-0.061498366 -0.06118504 -0.033900104 0.05258536 0.15900914 0.12374361 -0.13161881 -0.09142342
0.03920113 0.025405966 0.020259578 0.038958773 -0.002059411 0.14496481 0.06038923 0.07957479
0.06439808 0.12114057 0.10198469 0.07577033 0.07367162 0.11187101 0.032383863 0.16818097
0.047795456 0.062145438 -0.03686563 -0.05514476 0.074111104 0.10657474 -0.04874021 -0.17616355
0.09408977 -0.003509803 0.1676639 0.028888283 -0.13050231 -0.036616586 0.13031526 0.05787812
0.08977848 -0.08512497 -0.11996646 -0.07973634 0.043140423 -0.16110529 -0.04388571 0.0052280533
-0.16256219 -0.11216624 -0.037535276 0.109834075 0.09664064 -0.041274276 0.017132368 -0.06781897
0.047547337 0.08206458 -0.04321185 0.04443485 -0.067116216 -0.0998886 -0.1292513 -0.0955386
0.021553742 -0.08859564 0.0028775807 0.060594715 0.15770786 0.13319361 -0.09183849 -0.04108024
0.0022926289 0.03995175 -0.019207356 -0.13164122 -0.10674045 0.03361718 -0.036452916 0.0006054286
0.15765233 0.12221245 0.09279468 -0.11915903 -0.09423369 0.07791445 -0.021834694 0.046157166
-0.08686077 -0.111025356 -0.14678392 0.11936687 -0.027935624 0.06840055 -0.13222758 0.14697844
-0.0015887247 -0.010689976 -0.090439126 0.06152757 0.0969299 -0.12696855 -0.14715579 -0.035016138
-0.018533807 -0.030304458 0.16508254 -0.098053746 0.022234058 -0.10235875 -0.021842146 0.034670908
-0.035557304 0.035891525 -0.027315728 0.03189765 0.13392828 -0.07956763 -0.07227208 0.1155952
0.053189375 -0.09806556 0.12633109 0.0050671804 -0.028567411 -0.02306602 -0.040329326 -0.022736838
-0.09419836 0.029043268 -0.020244136 -0.06353978 0.023303946 0.12648606 0.013430278 0.07206106
-0.07798638 -0.061970618 0.080866076 0.024467565 0.04822519 0.051430583 0.0135164205 -0.023500428
-0.061933912 0.045047287 -0.065147094 -0.024241718 0.019911457 -0.0883314 0.011635346 -0.00947563
-0.025677005 -0.047067344 -0.0951989 -0.022101723 0.14830025 0.11489246 0.016566794 0.001141383
-0.029907577 0.047708374 0.071816064 -0.073210075 -0.099947885 0.12301287 0.07875694 -0.08545543
0.0058499924 0.014869828 -0.04758991 0.07165073 -0.01869759 0.021896418 0.1256364 0.06412647
0.10441893 -0.07171226 0.027116984 0.08842574 -0.08356913 0.04836842 -0.026177179 -0.0015590646
00000000: d4fa babd 9964 273d 2c46 08be 5d9d 9b3d
00000010: 0a16 23bd b0df 43bd af98 33be 9a20 873d
00000020: 620f 8d3d a0b5 c4bd 0b7c b33d fb1b 683d
00000030: 066e 82bd 477f 233d 99c8 863d c393 063e
00000040: 5272 03bd f76b c33c 53de 0e3d de5f 683d
00000050: f3d5 e1bd 0b0d 9cbd c4fa cfbc de9c f63c
00000060: 476f bfbd 7033 a03c 6ab2 ba3d 6d13 81bd
00000070: 28ff 023e 557f 4abd 3c9a e3bc 9dc5 cfbd
00000080: b994 48bc 598f 983d d4e8 7bbd 88e5 253d
00000090: dc7a c1bc 8d78 c7bd 73ea 0c3d 8d70 133d
000000a0: 64eb 003e 0e87 aebc 3764 873d ca27 acbd
000000b0: 0053 61bb 76c5 05bd 67ec f0bd 54e6 0d3d
000000c0: 1ac8 483d 9d4c 193d 70f3 7c3c 5561 d2bd
000000d0: ff52 96bd 5873 1b3e 20f3 9e3c 57df 03be
000000e0: f2bd 06be 8f10 f83d 4f65 f2bc 434a 98bd
000000f0: dab3 14be 57c9 2ebd 2e78 0bbd fae2 0c3d
00000100: d6e0 023e 42fd 26bc 7f97 493b befe f23d
00000110: d819 e23d 81e1 003d 24e3 ad3c fd38 7bbc
00000120: b6e5 7bbd 2a9d 7abd d6da 0abd bf63 573d
00000130: 4bd3 223e 4a6d fd3d 15c7 06be 343c bbbd
00000140: 5d91 203d 2c20 d03c 6af7 a53c 3c93 1f3d
00000150: 2ff7 06bb a871 143e b25a 773d 1cf8 a23d
00000160: 24e3 833d 8c18 f83d 59dd d03d 7a2d 9b3d
00000170: 25e1 963d a11c e53d f1a4 043d a237 2c3e
00000180: 2bc5 433d 378c 7e3d 6a00 17bd 79df 61bd
00000190: 90c7 973d db43 da3d d0a3 47bd 3864 34be
000001a0: 23b2 c03d b904 66bb 16b0 2b3e 1fa7 ec3c
000001b0: 66a2 05be 46fb 15bd 5d71 053e 9c11 6d3d
000001c0: c8dd b73d 0056 aebd fab0 f5bd ce4c a3bd
000001d0: 03b4 303d c9f8 24be 81c1 33bd 1750 ab3b
000001e0: b476 26be 6ab7 e5bd 97be 19bd b0f0 e03d
000001f0: 87eb c53d 370f 29bd 2e59 8c3c ace4 8abd
00000200: ffc0 423d 7911 a83d e9fe 30bd 5101 363d
00000210: 3a74 89bd 6592 ccbd 745a 04be bea9 c3bd
00000220: 7991 b03c a271 b5bd cb95 3c3b 2a32 783d
00000230: 2b7e 213e e863 083e d115 bcbd c143 28bd
00000240: ee3f 163b 72a4 233d bf58 9dbc f5cc 06be
00000250: bd9a dabd 2bb2 093d a74f 15bd a0b5 1e3a
00000260: 9d6f 213e 854a fa3d 230b be3d a609 f4bd
00000270: 98fd c0bd 9c91 9f3d acde b2bc 4c0f 3d3d
00000280: 0fe4 b1bd 4361 e3bd 864e 16be 9e76 f43d
00000290: 40d9 e4bc 9615 8c3d ab66 07be 8481 163e
000002a0: c13c d0ba 0225 2fbc 2638 b9bd 5504 7c3d
000002b0: 2f83 c63d 0b04 02be 02b0 16be 156d 0fbd
000002c0: 36d4 97bc 0e41 f8bc 660b 293e 67d0 c8bd
000002d0: 3324 b63c 77a1 d1bd 4dee b2bc 1503 0e3d
000002e0: 89a4 11bd fe02 133d 3cc5 dfbc 1ca7 023d
000002f0: 7f24 093e 5bf4 a2bd 6203 94bd 2dbd ec3d
00000300: 1add 593d 99d6 c8bd f05c 013e 970a a63b
00000310: 3406 eabc f3f4 bcbc 5d30 25bd 9b42 babc
00000320: 12eb c0bd 26ec ed3c 08d7 a5bc 2521 82bd
00000330: ebe7 be3c 9085 013e ab0a 5c3c c094 933d
00000340: 53b7 9fbd e7d4 7dbd 1d9d a53d 3470 c83c
00000350: c787 453d e0a8 523d fa73 5d3c f883 c0bc
00000360: 6aae 7dbd 8183 383d d76b 85bd 9196 c6bc
00000370: 5a1d a33c 18e7 b4bd 2ea2 3e3c ac3f 1bbc
00000380: 9558 d2bc b0c9 40bd a4f7 c2bd ac0e b5bc
00000390: 05dc 173e bd4c eb3d 16b7 873c 759a 953a
000003a0: bc00 f5bc db69 433d 4d14 933d 2aef 95bd
000003b0: 7ab1 ccbd 2cee fb3d 524b a13d 4203 afbd
000003c0: 4bb1 bf3b 94a0 733c a3ed 42bd 9ebd 923d
000003d0: b02b 99bc 1e60 b33c d4a6 003e bd54 833d
000003e0: 98d9 d53d e1dd 92bd 7024 de3c 8e18 b53d
000003f0: 4b26 abbd f71d 463d 8671 d6bc 8759 ccba

MLP.3.bias f4 [32]
-0.09928326 0.04530499 0.20548058 -0.09045976 0.095669076 0.046151582 -0.12761287 -0.043828495
0.032830205 0.13419157 0.04620221 -0.14791512 0.14487506 -0.021402767 -0.045408554 -0.17221263
-0.13590811 0.032826677 0.11658307 -0.03296602 0.095927104 -1.46150405e-05 0.1114454 -0.13384694
-0.05327436 0.015968235 0.13345584 -0.018776527 0.08705127 0.06545047 0.058875933 0.08596927
00000000: 0655 cbbd ba91 393d 8069 523e f742 b9bd
00000010: 26ee c33d 7109 3d3d f3ac 02be 8285 33bd
00000020: f778 063d 8469 093e 873e 3d3d 1077 17be
00000030: 215a 143e db54 afbc 52fe 39bd 8258 30be
00000040: 7f2b 0bbe 4475 063d 1bc3 ee3d 6107 07bd
00000050: 6e75 c43d 1f33 75b7 7c3d e43d 2c0f 09be
00000060: 3736 5abd d1cf 823c a6a8 083e 3bd1 99bc
00000070: f047 b23d e50a 863d e427 713d a810 b03d

MLP.5.weight f4 [32, 32]
0.0059160874 0.019482145 -0.07254846 -0.025976917 0.057400614 -0.09266793 0.04187673 0.011693398
-0.04825199 -0.109666 0.011311859 0.02737993 -0.0758632 -0.016570186 0.1303726 -0.034883488
0.121659644 -0.08935025 0.04088069 -0.07061732 -0.023082798 -5.0673865e-09 0.09962407 0.11140073
-0.1073345 0.056887142 0.12705708 -0.06510476 -0.094804324 0.17540215 0.044676147 0.011477927
-0.06753153 -0.09541202 -0.108978115 0.0028183437 0.06394327 -0.12235523 -0.009043965 0.08054975
-0.13181618 0.07911982 -0.0030164747 0.0330488 0.066684365 0.070180126 0.024516152 -0.043478094
0.14313367 0.115082785 -0.055929895 0.097535476 -0.1170738 -4.838799e-07 -0.20802361 0.047439534
0.0268986 0.06045771 -0.14608306 -0.009294843 0.115886 -0.11734945 -0.05692179 0.07329278
0.041678872 -0.1122934 -0.11988516 -0.15885098 0.078752026 -0.06477595 0.021191837 -0.050096136
0.09727516 -0.10826662 0.006499292 -0.14684542 -0.1357362 -0.0034123363 0.032827582 -0.04693408
0.08196845 -0.08335989 -0.122215785 -0.11804451 -0.0913212 -1.0292795e-06 0.035777874 -0.028083235
-0.094467334 -0.08017811 0.03345131 -0.017394409 0.047735836 0.06205815 0.0257188 -0.06472421
-0.03366435 0.00858735 0.10840747 -0.12846923 -0.021825928 0.0017341065 0.019217733 0.004914861
0.11348255 0.092367575 -0.055697598 -0.0124666 0.111071154 -0.03822637 -0.11426719 -0.09792922
0.021792566 0.11631183 -0.010098711 -0.050263457 -0.051258273 -6.6657725e-07 -0.12642866 0.008751854
-0.15858531 -0.083152 0.15441486 0.050276306 -0.074660815 0.051301952 0.066753626 -0.0019371468
-0.08941843 0.11517833 -0.08618155 -0.0042449967 -0.08307169 0.013869134 0.06349258 0.0061877817
-0.12979387 -0.00288964 -0.13989295 0.061265063 0.10755457 0.0038494114 0.069060296 0.16812965
0.102787204 0.10378033 -0.009991464 0.0019272319 0.081078716 -1.9792785e-06 0.077748954 -0.097314164
0.012508516 0.10330984 -0.11735595 -0.057884242 -0.039310597 -0.15258673 -0.09557142 -0.1475563
-0.02535736 -0.040751934 -0.06941033 0.01798818 0.051663645 0.035983793 -0.009641192 -0.016512636
-0.06818681 -0.12610684 0.06608848 -0.00869052 0.04317805 0.014637497 -0.14124541 -0.0542688
0.06800305 -0.027076403 0.03967699 0.017164469 -0.14177015 2.344337e-10 0.13273217 0.081434354
-0.0003079308 -0.055948872 -0.07636728 -0.15379103 -0.07746958 0.06415344 0.07451849 0.061681464
0.12667713 -0.115116164 0.12963985 0.035195895 -0.101176806 0.08041344 -0.062163424 -0.035385326
-0.104564905 0.010256206 -0.045763925 -0.15123597 -0.12688567 -0.02870367 -0.11556692 0.06244838
-0.009739358 0.17567115 0.08296397 -0.051909856 -0.02699777 1.6530639e-07 0.18907142 0.030834155
-0.025972584 0.2101724 0.03734728 -0.13557135 0.110619426 -0.09238582 0.12461069 -0.022704193
0.119771525 -0.12134485 -0.14555955 -0.093799405 -0.12826037 0.033632707 0.04018258 -0.0688844
-0.08400634 0.031233262 -0.13931626 -0.16895235 -0.12562884 0.045110222 0.0169476 0.079421416
0.06267752 0.062564276 -0.027160393 0.10573159 0.012988338 9.773127e-08 0.048234686 0.014212268
-0.017314443 -0.00024778533 0.054340806 0.122463755 -0.15443383 -0.08481758 -0.059918404 0.028140688
00000000: bddb c13b 0599 9f3c 4994 94bd 8bcd d4bc
00000010: e81c 6b3d afc8 bdbd ef86 2b3d aa95 3f3c
00000020: e1a3 45bd 9198 e0bd 6055 393c e04b e03c
00000030: 2a5e 9bbd 33be 87bc 6580 053e fde1 0ebd
00000040: b128 f93d 44fd b6bd 8372 273d d09f 90bd
00000050: 2318 bdbc 341d aeb1 b407 cc3d 1126 e43d
00000060: 31d2 dbbd 7e02 693d 401b 023e a555 85bd
00000070: c528 c2bd 9f9c 333e 56fe 363d ea0d 3c3c
00000080: f94d 8abd 6167 c3bd eb2f dfbd f6b3 383b
00000090: b0f4 823d 6195 fabd 232d 14bc 44f7 a43d
000000a0: d2fa 06be 9209 a23d 0cb0 45bb 2e5e 073d
000000b0: d091 883d 99ba 8f3d 19d6 c83c 1616 32bd
000000c0: a291 123e 86b0 eb3d bf16 65bd aec0 c73d
000000d0: 63c4 efbd f9e3 01b5 2404 55be f54f 423d
000000e0: 745a dc3c 81a2 773d cc96 15be 6649 18bc
000000f0: a455 ed3d e954 f0bd d326 69bd 861a 963d
00000100: 77b7 2a3d 15fa e5bd 5a86 f5bd d5a9 22be
00000110: be48 a13d 41a9 84bd 819a ad3c 9b31 4dbd
00000120: 3338 c73d e4ba ddbd 03f8 d43b a55e 16be
00000130: 6efe 0abe 81a1 5fbb 3776 063d f33d 40bd
00000140: 13df a73d 97b8 aabd 454c fabd 52c1 f1bd
00000150: 9c06 bbbd c625 8ab5 d28b 123d d00e e6bc
00000160: 1778 c1bd 6c34 a4bd 3e04 093d b87e 8ebc
00000170: a786 433d b030 7e3d 3cb0 d23c 208e 84bd
00000180: a1e3 09bd f5b1 0c3c bc04 de3d 708d 03be
00000190: 4acc b2bc f54a e33a 826e 9d3c d80c a13b
000001a0: 8a69 e83d 362b bd3d 2a23 64bd b640 4cbc
000001b0: 4679 e33d 4193 1cbd eb04 eabd 1d8f c8bd
000001c0: 5386 b23c e634 ee3d 1075 25bc 0ee1 4dbd
000001d0: 32f4 51bd d7ee 32b5 8476 01be f063 0f3c
000001e0: 3064 22be 994b aabd ee1e 1e3e 87ee 4d3d
000001f0: c5e7 98bd ff21 523d 20b6 883d dce7 fdba
00000200: 0321 b7bd 9ee2 eb3d f47f b0bd 9d19 8bbb
00000210: 7d21 aabd 5d3b 633c 6608 823d e0c2 ca3b
00000220: afe8 04be 1d60 3dbb 1940 0fbe 13f1 7a3d
00000230: 9245 dc3d 6846 7c3b 7c6f 8d3d 2e2a 2c3e
00000240: 1982 d23d c88a d43d 3db3 23bc 2c9b fc3a
00000250: 990c a63d bfd3 04b6 d83a 9f3d a64c c7bd
00000260: 85f0 4c3c 1c94 d33d 5158 f0bd 0718 6dbd
00000270: 2604 21bd b23f 1cbe f3ba c3bd 0019 17be
00000280: 3dba cfbc 80eb 26bd 0127 8ebd f35b 933c
00000290: 429d 533d be63 133d 17f6 1dbc 8245 87bc
000002a0: 87a5 8bbd 2722 01be 6659 873d af62 0ebc
000002b0: 78db 303d 1dd2 6f3c a3a2 10be f648 5ebd
000002c0: 2f45 8b3d 55cf ddbc 5784 223d 809c 8c3c
000002d0: 322c 11be 9ce1 802f f1ea 073e 0ec7 a63d
000002e0: c671 a1b9 a52a 65bd 7366 9cbd 657b 1dbe
000002f0: 5fa8 9ebd e162 833d 269d 983d b4a5 7c3d
00000300: a6b7 013e 06c2 ebbd 4fc0 043e 9229 103d
00000310: c935 cfbd cdaf a43d 139f 7ebd 34f0 10bd
00000320: 2026 d6bd a509 283c f472 3bbd 9add 1abe
00000330: 51ee 01be f523 ebbc 59ae ecbd dfc9 7f3d
00000340: d491 1fbc 23e3 333e 04e9 a93d 6e9f 54bd
00000350: 6d2a ddbc 137f 3134 f09b 413e e997 fc3c
00000360: 75c4 d4bc 6f37 573e 76f9 183d 37d3 0abe
00000370: 708c e23d c734 bdbd e433 ff3d 25fe b9bc
00000380: c64a f53d a683 f8bd 900d 15be e719 c0bd
00000390: b056 03be 73c2 093d 7d96 243d 4413 8dbd
000003a0: 840b acbd e6dc ff3c eca8 0ebe d801 2dbe
000003b0: d9a4 00be 7fc5 383d b1d5 8a3c b2a7 a23d
000003c0: 125d 803d b321 803d 797f debc ce89 d83d
000003d0: 0acd 543c 55e0 d133 bc91 453d 93da 683c
000003e0: 05d7 8dbc 2fe9 81b9 7794 5e3d 47ce fa3d
000003f0: e723 1ebe d7b4 adbd 006d 75bd 4d87 e63c

MLP.5.bias f4 [32]
-0.11241854 0.09891142 0.11231327 -0.10223851 0.09116634 0.1484909 -0.0758923 -0.012989629
0.10762273 0.049180686 -0.020440992 0.05746088 0.1323565 -0.042912185 -0.14788203 -0.13475192
0.08735349 -0.11432607 0.13051173 -0.14796118 -0.14006668 -0.14948991 -0.01626613 -0.007064888
0.048675664 -0.12648885 0.12791425 0.10599154 0.04106623 -0.004078686 0.008440545 0.06820472
00000000: b13b e6bd 1292 ca3d 8004 e63d 6d62 d1bd
00000010: 6bb5 ba3d 000e 183e 6c6d 9bbd 74d2 54bc
00000020: 4e69 dc3d b071 493d de73 a7bc 1a5c 6b3d
00000030: 7688 073e b0c4 2fbd 636e 17be 68fc 09be
00000040: 63e6 b23d c923 eabd dea4 053e 2383 17be
00000050: a46d 0fbe e213 19be 8c40 85bc 9380 e7bb
00000060: 2260 473d 4b86 01be f4fb 023e 1812 d93d
00000070: 1035 283d 7fa6 85bb 364a 0a3c ebae 8b3d

MLP.6.weight f4 [32]
0.7856921 0.68311405 0.8269406 0.81887174 0.6779123 0.63563097 0.85793275 0.8265894
0.6961346 0.76450884 0.76378065 0.6465823 0.72336906 0.77393734 0.69145375 0.6858272
0.81753546 0.8340782 0.68865 0.7051116 0.77512133 0.75527436 0.7977181 0.6399206
0.81589603 0.78309554 0.68711066 0.81146437 0.7351701 0.6932627 0.61675984 0.694271
00000000: 1e23 493f 90e0 2e3f 61b2 533f 94a1 513f
00000010: a98b 2d3f b6b8 223f 7ba1 5b3f 5d9b 533f
00000020: e135 323f dab6 433f 2187 433f 6b86 253f
00000030: b72e 393f c220 463f 1d03 313f 5f92 2f3f
00000040: 014a 513f 2686 553f 5e4b 303f 3282 343f
00000050: 5a6e 463f a959 413f 4137 4c3f d6d1 233f
00000060: 90de 503f f378 483f 7ce6 2f3f 21bc 4f3f
00000070: 1c34 3c3f aa79 313f f9e3 1d3f bfbb 313f

MLP.6.bias f4 [32]
-0.009306835 -0.011831663 0.0037625323 0.013313639 -0.0018386674 0.0042846436 0.0024836883 -0.02172975
0.0058077658 0.012933409 0.024236837 -0.033360545 -0.005639454 -0.0003517151 -0.002896725 0.005260546
-0.0077325064 0.0122893695 0.0014450266 0.003787798 -0.004500412 0.016158804 -0.013094514 -0.012540123
0.009239189 -0.022809755 0.00857715 0.011210326 -0.015401006 0.0046434496 0.010222008 0.006641297
00000000: b27b 18bc 97d9 41bc d194 763b 7321 5a3c
00000010: 71ff f0ba 3266 8c3b 60c5 223b 9702 b2bc
00000020: 124f be3b a6e6 533c 558c c63c 11a5 08bd
00000030: 2bcb b8bb 6766 b8b9 fbd6 3dbb a960 ac3b
00000040: f760 fdbb 5a59 493c 0c67 bd3a b53c 783b
00000050: 3178 93bb 785f 843c 5f8a 56bc 1775 4dbc
00000060: f85f 173c 86db babc 2d87 0c3c 84ab 373c
00000070: 8054 7cbc 1428 983b 367a 273c 3d9f d93b

MLP.8.weight f4 [32, 32]
-0.10605753 -0.10059937 0.159094 -0.0043968866 0.056730915 -0.037699133 -0.12374297 -0.05083632
-0.027551917 -0.092424825 0.07240955 -0.10811693 0.07736934 0.0122397 -0.12533693 -0.011030297
-0.07389315 0.019931845 -0.022764696 0.13136676 -0.10429495 0.09741317 -0.059273846 -0.03312719
0.064101785 -0.034297496 -0.14694701 -0.05586702 -0.11949937 -0.008057944 -0.09951087 0.005956987
0.14554936 0.1445485 0.11176082 0.098420985 -0.112377614 0.059665516 -0.03642553 -0.060238067
-0.05110325 -0.1472677 -0.073260054 -0.07796982 -0.0029923362 0.06492738 0.14217803 0.10556144
-0.008350076 -0.09504907 0.0471996 -0.13116194 -0.07296499 -0.0019038745 0.033603646 -0.032426346
0.107544184 0.05899932 -0.15352093 0.066140406 -0.036674116 0.114101745 -0.012166505 0.019113792
0.15768234 0.00048286052 0.16335231 -0.051393222 0.039504807 0.14679724 -0.110134505 -0.024526432
0.039840594 0.1159188 -0.05874472 0.06619598 0.13379943 0.07915292 -0.003930877 0.115936585
-0.13940622 0.102639265 -0.08979904 -0.104798734 0.116649486 0.0027721748 0.12215723 -0.10339371
-0.010544978 -0.028236995 -0.10042822 0.081503905 0.118508354 -0.052165497 -0.080835864 -0.10682386
-0.14114366 -0.08036142 0.12814866 -0.1281485 0.13325644 0.07467625 -0.10315289 -0.17629479
-0.119719535 -0.08551679 0.022886608 -0.14350899 0.069800474 0.040490713 -0.1018253 0.010420544
0.0010326724 0.024831796 0.056582484 0.06826697 -0.15367086 0.07231349 -0.12681414 -0.12511572
-0.058812812 -0.15419301 0.1359107 -0.07531741 -0.13349174 0.013063766 0.08216905 0.07146999
0.07082412 -0.06623666 -0.03188916 -0.08583807 -0.11731895 -0.06474781 -0.011538556 0.08081798
0.020910224 0.04141243 -0.06102629 0.07201596 0.12546867 0.03094554 0.026901886 0.011674381
-0.11379528 0.091904655 0.04042737 -0.060043454 0.05210952 -0.04646072 0.0068601226 -0.06317123
-0.035508174 -0.0019573462 0.024700671 0.027575208 -0.07098017 -0.06688854 -0.013903307 -0.06071799
0.034891807 -0.17462608 -0.11420047 0.09210313 -0.076598145 0.0924886 0.14428924 -0.06765317
0.12119998 -0.01934293 0.11474535 -0.013258901 -0.07629335 -0.0052123237 0.03934084 -0.081698015
-0.10199584 -0.047940362 -0.029612297 -0.13716792 0.030527528 0.09561174 -0.15445922 0.08726088
-0.037040696 0.03912805 -0.10873454 0.12012198 -0.006177162 0.036762662 0.017692108 -0.028705176
-0.04086914 0.18377979 -0.09532601 0.023144005 0.030174056 0.012024194 -0.17083088 0.057569776
-0.117974974 0.14149778 0.057114244 -0.011713085 -0.13755272 0.052385785 0.07059448 -0.05002168
0.09573651 0.047010478 0.09450041 0.03139336 0.037991405 -0.16089931 -0.1586106 0.03017747
-0.0276452 0.014709413 -0.013126449 -0.17269589 0.020356202 0.034423996 -0.05076478 -0.026304062
0.047702186 0.037344392 -0.029118769 -0.12409914 0.065386444 0.13285495 -0.11271148 -0.06466675
-0.027718518 0.07628892 0.001266248 0.12863627 -0.029455509 -0.043165706 -0.06610316 0.094165154
-0.14542244 0.04210278 -0.022757698 0.02201614 0.019528698 0.11065554 0.14062828 -0.06215074
0.022680257 0.14617263 -0.010255775 -0.08401831 0.03601644 -0.06827379 -0.12401344 -0.014178597
00000000: b134 d9bd 0b07 cebd 8ae9 223e c213 90bb
00000010: ad5e 683d 686a 1abd f46c fdbd bf39 50bd
00000020: 8fb4 e1bc 3a49 bdbd 754b 943d 696c ddbd
00000030: d173 9e3d 0689 483c 5358 00be 6bb8 34bc
00000040: 4b55 97bd 1c48 a33c 077d babc 0285 063e
00000050: 9798 d5bd 8e80 c73d 22c9 72bd 60b0 07bd
00000060: cc47 833d 887b 0cbd 4779 16be d1d4 64bd
00000070: 16bc f4bd 7705 04bc 5bcc cbbd d432 c33b
00000080: e40a 153e 8604 143e dbe2 e43d f190 c93d
00000090: 3c26 e6bd d463 743d f032 15bd 31bc 76bd
000000a0: a451 51bd 58cd 16be 5e09 96bd a4ae 9fbd
000000b0: 121b 44bb a5f8 843d 1e97 113e 9930 d83d
000000c0: c2ce 08bc 16a9 c2bd 5e54 413d 514f 06be
000000d0: ab6e 95bd 6d8b f9ba faa3 093d 7dd1 04bd
000000e0: 2040 dc3d 45a9 713d 9734 1dbe 9f74 873d
000000f0: 9937 16bd 2dae e93d 0556 47bc 8794 9c3c
00000100: 7b77 213e 7128 fd39 d445 273e b381 52bd
00000110: cbcf 213d 0452 163e 338e e1bd a8eb c8bc
00000120: e42f 233d d666 ed3d 4e9e 70bd c291 873d
00000130: b802 093e ed1a a23d 96ce 80bb 2970 ed3d
00000140: 81c0 0ebe 8934 d23d 8fe8 b7bd b8a0 d6bd
00000150: ede5 ee3d 60ad 353b 922d fa3d 15c0 d3bd
00000160: d8c4 2cbc 4551 e7bc 50ad cdbd 85eb a63d
00000170: 82b4 f23d 7dab 55bd 468d a5bd 78c6 dabd
00000180: f787 10be 8794 a4bd 6739 033e 5c39 03be
00000190: 6074 083e ddef 983d d341 d3bd 9f86 34be
000001a0: 842f f5bd 6d23 afbd b27c bb3c 05f4 12be
000001b0: 8df3 8e3d 97d9 253d c889 d0bd eeba 2a3c
000001c0: bc5a 873a 0d6c cb3c 09c3 673d 8ecf 8b3d
000001d0: e55b 1dbe 1819 943d 91db 01be 561e 00be
000001e0: b4e5 70bd c6e4 1dbe 2d2c 0b3e 0440 9abd
000001f0: 0fb2 08be 6809 563c 3f48 a83d dc5e 923d
00000200: 3c0c 913d 16a7 87bd 359e 02bd dfcb afbd
00000210: eb44 f0bd 809a 84bd 360c 3dbc e683 a53d
00000220: eb4b ab3c 15a0 293d b4f6 79bd 1b7d 933d
00000230: dc7a 003e 8081 fd3c 5861 dc3c e745 3f3c
00000240: 800d e9bd 8238 bc3d 2c97 253d 20f0 75bd
00000250: cb70 553d 994d 3ebd e1ca e03b eb5f 81bd
00000260: 0571 11bd d246 00bb 1059 ca3c 67e5 e13c
00000270: 0d5e 91bd dcfc 88bd b2ca 63bc 6db3 78bd
00000280: b6ea 0e3d 2ed1 32be f0e1 e9bd 91a0 bc3d
00000290: 7ddf 9cbd aa6a bd3d 8fc0 133e bf8d 8abd
000002a0: b237 f83d 1075 9ebc 9cff ea3d dd3b 59bc
000002b0: b03f 9cbd 24cc aabb dc23 213d 4a51 a7bd
000002c0: 32e3 d0bd 1d5d 44bd 7d95 f2bc bf75 0cbe
000002d0: de14 fa3c 17d0 c33d 8f2a 1ebe d5b5 b23d
000002e0: fcb7 17bd bc44 203d 37b0 debd 8302 f63d
000002f0: ca69 cabb 7294 163d 0aef 903c 1e27 ebbc
00000300: 6666 27bd c530 3c3e 483a c3bd 7f98 bd3c
00000310: 952f f73c 2001 453c 4aee 2ebe 49ce 6b3d
00000320: dd9c f1bd cbe4 103e a0f0 693d 3de8 3fbc
00000330: 9fda 0cbe 7a92 563d d793 903d 88e3 4cbd
00000340: 8111 c43d 0f8e 403d 6e89 c13d 5396 003d
00000350: e09c 1b3d cac2 24be d16a 22be be36 f73c
00000360: 3078 e2bc c0ff 703c 5110 57bc 31d7 30be
00000370: 0dc2 a63c 2d00 0d3d bbee 4fbd 9e7b d7bc
00000380: 5e63 433d 6ff6 183d 7c8a eebc b127 febd
00000390: 54e9 853d 210b 083e 47d5 e6bd 0070 84bd
000003a0: f211 e3bc 5e3d 9c3d 3bf8 a53a 3ab9 033e
000003b0: ae4c f1bc 86ce 30bd 1861 87bd a9d9 c03d
000003c0: 9fe9 14be f773 2c3d 5a6e babc 315b b43c
000003d0: a6fa 9f3c 5f9f e23d dc00 103e c691 7ebd
000003e0: f2cb b93c 47ae 153e d707 28bc cb11 acbd
000003f0: f985 133d 21d3 8bbd c2fa fdbd 594d 68bc

MLP.8.bias f4 [32]
0.036855306 0.13156183 0.04516044 -0.1279572 0.047414463 0.0047656167 -0.058448303 -0.11097553
-0.14476909 -0.0021370545 -0.02428888 0.15607704 0.0053762486 -0.002979334 0.04737915 -0.03457862
0.091858886 -0.14110644 0.14564851 0.09236518 0.09327531 -0.11756997 -0.050607998 0.02586983
0.0086843725 0.13973181 -0.0075897477 -0.0063265995 0.037320163 -0.0010106646 -0.03393496 0.15594961
00000000: 97f5 163d 25b8 063e 27fa 383d 3607 03be
00000010: ab35 423d e428 9c3b 7d67 6fbd 2447 e3bd
00000020: 593e 14be d30d 0cbb 79f9 c6bc a9d2 1f3e
00000030: 3e2b b03b ee40 43bb a410 423d 50a2 0dbd
00000040: 8320 bc3d 357e 10be e224 153e f529 bd3d
00000050: 2007 bf3d 86c8 f0bd 554a 4fbd f7ec d33c
00000060: e648 0e3c db15 0f3e 6bb3 f8bb 5d4f cfbb
00000070: 07dd 183d 4778 84ba 62ff 0abd 41b1 1f3e

MLP.10.weight f4 [32, 32]
-0.06255599 -0.065134294 -0.09417519 -0.04808639 0.017370941 0.07874903 -0.029596802 0.0064537036
0.06840844 -0.037133954 -0.114634715 -0.057563342 0.018648997 0.0948693 -0.04137545 -0.020678319
0.08617506 0.09893707 0.03408455 0.097532675 0.056703463 0.1507257 -0.02679002 -0.019744657
0.046653967 -0.036414213 -0.0102497265 0.018756973 -0.10024691 0.12108413 0.007852773 0.03268753
0.04085167 -0.03325057 -0.03507234 -0.0016074787 0.051266316 -0.03862083 -0.00925013 -0.009775408
0.036726743 0.03639281 0.0011149367 -0.13334712 0.02220114 -0.1096041 0.040917892 0.0039990502
0.056018304 0.01627052 0.116710104 -0.15368958 0.025661165 -0.13734974 -0.043428257 0.07000306
-0.12317283 0.112127185 -0.008246526 0.04664783 0.14332947 -0.1540103 -0.019538917 0.085313074
-0.096193485 -0.021329895 -0.1285635 -0.010464549 0.077686146 0.0798102 0.18351339 -0.060434733
-0.011253077 0.104499236 0.060225878 0.1328615 0.16919059 0.033605088 -0.045059588 0.013191888
-0.007090397 0.102377586 -0.05342885 0.117666245 -0.09978849 0.0570783 -0.08297212 -0.050903723
-0.13166113 -0.20187694 -0.0026497568 0.0020731795 0.04378314 0.07459035 -0.029951867 -0.180447
0.009151065 0.1667233 -0.12138095 -0.11165003 -0.07896495 0.16495629 0.024250071 -0.10147984
-0.12453416 -0.06615306 -0.12453446 0.10940308 0.13754426 0.15775584 0.09406458 0.01883834
0.092845395 0.09723998 0.09014748 -0.14938924 -0.020413332 0.0077065113 -0.07013626 -0.1319885
0.023565616 0.15976521 -0.03276008 -0.014206962 -0.014531479 -0.045803864 0.041997302 0.0831858
0.08180907 -0.08333141 0.14657775 0.07354851 0.031174213 -0.046701778 0.101745784 -0.0925639
0.03487988 0.048506066 -0.13426167 0.04935689 -0.083734535 -0.17388724 -0.06957602 0.042909827
-0.05632639 0.0057941074 0.126074 0.10008695 -0.030625315 -0.12170923 0.06675697 -0.1145949
-0.033169534 0.015831953 0.023596186 0.07278574 0.04591751 -0.1050022 0.014369615 -0.13891073
0.04018317 -0.10496314 -0.069118775 0.005317187 0.008721481 0.028482828 -0.07713619 0.030080851
-0.14281432 -0.091207944 0.056469273 0.16361009 0.068186015 -0.1669344 -0.13240576 0.014530021
0.026081203 0.0763375 0.10226774 0.16207154 -0.020651562 0.08464866 0.058837913 0.07860024
-0.050505262 0.013498676 -0.058664892 0.008506574 -0.03563101 -0.039282233 -0.032257125 0.15726098
0.055320572 0.13177837 -0.09470586 -0.1239088 -0.06688997 -0.13711464 -0.050451383 0.00032283162
-0.08636787 0.1511734 -0.0029542174 0.05772098 0.08938835 -0.04159236 -0.023691874 -0.026797049
0.050681822 0.07322005 0.039855003 0.04498583 -0.039724376 -0.022361435 0.015190931 -0.09458232
0.027888503 0.111790955 0.012283317 -0.08451367 -0.05150607 0.043099947 0.044627625 0.012029903
-0.066533215 0.05157919 0.00019267075 -0.13611417 -0.15458108 0.026965052 -0.1430529 -0.0023392716
0.08809859 -0.077661395 0.118491165 -0.02344635 0.034914844 -0.014590146 0.046360657 0.00011918545
0.086656 -0.11026521 0.0016066766 0.12448996 0.05626846 -0.14874998 -0.03922995 -0.10791935
-0.1082532 0.048623312 -0.03489553 -0.029550679 0.052081198 0.0873895 -0.018485507 0.1470815
00000000: 5b1d 80bd 2165 85bd ecde c0bd 3cf6 44bd
00000010: 814d 8e3c 2c47 a13d fe74 f2bc 9779 d33b
00000020: b919 8c3d c619 18bd 9bc5 eabd 8ac7 6bbd
00000030: c8c5 983c d64a c23d 4e79 29bd 9465 a9bc
00000040: 8d7c b03d 859f ca3d 3e9c 0b3d 36bf c73d
00000050: e441 683d d757 1a3e be76 dbbc 8cbf a1bc
00000060: 3b18 3f3d 1227 15bd 78ee 27bc 39a8 993c
00000070: 404e cdbd f5fa f73d eba8 003c 5ce3 053d
00000080: 1554 273d c031 08bd 04a8 0fbd 09b2 d2ba
00000090: a1fc 513d e030 1ebd db8d 17bc 0829 20bc
000000a0: c86e 163d a110 153d 1123 923a 268c 08be
000000b0: 2adf b53c 1d78 e0bd 8599 273d 770a 833b
000000c0: 7373 653d c149 853c b505 ef3d cd60 1dbe
000000d0: 5d37 d23c 69a5 0cbe d4e1 31bd c45d 8f3d
000000e0: 0942 fcbd f0a2 e53d 701c 07bc cc11 3f3d
000000f0: f6c4 123e e0b4 1dbe 1410 a0bc 9fb8 ae3d
00000100: 1701 c5bd 08bc aebc 26a6 03be 8073 2bbc
00000110: ea19 9f3d 8873 a33d efea 3b3e 698a 77bd
00000120: d35e 38bc b203 d63d 69af 763d d80c 083e
00000130: 4c40 2d3e 7da5 093d 6790 38bd ca22 583c
00000140: 9056 e8bb 57ab d13d 36d8 5abd 00fb f03d
00000150: e85d ccbd efca 693d 49ed a9bd 6c80 50bd
00000160: 2dd2 06be d4b8 4ebe 8ba7 2dbb 2ede 073b
00000170: f355 333d d3c2 983d 9e5d f5bc 19c7 38be
00000180: 59ee 153c 83b9 2a3e 9396 f8bd c5a8 e4bd
00000190: 60b8 a1bd 4dea 283e 16a8 c63c aad4 cfbd
000001a0: c40b ffbd 417b 87bd ec0b ffbd b90e e03d
000001b0: 67d8 0c3e bf8a 213e eea4 c03d dd52 9a3c
000001c0: ba25 be3d c125 c73d 3e9f b83d 7ef9 18be
000001d0: dc39 a7bc e786 fc3b 99a3 8fbd fe27 07be
000001e0: ae0c c13c 7e99 233e 6f2f 06bd 51c4 68bc
000001f0: 7115 6ebc d59c 3bbd 5d05 2c3d 515d aa3d
00000200: 848b a73d a9a9 aabd 7a18 163e 9aa0 963d
00000210: 1061 ff3c 5d4a 3fbd 1860 d03d 2492 bdbd
00000220: 34de 0e3d 4cae 463d e47b 09be 732a 4a3d
00000230: 037d abbd 7f0f 32be df7d 8ebd 37c2 2f3d
00000240: 80b6 66bd 7fdc bd3b 8b19 013e 63fa cc3d
00000250: f1e1 fabc b042 f9bd e1b7 883d bbb0 eabd
00000260: c7dc 07bd 03b2 813c ca4c c13c b110 953d
00000270: 0014 3c3d 650b d7bd 896e 6b3c 9d3e 0ebe
00000280: 1c97 243d eaf6 d6bd 258e 8dbd cc3b ae3b
00000290: 8be4 0e3c d254 e93c 94f9 9dbd 1e6c f63c
000002a0: eb3d 12be 3bcb babd 534c 673d 6789 273e
000002b0: 1ca5 8b3d daf0 2abe 6095 07be 530f 6e3c
000002c0: 3fa8 d53c d656 9c3d c071 d13d 15f6 253e
000002d0: 772d a9bc 475c ad3d 0600 713d 2af9 a03d
000002e0: 9bde 4ebd 8d29 5d3c 994a 70bd 285f 0b3c
000002f0: d2f1 11bd 68e6 20bd 0c20 04bd 0609 213e
00000300: d397 623d e9f0 063e 25f5 c1bd e6c3 fdbd
00000310: 9cfd 88bd c867 0cbe 1ca6 4ebd ba41 a939
00000320: a3e1 b0bd 33cd 1a3e 8b9b 41bb d66c 6c3d
00000330: 3d11 b73d c05c 2abd 7615 c2bc 7c85 dbbc
00000340: be97 4f3d 65f4 953d 003f 233d 1043 383d
00000350: 07b6 22bd 542f b7bc 62e3 783c 60b4 c1bd
00000360: 6e76 e43c a8f2 e43d f73f 493c 8115 adbd
00000370: 07f8 52bd 9289 303d 75cb 363d 1219 453c
00000380: 9142 88bd b344 533d a907 4a39 8361 0bbe
00000390: 814a 1ebe d0e5 dc3c 767c 12be 774e 19bb
000003a0: 096d b43d f00c 9fbd 7fab f23d 8f12 c0bc
000003b0: de02 0f3d 820b 6fbc ace4 3d3d 34f3 f938
000003c0: b378 b13d bad2 e1bd 1f97 d23a 98f4 fe3d
000003d0: c279 663d ea51 18be 96af 20bd d204 ddbd
000003e0: dbb3 ddbd 3d29 473d 9eee 0ebd 4414 f2bc
000003f0: 1853 553d 44f9 b23d eb6e 97bc 889c 163e

MLP.10.bias f4 [32]
0.14932401 -0.16165622 0.088705614 -0.014725176 0.06125963 -0.081145 0.12247285 -0.12661469
-0.06322978 -0.085814625 0.15760298 -0.14096661 0.09573251 0.10468769 -0.0103707025 0.08368164
-0.13057137 0.1612794 -0.16678794 0.043498144 0.088392615 -0.073090166 0.013698719 0.0018205374
0.16578598 -0.09031179 -0.06642986 0.09238733 0.08733251 0.020541575 0.08642074 -0.07826177
00000000: 65e8 183e 3589 25be 4aab b53d dd41 71bc
00000010: 61eb 7a3d 5a2f a6bd 0cd3 fa3d 48a7 01be
00000020: 9d7e 81bd 94bf afbd ad62 213e 8d59 10be
00000030: 680f c43d 8066 d63d e1e9 29bc 4861 ab3d
00000040: 80b4 05be 6d26 253e 75ca 2abe 1c2b 323d
00000050: 3007 b53d 4cb0 95bd 9870 603c 199f ee3a
00000060: cdc3 293e 63f5 b8bd 610c 88bd 9235 bd3d
00000070: 63db b23d ce46 a83c 5bfd b03d b547 a0bd

MLP.11.weight f4 [32]
0.9107587 0.8310451 0.8823539 0.8697246 0.91589016 0.918386 0.9208387 0.88295496
0.88928354 0.86713856 0.9112579 0.84994334 0.8112818 0.76690423 0.8710925 0.9192777
0.7432231 0.74666333 0.81962156 0.8878162 0.8988439 0.8818298 0.84157497 0.88197076
0.7308839 0.8070407 0.8179013 0.81104076 0.8702463 0.8767242 0.90553427 0.8137917
00000000: 7b27 693f 5fbf 543f f2e1 613f 45a6 5e3f
00000010: c777 6a3f 581b 6b3f 16bc 6b3f 5609 623f
00000020: 16a8 633f cbfc 5d3f 3348 693f e395 593f
00000030: 2ab0 4f3f d653 443f ebff 5e3f c955 6b3f
00000040: de43 3e3f 5425 3f3f b8d2 513f ec47 633f
00000050: a21a 663f 99bf 613f 7571 573f d6c8 613f
00000060: 351b 3b3f 389a 4e3f fb61 513f 5ea0 4f3f
00000070: 76c8 5e3f ff70 603f 18d1 673f a754 503f

MLP.11.bias f4 [32]
0.008004028 0.013309256 0.0085945 0.0036110673 -0.0029754625 -0.002654404 0.0119157545 -0.012989624
0.0039568604 0.0016055477 0.014287895 0.007308658 0.008654044 -0.011163755 -0.006222084 0.005473447
0.0010314637 -0.012723614 -0.0074178036 -0.0010029337 0.008821478 0.0002690526 0.0035651014 0.0036233591
0.032124233 0.01588371 0.003425543 -0.0022436322 0.001443564 0.004930438 0.01392585 0.014022678
00000000: 5423 033c 110f 5a3c f2cf 0c3c a8a7 6c3b
00000010: faff 42bb 82f5 2dbb 4c3a 433c 6fd2 54bc
00000020: 8da8 813b 3e71 d23a c617 6a3c 787d ef3b
00000030: b1c9 0d3c 2fe8 36bc a0e2 cbbb 9a5a b33b
00000040: 2e32 873a b576 50bc 0c11 f3bb df74 83ba
00000050: f687 103c a10f 8d39 7aa4 693b e175 6d3b
00000060: b394 033d 8e1e 823c 137f 603b e709 13bb
00000070: f835 bd3a 838f a13b 4029 643c 60bf 653c

MLP.13.weight f4 [4, 32]
-0.008868736 -0.13060947 -0.04240971 -0.11330982 -0.12572236 -0.12426453 -0.14021301 0.040429454
0.084088534 -0.1455481 0.021092458 0.0093025295 -0.020162456 -0.00053149794 0.0701176 0.14999978
0.06223592 0.012395147 0.019488895 0.015219212 0.13975918 -0.04404503 -0.08416803 0.12638745
-0.010014246 0.007922845 -0.06148713 0.0014969519 -0.13275842 -0.15623473 0.16473223 0.09055926
0.014562927 -0.0019463056 0.0049558794 -0.044584826 0.039878737 0.01731368 0.010504642 0.0052343034
0.062021293 -0.0149475 0.022337206 -0.0034308287 -0.018377535 0.03655087 -0.04632816 0.02503966
-0.017338203 0.016699554 -0.011847565 0.017686753 0.013955654 -0.03281872 -0.038148664 -0.065987416
0.0088715255 -0.053809684 -0.016955838 0.029785233 0.020663163 -0.04321733 0.00050569634 -0.04057629
-0.015410007 0.005566445 0.16257003 0.08660698 0.06253761 0.13584869 -0.104844384 -0.11282308
-0.048786957 -0.061819304 -0.089132 -0.09701834 0.10023746 0.048794076 0.12137746 -0.10609044
-0.048539173 -0.06227958 0.076977365 -0.11099839 -0.0467804 -0.099336706 -0.057808958 0.047161918
-0.10526302 -0.043805484 -0.03621443 0.08176913 -0.020959316 -0.014845463 0.033742186 -0.038274493
0.13065997 -0.012205253 -0.02000366 0.027523702 -0.1150718 0.122074366 -0.06594214 0.09171652
0.029760445 -0.008838731 0.10500038 0.076264724 -0.018521124 -0.024474047 -0.018040452 -0.06500856
0.02242795 0.043436956 0.040773727 0.064302 -0.111967064 -0.032092907 -0.0035253097 0.069010936
-0.06401703 -0.03643525 0.063167654 -0.055438437 -0.030918099 -0.031624205 -0.0695008 0.016138814
00000000: 2d4e 11bc 7dbe 05be ceb5 2dbd fb0e e8bd
00000010: 5dbd 00be 677e febd 0094 0fbe 5b99 253d
00000020: 9c36 ac3d 900a 15be 17ca ac3c a369 183c
00000030: bc2b a5bc 3954 0bba d199 8f3d 8b99 193e
00000040: 18eb 7e3d 0415 4b3c 2da7 9f3c 005a 793c
00000050: 081d 0f3e 9068 34bd 4a60 acbd b66b 013e
00000060: cb12 24bc d2ce 013c eed9 7bbd 5f35 c43a
00000070: d3f1 07be fffb 1fbe 91af 283e 2277 b93d
00000080: 5899 6e3c 2e1b ffba ee64 a23b 949e 36bd
00000090: e357 233d 6bd5 8d3c a91b 2c3c 8584 ab3b
000000a0: 0a0a 7e3d 5ce6 74bc 84fc b63c c1d7 60bb
000000b0: 7c8c 96bc 5db6 153d 99c2 3dbd f91f cd3c
000000c0: d908 8ebc 81cd 883c 4a1c 42bc cfe3 903c
000000d0: 41a6 643c ec6c 06bd c641 1cbd 6924 87bd
000000e0: e059 113c 8b67 5cbd f8e6 8abc 2900 f43c
000000f0: cb45 a93c a804 31bd b590 043a 5333 26bd
00000100: 417a 7cbc ba66 b63b c278 263e 005f b13d
00000110: b813 803d eb1b 0b3e a7b8 d6bd c90f e7bd
00000120: d5d4 47bd 3d36 7dbd d78a b6bd 8db1 c6bd
00000130: 4c49 cd3d 4cdc 473d bf94 f83d f245 d9bd
00000140: 03d1 46bd df18 7fbd 4fa6 9d3d 2053 e3bd
00000150: ce9c 3fbd 0b71 cbbd 16c9 6cbd db2c 413d
00000160: 2394 d7bd 616d 33bd 9555 14bd 9376 a73d
00000170: dfb2 abbc 633a 73bc 3f35 0a3d b7c5 1cbd
00000180: bacb 053e 8bf8 47bc b7de a3bc 6379 e13c
00000190: c4aa ebbd 2002 fa3d ac0c 87bd dfd5 bb3d
000001a0: 2dcc f33c 53d0 10bc 700a d73d ae30 9c3d
000001b0: 9db9 97bc cc7d c8bc 92c9 93bc 3523 85bd
000001c0: d2ba b73c f3ea 313d 5a02 273d c4b0 833d
000001d0: fd4e e5bd da73 03bd e208 67bb 9b55 8d3d
000001e0: 5c1b 83bd 213d 15bd 0b5e 813d 6a13 63bd
000001f0: f447 fdbc 6288 01bd 6f56 8ebd 8c35 843c

MLP.13.bias f4 [4]
-0.13446417 0.0012864823 0.09756125 0.12135683
00000000: fab0 09be 2f9f a83a 31ce c73d ee89 f83d
