example/model/diff_robot_default/model_1000.pth (torch, 24610 bytes, 18 tensors)

MLP.0.weight f4 [32, 2]
00000000: 21b2 d43e ec8f a7be 6a6e a23e 80fe f23e
00000010: ed04 57bd 2af8 e03e e523 01be 7eaa 613e
00000020: d7e1 c03e b081 223f 0adb 763e ef72 823e
00000030: bd5b c3be d209 0cbf 1013 1bbf 121d 473e
00000040: f66f 253f 1910 84be de1e ef3d 60a0 be3e
00000050: fa64 b6be 4cc5 0c3f 4cc7 043f 68f8 02bf
00000060: ad57 44be 8175 1d3f 0340 b4bd dcf3 103f
00000070: 7167 273f 42d2 323e 94a3 05be e0e6 0b3f
00000080: cb75 343e 37da bb3e 9c02 41bc f99b 353e
00000090: 1c93 d1bc e94d 1f3f 7840 4ebe a05e 5abc
000000a0: 5136 b43e 81bb 67bd ad10 02bd ec6b 05bf
000000b0: f305 07bf d6e1 f43e 387e 0ebf 2a20 a03d
000000c0: 7f7c 01bf 2262 fa3d b694 00bd 8721 12be
000000d0: 72eb a5be 02f8 b33d cbca 8b3e b72d 00bf
000000e0: 3372 35bf 7897 66be 988b 03be 9f9d 3f3d
000000f0: 70b7 5ebd 0d4f 3d3e 8697 10bf c4e9 9a3d
0.41542152 -0.3272699 0.31724864 0.47459793 -0.052494932 0.43939334 -0.12611349 0.22037694
0.37672302 0.6347914 0.24106994 0.25478312 -0.38155928 -0.54702485 -0.6057596 0.19444683
0.64623964 -0.25793532 0.11675809 0.3723173 -0.35623914 0.5498855 0.518666 -0.5116029
-0.1917407 0.6150742 -0.08801272 0.566221 0.65392214 0.1746302 -0.13050681 0.5464916
0.1762306 0.36689922 -0.011780407 0.1773528 -0.025582843 0.62228256 -0.2014178 -0.013328224
0.3519769 -0.056575302 -0.031754185 -0.521178 -0.5274345 0.4782855 -0.55661345 0.07818635
-0.5058059 0.122257486 -0.03139182 -0.14270602 -0.32406193 0.08787538 0.27303156 -0.50069755
-0.7087738 -0.22518718 -0.1284622 0.04678118 -0.05437416 0.18487187 -0.56481206 0.075641185

MLP.0.bias f4 [32]
00000000: 611c a93e e14c f93b dedd 003f 10d1 22be
00000010: 5455 babd 457d 90be 7344 47be de87 f23e
00000020: 6c24 2b3e 0938 89bd 2b95 bd3e 9f6a 49be
00000030: 5aaf f1be 98b9 ff3d 9d03 a4be ccbb 883e
00000040: d48d c13c e3bf 01bf d578 f33d efdb ec3e
00000050: f7fb c33e 4742 c43d 8d40 8ebe 7bec 94bd
00000060: 5b4b 43be ec7b a8bd 433b 97be 69b6 fa3d
00000070: 96b2 b3be cfd5 fabe d579 8b3e 1831 d1be
0.33029464 0.0076080416 0.5033854 -0.15900064 -0.09098306 -0.28220573 -0.19459705 0.47369283
0.16713113 -0.06700141 0.3702787 -0.19669579 -0.47204095 0.12486571 -0.32034007 0.26705778
0.0236272 -0.5068342 0.11888281 0.46261546 0.3827817 0.09582954 -0.27783623 -0.072716676
-0.19071715 -0.08226761 -0.295374 0.12241823 -0.35097188 -0.48991248 0.27241388 -0.40857768

MLP.1.weight f4 [32]
00000000: 508a 4e3f d6f2 6a3f 54f7 653f dcd4 503f
00000010: 176a 623f 11ff 653f 920d 5a3f 7776 773f
00000020: d385 4d3f 83e0 613f 8d44 6d3f f973 553f
00000030: c55b 703f fc63 5c3f a576 763f ee19 613f
00000040: 3e81 553f 6447 313f 9445 513f b2d6 673f
00000050: e944 593f 9243 633f 3373 673f 0596 483f
00000060: 9406 6a3f 6671 553f 0d21 583f e512 563f
00000070: f3d6 6d3f 9c79 603f dc82 e63e ee9e 5d3f
0.806798 0.9177679 0.8983052 0.815748 0.8844313 0.89842325 0.85176957 0.9666514
0.80282325 0.882332 0.92682725 0.83380085 0.9389003 0.86090064 0.9627479 0.8793019
0.8340033 0.6924956 0.8174679 0.90561974 0.84870774 0.8877498 0.90410155 0.7835391
0.9141629 0.8337616 0.8442543 0.8362258 0.9290611 0.8768556 0.45021713 0.8657063

MLP.1.bias f4 [32]
00000000: 12ff 403c c5ba 5abb f9dd 8a3b 9c0b 18bc
00000010: 9fe6 563c f759 2c3b c019 053c 483e f3bc
00000020: db84 023d 5857 42bc ca52 7e3c d533 783c
00000030: 5e0f 6bbc 0a0a c2bb 65c0 13bd 2d57 1cbd
00000040: eaf2 a23c 291a 863c 6e89 ee3a c037 163b
00000050: b997 b83c 6932 623c 03c5 943c 2bb1 ba3c
00000060: 619f d9ba d34e d5bc cf2c 81bb da45 a13c
00000070: 3b8f 803c a2e7 bb3c ba9d 033d 1389 19bc
0.0117795635 -0.0033375483 0.004237887 -0.009280112 0.013116508 0.002629874 0.008123815 -0.029692784
0.031864982 -0.011861645 0.015522668 0.0151490765 -0.014346926 -0.005921607 -0.036072154 -0.038169075
0.019891221 0.016369896 0.0018198916 0.0022921413 0.022533285 0.013805964 0.018160349 0.022789558
-0.0016603285 -0.026038563 -0.003942109 0.019686628 0.015693298 0.0229376 0.03213284 -0.00937106

MLP.3.weight f4 [32, 32]
00000000: f6f4 ccbd 89e8 263d ccce 1dbe d93b 0b3e
00000010: 007b 5bbd 031d 75bd 6f3e 3bbe ecea 8a3d
00000020: 4a26 b83d f77e f5bd 0c28 ce3d d593 803d
00000030: 2d86 9fbd 44e2 2b3d e5f6 bd3d 866b 163e
00000040: 4f0e 2abd de1a 4c3d b41d 0d3d 3ca3 a63d
00000050: 54db 03be 6385 9bbd 3867 14bd dafa f53c
00000060: e2ff fcbd 9233 de3c 6b97 ea3d 6b4d 8abd
00000070: cabe 0f3e 5e15 a0bd 35b4 b8bd b248 05be
00000080: 8d3b 6dbc 1c1d ae3d b000 86bd dd21 853d
00000090: fd8c cebc f869 03be ccf1 143d 3c06 3d3d
000000a0: dd59 0e3e 0afc d7bc 1d98 973d 77de c4bd
000000b0: cf25 00bc d547 0bbd ed33 13be a694 2d3d
000000c0: a671 763d a056 6a3d e2eb af3c baf4 00be
000000d0: 0fe6 a9bd 133b 283e 543b c43c 3361 17be
000000e0: 06b2 18be 835e 153e 1084 20bd 7926 b3bd
000000f0: 33f3 22be efe0 bebd 8d1d 04be 96e7 323d
00000100: d85f 0c3e d109 1fbc 1959 453c a22f 0b3e
00000110: 10a7 eb3d 1483 093d 835e d23c e574 87bc
00000120: 9f9e 6dbd a67f 89bd 5960 00bd d8a1 5f3d
00000130: 65bb 293e 0b85 093e 9bb8 0dbe a8d3 bbbd
00000140: 9701 3f3d b678 11bc 997e bd3c cab7 663d
00000150: f9d6 fd3b 8918 1b3e 1fd7 6d3d 38bd a33d
00000160: 911e 623d 4766 063e 1367 cf3d 623c 9f3d
00000170: 33ae 8c3d 11b5 e13d 82d5 cf3d 61e0 273e
00000180: d42d 403d bc70 833d 8956 3ebd 6da4 6bbd
00000190: e565 a03d 46ca ef3d 0f6e 51bd eeae 37be
000001a0: 3416 c13d b48b a7bb 74e9 343e 27c3 ef3c
000001b0: d249 09be bade 20bd 0921 083e a212 7b3d
000001c0: 5aef c63d 84de f7bd a0c9 03be 8603 dcbd
000001d0: 8486 1e3d 9e3b 2dbe a853 2ebd cf9f 0f3c
000001e0: 719f 29be 6d46 fcbd dfed 07bd b9e5 e83d
000001f0: 2c6b d73d b2ad bebc 2b16 cc3b 6460 83bd
00000200: 25fe 553d fb93 b73d 4bb9 0ebd d1c7 603d
00000210: 0b10 8fbd 25de ebbd 85f3 13be 2d35 c1bd
00000220: e0f6 b63c 7a9b c5bd ac59 b33b e35e 893d
00000230: 3f35 2e3e 4be5 1d3e 04f2 d3bd 57a5 14bd
00000240: 61b4 af3b bee9 393c 43ea 53bc 710b 0bbe
00000250: c0b2 e5bd 68e7 f03c e641 22bd 9bf5 3e3b
00000260: 8440 2c3e 60fc 063e 73ad c73d 82fa 07be
00000270: 83e8 cfbd 05b6 923d eea5 90bc 82f0 3a3d
00000280: eae3 b2bd 5f25 f7bd f7d3 1dbe 1be2 0f3e
00000290: 6ed9 dcbc a2d1 9b3d 2fbd 0cbe 0732 1e3e
000002a0: f977 2739 1043 51bc c641 bdbd 9f6d 863d
000002b0: f03c ce3d b53d 09be f9b5 1dbe 3bc7 14bd
000002c0: 62af adbc 4438 b6bd b23e 313e 262f e7bd
000002d0: 4a2f d63c 9a76 d9bd b09c cfbc 6fb0 1b3d
000002e0: 6aa5 1bbd 1a70 1f3d 3643 03bd f485 0e3d
000002f0: 2170 113e d440 f5bd 25a6 ecbd 5e21 fc3d
00000300: 9e06 853d 68ad 14be 92f9 113e 9cba 2c3d
00000310: a936 14bd a65e c2bb 947f 0dbd 16de 12bd
00000320: ca1a e0bd 8713 8c3d 2434 08bd 4a0c 90bd
00000330: 1534 273d 53ff 1d3e 6efc d13c e774 9d3d
00000340: 08d9 1bbe be83 f6bd 8531 cb3d 2533 28bd
00000350: bf00 4b3d dd89 893d 1d3f 733c 4f10 0abd
00000360: 2e06 95bd 2e36 a03d abf5 9ebd 33e5 d9bc
00000370: 7894 033d 6710 b2bd 9f92 e53c ca69 1f3b
00000380: 76d8 d9bc 76e2 64bd 35d1 cfbd 5e8a 3fbd
00000390: 92f7 2b3e 5c64 103e 88d5 8b3c 8b1f c93a
000003a0: 1649 f1bc c0ae 793d d2b7 a93d f986 a4bd
000003b0: ef94 e5bd 4013 183e 89a3 b53d 599a b8bd
000003c0: ae47 233c 01f1 c6bc 7c90 46bd bf04 e23d
000003d0: f1e8 72bc cde2 953c 844c 0d3e 2a3f 973d
000003e0: 51d1 ef3d a09e bbbd 47c8 de3c 2067 c13d
000003f0: ab61 c4bd d6b1 5a3d 43fc b2bd 0e74 fcbb
-0.1000766 0.040749107 -0.15410918 0.13597049 -0.0535841 -0.05984212 -0.18285535 0.06783089
0.08991678 -0.11987107 0.10066232 0.06278197 -0.07789264 0.04196383 0.09275607 0.14689454
-0.041517552 0.04983031 0.034452155 0.08136603 -0.12876636 -0.07593801 -0.03623125 0.030026842
-0.12353493 0.0271242 0.11454662 -0.067530476 0.14037624 -0.078165755 -0.09018747 -0.13016012
-0.01447953 0.08501646 -0.065431 0.065005995 -0.025213713 -0.12833393 0.036363408 0.046148524
0.13901468 -0.026365299 0.0740206 -0.09612744 -0.007821514 -0.03400405 -0.14375277 0.04237809
0.060166977 0.05721152 0.021474782 -0.12593356 -0.08295833 0.16428785 0.023954071 -0.14783172
-0.1491166 0.14586835 -0.039188445 -0.087475725 -0.15913086 -0.093202464 -0.12901898 0.04367789
0.13708436 -0.00970693 0.012045168 0.13592389 0.11506474 0.03357227 0.025679832 -0.016535232
-0.0580126 -0.067138 -0.031341884 0.054597706 0.16575392 0.13429658 -0.13839953 -0.091712296
0.046632376 -0.008878877 0.023131656 0.05632762 0.007746574 0.15146078 0.058066484 0.07995075
0.05520493 0.13124953 0.10127082 0.07775189 0.06869163 0.11020864 0.10148145 0.16394188
0.046918705 0.06417987 -0.046469245 -0.057529856 0.07831935 0.117085025 -0.05113035 -0.17937824
0.09428063 -0.0051130895 0.1766718 0.02926786 -0.13407066 -0.03927491 0.13293852 0.061297067
0.097136214 -0.12102988 -0.12869883 -0.107428595 0.038702503 -0.16917273 -0.04256025 0.008766129
-0.16564728 -0.1231812 -0.033185836 0.11371941 0.10518488 -0.023276184 0.0062282286 -0.064148694
0.052244324 0.08963772 -0.034844678 0.05487806 -0.06985482 -0.1151698 -0.14448364 -0.094339706
0.022334516 -0.096487954 0.005473336 0.06707551 0.170125 0.154195 -0.10348895 -0.036290493
0.005362079 0.011347232 -0.01293427 -0.13578583 -0.112157345 0.029407218 -0.039613627 0.0029138091
0.16821486 0.13182211 0.0974988 -0.13279155 -0.1015177 0.07163624 -0.017657246 0.045639522
-0.087348774 -0.12067675 -0.1541289 0.14051096 -0.026959147 0.07608344 -0.13744043 0.15448771
0.00015971054 -0.012772337 -0.09241061 0.06563877 0.10070217 -0.13402446 -0.15401448 -0.036322813
-0.021201793 -0.088974506 0.17309073 -0.1128829 0.026145596 -0.106183246 -0.02534327 0.038010057
-0.037999548 0.038925268 -0.03204652 0.034795716 0.1420293 -0.119752556 -0.11555127 0.12311052
0.06495403 -0.14519274 0.1425536 0.042170152 -0.03618494 -0.005931693 -0.034545496 -0.03585633
-0.109426096 0.06839662 -0.03325285 -0.07033594 0.040821154 0.1542943 0.025633063 0.07688313
-0.1521951 -0.120368466 0.099215545 -0.0410644 0.04956126 0.067157485 0.01484659 -0.03370696
-0.07276569 0.07822834 -0.07761701 -0.026598549 0.032124013 -0.08694535 0.028024016 0.002432453
-0.026592474 -0.055880032 -0.10147325 -0.046762817 0.1679366 0.14100784 0.017069593 0.0015344484
-0.029453795 0.06095767 0.08287014 -0.080335565 -0.112100475 0.14851093 0.088690825 -0.090138145
0.00996582 -0.024284841 -0.048477635 0.110360615 -0.014826045 0.018296624 0.1379872 0.073850945
0.11709846 -0.09161115 0.027195109 0.09443498 -0.09588941 0.053392254 -0.08739521 -0.0077042645

MLP.3.bias f4 [32]
00000000: 05cb c2bd 986c 873d 3a6f 5c3e 95c4 dbbd
00000010: 2106 eb3d 9941 513d db51 1dbe e729 42bd
00000020: feaa 233d cb1a 123e 7ae4 7e3d 43ba 19be
00000030: 885e 173e b518 fbbc 9b0f 35bd 6b58 3cbe
00000040: 3ce2 16be e757 0f3d bd60 fb3d 2958 5ebd
00000050: 5f1f c73d 5189 f7ba 8c89 e83d 280d 14be
00000060: 4c6a 77bd 052a b73c 2eab 0a3e bf72 08bd
00000070: 4dad ba3d fb13 833d 93af 6b3d 95f2 c43d
-0.09511379 0.066125095 0.21526805 -0.107308544 0.11475778 0.05108795 -0.15363257 -0.047403242
0.039957993 0.14268033 0.06222961 -0.1501246 0.14782155 -0.03065143 -0.044204336 -0.18393104
-0.14734739 0.03499594 0.12274311 -0.054283295 0.097227804 -0.0018885528 0.1135436 -0.14458144
-0.060404107 0.022358904 0.13541862 -0.033312555 0.09115086 0.06400295 0.057540487 0.09616581

MLP.5.weight f4 [32, 32]
00000000: 239f 39bc a3c3 a23c c28d 9abd 164e a3bc
00000010: 5570 7a3d a93b d1bd 2ee4 6b3d 29a0 363c
00000020: ad31 76bd c412 f7bd dfd3 853c fe11 f03c
00000030: 58f6 b2bd 419e 94bc 6329 093e e597 64bd
00000040: ac53 093e b17a eabd c002 4d3d 9ca7 c6bd
00000050: 25dc cdbc 7d6f 7a38 9f17 ec3d 3b12 1f3e
00000060: c6f5 ffbd 76af 873d 9f1e 083e 3c26 d3bd
00000070: f148 cbbd 1175 363e 2785 ef3c 1cc5 963c
00000080: ea72 8fbd 6a53 0abe 667c edbd 7d19 cc3c
00000090: 431f 933d dd90 05be e119 4c3c aca0 ee3d
000000a0: 97e3 0abe 9824 df3d 3a70 11bb 8327 1e3d
000000b0: e84e 913d 5703 8a3d b512 8a3c 1fad 37bd
000000c0: 3e9b 173e 4b03 fd3d d304 28bd 3da6 ea3d
000000d0: 371d e8bd 7929 a039 22b4 59be a612 a03d
000000e0: 61f6 123d ac77 a53d 1d22 25be 154c 1dbd
000000f0: fcf9 e33d 6f13 febd 2b49 73bd 101e b13d
00000100: ba3d a13d 8f5f 06be 185a f5bd 1e51 22be
00000110: 3723 ca3d 2b80 8ebd 69c0 803d 5356 dfbd
00000120: 3800 c93d 0ee1 e6bd fabc 473c bccb 25be
00000130: e1b3 18be 9609 1539 b00a e83c 233d bebd
00000140: c804 ae3d 77fa ebbd bc36 fabd c8d9 0cbe
00000150: 3d47 c6bd 6c3f bc39 9bc6 273d 8208 25bd
00000160: 2496 ecbd d4ad 9ebd badd 103d 9a08 22bd
00000170: e647 4b3d 203c 793d b115 ed3c 107d 7dbd
00000180: fbe5 2cbd 5fae 2b3c 590b f43d 5754 07be
00000190: 94e4 c9bc 3e4c b5ba 82eb 6abb 3ebc a7bb
000001a0: 26a8 e53d 3e6d b63d 7f09 7abd 566f 9dbc
000001b0: dbf6 f73d f9aa 09bd 7933 00be b001 f6bd
000001c0: 05e7 a63c 857a eb3d caa1 3dbc 684d 73bd
000001d0: a1f9 71bd 28ba 4db9 17e0 ffbd 25b3 0e3d
000001e0: 3dfd 2dbe fdb6 a9bd e8d8 203e 3016 833d
000001f0: d120 aabd 18e8 3c3d 37c1 863d 3f67 a4bb
00000200: f59b e1bd 1803 0f3e 1428 adbd 78fa 173b
00000210: 5af8 aebd 2fa5 a73c a97b 003e a9a9 823b
00000220: 9fad 0ebe df8c 0bbc a09c 0ebe abb6 643d
00000230: 6633 e53d 0fe1 d83a c098 9b3d c2cf 3c3e
00000240: a0a5 d23d 730a e73d 5c85 2e3a 191d 383c
00000250: 1252 ca3d 7525 97b9 13fe 983d 11f4 d9bd
00000260: dc1c c03b 2fd1 d13d dfaf e9bd d1ff aabd
00000270: 12b7 0bbd 8d0f 17be a965 d2bd 1e07 1dbe
00000280: e603 a2bd d848 acbc 5672 a1bd f4e7 9b3c
00000290: b46b d83d 0e97 1a3d fe0c dabb 226e 90bd
000002a0: b4c0 a2bd 0702 1fbe d46a 953d bbb4 efbc
000002b0: dea8 773d fa84 313c a8da 17be 5810 85bd
000002c0: 5060 a53d 61c4 6f3a 7f3c 483d c911 193d
000002d0: 9bbf 27be 2a43 aab8 f8c5 083e 91b2 d53d
000002e0: cbc6 0cbd fd05 8dbd de14 a9bd 8d00 2ebe
000002f0: 700a a6bd c59d a13d 8ceb be3d 0cb8 9a3d
00000300: dbf0 233e 68d5 15be b0f5 053e 3f70 0a3d
00000310: 63b7 d9bd 6866 ae3d 6357 acbd 6e9c 5ebd
00000320: 099f e9bd f66d d33b 4f85 3ebd 5263 25be
00000330: bc10 0cbe 132e a0bc 0000 f4bd 3c8d a13d
00000340: c0d9 36bc 89cf 363e 2472 ad3d e893 54bd
00000350: 50fd 0cbd 3146 24b9 febf 473e d88f aa3c
00000360: 18fa ffbc 12c8 5d3e 4127 1a3d e7df 1bbe
00000370: 49b0 e53d 27b7 c6bd 5baf 083e 26be dcbc
00000380: 2ee2 153e a893 17be 43bd 25be 93a5 f3bd
00000390: 3901 13be e264 df3c 852a cc3c 00dc dbbd
000003a0: a023 b3bd 898e 283d e44c 18be 8d58 38be
000003b0: d28a 15be 0081 e03c c556 913c 355e a73d
000003c0: d3c3 903d 105c 863d a24f 09bd 4988 dd3d
000003d0: 40ed 8d3b d1b0 d1b7 ac7b 593d c167 163c
000003e0: ff88 f1bb 28f1 6abb e9d8 7b3d b4c3 143e
000003f0: 3bae 30be 030d c3bd be43 8bbd d150 dc3c
-0.011329445 0.019868677 -0.075465694 -0.019934695 0.061142284 -0.102164574 0.057590656 0.011146584
-0.06010597 -0.12064126 0.01633638 0.029305454 -0.087383926 -0.018141868 0.13394694 -0.05580892
0.13410825 -0.11449183 0.05005145 -0.09699938 -0.025129387 5.9708476e-05 0.11527943 0.15534298
-0.124980494 0.066252634 0.13292931 -0.10310027 -0.09926022 0.17818095 0.029238297 0.018404536
-0.0700434 -0.13508382 -0.11595993 0.024914498 0.07183697 -0.13043542 0.012457342 0.116517395
-0.13563381 0.108956516 -0.0022192136 0.0386119 0.07095128 0.06738918 0.016854623 -0.044842836
0.14805314 0.12354144 -0.041020226 0.11457489 -0.11333697 0.00030548478 -0.21260121 0.07816057
0.035879496 0.08079466 -0.16126294 -0.038402636 0.11131665 -0.124060504 -0.05939595 0.08648312
0.078731015 -0.1312239 -0.11980075 -0.15851256 0.09869998 -0.0695804 0.06286699 -0.10905137
0.09814495 -0.112733945 0.012191052 -0.16191 -0.14912368 0.00014213318 0.028325409 -0.09289005
0.08497006 -0.11522382 -0.12217471 -0.13754952 -0.096815564 0.00035905407 0.04096089 -0.040291317
-0.115520746 -0.07747999 0.035367705 -0.039558984 0.049629115 0.060848355 0.028941007 -0.061886847
-0.042211514 0.010478585 0.11916227 -0.13215767 -0.024645127 -0.0013831926 -0.003584594 -0.0051188758
0.112137124 0.08907555 -0.061044212 -0.019218128 0.12107631 -0.033610318 -0.12519635 -0.120120406
0.02037383 0.11497978 -0.011574218 -0.059399992 -0.059075955 -0.00019619672 -0.124939136 0.034838814
-0.16991134 -0.08286855 0.15707743 0.06400716 -0.083070405 0.04611978 0.065798216 -0.0050171907
-0.110160746 0.13966024 -0.0845491 0.0023190062 -0.08543463 0.020464508 0.12547173 0.00398751
-0.13933419 -0.008517473 -0.13926935 0.05583827 0.11191444 0.0016546565 0.07597494 0.18438628
0.10285497 0.1128129 0.00066574453 0.011237406 0.09878935 -0.00028828872 0.07470336 -0.10642255
0.0058628153 0.10244977 -0.11410498 -0.08349574 -0.034110136 -0.14752026 -0.102732964 -0.15334746
-0.079109 -0.021030828 -0.07883136 0.019031502 0.10567418 0.037741713 -0.006654381 -0.07052256
-0.079469115 -0.15528117 0.072957665 -0.029260984 0.06046378 0.010834927 -0.14829504 -0.06497258
0.08075011 0.0009146389 0.04888582 0.037370477 -0.16381685 -8.118742e-05 0.13356769 0.104344495
-0.03436927 -0.06885908 -0.08255933 -0.16992398 -0.081074595 0.0789142 0.09322271 0.075546354
0.16009848 -0.1463219 0.13082004 0.033798452 -0.10630681 0.08515626 -0.08415105 -0.0543484
-0.11407287 0.0064523173 -0.04651385 -0.16151169 -0.13678259 -0.01955322 -0.119140625 0.078882664
-0.011160314 0.17852606 0.08469036 -0.051898867 -0.034421265 -0.00015666407 0.19506833 0.020820543
-0.031247184 0.21658352 0.03763509 -0.1522213 0.11215264 -0.09702902 0.13348143 -0.026946139
0.14637062 -0.1480242 -0.16185479 -0.11896815 -0.14355935 0.027269784 0.024922619 -0.10735321
-0.08747029 0.041151557 -0.14873081 -0.1800253 -0.14603737 0.027405262 0.01774157 0.081722654
0.070686005 0.06560528 -0.03352321 0.1081701 0.004331261 -2.4997078e-05 0.05309646 0.00918001
-0.0073710675 -0.0035849307 0.06148616 0.1452778 -0.17253964 -0.09523966 -0.0680003 0.026894005

MLP.5.bias f4 [32]
00000000: c78f e6bd 4e83 dc3d dbf4 ed3d 20c9 dcbd
00000010: 7905 c43d 0f24 1e3e 49aa 9fbd c421 8fbc
00000020: 95a8 e53d c938 553d c7be ccbc 531d 733d
00000030: 3c9b 103e 8cb4 38bd c2f5 1abe c1aa 13be
00000040: 91c6 ba3d abc6 f1bd 10fa 143e fd1c 1ebe
00000050: 8fe0 13be 8b6e 1fbe 7445 86bc fbe0 4dbc
00000060: e67d 443d 796d 07be 7ad2 113e 9d5b da3d
00000070: 66fb 503d d67f 9d3a f11f 193c 190f 8f3d
-0.11257892 0.10767232 0.11618968 -0.10780549 0.09571356 0.15443443 -0.07796151 -0.017472155
0.11213795 0.052056108 -0.024993313 0.059354138 0.14121717 -0.045094058 -0.15132812 -0.14420606
0.09119905 -0.11805471 0.14548516 -0.15440746 -0.14441131 -0.15569513 -0.01639054 -0.012565847
0.04797163 -0.13225354 0.14240447 0.10662005 0.051021002 0.0012016247 0.009345994 0.069853015

MLP.6.weight f4 [32]
00000000: 6cca 673f 5088 5a3f cf03 6c3f 1c15 683f
00000010: a386 523f c99f 4d3f 8f6a 723f 5ae0 6c3f
00000020: 7466 543f 23ac 663f 6e7d 633f 5d12 583f
00000030: 117b 5f3f 7fb9 613f ad0b 603f e88c 603f
00000040: cf57 6b3f b628 6c3f 4723 5b3f 1549 5d3f
00000050: 70fa 643f 5c12 603f 193f 683f 0eb0 4b3f
00000060: e79c 693f 548d 643f 5943 563f 849e 693f
00000070: 2953 683f 2ceb 5a3f 0568 4e3f 5fb5 603f
0.90543246 0.85364246 0.9219331 0.9065721 0.8223669 0.8032194 0.94693846 0.92529833
0.8296883 0.9010641 0.88863266 0.8440302 0.8729716 0.8817367 0.87517816 0.87715006
0.9193086 0.9224962 0.85600704 0.8643964 0.8944464 0.87528014 0.9072128 0.79565513
0.9125504 0.8927815 0.83696514 0.912575 0.9075189 0.85515094 0.8062747 0.8777675

MLP.6.bias f4 [32]
00000000: 29ed 6039 057f 47bc 52c1 063c ce5c 423c
00000010: 9db0 bfba 124e 8ebb 2855 943a 792c 9bbc
00000020: 3f9d a93b d8e2 3a3c 7dca 9f3c 0e96 1dbd
00000030: 4b6b 5ebb 0b11 a0bb fdd8 a2ba 0e6f ad3a
00000040: c2a6 d8bb 1531 303c fc6e a2b9 e45a 9f3b
00000050: d971 a8bb 4742 493c 8070 53bc 962b 3fbc
00000060: 516c da3b 59d2 b1bc 431b 3d3c e5aa 2b3c
00000070: 7f8d 1fbc 9dc5 923b dc41 163c ba67 0e3c
0.00021450654 -0.01217628 0.008224802 0.011862947 -0.0014624778 -0.004342803 0.0011316882 -0.018942105
0.005176216 0.011406623 0.019505734 -0.03847318 -0.0033938463 -0.004884844 -0.0012424287 0.0013231949
-0.006611676 0.01075389 -0.00030981738 0.00486313 -0.005140525 0.012283868 -0.01290524 -0.011668107
0.0066657444 -0.021706747 0.011542144 0.010477756 -0.009738325 0.0044791237 0.009170976 0.0086917225

MLP.8.weight f4 [32, 32]
00000000: e17a fcbd 41cb c5bd 7592 3c3e b282 833c
00000010: 9959 753d 2fe3 2fbd a59c 02be c8f8 70bd
00000020: f960 fcbc ea60 ddbd 9214 cb3d 1267 edbd
00000030: cc8a b83d d102 703c 0d57 07be 6319 753c
00000040: 377d 7ebd 4600 f6bb 90bb ebbc 2a51 0d3e
00000050: abad f7bd 93a6 ed3d dd77 8ebd e51f 40bd
00000060: 0481 a13d fbdc 34bd 9a9e 19be 28cb 92bd
00000070: 8fa6 12be d864 743b 45ac c5bd a5fe 1d3c
00000080: eb79 1c3e 1da6 253e 2fbc ee3d 2e69 cf3d
00000090: d010 00be 7980 873d 5a58 36bd af18 88bd
000000a0: 048e 73bd 181d 23be 91c0 9ebd a3dd 9dbd
000000b0: 73c3 1dbc 629b 903d 1651 173e cc3b fe3d
000000c0: b300 2dbc 49fe c2bd d0ae 4b3d 1cc6 1abe
000000d0: d832 cdbd b8b5 00ba f740 383d 9b37 09bd
000000e0: bef2 f83d 7226 893d ddad 25be 84a5 9c3d
000000f0: 1e50 38bd e03d 063e e92e 823b 25d4 763c
00000100: 8437 1e3e 82f6 a03b ba0b 2c3e fe73 93bd
00000110: 8552 823d 3d24 163e dc10 f4bd 9284 c0bc
00000120: 29f9 5c3d 583e 0c3e 36bc 82bd 08c8 933d
00000130: 9964 1c3e d75e bd3d 8533 69bc 3c7f 133e
00000140: 114a 22be e82c f63d 8e2a ccbd daed fbbd
00000150: 84d3 293e 4ba8 8d3b b291 073e 71c9 d0bd
00000160: dd0c 56bc cd25 22bd 3d0d f0bd b6bf ca3d
00000170: 9f61 fe3d a889 8cbd 52ef e4bd 3a95 eebd
00000180: 4690 10be 4cad aabd 5424 103e 2b08 0dbe
00000190: 23c3 0f3e df94 a23d 3715 d5bd cf43 3abe
000001a0: 58ec 08be 89a0 ccbd 94fd 983c e8fe 18be
000001b0: c026 903d 5bec 233d bb43 c0bd b392 b43c
000001c0: c507 2a3c eedd 813c 0e3f 6d3d 8323 cf3d
000001d0: 9cc3 24be 3db4 ae3d 2e20 0cbe 051d 0bbe
000001e0: 7abd 65bd 76aa 22be c71c 133e f6e2 a9bd
000001f0: 5f95 0ebe 9336 1b3c 0b71 ac3d 754f ca3d
00000200: e95b ab3d b97d 9dbd a9e7 34bd 66c0 e3bd
00000210: cd06 42be 1f0b acbd 8f06 c0bb 176d c43d
00000220: e2c2 b73c 4e22 633d 03ae b4bd 9b44 e33d
00000230: ae48 233e 06df 0f3d a98e ce3c bf72 6e3c
00000240: 29b9 0ebe 2a97 023e 6924 573d ca36 98bd
00000250: 4974 863d 54ae 64bd 6892 383c 1712 dcbd
00000260: 3d1a 95bd 51b0 4dbb 5140 493d 351c af3c
00000270: c7c2 c6bd a7c3 c5bd 7fc6 07bd 1424 c2bd
00000280: 9aca 063d b6e3 3dbe 674a f3bd 3d2d e23d
00000290: 412b a0bd 5632 be3d ea1d 1c3e 7e71 8bbd
000002a0: 08bd f23d e2fc 39bc c68d 013e e800 f9bb
000002b0: 28c5 b8bd e25f cb3a 2ab6 143d bdcb c1bd
000002c0: dcd9 e2bd f77f 5fbd f12c 0bbd 71c9 1fbe
000002d0: b2fa d73c d772 d13d 372f 1fbe 853b b63d
000002e0: 2cd7 39bd 0763 333d 3287 edbd 64c6 073e
000002f0: bdbd 983b 55aa 473d 0c85 753c fb22 fabc
00000300: 6468 49bd 73f9 433e 1c58 d4bd 8953 c73c
00000310: a0be 973d 29de 443c 1a90 36be b34f 843d
00000320: 8aa8 02be f77d 243e 2184 523d 9efd 223a
00000330: f7ae 18be 75ff 783d 12de 9b3d ef2c 44bd
00000340: d3b5 bf3d 1ef6 763d a5a2 c73d 10e2 ed3c
00000350: 83bd 1f3d ade8 30be b1ff 1fbe 9a7d 0b3d
00000360: 0e5a d4bc c1dc 913c 3edc a4bc 2fa2 3cbe
00000370: f021 da3c 9a96 193d 42d9 66bd bf88 f1bc
00000380: 322f 353d 6647 2c3d 1c51 27bd f6a0 03be
00000390: c5c0 b53d 2a1c 193e 1f3c 05be dcbd b3bd
000003a0: a75b 26bc 8b42 933d 880f 4d3c 715e 0a3e
000003b0: 3f6a 0cbd f591 32bd df10 abbd c3b8 063e
000003c0: 0e99 1ebe 33ef 9e3d 8e98 06bd cbaa e43c
000003d0: 2072 093d 1274 053e 7c03 073e f374 ddbd
000003e0: ed72 463d 9aed 1c3e daaa 87bb add6 0bbe
000003f0: 7700 203d 2e9d c9bd 0bb4 40be a150 cfbc
-0.12328125 -0.09657908 0.18415244 0.016053531 0.0598999 -0.04294127 -0.12755068 -0.058831006
-0.030807959 -0.108095005 0.09916033 -0.11591925 0.090108484 0.014649109 -0.13216801 0.014959666
-0.062131133 -0.007507357 -0.02877596 0.13800493 -0.120936714 0.11604037 -0.06956456 -0.046905417
0.07885936 -0.044156056 -0.15001908 -0.07167655 -0.1432135 0.0037291553 -0.096519984 0.0096432315
0.15280883 0.16176648 0.11656987 0.10127483 -0.12506413 0.06616301 -0.044517852 -0.06645333
-0.05946161 -0.15929067 -0.07751573 -0.077082895 -0.009629118 0.07060887 0.14777026 0.12413749
-0.010559249 -0.09521157 0.04972726 -0.15114635 -0.10019463 -0.00049098907 0.04498383 -0.033500295
0.121556744 0.06696786 -0.16179605 0.07648757 -0.04499828 0.13109541 0.0039728773 0.015065228
0.15450865 0.0049121985 0.16801348 -0.07199858 0.063633956 0.14662261 -0.11917278 -0.023500714
0.053948555 0.13695657 -0.06383555 0.07215887 0.1527275 0.09246605 -0.014233475 0.14404005
-0.15848567 0.12020284 -0.09969054 -0.12301226 0.16584593 0.0043230406 0.13239172 -0.10194672
-0.01306459 -0.03958683 -0.11721275 0.09899847 0.124209635 -0.06862193 -0.11178459 -0.116495565
-0.14117536 -0.08333835 0.14076358 -0.13772647 0.14039283 0.07938551 -0.10404437 -0.1818993
-0.13371408 -0.09991557 0.018675603 -0.14940989 0.07038641 0.040020328 -0.093879186 0.022042608
0.010377829 0.015852895 0.05792146 0.10114195 -0.16090244 0.085304715 -0.1368415 -0.13585289
-0.056088902 -0.15885338 0.14366446 -0.082952425 -0.13924168 0.009473461 0.08419999 0.098784365
0.0836714 -0.07689995 -0.04416624 -0.111206815 -0.18947907 -0.08400559 -0.005860157 0.0959112
0.022431795 0.055452637 -0.088222526 0.1109707 0.15945694 0.0351248 0.02521451 0.014553725
-0.1393782 0.12752977 0.052524958 -0.07432325 0.065651484 -0.055830315 0.011265375 -0.10745638
-0.07280395 -0.003138561 0.049133603 0.021375755 -0.097051196 -0.09656458 -0.033148285 -0.094795376
0.03290806 -0.18543896 -0.118794255 0.11043785 -0.0782075 0.092869446 0.15245786 -0.06808756
0.11852461 -0.011351796 0.12651739 -0.007598985 -0.090219796 0.0015516246 0.036306538 -0.09462688
-0.1107671 -0.054565396 -0.033978406 -0.15604188 0.026364658 0.10226982 -0.15545355 0.08898071
-0.04537122 0.04379561 -0.11598052 0.13259274 0.0046612904 0.048746426 0.014985334 -0.030534258
-0.04917182 0.19138126 -0.10368368 0.024331825 0.07409406 0.012015858 -0.17828408 0.06460514
-0.12759605 0.16063677 0.05139554 0.00062176015 -0.14910494 0.060790498 0.07610716 -0.047894415
0.09360852 0.06029331 0.09747819 0.029038459 0.03899909 -0.17276259 -0.15624882 0.03405533
-0.025921848 0.017805459 -0.02012455 -0.18421243 0.02662751 0.03749714 -0.056359537 -0.02948415
0.044234462 0.04206028 -0.040848836 -0.1285437 0.088746585 0.1495215 -0.13011216 -0.08776447
-0.010153688 0.071904264 0.01251591 0.13512589 -0.03428101 -0.043596227 -0.08352827 0.13156419
-0.15488073 0.077604674 -0.03286033 0.027913472 0.033556104 0.13032559 0.13184923 -0.10813322
0.048449446 0.15325013 -0.00414024 -0.13656111 0.039062943 -0.09844433 -0.18818681 -0.025307002

MLP.8.bias f4 [32]
00000000: fb82 473d 1e61 0f3e 6443 273d a433 0bbe
00000010: 5cd4 6f3d 77dc 8c3b 7b98 89bd f342 0abe
00000020: 580e 17be dbce eabb 6005 04bd 8b11 223e
00000030: 3707 b33b be74 46bb 2137 513d 36c9 27bd
00000040: fcf4 c33d 92a5 16be b06d 1a3e 3cdf c03d
00000050: 687f e63d 81d4 ffbd b40f 82bd d64d d93c
00000060: 84e0 f23b c074 133e 2b87 16bb 09a0 7abb
00000070: d6c5 863c 5c7a eebb 6397 03bd 0ab8 203e
0.048708897 0.14001891 0.040835753 -0.13593918 0.05855213 0.0042987424 -0.067185365 -0.13502102
-0.14751565 -0.0071657724 -0.03223169 0.15827005 0.0054635066 -0.0030281986 0.051077966 -0.040963374
0.095682114 -0.14711598 0.15080905 0.094175786 0.112547696 -0.12491704 -0.063506514 0.026526373
0.0074120183 0.14400005 -0.002296875 -0.003824236 0.016451757 -0.00727777 -0.032126796 0.15695205

MLP.10.weight f4 [32, 32]
00000000: 39db 91bd 9a3f a0bd 6930 f6bd 508a 37bd
00000010: f58a 593d 529b ac3d 9b64 44bc 20d4 60bd
00000020: 2eaf ae3d 9422 63bd ae4c eebd 9b60 75bd
00000030: 7901 ef3c 820b d53d 6e1b 8dbd 7632 5cbd
00000040: 2fb4 093e f511 de3d 24ad 453d 78e1 ea3d
00000050: c9a1 a83d afa5 223e b42f 13bd d107 bbbc
00000060: 2ca0 5e3d ba1b 17bd 185f 113b c3f1 ae3d
00000070: 149c dabd 9c6e f73d 2a32 e93b d9c3 183d
00000080: 0f8c 683c 3865 35bd adaf 6dbd 243d 8ebb
00000090: 2727 fe3d 531d 56bd 30d6 29bc e4b4 1d3d
000000a0: 68a2 7d3d ae17 513d dc76 00bd f9fc 0ebe
000000b0: 180b b23c 5644 0ebe e814 7d3d c327 8abc
000000c0: 2e90 a93d 364b a13c 41ee 023e 4a16 25be
000000d0: 340f 5d3d bc1c 19be 5cdc ebbd 7a74 af3d
000000e0: f540 08be 82df 093e f36c 0fbc a4fe b53d
000000f0: 4df6 453e 24cc 2dbe fde0 6dbc f609 a53d
00000100: 2bb3 03be a14a bebc af5d 13be 3b0b 95bc
00000110: 2ec3 cd3d 5501 b73d cfd0 453e ebd3 bbbd
00000120: d720 56bc a7d7 f83d 6e8e 973d 8c80 0b3e
00000130: 87eb 3a3e c8cb ed3c 41e6 9dbd 9801 923c
00000140: 09cb 19bc 2cc5 d23d afe2 7fbd 2672 f43d
00000150: 7c94 02be a084 4e3d ed3a d1bd ccbf 67bd
00000160: 120c 0dbe 3bb9 5bbe cd2f 84bc 4977 47bc
00000170: e3f7 8f3c 6b99 9f3d 119e 0dbd ed1b 3fbe
00000180: 6df4 78b7 dde4 2b3e 6f93 03be 4cc0 e4bd
00000190: 36e1 dbbd eff4 2a3e 83e4 bd3c cc92 09be
000001a0: da38 01be 7d17 91bd 22d6 05be d28b e43d
000001b0: a778 103e 116c 253e 6f4c dc3d 4c63 583d
000001c0: 26fc c93d f3be d33d 6841 c03d e22a 18be
000001d0: dd7f 93bb c7b6 213c 7cfc f2bd b410 0cbe
000001e0: 7968 c13c 99c4 3b3e 8074 d2bc f971 a5bc
000001f0: 3a92 81bc 0e8b 51bd f941 013d 35b6 b83d
00000200: 4b02 ad3d dae4 b2bd ca3b 1c3e f9e5 983d
00000210: 6d49 1b3d 5f56 53bd 3011 b93d 24fd a7bd
00000220: 2c32 f83c abd4 5a3d d44a 13be cf67 573d
00000230: cf23 b4bd 6da5 36be 0bb4 acbd 3adb 973d
00000240: 59b0 73bd 0f35 d63b 1b2b f83d 1109 c23d
00000250: d32e 2fbb 67de f9bd 9059 963d 0a06 efbd
00000260: 5ec8 0abd c871 913c b0a4 913b df8b fb3d
00000270: fa14 643b 43a5 d5bd a8e0 bf3c baed 14be
00000280: d030 523d 20b5 dabd fb7b 8cbd cee4 0f3b
00000290: fa35 a33c 1f79 d03c 3c68 a5bd bd27 cd3d
000002a0: 9422 13be 89bd d7bd 74a1 8e3d 558b 263e
000002b0: 945d 843d df4a 33be 2c4c 14be 4a40 813d
000002c0: af2a 323d a7a2 9c3d b6f6 da3d 2dd6 293e
000002d0: afbf a8bc bea0 b13d eb01 be3d 99ae a43d
000002e0: c0ba 44bd 960e 033d 4f1f debc ba2f dd3b
000002f0: 1e0a 1cbd d9c1 2ebd c556 52bc 5576 223e
00000300: c34d 893d b81e 083e 4391 d1bd 3f3e 01be
00000310: 9ca4 aebd 2c6f 10be 3d57 57bd 7004 cd3c
00000320: 6776 c2bd 061f 263e c65c f13b 01e3 693d
00000330: 5a9e bb3d b0c1 29bd fbe8 4dbc bc14 bcbd
00000340: 3cc5 523d a6a9 8f3d c771 223d 6745 453d
00000350: b693 a43c 8d75 d5bc 28d0 ae3c 00de d1bd
00000360: 84cd d93c 1bc0 003e c704 da3c c463 dcbd
00000370: 8829 02bd 068c 2f3d a957 523d c0b1 483c
00000380: 53f2 a5bd 039a 6a3d 6a94 fe3b 3f04 0fbe
00000390: 0b1d 36be cd69 d33c 91a9 19be 1df2 75bd
000003a0: 480b c63d 57d1 acbd 09e8 003e f82b bfbc
000003b0: 05c4 1d3d fc32 52bc cbdd 183d 44fe c93b
000003c0: dafd cc3d 77fa d6bd 2443 e73b eaf6 023e
000003d0: d0c3 883d 556a 1bbe 7ec2 72bd 2ca3 d7bd
000003e0: a9bd d9bd 4ca8 293d 538a 3bbc 218f 49bd
000003f0: f726 5a3d 797b b43d 547c 69bc f1aa 173e
-0.071218915 -0.07824631 -0.12020952 -0.04480964 0.053111035 0.084280625 -0.011986877 -0.0548898
0.085295066 -0.0554529 -0.11635719 -0.059906583 0.029175507 0.104025856 -0.068899974 -0.05375906
0.13447641 0.10843269 0.048260823 0.11468786 0.08233983 0.15883516 -0.035934165 -0.022830876
0.05435197 -0.036891676 0.0022181924 0.08542206 -0.10674301 0.12081644 0.0071165757 0.03729615
0.014193549 -0.044285983 -0.058028866 -0.0043407846 0.124098115 -0.05227406 -0.010366008 0.03850259
0.06192246 0.051047973 -0.031363353 -0.13963689 0.021733806 -0.13893256 0.061787516 -0.016864663
0.08279453 0.019689184 0.12786199 -0.16121784 0.053969577 -0.14952368 -0.115166396 0.08567138
-0.13306029 0.13464168 -0.008754003 0.088864595 0.19332238 -0.16972405 -0.014518973 0.080585405
-0.12861316 -0.023228945 -0.14391206 -0.018193832 0.10046993 0.08935801 0.19317935 -0.091712795
-0.013069353 0.121505074 0.07400213 0.13623255 0.18253909 0.029027835 -0.07709933 0.017823026
-0.009386786 0.10291514 -0.06247204 0.119358346 -0.12751955 0.05041945 -0.10216317 -0.056579396
-0.13774136 -0.21457379 -0.016136074 -0.012174436 0.017574256 0.07792934 -0.034574572 -0.18662997
-1.4838862e-05 0.16786523 -0.1284921 -0.1116949 -0.10736315 0.16694997 0.023180252 -0.13434905
-0.12619343 -0.07084558 -0.13069966 0.11159481 0.14108525 0.16154505 0.10756766 0.052829072
0.098625466 0.10339155 0.09387475 -0.14860108 -0.0045013265 0.009870238 -0.11864564 -0.13678247
0.023609387 0.18336715 -0.025690317 -0.020195948 -0.015816797 -0.051158004 0.031557057 0.09019128
0.08447703 -0.08735056 0.15257183 0.07465739 0.03791182 -0.05159604 0.090364814 -0.082025796
0.030297361 0.053425472 -0.14384013 0.052589234 -0.087958924 -0.17836542 -0.08432778 0.07414861
-0.05949435 0.006537087 0.12117597 0.094743855 -0.002673079 -0.12200623 0.073413014 -0.11671074
-0.03388249 0.01775445 0.004444681 0.12282538 0.0034802542 -0.10431912 0.023422554 -0.1454381
0.051316082 -0.10679078 -0.06859585 0.0021956447 0.019923199 0.02544838 -0.08076522 0.10017345
-0.1436866 -0.10534198 0.069643885 0.16264088 0.06463161 -0.1750903 -0.14482182 0.0631109
0.043497737 0.07648211 0.106915876 0.16585608 -0.020599214 0.08673237 0.092777096 0.08041114
-0.04802966 0.031996332 -0.027114538 0.006750074 -0.038095586 -0.042665336 -0.01283807 0.15865453
0.06704285 0.13292968 -0.102327846 -0.12621401 -0.085274905 -0.14104909 -0.05257343 0.02502653
-0.0949524 0.16222772 0.007365796 0.057101253 0.091610625 -0.04144448 -0.012567754 -0.09183642
0.05145763 0.0701478 0.039659288 0.04816189 0.020089965 -0.02605703 0.021339491 -0.10247421
0.026587255 0.12573282 0.026613606 -0.10761216 -0.03177789 0.042858146 0.05135313 0.01224941
-0.0810286 0.057275783 0.007769157 -0.13966464 -0.17784517 0.025807286 -0.1500609 -0.06004535
0.096701205 -0.08438366 0.12588514 -0.023336396 0.038517017 -0.012829538 0.037320893 0.006164344
0.10009356 -0.10496991 0.0070575643 0.12789503 0.06677973 -0.15177281 -0.059267513 -0.105291694
-0.10631878 0.041420266 -0.011446553 -0.049208764 0.053259816 0.08812613 -0.014250834 0.14811303

MLP.10.bias f4 [32]
00000000: a548 1d3e 01aa 30be 4769 bc3d db82 4dbc
00000010: 4009 833d 1e15 a9bd 7755 013e f6f8 05be
00000020: 75b2 8ebd 9efe a9bd a828 223e cdf7 16be
00000030: d43f c33d 1389 da3d 575d 34bc 7a79 ac3d
00000040: 039b 0cbe 37c4 283e 97d0 31be d265 2f3d
00000050: 58ad b63d b66f 93bd 64ca a93c ea2c 1ebb
00000060: f98e 303e b58f b4bd f036 8cbd 8f05 bd3d
00000070: 87b1 c03d 013b ce3c 0e9e ac3d 040f a9bd
0.15359743 -0.17252351 0.091997676 -0.012543405 0.06398249 -0.08255981 0.12630259 -0.13083252
-0.06967632 -0.083005175 0.15835822 -0.14742966 0.095336586 0.10670676 -0.011008582 0.08421607
-0.13731007 0.164811 -0.17364727 0.042821713 0.089197814 -0.071990415 0.02072639 -0.0024135658
0.1724204 -0.088164724 -0.06846416 0.09229576 0.09408861 0.02517462 0.08428584 -0.08254817

MLP.11.weight f4 [32]
00000000: 7ed9 763f 3858 693f 0b4a 733f 51c9 6e3f
00000010: 1701 753f 0db5 753f b58c 763f 8908 713f
00000020: 95b5 733f 409f 6c3f 4a31 773f c26f 6e3f
00000030: ba1a 693f e3de 623f a021 6f3f 9d5a 763f
00000040: e83a 5a3f 975e 643f ddbe 6a3f a139 723f
00000050: 6c75 733f ed3d 723f 2c50 6c3f 400c 6f3f
00000060: 76c5 583f f8f4 683f ae78 673f d36d 693f
00000070: 731c 6f3f 2ee5 6f3f 3df8 743f b8eb 673f
0.96425617 0.91150236 0.95034856 0.93275934 0.9570479 0.95979387 0.9630845 0.9415365
0.9519895 0.92430496 0.96559584 0.9313928 0.91056406 0.8862135 0.9341068 0.96232015
0.85246134 0.8920683 0.91697484 0.94619185 0.95101047 0.9462574 0.9230983 0.93378067
0.846763 0.9099879 0.9041852 0.91183203 0.93402785 0.93709075 0.9569128 0.90594053

MLP.11.bias f4 [32]
00000000: a631 1e3c ce8e 053c af10 273c b3b8 6f3b
00000010: f52a 1ebb 37b6 38bb 9542 223c d2be 56bc
00000020: 8539 753b d091 803a 75a0 5f3c 59e7 cb3b
00000030: f847 b63b b5ee 15bc 5a80 d7bb cf70 8c3b
00000040: 4d1d cb3a ae40 3cbc 0dad 01bc 81da b5ba
00000050: 2825 123c 6754 84ba ddd5 533b 4272 1a3b
00000060: 408f 0a3d ed80 733c 3400 033b 9fcd 12bb
00000070: ebd2 3d3b 6eac 783b e7c7 4f3c 5d06 423c
0.009655392 0.008151723 0.010196849 0.0036578595 -0.002413449 -0.002818478 0.00990357 -0.013107019
0.0037418318 0.000980908 0.013649096 0.006222647 0.0055627786 -0.0091511505 -0.00657658 0.004285909
0.0015496403 -0.01149003 -0.007914794 -0.0013874323 0.008919992 -0.0010095955 0.0032323517 0.0023566638
0.03382802 0.014862281 0.0019989135 -0.0022400392 0.0028964828 0.0037944573 0.012681938 0.011842337

MLP.13.weight f4 [4, 32]
00000000: ef28 29bc 91d9 04be ac69 53bd 480d eabd
00000010: 5a4f 05be b275 05be be0f 14be a1e2 323d
00000020: db9a b23d 54ac 12be 2037 9b3c 611d 813c
00000030: 7bfb b1bc 2168 89bb d61e 943d b41b 1b3e
00000040: 179f 803d 80ac 2e3c 12d9 a83c f033 a43c
00000050: fad6 133e 8034 32bd 3b7f afbd f0c4 063e
00000060: 8d99 36bc d09c 4d3c 377b 65bd 1904 18bc
00000070: db4c 0cbe 9f5b 24be a361 283e 3dc6 be3d
00000080: bab7 753c 2f9a a1bb 2351 bc3b 75a4 32bd
00000090: 3338 163d 1132 873c 5025 373c a869 d03a
000000a0: c379 743d 29ea 78bc d23b c13c 2f3e 16bb
000000b0: ea45 8dbc 01b7 013d 1d73 36bd c8ef c33c
000000c0: c7ce 26bc 1b23 5d3c 1b73 50bc 6acd a63c
000000d0: e504 693c d9db ffbc 4656 0dbd 13d8 74bd
000000e0: f98c 313c d97d 47bd 01e1 7fbc 1431 cd3c
000000f0: 5e85 953c 77d6 2cbd fb68 923b 1e0e 10bd
00000100: 3477 8ebc 8e7d e33b db38 243e a0c5 b43d
00000110: 2f75 7f3d a84c 0e3e 3d94 ddbd 739e e5bd
00000120: c28f 56bd 7d21 82bd 7585 bebd 5523 c5bd
00000130: 7e0d d63d 1fc8 4f3d 3a8f 023e 284b dabd
00000140: 4bd1 44bd 3da6 85bd 4167 a53d a2d0 e0bd
00000150: 7d26 43bd f2cf cdbd 0681 69bd 7f42 453d
00000160: 0dd1 d9bd 3d02 32bd f260 11bd 11f8 b13d
00000170: 1ed0 bebc 9c13 59bc f4ea 093d 6ec1 28bd
00000180: 6ded 053e 7c7a 3ebc 42ff bfbc 7e7d e53c
00000190: 8c83 efbd 0649 023e ba67 90bd 59a0 bf3d
000001a0: fcf7 e63c e6d4 0dbc ee2a d53d f5fd 9e3d
000001b0: 1b85 98bc e5b8 d3bc a83d 4fbc 0753 8bbd
000001c0: 489d be3c e92d 2c3d f460 4a3d a13b 8a3d
000001d0: 3001 ecbd 8f42 03bd 99c3 c8bb d021 913d
000001e0: 2900 85bd 73ad 2fbd 8410 873d 1367 70bd
000001f0: 96a2 03bd 64f3 0cbd c5d4 90bd cc18 833c
-0.010324701 -0.1297362 -0.05161445 -0.114283144 -0.13018551 -0.13033178 -0.1445913 0.04367316
0.087209426 -0.1432355 0.018947184 0.01576108 -0.02172636 -0.0041933213 0.07232444 0.15147287
0.06280344 0.010661244 0.02061132 0.020044297 0.14437476 -0.0435071 -0.08569189 0.13161063
-0.011145008 0.012549594 -0.05602571 -0.009278321 -0.13701193 -0.16050576 0.16443495 0.09315155
0.014997417 -0.00493171 0.005746977 -0.04361387 0.03667469 0.016503366 0.01117833 0.0015900629
0.059686434 -0.015192547 0.023588095 -0.0022925248 -0.017245252 0.031668667 -0.044543374 0.023918048
-0.0101811355 0.013497139 -0.012722756 0.020361621 0.014222358 -0.031232761 -0.034506105 -0.059776377
0.010836833 -0.048704002 -0.01561761 0.025047816 0.018252071 -0.042196717 0.004468081 -0.035169713
-0.017390825 0.0069424575 0.16037314 0.088267565 0.062367614 0.1389643 -0.1081929 -0.112118624
-0.052383192 -0.06354044 -0.09302799 -0.0962588 0.10451792 0.05072796 0.12749949 -0.10658866
-0.04805116 -0.06525848 0.08076335 -0.109772936 -0.047644127 -0.10049428 -0.057007812 0.04815912
-0.106355764 -0.043459166 -0.035492845 0.08689893 -0.023292597 -0.013249304 0.033671334 -0.041200094
0.13078852 -0.011625882 -0.023437146 0.02801394 -0.116950125 0.12723169 -0.07051034 0.09356756
0.02819442 -0.008656716 0.10408579 0.07763282 -0.018618157 -0.025845 -0.012648977 -0.068029456
0.023268357 0.04203597 0.049408868 0.067496546 -0.11523664 -0.032045897 -0.0061268327 0.07086527
-0.06494171 -0.042890023 0.06594947 -0.05869205 -0.032137476 -0.034411803 -0.070718326 0.016003035

MLP.13.bias f4 [4]
00000000: 58b7 0abe 87d6 b63b 57ca c83d 91aa f93d
-0.13546503 0.005579773 0.09804218 0.12190736
