example/model/diff_robot_default/model_4000.pth (torch, 24610 bytes, 18 tensors)

MLP.0.weight f4 [32, 2]
0.3581751 -0.27225935 0.2946788 0.4319545 -0.04726303 0.35601035 -0.098282665 0.18077785
0.3457538 0.5865759 0.20779283 0.22314887 -0.3475154 -0.45688656 -0.5158698 0.16653351
0.437556 -0.16989322 0.10028331 0.32983202 -0.31207266 0.4821443 0.46606946 -0.44760227
-0.16477273 0.52439433 -0.07056227 0.41089267 0.5459519 0.15460017 -0.12017468 0.44791043
0.14465165 0.31793693 -0.013978764 0.112590134 -0.028739827 0.42394084 -0.18225636 -0.015197211
0.26688766 -0.036061477 -0.03318205 -0.40157273 -0.45619324 0.4262886 -0.37354892 0.066518314
-0.43278757 0.1010503 -0.030076766 -0.09176073 -0.24200206 0.07676803 0.23203295 -0.3934142
-0.63665855 -0.20333168 -0.11396077 0.037583493 -0.02320723 0.067031145 -0.4405955 0.06902554
00000000: ba62 b73e 9465 8bbe 24e0 963e 2429 dd3e
00000010: e196 41bd fd46 b63e 6c48 c9bd d41d 393e
00000020: a406 b13e d729 163f a5c7 543e 2381 643e
00000030: 8aed b1be 09ed e9be 0b10 04bf c387 2a3e
00000040: 5707 e03e 7df8 2dbe 5661 cd3d bedf a83e
00000050: fdc7 9fbe 9edb f63e a8a0 ee3e 202c e5be
00000060: 2fba 28be b53e 063f f482 90bd 8660 d23e
00000070: 81c3 0b3f 824f 1e3e 251e f6bd 8454 e53e
00000080: 901f 143e a1c8 a23e 3007 65bc a895 e63d
00000090: c96f ebbc c60e d93e 69a1 3abe b9fd 78bc
000000a0: 80a5 883e 33b5 13bd e7e9 07bd f19a cdbe
000000b0: 2992 e9be 8042 da3e ce41 bfbe c13a 883d
000000c0: 5596 ddbe 76f3 ce3d 8d63 f6bc 0ded bbbd
000000d0: 63cf 77be 8f38 9d3d 0c9a 6d3e 966d c9be
000000e0: 0efc 22bf 2e36 50be 4464 e9bd 26f1 193d
000000f0: 171d bebc a047 893d bc95 e1be 435d 8d3d

MLP.0.bias f4 [32]
0.050995868 0.039380953 0.3317521 -0.09820162 0.0085733645 -0.18634248 -0.07524289 0.3216417
0.027024241 -0.05797394 0.27568325 -0.10418643 -0.3354259 0.14953655 -0.22354285 0.2116124
-0.047653936 -0.1752261 0.029311534 0.2699315 0.21525283 0.09764096 -0.16328292 0.005216762
-0.15619999 0.04256624 -0.10239791 0.16612639 -0.14643346 -0.34004003 0.012356005 -0.25838453
00000000: 0be1 503d ec4d 213d 69db a93e ee1d c9bd
00000010: 4c77 0c3c 90d0 3ebe f218 9abd 39ae a43e
00000020: f161 dd3c 1576 6dbd 5b26 8d3e b25f d5bd
00000030: f2bc abbe 1c20 193e 6be8 64be ecb0 583e
00000040: c630 43bd 796e 33be be1e f03c 7634 8a3e
00000050: 3d6b 5c3e fcf7 c73d a333 27be 5ff1 aa3b
00000060: e4f2 1fbe f059 2e3d ffb5 d1bd 091d 2a3e
00000070: a7f2 15be ba19 aebe d770 4a3c fa4a 84be

MLP.1.weight f4 [32]
0.54189456 0.64568996 0.61046135 0.33172864 0.589971 0.6356501 0.5525468 0.7574845
0.51265574 0.6406657 0.7680404 0.61850125 0.74601007 0.56024843 0.7668061 0.6652617
0.49972534 0.21630706 0.45896423 0.6322307 0.5151404 0.65113974 0.678265 0.4053707
0.716849 0.35914546 0.4531447 0.57679003 0.6816827 0.5044009 0.0011308299 0.6604654
00000000: 9ab9 0a3f f04b 253f 3247 1c3f 56d8 a93e
00000010: 5708 173f f7b9 223f b573 0d3f 81ea 413f
00000020: 683d 033f ab02 243f 4c9e 443f 1956 1e3f
00000030: 84fa 3e3f 716c 0f3f 684d 443f 974e 2a3f
00000040: 00dc ff3e 997f 5d3e 5cfd ea3e dfd9 213f
00000050: 3ee0 033f 18b1 263f c6a2 2d3f c08c cf3e
00000060: 6b83 373f eae1 b73e 9502 e83e 83a8 133f
00000070: c282 2e3f 6b20 013f 5b38 943a 4314 293f

MLP.1.bias f4 [32]
0.01982076 0.0026692764 0.020446938 -0.024972878 0.0066375467 -0.011705277 0.013859887 -0.028379567
0.022141466 -0.016148485 0.02430776 0.022854315 -0.026221398 -0.006923443 -0.037313893 -0.033699524
0.004177635 -0.001044092 0.0063851783 0.015086827 0.05275564 -0.004327278 0.013234878 0.019197857
-0.011472554 -0.026519364 -0.019746896 0.03124376 0.011759816 0.014604009 0.03186602 -0.041241642
00000000: 255f a23c 07ef 2e3b 5680 a73c ec93 ccbc
00000010: c77f d93b 7dc7 3fbc 9414 633c 447c e8bc
00000020: 0562 b53c d449 84bc 1121 c73c f938 bb3c
00000030: 42ce d6bc 0dde e2bb 74d6 18bd 8308 0abd
00000040: 8be4 883b ead9 88ba c23a d13b bd2e 773c
00000050: 4c16 583d d7cb 8dbb 1ad7 583c d344 9d3c
00000060: 61f7 3bbc 233f d9bc 3ec4 a1bc eaf2 ff3c
00000070: 3eac 403c a745 6f3c f285 023d ffec 28bd

MLP.3.weight f4 [32, 32]
-0.07608234 0.035693485 -0.087905586 0.011941407 -0.023573644 -0.034304157 -0.1502409 0.059919313
0.039367788 -0.059266437 0.069741346 0.04333776 -0.043917943 0.03531114 0.022635944 0.10504689
-0.017702987 -0.00346357 0.030947682 0.03497258 -0.069545425 -0.07016709 -0.010516028 0.0220013
-0.04922849 0.007244288 0.036022626 -0.05708069 0.09758378 -0.027746309 -0.0019525981 -0.060180455
-0.00585497 0.06544873 -0.049897555 0.009671596 -0.017493548 -0.06704205 0.028596435 0.028015085
0.101652026 -0.0144773675 0.05199625 -0.06439251 -0.0010323551 -0.0273186 -0.09152145 0.025020612
0.037816267 0.0054781125 0.009838643 -0.073371574 -0.053454015 0.13215367 0.012036569 -0.09629043
-0.10926464 0.07781825 -0.021181166 -0.05643647 -0.13193776 -0.01479377 -0.0035475332 0.024638876
0.1122085 -0.011988632 -0.0129197175 0.08207425 0.10012683 0.03094359 0.01813895 -0.016644303
-0.06144935 -0.051123198 -0.039281074 0.049920373 0.15023386 0.10346474 -0.11745977 -0.08960341
0.029752819 0.033085722 0.015373772 0.014807813 -0.016697397 0.13225415 0.062199052 0.06748613
0.07398556 0.09484475 0.08593681 0.06811178 0.07564617 0.10775978 0.0017733077 0.16580497
0.046559457 0.055801194 -0.023587307 -0.04639106 0.065689854 0.08882408 -0.042828627 -0.16588256
0.090145715 -0.0053190244 0.15807018 0.02694549 -0.12598743 -0.031389657 0.122926 0.054063287
0.07333296 -0.022865232 -0.10477235 -0.046864077 0.044840682 -0.14704438 -0.043527767 0.004463569
-0.15473847 -0.086360276 -0.03611495 0.10444995 0.08972308 -0.049476817 0.009846238 -0.06779457
0.0393139 0.068900205 -0.049220733 0.026429381 -0.06512936 -0.08146581 -0.10986115 -0.08988251
0.01646941 -0.076991975 0.0007917381 0.052483376 0.14289576 0.10574222 -0.080756456 -0.04283622
-0.0011558048 0.018511433 -0.021809261 -0.114714265 -0.097891495 0.03389408 -0.029201841 0.0014836881
0.14481194 0.09547202 0.08013952 -0.10475411 -0.082507886 0.07508797 -0.010053271 0.049085803
-0.08361121 -0.09331781 -0.13329865 0.07919972 -0.0221805 0.059147827 -0.12452624 0.13758256
-0.0028238436 -0.005788533 -0.086687304 0.056854505 0.09237691 -0.114794604 -0.13857946 -0.032283437
-0.01239634 0.0011301547 0.1497561 -0.0803441 0.01759295 -0.097523704 -0.018279927 0.029083908
-0.032221135 0.02939846 -0.020803098 0.02808064 0.118372284 -0.03979041 -0.025976665 0.10379414
0.03821286 -0.05443186 0.11229198 -0.012018026 -0.013295553 -0.031821467 -0.038563713 -0.00484986
-0.077794924 0.0108890245 -0.0025756094 -0.06157064 0.0072351964 0.10109516 0.00097576843 0.070550084
-0.033354737 -0.02278745 0.05978136 0.051022958 0.04591206 0.035673697 0.012361367 -0.012726538
-0.054393467 0.018809577 -0.045602124 -0.021383237 0.007434531 -0.08018982 0.0025626242 -0.02376603
-0.022573926 -0.029919025 -0.0746592 -0.00095525396 0.10330751 0.07074645 0.011263946 -0.0022192271
-0.025999103 0.027103374 0.057980053 -0.061751295 -0.07726325 0.087756835 0.06471113 -0.07009988
0.0031591533 0.004061336 -0.03468298 0.01520996 -0.019379297 0.017838988 0.106575675 0.042987224
0.08382657 -0.04278793 0.017892806 0.0724559 -0.058507133 0.024848849 0.00053623685 0.0055073155
00000000: 0fd1 9bbd 5533 123d d807 b4bd e4a5 433c
00000010: 841d c1bc 8482 0cbd c0d8 19be f46d 753d
00000020: 1e40 213d 5dc1 72bd 8dd4 8e3d ef82 313d
00000030: 4de3 33bd 6aa2 103d 046f b93c d322 d73d
00000040: db05 91bc 10fd 62bb fe85 fd3c 683f 0f3d
00000050: d56d 8ebd c3b3 8fbd 6b4b 2cbc 123c b43c
00000060: d0a3 49bd 7e61 ed3b 768c 133d 71cd 69bd
00000070: 01da c73d 3a4c e3bc 52ee ffba c87f 76bd
00000080: 0cdb bfbb fc09 863d 6161 4cbd 9d75 1e3c
00000090: a14e 8fbc 584d 89bd 1243 ea3c e47f e53c
000000a0: f02e d03d 7b32 6dbc 05fa 543d 38e0 83bd
000000b0: 1750 87ba 42cb dfbc 996f bbbd 07f8 cc3c
000000c0: 3be5 1a3d bd81 b33b 4232 213c d643 96bd
000000d0: 99f2 5abd 4b53 073e 0835 453c eb33 c5bd
000000e0: 24c6 dfbd 2d5f 9f3d 2084 adbc ee29 67bd
000000f0: b11a 07be 9261 72bc bb7d 68bb 78d7 c93c
00000100: 92cd e53d f86b 44bc 39ad 53bc 8b16 a83d
00000110: 4c0f cd3d 697d fd3c 2398 943c a259 88bc
00000120: 50b2 7bbd 8f66 51bd 31e5 20bd 4e79 4c3d
00000130: e8d6 193e 52e5 d33d bf8e f0bd fe81 b7bd
00000140: 2fbc f33c e584 073d 46e2 7b3c 789c 723c
00000150: fbc8 88bc a26d 073e 6fc4 7e3d 2b36 8a3d
00000160: be85 973d f73d c23d a3ff af3d 307e 8b3d
00000170: 61ec 9a3d 29b1 dc3d 556e e83a c7c8 293e
00000180: 21b5 3e3d cb8f 643d 2b3a c1bc 8d04 3ebd
00000190: 6788 863d 66e9 b53d 126d 2fbd 1edd 29be
000001a0: 519e b83d 364b aebb 26dd 213e cabc dc3c
000001b0: d902 01be 7192 00bd a0c0 fb3d 7771 5d3d
000001c0: 972f 963d de4f bbbc e392 d6bd 8cf4 3fbd
000001d0: ddaa 373d cd92 16be 2c4a 32bd 2143 923b
000001e0: c373 1ebe a8dd b0bd 45ed 13bd dbe9 d53d
000001f0: bcc0 b73d 34a8 4abd 1e52 213c e1d7 8abd
00000200: 9d07 213d 8d1b 8d3d ae9b 49bd 6e82 d83c
00000210: 8b62 85bd 8cd7 a6bd e2fe e0bd 5214 b8bd
00000220: dbea 863c f8ad 9dbd a58c 4f3a cff8 563d
00000230: 4453 123e 618f d83d a463 a5bd 0875 2fbd
00000240: 607e 97ba 4aa5 973c 56a9 b2bc 50ef eabd
00000250: 567b c8bd 85d4 0a3d b338 efbc 5078 c23a
00000260: 9549 143e d686 c33d 3020 a43d 5389 d6bd
00000270: e5f9 a8bd b9c7 993d 7ab6 24bc 320e 493d
00000280: 5b3c abbd 681d bfbd 717f 08be 7633 a23d
00000290: e1b3 b5bc fe44 723d 9d07 ffbd 71e2 0c3e
000002a0: 3c10 39bb bcad bdbb 1d89 b1bd 45e0 683d
000002b0: 1b30 bd3d 6f19 ebbd c6e7 0dbe a33b 04bd
000002c0: 051a 4bbc b321 943a aa59 193e 738b a4bd
000002d0: 171f 903c 82ba c7bd c9bf 95bc 6041 ee3c
000002e0: 4ffa 03bd 0ad5 f03c 426b aabc 5f09 e63c
000002f0: 2b6d f23d 45fb 22bd 04cd d4bc 0692 d43d
00000300: 1685 1c3d f1f3 5ebd 56f9 e53d 41e7 44bc
00000310: 97d5 59bc 3a57 02bd fcf4 1dbd 93eb 9ebb
00000320: f252 9fbd e167 323c 8ecb 28bb 7f31 7cbd
00000330: 3a15 ed3b fb0a cf3d b6ca 7f3a 907c 903d
00000340: fa9e 08bd bfac babc 4ddd 743d 73fd 503d
00000350: 490e 3c3d 951e 123d 5587 4a3c f882 50bc
00000360: afcb 5ebd 8b16 9a3c 4bc9 3abd e62b afbc
00000370: 5e9d f33b 8f3a a4bd b3f1 273b fab0 c2bc
00000380: f4ec b8bc be18 f5bc ece6 98bd 026a 7aba
00000390: e392 d33d 84e3 903d 6a8c 383c 7470 11bb
000003a0: 12fc d4bc e507 de3c 7e7c 6d3d edee 7cbd
000003b0: 323c 9ebd dbb9 b33d 4587 843d 8790 8fbd
000003c0: cc09 4f3b f514 853b be0f 0ebd 3233 793c
000003d0: 55c1 9ebc 1223 923c 5944 da3d 5f13 303d
000003e0: 44ad ab3d 6642 2fbd ef93 923c c263 943d
000003f0: 2da5 6fbd d08f cb3c 3f92 0c3a b676 b43b

MLP.3.bias f4 [32]
-0.09223668 0.027940253 0.18323705 -0.08053153 0.07637789 0.03850103 -0.097003825 -0.03731144
0.03656503 0.118827626 0.030125655 -0.1381767 0.13575138 -0.012863275 -0.039345525 -0.15191586
-0.12351437 0.028211672 0.1082506 -0.018794864 0.09497549 -2.220625e-37 0.10120681 -0.10826397
-0.045417514 0.0074622906 0.12627617 -0.004401248 0.066334516 0.059164245 0.049345713 0.07141605
00000000: 96e6 bcbd f5e2 e43c 7ea2 3b3e b7ed a4bd
00000010: 036c 9c3d 42b3 1d3d f1a9 c6bd e1d3 18bd
00000020: 37c5 153d e65b f33d 14ca f63c 317e 0dbe
00000030: 6902 0b3e 7cc0 52bc c628 21bd d58f 1bbe
00000040: 1af5 fcbd 2a1c e73c 7eb2 dd3d b0f7 99bc
00000050: 8282 c23d be20 9782 8445 cf3d 80b9 ddbd
00000060: b707 3abd 3b86 f43b 8a4e 013e 5838 90bb
00000070: 64da 873d 3556 723d bb1e 4a3d 9442 923d

MLP.5.weight f4 [32, 32]
0.02064465 0.01134043 -0.058590736 -0.02665627 0.033387158 -0.072576776 0.05669907 -0.0013269369
-0.036411345 -0.089941524 0.009714014 0.022333747 -0.053410623 -0.004732269 0.12553594 -0.017137809
0.10764657 -0.06327932 0.03611997 -0.04193714 -0.015188329 1.9672874e-37 0.08152639 0.06252166
-0.08741254 0.04961746 0.12201533 -0.03454915 -0.08020719 0.1715583 0.058113445 0.008230345
-0.061324585 -0.061315536 -0.10075825 -0.016766028 0.05332668 -0.11282956 -0.014392135 0.039090373
-0.12281217 0.046329793 -0.0027283186 0.028467312 0.056946937 0.06732725 0.025615344 -0.03968235
0.1280731 0.09988919 -0.06241818 0.076996766 -0.112265974 -2.3565464e-37 -0.19123635 0.019476246
0.015146467 0.044489473 -0.12815538 -0.006371518 0.11005293 -0.10562396 -0.05284327 0.055142485
-5.182222e-06 -0.082239166 -0.11617716 -0.15269546 0.051665854 -0.058750868 -0.01640811 -0.009784163
0.08102367 -0.09797364 0.0018661259 -0.12592739 -0.11454092 -0.0034398187 0.031327233 -0.042406905
0.07535161 -0.05273111 -0.11391005 -0.10044175 -0.07823709 -2.0431219e-37 0.032542065 -0.021001732
-0.06644037 -0.076474346 0.028597921 -0.023641162 0.040590644 0.055793002 0.024168681 -0.06501141
-0.015015497 0.0070352536 0.0970035 -0.11604493 -0.022243958 0.0061579747 0.032648094 0.005167635
0.107407495 0.09373079 -0.048921987 -0.007371237 0.09756703 -0.047870606 -0.100660264 -0.06772613
0.027429368 0.112312764 -0.0033891504 -0.04074479 -0.043663513 2.097362e-37 -0.12313896 -0.0005992498
-0.14445414 -0.079723194 0.145862 0.036789585 -0.0666896 0.060186666 0.06356569 0.0017122834
-0.071877606 0.06287144 -0.08770492 -0.024216207 -0.07545997 0.0065862914 0.028847618 0.0011045389
-0.11194496 0.009876032 -0.13345158 0.06490321 0.10047377 0.004863584 0.061324406 0.14124694
0.09842245 0.09188101 -0.034858193 -0.01014917 0.052890696 -2.0709936e-37 0.07505197 -0.07820998
0.019499745 0.09908205 -0.119344346 -0.034359757 -0.04116641 -0.15078531 -0.09083241 -0.13732374
-0.003268324 -0.045841955 -0.06161948 0.007655756 -0.0025235403 0.028648159 0.0045967395 -0.0038713482
-0.04148732 -0.09456197 0.0541254 0.0033145098 0.013982956 0.013124978 -0.1293788 -0.027199045
0.05726937 -0.050968837 0.022380307 0.00467183 -0.13313366 -1.8852334e-37 0.11798074 0.05243256
0.021124838 -0.048162617 -0.07130878 -0.14353429 -0.071900904 0.05546087 0.042586256 0.04266501
0.105781965 -0.05959106 0.12559088 0.043890834 -0.09517915 0.07397233 -0.03545124 -0.01210686
-0.09305731 0.021820525 -0.041849647 -0.1348072 -0.11496139 -0.037656147 -0.106621206 0.045183104
-0.00521624 0.17317037 0.08556349 -0.045005128 -0.018971588 2.266229e-37 0.17035733 0.03691786
-0.015390317 0.19402614 0.03764683 -0.08527742 0.10767002 -0.08382331 0.11214118 -0.014625768
0.08665592 -0.08950291 -0.124123834 -0.075932056 -0.10711335 0.036468215 0.034186028 -0.034950163
-0.07783127 0.02461982 -0.12903132 -0.15430309 -0.10458065 0.062298417 0.017468017 0.06953489
0.049870428 0.059474025 -0.023649696 0.097914256 0.01411387 2.1401635e-37 0.043077506 0.01536678
-0.025815796 0.0041801655 0.052656144 0.08652904 -0.12768275 -0.07067779 -0.050854523 0.02640423
00000000: f81e a93c 36cd 393c d7fc 6fbd 405e dabc
00000010: f9c0 083d 22a3 94bd 493d 683d 9dec adba
00000020: 1024 15bd 4333 b8bd 8727 1f3c 43f5 b63c
00000030: 19c5 5abd 2611 9bbb 7e8c 003e 9764 8cbc
00000040: ce75 dc3d 9798 81bd 89f2 133d 47c6 2bbd
00000050: 78d8 78bc fbe2 8502 4ff7 a63d 5b0b 803d
00000060: 5905 b3bd ae3b 4b3d 2ce3 f93d 6983 0dbd
00000070: ab43 a4bd fbac 2f3e 5d08 6e3d 92d8 063c
00000080: 7d2f 7bbd 0026 7bbd 575a cebd e958 89bc
00000090: 146d 5a3d 2f13 e7bd fdcc 6bbc 3a1d 203d
000000a0: f284 fbbd 4fc4 3d3d 97cd 32bb 4834 e93c
000000b0: 3141 693d dfe2 893d 45d7 d13c f689 22bd
000000c0: 9825 033e b492 cc3d 35aa 7fbd 7bb0 9d3d
000000d0: b4eb e5bd d460 a082 76d3 43be a68c 9f3c
000000e0: e328 783c 983a 363d 2a3b 03be 2bc8 d0bb
000000f0: 6e63 e13d 6051 d8bd 2f72 58bd 16dd 613d
00000100: f3e2 adb6 026d a8bd 4aee edbd 335c 1cbe
00000110: 939f 533d c0a4 70bd 4d6a 86bc c14d 20bc
00000120: bdef a53d 67a6 c8bd cb98 f43a 1cf3 00be
00000130: 6e94 eabd 956e 61bb fc50 003d ddb2 2dbd
00000140: f251 9a3d 94fc 57bd ac49 e9bd 67b4 cdbd
00000150: c43a a0bd 340c 8b82 d44a 053d d30b acbc
00000160: e411 88bd 959e 9cbd 3046 ea3c 1cab c1bc
00000170: 6042 263d 3487 643d 66fd c53c b424 85bd
00000180: 8f03 76bc fc87 e63b c5a9 c63d f7a8 edbd
00000190: f638 b6bc d6c8 c93b 02ba 053d 4455 a93b
000001a0: 76f8 db3d eef5 bf3d 6c62 48bd 6b8a f1bb
000001b0: 39d1 c73d f813 44bd f826 cebd ffb3 8abd
000001c0: 8eb3 e03c 3c04 e63d 821c 5ebb 02e4 26bd
000001d0: 83d8 32bd 33bd 8e02 4730 fcbd f916 1dba
000001e0: c9eb 13be ea45 a3bd d95c 153e adb0 163d
000001f0: 8f94 88bd 4b86 763d ba2e 823d b26e e03a
00000200: 9134 93bd bec2 803d a39e b3bd 1161 c6bc
00000210: c28a 9abd d1d1 d73b d751 ec3c 2dc6 903a
00000220: 6643 e5bd 15cf 213c 88a7 08be f9eb 843d
00000230: 31c5 cd3d b35e 9f3b 4d2f 7b3d 0aa3 103e
00000240: b691 c93d 1c2c bc3d 77c7 0ebd b448 26bc
00000250: eaa3 583d ccf1 8c82 d9b4 993d 8e2c a0bd
00000260: eebd 9f3c 88eb ca3d cf6a f4bd d1bc 0cbd
00000270: 1c9e 28bd 7767 1abe 5806 babd 989e 0cbe
00000280: 6131 56bb c6c4 3bbd b564 7cbd 23dd fa3b
00000290: fb61 25bb 8baf ea3c 3fa0 963b 72b6 7dbb
000002a0: 9cee 29bd b5a9 c1bd 98b2 5d3d 3f38 593b
000002b0: c518 653c 260a 573c e07b 04be 88d0 debc
000002c0: 4993 6a3d b3c4 50bd e856 b73c 2716 993b
000002d0: 3154 08be 664d 8082 e39f f13d 86c3 563d
000002e0: ff0d ad3c 2a46 45bd 560a 92bd a7fa 12be
000002f0: c840 93bd f02a 633d ed6e 2e3d 81c1 2e3d
00000300: 37a4 d83d c115 74bd e59a 003e e0c6 333d
00000310: 49ed c2bd ce7e 973d 5235 11bd da5b 46bc
00000320: d594 bebd f5c0 b23c 896a 2bbd e60a 0abe
00000330: e170 ebbd 553d 1abd 385c dabd eb11 393d
00000340: feec aabb 9353 313e e93b af3d 4c57 38bd
00000350: 4e6a 9bbc 473b 9a02 2772 2e3e 2f37 173d
00000360: ab27 7cbc caae 463e 9033 1a3d eea5 aebd
00000370: 1982 dc3d 8eab abbd 46aa e53d eba0 6fbc
00000380: a978 b13d 4d4d b7bd a334 febd 4482 9bbd
00000390: 3e5e dbbd b25f 153d a606 0c3d e727 0fbd
000003a0: 0066 9fbd 81af c93c c920 04be a101 1ebe
000003b0: 612e d6bd a02c 7f3d 1619 8f3c 4f68 8e3d
000003c0: ef44 4c3d 099b 733d 02bd c1bc 4587 c83d
000003d0: dd3d 673c e8a6 9102 0a72 303d f2c4 7b3c
000003e0: a67b d3bc c5f9 883b f8ad 573d 2336 b13d
000003f0: 44bf 02be 84bf 90bd d54c 50bd af4d d83c

MLP.5.bias f4 [32]
-0.10225876 0.087192245 0.106315635 -0.095210396 0.08374378 0.13428074 -0.070911504 -0.008789872
0.0952295 0.044334233 -0.016117468 0.05286258 0.118321195 -0.03764367 -0.14072146 -0.11861021
0.08310135 -0.108625576 0.10684525 -0.13346355 -0.13392809 -0.13966702 -0.017105548 4.8236572e-05
0.04669256 -0.11817406 0.11114895 0.101083234 0.03275858 -0.010165498 0.006506124 0.06339589
00000000: 0a6d d1bd d991 b23d 03bc d93d abfd c2bd
00000010: dc81 ab3d e480 093e 0d3a 91bd 6503 10bc
00000020: af07 c33d d097 353d c808 84bc 6f86 583d
00000030: 6252 f23d 4030 1abd 4919 10be e9e9 f2bd
00000040: 0a31 aa3d 1677 debd afd1 da3d abaa 08be
00000050: 7224 09be df04 0fbe ef20 8cbc a051 4a38
00000060: b340 3f3d 3e05 f2bd 10a2 e33d ba04 cf3d
00000070: dc2d 063d 308d 26bc 5331 d53b b4d5 813d

MLP.6.weight f4 [32]
0.6460907 0.5115531 0.7023685 0.713576 0.5312228 0.48645982 0.7450093 0.71319073
0.5533287 0.6105718 0.6206594 0.4242557 0.5675303 0.6586075 0.48418725 0.42315477
0.7047363 0.7338941 0.52093405 0.5074399 0.6556481 0.6303964 0.6723176 0.49126923
0.69754785 0.6801104 0.55344987 0.68708116 0.4822857 0.5091427 0.41939816 0.46312422
00000000: 3366 253f 25f5 023f 6cce 333f ebac 363f
00000010: 38fe 073f 4311 f93e eeb8 3e3f ab93 363f
00000020: f3a6 0d3f 6f4e 1c3f 89e3 1e3f 0b38 d93e
00000030: aa49 113f 809a 283f 64e7 f73e bea7 d83e
00000040: 9969 343f 7ce0 3b3f ef5b 053f 95e7 013f
00000050: 8ed8 273f a961 213f 021d 2c3f a487 fb3e
00000060: 7f92 323f b71b 2e3f e4ae 0d3f 8de4 2f3f
00000070: 27ee f63e 2d57 023f 5bbb d63e 9e1e ed3e

MLP.6.bias f4 [32]
-0.016484344 -0.009360982 -0.0021558725 0.013094907 -0.0013912576 0.010856124 0.0037556207 -0.025095003
0.0025516802 0.015480205 0.02895235 -0.026498863 -0.009944173 0.0071805087 -0.003919689 0.009119276
-0.008317494 0.013594907 0.0050395587 0.0006564789 -0.0056034615 0.018440347 -0.014819627 -0.01218698
0.0101215765 -0.02728704 0.0056372145 0.009889782 -0.017704738 0.004911022 0.0119407475 0.0012363545
00000000: 2d0a 87bc ce5e 19bc 8a49 0dbb 058c 563c
00000010: dc5a b6ba e2dd 313c dc20 763b 0994 cdbc
00000020: 173a 273b b0a0 7d3c 7b2d ed3c 2514 d9bc
00000030: e2ec 22bc 794a eb3b bc70 80bb 0469 153c
00000040: 1946 08bc 2cbd 5e3c e222 a53b 8e17 2c3a
00000050: 3e9d b7bb 3610 973c 05ce 72bc e6ab 47bc
00000060: f8d4 253c 1289 dfbc 62b8 b83b c108 223c
00000070: 8709 91bc a3ec a03b 20a3 433c 2c0d a23a

MLP.8.weight f4 [32, 32]
-0.083093815 -0.09306451 0.117469914 0.007075279 0.05197349 -0.03084069 -0.102935754 -0.041308403
-0.024066163 -0.06418845 0.053298727 -0.09478545 0.05610324 0.035650216 -0.11374757 -0.022063773
-0.07793295 0.038788214 -0.011348876 0.11984627 -0.08282265 0.08214213 -0.05947231 -0.02887905
0.024089348 -0.01641042 -0.11735491 -0.043091305 -0.08619081 -0.010684848 -0.08018165 -0.0066110715
0.13440889 0.105725065 0.10048755 0.08782726 -0.09112717 0.049363267 -0.018308297 -0.05420747
-0.03606263 -0.11833979 -0.061449163 -0.06591436 0.0020518915 0.05300841 0.12763053 0.07955548
0.0010312416 -0.094653115 0.044460494 -0.105855845 -0.04523785 -0.007383425 0.015370964 -0.032769542
0.091681816 0.048867982 -0.13583185 0.0540638 -0.020110153 0.08147162 -0.011682786 0.016623015
0.14343631 -0.0070285844 0.14789987 -0.019804336 0.0027535646 0.12315509 -0.08318907 -0.023335136
0.03136239 0.06249937 -0.04713651 0.03840522 0.101827994 0.062718764 0.004144679 0.073038265
-0.110536404 0.08307915 -0.0741768 -0.08438596 0.0557123 -0.0012416539 0.10573471 -0.09897586
-0.008528181 -0.018037962 -0.079083785 0.064229235 0.10700873 -0.02828273 -0.032057248 -0.086797334
-0.13825896 -0.07208186 0.1105524 -0.11681275 0.12132914 0.0735259 -0.10083675 -0.16732384
-0.10305653 -0.06286195 0.026905585 -0.13211046 0.067481875 0.036173157 -0.10557997 -0.003370753
-0.011169151 0.03825155 0.05535591 0.05976521 -0.14516452 0.063917495 -0.114745334 -0.10312408
-0.063849725 -0.14671886 0.12136046 -0.0688055 -0.12294375 0.0057237702 0.07715002 0.050968178
0.035854954 -0.032788843 -0.005888988 -0.051829778 -0.040782195 -0.054940533 -0.035060138 0.047741264
0.0039509335 0.02446586 -0.026822394 0.03360356 0.06423812 0.025104154 0.020810239 0.01698927
-0.07351172 0.04760166 0.023981925 -0.039211396 0.03254973 -0.027725065 0.0026224072 -0.017432295
3.6168076e-05 -0.0030577255 0.005098845 0.033390038 -0.03510192 -0.0054499563 -0.0038679536 -0.02984148
0.038984876 -0.14806013 -0.10291775 0.07652885 -0.06853523 0.092638634 0.13253619 -0.06144065
0.11818244 -0.034555238 0.092603184 -0.017052468 -0.055530597 -0.012283005 0.042343818 -0.0671721
-0.0894079 -0.044556227 -0.02848744 -0.11102261 0.03595642 0.08562544 -0.14818038 0.0855307
-0.02659802 0.032367084 -0.0985276 0.100853845 -0.012499387 0.017764265 0.01626799 -0.020024326
-0.024425007 0.16726874 -0.079287626 0.020245029 -0.0061704377 0.01644371 -0.16453281 0.051270045
-0.10807851 0.12525965 0.06510179 -0.014826196 -0.12590997 0.040297616 0.064238414 -0.051136993
0.09177139 0.034341216 0.09068344 0.016418582 0.03188691 -0.14395519 -0.15385644 0.0333589
-0.036943905 0.016882766 -0.010321209 -0.15271111 0.0045999773 0.023400744 -0.047587305 -0.032131575
0.039207783 0.028621452 -0.006712806 -0.11114663 0.050598178 0.10175585 -0.08526108 -0.043683264
-0.026718002 0.06796645 -0.005473159 0.10047553 -0.028453771 -0.043036006 -0.04254325 0.051580943
-0.12820326 0.008004852 -0.009666952 0.008159368 0.0038967186 0.08613724 0.12829258 0.020841114
0.010898003 0.12336704 -0.020357555 -0.013711522 0.024281612 -0.027265687 -0.068248406 -0.017402362
00000000: 172d aabd 9b98 bebd 1194 f03d bed7 e73b
00000010: 27e2 543d 9da5 fcbc fbcf d2bd 0033 29bd
00000020: 6726 c5bc 3c75 83bd c44f 5a3d e01e c2bd
00000030: 83cc 653d f605 123d 7cf4 e8bd 16bf b4bc
00000040: 4f9b 9fbd 64e0 1e3d a3f0 39bc f671 f53d
00000050: ec9e a9bd 223a a83d 3d99 73bd c293 ecbc
00000060: 0657 c53c 256f 86bc c557 f0bd 8280 30bd
00000070: cf84 b0bd 800f 2fbc 4736 a4bd b0a1 d8bb
00000080: 7ca2 093e 6286 d83d 6bcc cd3d c7de b33d
00000090: e2a0 babd 2331 4a3d 48fb 95bc a708 5ebd
000000a0: 69b6 13bd 225c f2bd 1eb2 7bbd 1cfe 86bd
000000b0: 0779 063b 591f 593d 94b1 023e fced a23d
000000c0: ba2a 873a 7ed9 c1bd 351c 363d f3ca d8bd
000000d0: 534b 39bd a8f0 f1bb 7fd6 7b3c 5b39 06bd
000000e0: adc3 bb3d cb29 483d 8117 0bbe 0172 5d3d
000000f0: 0cbe a4bc 98da a63d 2869 3fbc fd2c 883c
00000100: f8e0 123e 0a50 e6bb 1073 173e b43c a2bc
00000110: 2675 343b bc38 fc3d 085f aabd 5429 bfbc
00000120: d975 003d 57ff 7f3d 3712 41bd cb4e 1d3d
00000130: 328b d03d b272 803d 16d0 873b 1695 953d
00000140: e960 e2bd 6725 aa3d 02ea 97bd 8cd2 acbd
00000150: 9532 643d febe a2ba 718b d83d dbb3 cabd
00000160: c9b9 0bbc 59c4 93bc aef6 a1bd 9e8a 833d
00000170: 6527 db3d 2fb1 e7bc 764e 03bd cdc2 b1bd
00000180: c293 0dbe a79f 93bd 4c69 e23d 863b efbd
00000190: 6a7b f83d bf94 963d 7f83 cebd f156 2bbe
000001a0: 4d0f d3bd c4bd 80bd 1a69 dc3c f747 07be
000001b0: f033 8a3d 4e2a 143d 503a d8bd dae7 5cbb
000001c0: d1fe 36bc a8ad 1c3d e1bc 623d 5dcc 743d
000001d0: 02a6 14be 2de7 823d 9aff eabd b832 d3bd
000001e0: a5c3 82bd 783d 16be d58b f83d e6e9 8cbd
000001f0: efc9 fbbd 778e bb3b d400 9e3d 02c4 503d
00000200: a5dc 123d 984d 06bd 69f8 c0bb 764b 54bd
00000210: 3b0b 27bd 5309 61bd 389b 0fbd 588c 433d
00000220: d576 813b a16c c83c a3ba dbbc e3a3 093d
00000230: 478f 833d 3aa7 cd3c 3c7a aa3c 152d 8b3c
00000240: 508d 96bd f5f9 423d be75 c43c 219c 20bd
00000250: de52 053d ad1f e3bc b1dc 2b3b 2cce 8ebc
00000260: 2db3 1738 1f64 48bb 3614 a73b fec3 083d
00000270: 08c7 0fbd 8c95 b2bb 7e7d 7dbb 1f76 f4bc
00000280: 9bae 1f3d 139d 17be 8bc6 d2bd 28bb 9c3d
00000290: 335c 8cbd 53b9 bd3d 91b7 073e 31a9 7bbd
000002a0: a309 f23d cb89 0dbd bda6 bd3d 9eb1 8bbc
000002b0: 0d74 63bd a83e 49bc b670 2d3d 8791 89bd
000002c0: 7d1b b7bd 9780 36bd 7e5e e9bc d25f e3bd
000002d0: 0a47 133d 645c af3d 99bc 17be b82a af3d
000002e0: 17e4 d9bc 5993 043d d7c8 c9bd 768c ce3d
000002f0: 3bca 4cbc 5d86 913c 7344 853c 0e0a a4bc
00000300: f416 c8bc 7f48 2b3e 8d61 a2bd e7d8 a53c
00000310: 6231 cabb f6b4 863c 4a7b 28be 8a00 523d
00000320: 4458 ddbd 1144 003e 1654 853d 93e9 72bc
00000330: 8bee 00be 1d0f 253d 6e8f 833d 0675 51bd
00000340: a3f2 bb3d 60a9 0c3d 3db8 b93d 4380 863c
00000350: d99b 023d fd68 13be 8b8c 1dbe 58a3 083d
00000360: 7e52 17bd ba4d 8a3c 4a1a 29bc 4d60 1cbe
00000370: 68bb 963b ebb2 bf3c e8ea 42bd 669c 03bd
00000380: 5798 203d 8977 ea3c 19f7 dbbb d8a0 e3bd
00000390: 0940 4f3d 5f65 d03d 5c9d aebd 39ed 32bd
000003a0: b6df dabc fe31 8b3d 2f58 b3bb 1dc6 cd3d
000003b0: e217 e9bc 8646 30bd d541 2ebd 8a46 533d
000003c0: b747 03be c826 033c 2362 1ebc dfae 053c
000003d0: 1760 7f3b b968 b03d 215f 033e fcba aa3c
000003e0: 8a8d 323c dca7 fc3d e3c4 a6bc 4ba6 60bc
000003f0: 3bea c63c 4a5c dfbc d2c5 8bbd 668f 8ebc

MLP.8.bias f4 [32]
0.024161447 0.12111545 0.05047286 -0.116585515 0.035460033 0.0015633019 -0.045096166 -0.07623595
-0.13788562 0.0052331286 -0.015563485 0.14962135 0.00615153 -0.0014373995 0.043181304 -0.023308467
0.084470704 -0.13234088 0.1376375 0.08769683 0.060322024 -0.10670371 -0.022413483 0.025266513
0.00778015 0.12951009 -0.01581753 -0.008815125 0.05450331 0.005459246 -0.03336276 0.15179689
00000000: 3aee c53c 610b f83d a1bc 4e3d 63c4 eebd
00000010: 8a3e 113d b5e7 cc3a c2b6 38bd 9821 9cbd
00000020: e331 0dbe aa7a ab3b fdfd 7ebc 5736 193e
00000030: c692 c93b 2067 bcba e1de 303d 66f1 bebc
00000040: fafe ac3d 5e84 07be d8f0 0c3e 659a b33d
00000050: 3a14 773d 7a87 dabd 7b9c b7bc b8fb ce3c
00000060: a1f0 fe3b 4b9e 043e c493 81bc 506d 10bc
00000070: dd3e 5f3d 7ae3 b23b 64a7 08bd a570 1b3e

MLP.10.weight f4 [32, 32]
-0.06329074 -0.059416212 -0.08593553 -0.05183707 -0.00696098 0.06188985 -0.04544509 0.0138467895
0.04143544 -0.036143985 -0.10532393 -0.05922658 0.008262869 0.07790247 -0.01907692 -0.009417423
0.032005947 0.08009682 -0.0043471586 0.061064526 0.02578956 0.13346569 -0.029518165 -0.021244857
0.0332363 -0.04549461 -0.013608062 -0.0013306771 -0.074680924 0.11221409 -0.002186841 0.018301118
0.06318937 -0.006444723 -0.004283755 0.011980293 0.01978041 -0.009613763 -0.0026081023 -0.016197702
0.0169881 0.016667018 0.03129315 -0.11216712 0.025293356 -0.059806917 0.022613743 0.0056543555
0.035954207 0.021723876 0.11095398 -0.13413005 0.021599442 -0.10522857 -0.0015487546 0.06188232
-0.09694236 0.09887742 -0.008067344 0.014828257 0.08429406 -0.11821688 -0.01856073 0.09738081
-0.04807038 -0.025729293 -0.10038521 -0.006833621 0.031812426 0.061459653 0.15711057 0.016247772
-0.008197915 0.066768825 0.024012355 0.122681245 0.14688663 0.03328129 -0.0032822485 0.0109338295
-0.0076828203 0.09338006 -0.050545312 0.10566015 -0.07000603 0.056514047 -0.051910598 -0.05200192
-0.12501831 -0.16926809 -0.008901471 0.00012908484 0.06596283 0.06543826 -0.036885124 -0.16847624
0.01959373 0.15972953 -0.10958571 -0.10956892 -0.024707671 0.15398885 0.024722109 -0.05729436
-0.11635866 -0.055026494 -0.10873309 0.10592928 0.13063224 0.15165961 0.073328495 0.01336329
0.08472211 0.08874948 0.08338397 -0.14662138 -0.011592411 0.008202994 -0.009522629 -0.12462831
0.025485432 0.13344574 -0.0385886 -0.0042578457 -0.021324914 -0.041397963 0.03162741 0.07367465
0.08052073 -0.078662165 0.13384308 0.07178259 0.00951493 -0.03805381 0.10829409 -0.07351603
0.037598383 0.044820875 -0.1253565 0.046419993 -0.076412775 -0.1660615 -0.06790398 0.010174846
-0.05075026 0.008609715 0.12812494 0.10559377 -0.029346453 -0.115221605 0.054378316 -0.112705894
-0.033240236 0.017405186 0.007271271 0.019092355 0.04803606 -0.10526595 0.010912662 -0.12978119
0.041407604 -0.09827615 -0.06906726 0.008390853 0.01210043 0.032057215 -0.070296556 -0.032539904
-0.1402297 -0.06796076 0.044889297 0.16408938 0.06823541 -0.15772651 -0.10821515 -0.0034348192
0.019974455 0.076614335 0.09337911 0.1535055 -0.017428135 0.08055179 0.035377074 0.07627349
-0.05143338 0.013631227 -0.03880689 0.015242925 -0.019412756 -0.035781357 -0.04551762 0.15602097
0.041607134 0.124828584 -0.08632485 -0.121573634 -0.05324602 -0.13119471 -0.048067946 -0.049625505
-0.079245284 0.13067372 -0.010024197 0.056315586 0.08926272 -0.041196056 -0.046873953 -0.022430958
0.043919943 0.07492553 0.038648088 0.041720837 -0.039054103 -0.01686224 -0.0047361846 -0.088558786
0.026672645 0.09032839 0.01122947 -0.044007543 -0.06987243 0.04374701 0.034171116 0.0069487467
-0.04809384 0.04964223 -0.007110611 -0.12053743 -0.06766241 0.028013095 -0.12213008 0.00400532
0.07349742 -0.0665428 0.1193818 -0.017890984 0.030802628 -0.013599161 0.04619277 0.014891118
0.074402824 -0.10340945 -0.002439777 0.11986618 0.032356583 -0.13103336 -0.016847376 -0.10241546
-0.10595645 0.050238192 -0.013101255 -0.0038124654 0.06405637 0.0879078 -0.013508983 0.14496018
00000000: 939e 81bd 6a5e 73bd f8fe afbd 1c53 54bd
00000010: ef18 e4bb 3680 7d3d a124 3abd a5dd 623c
00000020: 35b8 293d b70b 14bd 13b4 d7bd 9297 72bd
00000030: fc60 073c 558b 9f3d 3347 9cbc 894b 1abc
00000040: ab18 033d cd09 a43d 9c72 8ebb cc1e 7a3d
00000050: a144 d33c 3bab 083e 14d0 f1bc b209 aebc
00000060: c922 083d 8e58 3abd 59f4 5ebc 1d6a aeba
00000070: 50f2 98bd 80d0 e53d 1b51 0fbb 3aec 953c
00000080: 6e69 813d 412e d3bb be5e 8cbb fe48 443c
00000090: 870a a23c 0b83 1dbc b2ec 2abb 0bb1 84bc
000000a0: a12a 8b3c 4589 883c 3f2d 003d e0b7 e5bd
000000b0: 0334 cf3c 19f8 74bd 7540 b93c 2c48 b93b
000000c0: b844 133d 45f6 b13c d73b e33d 6359 09be
000000d0: 50f1 b03c 1482 d7bd 95ff caba 5178 7d3d
000000e0: b789 c6bd 3f80 ca3d e52c 04bc 38f2 723c
000000f0: 5da2 ac3d b11b f2bd ac0c 98bc 976f c73d
00000100: 72e5 44bd 3dc6 d2bc c396 cdbd 91ec dfbb
00000110: bf4d 023d 1ebd 7b3d 98e1 203e 0c1a 853c
00000120: 8c50 06bc 18be 883d 8fb5 c43c 4e40 fb3d
00000130: 7369 163e f651 083d fe1a 57bb ce23 333c
00000140: 2bc0 fbbb 0b3e bf3d 9a08 4fbd 5964 d83d
00000150: 525f 8fbd 467b 673d 35a0 54bd f7ff 54bd
00000160: cd04 00be 9d54 2dbe 7ad7 11bc f35a 0739
00000170: 8517 873d 7f04 863d db14 17bd 0985 2cbe
00000180: 0883 a03c 2390 233e 796e e0bd ac65 e0bd
00000190: be67 cabc 41af 1d3e 0586 ca3c 7ead 6abd
000001a0: 734d eebd 7663 61bd 74af debd 73f1 d83d
000001b0: 75c4 053e a84c 1b3e 402d 963d b3f1 5a3c
000001c0: c982 ad3d 4ac2 b53d 37c5 aa3d ea23 16be
000001d0: 19ee 3dbc da65 063c cd04 1cbc 213d ffbd
000001e0: d3c6 d03c 00a6 083e 140f 1ebd 6685 8bbb
000001f0: 96b1 aebc e990 29bd be8b 013d bce2 963d
00000200: 0de8 a43d a119 a1bd 290e 093e c002 933d
00000210: 82e4 1b3c 50de 1bbd 4bc9 dd3d 938f 96bd
00000220: c300 1a3d 1896 373d 745d 00be e422 3e3d
00000230: 4d7e 9cbd 070c 2abe 3e11 8bbd 66b4 263c
00000240: 81df 4fbd c30f 0d3c 2f33 033e 8c41 d83d
00000250: f967 f0bc 4ef9 ebbd ccbb 5e3d 59d2 e6bd
00000260: ea26 08bd 5295 8e3c d843 ee3b 9267 9c3c
00000270: 76c1 443d ad95 d7bd 06cb 323c 5ce5 04be
00000280: 059b 293d 0245 c9bd 2373 8dbd ca79 093c
00000290: e240 463c 6d4e 033d a4f7 8fbd 9048 05bd
000002a0: 6098 0fbe 032f 8bbd d7dd 373d 0c07 283e
000002b0: 02bf 8b3d 0f83 21be e89f ddbd b41a 61bb
000002c0: 78a1 a33c fae7 9c3d 8c3d bf3d 8c30 1d3e
000002d0: 73c5 8ebc 56f8 a43d 8de7 103d 4735 9c3d
000002e0: cfab 52bd 8355 5f3c f9f3 1ebd 76bd 793c
000002f0: 8007 9fbc 798f 12bd af70 3abd f6c3 1f3e
00000300: 3e6c 2a3d 21a6 ff3d 15cb b0bd 99fb f8bd
00000310: 8018 5abd e857 06be e5e2 44bd 1d44 4bbd
00000320: 5a4b a2bd 55cf 053e 883c 24bc 2cab 663d
00000330: 5fcf b63d 32bd 28bd e7fe 3fbd 21c1 b7bc
00000340: 66e5 333d 8e72 993d 754d 1e3d 78e3 2a3d
00000350: 32f7 1fbd ae22 8abc ff31 9bbb 4f5e b5bd
00000360: 9780 da3c 17fe b83d d0fb 373c 4141 34bd
00000370: 4719 8fbd 1130 333d 03f7 0b3d 50b2 e33b
00000380: 0cfe 44bd a755 4b3d 2100 e9bb 54dc f6bd
00000390: 9792 8abd b87b e53c 561f fabd 0f3f 833b
000003a0: d185 963d 9747 88bd 727e f43d 1d90 92bc
000003b0: cb55 fc3c 04cf 5ebc a134 3d3d e0f9 733c
000003c0: 8260 983d 55c8 d3bd aae4 1fbb 667c f53d
000003d0: 5688 043d 9c2d 06be 8203 8abc 32bf d1bd
000003e0: b2ff d8bd 90c6 4d3d a5a6 56bc 8eda 79bb
000003f0: fc2f 833d 0109 b43d c854 5dbc 7170 143e

MLP.10.bias f4 [32]
0.13734338 -0.13448504 0.07709483 -0.015952503 0.057303973 -0.077638395 0.11300996 -0.11428586
-0.054481864 -0.08538643 0.14817753 -0.12898186 0.09562062 0.10148078 -0.0076700808 0.07896053
-0.11778609 0.15481243 -0.15181793 0.044499382 0.08413207 -0.06981294 0.0067646117 0.0067988904
0.14495498 -0.08937809 -0.05820164 0.08920902 0.07855702 0.014518265 0.0794 -0.074662834
00000000: bea3 0c3e 72b6 09be e5e3 9d3d d3ae 82bc
00000010: 92b7 6a3d e100 9fbd c471 e73d b40e eabd
00000020: 6028 5fbd 15df aebd dabb 173e d213 04be
00000030: bed4 c33d 28d5 cf3d 4d55 fbbb 0fb6 a13d
00000040: d539 f1bd 2687 1e3e 2976 1bbe fc44 363d
00000050: 6f4d ac3d 16fa 8ebd ada9 dd3b 3ac9 de3b
00000060: 146f 143e dc0b b7bd d864 6ebd 38b3 b63d
00000070: 81e2 a03d 04de 6d3c 789c a23d d4e8 98bd

MLP.11.weight f4 [32]
0.83153254 0.73743755 0.7905479 0.768814 0.85245526 0.8545987 0.8574339 0.79641557
0.7924095 0.78931445 0.8310828 0.73681885 0.68730414 0.6195975 0.78190976 0.850641
0.61137325 0.5588761 0.68874186 0.7957078 0.8206481 0.79219943 0.72789496 0.8054633
0.62402195 0.69130075 0.7064944 0.66729116 0.77733266 0.7926949 0.8276252 0.69908386
00000000: 51df 543f b5c8 3c3f 5961 4a3f ffd0 443f
00000010: 823a 5a3f fbc6 5a3f ca80 5b3f e4e1 4b3f
00000020: 59db 4a3f 8310 4a3f d8c1 543f 29a0 3c3f
00000030: 2af3 2f3f f19d 1e3f 3d2b 483f 9cc3 593f
00000040: f582 1c3f 8112 0f3f 6351 303f 82b3 4b3f
00000050: fe15 523f 95cd 4a3f 5357 3a3f d832 4e3f
00000060: e7bf 1f3f 16f9 303f d1dc 343f 98d3 2a3f
00000070: 46ff 463f 0eee 4a3f 3fdf 533f 29f7 323f

MLP.11.bias f4 [32]
0.0037349164 0.015735028 0.002517119 0.004066347 -0.0029153768 -0.0031644113 0.013944911 -0.010782334
0.0053924937 0.004246453 0.013336106 0.009213074 0.010113882 -0.0136033995 -0.0056277625 0.005541251
0.0018752264 -0.012341537 -0.008114034 0.00022470202 0.0072106775 0.0034937423 0.0049537458 0.005489559
0.03542866 0.01778725 0.004862127 -0.0053812633 0.00048610245 0.0059715644 0.013480236 0.017320162
00000000: 80c5 743b bfe6 803c 40f6 243b fe3e 853b
00000010: e80f 3fbb 0362 4fbb 3279 643c 63a8 30bc
00000020: 84b3 b03b d425 8b3b af7f 5a3c 6ff2 163c
00000030: b2b4 253c cbe0 5ebc 1869 b8bb 6293 b53b
00000040: 28ca f53a 2834 4abc baf0 04bc fd9d 6b39
00000050: 8c47 ec3b 45f7 643b 0853 a23b c2e1 b33b
00000060: a51d 113d 91b6 913c 7a52 9f3b 4f55 b0bb
00000070: 91db fe39 1dad c33b 35dc 5c3c 03e3 8d3c

MLP.13.weight f4 [4, 32]
-0.0070521575 -0.1315764 -0.035673767 -0.112289056 -0.121213086 -0.12464473 -0.13684762 0.034825817
0.08189948 -0.14846843 0.023722077 0.0030056078 -0.017911192 0.003635181 0.0667262 0.14972296
0.06052655 0.017416395 0.017291974 0.017381718 0.13933763 -0.044743482 -0.08374983 0.12394391
-0.008728468 0.0029580952 -0.06797568 0.010005821 -0.12938443 -0.15399742 0.16559453 0.089230254
0.013876014 0.00042563 0.0070734452 -0.04736123 0.043748263 0.01769364 0.009370393 0.005665867
0.06342407 -0.014300039 0.020820566 -0.0065408433 -0.014601525 0.042219967 -0.046896625 0.026795411
-0.03326281 0.020123426 -0.011897943 0.021351466 0.015618285 -0.034757175 -0.042930894 -0.07619905
0.007204673 -0.05898096 -0.02105991 0.03549525 0.023714226 -0.045544084 -0.0016346696 -0.05117221
-0.013213284 0.004913986 0.16481416 0.086945444 0.06500252 0.13271114 -0.10312613 -0.11486704
-0.050879918 -0.064710274 -0.08652788 -0.10048835 0.1042817 0.050338663 0.11897948 -0.10693891
-0.05135656 -0.05164693 0.07382732 -0.11116528 -0.04618033 -0.10093549 -0.05789519 0.046955585
-0.10458861 -0.046262674 -0.03668142 0.081642404 -0.018524535 -0.017181912 0.035702728 -0.037129395
0.13048398 -0.013279661 -0.013715341 0.026567403 -0.11553074 0.11721424 -0.064887084 0.087688036
0.030375686 -0.016971868 0.107340805 0.07719909 -0.017712414 -0.023223553 -0.015212826 -0.06493541
0.02205749 0.053289186 0.035798162 0.061419107 -0.111006096 -0.03342923 -0.0023940492 0.069500566
-0.06263809 -0.05575095 0.060427967 -0.048494764 -0.03233989 -0.030847996 -0.06838962 0.017030556
00000000: c915 e7bb f7bb 06be a81e 12bd cef7 e5bd
00000010: 913e f8bd bc45 ffbd c821 0cbe 84a5 0e3d
00000020: eaba a73d 1c08 18be cd54 c23c bbf9 443b
00000030: 7eba 92bc 383c 6e3b bfa7 883d fa50 193e
00000040: b0ea 773d d4ac 8e3c e6a7 8d3c 1b64 8e3c
00000050: 86ae 0e3e f144 37bd 0885 abbd 4ed6 fd3d
00000060: d901 0fbc 9adc 413b d536 8bbd 74ef 233c
00000070: 5a7d 04be 80b1 1dbe 9d91 293e 5abe b63d
00000080: 3958 633c 1727 df39 5cc8 e73b d9fd 41bd
00000090: 6131 333d 41f2 903c 4786 193c bda8 b93b
000000a0: 7be4 813d b64a 6abc e48f aa3c 9254 d6bb
000000b0: 3c3b 6fbc d8ee 2c3d ad16 40bd 0d82 db3c
000000c0: 963e 08bd e2d9 a43c 97ef 42bc 45e9 ae3c
000000d0: d6e3 7f3c 8a5d 0ebd 4ed8 2fbd 3f0e 9cbd
000000e0: 2d15 ec3b 0596 71bd d585 acbc 7863 113d
000000f0: 5644 c23c 6f8c 3abd 6942 d6ba f499 51bd
00000100: 887c 58bc 8105 a13b 0bc5 283e 7410 b23d
00000110: 0b20 853d 6ee5 073e cb33 d3bd 693f ebbd
00000120: 7667 50bd d286 84bd 8735 b1bd d6cc cdbd
00000130: a591 d53d ea2f 4e3d 83ab f33d ca02 dbbd
00000140: 425b 52bd bb8b 53bd c732 973d 9faa e3bd
00000150: 9627 3dbd 44b7 cebd 8223 6dbd 8054 403d
00000160: 8e32 d6bd ee7d 3dbd 423f 16bd 2234 a73d
00000170: c4c0 97bc 15c1 8cbc 063d 123d fe14 18bd
00000180: 989d 053e ef92 59bc 4fb6 60bc e2a3 d93c
00000190: 619b ecbd 050e f03d 85e3 84bd c995 b33d
000001a0: 6ed6 f83c 9608 8bbc 7fd5 db3d 8e1a 9e3d
000001b0: a019 91bc 523f bebc 383f 79bc dbfc 84bd
000001c0: e9b1 b43c c345 5a3d 18a1 123d 9a92 7b3d
000001d0: 2a57 e3bd 17ed 08bd 7be5 1cbb 5056 8e3d
000001e0: 6648 80bd 1c5b 64bd 5183 773d 72a2 46bd
000001f0: d576 04bd f0b4 fcbc db0f 8cbd aa83 8b3c

MLP.13.bias f4 [4]
-0.1327808 -0.0035466747 0.09531897 0.11990524
00000000: b1f7 07be 546f 68bb 9836 c33d e190 f53d
