example/model/diff_robot_default/model_0.pth (torch, 24032 bytes, 18 tensors)

MLP.0.weight f4 [32, 2]
0.42285284 -0.35521942 0.30322042 0.48513535 -0.048704308 0.46996647 -0.126945 0.23890747
0.37996238 0.6480201 0.2359941 0.27095312 -0.37877306 -0.59001637 -0.5944067 0.19723766
0.6953462 -0.35789868 0.123632096 0.4068656 -0.37037972 0.56922024 0.49590185 -0.58901286
-0.20459451 0.6518647 -0.109967284 0.64808565 0.6547657 0.20643058 -0.13006444 0.60936797
0.1740609 0.36908913 -0.0025890544 0.18798107 -0.038702484 0.6867004 -0.19699445 0.008194315
0.39104432 -0.06154783 -0.018753553 -0.5736444 -0.52779233 0.5109501 -0.64135283 0.12507564
-0.5300827 0.132626 -0.020999592 -0.15817013 -0.32472733 0.08565 0.29618996 -0.5524394
-0.69072545 -0.24250625 -0.13472699 0.05021055 -0.06421281 0.22118334 -0.6475138 0.046443142
00000000: 2b80 d83e 52df b5be b53f 9b3e a963 f83e
00000010: 2b7e 47bd 729f f03e dffd 01be 29a4 743e
00000020: 6e8a c23e a5e4 253f 70a8 713e 5eba 8a3e
00000030: 8bee c1be 500b 17bf 0a2b 18bf abf8 493e
00000040: 3502 323f 7f3e b7be d332 fd3d b050 d03e
00000050: 69a2 bdbe 6bb8 113f d9e6 fd3e 8cc9 16bf
00000060: 3981 51be 9be0 263f 8736 e1bd f1e8 253f
00000070: ba9e 273f 8a62 533e 9d2f 05be 8aff 1b3f
00000080: 053d 323e 40f9 bc3e 20ad 29bb 1c7e 403e
00000090: 7f86 1ebd 99cb 2f3f eab8 49be 7341 063c
000000a0: f636 c83e 9419 7cbd 0da1 99bc 5cda 12bf
000000b0: 661d 07bf a0cd 023f b32f 24bf d413 003e
000000c0: 80b3 07bf 1ccf 073e 5607 acbc 5af7 21be
000000d0: a942 a6be 4469 af3d 36a6 973e ab6c 0dbf
000000e0: 62d3 30bf 8f53 78be dff5 09be 94a9 4d3d
000000f0: 0182 83bd e37d 623e 77c3 25bf 2a3b 3e3d

MLP.0.bias f4 [32]
0.69806504 0.08654429 0.591861 -0.21900979 -0.2877225 -0.35927507 -0.3032767 0.48227203
0.36535445 0.09228974 0.6409873 -0.41433233 -0.4172368 0.013485374 0.0035253265 0.41117194
0.18631336 -0.66610813 0.43833113 0.6371139 0.5818948 -0.2496603 -0.4708508 -0.16992979
-0.2981066 -0.35096923 -0.5699683 -0.11650593 -0.5409308 -0.6422839 0.32997128 -0.37555188
00000000: 64b4 323f 223e b13d 3484 173f 1a44 60be
00000010: 5d50 93be e7f2 b7be 1547 9bbe 5cec f63e
00000020: bd0f bb3e 6702 bd3d be17 243f 5e23 d4be
00000030: 10a0 d5be c2f1 5c3c 2a09 673b 2185 d23e
00000040: eec8 3e3e 1086 2abf f06c e03e e619 233f
00000050: 0ff7 143f f3a6 7fbe 5b13 f1be 1302 2ebe
00000060: 6ea1 98be 3db2 b3be 71e9 11bf a99a eebd
00000070: 717a 0abf b86c 24bf fff1 a83e 5648 c0be

MLP.1.weight f4 [32]
0.9965366 1.0023459 0.99469155 1.0017247 1.001494 1.0026817 0.9985473 1.0030528
0.9954879 0.994945 1.0037205 0.9971022 1.0052803 1.0040244 0.9964397 0.9955469
1.003878 0.9965632 1.0042524 0.997587 1.0044358 1.0011483 0.9961164 0.9951401
0.99263954 0.9984799 0.9987978 1.005607 1.0029646 1.0057857 0.99966156 0.9958908
00000000: 061d 7f3f df4c 803f 1ba4 7e3f 8438 803f
00000010: f530 803f e057 803f cca0 7f3f 0964 803f
00000020: 4cd8 7e3f b7b4 7e3f ea79 803f 1742 7f3f
00000030: 06ad 803f df83 803f ac16 7f3f 29dc 7e3f
00000040: 137f 803f c41e 7f3f 588b 803f dd61 7f3f
00000050: 5a91 803f a125 803f 7c01 7f3f 80c1 7e3f
00000060: a01d 7e3f 619c 7f3f 36b1 7f3f bbb7 803f
00000070: 2561 803f 96bd 803f d2e9 7f3f b3f2 7e3f

MLP.1.bias f4 [32]
0.004973648 0.0036233466 -0.0048407065 -0.0038582846 -0.0051552574 -0.0049552163 0.0064087487 -0.0030299106
0.005731506 0.0004901988 -0.0008013315 0.0038661973 0.0009577847 -0.004800392 -0.0027690895 0.0033406422
0.0010065811 0.0039673555 0.0018022122 -0.00445112 -0.0042632883 -0.003292189 -0.0021306423 0.002578522
0.003681981 -0.003104452 -0.002740616 -0.0053619654 -0.0009739911 -0.0023178298 0.0032625166 -0.00079261954
00000000: fcf9 a23b ab75 6d3b ca9e 9ebb 46db 7cbb
00000010: 6fed a8bb 5e5f a2bb 7b00 d23b 7791 46bb
00000020: 5bcf bb3b af80 003a 7210 52ba 0760 7d3b
00000030: d813 7b3a 9b4c 9dbb 9d79 35bb adee 5a3b
00000040: 42ef 833a 9700 823b 3538 ec3a b3da 91bb
00000050: 0eb3 8bbb c4c1 57bb 3fa2 0bbb 6cfc 283b
00000060: 644d 713b 1074 4bbb e89b 33bb 6db3 afbb
00000070: 7053 7fba bbe6 17bb f2cf 553b ccc7 4fba

MLP.3.weight f4 [32, 32]
-0.08904112 0.03806253 -0.167818 0.15401365 -0.07116961 -0.070583574 -0.16731785 0.050478205
0.11407859 -0.13797101 0.100933366 0.08186521 -0.10670763 0.027406462 0.10170905 0.14334334
-0.04273702 0.039686676 0.022638256 0.10469162 -0.14471656 -0.063178085 -0.053573444 0.0347766
-0.13187227 0.042036984 0.119028136 -0.05720852 0.1389062 -0.11035543 -0.109694846 -0.1412208
-0.008787386 0.09591933 -0.05827643 0.08082585 -0.018770812 -0.15144767 0.041208867 0.05862761
0.15513186 -0.028524308 0.08707092 -0.107547134 -0.008025069 -0.032457203 -0.16173565 0.051749486
0.06852008 -0.01737843 0.025916252 -0.12423341 -0.084624186 0.1712374 0.02077096 -0.16021632
-0.1588523 0.1566929 -0.045306534 -0.10385878 -0.1645827 -0.16043444 -0.16704108 0.06384016
0.14240602 -0.0076100673 0.014014437 0.15156585 0.12668662 0.04367745 0.02527485 -0.0154253505
-0.054942124 -0.067764945 -0.030834734 0.051790807 0.17291404 0.14586572 -0.15897924 -0.08710304
0.05016077 -0.008019118 0.030752648 0.05345094 0.015174265 0.14872792 0.05710519 0.08816755
0.05745306 0.13563697 0.112721555 0.0740046 0.08118506 0.15102945 0.13017692 0.16739008
0.058806222 0.07136236 -0.06940142 -0.06337484 0.10063218 0.12347658 -0.06268529 -0.16591376
0.103115276 -0.005190062 0.18102518 0.035038155 -0.14475821 -0.044144273 0.12241975 0.058934994
0.10199318 -0.1354476 -0.13963524 -0.15103827 0.042252958 -0.17290922 -0.05104971 0.016846843
-0.16574588 -0.12257557 -0.024996871 0.1243431 0.11935617 0.01920483 -0.041476097 -0.05484199
0.05569304 0.09377659 -0.02227059 0.050842743 -0.07845451 -0.12569709 -0.15767723 -0.098655045
0.027587404 -0.102793336 -0.0072910194 0.08811012 0.16921599 0.16864309 -0.10983469 -0.029143171
0.010452398 -0.035304826 -0.0011242576 -0.13397607 -0.11454735 0.025424503 -0.04561468 0.0026381612
0.17405283 0.13549827 0.09511067 -0.14184879 -0.109007835 0.05754749 0.007689118 0.043487933
-0.08207502 -0.11521998 -0.16219568 0.1537695 -0.0033724743 0.0982723 -0.1414418 0.15757646
0.008221542 -0.0071446914 -0.09416601 0.06899915 0.10872 -0.13402265 -0.15098682 -0.03766022
-0.015499901 -0.13590209 0.17740394 -0.14126047 0.04061445 -0.10933144 -0.033857945 0.032524213
-0.050615396 0.042322498 -0.0484399 0.03707746 0.13121276 -0.14915778 -0.15002051 0.11239048
0.06364203 -0.1524529 0.15526435 0.08340875 -0.02648942 0.006301423 -0.04035921 -0.030841758
-0.11007157 0.08601985 -0.03309234 -0.07903006 0.05488809 0.16975366 0.03928633 0.08446655
-0.17408447 -0.12771215 0.10800386 -0.08534238 0.03842253 0.076089635 0.015544356 -0.045127843
-0.0832933 0.0902087 -0.07340551 -0.028742153 0.03892945 -0.070865825 0.014872436 0.015882464
0.0032416182 -0.07195998 -0.099094614 -0.09999323 0.1631275 0.14163882 0.030372737 0.017226975
-0.020432644 0.057562295 0.10099641 -0.07978948 -0.13965766 0.1584972 0.091802135 -0.092015006
0.0040085153 -0.16166675 -0.05018827 0.16165459 -0.0010661066 0.019191863 0.13147442 0.08680458
0.13161135 -0.10416653 0.027306765 0.10599991 -0.09747261 0.035390813 -0.09658965 -0.0067757713
00000000: 315b b6bd 75e7 1b3d 7bd8 2bbe c1b5 1d3e
00000010: 5fc1 91bd 1f8e 90bd 5f55 2bbe 3cc2 4e3d
00000020: 09a2 e93d 4648 0dbe 27b6 ce3d f2a8 a73d
00000030: 8889 dabd 8483 e03c d64c d03d 99c8 123e
00000040: 030d 2fbd 7f8e 223d dd73 b93c 8f68 d63d
00000050: 9430 14be 8363 81bd d46f 5bbd e871 0e3d
00000060: 8609 07be f92e 2c3d 06c5 f33d 7b53 6abd
00000070: 6d3d 0e3e 0702 e2bd b1a7 e0bd 2f9c 10be
00000080: f8f8 0fbc 5b71 c43d 44b3 6ebd 0688 a53d
00000090: 3fc5 99bc 1915 1bbe a1ca 283d 8123 703d
000000a0: e3da 1e3e cfab e9bc 3d52 b23d ac41 dcbd
000000b0: 947b 03bc d8f1 04bd 089e 25be 45f7 533d
000000c0: 4154 8c3d 365d 8ebc 524e d43c 166e febd
000000d0: 724f adbd db58 2f3e dc27 aa3c bf0f 24be
000000e0: 2daa 22be 1b74 203e 5893 39bd e9b3 d4bd
000000f0: 5e88 28be ed48 24be d10c 2bbe a1be 823d
00000100: e2d2 113e df5d f9bb cf9c 653c 1434 1b3e
00000110: 23ba 013e 20e7 323d 340d cf3c 9cba 7cbc
00000120: fe0a 61bd 59c8 8abd 2099 fcbc 9922 543d
00000130: 6110 313e d35d 153e 74cb 22be 1463 b2bd
00000140: 6175 4d3d 9e62 03bc faec fb3c 5fef 5a3d
00000150: 7b9d 783c 224c 183e 22e7 693d 3091 b43d
00000160: e653 6b3d 6be4 0a3e 8fda e63d b98f 973d
00000170: 5a44 a63d 77a7 1a3e 194d 053e 4e68 2b3e
00000180: cbde 703d 6e26 923d 5522 8ebd abca 81bd
00000190: 3f18 ce3d 4ae1 fc3d 2561 80bd 4ce5 29be
000001a0: 1a2e d33d 6511 aabb aa5e 393e 2b84 0f3d
000001b0: 7f3b 14be a0d0 34bd 35b7 fa3d d265 713d
000001c0: cde1 d03d c7b2 0abe 8afc 0ebe c7a9 1abe
000001d0: 7011 2d3d 1d0f 31be 8019 51bd 6402 8a3c
000001e0: 4ab9 29be e708 fbbd 3dc6 ccbc 98a7 fe3d
000001f0: 0271 f43d 7353 9d3c d7e2 29bd ffa1 60bd
00000200: 631e 643d f10d c03d d070 b6bc 7b40 503d
00000210: c2ac a0bd bdb6 00be 2476 21be a80b cabd
00000220: fbfe e13c 5085 d2bd 81e9 eebb 1473 b43d
00000230: f546 2d3e c6b0 2c3e 03f1 e0bd a9bd eebc
00000240: 8940 2b3c cb9b 10bd d35b 93ba 0631 09be
00000250: cd97 eabd 0c47 d03c 75d6 3abd 00e5 2c3b
00000260: e83a 323e 0fc0 0a3e 62c9 c23d cf40 11be
00000270: 803f dfbd ebb6 6b3d fff4 fb3b 6720 323d
00000280: f316 a8bd 74f8 ebbd a016 26be c075 1d3e
00000290: bb04 5dbb fd42 c93d 1fd6 10be b95b 213e
000002a0: a6b3 063c 041e eabb 1cda c0bd 6d4f 8d3d
000002b0: 97a8 de3d 3c3d 09be 4a9c 1abe 9a41 1abd
000002c0: 4cf3 7dbc eb29 0bbe 61a9 353e 96a6 10be
000002d0: 565b 263d 29e9 dfbd a1ae 0abd 1c38 053d
000002e0: 1752 4fbd 5b5a 2d3d eb68 46bd 89de 173d
000002f0: a35c 063e d1bc 18be fa9e 19be fb2c e63d
00000300: c156 823d 9d1c 1cbe 9efd 1e3e 35d2 aa3d
00000310: 5700 d9bc 2b7c ce3b b34f 25bd dba7 fcbc
00000320: 346d e1bd 2d2b b03d d58b 07bd 83da a1bd
00000330: 55d2 603d e7d3 2d3e b4ea 203d ccfc ac3d
00000340: 3343 32be f9c6 02be 2131 dd3d fcc7 aebd
00000350: f160 1d3d e2d4 9b3d c1ad 7e3c f9d7 38bd
00000360: ad95 aabd 57bf b83d a155 96bd aa74 ebbc
00000370: 7d74 1f3d 1a22 91bd 85ab 733c f11b 823c
00000380: 5471 543b c15f 93bd 1ef2 cabd 40c9 ccbd
00000390: e50a 273e c409 113e 3fd0 f83c 961f 8d3c
000003a0: 5c62 a7bc 71c6 6b3d 35d7 ce3d ab68 a3bd
000003b0: 6b02 0fbe 174d 223e c202 bc3d 5d72 bcbd
000003c0: dd59 833b f88b 25be 3792 4dbd c888 253e
000003d0: 9abc 8bba 4138 9d3c 3ba1 063e 9ac6 b13d
000003e0: 20c5 063e 4355 d5bd 70b2 df3c 7b16 d93d
000003f0: b89f c7bd f5f5 103d cbd0 c5bd 4a07 debb

MLP.3.bias f4 [32]
-0.08331186 0.09166715 0.16689798 -0.18022 0.11371615 0.05477021 -0.16436096 -0.061567076
0.08467851 0.15708125 0.10022232 -0.15172738 0.15809192 -0.12828167 -0.049766093 -0.17889544
-0.14701714 0.041250277 0.12651512 -0.08513899 0.10766064 -0.12286478 0.085092776 -0.15752895
-0.08333589 -0.023329861 0.13314061 -0.12530883 0.08718892 0.06346112 0.04034384 0.07988302
00000000: 699f aabd fdbb bb3d 4ee7 2a3e 978b 38be
00000010: 03e4 e83d ba56 603d 3d4e 28be c22d 7cbd
00000020: ed6b ad3d e8d9 203e 5c41 cd3d 6c5e 1bbe
00000030: d9e2 213e 455c 03be 88d7 4bbd 5e30 37be
00000040: a98b 16be 0df6 283d 2e8d 013e 5a5d aebd
00000050: 2e7d dc3d 88a0 fbbd 1f45 ae3d 454f 21be
00000060: 02ac aabd 441e bfbc 0356 083e f550 00be
00000070: 1b90 b23d e7f7 813d 953f 253d b599 a33d

MLP.5.weight f4 [32, 32]
-0.024447242 0.014636986 -0.07748509 -0.02272104 0.06258357 -0.1131329 0.045761906 -0.025981477
-0.0746393 -0.13303107 0.012667698 0.034261044 -0.091253944 -0.051856034 0.12810487 -0.06303493
0.14680903 -0.14439285 0.051956903 -0.1348049 -0.029353766 -0.14419651 0.13806595 0.14924125
-0.13966712 0.094253846 0.13400513 -0.04905823 -0.1010185 0.17180608 0.01883628 0.013257971
-0.05236472 -0.16625386 -0.08892447 0.012119622 0.07915257 -0.12534851 0.039522756 0.16291176
-0.13185337 0.09283467 -0.0008904267 -0.01670743 0.10670521 0.15990865 0.021135742 -0.03952349
0.14342874 0.13483602 -0.023069821 0.12010759 -0.07661157 0.1548168 -0.17817776 0.091037
0.037612353 0.13902538 -0.12094247 0.14708082 0.12268686 -0.123847656 -0.048495762 0.099144325
0.048653428 -0.15238106 -0.12290675 -0.16514884 0.13333815 -0.086626954 0.1149189 -0.14640236
0.10348847 -0.12636928 0.022762842 -0.1595626 -0.17216685 0.14615588 0.011031123 -0.14705598
0.083023146 -0.13606544 -0.13020389 -0.14033905 -0.09813586 -0.11745632 0.04665261 -0.08535515
-0.13596019 -0.06073469 0.03322529 -0.0918057 0.039916333 0.04825268 0.049451172 -0.05717311
-0.0466713 0.009224435 0.12255594 -0.11348147 -0.038242415 0.008040289 -0.019236267 -0.067609414
0.09155057 0.085984565 -0.079800926 -0.045285735 0.113169454 0.13615298 -0.14031345 -0.1272533
0.04600683 0.09815073 -0.017585045 -0.08211087 -0.09486144 -2.789354e-13 -0.12752473 0.065151416
-0.16287485 -0.08216724 0.15161398 -0.17233343 -0.10082808 0.056153487 0.050373767 -0.021808868
-0.1441178 0.16666266 -0.07779911 0.00082872517 -0.08388389 0.04138638 0.13590719 0.014185684
-0.1505052 -0.026758006 -0.13793719 0.062020384 0.13665229 0.128525 0.0963276 0.17804107
0.07754139 0.11435805 0.004606187 0.018396743 0.109965004 -0.026568713 0.0709482 -0.11019835
-0.00030123888 0.1051027 -0.102297045 0.07515878 -0.01727313 -0.14828101 -0.11830282 -0.1607751
-0.09517246 0.015766844 -0.09368774 0.039149873 0.16151688 0.048958827 -0.018946726 -0.14757654
-0.048954293 -0.16405332 0.08571057 -0.06642556 0.07201591 -0.060634818 -0.12370103 -0.07349547
0.09702874 0.05828516 0.07450718 0.071431115 -0.14098398 -0.13787583 0.12796003 0.09747044
-0.1477568 -0.0809727 -0.07953811 -0.029754207 -0.06855827 0.11295205 0.138012 0.09314567
0.15376362 -0.14577968 0.100347385 0.050322678 -0.12475454 0.06474961 -0.13269229 -0.06600915
-0.13944328 0.019493729 -0.049436208 -0.15826358 -0.15867727 -0.004088044 -0.1220283 0.098858096
-0.07503279 0.16923302 0.09388915 -0.047866113 -0.04783417 -0.00056052534 0.15683559 0.0351402
-0.03501873 0.15382418 0.01818238 -0.15493226 0.10912103 -0.08801558 0.13787131 -0.029318694
0.14416206 -0.13827762 -0.16327974 -0.17972411 -0.13883398 0.0028736158 -0.047580823 -0.080432825
-0.07174557 0.08322473 -0.13879862 -0.16659275 -0.14060426 -4.9718307e-07 0.023534255 0.06857724
0.035445973 0.0799211 -0.030680338 0.12419546 -0.0070258407 0.010369606 0.06426339 0.025806986
-0.0011063885 -0.0059952126 0.080463804 0.14389758 -0.17653166 -0.12113238 -0.05432981 0.051103514
00000000: 9545 c8bc f8cf 6f3c 81b0 9ebd 7921 babc
00000010: d12b 803d 39b2 e7bd d670 3b3d 1bd7 d4bc
00000020: 7ddc 98bd 4c39 08be 2d8c 4f3c 4f55 0c3d
00000030: 59e3 babd fe66 54bd ec2d 033e 7518 81bd
00000040: 1b55 163e b8db 13be c3d0 543d 4c0a 0abe
00000050: 4f77 f0bc 40a8 13be 2961 0d3e b3d2 183e
00000060: e604 0fbe 2908 c13d a438 093e 48f1 48bd
00000070: cae2 cebd efed 2f3e 8b4e 9a3c f637 593c
00000080: 637c 56bd 743e 2abe 081e b6bd 6191 463c
00000090: be1a a23d 5c5b 00be 9de2 213d 57d2 263e
000000a0: 9204 07be 1a20 be3d 866b 69ba 05de 88bc
000000b0: 4388 da3d 18bf 233e dd24 ad3c 62e3 21bd
000000c0: fcde 123e 7412 0a3e ecfc bcbc f8fa f53d
000000d0: 87e6 9cbd 4c88 1e3e 3b74 36be 9b71 ba3d
000000e0: 690f 1a3d ab5c 0e3e b0b0 f7bd 5b9c 163e
000000f0: 4043 fb3d d7a3 fdbd 7ea3 46bd 2e0c cb3d
00000100: d148 473d c809 1cbe 89b6 fbbd c71c 29be
00000110: cc89 083e 7969 b1bd 9a5a eb3d 80ea 15be
00000120: c3f1 d33d f366 01be 2479 ba3c 6164 23be
00000130: 824c 30be e3a9 153e e2bb 343c d895 16be
00000140: 0a08 aa3d bd54 0bbe 2b54 05be 0ab5 0fbe
00000150: 74fb c8bd f08c f0bd cf16 3f3d aece aebd
00000160: 2639 0bbe f0c4 78bd 3e17 083d a004 bcbd
00000170: 4f7f 233d 9aa4 453d 508d 4a3d 5a2e 6abd
00000180: 682a 3fbd 1622 173c 9cfe fa3d f968 e8bd
00000190: 14a4 1cbd 6bbb 033c 6095 9dbc ce76 8abd
000001a0: de7e bb3d ad18 b03d ab6e a3bd 897d 39bd
000001b0: 63c5 e73d b06b 0b3e 54ae 0fbe b04e 02be
000001c0: a871 3c3d 4003 c93d 830e 90bc be29 a8bd
000001d0: b746 c2bd d406 9daa d895 02be 1b6e 853d
000001e0: aac8 26be 4c47 a8bd b240 1b3e 2d78 30be
000001f0: f47e cebd 3301 663d b954 4e3d 83a8 b2bc
00000200: 9e93 13be 9ea9 2a3e 2455 9fbd ce3e 593a
00000210: 51cb abbd c484 293d 412b 0b3e 126b 683c
00000220: 091e 1abe 9b33 dbbc 683f 0dbe 1609 7e3d
00000230: 94ee 0b3e 0f9c 033e 6847 c53d 6650 363e
00000240: 05ce 9e3d 8e34 ea3d 7fef 963b c4b4 963c
00000250: 5535 e13d a1a6 d9bc 4a4d 913d acaf e1bd
00000260: 99ef 9db9 1640 d73d 1d81 d1bd d9ec 993d
00000270: 6180 8dbc fad6 17be c048 f2bd 3aa2 24be
00000280: c7e9 c2bd 7829 813c 5cdf bfbd 9e5b 203d
00000290: ae64 253e 0d89 483d 2a36 9bbc 4e1e 17be
000002a0: 4c84 48bd 98fd 27be 0689 af3d 200a 88bd
000002b0: 147d 933d 375c 78bd f756 fdbd cb84 96bd
000002c0: 01b7 c63d 6cbc 6e3d 3897 983d 7a4a 923d
000002d0: 1b5e 10be 522f 0dbe f407 033e 959e c73d
000002e0: 8f4d 17be 04d5 a5bd e0e4 a2bd 18bf f3bc
000002f0: 4768 8cbd 6853 e73d 0553 0d3e 28c3 be3d
00000300: 3674 1d3e 4547 15be ee82 cd3d 271f 4e3d
00000310: 4f7f ffbd 729b 843d 7de0 07be ce2f 87bd
00000320: 38ca 0ebe 50b1 9f3c 9f7d 4abd d90f 22be
00000330: 4b7c 22be 00f5 85bb f9e9 f9bd 1d76 ca3d
00000340: cbaa 99bd 6c4b 2d3e f448 c03d 420f 44bd
00000350: c3ed 43bd 38f0 12ba 8299 203e 2cef 0f3d
00000360: cd6f 0fbd 1684 1d3e 37f3 943c 90a6 1ebe
00000370: d97a df3d 8341 b4bd 232e 0d3e c22d f0bc
00000380: 389f 133e a698 0dbe ce32 27be 9909 38be
00000390: 7f2a 0ebe 4653 3c3b 1ce4 42bd f7b9 a4bd
000003a0: 57ef 92bd ba71 aa3d 3a21 0ebe 4a97 2abe
000003b0: 90fa 0fbe 2976 05b5 e9ca c03c 3972 8c3d
000003c0: cc2f 113d acad a33d 5555 fbbc 305a fe3d
000003d0: 0639 e6bb 48e5 293c 869c 833d 2c69 d33c
000003e0: 3d04 91ba 7d73 c4bb 35ca a43d e359 133e
000003f0: b7c4 34be 4114 f8bd ef88 5ebd eb51 513d

MLP.5.bias f4 [32]
-0.11752967 0.12675858 0.111089416 -0.11709112 0.096940875 0.1740527 -0.08225291 -0.00046060706
0.11448746 0.04218369 -0.043225564 0.09009719 0.14678048 -0.032935843 -0.15657279 -0.14442796
0.09748215 -0.1252951 0.15506917 -0.15691946 -0.1478259 -0.16295159 -0.011227601 -0.010444704
0.043725323 -0.105452806 0.14995427 0.0958111 0.059555583 0.0033416334 0.0020086505 0.06325489
00000000: 65b3 f0bd 00cd 013e d982 e33d 78cd efbd
00000010: f088 c63d df3a 323e 3774 a8bd a27d f1b9
00000020: 6778 ea3d cec8 2c3d 4a0d 31bd e084 b83d
00000030: 9f4d 163e bce7 06bd 9e54 20be ece4 13be
00000040: b9a4 c73d 5c4d 00be 74ca 1e3e 7faf 20be
00000050: ac5f 17be c8dc 26be f9f3 37bc 4420 2bbc
00000060: 5319 333d a4f7 d7bd 9d8d 193e 9c38 c43d
00000070: 8ef0 733d 4eff 5a3b 90a3 033b c88b 813d

MLP.6.weight f4 [32]
1.0033216 1.0004961 0.99905074 1.0036778 1.0044909 1.005401 0.9976195 1.0032725
1.0017129 0.9986848 0.9982224 0.99836046 0.99542016 0.99948573 0.999475 0.9974533
0.99802554 1.002743 0.99973893 0.9994253 1.0037681 0.9969094 0.9936439 1.0016856
1.0044112 1.0031089 1.0016737 1.0024067 0.9964587 1.0029072 0.9954862 1.0021446
00000000: d86c 803f 4210 803f cac1 7f3f 8478 803f
00000010: 2893 803f fbb0 803f fe63 7f3f 3c6b 803f
00000020: 2138 803f cfa9 7f3f 818b 7f3f 8d94 7f3f
00000030: dbd3 7e3f 4cde 7f3f 98dd 7f3f 1959 7f3f
00000040: 9a7e 7f3f e259 803f e4ee 7f3f 56da 7f3f
00000050: 797b 803f 7435 7f3f 725f 7e3f 3c37 803f
00000060: 8c90 803f df65 803f d836 803f dd4e 803f
00000070: eb17 7f3f 435f 803f 2fd8 7e3f 4646 803f

MLP.6.bias f4 [32]
0.0030310461 -0.0031703024 0.0025436957 0.0026760914 -0.0012981164 0.0035988544 -0.0026936878 -0.003054443
0.0018358196 0.0013944817 0.0022021863 -0.005865769 -0.0035634348 0.0020013708 -0.0025945057 0.0035437448
-0.0023247441 0.0009868708 -0.00028452353 0.003908335 -0.0041713146 0.002752974 -0.005909626 -0.0055039464
0.002635473 0.0012618282 0.0016847719 0.0020684502 -0.0034849527 0.002912788 -0.0011963435 -0.001816173
00000000: 84a4 463b d9c4 4fbb 22b4 263b 5d61 2f3b
00000010: 8f25 aaba c2da 6b3b 9588 30bb 0d2d 48bb
00000020: e29f f03a 0bc7 b63a 8e52 103b a335 c0bb
00000030: 8488 69bb 6e29 033b 9508 2abb 2c3e 683b
00000040: bc5a 18bb e459 813a 1a2c 95b9 7e11 803b
00000050: 86af 88bb 3d6b 343b 89a5 c1bb 735a b4bb
00000060: e6b7 2c3b ee63 a53a 90d3 dc3a d68e 073b
00000070: ce63 64bb 79e4 3e3b a0ce 9cba a70c eeba

MLP.8.weight f4 [32, 32]
-0.12480089 -0.10975883 0.17458096 0.16973233 0.075219825 -0.044881288 -0.11100512 -0.06443268
-0.030262511 -0.114354506 0.11885703 -0.11524662 0.09617974 0.010232795 -0.12846431 0.029112307
-0.037186004 -0.03917699 -0.025689773 0.14125139 -0.11446576 0.07164799 -0.08537266 -0.05757641
0.09638484 -0.043626744 -0.15826668 -0.05891892 -0.13997097 -0.026385663 -0.09731497 -0.020250294
0.16967392 0.17113906 0.15115555 0.105594836 -0.14881767 0.08665353 -0.048777275 -0.07190803
-0.06444289 -0.16877855 -0.09800847 -0.080666855 -0.007822582 0.07457282 0.15510309 0.12708625
-0.009363113 -0.102689974 0.055829234 -0.15084435 -0.11616329 -0.00082739687 0.057401106 -0.032958448
0.12738718 0.07545925 -0.16505945 0.07158754 -0.043829024 0.1381629 -0.00695659 0.004544771
0.12929037 0.007841428 0.1655441 -0.08533677 0.08968966 0.13261113 -0.12182924 -0.022659708
0.058163736 0.15454756 -0.044619434 0.0637833 0.14933766 0.10318481 -0.037608642 0.17721204
-0.16933788 0.14418316 -0.10452995 -0.14910187 0.1771101 0.010414476 0.1266288 -0.09325743
-0.025113449 -0.05119168 -0.13688175 0.11835426 0.124336824 -0.08684981 -0.12807818 -0.120361716
-0.1375837 -0.07862517 0.14709298 -0.16628233 0.16154982 0.086269245 -0.109035924 -0.18104307
-0.15527706 -0.1260499 0.0008990953 -0.13566457 0.074932374 0.026962705 -0.079146214 0.03316926
0.012807245 0.02877283 0.059682112 0.13619156 -0.16721416 0.09520638 -0.12605365 -0.13429782
-0.042905815 -0.16570225 0.14353788 -0.09185833 -0.13976419 0.010384185 0.092665516 0.11594393
0.08537668 -0.07568999 -0.039563578 -0.13518777 -0.17226163 -0.099588886 -0.010948437 0.0964829
0.005274385 0.107375436 -0.106110655 0.16021565 0.17163606 0.037419178 0.010508954 0.009897279
-0.15987025 0.14601769 0.06381817 -0.095095806 0.050781958 -0.0634536 0.059826355 -0.15119104
-0.08935181 -0.007908374 0.06345891 0.023664812 -0.103597626 -0.08426433 -0.057975274 -0.12182389
0.018425334 -0.14426464 -0.13949384 0.10744707 -0.11394198 0.094385676 0.13727868 -0.092003405
0.11146476 0.009217961 0.1360383 0.0025419258 -0.10098023 0.024242174 0.020493394 -0.10577274
-0.11649846 -0.058798783 -0.053989924 -0.17100736 0.009949223 0.124852 -0.14508821 0.088264264
-0.06165561 0.015469561 -0.11389308 0.118070304 0.018919583 0.056009978 0.015870282 -0.0035770023
-0.047248643 0.18127768 -0.10747812 0.025144774 0.11192389 -0.001548162 -0.17599262 0.06782136
-0.14299746 0.1762802 0.060648054 0.029815353 -0.16571349 0.07159722 0.08799568 -0.03268028
0.08881405 0.05188501 0.09838132 -0.01783473 0.041603927 -0.17621721 -0.16754562 0.022523366
-0.017249554 0.023893705 -0.023298927 -0.16845584 0.03328129 0.05381681 -0.05942902 -0.04899593
0.025179993 0.041823693 0.013680622 -0.13001941 0.11256004 0.15790588 -0.11954713 -0.107792296
0.0062307916 0.06429869 0.030386908 0.112502165 -0.03790105 -0.04690915 -0.06970354 0.16179428
-0.13230345 0.09100614 -0.027780596 0.05460299 0.035341952 0.13633648 0.05435071 -0.14013554
0.05270126 0.14455578 -0.0017984654 -0.1398202 0.054756697 -0.11394469 -0.16054755 -0.044413563
00000000: 9c97 ffbd 3dc9 e0bd 5ac5 323e 50ce 2d3e
00000010: da0c 9a3d 71d5 37bd a756 e3bd 48f5 83bd
00000020: 16e9 f7bc b232 eabd 516b f33d 6b06 ecbd
00000030: e2f9 c43d 74a7 273c 268c 03be ef7c ee3c
00000040: 5a50 18bd 0d78 20bd 5c73 d2bc 34a4 103e
00000050: 066d eabd 2ebc 923d dcd7 aebd 3ed5 6bbd
00000060: 6a65 c53d f5b1 32bd a910 22be f754 71bd
00000070: 8d54 0fbe bf26 d8bc 124d c7bd f2e3 a5bc
00000080: 00bf 2d3e 143f 2f3e 85c8 1a3e 1b42 d83d
00000090: a963 18be 6877 b13d aeca 47bd 8444 93bd
000000a0: a2fa 83bd 49d4 2cbe aab8 c8bd aa34 a5bd
000000b0: 492a 00bc a2b9 983d 58d3 1e3e e622 023e
000000c0: be67 19bc 1f4f d2bd 32ad 643d f176 1abe
000000d0: 05e7 edbd aae5 58ba 6c1d 6b3d 70ff 06bd
000000e0: c971 023e 618a 9a3d 5805 29be 7d9c 923d
000000f0: 1086 33bd 937a 0d3e 1bf4 e3bb 4dec 943b
00000100: b264 043e 5579 003c 6484 293e 0bc5 aebd
00000110: 36af b73d 36cb 073e 9c81 f9bd daa0 b9bc
00000120: 193d 6e3d b741 1e3e dec2 36bd d2a0 823d
00000130: f9eb 183e 8f52 d33d 850b 1abd 1377 353e
00000140: e966 2dbe c0a4 133e cc13 d6bd 29ae 18be
00000150: 5a5c 353e 7aa1 2a3c fbaa 013e c0fd bebd
00000160: b8ba cdbc 5eae 51bd bb2a 0cbe b863 f23d
00000170: 4ea4 fe3d 50de b1bd ed26 03be 3480 f6bd
00000180: bee2 0cbe 3c06 a1bd 8b9f 163e ea45 2abe
00000190: 516d 253e eead b03d 3a4e dfbd 5b63 39be
000001a0: f300 1fbe 3a13 01be 44b1 6b3a a7eb 0abe
000001b0: 2576 993d e4e0 dc3c 6917 a2bd 7ddc 073d
000001c0: 7bd5 513c ffb4 eb3c 3b75 743d cd75 0b3e
000001d0: 303a 2bbe 90fb c23d 3514 01be 5e85 09be
000001e0: 02be 2fbd daad 29be 98fb 123e 3820 bcbd
000001f0: 581e 0fbe 6e22 2a3c 6bc7 bd3d 0374 ed3d
00000200: f8d9 ae3d 5a03 9bbd 6b0d 22bd aa6e 0abe
00000210: 5a65 30be 42f5 cbbd 1361 33bc d498 c53d
00000220: c0d4 ac3b a7e7 db3d 8b50 d9bd 920f 243e
00000230: 5dc1 2f3e da44 193d bf2d 2c3c 3228 223c
00000240: 07b5 23be a985 153e 1ab3 823d 97c1 c2bd
00000250: be00 503d f6f3 81bd 7b0c 753d d3d1 1abe
00000260: 15fe b6bd 2092 01bc bff6 813d b5dc c13c
00000270: fe2a d4bd c792 acbd 7b77 6dbd ce7e f9bd
00000280: baf0 963c 1cba 13be 79d7 0ebe 360d dc3d
00000290: 6a5a e9bd 474d c13d c892 0c3e 486c bcbd
000002a0: a347 e43d ee06 173c a04d 0b3e 7096 263b
000002b0: b9ce cebd 8697 c63c c3e1 a73c 619f d8bd
000002c0: bf96 eebd fed6 70bd 8a24 5dbd 8e1c 2fbe
000002d0: 1102 233c 68b2 ff3d 0192 14be e5c3 b43d
000002e0: 988a 7cbd 0b74 7d3c c640 e9bd d8ce f13d
000002f0: 3efd 9a3c b86a 653d 6502 823c 246c 6abb
00000300: cb87 41bd dba0 393e 7d1d dcbd 6afc cd3c
00000310: 5a38 e53d b2eb caba 6937 34be ede5 8a3d
00000320: ed6d 12be cc82 343e 186a 783d 543f f43c
00000330: ccb0 29be 90a1 923d 1437 b43d c2db 05bd
00000340: 24e4 b53d 6085 543d 257c c93d 241a 92bc
00000350: e168 2a3d 4972 34be 1491 2bbe ec82 b83c
00000360: f04e 8dbc bbbc c33c 64dd bebc b07f 2cbe
00000370: f651 083d 046f 5c3d d86b 73bd f5af 48bd
00000380: 4646 ce3c 524f 2b3d b024 603c cf23 05be
00000390: e185 e63d 14b2 213e 20d5 f4bd 35c2 dcbd
000003a0: ab2b cc3b 08af 833d f7ed f83c 8967 e63d
000003b0: 223e 1bbd cf23 40bd bbc0 8ebd 66ad 253e
000003c0: 8e7a 07be 6d61 ba3d 2294 e3bc 63a7 5f3d
000003d0: b9c2 103d ca9b 0b3e da9e 5e3d b17f 0fbe
000003e0: 47dd 573d 6e06 143e 7cba ebba 072d 0fbe
000003f0: 8f48 603d d55b e9bd 9466 24be ffea 35bd

MLP.8.bias f4 [32]
0.053404726 0.14495231 0.038334604 -0.14466128 0.0724392 0.0033325956 -0.07200315 -0.14119805
-0.15166521 -0.008958421 -0.053603914 0.15808842 0.0065830066 -0.020857574 0.05435123 -0.032917712
0.09041009 -0.15136512 0.15208954 0.0894444 0.12582497 -0.15136598 -0.059378475 0.025442986
-0.002474074 0.11752363 0.031984013 0.008753062 -0.13567296 -0.025335055 -0.028737951 0.14262322
00000000: eabe 5a3d 616e 143e bf04 1d3d 1622 14be
00000010: 015b 943d ad67 5a3b 6376 93bd 3996 10be
00000020: 204e 1bbe 57c6 12bc c78f 5bbd eee1 213e
00000030: 43b6 d73b 81dd aabc 659f 5e3d b9d4 06bd
00000040: ed28 b93d 75ff 1abe 5cbd 1b3e a02e b73d
00000050: 43d8 003e afff 1abe d836 73bd cf6d d03c
00000060: 1324 22bb 3bb0 f03d ab01 033d 0169 0f3c
00000070: daed 0abe 768b cfbc da6b ebbc d20b 123e

MLP.10.weight f4 [32, 32]
-0.06036447 -0.096220545 -0.11649292 -0.03918394 0.10118077 0.04508636 0.009973315 -0.12911324
0.088843614 -0.08872303 -0.020281153 -0.072827205 0.050757125 0.09811005 -0.0940252 -0.15077819
0.17727008 0.102922566 0.04021047 0.11801334 0.090282865 0.14505275 -0.031185543 -0.045130502
0.04987239 -0.10280754 -0.09596045 0.14621787 -0.04379019 0.10731666 -0.15549986 0.057176597
-0.0178663 -0.044658974 -0.10302028 -0.002303799 0.15886196 -0.038388923 -0.008542737 0.12851736
0.12806942 0.06501444 -0.08602791 -0.13268982 0.0129610635 -0.16153423 0.08413357 -0.14867662
0.105492055 0.040274616 0.13507734 -0.1590416 0.1455726 -0.14294776 -0.16935104 0.1241538
-0.12173482 0.10913077 -0.111459956 0.16291745 0.064986184 -0.16848408 -0.14402476 0.059211224
-0.14649966 -0.025952812 -0.15709458 -0.045540757 0.10223009 0.09992205 0.17098743 -0.023907246
-0.018208763 0.14742725 0.048618086 0.13108605 0.16422305 0.039945092 -0.12818123 0.16029066
0.028108383 0.099739425 -0.09512507 0.10204387 -0.148885 0.035994165 -0.10367804 -0.08415368
-0.15346155 -0.17673396 0.07053724 -0.072312936 -0.14545006 0.08336721 -0.030382145 -0.17118941
-0.013385908 0.17115782 -0.1368229 -0.112489685 -0.09910961 0.1266147 0.025612453 -0.13441011
-0.1174516 -0.05215771 -0.12857124 0.11856787 0.14388466 0.1605154 0.13653985 0.049664024
0.13611555 0.11494151 0.104504526 -0.13984653 0.07301857 0.0067422837 -0.15755649 -0.14189306
0.026364084 0.16616268 0.085534655 -0.02208585 -0.048335217 -0.07866181 0.10335505 0.08179724
0.10177922 -0.09808927 0.14883965 0.076510616 0.022825882 -0.04827767 0.06904985 -0.05400845
0.020063547 0.0730596 -0.16235495 0.07761212 -0.084493086 -0.17667417 -0.16834278 0.13475391
-0.02665546 0.024475351 0.08792574 0.08355244 0.10518846 -0.091533385 0.092251755 -0.11828443
-0.045545496 0.07374324 -0.1466703 0.112787284 0.010511626 -0.098493226 0.16054459 -0.14648369
0.06991254 -0.10847654 -0.07768342 0.0036326959 0.048998736 0.0043849475 -0.07608409 0.14050137
-0.14325984 -0.10457328 0.07457398 0.1717515 0.060943004 -0.15813522 -0.13611493 0.106681906
0.13945861 0.091760606 0.10928891 0.16963209 -0.053145178 0.10519786 0.1250645 0.10039306
-0.045798343 0.07951169 -0.113268815 0.008478797 -0.009911316 -0.04071508 -0.04970003 0.16168037
0.07488236 0.12550877 -0.12713255 -0.1317136 -0.11665969 -0.14508545 -0.059899963 0.0031445872
-0.11406417 0.1744548 0.032914784 0.05171046 0.103584625 -0.042162642 -0.032367695 -0.17224346
0.06266434 0.05400472 0.026241506 0.044552866 0.12565108 -0.03137801 0.013535858 -0.12832774
0.009306513 0.14894655 -0.07380753 -0.13545097 0.019694315 0.04241509 0.012894413 0.0048343446
-0.06350122 0.06623884 0.028748374 -0.115025304 -0.16676685 0.02486506 -0.126926 -0.16079086
0.11130623 -0.104576446 0.15860927 -0.014845179 0.048764765 -0.0019340676 0.037255287 0.14085265
0.10740169 -0.08429035 0.037892528 0.16130969 0.100704044 -0.15169312 -0.05509367 -0.07267626
-0.08649879 0.014869451 -0.011774889 0.00042385908 0.11941104 0.10157722 0.042695556 0.15010226
00000000: bc40 77bd 470f c5bd d793 eebd 577f 20bd
00000010: dd37 cf3d 7aac 383d 1d67 233c 4336 04be
00000020: a4f3 b53d 6cb4 b5bd a924 a6bc 6e26 95bd
00000030: b4e6 4f3d eced c83d 4990 c0bd 9965 1abe
00000040: 4a86 353e 11c9 d23d bcb3 243d fab0 f13d
00000050: 39e6 b83d b588 143e d378 ffbc c3da 38bd
00000060: fe46 4c3d c28c d2bd ea86 c4bd 23ba 153e
00000070: 585d 33bd d6c8 db3d 5b3b 1fbe 0232 6a3d
00000080: 595c 92bc 54ec 36bd 4cfc d2bd 55fb 16bb
00000090: b6ac 223e b43d 1dbd d6f6 0bbc 0e9a 033e
000000a0: a124 033e 4a26 853d 672f b0bd d7df 07be
000000b0: a45a 543c 3b69 25be 394e ac3d af3e 18be
000000c0: 380c d83d fff6 243d b751 0a3e cddb 22be
000000d0: fc10 153e e660 12be 5c6a 2dbe 5944 fe3d
000000e0: 1b50 f9bd f47f df3d 1e45 e4bd d5d3 263e
000000f0: 7a17 853d 1787 2cbe 3a7b 13be 7887 723d
00000100: 0204 16be fe9a d4bc 67dd 20be f288 3abd
00000110: 025e d13d efa3 cc3d 5417 2f3e 21d9 c3bc
00000120: 8b2a 95bc 2bf7 163e c223 473d 6c3b 063e
00000130: 162a 283e 779d 233d f141 03be 3c23 243e
00000140: 8d43 e63c 2f44 cc3d efd0 c2bd 60fc d03d
00000150: 4f75 18be 9e6e 133d 2755 d4bd c458 acbd
00000160: 0625 1dbe bff9 34be d475 903d ce18 94bd
00000170: dcf0 14be 6ebc aa3d fae3 f8bc 474c 2fbe
00000180: 9150 5bbc ff43 2f3e 4d1b 0cbe fe60 e6bd
00000190: fbf9 cabd 49a7 013e 35d1 d13c cea2 09be
000001a0: 778a f0bd 53a3 55bd 2ea8 03be b6d3 f23d
000001b0: 8056 133e 265e 243e 1ad1 0b3e 816c 4b3d
000001c0: e061 0b3e 7466 eb3d 7806 d63d ee33 0fbe
000001d0: c38a 953d 60ee dc3b 7d56 21be 6a4c 11be
000001e0: 7ef9 d73c 8d26 2a3e cb2c af3d 62ed b4bc
000001f0: 26fb 45bd 7119 a1bd d0ab d33d 5085 a73d
00000200: a071 d03d 07e3 c8bd 6c69 183e 99b1 9c3d
00000210: 58fd ba3c cebe 45bd 026a 8d3d f737 5dbd
00000220: 4f5c a43c 46a0 953d 6040 26be 1af3 9e3d
00000230: b60a adbd 13ea 34be 0d62 2cbe eefc 093e
00000240: 8d5c dabc 8880 c83c 6912 b43d 8b1d ab3d
00000250: 0c6d d73d db75 bbbd 7dee bc3d 1b3f f2bd
00000260: ea8d 3abd b206 973d bd30 16be 05fd e63d
00000270: f438 2c3c d1b6 c9bd cd65 243e d2ff 15be
00000280: 4e2e 8f3d f328 debd 7c18 9fbd 8612 6e3b
00000290: e6b2 483d 9baf 8f3b fad1 9bbd 97df 0f3e
000002a0: b5b2 12be 842a d6bd 3eba 983d a0df 2f3e
000002b0: 5f9f 793d 33ee 21be b661 0bbe 0b7c da3d
000002c0: 3dce 0e3e fcec bb3d ddd2 df3d 09b4 2d3e
000002d0: c2ae 59bd fa71 d73d e910 003e e09a cd3d
000002e0: 0b97 3bbd 06d7 a23d 7bf9 e7bd a7ea 0a3c
000002f0: 1363 22bc dbc4 26bd 4292 4bbd 8a8f 253e
00000300: ec5b 993d 5f85 003e 092f 02be eedf 06be
00000310: 47eb eebd 4891 14be aa59 75bd 6b15 4e3b
00000320: 7a9a e9bd 47a4 323e a7d1 063d 59ce 533d
00000330: 2d24 d43d bcb2 2cbd fd93 04bd 9760 30be
00000340: 2956 803d 0e34 5d3d 6df8 d63c 117d 363d
00000350: adaa 003e 3a86 00bd 81c5 5d3c 5968 03be
00000360: 587a 183c 7285 183e 6728 97bd a9b3 0abe
00000370: f955 a13c 72bb 2d3d 1743 533c 6c69 9e3b
00000380: ed0c 82bd 3ba8 873d b681 eb3c 6392 ebbd
00000390: eec4 2abe cfb1 cb3c e4f8 01be 5ca6 24be
000003a0: 85f4 e33d 2d2c d6bd 786a 223e 3239 73bc
000003b0: 90bd 473d 8a80 fdba 0099 183d ad3b 103e
000003c0: 6bf5 db3d 6ba0 acbd 3235 1b3d 5e2e 253e
000003d0: ec3d ce3d 7155 1bbe e6a9 61bd 4ad7 94bd
000003e0: 4726 b1bd ff9e 733c 77eb 40bc 6739 de39
000003f0: c68d f43d b807 d03d 89e1 2e3d 68b4 193e

MLP.10.bias f4 [32]
0.16103503 -0.1744794 0.08442031 -0.007908435 0.06575202 -0.07928133 0.11938054 -0.10871045
-0.07648485 -0.08251616 0.14691244 -0.15157133 0.09881517 0.11459621 -0.0037339965 0.08743084
-0.14602676 0.17396374 -0.17487729 0.04461996 0.083997086 -0.06409143 0.027730353 -0.0053099995
0.16563043 -0.087757915 -0.07391659 0.08933491 0.09367644 0.026747938 0.07041021 -0.08808402
00000000: 5ee6 243e baaa 32be 8ee4 ac3d 6192 01bc
00000010: ffa8 863d 405e a2bd c97d f43d 96a3 debd
00000020: 17a4 9cbd 3cfe a8bd 3770 163e 8435 1bbe
00000030: 9c5f ca3d 6bb1 ea3d 11b6 74bb f10e b33d
00000040: 0a88 15be 8d23 323e 0813 33be 6bc3 363d
00000050: aa06 ac3d 5e42 83bd c42a e33c 81ff adbb
00000060: 069b 293e 6cba b3bd 9561 97bd 39f5 b63d
00000070: 6fd9 bf3d 7e1e db3c 3a33 903d 6565 b4bd

MLP.11.weight f4 [32]
1.0005585 1.004155 0.9985159 1.0006279 0.99908024 1.0019841 0.9981048 0.9984222
1.0015237 1.002028 1.0017661 1.0001817 1.0035634 1.0024849 0.99538773 1.0008087
0.9985579 1.0032533 1.0003906 1.0009055 1.0036983 1.0020679 1.0065038 0.9929547
0.9969661 0.9978411 1.0038275 1.0021327 0.9959571 1.0042083 1.0037307 1.0041217
00000000: 4d12 803f 2788 803f bd9e 7f3f 9314 803f
00000010: b9c3 7f3f 0441 803f cc83 7f3f 9998 7f3f
00000020: ee31 803f 7442 803f df39 803f f405 803f
00000030: c474 803f 6d51 803f bbd1 7e3f 801a 803f
00000040: 7ea1 7f3f 9b6a 803f cd0c 803f ac1d 803f
00000050: 3079 803f c343 803f 1ed5 803f 4732 7e3f
00000060: 2c39 7f3f 8472 7f3f 6b7d 803f e245 803f
00000070: 0bf7 7e3f e689 803f 3f7a 803f 0f87 803f

MLP.11.bias f4 [32]
0.0026787587 -0.004655783 -0.00043503512 -0.0019056408 -0.0030400038 -0.0027976055 -0.0042181723 -0.00052090327
0.0028239298 -0.0038285665 0.0021192615 0.0026126723 0.0020091159 -0.0036869305 -0.00029856182 0.001972555
-0.001679045 -0.0016477838 -0.004703153 0.0008588551 0.0022902964 -0.0018471928 -0.0034059233 0.0032800687
-0.0034504374 0.0045797154 -0.0036270053 -0.0044809715 -0.003393406 -0.0029469787 0.00426202 0.0028051096
00000000: 1d8e 2f3b 8a8f 98bb 6d15 e4b9 b2c6 f9ba
00000010: cd3a 47bb 0858 37bb 9838 8abb 3a8d 08ba
00000020: ae11 393b b0e8 7abb 4fe3 0a3b 5e39 2b3b
00000030: 5fab 033b 6ea0 71bb 4a88 9cb9 fb45 013b
00000040: 6713 dcba 73fa d7ba e81c 9abb ca24 613a
00000050: cc18 163b 811d f2ba e935 5fbb 6cf6 563b
00000060: bc20 62bb 7011 963b 0db3 6dbb 1dd5 92bb
00000070: e863 5ebb 1922 41bb 6aa8 8b3b eed5 373b

MLP.13.weight f4 [4, 32]
-0.007315178 -0.13383189 -0.08840772 -0.12039242 -0.12915157 -0.13105911 -0.15302503 0.03276963
0.10111167 -0.14113499 0.034529205 0.006348983 -0.027722968 -0.0036538022 0.07233568 0.16035777
0.06640712 0.021871047 0.014593918 0.02944797 0.15579939 -0.052872438 -0.094706364 0.16250099
-0.0062419283 0.009983205 -0.061992884 -0.03316797 -0.14699772 -0.17772785 0.1723538 0.099539176
0.10419999 -0.049772765 0.008441062 -0.10249452 -0.068438314 -0.1195644 -0.053359497 0.09620397
-0.10237323 0.0017797739 0.011338055 -0.14342389 0.017039185 -0.023436315 0.074134745 -0.1476491
0.082118966 -0.01401621 0.11908343 -0.025721787 -0.02375344 0.07207504 -0.02187036 0.04814808
-0.057252634 -0.15613137 -0.04593432 0.09522908 0.1009589 -0.0013250556 -0.122744225 0.024566552
-0.016611405 0.0040037036 0.15439658 0.1154676 0.070667714 0.1448542 -0.108207785 -0.11853124
-0.07130566 -0.09355093 -0.09934789 -0.09750929 0.1193736 0.056344032 0.14711674 -0.10929172
-0.05910002 -0.02911991 0.08234198 -0.11075093 -0.054938857 -0.10934883 -0.06320468 0.06386056
-0.10339146 -0.040702425 -0.03606323 0.105195336 -0.033000324 -0.023674574 0.052995097 -0.043858778
0.1695289 -0.000662758 -0.041508634 0.10151462 -0.16405563 0.15721713 -0.13242695 0.16085644
0.0064079124 -0.01304802 0.12041286 0.12499181 0.019669283 -0.028211886 0.083881564 -0.11982007
0.049455523 0.04489135 0.09527795 0.13772921 -0.16170603 -0.0212179 -0.14513846 0.13642088
-0.10061908 -0.1603956 0.13553773 -0.081631616 -0.046772845 -0.07545383 -0.17060904 -0.10732892
00000000: 29b4 efbb 3a0b 09be 1b0f b5bd 4d90 f6bd
00000010: 4f40 04be 5c34 06be 98b2 1cbe 7339 063d
00000020: a313 cf3d b185 10be 7f6e 0d3d 210b d03b
00000030: 471b e3bc a174 6fbb bb24 943d d434 243e
00000040: 7500 883d e92a b33c 541b 6f3c df3c f13c
00000050: e089 1f3e c590 58bd 69f5 c1bd a966 263e
00000060: 1789 ccbb 9990 233c 40ec 7dbd 23db 07bd
00000070: 9286 16be 4afe 35be 847d 303e 32db cb3d
00000080: ce66 d53d 87de 4bbd 614c 0a3c a6e8 d1bd
00000090: 6329 8cbd 2ede f4bd 7d8f 5abd 9606 c53d
000000a0: 0ea9 d1bd 4d47 e93a 40c3 393c b6dd 12be
000000b0: c395 8b3c 84fd bfbc f5d3 973d 5331 17be
000000c0: fd2d a83d 3fa4 65bc 03e2 f33d 7fb6 d2bc
000000d0: 9396 c2bc 149c 933d 7829 b3bc ec36 453d
000000e0: bd81 6abd e7e0 1fbe a025 3cbd 7707 c33d
000000f0: 8ac3 ce3d 7dad adba 5361 fbbd cb3f c93c
00000100: a414 88bc 8031 833b 231a 1e3e 477a ec3d
00000110: 3cba 903d a954 143e 0b9c ddbd 82c0 f2bd
00000120: b408 92bd a197 bfbd e876 cbbd f3b2 c7bd
00000130: 257a f43d 00c9 663d c5a5 163e 56d4 dfbd
00000140: dd12 72bd e18c eebc e9a2 a83d 62d1 e2bd
00000150: 9107 61bd 48f2 dfbd 7571 81bd 53c9 823d
00000160: e7be d3bd 96b7 26bd 0ab7 13bd a770 d73d
00000170: 592b 07bd 2ef1 c1bc 6311 593d 43a5 33bd
00000180: fc98 2d3e f0bc 2dba f504 2abd e6e6 cf3d
00000190: 33fe 27be 87fd 203e ee9a 07be 8db7 243e
000001a0: 77f9 d13b 5dc7 55bc 049b f63d b5fb ff3d
000001b0: 7a21 a13c 9d1c e7bc 19ca ab3d 3a64 f5bd
000001c0: e091 4a3d fedf 373d 1621 c33d e308 0d3e
000001d0: 4496 25be 29d1 adbc 2d9f 14be eab1 0b3e
000001e0: 6011 cebd bf3e 24be 67ca 0a3e 7a2e a7bd
000001f0: e294 3fbd 8a87 9abd 23b4 2ebe 44cf dbbd

MLP.13.bias f4 [4]
-0.13125405 -0.0844276 0.10303815 0.14466532
00000000: 7667 06be 61e8 acbd aa05 d33d 2523 143e
