example/model/diff_robot_default/model_3000.pth (torch, 24610 bytes, 18 tensors)

MLP.0.weight f4 [32, 2]
00000000: 5ac2 c03e 7bac 92be 41ba 9a3e 4f6d e33e
00000010: 3fa6 42bd 79fc bf3e 82e4 ddbd 6cc3 463e
00000020: e6a6 b53e eb5c 1a3f e277 5c3e 6b75 6e3e
00000030: da5e b7be dfc0 f5be c837 0abf 5c0c 323e
00000040: beff f63e 4b6d 43be 0c73 d53d 36ff ae3e
00000050: 7fc1 a5be 33ae ff3e 88ac f63e 7384 edbe
00000060: edc9 2ebe 444c 0b3f 792a 95bd 6ad8 e43e
00000070: 266c 123f 25a7 213e 4f57 fdbd 58cb f13e
00000080: ceea 1d3e 34fa a93e c845 68bc c621 0c3e
00000090: fe5a f3bc 9d57 f13e ece6 3fbe c8b8 81bc
000000a0: 75d0 943e 2dcf 26bd 3ea0 0cbd 72ec dabe
000000b0: 63c3 f2be 6e1d e23e e305 d9be 681e 8d3d
000000c0: 45d2 e5be b2a8 dc3d 8f22 04bd 6c07 dabd
000000d0: 01c5 88be 417e a53d 7fd6 783e c56c d5be
000000e0: 5a7b 28bf eb8b 57be ac36 f2bd d50f 213d
000000f0: 0a59 06bd 2e7c be3d 0fc2 edbe 90d2 913d
0.37648278 -0.28647217 0.30220225 0.44419333 -0.047521826 0.3749731 -0.108346 0.19410485
0.35478896 0.6029803 0.21530107 0.23286979 -0.35814553 -0.4799871 -0.53991365 0.17387527
0.4824199 -0.1908466 0.10422334 0.34179085 -0.32374188 0.4993759 0.48178506 -0.46390113
-0.17069216 0.5441325 -0.07283492 0.4469636 0.5719627 0.15786417 -0.123701684 0.4722545
0.15421602 0.33198702 -0.014176793 0.13684759 -0.029706474 0.47137156 -0.18740433 -0.01583518
0.2906529 -0.040724922 -0.034332506 -0.42758518 -0.47414693 0.44163078 -0.42387304 0.06890565
-0.44886985 0.107743636 -0.03225952 -0.10645947 -0.26712802 0.08080722 0.24300574 -0.41684547
-0.6581322 -0.21049468 -0.11826834 0.03932174 -0.032799758 0.09301029 -0.46437117 0.0712024

MLP.0.bias f4 [32]
00000000: d109 b73d 93fd 043d cac9 b83e b48c f6bd
00000010: 1861 1bbc dc89 4dbe 9f77 a7bd 7991 b13e
00000020: 2740 0c3d 75b7 7abd ee1e 963e d744 f2bd
00000030: 872d bcbe f10c 273e f15a 77be 3c09 613e
00000040: 4ad1 39bd de1f 8ebe 5a92 333d 927d 993e
00000050: 98bf 703e d487 cb3d fe41 2dbe 9547 213c
00000060: 1671 29be da97 243d 861b 01be 0467 2c3e
00000070: 6740 33be 6668 bbbe d757 b03c a244 8cbe
0.08937419 0.03246839 0.36091453 -0.12038556 -0.009483598 -0.2007212 -0.08177113 0.346813
0.034240868 -0.061210115 0.29320472 -0.118295364 -0.36753485 0.1631353 -0.24155785 0.21976179
-0.04536561 -0.27758688 0.043840744 0.29978615 0.23510587 0.099380165 -0.16919705 0.009843727
-0.16547045 0.04018388 -0.12608156 0.16836172 -0.17505036 -0.36603087 0.02152626 -0.27396113

MLP.1.weight f4 [32]
00000000: 41a8 183f 47e3 343f 0904 2b3f 7940 e33e
00000010: efd5 273f f8af 303f 8f2c 1d3f 7551 4e3f
00000020: a272 113f 3202 333f a2f2 4d3f 99f3 293f
00000030: 14b4 493f 92b1 203f 6c2a 503f 6ba3 363f
00000040: 3e05 103f 8882 ab3e 6440 083f 65ba 313f
00000050: 47fb 153f 4cbe 333f 96dc 393f a1f0 f93e
00000060: e979 423f a0e8 ea3e 7e74 0c3f 3c8a 203f
00000070: 8ac0 3c3f b396 153f d35d 423b 36ee 333f
0.59631735 0.706593 0.6680303 0.44385126 0.6556081 0.69018507 0.61396116 0.80593044
0.5681554 0.69925225 0.80448353 0.66387326 0.787904 0.6277095 0.8131473 0.71343106
0.56258 0.33498025 0.5322325 0.6942504 0.58586544 0.70212245 0.7260221 0.48816398
0.7596727 0.45880604 0.5486525 0.6271093 0.7373129 0.58433074 0.0029657974 0.70285356

MLP.1.bias f4 [32]
00000000: 4537 a93c d3bc 9c3a b9a4 943c 5027 acbc
00000010: 6546 f83b f14e 1ebc 8852 513c f645 f6bc
00000020: c5ed ce3c 108b 88bc 9afb bd3c ad04 bb3c
00000030: a9fd c4bc 6b45 d3bb 9d3c 1cbd 3723 1cbd
00000040: d0e9 3a3c 74a9 9f3b 6288 e73b c910 413c
00000050: 26ca 303d 3512 a3ba 22c1 523c b3d4 b63c
00000060: ecf4 37bc d2a8 01bd deb8 51bc 10f9 f23c
00000070: dd4c 753c 0c23 9c3c b8b1 1e3d 63a4 17bd
0.020656237 0.001195813 0.018144952 -0.02101484 0.007576751 -0.009662376 0.012776025 -0.030062657
0.025259862 -0.016667873 0.023191262 0.022829378 -0.024046736 -0.0064474843 -0.038143743 -0.03811952
0.011408284 0.0048724953 0.0070658186 0.011783787 0.043161534 -0.0012441339 0.012863429 0.02231822
-0.0112278275 -0.03165514 -0.012800423 0.029659778 0.014971939 0.01905968 0.038743705 -0.037022006

MLP.3.weight f4 [32, 32]
00000000: 02ba a9bd 8529 1d3d 9b4a dbbd 6978 023d
00000010: e57e f7bc a6d9 25bd 81a0 26be a44f 813d
00000020: ef8c 533d 8273 99bd 7fa0 9f3d 384a 493d
00000030: a6fb 57bd 45ec 1b3d 5e84 243d 5700 f03d
00000040: 6157 c3bc d6e2 64bb 56d4 093d 72df 333d
00000050: 5bfc b2bd 8aa7 96bd 95be 89bc 274b de3c
00000060: b83b 8abd adda 483c 194f 743d 8948 74bd
00000070: 1ae7 e43d c4d8 14bd 0b2a a9bb 719a 9fbd
00000080: f51f 16bc def5 8b3d 7f94 66bd c780 b43c
00000090: 1338 acbc c774 a2bd 9ace 033d cc36 013d
000000a0: 4910 e73d 4cda 91bc d8c3 6e3d 4f15 96bd
000000b0: 4f77 9fba 3f75 fbbc c354 d1bd 0108 e93c
000000c0: 0b91 2b3d 2768 883c 3943 3b3c cbd5 afbd
000000d0: 798f 82bd 04d4 103e da40 803c 2ab9 e3bd
000000e0: 83e2 f1bd 60e2 c83d 035a c3bc 4fba 83bd
000000f0: 9cf6 0bbe 6204 afbc 0e27 1bbc 270d f23c
00000100: 3dba f33d bc44 34bc c814 dcbb 1bd0 cd3d
00000110: 207c d73d 69f1 013d 9817 9d3c 85ce 82bc
00000120: 51bd 7ebd fb54 63bd 3acb 17bd 4340 513d
00000130: 6fd6 1d3e d4ae e63d 5639 fdbd 4d43 babd
00000140: 364a 0a3d 70b4 343d 9a33 8f3c c2c3 c23c
00000150: 6528 30bc 6471 0d3e 0b9b 7c3d 155d 973d
00000160: cf5c 903d ab87 dd3d 2e0e c43d 114e 933d
00000170: e4d2 993d 15e7 e73d ca8d 1b3c 6e08 2c3e
00000180: fdb4 413d 4525 713d 9545 f1bc eef7 50bd
00000190: 6a9a 8e3d 9adc c53d bd78 3bbd 3dbf 2ebe
000001a0: cfc3 bc3d a509 87bb 07c3 253e 58ac e23c
000001b0: 3f1b 03be 3837 0abd a354 013e 95f6 633d
000001c0: cb09 a63d f8c2 4abd 53e4 e4bd a5d1 75bd
000001d0: aee6 363d 6f33 1dbe a19f 33bd 9467 923b
000001e0: 2a50 22be 91f6 cabd 777f 19bd 5b60 da3d
000001f0: c82e bd3d cade 44bd 1c77 523c 9cfa 8bbd
00000200: 5f20 323d 195d 9a3d 37a2 42bd d323 103d
00000210: dc18 86bd e690 b6bd acf5 f2bd 07c0 bebd
00000220: fc62 9e3c 86ed a7bd d386 993a 75a4 673d
00000230: 21f8 183e 1b12 f13d 805f aebd 0fa8 2fbd
00000240: 3f1a 1b3a 4091 193d 5a04 aebc e585 fdbd
00000250: 8678 d0bd 2bb8 0b3d a221 07bd 25cd d439
00000260: 0fba 193e e400 df3d 4322 b13d 8534 e2bd
00000270: ec49 b5bd 3b7a a03d 891c 63bc 7f86 413d
00000280: c5c8 aebd 34c4 cfbd d62b 0fbe 70b2 ca3d
00000290: 9e3f d0bc 2e31 813d 45c7 02be a4d2 103e
000002a0: 84bf 1dbb 4c4a 05bc ca2f b5bd 8b80 703d
000002b0: 04de c03d 38e9 f6bd f37d 11be 69bf 09bd
000002c0: 0f47 7cbc b94b 8cbb 74e3 203e 9d3f b4bd
000002d0: 624f a03c 53f1 cbbd ff25 a1bc 09f2 013d
000002e0: 3eaa 09bd 3ecb 053d 8e68 c2bc c42c f33c
000002f0: 1268 003e 8686 5ebd 18ff 2cbd 5a71 df3d
00000300: e580 353d e343 8fbd 1ee2 ef3d 0ed1 0cbc
00000310: 1dba a2bc 0d6c f0bc 3e5c 1ebd 72b1 44bc
00000320: 032d adbd 6144 7a3c a003 23bc b1fe 7dbd
00000330: 07b1 5e3c 848b e23d c89d b13b 01e5 903d
00000340: 3fe3 3ebd d9ee 2bbd 6c5a 8b3d 158e 353d
00000350: 39ac 3f3d 78d6 293d 988b 553c f421 88bc
00000360: 712c 68bd 3973 e53c abb7 5cbd 377b bbbc
00000370: 7618 4b3c 7410 acbd 71f2 563b 4066 91bc
00000380: c242 c6bc eb38 1fbd 3333 adbd 7d7c c9bb
00000390: 867b 003e 8da1 b93d c5b9 5d3c 2427 79ba
000003a0: 6fdb e5bc 3247 173d 2555 823d 37e6 87bd
000003b0: ee8a b0bd d214 d53d 1ff0 903d 729d 9dbd
000003c0: adee 833b 23dc 623c 9a2f 28bd ed8e 153d
000003d0: 54f1 a7bc 6d23 9e3c ec4b eb3d fc4d 5a3d
000003e0: 651e c03d 50cf 66bd d2fa c23c 9fb9 a23d
000003f0: ac0b 8dbd bab5 193d 4454 bfbb a76f 753b
-0.08287431 0.038369674 -0.10707589 0.031853113 -0.030211875 -0.04049077 -0.16272165 0.06314018
0.051648077 -0.074927345 0.07794284 0.049143046 -0.052730225 0.03806712 0.040165298 0.11718815
-0.023845376 -0.0034925244 0.033649765 0.043914266 -0.08739539 -0.07356174 -0.01681451 0.027135445
-0.06749672 0.012259168 0.059645746 -0.059639487 0.111768916 -0.036339536 -0.0051624826 -0.07793129
-0.009162893 0.06834005 -0.05629396 0.022034062 -0.021022832 -0.0793243 0.032179452 0.0315464
0.11282403 -0.017804287 0.05829224 -0.07328283 -0.0012166294 -0.030695556 -0.10221245 0.0284462
0.04188637 0.016651226 0.011429601 -0.085857 -0.063750215 0.14143378 0.015655924 -0.111193016
-0.11810782 0.098088026 -0.023846632 -0.0643202 -0.13668293 -0.021364395 -0.009469761 0.029547287
0.119007565 -0.011002716 -0.0067163445 0.100494586 0.10521722 0.031724367 0.01917629 -0.015967617
-0.062192265 -0.055500966 -0.037059046 0.051086675 0.15413831 0.112638146 -0.123644516 -0.09094868
0.03376218 0.04411739 0.01748066 0.023774985 -0.010751818 0.13812786 0.061671298 0.07390801
0.07048952 0.10816892 0.09573017 0.07192624 0.07510927 0.11323372 0.009494254 0.1680009
0.047291745 0.058873434 -0.029452125 -0.051017694 0.06963046 0.09661217 -0.045769442 -0.17065139
0.09217035 -0.0041210228 0.16187678 0.02767007 -0.12803362 -0.033744067 0.12629943 0.05565508
0.081073366 -0.049502343 -0.11176362 -0.060014386 0.044653587 -0.15351652 -0.043853406 0.004467914
-0.15850893 -0.0991031 -0.037475076 0.106629096 0.092374384 -0.04806403 0.012845781 -0.06834909
0.043487903 0.07537288 -0.04751798 0.035190415 -0.0654771 -0.08914356 -0.118632644 -0.0931397
0.019334309 -0.08199601 0.0011713154 0.056553323 0.14938404 0.117710315 -0.08514309 -0.042884883
0.0005916692 0.037492037 -0.02124231 -0.12379054 -0.10179238 0.034111183 -0.03299106 0.00040588636
0.15012382 0.10888842 0.08649113 -0.110451736 -0.0885199 0.078358136 -0.013861784 0.047247406
-0.085343875 -0.10144845 -0.13981566 0.098973155 -0.02542096 0.063082084 -0.12771328 0.14142853
-0.002407045 -0.00813539 -0.08847006 0.058716338 0.09417346 -0.12056202 -0.14208202 -0.03362981
-0.015397801 -0.004281488 0.15711766 -0.08801196 0.019569103 -0.09958138 -0.019671438 0.031724963
-0.03360962 0.03266453 -0.023731496 0.029684432 0.125397 -0.05432751 -0.042235464 0.10910292
0.044312377 -0.0699537 0.1171305 -0.008594764 -0.019864136 -0.029348398 -0.038662188 -0.012005197
-0.08455851 0.015275092 -0.009949595 -0.06201047 0.013592011 0.11061767 0.0054204203 0.07074929
-0.046603438 -0.04197583 0.06804356 0.044324953 0.046795104 0.0414643 0.01303377 -0.016617753
-0.056683008 0.028009044 -0.053886097 -0.022885902 0.012395969 -0.08401576 0.0032798315 -0.017748952
-0.024201754 -0.03887264 -0.08457031 -0.0061488734 0.1254712 0.090640165 0.01353306 -0.00095044286
-0.028058736 0.03693313 0.06363896 -0.06635707 -0.08620249 0.10404362 0.070770495 -0.07696046
0.004026255 0.01384643 -0.04106102 0.036513258 -0.020500816 0.019304002 0.1148909 0.053297028
0.09380797 -0.056350052 0.023801241 0.07945561 -0.06886992 0.037526824 -0.0058389027 0.0037450583

MLP.3.bias f4 [32]
00000000: af2b c4bd e5c5 093d 5e69 453e 0cff acbd
00000010: 04ca ae3d b440 2a3d e5e0 dfbd d2a7 31bd
00000020: 3c12 083d 6d59 013e be7f 123d 6b25 13be
00000030: 909e 0e3e db34 6abc f485 2dbd 5901 25be
00000040: bd30 04be b9e7 fc3c 0c7c e43d 9dca bfbc
00000050: e78c c33d 5cf8 f48e 867d d93d da4c f8bd
00000060: ac93 4abd a7e4 153c 8c3b 043e 160b 4abc
00000070: 9f26 983d 85a5 813d 00ac 5a3d 2428 9f3d
-0.095786445 0.033635993 0.19278476 -0.08447084 0.08534625 0.041565612 -0.10931567 -0.043372937
0.033220515 0.1263177 0.035766356 -0.14369743 0.13927674 -0.014294828 -0.042364076 -0.16113795
-0.12909217 0.030872213 0.111564726 -0.023412043 0.09548359 -6.0389805e-30 0.10619645 -0.12124033
-0.049457237 0.009148753 0.1291334 -0.012331745 0.074292414 0.063303985 0.05338669 0.07771328

MLP.5.weight f4 [32, 32]
00000000: f4cb 7a3c 738e 8a3c ae48 86bd f92c e0bc
00000010: ecac 403d dde2 a7bd aa1a 503d e100 d33b
00000020: 283d 27bd caa1 c9bd 0d40 2c3c 2dad cf3c
00000030: 2b33 81bd fc0e 2cbc e768 033e 4181 cabc
00000040: bf46 ea3d 70d3 94bd f57c 193d e393 5abd
00000050: 9105 a3bc 6184 e881 2689 b63d 001c a53d
00000060: c6a6 c0bd c978 573d 27bf fd3d 58a7 3dbd
00000070: 17c2 afbd 0010 323e 032d 593d c922 153c
00000080: 2af0 83bd 2417 9dbd 0ff1 d5bd 1c1e 31bc
00000090: 674b 6e3d 43a8 efbd c003 5dbc 7570 5f3d
000000a0: 2487 02be 1f3e 713d 9179 3cbb 8190 f43c
000000b0: 7413 7a3d f72b 8f3d c6a0 d93c 0cbe 25bd
000000c0: 2cb0 0a3e b513 db3d 0826 7cbd 0d52 b03d
000000d0: 6884 eebd 7650 9581 f7eb 4cbe 0238 f43c
000000e0: 95c1 9a3c c3a0 4e3d 738f 0abe 339a 02bc
000000f0: 4dcb e83d 4397 e2bd 05cd 5dbd 9689 803d
00000100: 2405 4b3c fdb2 c3bd 3a26 f1bd 2dcc 1fbe
00000110: 7108 7c3d 3821 7abd 7a23 98bb 4e3a d6bc
00000120: 5a98 b83d 0149 d3bd db02 6d3b dd52 0abe
00000130: 4053 fabd 1331 50bb 088d 073d 5e76 29bd
00000140: ca42 a13d 465b 83bd beca f2bd 5afb ddbd
00000150: 420c abbd 5cba c781 e55b 093d 9d37 c2bc
00000160: b331 a0bd 2b8f a1bd c276 fe3c 9901 87bc
00000170: 51b7 363d caca 723d e32a c43c bff2 87bd
00000180: fcc6 b5bc acf6 dc3b 84ee d03d 999d fabd
00000190: d53d b0bc d872 9c3b 17cf ea3c 0fe7 a43b
000001a0: 4353 e33d 6d89 bf3d d2b1 53bd aad0 17bc
000001b0: 378b d23d 40a6 35bd 244e d9bd 1647 a4bd
000001c0: 0c9d d13c 96ec ea3d 847d e0bb 11ee 36bd
000001d0: d079 43bd cd76 5401 f019 00be aeef 7e3a
000001e0: 113f 1abe 91b7 a7bd b8cc 193e 6d95 1a3d
000001f0: b842 8fbd 8519 683d ceb1 853d 5b45 8d39
00000200: 2e2d a0bd ac4c b03d 9193 b2bd 7f88 7abc
00000210: 5186 a3bd e2fd 1c3c 21cb 253d d96f 643b
00000220: 333c f4bd 1d50 3d3b 735c 0bbe 107c 893d
00000230: 1028 d53d 0536 ad3b f0d1 843d 0ed2 1d3e
00000240: 63bf d03d 33d7 c73d 8ef9 ccbc f20c 8ebb
00000250: aadd 843d a96a ad81 754a 9d3d eff9 b0bd
00000260: 0838 963c 07e1 cf3d f755 f3bd 5f3f 32bd
00000270: 30df 26bd 5a35 1cbe fc59 bcbd 3376 11be
00000280: 77af 49bc 6e8a 40bd bbaa 84bd 2f11 5f3c
00000290: d3f8 913c a20d 043d d449 9ebb ffab f6bb
000002a0: 4ee0 59bd e30b dcbd 3410 703d da5b 353a
000002b0: 92c1 da3c 4d74 6d3c 3085 0abe 9da2 27bd
000002c0: b8a0 7a3d 038c 31bd 8f75 f93c 823d e73b
000002d0: c8b2 0bbe b5f0 9501 f1bb 003e b42a 843d
000002e0: 91fb 7f3c a971 4fbd f431 96bd aa2e 19be
000002f0: 75c4 99bd e6c4 6e3d c93e 683d 2772 513d
00000300: 8628 e83d f181 aabd b35b 023e 3d78 213d
00000310: 5ba8 cabd ab2d 9d3d 08e3 38bd c62b b3bc
00000320: 94d0 c7bd 8de1 833c 9469 33bd db09 11be
00000330: 1214 f6bd d186 0cbd 1127 e4bd eea7 543d
00000340: 6ca3 b8bb 0863 323e 0247 ac3d 0990 45bd
00000350: ed9c b6bc c637 e60d 9380 373e c3c2 103d
00000360: 9c10 a3bc 5a95 4e3e 1e18 183d dd79 dabd
00000370: 7fb6 dd3d d734 b4bd 49bc ef3d fc12 94bc
00000380: 40f9 cc3d 6dd6 d2bd a26e 08be 9c76 a9bd
00000390: 4bc7 edbd 432d 133d 8af6 1b3d 24ae 43bd
000003a0: 9170 a6bd 03a2 d63c c63b 09be 3eee 24be
000003b0: 1519 e7bd 4626 6c3d c81b 8d3c b2a2 9c3d
000003c0: 8922 663d d3e2 773d 3ef5 d2bc 5c4a cf3d
000003d0: 04f1 5a3c 3464 8c81 69e7 383d 69e4 833c
000003e0: 161b b5bc 3443 403b 24a5 583d 83b9 c43d
000003f0: e758 0dbe 2460 9cbd 480c 5cbd f112 dc3c
0.015307415 0.016913628 -0.06556831 -0.027365195 0.04703991 -0.081975676 0.05080668 0.0064393138
-0.040829808 -0.09845312 0.010513318 0.025351131 -0.06308588 -0.010501619 0.12832986 -0.024719836
0.11439275 -0.07266891 0.037472684 -0.053363692 -0.019900115 -8.5413295e-38 0.08912878 0.08061981
-0.094068095 0.052605424 0.12389975 -0.04630217 -0.085819416 0.17388916 0.053021442 0.009102532
-0.06442292 -0.07670429 -0.10446369 -0.010810401 0.058177378 -0.11702015 -0.013489664 0.054550607
-0.12746865 0.058897134 -0.0028758983 0.029854061 0.06105371 0.069908075 0.02656592 -0.040464446
0.13543767 0.10697118 -0.061559707 0.086094 -0.11646348 -5.484941e-38 -0.20011888 0.029811863
0.018891135 0.050446283 -0.13531284 -0.007971334 0.113669015 -0.11064007 -0.0541506 0.062762424
0.012391362 -0.09555624 -0.11774869 -0.1560523 0.061531488 -0.061066836 -0.004642901 -0.026150849
0.09013434 -0.10316659 0.0036165032 -0.13508172 -0.1222291 -0.0031767532 0.033093482 -0.04137265
0.07874067 -0.064138934 -0.11855076 -0.10838957 -0.08351947 -7.336847e-38 0.033534903 -0.02370816
-0.078219794 -0.07888635 0.031062488 -0.016480254 0.044608418 0.059275426 0.023946231 -0.06638097
-0.02218961 0.0067432728 0.10201743 -0.122370906 -0.021513859 0.0047744326 0.028663201 0.005032427
0.11099865 0.09352384 -0.051683255 -0.009266058 0.102804594 -0.044348 -0.10610607 -0.08021371
0.025587581 0.114709064 -0.0068509 -0.04466063 -0.04772359 3.9023486e-38 -0.12509894 0.0009725046
-0.1506312 -0.081893094 0.150195 0.03774016 -0.069951475 0.056664962 0.06528054 0.0002694529
-0.07821117 0.08608374 -0.08719552 -0.015291332 -0.07984603 0.009582015 0.040476922 0.0034856705
-0.119255446 0.0028886863 -0.13609485 0.06713116 0.10408032 0.0052859806 0.06485355 0.15412161
0.10192754 0.09757843 -0.02502134 -0.0043350393 0.064875916 -6.3703213e-38 0.07680217 -0.08641421
0.018337265 0.101503424 -0.11881631 -0.043517467 -0.040740192 -0.15254727 -0.09196851 -0.14205246
-0.0123099005 -0.047007017 -0.06477877 0.013614937 0.017818844 0.032239564 -0.0048305783 -0.0075278278
-0.05319243 -0.10744455 0.058609203 0.0006918289 0.02670363 0.01449306 -0.1352737 -0.040926564
0.06118843 -0.043346416 0.030451564 0.007056893 -0.13642418 5.5079353e-38 0.12571694 0.064534575
0.015623943 -0.050645504 -0.073337466 -0.14959207 -0.07508174 0.058293246 0.0567005 0.051134255
0.11335854 -0.083255656 0.12730293 0.03942131 -0.098953925 0.07674726 -0.04513839 -0.021871459
-0.0975658 0.016098762 -0.04380186 -0.14163916 -0.12015547 -0.03430826 -0.11140264 0.051917963
-0.005634716 0.1742059 0.08411981 -0.048233066 -0.022291625 1.4188271e-30 0.17920141 0.03534199
-0.01990538 0.2017416 0.037132375 -0.10667775 0.10825824 -0.08799141 0.117058344 -0.018075459
0.10008478 -0.10294805 -0.13323453 -0.08274576 -0.11610278 0.035931837 0.038076915 -0.047773495
-0.08126939 0.0262003 -0.13401708 -0.16106507 -0.11284081 0.057653688 0.017225161 0.07648219
0.05618528 0.06051905 -0.025751706 0.10121605 0.013363127 -5.157166e-38 0.045142565 0.016100125
-0.022107642 0.0029336931 0.052891865 0.09605696 -0.13803445 -0.07635525 -0.05372265 0.0268645

MLP.5.bias f4 [32]
00000000: f2e9 dbbd eb18 bc3d 6656 df3d bb37 c9bd
00000010: 368a b23d a825 103e 165f 96bd 774a 2cbc
00000020: 99af cf3d 8840 3e3d d786 8fbc d3d4 623d
00000030: 054a ff3d 8153 24bd 0dbf 13be 15f3 00be
00000040: 5ffa ad3d 067c e3bd aa02 f03d b3bf 0fbe
00000050: f3f8 0bbe a1a4 13be df27 89bc 9bf2 23bb
00000060: ea9c 443d 8ea7 fabd bbf7 f03d 35b6 d43d
00000070: 43ed 123d 4af5 01bc ca1e f73b c5d2 863d
-0.10737981 0.0918444 0.10905151 -0.09825083 0.08717768 0.14076865 -0.07342355 -0.010515801
0.101409145 0.04644826 -0.017520351 0.055378746 0.1246529 -0.040118698 -0.14428349 -0.12592728
0.0849502 -0.1110764 0.11719258 -0.14037971 -0.13669185 -0.1441827 -0.016742645 -0.002501643
0.048001207 -0.1223899 0.11766001 0.10386316 0.0358708 -0.007932017 0.007541512 0.0658317

MLP.6.weight f4 [32]
00000000: c6d8 333f 176c 143f 6820 413f 0ff6 413f
00000010: 51bb 163f 560a 0b3f b5b6 4a3f 6fa8 423f
00000020: 9699 1c3f 4b32 2c3f 00a6 2d3f 1019 043f
00000030: 8509 213f 6b76 343f 8ff3 0f3f 937e 083f
00000040: dc1b 403f 024f 463f 1ec8 153f 0a88 163f
00000050: 1c11 343f f5cf 2d3f a82b 393f 17e3 0c3f
00000060: 8d2f 3f3f d558 383f e5a7 1a3f 46ea 3c3f
00000070: d5b2 163f faf8 153f 5d06 ff3e 0ec6 0e3f
0.70252645 0.5797743 0.75440073 0.7576608 0.5887957 0.54312646 0.7918504 0.7603826
0.61171854 0.6726424 0.6783142 0.5160074 0.6290515 0.7049319 0.56231016 0.53318137
0.7504251 0.77464306 0.5850848 0.5880133 0.70338607 0.6789544 0.7233224 0.5503401
0.7468193 0.72010547 0.60412437 0.7379497 0.58866626 0.58583033 0.49809542 0.5577096

MLP.6.bias f4 [32]
00000000: 2fee 5fbc 36eb 3abc 3fb8 8839 1148 5b3c
00000010: 5c6a caba 8095 023c 13fb 5d3b 3936 c2bc
00000020: 8cf4 8d3b 17c3 6d3c 21a0 de3c 2f65 f3bc
00000030: 4d63 03bc f96d 753b 6f59 7abb a153 013c
00000040: 44fc 06bc c66c 553c a263 673b d263 073b
00000050: ab76 9bbb 0008 913c 0039 64bc 24f5 4ebc
00000060: 8ef7 273c 96a3 cfbc 417c d23b 99ae 333c
00000070: 73b1 8ebc fd97 ab3b 2385 3b3c e7cc 7a3b
-0.013667627 -0.011408618 0.00026077215 0.013383881 -0.0015443075 0.007970214 0.0033871576 -0.023707496
0.004332131 0.014511845 0.027175965 -0.029711334 -0.008019281 0.0037449582 -0.003820028 0.007893474
-0.008238856 0.013026422 0.0035307189 0.0020658863 -0.004744371 0.01770401 -0.0139296055 -0.012631688
0.010251893 -0.025346559 0.0064235036 0.01096692 -0.017418599 0.0052366243 0.0114453165 0.0038269104

MLP.8.weight f4 [32, 32]
00000000: 6faa bfbd f080 c9bd 225e 0b3e 7e07 6c3b
00000010: 9383 5b3d 8e5b 10bd 0f41 e6bd 0c01 3dbd
00000020: 438f d3bc 028a 9dbd bd98 703d 9533 d1bd
00000030: 0f5e 843d 46a8 c33c e39e f7bd 4851 85bc
00000040: 5223 a1bd f792 0d3d c41c 70bc 3463 033e
00000050: ceb7 babd 486a be3d c83b 6ebd f1e0 f0bc
00000060: 8bfa 293d ce36 c9bc 24be 07be 50e6 42bd
00000070: 9374 c6bd 9143 40bc a1b3 babd 69c1 2fbb
00000080: 0471 0f3e fda8 fb3d 29dc d73d f8f9 be3d
00000090: 6f5e cabd 9daf 663d e5ab cebc dd30 67bd
000000a0: 88ec 2cbd db55 06be 869b 8bbd 3ff2 97bd
000000b0: a5c3 bb3a 163d 6e3d 6074 0a3e 51fc b73d
000000c0: fd1c 6dbb b627 c2bd 2548 3d3d e7f0 ecbd
000000d0: 5c93 63bd 640b 9bbb f274 bd3c 99cd 04bd
000000e0: 6e36 c73d 3148 5a3d 7000 14be 43ff 6f3d
000000f0: 98d4 dabc d815 c43d f2dc 6cbc 324c 993c
00000100: 8780 193e 57bd 36bb 845d 1f3e 20db 04bd
00000110: 2706 903c cdaf 0a3e 60e5 c4bd 2afe cabc
00000120: 2a9c 0b3d 0adc b33d ba7f 57bd b5c1 553d
00000130: 79b5 e93d f8e9 8f3d e9e7 3e3a 63d6 bf3d
00000140: 93d6 fbbd 6e8f ba3d a831 a6bd 3986 bfbd
00000150: cbdf 9f3d 1d0b 6d3a a1fe e73d af45 d1bd
00000160: bed9 22bc 81fa b5bc 7845 b3bd cc07 913d
00000170: 9283 e83d 2a89 19bd 6b72 52bd 913a c6bd
00000180: 3584 0fbe 18f3 9bbd c7b3 f03d d383 f9bd
00000190: e1d2 023e 0392 973d 4305 d1bd fd80 2fbe
000001a0: 4656 e0bd 1ab7 92bd 5863 d63c ffaa 0dbe
000001b0: e98a 8d3d 5280 1d3d d58d d8bd 514a 4a3a
000001c0: 9b4a d6bb 1b35 053d 0bd3 643d c83d 7f3d
000001d0: 8455 19be b542 883d 4b54 f5bd 35ee e8bd
000001e0: 24d8 7bbd a7a4 19be e1d2 023e 7301 93bd
000001f0: f623 04be e629 1f3c 76aa a43d a4d7 703d
00000200: bd2b 5c3d 997f 4bbd ae86 7ebc 444c 85bd
00000210: 7d52 86bd f976 65bd 1b0a b7bc dc67 813d
00000220: 8e7a 5a3c 22ec ec3c 496f 2bbd 0702 2b3d
00000230: 8764 b93d 51a0 cb3c 7a90 cf3c b8b9 703c
00000240: 8029 b1bd 24cd 703d 41b1 003d 9d57 1dbd
00000250: e040 2b3d 83aa 13bd d9f3 5c3b 4803 ebbc
00000260: e9bd 32bc f968 faba e216 023c c812 f73c
00000270: 1656 2dbd a8a0 17bd 7426 06bc 2532 1cbd
00000280: 0d1f 143d 4718 24be 6500 debd dbce a53d
00000290: 9184 93bd 1850 bc3d 2de4 0c3e f5e7 85bd
000002a0: 989a f63d d4be eabc 146d d23d b495 81bc
000002b0: 4191 85bd a7cc 1bbc 67f6 273d 073f 90bd
000002c0: 5e1c c4bd d07e 37bd 6ce0 e7bc 984e fbbd
000002d0: 6e28 0c3d 24fb b83d 90f0 1abe b242 b03d
000002e0: 10ac fabc 6528 0e3d 04b4 d2bd 309b e03d
000002f0: cc77 43bc 90b9 d43c 0274 a13c 25ff c9bc
00000300: 5baa fbbc 6de7 323e 55c8 aebd b2e9 b83c
00000310: 2a71 573b 07c8 563c f35f 2abe f685 5d3d
00000320: d8e3 e7bd 9989 063e 7623 803d 32d5 80bc
00000330: efd7 06be 4a6e 3c3d 4beb 893d 6a25 4fbd
00000340: f952 c03d b320 1d3d b1d0 bb3d ddf4 d83c
00000350: 7f57 103d 5b07 1abe 63a2 21be 95cc f73c
00000360: c2e8 08bd caff 843c 8f09 32bc 3740 26be
00000370: 6f94 233c 195d eb3c 0f9e 4cbd afcf febc
00000380: 586a 2d3d 842c 043d c271 61bc b4aa f0bd
00000390: 123b 653d 3df4 ea3d fdde c8bd 32b3 54bd
000003a0: b4b0 dbbc 082c 933d 318d 2fbb 7233 e93d
000003b0: c6f6 dcbc 05fc 2fbd ebf5 51bd 8140 8c3d
000003c0: 2329 0abe 8214 b33c 966c 7bbc 97cc dd3b
000003d0: f710 1e3c f394 c23d 6c6b 0a3e 4a3c 72bc
000003e0: 9788 843c 6933 083e c771 82bc 84e1 01bd
000003f0: 5aef f53c c7ad 34bd 4a77 adbd 16a6 54bc
-0.093586795 -0.09839046 0.13610128 0.0036015208 0.053592276 -0.035243563 -0.11242878 -0.046143577
-0.025825148 -0.076923385 0.058739413 -0.102149166 0.06463253 0.02388395 -0.12090852 -0.01627411
-0.07868065 0.034563985 -0.014655296 0.12830812 -0.09117089 0.09297615 -0.05816248 -0.029404135
0.041498702 -0.024562266 -0.13256127 -0.047582924 -0.096902035 -0.011734859 -0.09116293 -0.0026818162
0.14007956 0.12288091 0.10540039 0.093250215 -0.09881293 0.05631982 -0.02522845 -0.056443084
-0.04221776 -0.13118689 -0.06816773 -0.07419252 0.0014325274 0.058163725 0.13520956 0.089836724
-0.0036180608 -0.094802305 0.04621138 -0.11569386 -0.055560455 -0.0047315825 0.023127053 -0.032422636
0.097271785 0.053291503 -0.14453292 0.058593046 -0.0267127 0.09574479 -0.014456974 0.01871309
0.14990436 -0.0027883851 0.15563017 -0.032435536 0.017581059 0.13543625 -0.09614062 -0.024779398
0.034084477 0.087822035 -0.052612044 0.052186687 0.11411566 0.07027048 0.0007282482 0.09367063
-0.12296786 0.09109388 -0.0811494 -0.09351773 0.07806357 0.00090424885 0.113278635 -0.10218369
-0.009939609 -0.022214176 -0.087534845 0.07081565 0.1135322 -0.037484325 -0.05137865 -0.096791394
-0.14015277 -0.07614726 0.1175304 -0.121833466 0.12775756 0.074008964 -0.10206082 -0.17139049
-0.10953955 -0.0716383 0.026170418 -0.13834761 0.06911261 0.038452454 -0.10573927 0.00077167625
-0.0065396554 0.03252135 0.05586533 0.06231478 -0.14974028 0.06653348 -0.11978968 -0.113735594
-0.061485425 -0.15004216 0.12775756 -0.07178011 -0.12904343 0.009714579 0.08040325 0.0587994
0.05375265 -0.049682233 -0.01553504 -0.06508687 -0.06558702 -0.056021664 -0.022343686 0.06318638
0.013334883 0.02892119 -0.041854177 0.04174998 0.09052377 0.024856718 0.025337446 0.014692716
-0.086504936 0.058789387 0.031419042 -0.038413633 0.041809916 -0.036051285 0.003371468 -0.028688088
-0.010909536 -0.0019104771 0.007940026 0.030160323 -0.042318426 -0.037018448 -0.008187879 -0.03813376
0.036162425 -0.16024886 -0.10839919 0.08096095 -0.072030194 0.09194964 0.13758917 -0.06538383
0.12041205 -0.028655447 0.10274711 -0.015818454 -0.065218456 -0.009509242 0.041006472 -0.070432715
-0.09575723 -0.044798672 -0.028305255 -0.1227085 0.034218244 0.09032276 -0.1513083 0.08606471
-0.030599624 0.034706492 -0.102882415 0.109671 -0.011930417 0.02596739 0.019708637 -0.024657795
-0.03072088 0.17471094 -0.08534304 0.022572372 0.0032873848 0.013109214 -0.16638164 0.054082833
-0.113227546 0.13138427 0.06256764 -0.01572666 -0.1316831 0.046003617 0.06734332 -0.05057279
0.09390826 0.038361263 0.09170664 0.026483947 0.035239693 -0.15041868 -0.15784602 0.03024892
-0.0334251 0.016235251 -0.010866537 -0.16235434 0.00998412 0.028730916 -0.049955424 -0.03110489
0.042337745 0.032269016 -0.013760032 -0.11751309 0.055964537 0.11472366 -0.09808157 -0.051928706
-0.026817657 0.07186133 -0.0026787037 0.113867655 -0.02697314 -0.042964954 -0.051259916 0.06848241
-0.13492255 0.021860365 -0.015345713 0.006768774 0.009647599 0.09501066 0.1351754 -0.014784882
0.016178412 0.13300861 -0.015923394 -0.03170921 0.030021358 -0.04411104 -0.08470018 -0.012979051

MLP.8.bias f4 [32]
00000000: ffe0 e83c deaa 003e 0e91 463d ff4f f8bd
00000010: 7cec 1b3d 9a03 553b 8eed 52bd d3ac b9bd
00000020: 898f 10be 53f3 103b a037 a0bc b337 1c3e
00000030: 8405 b23b d228 0bbb bdd4 363d dd70 f1bc
00000040: befb b33d bff9 0bbe d7bd 103e ab57 b83d
00000050: 0683 9c3d bc8a e4bd e261 10bd d642 d13c
00000060: d3a7 073c ccd1 093e 6c7f 6bbc 6b8a fcbb
00000070: d0ca 4b3d e0b3 693b 29cf 0abd 42ae 1d3e
0.028427599 0.1256518 0.04847818 -0.12124633 0.038067326 0.0032503367 -0.05149608 -0.09066167
-0.14117254 0.0022117689 -0.019557774 0.15255623 0.0054327864 -0.0021234048 0.044636477 -0.029472763
0.087882504 -0.1366949 0.14134918 0.09001096 0.07642178 -0.11159274 -0.0352496 0.025544565
0.0082797585 0.13458937 -0.014373641 -0.0077069304 0.049753964 0.0035660192 -0.03388897 0.15398505

MLP.10.weight f4 [32, 32]
00000000: 5729 81bd 6ca8 7abd a26a b3bd f4ae 4ebd
00000010: b08e 91bb be95 8f3d 4c05 22bd a64a 3e3c
00000020: c1fa 5a3d e76d 14bd 8a4e e0bd 23f2 6ebd
00000030: 9254 423c c64c af3d e809 d0bc 035d 4fbc
00000040: 5e4e 5c3d 4d7a b43d 7341 693c 7ba5 a23d
00000050: 21fd 0f3d f1f9 103e 6973 e0bc c2cd a7bc
00000060: 1e6d 1f3d 066d 2ebd 5cc4 8bbc 4c01 8c3b
00000070: 2bad adbd 60af ee3d 06e2 073b 9343 c63c
00000080: cd56 683d 8b22 95bc 639e 80bc d717 a83b
00000090: a9d1 8c3c d095 bbbc f679 d4bb d5b3 80bc
000000a0: 21d4 c53c 9734 b73c c962 9c3c c248 fbbd
000000b0: e31a c03c dbed aabd f8eb f43c ad44 a83b
000000c0: 453c 2b3d 8396 963c 90f0 e63d edd1 12be
000000d0: 9c97 af3c 0ec1 f7bd e1e6 5ebc 1051 803d
000000e0: 755c e0bd 172d d03d 97a8 2ebc 0dbb d53c
000000f0: 9ef0 dc3d ab9a 0abe 6026 99bc bd65 bc3d
00000100: 6091 8abd 8cf2 bbbc 1dee e7bd 773c f3bb
00000110: 4002 4e3d 4384 8e3d d279 2c3e 45c9 3fbc
00000120: 6686 1bbc d250 aa3d 22ed 233d 19dc 023e
00000130: 2dc9 1f3e c4e6 113d c00f a5bc 24de 803c
00000140: ab9a edbb bc30 c83d 5ea6 50bd 8a53 e53d
00000150: 7fe6 a1bd c603 713d 8848 84bd e86a 50bd
00000160: 9c4c 03be 5397 3bbe 083a 07bb 2cbe 7b3a
00000170: 5aba 7f3d 0368 8e3d 79da 04bd 11f7 32be
00000180: c702 9e3c b762 273e d1d9 ebbd 8aa9 e2bd
00000190: 07c7 39bd 412a 233e e053 c63c 1d59 90bd
000001a0: 22fa f5bd a838 78bd 7e53 ebbd 948a dc3d
000001b0: a424 093e 94e6 1e3e 95f0 a83d f4b5 643c
000001c0: 2a18 b53d f5e1 bc3d 23ee b03d e1c1 17be
000001d0: 8c99 57bc c38d 0c3c f9d8 02bd 5ff8 02be
000001e0: 3558 c83c 02e8 133e 7cb7 26bd 0f78 18bc
000001f0: a25e 81bc b68b 30bd 2b09 1f3d c770 9e3d
00000200: 94af a93d 9d9e a4bd e985 0f3e bf63 953d
00000210: 1ce3 933c 9e08 2ebd 1222 db3d 6430 b0bd
00000220: 21af 193d 53ed 3b3d a08c 03be f107 433d
00000230: aa15 a2bd 5432 2ebe 3d5a 8cbd 92b3 a23c
00000240: 2b6f 5bbd 9e49 f03b 40be 033e c5ee d43d
00000250: 8d31 07bd 46eb f3bd 4c27 723d 04d2 e8bd
00000260: f333 07bd c1c9 943c 3ee8 8a3c b1c8 263d
00000270: 800b 4d3d 301f d8bd 1247 2a3c faf8 08be
00000280: 6bf9 273d acd8 cfbd e6bf 8fbd a1f4 eb3b
00000290: 0e01 d43b ef03 fd3c e1a1 98bd 3006 60bc
000002a0: 490f 11be 26b3 9fbd aa01 4a3d c80b 283e
000002b0: fb7d 8b3d 0784 25be c901 f4bd fd50 5cba
000002c0: 53d4 b13c f2ec 9b3d 0ffa c63d 4e3d 213e
000002d0: aa87 97bc f5cf aa3d f228 383d 14fc 9d3d
000002e0: 9750 54bd ffab 3b3c a443 33bd 34de 3b3c
000002f0: 4b66 c0bc 5cf2 17bd 38a0 18bd 665a 203e
00000300: 0057 413d 0b89 033e 6153 b8bd e293 fabd
00000310: efb2 62bd 9045 09be 01c4 45bd 211f 00bd
00000320: cc92 a7bd 931d 0e3e 0954 e0bb a7b4 6a3d
00000330: f0a3 b73d 4eed 27bd 85f2 16bd 27c5 67bc
00000340: 5a85 413d 7b3c 9a3d 0fdd 213d dab9 2f3d
00000350: 0a3e 3bbd d232 a0bc 00fd b63b 0ad8 b8bd
00000360: f2df e33c f221 ce3d 962b 343c db07 82bd
00000370: cd08 87bd 7559 323d 9998 153d 3023 213c
00000380: df57 5ebd cf6f 4b3d e979 9abb e96e 03be
00000390: ba72 e5bd fa9b e53c 3885 07be c08c 393c
000003a0: 89c7 a33d 195a 91bd 5e86 f33d 6f88 abbc
000003b0: d958 003d 81a7 72bc 2206 473d 04a5 e03b
000003c0: 5495 a33d a1a8 ddbd bd1c e9ba 07ee f83d
000003d0: 6ec2 2a3d a065 0fbe 1754 d1bc 5c82 d8bd
000003e0: b77a dcbd 361c 4d3d e739 afbc c6dd 5fbc
000003f0: 6ae9 7f3d 41a3 b33d 6326 88bc 87b5 153e
-0.06306713 -0.061195776 -0.08760573 -0.050459817 -0.0044420585 0.07010983 -0.039555833 0.011614477
0.053461794 -0.036237624 -0.1095248 -0.05833639 0.011860983 0.08559565 -0.025395349 -0.012656453
0.053785674 0.088123895 0.014236796 0.07941719 0.035153512 0.14157845 -0.027398782 -0.020483855
0.03892242 -0.04258444 -0.017061405 0.0042726155 -0.08480295 0.11654544 0.0020734086 0.024202144
0.056723405 -0.018204948 -0.015700525 0.005129795 0.017189818 -0.022898585 -0.0064842654 -0.01571075
0.024149003 0.022363944 0.019090073 -0.12269737 0.02345032 -0.083461486 0.029897675 0.00513514
0.041805524 0.018382316 0.112763524 -0.14337893 0.021434598 -0.12097369 -0.0136048505 0.062654614
-0.10955135 0.1016485 -0.010660312 0.02609017 0.107880816 -0.13535564 -0.018695056 0.091990925
-0.06766009 -0.022942804 -0.113247134 -0.0074229795 0.050295115 0.06958821 0.16843346 -0.011705701
-0.009492492 0.083161965 0.04002107 0.12779273 0.15604086 0.035620466 -0.020149112 0.015730925
-0.007251104 0.0977492 -0.05093991 0.111975744 -0.07905292 0.05884149 -0.06459147 -0.050883204
-0.12822193 -0.18319444 -0.0020633955 0.0009603228 0.062433578 0.069534324 -0.032434914 -0.17477061
0.019288434 0.1634625 -0.115161546 -0.11067493 -0.045355823 0.15934087 0.024209917 -0.07048247
-0.120106 -0.060600907 -0.11490534 0.10768619 0.13392884 0.15517646 0.082490124 0.013959397
0.088424996 0.092227854 0.08639171 -0.14820053 -0.013159167 0.0085787205 -0.031945202 -0.12790059
0.024456123 0.14443973 -0.040702328 -0.009305968 -0.015792195 -0.04310199 0.038827103 0.07736354
0.08285442 -0.080380656 0.14015926 0.07294416 0.01805263 -0.042488687 0.10699858 -0.0860298
0.03752053 0.045880627 -0.12846613 0.047614995 -0.07914288 -0.17011386 -0.06853149 0.019861016
-0.053572815 0.0073329946 0.12865543 0.10397104 -0.03300624 -0.11910109 0.059119508 -0.11368182
-0.033008527 0.01816261 0.016956445 0.040718738 0.050059795 -0.105528235 0.010392921 -0.13376227
0.041009348 -0.10148749 -0.070190236 0.007200793 0.0064698523 0.030885665 -0.07452751 -0.01367335
-0.14165987 -0.07797842 0.049317993 0.16410744 0.06811138 -0.16163646 -0.11914403 -0.0008404402
0.02170769 0.07613553 0.09715664 0.15746042 -0.018497307 0.08340446 0.044960923 0.07714096
-0.05183467 0.011454581 -0.04376568 0.011466552 -0.023486277 -0.037096366 -0.03726217 0.15659484
0.04720211 0.12845246 -0.09000278 -0.12235238 -0.055346426 -0.13405442 -0.048282627 -0.031279687
-0.08182296 0.13878469 -0.0068459553 0.05730119 0.089668155 -0.040997796 -0.03685238 -0.014146126
0.047246315 0.07531067 0.03951746 0.04290185 -0.045713462 -0.019555483 0.005584359 -0.09025581
0.027816746 0.10065068 0.01099672 -0.063491546 -0.065934755 0.043542344 0.03652248 0.0098350495
-0.05428302 0.049667176 -0.00471424 -0.12835278 -0.11203523 0.028028477 -0.13234413 0.011325061
0.07997043 -0.07097263 0.11890863 -0.02093908 0.03133473 -0.014810444 0.048589833 0.006855609
0.079874665 -0.10823179 -0.0017785054 0.12154775 0.04168933 -0.1400361 -0.025552792 -0.10571739
-0.107655935 0.050075732 -0.021389915 -0.013663715 0.06247846 0.087713726 -0.016619867 0.14620028

MLP.10.bias f4 [32]
00000000: 8c12 123e 6fc8 16be 09e7 a93d 3bbe 7dbc
00000010: f291 723d de49 a2bd fd04 f13d c9e1 f6bd
00000020: 13fb 6dbd 5183 b0bd 77fe 1c3e 820e 0abe
00000030: 43cd c43d be89 d33d 9cd5 13bc 09f4 a63d
00000040: 71d0 fdbd 29a2 213e 31d2 22be 7e65 343d
00000050: 3584 b03d 4a43 93bd a697 1a3c 3267 a03b
00000060: e294 1e3e 0f27 b9bd 65fd 7ebd b321 ba3d
00000070: 5391 a83d ad32 8a3c b2a2 ab3d 093b 9cbd
0.14264888 -0.14724897 0.082960196 -0.015487249 0.059221216 -0.07924245 0.117685296 -0.12054784
-0.05810077 -0.086187966 0.15331446 -0.13482097 0.09609463 0.103290066 -0.009023096 0.08152015
-0.12393273 0.15784515 -0.15900494 0.044042103 0.086189665 -0.07190569 0.00943557 0.0048951143
0.15486482 -0.09040653 -0.062253375 0.09088459 0.082308434 0.016869867 0.08380641 -0.076284476

MLP.11.weight f4 [32]
00000000: bcd7 5d3f ec95 463f 1175 543f 765e 503f
00000010: c3af 613f 473a 623f 29cb 623f 2bbb 553f
00000020: a915 563f c5a3 523f 1ee8 5d3f fd4a 493f
00000030: dd5f 3d3f bf77 2e3f fd19 523f 0bba 613f
00000040: 52aa 2a3f 2a1a 233f 2ef4 3e3f 796d 563f
00000050: 05fa 5a3f b7f2 543f 5f0c 473f 2fd8 563f
00000060: ec8c 2a3f 8132 3d3f c011 413f 59ee 3a3f
00000070: 3770 513f 063a 543f b6c4 5c3f 9882 3f3f
0.8665731 0.7757251 0.8299113 0.81394136 0.88158816 0.88370174 0.8859125 0.8348872
0.836268 0.8228114 0.8668231 0.7863005 0.739744 0.6815147 0.82070905 0.88174504
0.6666614 0.637118 0.7459134 0.8376079 0.8553775 0.83182853 0.7775325 0.8392362
0.6662128 0.7390519 0.7541771 0.7301994 0.8181185 0.82901037 0.8623766 0.74808645

MLP.11.bias f4 [32]
00000000: 7232 bc3b fa06 783c 003c b03b 4e60 813b
00000010: c624 46bb 408f 38bb f862 583c 75f1 42bc
00000020: 0b0b 9b3b d983 463b 3311 653c 026c 093c
00000030: 1154 233c ac1b 4fbc 7a67 c3bb 08ae b93b
00000040: ecfe b53a 64a4 4fbc 0c48 f7bb e437 78b9
00000050: 0e21 023c 99fa 033b 0cb1 8f3b 3dee 9d3b
00000060: 6d29 0a3d 4748 8b3c 83a0 983b 4593 83bb
00000070: c2b9 6a3a 642f b93b 5aea 683c a78c 823c
0.0057433182 0.015138382 0.0053782463 0.003948248 -0.003023432 -0.0028161556 0.01320719 -0.011898388
0.004731541 0.003029099 0.013981151 0.0083875675 0.009968773 -0.012640875 -0.005963263 0.005666498
0.0013885177 -0.012673471 -0.0075464305 -0.00023671944 0.007942451 0.0020138382 0.0043851193 0.00481966
0.033730913 0.017002238 0.0046578064 -0.0040153586 0.00089540717 0.0056514014 0.01421603 0.015936209

MLP.13.weight f4 [4, 32]
00000000: 2017 01bc 7043 06be baaa 1bbd 0da4 e6bd
00000010: 0740 fbbd 2930 fdbd 5d49 0dbe 0f2f 193d
00000020: eeea a93d adac 16be 75e7 b83c c26b c63b
00000030: 17bf 9abc dd73 063b a6b0 8b3d 155b 193e
00000040: fd53 7c3d ba0c 763c 3824 963c c35a 733c
00000050: 8845 0e3e f8e9 35bd a014 acbd a5df fd3d
00000060: 868d 18bc b8fd 9e3b b457 85bd 805d d23b
00000070: 74b4 05be 4b43 1ebe 1619 293e 2e24 b73d
00000080: 9f75 673c c9ba ebb9 028d b23b 00e3 3abd
00000090: 1644 2d3d ca28 903c 1f02 223c 702b bf3b
000000a0: b2a8 803d c381 6cbc eff9 ad3c 0b8f a4bb
000000b0: 3e18 87bc 2f38 243d 92b1 3fbd a6ff d23c
000000c0: d144 e2bc 2640 9b3c 474f 41bc dc02 a13c
000000d0: 2919 763c de30 0bbd 2693 27bd 18da 92bd
000000e0: 1db1 fd3b 406e 69bd 89c1 9dbc 88be 073d
000000f0: c897 b63c 2ba6 35bd 8959 80ba 607f 3cbd
00000100: eeb4 68bc 8382 a53b 74c6 273e 148e b03d
00000110: 20ea 823d fd0e 093e cbee d3bd 751e e9bd
00000120: 07b0 4abd d394 80bd 8b4a b3bd eae9 c9bd
00000130: 67d4 d03d aece 4a3d 85ce f33d 517f d9bd
00000140: a998 4cbd c125 66bd ab76 993d 23cd e3bd
00000150: 9b96 3dbd c056 ccbd 78e3 6cbd 2fe4 3e3d
00000160: 11c1 d6bd 435d 38bd 2157 15bd 8cd8 a63d
00000170: 7ebc 9cbc baa8 86bc 57ff 0d3d 05f6 18bd
00000180: dbc1 053e 8980 52bc 9845 86bc 03af dc3c
00000190: dbdf ebbd bf9f f33d 9612 85bd 7e48 b73d
000001a0: b8a8 f63c cfea 56bc 56a2 d93d 562a 9e3d
000001b0: 63f4 94bc 34ee c3bc 9b49 89bc 96ac 84bd
000001c0: a9a1 b53c a91f 443d e19b 183d 36b7 7d3d
000001d0: 3579 e3bd d4ff 05bd 7871 42bb 3975 8d3d
000001e0: f76c 81bd 4279 36bd 80d8 7c3d 90b7 52bd
000001f0: 7bde 00bd 473d fcbc 3088 8cbd ab96 893c
-0.007879049 -0.13111663 -0.038004614 -0.11261759 -0.122680716 -0.123627014 -0.13797517 0.037398394
0.082967624 -0.14714308 0.022571305 0.006055326 -0.018889947 0.0020515837 0.068208024 0.14976151
0.061603535 0.015017683 0.018327817 0.014853182 0.13893712 -0.044412583 -0.084023714 0.123961724
-0.009311086 0.004852023 -0.06510869 0.0064198375 -0.13057119 -0.15455358 0.16513476 0.089424476
0.014127164 -0.0004496186 0.0054489383 -0.04562664 0.04230126 0.017597575 0.009888201 0.0058340356
0.06282176 -0.0144352345 0.021237342 -0.005021935 -0.016491052 0.040092643 -0.046800204 0.025756668
-0.027620705 0.018951487 -0.011798686 0.019654684 0.015020647 -0.03398215 -0.040911816 -0.07170504
0.007742061 -0.05698991 -0.019257324 0.03314069 0.022289172 -0.044347923 -0.0009792309 -0.04601991
-0.014203293 0.0050509586 0.16384298 0.08620849 0.06392312 0.13384624 -0.103482805 -0.11382762
-0.04948428 -0.06278386 -0.08754452 -0.09859069 0.101967625 0.04951351 0.11904625 -0.10619987
-0.049950276 -0.05618835 0.07493337 -0.11123111 -0.046286207 -0.09977484 -0.05783412 0.04660433
-0.10486043 -0.045010816 -0.036460046 0.08146772 -0.019132849 -0.016437877 0.03466734 -0.037343998
0.13062231 -0.012848028 -0.016390607 0.02693892 -0.115173064 0.118957035 -0.064976856 0.08949374
0.030109748 -0.013117506 0.10626666 0.07722919 -0.018182939 -0.023917295 -0.01675873 -0.06478231
0.022171812 0.047881756 0.037258033 0.0619423 -0.11107103 -0.03271468 -0.0029669683 0.06907124
-0.063196115 -0.044549234 0.061729908 -0.05144459 -0.031462174 -0.030790938 -0.06861913 0.016795477

MLP.13.bias f4 [4]
00000000: 02d1 08be 84ed d6ba cd6a c53d a443 f73d
-0.1336098 -0.001639769 0.09639511 0.12073448
