example/model/diff_robot_default/model_5000.pth (torch, 24610 bytes, 18 tensors)

MLP.0.weight f4 [32, 2]
0	0x3eae94c7	0.34097883
1	0xbe856832	-0.26056057
2	0x3e937011	0.28796437
3	0x3ed79bbe	0.4211101
4	0xbd402ca7	-0.046917584
5	0x3eae68c8	0.34064317
6	0xbdb27eca	-0.08715589
7	0x3e28c412	0.16481045
8	0x3eace345	0.33767143
9	0x3f124eec	0.57151675
10	0x3e4e95b0	0.20174289
11	0x3e5c9a81	0.21543314
12	0xbead12ef	-0.33803508
13	0xbee00c17	-0.43759224
14	0xbefe6a2e	-0.49690384
15	0x3e247155	0.16058858
16	0x3ece63bc	0.40310466
17	0xbe1ce255	-0.15320714
18	0x3dc678d9	0.096910186
19	0x3ea3a8b6	0.31964654
20	0xbe9aac62	-0.30209643
21	0x3eefe16d	0.46851674
22	0x3ee7e69c	0.45293128
23	0xbede2a69	-0.4339173
24	0xbe23a651	-0.15981413
25	0x3f0280e7	0.5097794
26	0xbd8d3f02	-0.068967834
27	0x3ec3d7af	0.3825049
28	0x3f06b62a	0.5262171
29	0x3e1be2a7	0.1522318
30	0xbdf0318e	-0.11728202
31	0x3edb326a	0.428119
32	0x3e0b4eac	0.1360423
33	0x3e9c3aaf	0.30513522
34	0xbc4f7164	-0.012661312
35	0x3dab8d04	0.08376506
36	0xbcddd451	-0.02707878
37	0x3ec568d5	0.38556543
38	0xbe3687d3	-0.1782525
39	0xbc6cd328	-0.01445464
40	0x3e7b11c6	0.24518499
41	0xbd04acb4	-0.032391265
42	0xbd0789a3	-0.033090245
43	0xbec36e5b	-0.38170132
44	0xbee23314	-0.44179595
45	0x3ed3dc06	0.41378802
46	0xbea9368b	-0.33049425
47	0x3d847b75	0.0646886
48	0xbed71734	-0.4200989
49	0x3dc0ee37	0.09420436
50	0xbce2f75d	-0.027705843
51	0xbda1e972	-0.07905854
52	0xbe60b932	-0.21945646
53	0x3d95b031	0.073089965
54	0x3e645a50	0.22300076
55	0xbec02bc8	-0.37533402
56	0xbf1e5561	-0.6184903
57	0xbe49214a	-0.19641605
58	0xbde183b9	-0.11011452
59	0x3d1345c0	0.03595519
60	0xbc90570a	-0.017619628
61	0x3d548963	0.051888835
62	0xbed85be0	-0.42257595
63	0x3d88042c	0.06641421

MLP.0.bias f4 [32]
0	0x3ce3798e	0.027767923
1	0x3d387c5c	0.045040473
2	0x3e9f941f	0.31167695
3	0xbd97af08	-0.074064314
4	0x3c7c93f9	0.015416139
5	0xbe36d76f	-0.17855619
6	0xbd94207f	-0.07232761
7	0x3e9c98d6	0.30585355
8	0x3cc82ada	0.024434496
9	0xbd69dabf	-0.05709338
10	0x3e86d6cf	0.2633576
11	0xbdc2b4f9	-0.09507174
12	0xbea052ff	-0.3131332
13	0x3e0fbb7f	0.14036368
14	0xbe5aaeaf	-0.21355699
15	0x3e558cb6	0.20854458
16	0xbd483031	-0.048874084
17	0xbd24f5ec	-0.040273592
18	0x3c8e1383	0.017343288
19	0x3e7e63cc	0.24842757
20	0x3e49729b	0.19672625
21	0x3dc6837a	0.09693046
22	0xbe22194c	-0.15829962
23	0x3b5c2dbe	0.00335966
24	0xbe1a9dc4	-0.15099245
25	0x3d198f4c	0.037490174
26	0xbdae2249	-0.08502633
27	0x3e22d888	0.15902913
28	0xbe04bd39	-0.12962808
29	0xbea2e95c	-0.31818664
30	0x3bd44b99	0.0064787385
31	0xbe7eb2ca	-0.2487289

MLP.1.weight f4 [32]
0	0x3f00c101	0.502945
1	0x3f19c55c	0.6006677
2	0x3f118f23	0.56859034
3	0x3e75e82b	0.24014346
4	0x3f0b20bc	0.54346824
5	0x3f18b89e	0.59656703
6	0x3f022b47	0.50847286
7	0x3f38b761	0.72154814
8	0x3ef1ffbd	0.47265425
9	0x3f181ce3	0.5941908
10	0x3f3d4e3b	0.73947495
11	0x3f1668c1	0.5875359
12	0x3f371508	0.71516466
13	0x3f02893a	0.5099064
14	0x3f3b7b4e	0.73235023
15	0x3f20fc8e	0.6288537
16	0x3ee8f670	0.45500517
17	0x3d64c3d7	0.05585083
18	0x3ecf5f96	0.40502614
19	0x3f1615df	0.5862712
20	0x3eec8127	0.46192285
21	0x3f1ce5a0	0.6128788
22	0x3f24be86	0.64353216
23	0x3eafe6c9	0.34355763
24	0x3f2f414d	0.68459016
25	0x3e96493f	0.29352757
26	0x3ec20844	0.3789693
27	0x3f0a995d	0.54140264
28	0x3f243ec0	0.6415825
29	0x3ee54e96	0.4478652
30	0x39defb94	0.0004253058
31	0x3f20cc70	0.62811947

MLP.1.bias f4 [32]
0	0x3c9b7ee6	0.018981408
1	0x3ba335ba	0.00498077
2	0x3cba1021	0.022712769
3	0xbce59626	-0.028025698
4	0x3bca2134	0.006168509
5	0xbc531c93	-0.012885231
6	0x3c61b478	0.013775937
7	0xbce665ee	-0.028124776
8	0x3cabfca3	0.02099449
9	0xbc811be9	-0.015760379
10	0x3cdcf01d	0.026969964
11	0x3cb71a9d	0.022351557
12	0xbcd5f3d7	-0.026117248
13	0xbbd1e787	-0.006405774
14	0xbd150b07	-0.03638747
15	0xbcec8624	-0.028872557
16	0xba1152f1	-0.000554367
17	0xbbd82172	-0.006595784
18	0x3b6afb35	0.0035855297
19	0x3c868bba	0.016424049
20	0x3d6f697b	0.058450203
21	0xbbcb858b	-0.006210988
22	0x3c4d198a	0.012518296
23	0x3c932635	0.017962554
24	0xbc33949f	-0.010960727
25	0xbcc3afae	-0.023887482
26	0xbcd9cbf9	-0.02658652
27	0x3d001a40	0.031275034
28	0x3c215edd	0.009849277
29	0x3c26ed51	0.010188417
30	0x3ccb6c6b	0.024831971
31	0xbd2f450b	-0.042790454

MLP.3.weight f4 [32, 32]
0	0xbd91c9d6	-0.07118575
1	0x3d0af9c6	0.03392961
2	0xbd94a874	-0.072586924
3	0x3b8a2af4	0.004216546
4	0xbc95b1ad	-0.018273199
5	0xbcf653b3	-0.030069208
6	0xbe0f8efa	-0.14019385
7	0x3d6e8d0d	0.058239985
8	0x3cf88ecf	0.030341534
9	0xbd42be3c	-0.047544703
10	0x3d844af4	0.06459609
11	0x3d1c211a	0.038117506
12	0xbd1a033c	-0.03760074
13	0x3d09ffac	0.033691093
14	0x3c33cdd5	0.010974367
15	0x3dc63f9c	0.09680101
16	0xbc53f80d	-0.012937558
17	0xba32f732	-0.0006826996
18	0x3cea4853	0.02859894
19	0x3cf281f2	0.029602978
20	0xbd66eb42	-0.056376703
21	0xbd89e168	-0.06732446
22	0xbbc1f486	-0.005919042
23	0x3c8b6c29	0.017019348
24	0xbd1ab065	-0.03776588
25	0x3b73bde1	0.0037192034
26	0x3caa2ab2	0.020772312
27	0xbd61b57d	-0.05510472
28	0x3db01a1b	0.08598729
29	0xbcc9256e	-0.02455398
30	0xbabeba4a	-0.0014551368
31	0xbd47aa4e	-0.0487464
32	0xbb51d119	-0.00320155
33	0x3d823091	0.063569196
34	0xbd33fdbb	-0.043943148
35	0x3b4edff8	0.0031566601
36	0xbc7021fd	-0.014656541
37	0xbd70000b	-0.05859379
38	0x3cd251e3	0.025673812
39	0x3cce1b72	0.025159571
40	0x3dbd6404	0.09247592
41	0xbc46f01e	-0.012142209
42	0x3d43d3e2	0.04780949
43	0xbd6d5844	-0.057945505
44	0xbad5c2cc	-0.0016308664
45	0xbcc5892f	-0.024113266
46	0xbdaaac79	-0.08333678
47	0x3cbc6351	0.022996577
48	0x3d0dfd25	0.034665246
49	0x3a025974	0.0004972436
50	0x3c0e8a3a	0.008699948
51	0xbd81b40f	-0.063331716
52	0xbd3584bb	-0.044316035
53	0x3e001749	0.12508883
54	0x3c157f58	0.009124599
55	0xbdaa887d	-0.08326814
56	0xbdd3b451	-0.10337127
57	0x3d7c9261	0.061663035
58	0xbc9e3544	-0.019312508
59	0xbd4d9e70	-0.050199926
60	0xbe040b71	-0.1289499
61	0xbc5ad408	-0.013356216
62	0xbb0ca546	-0.0021460815
63	0x3ca652ba	0.020303119
64	0x3dda655e	0.106638655
65	0xbc5510ea	-0.013004521
66	0xbc86be0e	-0.016448047
67	0x3d80c929	0.06288368
68	0x3dc3ed62	0.095667616
69	0x3cf0d626	0.029398989
70	0x3c8e33d0	0.01735869
71	0xbc894bd9	-0.0167598
72	0xbd77658f	-0.06039959
73	0xbd43ac97	-0.047772016
74	0xbd25dc65	-0.040493388
75	0x3d4827b1	0.048865978
76	0x3e15e208	0.14637005
77	0x3dc487f3	0.09596243
78	0xbde7a46f	-0.1131066
79	0xbdb36ccf	-0.08760988
80	0x3cd96bff	0.026540754
81	0x3bf2207a	0.0073891254
82	0x3c62eef9	0.013850921
83	0x3c1f898b	0.009737383
84	0xbca8e494	-0.020616807
85	0x3e022d3d	0.1271257
86	0x3d7ed190	0.062211573
87	0x3d7b72bb	0.061388712
88	0x3d9c8e98	0.07644385
89	0x3da83d7c	0.08214852
90	0x3d99a11d	0.07501433
91	0x3d84de71	0.0648774
92	0x3d9d01de	0.07666372
93	0x3dca5ce5	0.098809995
94	0xba51aa01	-0.000799805
95	0x3e26eea7	0.16301976
96	0x3d3c59f8	0.04598424
97	0x3d5b9d6e	0.053616934
98	0xbc9c7c3b	-0.019102206
99	0xbd29cc61	-0.041454677
100	0x3d80a7e8	0.062820256
101	0x3da9c1f4	0.08288947
102	0xbd265309	-0.040606532
103	0xbe25f7f5	-0.1620787
104	0x3db522f7	0.0884456
105	0xbbc9491d	-0.006142749
106	0x3e1e9e69	0.15490116
107	0x3cda755b	0.026667288
108	0xbdfe0396	-0.12403028
109	0xbcf1473e	-0.029452916
110	0x3df68f80	0.12039089
111	0x3d57b0b5	0.052658755
112	0x3d89340c	0.0669938
113	0xbb54ce51	-0.0032471607
114	0xbdc97284	-0.09836295
115	0xbd1c2426	-0.03812041
116	0x3d376f4b	0.04478387
117	0xbe10e252	-0.14148834
118	0xbd3140e1	-0.043274764
119	0x3b8bee7a	0.004270372
120	0xbe1b53b0	-0.15168643
121	0xbd991609	-0.07474906
122	0xbd0e6789	-0.034766708
123	0x3dd270b0	0.102754
124	0x3db2bb40	0.08727121
125	0xbd47ae00	-0.048749924
126	0x3c0018b1	0.007818387
127	0xbd89dcdd	-0.067315795
128	0x3d18e9ce	0.03733235
129	0x3d80fceb	0.0629824
130	0xbd49d11f	-0.0492717
131	0x3c6b49ec	0.014360886
132	0xbd85896b	-0.06520351
133	0xbd9aa266	-0.07550506
134	0xbdd13629	-0.10215408
135	0xbdb28572	-0.08716859
136	0x3c7af6f4	0.015317667
137	0xbd95b3e0	-0.07309699
138	0x39ea97d8	0.0004474509
139	0x3d4e46d8	0.05036053
140	0x3e0b5966	0.13608322
141	0x3dc3b402	0.09555818
142	0xbd9dfd33	-0.077143095
143	0xbd2dd870	-0.04244274
144	0xbb33fceb	-0.0027463983
145	0x3b87cc53	0.0041442304
146	0xbcb4ac67	-0.022054864
147	0xbdd6a58a	-0.10480793
148	0xbdbc5388	-0.0919562
149	0x3d0b27c8	0.033973485
150	0xbce22fe5	-0.027610729
151	0x3b1be48c	0.0023787348
152	0x3e0f13a6	0.13972339
153	0x3daa2b33	0.08309021
154	0x3d9449ae	0.07240616
155	0xbdcab1e5	-0.09897212
156	0xbd9d5831	-0.07682837
157	0x3d8cc306	0.06873135
158	0xbbc4501c	-0.005990995
159	0x3d4ca0d7	0.049958076
160	0xbda790c1	-0.081819065
161	0xbdb1909c	-0.0867016
162	0xbe0385bf	-0.12843989
163	0x3d6e84ed	0.058232237
164	0xbc9d4df3	-0.019202208
165	0x3d685692	0.056723185
166	0xbdf98d87	-0.12185197
167	0x3e09a546	0.13441953
168	0xbb3de472	-0.0028975275
169	0xbb6b5ba2	-0.0035912772
170	0xbdaf1d8d	-0.08550558
171	0x3d64b089	0.05583242
172	0x3dbb6944	0.09150937
173	0xbde17614	-0.1100885
174	0xbe0b15c6	-0.13582525
175	0xbd0174e6	-0.031605624
176	0xbc1e6c62	-0.009669395
177	0x3af73ed0	0.0018863324
178	0x3e120eb3	0.1426342
179	0xbd9a9fc9	-0.07550008
180	0x3c80718b	0.015679142
181	0xbdc4b128	-0.096041024
182	0xbc8e6345	-0.01738132
183	0x3cd8c19d	0.02645951
184	0xbcfdccc5	-0.03098143
185	0x3cd7cb72	0.026342127
186	0xbc90add8	-0.01766102
187	0x3cdb0760	0.026736915
188	0x3de73fc4	0.11291459
189	0xbcdd033c	-0.026979081
190	0xbc84183c	-0.016124837
191	0x3dcccab3	0.09999599
192	0x3d0b4525	0.03400149
193	0xbd3720d7	-0.044709053
194	0x3de08ee2	0.10964753
195	0xbc3bb4ea	-0.0114567075
196	0xbc165bba	-0.009177143
197	0xbd0a35e9	-0.03374282
198	0xbd1e27de	-0.03861224
199	0xb8e8882c	-0.00011087986
200	0xbd94c398	-0.07263869
201	0x3c03e0fb	0.008049245
202	0x3b259813	0.0025267645
203	0xbd7a98eb	-0.06118099
204	0x3b3087ec	0.0026936485
205	0x3dc1e54f	0.09467565
206	0xbaefcf3b	-0.0018296012
207	0x3d90cc34	0.07070199
208	0xbcd8eb33	-0.02647934
209	0xbbacdfbd	-0.005275695
210	0x3d5a6a06	0.053323768
211	0x3d5fe4d7	0.054661598
212	0x3d399703	0.04531003
213	0x3d049b0e	0.032374434
214	0x3c3e8946	0.011629408
215	0xbc25cd89	-0.010119804
216	0xbd5a2dc7	-0.053266313
217	0x3c5a777b	0.01333415
218	0xbd20cb40	-0.039256334
219	0xbca3ece7	-0.020010425
220	0x3b8d1583	0.004305543
221	0xbd9ecc26	-0.07753782
222	0x3b2e8c93	0.0026634082
223	0xbce7ba58	-0.028287098
224	0xbcaed9d2	-0.0213441
225	0xbcb7935b	-0.022409132
226	0xbd8553ec	-0.065101475
227	0x3b1bc81d	0.00237704
228	0x3dae9770	0.08524978
229	0x3d662247	0.056185033
230	0x3c0b8d9d	0.00851765
231	0xbb29eb42	-0.0025927578
232	0xbcc6cb0f	-0.024266748
233	0x3cadff8e	0.021240022
234	0x3d5b1811	0.05348975
235	0xbd6d6c54	-0.057964638
236	0xbd8c8e76	-0.0686311
237	0x3d985251	0.074375756
238	0x3d73212b	0.059357803
239	0xbd80951c	-0.0627844
240	0x3b6ccf2a	0.0036134222
241	0x3a3d765c	0.0007227415
242	0xbce16581	-0.027514221
243	0x3b48ee66	0.0030659675
244	0xbc9685ba	-0.018374313
245	0x3c768091	0.015045301
246	0x3dcb48eb	0.099260174
247	0x3d07e31a	0.033175565
248	0x3d9a135b	0.07523223
249	0xbcfe80f1	-0.031067343
250	0x3c4d91f0	0.012547001
251	0x3d85e86e	0.06538473
252	0xbd4ec5ea	-0.050481714
253	0x3c87a55e	0.016558345
254	0xb9c09b01	-0.0003673658
255	0x3bd9da95	0.0066483715

MLP.3.bias f4 [32]
0	0xbdb7fefc	-0.08984181
1	0x3cc23cf5	0.023710707
2	0x3e3417d8	0.1758722
3	0xbd9dd3ea	-0.07706435
4	0x3d91b0fb	0.071138345
5	0x3d14031f	0.03613579
6	0xbdb43b89	-0.08800418
7	0xbd11545f	-0.035480853
8	0x3d104b7d	0.03522824
9	0x3de81d73	0.11333742
10	0x3ce478ab	0.02788957
11	0xbe07e63b	-0.1327142
12	0x3e099760	0.13436651
13	0xbc36adf0	-0.011149868
14	0xbd1ca98f	-0.03824764
15	0xbe1353ff	-0.1438751
16	0xbdecf017	-0.11569231
17	0x3cdf12e1	0.027230682
18	0x3dd87260	0.1056869
19	0xbc80de1e	-0.015730914
20	0x3dc12728	0.094312966
21	0x829720be	-2.220625e-37
22	0x3dc69635	0.096966185
23	0xbdc5b8d7	-0.09654396
24	0xbd304caa	-0.043041863
25	0x3bb357f3	0.005473131
26	0x3e000b43	0.12504296
27	0x3a9183ee	0.001110194
28	0x3d76d890	0.060265124
29	0x3d632628	0.05545631
30	0x3d41a34c	0.047274873
31	0x3d8b7189	0.068087645

MLP.5.weight f4 [32, 32]
0	0x3cbb3040	0.022850156
1	0x3be8c3a9	0.0071034026
2	0xbd5c0a5e	-0.053720824
3	0xbcd172fd	-0.025567526
4	0x3ca83ac1	0.020535829
5	0xbd860820	-0.065445185
6	0x3d71af49	0.059005056
7	0xbbaf4ae5	-0.0053495043
8	0xbd0417a6	-0.032249115
9	0xbda94d2b	-0.08266672
10	0x3c0da477	0.0086451685
11	0x3c9e243d	0.01930439
12	0xbd419a24	-0.04726614
13	0xbaca091e	-0.0015414094
14	0x3dfb42be	0.122685894
15	0xbc363f5d	-0.011123505
16	0x3dd31860	0.103073835
17	0xbd68893c	-0.056771502
18	0x3d10bfdc	0.03533922
19	0xbd0ca3e9	-0.034336004
20	0xbc47591c	-0.012167241
21	0x0285e2fb	1.9672874e-37
22	0x3d9abb6e	0.075552806
23	0x3d4dc986	0.050241016
24	0xbda9723e	-0.08273743
25	0x3d3cbd1e	0.046078794
26	0x3df58d0a	0.11989792
27	0xbd04d905	-0.03243353
28	0xbd99fefe	-0.07519339
29	0x3e2eb0d4	0.17059642
30	0x3d7d28ef	0.061806615
31	0x3be0aa44	0.0068562347
32	0xbd700a80	-0.058603764
33	0xbd511cef	-0.051052984
34	0xbdc8c60c	-0.098033994
35	0xbca07ced	-0.01959082
36	0x3d4b095a	0.049569465
37	0xbddf6c4f	-0.1090933
38	0xbc7900c9	-0.015197941
39	0x3cebc12c	0.028778635
40	0xbdf36a0d	-0.11885462
41	0x3d18ed46	0.037335657
42	0xbb13f369	-0.0022575504
43	0x3ce5ac4d	0.028036261
44	0x3d588f98	0.052871317
45	0x3d819ce4	0.06328753
46	0x3cc16547	0.023607863
47	0xbd20a7dc	-0.039222583
48	0x3df5c7b0	0.12000978
49	0x3dc15f7a	0.09442039
50	0xbd7e2a6c	-0.062052175
51	0x3d903c78	0.070427835
52	0xbdde8cee	-0.10866724
53	0x82a060d4	-2.3565464e-37
54	0xbe3a5d26	-0.18199596
55	0x3c54fd5f	0.0129998615
56	0x3c569d0a	0.0130989645
57	0x3d25b22a	0.040453114
58	0xbdfebe9e	-0.12438701
59	0xbbe2e6d4	-0.0069244895
60	0x3dd77d72	0.10521974
61	0xbdcfb00c	-0.10141
62	0xbd5795f5	-0.052633245
63	0x3d4bab81	0.049724106
64	0xbbf12ddc	-0.007360203
65	0xbd90e934	-0.0707573
66	0xbdebc9e8	-0.1151312
67	0xbe19a8d4	-0.15005809
68	0x3d2e56d7	0.042563286
69	0xbd6d1ae8	-0.057886988
70	0xbcad8f2c	-0.021186434
71	0xbb8f4e36	-0.004373337
72	0x3d95859d	0.07300875
73	0xbdbf44b2	-0.093392745
74	0xb9b90aec	-0.00035294087
75	0xbdf3bd4a	-0.119013384
76	0xbde257ec	-0.11051926
77	0xbba1eb95	-0.0049414136
78	0x3cf5629b	0.029954245
79	0xbd30c6a1	-0.043158177
80	0x3d931314	0.07181373
81	0xbd3d1656	-0.04616388
82	0xbde0da87	-0.10979181
83	0xbdc2d560	-0.09513354
84	0xbd9517a4	-0.072799
85	0x828b0c34	-2.0431219e-37
86	0x3cfedbe2	0.031110708
87	0xbc8d0e18	-0.017218634
88	0xbd6e6fe0	-0.05821216
89	0xbd98fdb4	-0.07470265
90	0x3cdbd239	0.02683364
91	0xbcf33fe7	-0.029693557
92	0x3d1a59da	0.037683345
93	0x3d5ad549	0.05342606
94	0x3cc40f76	0.023933154
95	0xbd82bae5	-0.063833036
96	0xbc2cb400	-0.010540962
97	0x3beec69e	0.0072868606
98	0x3dbf59e4	0.09343317
99	0xbde35b25	-0.11101369
100	0xbcc189f9	-0.02362536
101	0x3beb48f4	0.0071803275
102	0x3d1191dc	0.035539493
103	0x3b893cc5	0.0041881525
104	0x3dd58b7b	0.104269944
105	0x3dbee8a4	0.093217164
106	0xbd408a15	-0.047006685
107	0xbbd75664	-0.006571578
108	0x3dc20979	0.09474463
109	0xbd4b1eb2	-0.04958982
110	0xbdc477e5	-0.095931806
111	0xbd6d9e82	-0.058012493
112	0x3ceafc4b	0.028684756
113	0x3de179c2	0.110095516
114	0xba141f59	-0.0005650423
115	0xbd1bdda3	-0.038053166
116	0xbd22c1ee	-0.039735727
117	0x028ebd33	2.097362e-37
118	0xbdf71130	-0.12063825
119	0xba87fb42	-0.0010374563
120	0xbe0ef5dd	-0.13960977
121	0xbd9fd9c4	-0.07805207
122	0x3e122d84	0.14275175
123	0x3d1ac704	0.037787452
124	0xbd825cf3	-0.06365385
125	0x3d80765c	0.06272575
126	0x3d8008f9	0.062517114
127	0x3b220ae1	0.0024725723
128	0xbd8ca271	-0.06866921
129	0x3d395563	0.045247447
130	0xbdb3bf4b	-0.087767206
131	0xbd037763	-0.032096278
132	0xbd8d8598	-0.069102466
133	0x3b980763	0.0046395524
134	0x3c8b56f7	0.017009242
135	0x3b131974	0.0022445591
136	0xbdd9327b	-0.106053315
137	0x3c727c6e	0.014800174
138	0xbe067f84	-0.13134581
139	0x3d83b5bf	0.0643115
140	0x3dc7cd6f	0.0975598
141	0x3b936eba	0.0044992836
142	0x3d706c8d	0.058697272
143	0x3e05eec4	0.13079363
144	0x3dba8544	0.0910745
145	0x3db387b3	0.08766117
146	0xbd32f72b	-0.04369275
147	0xbc7185aa	-0.014741341
148	0x3d2b935c	0.04188858
149	0x828cf1cc	-2.0709936e-37
150	0x3d9709f4	0.07374945
151	0xbd92a993	-0.0716125
152	0x3cadd22b	0.02121838
153	0x3dc75445	0.0973287
154	0xbdf3f564	-0.11912039
155	0xbcefde89	-0.029280918
156	0xbd26ce5b	-0.04072414
157	0xbe183498	-0.14863813
158	0xbdba5413	-0.09098067
159	0xbe089d54	-0.13341266
160	0x3b3222ea	0.0027181455
161	0xbd3951f0	-0.045244157
162	0xbd74151f	-0.059590455
163	0x3b47293a	0.0030389563
164	0xbc74c54d	-0.014939618
165	0x3ccfef85	0.025382767
166	0x3c25d2c8	0.010121055
167	0x391a572a	0.00014719056
168	0xbd0e7502	-0.034779556
169	0xbdae0f52	-0.08499016
170	0x3d530781	0.05152083
171	0x3b84e160	0.004055187
172	0x3ba41cb5	0.005008305
173	0x3c3be075	0.011467089
174	0xbdff1815	-0.12455765
175	0xbcabbf1a	-0.020965148
176	0x3d5d890a	0.05408577
177	0xbd5dd49c	-0.05415784
178	0x3c825c89	0.015913265
179	0x3bab2b4b	0.005223667
180	0xbe051491	-0.12996127
181	0x82804d66	-1.8852334e-37
182	0x3de1cc63	0.11025312
183	0x3d289c1d	0.041164506
184	0x3cb5a728	0.022174433
185	0xbd4052d9	-0.04695401
186	0xbd90199b	-0.07036134
187	0xbe0bad68	-0.13640368
188	0xbd8e2f0e	-0.06942569
189	0x3d566f56	0.052352272
190	0x3cf6d5d2	0.030131254
191	0x3d10ed84	0.035382763
192	0x3dce93a1	0.10086752
193	0xbd2c0804	-0.04199983
194	0x3dfcfe73	0.1235322
195	0x3d409351	0.047015492
196	0xbdb95be0	-0.09050727
197	0x3d9212ec	0.07132515
198	0xbcf4a9c4	-0.029866107
199	0xbba43b1e	-0.00501193
200	0xbdb6d4f7	-0.089273386
201	0x3cd20097	0.025635047
202	0xbd257923	-0.040398728
203	0xbe0584a4	-0.1303888
204	0xbde425e0	-0.111400366
205	0xbd239fa1	-0.039947156
206	0xbdd23772	-0.102644816
207	0x3d273cce	0.040829472
208	0xbbb43134	-0.0054990295
209	0x3e30a3b5	0.1724995
210	0x3daf4784	0.085585624
211	0xbd2c06ad	-0.041998554
212	0xbc8f6376	-0.017503481
213	0x029a3b47	2.266229e-37
214	0x3e26e73c	0.16299146
215	0x3d13ab82	0.036052234
216	0xbc4a88f9	-0.012361758
217	0x3e3f9108	0.18707669
218	0x3d1a81a1	0.03772128
219	0xbd965e6c	-0.07342228
220	0x3ddc3d85	0.107539214
221	0xbda42fc5	-0.08016924
222	0x3ddf50e8	0.109041035
223	0xbc52600e	-0.012840284
224	0x3d9e6596	0.0773422
225	0xbda389bd	-0.07985256
226	0xbdeeba46	-0.116566226
227	0xbd8f1dbc	-0.06988093
228	0xbdcafa0e	-0.099109754
229	0x3d17d177	0.037064996
230	0x3cf8cccb	0.03037109
231	0xbce03025	-0.027366707
232	0xbd9a4cc5	-0.07534174
233	0x3cc7f73d	0.024409885
234	0xbe0029e3	-0.12515979
235	0xbe184126	-0.14868602
236	0xbdca8249	-0.09888131
237	0x3d828c86	0.06374459
238	0x3c8eecbd	0.01744687
239	0x3d80bf42	0.062864795
240	0x3d367ee9	0.044554625
241	0x3d6ea529	0.058262978
242	0xbcaf557f	-0.021403072
243	0x3dc3a35e	0.09552644
244	0x3c75149e	0.014958529
245	0x0291a6e8	2.1401635e-37
246	0x3d2b449c	0.041813478
247	0x3c847c79	0.016172634
248	0xbced956f	-0.02900192
249	0x3bb702f7	0.0055850702
250	0x3d57f185	0.052720565
251	0x3da7cb59	0.08193082
252	0xbdf6a8a0	-0.120438814
253	0xbd86771d	-0.06565688
254	0xbd4ce076	-0.05001875
255	0x3cd3d88d	0.025860095

MLP.5.bias f4 [32]
0	0xbdc84cb8	-0.09780258
1	0x3daaea48	0.08345467
2	0x3dd4ecec	0.10396752
3	0xbdbdd69d	-0.0926945
4	0x3da5e908	0.08101088
5	0x3e0337b6	0.12814221
6	0xbd8de55f	-0.06928515
7	0xbbf048e1	-0.0073329066
8	0x3db86e71	0.0900544
9	0x3d2c909f	0.04213011
10	0xbc779f97	-0.015113733
11	0x3d4d2626	0.05008521
12	0x3de7fa24	0.113270074
13	0xbd11c7bd	-0.035590876
14	0xbe0c64b2	-0.13710287
15	0xbde56e6b	-0.11202701
16	0x3da63434	0.08115426
17	0xbddb1087	-0.10696512
18	0x3dcbfd10	0.09960377
19	0xbe0290cd	-0.1275055
20	0xbe0663cf	-0.13124011
21	0xbe0b1415	-0.1358188
22	0xbc8ce3fc	-0.017198555
23	0x3ab9c33c	0.0014172564
24	0x3d3b2b93	0.045695852
25	0xbdeace44	-0.11465123
26	0x3ddaa4d7	0.10675972
27	0x3dca4bdf	0.098777525
28	0x3cf82b4b	0.030294081
29	0xbc3c281d	-0.011484173
30	0x3bc6c290	0.006065674
31	0x3d795dbf	0.06088042

MLP.6.weight f4 [32]
0	0x3f1ad5c2	0.6048242
1	0x3eecf93e	0.46283907
2	0x3f29c9f1	0.66323763
3	0x3f2df122	0.67946064
4	0x3efb3d00	0.49069977
5	0x3ee4b258	0.44667315
6	0x3f35a3b6	0.7095293
7	0x3f2d0e02	0.675995
8	0x3f02ecce	0.51142585
9	0x3f10bbd3	0.56536597
10	0x3f1424f9	0.57868916
11	0x3eb87968	0.36030126
12	0x3f063422	0.524233
13	0x3f1f9dfd	0.62350446
14	0x3ede39e4	0.43403542
15	0x3eb2327e	0.34804147
16	0x3f2bb52a	0.6707331
17	0x3f340865	0.7032531
18	0x3ef3c873	0.47613868
19	0x3ee5a921	0.44855598
20	0x3f1ea9ec	0.6197803
21	0x3f188a05	0.595856
22	0x3f2299d0	0.6351595
23	0x3ee578e1	0.44818786
24	0x3f28cb98	0.6593566
25	0x3f26c164	0.6513884
26	0x3f050bbf	0.5197105
27	0x3f2627e8	0.6490464
28	0x3ed04ef8	0.40685248
29	0x3ee73ea3	0.45164976
30	0x3eb94fb4	0.3619362
31	0x3ec8f65e	0.39250463

MLP.6.bias f4 [32]
0	0xbc934517	-0.01797728
1	0xbbf537e5	-0.00748347
2	0xbb5dd458	-0.003384849
3	0x3c522d49	0.01282818
4	0xba9f2fa3	-0.0012144934
5	0x3c417a9a	0.011809016
6	0x3b63f1f5	0.0034781669
7	0xbcd45732	-0.025920484
8	0x3a5d5394	0.0008442935
9	0x3c80d393	0.015725886
10	0x3cf6b546	0.030115735
11	0xbcc08d4a	-0.023504872
12	0xbc38d1f8	-0.011280529
13	0x3c1ef882	0.009702804
14	0xbb5fe7d5	-0.0034165282
15	0x3c122335	0.008919527
16	0xbc0e2aa0	-0.008677155
17	0x3c60b9f8	0.013716213
18	0x3bc076e8	0.0058735497
19	0xb9fac71f	-0.00047832073
20	0xbbd5cb38	-0.0065244697
21	0x3c9aae53	0.018881952
22	0xbc799de2	-0.015235396
23	0xbc4003ae	-0.011719627
24	0x3c28111f	0.010257988
25	0xbceb785e	-0.028743919
26	0x3bbba6e9	0.0057266844
27	0x3c14a110	0.009071603
28	0xbc96b9b8	-0.018399104
29	0x3ba30d2f	0.004975937
30	0x3c4b657a	0.012414331
31	0xba8f59f0	-0.0010936838

MLP.8.weight f4 [32, 32]
0	0xbd97c924	-0.074114114
1	0xbdb69a05	-0.08916096
2	0x3dd3e456	0.10346286
3	0x3c29507c	0.01033413
4	0x3d51ec4f	0.051250752
5	0xbcd8b53e	-0.02645361
6	0xbdc00b3e	-0.09377144
7	0xbd1201c5	-0.03564622
8	0xbcbedb73	-0.023298
9	0xbd5c5954	-0.053796127
10	0x3d4a6b6a	0.049418844
11	0xbdb24516	-0.08704583
12	0x3d51dc2a	0.051235355
13	0x3d306823	0.043068063
14	0xbdda93b2	-0.10672702
15	0xbcef3bac	-0.029203258
16	0xbd9ca122	-0.07647921
17	0x3d21c71f	0.039496537
18	0xbc24b148	-0.010052033
19	0x3dea78b3	0.11448803
20	0xbd9eb451	-0.077492364
21	0x3d9b4e16	0.07583253
22	0xbd784e8b	-0.06062178
23	0xbcea07b3	-0.028568124
24	0x3c41c45e	0.011826603
25	0xbc1e3f26	-0.00965861
26	0xbddaefe6	-0.10690288
27	0xbd27a6c1	-0.040930513
28	0xbd9e261f	-0.07722115
29	0xbc1e2fa5	-0.009654914
30	0xbd94cbf5	-0.07265464
31	0xbbd94e93	-0.006631681
32	0x3e0451fd	0.12921901
33	0x3dba1359	0.090857215
34	0x3dc62d93	0.09676661
35	0x3dab8676	0.08375256
36	0xbdae138b	-0.08499821
37	0x3d2f4286	0.04278805
38	0xbc5b36c5	-0.013379757
39	0xbd539fb6	-0.051665984
40	0xbd05dcd8	-0.032681316
41	0xbdde7ee1	-0.10864044
42	0xbd60b30e	-0.05485826
43	0xbd6edef5	-0.058318097
44	0x3a0eaea4	0.00054428936
45	0x3d4b0dc9	0.049573693
46	0x3df4b1ee	0.11948
47	0x3d926c2a	0.07149537
48	0x3b85e7f6	0.00408649
49	0xbdc0fba7	-0.09422999
50	0x3d2a94eb	0.041645925
51	0xbdc772f7	-0.09738725
52	0xbd1a6305	-0.03769209
53	0xbc0f8e78	-0.008761995
54	0x3c1dfa80	0.009642243
55	0xbd077fe9	-0.03308097
56	0x3db1d854	0.086838394
57	0x3d3e3027	0.04643264
58	0xbe04293c	-0.12906355
59	0x3d4e3e5f	0.05035245
60	0xbc821da6	-0.015883278
61	0x3d8aabea	0.06771071
62	0xbc13ed98	-0.009028815
63	0x3c6c9f53	0.014442283
64	0x3e0fb136	0.14032444
65	0xbc25b23f	-0.010113298
66	0x3e11efec	0.14251679
67	0xbc0c25b5	-0.008553912
68	0xbc08e105	-0.00835443
69	0x3de6771f	0.11253189
70	0xbd944831	-0.07240332
71	0xbcb4f45b	-0.022089174
72	0x3ce7b571	0.02828476
73	0x3d281a0b	0.04104046
74	0xbd41cef1	-0.047316495
75	0x3ce4144a	0.027841706
76	0x3dc6ad31	0.097010024
77	0x3d689750	0.056784928
78	0x3be5bc90	0.007011004
79	0x3d6031ad	0.054734875
80	0xbdce6009	-0.10076911
81	0x3d9ab3a7	0.07553797
82	0xbd8db8e8	-0.06920034
83	0xbd9c6a47	-0.07637458
84	0x3d27b992	0.040948458
85	0xbb794500	-0.0038035512
86	0x3dcf9270	0.101353526
87	0xbdc3e418	-0.0956499
88	0xbbe09f6b	-0.0068549416
89	0xbc8242b9	-0.015900956
90	0xbd933336	-0.07187502
91	0x3d73b0bc	0.05949472
92	0x3dce3e3f	0.10070466
93	0xbca38639	-0.019961463
94	0xbcbcb447	-0.023035182
95	0xbd9cc69e	-0.07655071
96	0xbe0bd4e7	-0.13655435
97	0xbd8b004c	-0.06787166
98	0x3dd82b04	0.105550796
99	0xbde5c23a	-0.112186864
100	0x3dec84bc	0.115487546
101	0x3d9468e9	0.072465725
102	0xbdcbabf0	-0.09944904
103	0xbe2748af	-0.1633632
104	0xbdc9b5ee	-0.098491535
105	0xbd69d49b	-0.057087522
106	0x3cec814b	0.028870245
107	0xbe00a76c	-0.12563866
108	0x3d862345	0.06549696
109	0x3d0f5b95	0.03499945
110	0xbdd45eaa	-0.10369618
111	0xbb8db638	-0.0043247007
112	0xbc7390a5	-0.014866029
113	0x3d2ceb36	0.042216502
114	0x3d5e780e	0.05431371
115	0x3d5faccc	0.05460815
116	0xbe100d52	-0.14067581
117	0x3d807bdd	0.06273625
118	0xbde4ca60	-0.111714125
119	0xbdc19c39	-0.09453625
120	0xbd86d38b	-0.06583317
121	0xbe12f894	-0.14352638
122	0x3dee457a	0.11634345
123	0xbd863faa	-0.06555112
124	0xbdef34a9	-0.11679966
125	0x3b4e44b7	0.0031474063
126	0x3d965e9b	0.07342263
127	0x3d3636e8	0.044485956
128	0x3ccd234b	0.025041243
129	0xbcc22ca8	-0.023702934
130	0x3aa67775	0.0012700396
131	0xbd1a3287	-0.037645843
132	0xbd05c496	-0.032658182
133	0xbd6019e4	-0.05471219
134	0xbd3689a3	-0.044564854
135	0x3d0daf67	0.034591105
136	0xbb7ebba4	-0.0038869167
137	0x3cc2b472	0.023767684
138	0xbca130ad	-0.01967653
139	0x3cf4bbc4	0.02987469
140	0x3d417d5a	0.047238685
141	0x3cec7930	0.02886638
142	0x3c79f02e	0.015255017
143	0x3c483757	0.012220225
144	0xbd89ad99	-0.06722564
145	0x3d3dd8b0	0.046349227
146	0x3ca7e642	0.020495538
147	0xbd25ae96	-0.0404497
148	0x3cbb4296	0.0228589
149	0xbcba1243	-0.022713786
150	0xb8b7992a	-8.754649e-05
151	0xbc66e922	-0.014093669
152	0x3b876861	0.004132316
153	0xbb82ad5e	-0.003987952
154	0x3c08e414	0.008355159
155	0x3d1d4b4b	0.038401883
156	0xbd0fc806	-0.035102867
157	0x3cbacb04	0.022801884
158	0xbc20b18f	-0.009807958
159	0xbcc9cce4	-0.024633832
160	0x3d260740	0.040534258
161	0xbe0d1540	-0.13777637
162	0xbdc8c6b9	-0.09803528
163	0x3d97100e	0.07376109
164	0xbd82a7aa	-0.06379636
165	0x3dbd62e1	0.09247375
166	0x3e03b7b2	0.12863043
167	0xbd6d19f7	-0.05788609
168	0x3dec95bf	0.11551999
169	0xbd16255f	-0.036656734
170	0x3dade70c	0.08491334
171	0xbc8bf56d	-0.017084802
172	0xbd4a244a	-0.049351014
173	0xbc61ef68	-0.013789989
174	0x3d2f4f41	0.04280019
175	0xbd7fcb47	-0.06244972
176	0xbdad6058	-0.08465642
177	0xbd37cdae	-0.044873886
178	0xbce5f7d0	-0.028072268
179	0xbdd135bb	-0.102153264
180	0x3d156664	0.0364746
181	0x3da7df98	0.08196944
182	0xbe14d199	-0.1453308
183	0x3dad5236	0.08462946
184	0xbcc19b46	-0.02363361
185	0x3d008119	0.031373117
186	0xbdc29177	-0.095004015
187	0x3dc21e00	0.09478378
188	0xbc4aaca5	-0.012370263
189	0x3c43a4cb	0.011941145
190	0x3c2ce549	0.010552713
191	0xbc8a062b	-0.016848644
192	0xbcaaded9	-0.020858215
193	0x3e246fd7	0.16058289
194	0xbd9b1b9d	-0.07573626
195	0x3c91d817	0.017803235
196	0xbc150a55	-0.009096702
197	0x3c9aec32	0.018911455
198	0xbe2759b8	-0.16342819
199	0x3d479116	0.04872235
200	0xbdd2d9b3	-0.10295429
201	0x3df205cc	0.11817512
202	0x3d89d67b	0.06730362
203	0xbc5c32e2	-0.013439866
204	0xbdf77741	-0.12083293
205	0x3d1203fd	0.035648335
206	0x3d7dbfa7	0.061950352
207	0xbd45c16b	-0.04828016
208	0x3db7bad4	0.089711815
209	0x3d01c008	0.031677276
210	0x3db71fae	0.08941589
211	0x3c092d83	0.008372667
212	0x3cf4763f	0.02984154
213	0xbe0ea8e0	-0.13931608
214	0xbe19f2e5	-0.15034063
215	0x3d115ea7	0.035490658
216	0xbd1c5c9f	-0.038174268
217	0x3c89e668	0.0168335
218	0xbc2d3213	-0.010571021
219	0xbe129b21	-0.1431699
220	0x3b0868dc	0.0020814454
221	0x3c911836	0.01771174
222	0xbd2f07b1	-0.042731944
223	0xbcf7ff25	-0.03027303
224	0x3d1daae1	0.03849304
225	0x3ccd5449	0.025064604
226	0xbaf49dd1	-0.0018662756
227	0xbdd7ee4f	-0.10543501
228	0x3d394017	0.045227136
229	0x3dbab51c	0.09116575
230	0xbd993b75	-0.07482044
231	0xbd1ab60f	-0.03777128
232	0xbcd36a38	-0.025807485
233	0x3d84cff4	0.064849764
234	0xbc08b2cd	-0.008343411
235	0x3db5f1b4	0.08883992
236	0xbcfd7c3c	-0.030943029
237	0xbd31f18e	-0.043443255
238	0xbd1324f3	-0.03592391
239	0x3d20a056	0.03921541
240	0xbdfad382	-0.12247373
241	0xba662da1	-0.0008780603
242	0xbba2f281	-0.0049727564
243	0x3c190029	0.009338417
244	0x398cf26e	0.00026883505
245	0x3da2ff51	0.07958854
246	0x3df98c9b	0.121850215
247	0x3d11f864	0.035637274
248	0x3bd1eafe	0.006406187
249	0x3deb520f	0.11490261
250	0xbcc0e716	-0.02354769
251	0xbc00b2cc	-0.0078551285
252	0x3ca7dd65	0.020491311
253	0xbc7f4f0e	-0.015582813
254	0xbd69b6f8	-0.05705926
255	0xbca35be7	-0.019941283

MLP.8.bias f4 [32]
0	0x3ca85c38	0.020551786
1	0x3def079f	0.116713755
2	0x3d5453d0	0.051837742
3	0xbde740d5	-0.112916626
4	0x3d17e584	0.037084118
5	0x39827012	0.0002487903
6	0xbd265679	-0.04060981
7	0xbd863ee3	-0.065549634
8	0xbe0a5b6a	-0.13511434
9	0x3be2648a	0.006908958
10	0xbc43b7be	-0.011945663
11	0x3e15d311	0.14631297
12	0x3be91970	0.007113628
13	0xba977efd	-0.0011558231
14	0x3d2b883f	0.04187798
15	0xbc6fa2f6	-0.014626255
16	0x3da8ad49	0.082361765
17	0xbe042027	-0.1290289
18	0x3e09a54e	0.13441965
19	0x3db05142	0.08609249
20	0x3d414a84	0.047190204
21	0xbdd46b29	-0.10372002
22	0xbc45aec2	-0.012065591
23	0x3ccf1117	0.025276704
24	0x3c01184d	0.007879329
25	0x3e00d36a	0.12580648
26	0xbc89fb51	-0.01684347
27	0xbc1d4f93	-0.0096014915
28	0x3d625770	0.05525917
29	0x3bd76ba9	0.0065741134
30	0xbcfdc0cc	-0.030975722
31	0x3e1971db	0.14984839

MLP.10.weight f4 [32, 32]
0	0xbd7aa50b	-0.061192553
1	0xbd72ad11	-0.05924708
2	0xbdb2136e	-0.08695112
3	0xbd58765c	-0.05284725
4	0xbbf6b715	-0.0075291493
5	0x3d605e16	0.054777227
6	0xbd456eda	-0.04820142
7	0x3c78cfb7	0.015186242
8	0x3d02e69c	0.031958207
9	0xbd1250bf	-0.035721537
10	0xbdd31a94	-0.10307804
11	0xbd74a46c	-0.059727117
12	0x3bd09b4a	0.006366168
13	0x3d92f312	0.07175268
14	0xbc6e29af	-0.014536305
15	0x3be0191a	0.00683893
16	0x3c756d2c	0.014979642
17	0x3d98cb28	0.07460624
18	0xbc9e6001	-0.019332888
19	0x3d383bc9	0.04497889
20	0x3cac55ce	0.021037009
21	0x3e020bcf	0.12699817
22	0xbcfcf792	-0.03087977
23	0xbcb2e26e	-0.021836486
24	0x3ceb6c19	0.028738068
25	0xbd40c98b	-0.047067206
26	0xbc20a410	-0.009804741
27	0xba534c8c	-0.00080604176
28	0xbd8f6e11	-0.070034154
29	0x3dded151	0.10879768
30	0xbbb6065d	-0.005554958
31	0x3c52dc5d	0.0128699215
32	0x3d818cb7	0.06325667
33	0x3a210e1e	0.0006143766
34	0x3b3f2bce	0.0029170397
35	0x3c91f4a9	0.017816858
36	0x3cbcca71	0.02304575
37	0xba55e278	-0.00081590516
38	0x3ad11f87	0.001595483
39	0xbc8c6762	-0.01713914
40	0x3c3e11ca	0.011600921
41	0x3c7dd5ca	0.015492866
42	0x3d223ecb	0.039610665
43	0xbdd43ea8	-0.10363513
44	0x3cdf4484	0.02725435
45	0xbd32a23c	-0.04361175
46	0x3c808970	0.015690535
47	0xbaf7e0b7	-0.0018911575
48	0x3d093f4b	0.033507627
49	0x3cc727ae	0.024310913
50	0x3de0f784	0.1098471
51	0xbe01267c	-0.12612337
52	0x3ca3db55	0.020002047
53	0xbdbbac4e	-0.09163724
54	0x3b0a82b5	0.0021135036
55	0x3d7f6590	0.062352717
56	0xbdb377b3	-0.08763065
57	0x3dc5af72	0.09652604
58	0xbbe13b47	-0.0068735215
59	0x3c176a36	0.009241631
60	0x3d8d5569	0.06901056
61	0xbdd8c12c	-0.105837196
62	0xbc90ae90	-0.017661363
63	0x3dce2a93	0.10066714
64	0xbd09c660	-0.03363645
65	0xbce6599c	-0.028118901
66	0xbdb907aa	-0.09034665
67	0xbbe57f64	-0.0070037115
68	0x3cdc2d13	0.026876962
69	0x3d5f3c22	0.054500706
70	0x3e16d28e	0.14728758
71	0x3cf855a3	0.030314272
72	0xbbe4f718	-0.0069874637
73	0x3d59ffef	0.053222593
74	0x3c7451f7	0.01491212
75	0x3df27057	0.118378334
76	0x3e0fd473	0.14045887
77	0x3cf445fd	0.02981853
78	0x3c191ceb	0.0093452735
79	0x3c328209	0.010895261
80	0xbbf0d27e	-0.0073493114
81	0x3db7d396	0.08975904
82	0xbd4fe5f7	-0.05075642
83	0x3dcbe412	0.0995561
84	0xbd7bea96	-0.061503015
85	0x3d5c9e79	0.05386207
86	0xbd2e4edf	-0.042555686
87	0xbd584df4	-0.052808717
88	0xbdf87d5a	-0.12133284
89	0xbe2139bc	-0.1574468
90	0xbc26ed2e	-0.010188384
91	0x3b59f0e2	0.003325515
92	0x3d87afef	0.066253535
93	0x3d7e9cbb	0.06216119
94	0xbd07f0d7	-0.033188667
95	0xbe26b020	-0.16278124
96	0x3c86afc4	0.016441233
97	0x3e201141	0.15631582
98	0xbdd6d13b	-0.10489126
99	0xbddd7a79	-0.108143754
100	0xbca1dd65	-0.01975889
101	0x3e18e909	0.14932646
102	0x3cca7ea4	0.02471859
103	0xbd54939a	-0.051898576
104	0xbde6ca4b	-0.11269053
105	0xbd4d8e1c	-0.050184354
106	0xbdd39756	-0.103315994
107	0x3dd5bffa	0.10437007
108	0x3e030609	0.12795271
109	0x3e17cc49	0.14824022
110	0x3d841331	0.06448973
111	0x3c0927ae	0.008371277
112	0x3da62304	0.081121475
113	0x3db03c0c	0.08605203
114	0x3da59688	0.08085352
115	0xbe14651d	-0.14491697
116	0xbc35ff07	-0.011108167
117	0x3bfa5deb	0.0076405904
118	0x39c4d0d9	0.00037539637
119	0xbdf9406c	-0.121704906
120	0x3cd6448f	0.026155738
121	0x3dff9991	0.12480462
122	0xbd1f0b9a	-0.038829423
123	0x3a61f31e	0.0008619296
124	0xbcc7323d	-0.024315948
125	0xbd237ac0	-0.039911985
126	0x3cdfa2b3	0.02729926
127	0x3d916218	0.07098788
128	0x3d9f3e67	0.07775574
129	0xbd9e36a4	-0.077252656
130	0x3e02ee81	0.12786295
131	0x3d911870	0.07084739
132	0x3adceff3	0.0016856178
133	0xbd0b1a01	-0.033960346
134	0x3ddbeb6f	0.10738265
135	0xbd8562ee	-0.0651301
136	0x3d193b19	0.037409876
137	0x3d325909	0.04354194
138	0xbdf864aa	-0.12128575
139	0x3d396c3c	0.045269236
140	0xbd985c29	-0.07439453
141	0xbe263110	-0.16229653
142	0xbd80c6dd	-0.0628793
143	0xbac1d3d1	-0.0014787858
144	0xbd41caa0	-0.04731238
145	0x3c197e53	0.009368497
146	0x3e02a0c6	0.12756643
147	0x3dda311d	0.10653899
148	0xbccbedfd	-0.024893755
149	0xbde3e0ae	-0.111268386
150	0x3d56b7d4	0.052421406
151	0xbde515f9	-0.111858316
152	0xbd0a99a5	-0.033837933
153	0x3c8874c3	0.016657239
154	0x3a6d7934	0.0009058893
155	0x3c0cb223	0.008587393
156	0x3d396ea9	0.04527155
157	0xbdd6f6df	-0.10496306
158	0x3b196851	0.0023408125
159	0xbe017404	-0.12641913
160	0x3d24a977	0.040200677
161	0xbdc40136	-0.095705435
162	0xbd8c43b0	-0.06848848
163	0x3c1232f8	0.008923285
164	0x3c85e725	0.01634557
165	0x3d06fe6a	0.032957472
166	0xbd875f15	-0.06609932
167	0xbd18eaf5	-0.037333447
168	0xbe0df2c0	-0.13862133
169	0xbd77909f	-0.060440656
170	0x3d2c5db0	0.042081535
171	0x3e27f03a	0.16400233
172	0x3d8cd372	0.068762675
173	0xbe1e3d01	-0.15452959
174	0xbdcd3f6e	-0.10021864
175	0xbb1ea56d	-0.0024207488
176	0x3c930db8	0.017950878
177	0x3d9d48f8	0.07679933
178	0x3db9d3b5	0.09073583
179	0x3e1994e5	0.14998205
180	0xbc32b54e	-0.010907484
181	0x3d9faf48	0.07797104
182	0x3cef6c1b	0.029226353
183	0x3d9b6974	0.07588473
184	0xbd4fe69a	-0.05075703
185	0x3c8b9274	0.017037608
186	0xbd0916da	-0.03346906
187	0x3ca0931d	0.0196014
188	0xbc62fd64	-0.013854358
189	0xbd0d6ad9	-0.034525726
190	0xbd3f31ad	-0.046678234
191	0x3e1e6567	0.1546837
192	0x3d1d1557	0.03835043
193	0x3df75442	0.12076618
194	0xbda8e0d9	-0.08246011
195	0xbdf71d0e	-0.120660886
196	0xbd68814f	-0.056763943
197	0xbe03733b	-0.12836926
198	0xbd45458b	-0.048162024
199	0xbd671e87	-0.056425598
200	0xbd9cc926	-0.076555535
201	0x3dfaeed9	0.12252588
202	0xbc48a280	-0.012245774
203	0x3d6220c4	0.05520703
204	0x3db46c41	0.0880971
205	0xbd2a0ab0	-0.0415141
206	0xbd56dd6a	-0.05245725
207	0xbcfb9124	-0.030708857
208	0x3d25ab03	0.040446293
209	0x3d974bb7	0.07387488
210	0x3d1ab1d2	0.03776724
211	0x3d28ac47	0.04117992
212	0xbcd333ab	-0.025781473
213	0xbc723c7b	-0.0147849275
214	0xbc4bd1df	-0.012440174
215	0xbdb41891	-0.08793748
216	0x3ccd601b	0.02507024
217	0x3da736ba	0.08164735
218	0x3c4b8ba1	0.012423427
219	0xbcdf6422	-0.027269427
220	0xbd9335ff	-0.07188033
221	0x3d32973d	0.043601263
222	0x3ce4254d	0.027849818
223	0x3b9f2f27	0.004857916
224	0xbd390f23	-0.04518045
225	0x3d4d137b	0.050067406
226	0xbbff13c9	-0.007784341
227	0xbdeaff16	-0.11474435
228	0xbce67f82	-0.028136972
229	0x3ce3c8c9	0.027805703
230	0xbde89a75	-0.11357585
231	0x3b0e2773	0.0021690994
232	0x3d8a7176	0.06759922
233	0xbd7bce0e	-0.061475806
234	0x3def3d08	0.11681563
235	0xbc7b431e	-0.015335826
236	0x3cf7819d	0.030213172
237	0xbc4aaf26	-0.01237086
238	0x3d2eafbe	0.04264807
239	0x3cb76d23	0.022390908
240	0x3d8d7dc2	0.06908752
241	0xbdcaadee	-0.09896456
242	0xbb0469e6	-0.0020204722
243	0x3df28c17	0.11843126
244	0x3ccf0ae5	0.02527375
245	0xbdfbcc53	-0.12294831
246	0xbc2d1660	-0.010564417
247	0xbdcb5989	-0.09929187
248	0xbdd4be64	-0.10387877
249	0x3d4d55b2	0.050130554
250	0xbbba06e5	-0.0056770914
251	0xbae2919d	-0.0017285828
252	0x3d813c59	0.063103385
253	0x3db46ece	0.08810197
254	0xbc3e93b2	-0.011631893
255	0x3e132625	0.1437002

MLP.10.bias f4 [32]
0	0x3e0811ab	0.1328799
1	0xbdfea85b	-0.12434455
2	0x3d936ba7	0.071982674
3	0xbc845d51	-0.016157778
4	0x3d645e4e	0.055754
5	0xbd9c34c2	-0.0762725
6	0x3ddf1c15	0.10894028
7	0xbddef33d	-0.10886238
8	0xbd53dde7	-0.051725294
9	0xbdac5f99	-0.08416671
10	0x3e131b06	0.14365777
11	0xbdfdc92a	-0.123918846
12	0x3dc1c7b2	0.09461917
13	0x3dcc040c	0.099617094
14	0xbbd2c75a	-0.006432456
15	0x3d9d33ad	0.07675872
16	0xbde63511	-0.1124059
17	0x3e1b4355	0.15162404
18	0xbe15153c	-0.14558882
19	0x3d36e44a	0.044651307
20	0x3da8bbcd	0.08238945
21	0xbd8bca61	-0.0682571
22	0x3ba14bc4	0.004922362
23	0x3c035b3e	0.008017359
24	0x3e0c3973	0.1369379
25	0xbdb4969a	-0.088177875
26	0xbd5fbc34	-0.054622844
27	0x3db3d8ce	0.087815866
28	0x3d9aa45a	0.07550879
29	0x3c53fb11	0.012938277
30	0x3d9ae4a2	0.075631395
31	0xbd95de22	-0.07317759

MLP.11.weight f4 [32]
0	0x3f4d6fab	0.80248517
1	0x3f3511a1	0.70730025
2	0x3f426d91	0.75948435
3	0x3f3ae22f	0.7300138
4	0x3f539c3f	0.8266029
5	0x3f545069	0.82935196
6	0x3f54f151	0.8318072
7	0x3f43e299	0.76517636
8	0x3f41152d	0.75422937
9	0x3f4302bc	0.7617605
10	0x3f4d3a1d	0.801668
11	0x3f32a556	0.6978353
12	0x3f257d94	0.6464474
13	0x3f123f0a	0.5712744
14	0x3f3fccf8	0.7492213
15	0x3f52bc0d	0.8231819
16	0x3f11e7ae	0.5699414
17	0x3f0013a7	0.5002999
18	0x3f244d26	0.6418022
19	0x3f428d66	0.75997007
20	0x3f4a8d0f	0.7912149
21	0x3f4238fe	0.75868213
22	0x3f2f9ad7	0.6859564
23	0x3f46c609	0.7764593
24	0x3f17d786	0.5931324
25	0x3f279dc6	0.6547512
26	0x3f2b2b30	0.66862774
27	0x3f1daad0	0.61588764
28	0x3f3e36d7	0.7430243
29	0x3f4320f9	0.7622219
30	0x3f4c75c4	0.79867196
31	0x3f28cefb	0.6594083

MLP.11.bias f4 [32]
0	0x3b00c44d	0.0019648254
1	0x3c851dce	0.016249564
2	0x3922883a	0.00015500272
3	0x3b850de3	0.0040604933
4	0xbb38f913	-0.0028224632
5	0xbb6a3f8b	-0.003574344
6	0x3c6f15b6	0.014592579
7	0xbc23aad2	-0.009989457
8	0x3bbbaa71	0.0057271053
9	0x3bb283e4	0.0054478515
10	0x3c51c4a3	0.0128032295
11	0x3c23462b	0.00996546
12	0x3c1ffd7d	0.009765026
13	0xbc67713d	-0.014126119
14	0xbbb11396	-0.005403946
15	0x3bb0c39d	0.0053944127
16	0x3b0f0157	0.0021820867
17	0xbc46abb5	-0.012125899
18	0xbc0eb887	-0.008710987
19	0x39d5cea5	0.00040780488
20	0x3bd7dba5	0.006587463
21	0x3b936f11	0.004499324
22	0x3bb00966	0.005372214
23	0x3bbc5962	0.00574796
24	0x3d15bffd	0.036560047
25	0x3c95fc1a	0.018308688
26	0x3b9f30a9	0.0048580957
27	0xbbce22f4	-0.006290788
28	0x3980e97d	0.00024588025
29	0x3bcedf08	0.0063132085
30	0x3c4b49bd	0.012407717
31	0x3c95b619	0.018275307

MLP.13.weight f4 [4, 32]
0	0xbbcf7bbe	-0.00633189
1	0xbe0729d5	-0.13199551
2	0xbd08e9b4	-0.033426
3	0xbde563d0	-0.11200678
4	0xbdf5b6b1	-0.11997736
5	0xbe00d0bb	-0.12579624
6	0xbe0b32b5	-0.13593562
7	0x3d051219	0.032487962
8	0x3da5470f	0.08070194
9	0xbe196e85	-0.14983566
10	0x3cc8bec5	0.024505029
11	0x394f650c	0.00019778701
12	0xbc8c296d	-0.017109597
13	0x3b9e2602	0.004826308
14	0x3d85eebe	0.06539677
15	0x3e192f92	0.14959553
16	0x3d735e26	0.05941596
17	0x3ca01a31	0.019543739
18	0x3c88049b	0.016603759
19	0x3ca61f11	0.020278485
20	0x3e0f101d	0.1397099
21	0xbd37f6ad	-0.044912983
22	0xbdaaa627	-0.08332472
23	0x3dff0b10	0.12453282
24	0xbc063e6b	-0.008193593
25	0x3acde31e	0.0015707945
26	0xbd8f9c56	-0.070122406
27	0x3c569d5c	0.013099041
28	0xbe03856b	-0.12843864
29	0xbe1d6a32	-0.15372542
30	0x3e29fd64	0.16600567
31	0x3db6ad38	0.089197576
32	0x3c5fb4b4	0.013653923
33	0x3a9bbb0b	0.0011881305
34	0x3c0cdf19	0.0085981125
35	0xbd49878a	-0.049201526
36	0x3d38b057	0.045090046
37	0x3c8e8522	0.017397467
38	0x3c12dacb	0.008963297
39	0x3bae5c38	0.005321052
40	0x3d835d7c	0.06414315
41	0xbc65fef6	-0.014037838
42	0x3caa3fed	0.020782435
43	0xbc030a9f	-0.007998138
44	0xbc58030d	-0.013184321
45	0x3d32a1a1	0.043611173
46	0xbd40aa35	-0.047037322
47	0x3ce672a6	0.02813084
48	0xbd0fff78	-0.035155743
49	0x3cab9b84	0.020948179
50	0xbc474f05	-0.012164836
51	0x3cb865f0	0.022509545
52	0x3c886c58	0.016653225
53	0xbd110ef5	-0.035414655
54	0xbd370522	-0.04468263
55	0xbda27747	-0.079329066
56	0x3be139e1	0.006873355
57	0xbd783708	-0.060599357
58	0xbcb87677	-0.022517426
59	0x3d192537	0.037389006
60	0x3ccea2f2	0.025224183
61	0xbd3ecf03	-0.04658414
62	0xbb1ab7a9	-0.0023608005
63	0xbd64ac8c	-0.055828616
64	0xbc466137	-0.012108139
65	0x3b9bc8a1	0.0047541414
66	0x3e299b7f	0.16563223
67	0x3db38fb6	0.08767645
68	0x3d86bafe	0.06578635
69	0x3e0725c6	0.13198003
70	0xbdd24417	-0.10266893
71	0xbded1904	-0.11577037
72	0xbd560f7b	-0.052260857
73	0xbd8829d4	-0.06648603
74	0xbdaf3e87	-0.08556848
75	0xbdd1c8b2	-0.10243358
76	0x3dda0843	0.10646107
77	0x3d51356a	0.05107633
78	0x3df33617	0.11875551
79	0xbddc341f	-0.10752129
80	0xbd57d223	-0.052690636
81	0xbd459887	-0.048241165
82	0x3d94e2fb	0.072698556
83	0xbde38a9d	-0.11110423
84	0xbd3c0dec	-0.045911714
85	0xbdd0f4a6	-0.10202913
86	0xbd6c42b4	-0.0576808
87	0x3d422c53	0.047405552
88	0xbdd5a4b2	-0.10431804
89	0xbd434d50	-0.047681153
90	0xbd171a04	-0.036890045
91	0x3da6fbcc	0.08153495
92	0xbc97cd3c	-0.01853048
93	0xbc8e3767	-0.017360402
94	0x3d15a6af	0.036535915
95	0xbd180bcc	-0.037120625
96	0x3e057699	0.13033523
97	0xbc615e5f	-0.01375541
98	0xbc3ce2d6	-0.011528691
99	0x3cd74e22	0.026282374
100	0xbdecafd5	-0.11556975
101	0x3dede170	0.116152644
102	0xbd84a8d9	-0.06477518
103	0x3db07aed	0.08617196
104	0x3cfc7f59	0.030822443
105	0xbca937ce	-0.020656493
106	0x3dddd092	0.10830797
107	0x3d9e1e11	0.077205785
108	0xbc9018fe	-0.017590042
109	0xbcb8f3ee	-0.022577252
110	0xbc6ef95e	-0.014585821
111	0xbd850d03	-0.064966224
112	0x3cb361dc	0.021897249
113	0x3d6f8ada	0.05848203
114	0x3d10db56	0.035365425
115	0x3d7aa108	0.061188728
116	0xbde3fbcd	-0.111320116
117	0xbd0bd41f	-0.03413784
118	0xbad9fe90	-0.0016631652
119	0x3d8f220c	0.06988916
120	0xbd7e6ff7	-0.062118497
121	0xbd7f5ca3	-0.062344205
122	0x3d72f926	0.059319638
123	0xbd3c36ab	-0.045950573
124	0xbd08c723	-0.033393037
125	0xbcfea085	-0.031082401
126	0xbd8c0d6f	-0.068385
127	0x3c8bd0c8	0.017067328

MLP.13.bias f4 [4]
0	0xbe073b64	-0.1320625
1	0xbba1ea31	-0.004941248
2	0x3dc16c3a	0.09444471
3	0x3df3cb8f	0.1190406
