example/model/diff_robot_default/model_1500.pth (torch, 24610 bytes, 18 tensors)

MLP.0.weight f4 [32, 2]
0	0x3ed05ca0	0.40695667
1	0xbea15654	-0.31511176
2	0x3ea117e8	0.31463552
3	0x3eef0e31	0.46690515
4	0xbd45df4f	-0.048308667
5	0x3ed571d6	0.41688412
6	0xbdfada57	-0.12248676
7	0x3e59dedd	0.21276422
8	0x3ebe0fda	0.3712147
9	0x3f20f4db	0.6287362
10	0x3e6e34f1	0.23262383
11	0x3e7f9082	0.24957469
12	0xbec0d8d9	-0.37665442
13	0xbf073958	-0.52821875
14	0xbf170a55	-0.5900014
15	0x3e425d15	0.1898082
16	0x3f170312	0.5898906
17	0xbe736446	-0.2376872
18	0x3de6cd5c	0.11269638
19	0x3eba482d	0.3638319
20	0xbeb16f9e	-0.3465547
21	0x3f08daab	0.5345866
22	0x3f02da69	0.5111452
23	0xbefddc99	-0.49582365
24	0xbe3d6f6c	-0.18499535
25	0x3f171cd1	0.59028345
26	0xbda73269	-0.08163912
27	0x3f06a035	0.52588207
28	0x3f20c3de	0.6279887
29	0x3e2c3c6b	0.16819923
30	0xbe058381	-0.13038446
31	0x3f05db55	0.522878
32	0x3e2ee1b7	0.17078291
33	0x3eb6e749	0.35723332
34	0xbc5cac39	-0.013468795
35	0x3e2c5f96	0.16833338
36	0xbce24a12	-0.02762321
37	0x3f12ea77	0.57389015
38	0xbe4af97c	-0.19821733
39	0xbc6dfc7c	-0.014525529
40	0x3eab1e21	0.33421424
41	0xbd539a7e	-0.051661007
42	0xbd0de21f	-0.034639474
43	0xbefa1eef	-0.48851725
44	0xbf032b57	-0.51238006
45	0x3ef099e5	0.46992412
46	0xbf048246	-0.5176128
47	0x3d99abb0	0.0750345
48	0xbef8d15f	-0.48597237
49	0x3df3e5ef	0.11909091
50	0xbd014cfe	-0.031567566
51	0xbe079595	-0.13240655
52	0xbe9f4ae2	-0.3111182
53	0x3db0d3ae	0.08634125
54	0x3e87cf1f	0.26525208
55	0xbef230d9	-0.47302893
56	0xbf3239e9	-0.69619614
57	0xbe632135	-0.22180636
58	0xbe00e183	-0.12586026
59	0x3d35a63c	0.044347987
60	0xbd560a58	-0.05225596
61	0x3e25124c	0.16120261
62	0xbf067208	-0.5251775
63	0x3d9af991	0.07567132

MLP.0.bias f4 [32]
0	0x3e70519b	0.2346863
1	0x3cb63344	0.022241242
2	0x3ee4ad4d	0.44663468
3	0xbe169f93	-0.1470931
4	0xbd7d14d1	-0.06178743
5	0xbe838b82	-0.25692374
6	0xbe169cbb	-0.14708225
7	0x3edc7389	0.43056896
8	0x3dd1040c	0.1020585
9	0xbd8a94b5	-0.06766645
10	0x3ead70f3	0.33875236
11	0xbe2a17eb	-0.16610686
12	0xbee25fdf	-0.4421377
13	0x3e25c9cf	0.16190265
14	0xbe9dc209	-0.308121
15	0x3e7b73e3	0.24555926
16	0xbc206959	-0.009790742
17	0xbee89db4	-0.45432818
18	0x3d9c0fc6	0.07620196
19	0x3ec94be2	0.39315706
20	0x3ea02ff1	0.31286576
21	0x3de5aad7	0.11214226
22	0xbe655d7a	-0.2239894
23	0xbcf0a44a	-0.029375214
24	0xbe3e00b4	-0.18554956
25	0xbcba389a	-0.022732068
26	0xbe69d567	-0.22835313
27	0x3e21dbb1	0.15806462
28	0xbe90848c	-0.28226125
29	0xbee03809	-0.4379275
30	0x3e3712ec	0.17878312
31	0xbeaeaf12	-0.34117943

MLP.1.weight f4 [32]
0	0x3f3c5ed3	0.7358219
1	0x3f5a4013	0.8525402
2	0x3f52126d	0.82059366
3	0x3f32a380	0.6978073
4	0x3f516ea3	0.81809443
5	0x3f547ca8	0.8300271
6	0x3f46d8f0	0.7767477
7	0x3f6be408	0.92144823
8	0x3f37b6ed	0.717635
9	0x3f53d751	0.8275042
10	0x3f636b15	0.8883527
11	0x3f46c924	0.77650666
12	0x3f635eee	0.88816726
13	0x3f48ec28	0.78485346
14	0x3f6afea0	0.91794777
15	0x3f5361c8	0.8257108
16	0x3f3c1d56	0.73482263
17	0x3f1118c0	0.5667839
18	0x3f37bff6	0.71777284
19	0x3f571ed5	0.8403142
20	0x3f435ba1	0.7631169
21	0x3f532c2d	0.8248928
22	0x3f58e76d	0.8472813
23	0x3f2fd72c	0.686877
24	0x3f5cb73c	0.86217093
25	0x3f37410f	0.71583647
26	0x3f422820	0.75842476
27	0x3f43188c	0.7620933
28	0x3f5e9cb3	0.86957854
29	0x3f49a907	0.7877354
30	0x3e56d640	0.20980167
31	0x3f4e3253	0.8054554

MLP.1.bias f4 [32]
0	0x3c81abda	0.015829016
1	0xbafa4adf	-0.00190958
2	0x3c3d50df	0.011554926
3	0xbc4c7bc6	-0.012480682
4	0x3c271418	0.010197662
5	0xbaa8fa41	-0.0012891964
6	0x3c0d71b9	0.008633071
7	0xbcfd9691	-0.030955585
8	0x3d05e10b	0.03268532
9	0xbc62a550	-0.013833359
10	0x3c9be87f	0.019031761
11	0x3c959572	0.018259738
12	0xbc9d3fee	-0.019195523
13	0xbbd8feea	-0.006622185
14	0xbd24bb43	-0.04021765
15	0xbd22e8bc	-0.039772734
16	0x3ca71cd6	0.020399492
17	0x3c63ce58	0.013904177
18	0x3b231105	0.002488197
19	0x3bb3b315	0.0054839947
20	0x3ce02f1f	0.02736622
21	0x3c1c57e6	0.009542441
22	0x3c8afd86	0.016966593
23	0x3cca21f2	0.02467439
24	0xbbcb2748	-0.006199751
25	0xbd120a27	-0.035654213
26	0xbbea414f	-0.0071488987
27	0x3cd7ee8f	0.02635887
28	0x3c9970dc	0.018730573
29	0x3ccb9bf6	0.024854641
30	0x3d1f05a7	0.03882375
31	0xbca10ae0	-0.019658506

MLP.3.weight f4 [32, 32]
0	0xbdc33b51	-0.09532798
1	0x3d2b1cf6	0.041775666
2	0xbe153a2b	-0.1457297
3	0x3dd9aae2	0.106282964
4	0xbd3b0566	-0.045659445
5	0xbd5a2a70	-0.053263128
6	0xbe39aefd	-0.18133159
7	0x3d8b4fba	0.06802316
8	0x3da25ef1	0.07928265
9	0xbddddd03	-0.1083317
10	0x3dbffd36	0.09374468
11	0x3d77b390	0.06047398
12	0xbd921cc7	-0.07134395
13	0x3d285669	0.041098032
14	0x3da2e8e4	0.079545766
15	0x3e0f17db	0.13973944
16	0xbd1743f2	-0.036930032
17	0x3d31990c	0.043358847
18	0x3d0f877b	0.035041314
19	0x3d8a4337	0.067511015
20	0xbdf790fe	-0.12088202
21	0xbd9d0430	-0.07666814
22	0xbcfeb3de	-0.031091627
23	0x3cfaaa00	0.03059864
24	0xbddedd07	-0.10882001
25	0x3cc3f6fa	0.023921479
26	0x3dd87bdf	0.105705015
27	0xbd842964	-0.06453207
28	0x3e0b0f99	0.13580169
29	0xbd7ca8c8	-0.0616844
30	0xbd7f41ac	-0.06231849
31	0xbdecda2e	-0.11565052
32	0xbc6a0e5e	-0.014285652
33	0x3da12276	0.07867901
34	0xbd82c5f4	-0.06385413
35	0x3d5490f4	0.05189605
36	0xbcd09dca	-0.025465865
37	0xbde33333	-0.1109375
38	0x3d1395ec	0.03603165
39	0x3d230d92	0.039807864
40	0x3e076c80	0.13224983
41	0xbcc39f46	-0.023879658
42	0x3d8fefbe	0.07028149
43	0xbdb961a0	-0.090518236
44	0xbb9f944c	-0.0048699733
45	0xbd09c449	-0.033634458
46	0xbe034e96	-0.12822947
47	0x3d1d226f	0.038362917
48	0x3d5c3722	0.053763516
49	0x3d3a9d31	0.045560066
50	0x3c93485f	0.017978845
51	0xbde599cf	-0.11210977
52	0xbda04c2b	-0.07827028
53	0x3e21c216	0.15796694
54	0x3cb522b6	0.022111278
55	0xbe0dc79f	-0.1384568
56	0xbe0fe20b	-0.14051072
57	0x3e08e2a9	0.13367714
58	0xbd0b6b55	-0.034037907
59	0xbda5e1eb	-0.08099731
60	0xbe1b7afe	-0.15183637
61	0xbd8118c3	-0.06303551
62	0xbd954bcd	-0.072898485
63	0x3d180488	0.037113696
64	0x3e077a8a	0.13230339
65	0xbc234646	-0.009965485
66	0x3bf60cc7	0.0075088474
67	0x3e02fb36	0.12791142
68	0x3de72462	0.11286236
69	0x3d03c9fe	0.032175057
70	0x3cba85e2	0.022768918
71	0xbc813510	-0.015772372
72	0xbd7849f6	-0.06061741
73	0xbd836cca	-0.06417234
74	0xbd062a31	-0.03275508
75	0x3d5b8892	0.05359704
76	0x3e262477	0.16224848
77	0x3e044e96	0.12920603
78	0xbe0a80d4	-0.13525707
79	0xbdbc15ff	-0.09183883
80	0x3d2f06b0	0.042730987
81	0x3c4fdb0a	0.0126865
82	0x3cb1e1fd	0.021714205
83	0x3d3e4200	0.04644966
84	0x3b08275b	0.002077541
85	0x3e17fd0e	0.14842626
86	0x3d74c257	0.05975565
87	0x3da5daf5	0.08098403
88	0x3d796e12	0.060895987
89	0x3e01d443	0.12678628
90	0x3dd45055	0.103668846
91	0x3d9e28a7	0.077225976
92	0x3d941d9b	0.07232209
93	0x3de7eb7b	0.11324211
94	0x3d716199	0.058930967
95	0x3e2c0a64	0.16800839
96	0x3d44fac9	0.04809073
97	0x3d8470e8	0.06466848
98	0xbd287793	-0.04112966
99	0xbd6954b9	-0.056965563
100	0x3d9ea511	0.07746328
101	0x3de76afa	0.11299701
102	0xbd50f332	-0.05101318
103	0xbe3783ca	-0.17921367
104	0x3dc2c780	0.09510708
105	0xbb40d950	-0.0029426403
106	0x3e2f3f07	0.17113887
107	0x3cf4b638	0.029872045
108	0xbe076e68	-0.1322571
109	0xbd1b8753	-0.037970852
110	0x3e080e15	0.13286622
111	0x3d730ba5	0.059337277
112	0x3dc1f68e	0.09470855
113	0xbdcd0310	-0.1001035
114	0xbdfe14be	-0.124063
115	0xbdbf8f98	-0.0935356
116	0x3d2b2689	0.041784797
117	0xbe2916b5	-0.16512568
118	0xbd344078	-0.044006795
119	0x3bba8f08	0.00569332
120	0xbe28e2ba	-0.1649274
121	0xbdf1d9f3	-0.11809149
122	0xbd16eeb8	-0.036848754
123	0x3de591c4	0.11209443
124	0x3dcb2ece	0.09921037
125	0xbd0fad55	-0.03507741
126	0x3c83a7f9	0.016071307
127	0xbd8951e0	-0.067050695
128	0x3d4ae8df	0.04953849
129	0x3db05e0f	0.0861169
130	0xbd249f4c	-0.04019098
131	0x3d4d11ea	0.050065912
132	0xbd8aa393	-0.067694806
133	0xbdda3869	-0.10655291
134	0xbe0beec8	-0.13665307
135	0xbdc3927a	-0.095494226
136	0x3cb25148	0.021767274
137	0xbdbce921	-0.09224153
138	0x3b69f2cf	0.0035697704
139	0x3d81afa0	0.06332326
140	0x3e26ec8d	0.16301174
141	0x3e11e6d2	0.14248207
142	0xbdc68878	-0.09693998
143	0xbd22d73b	-0.03975604
144	0x3b6e7a02	0.003638864
145	0x3d05ab98	0.032634348
146	0xbc8ca4ca	-0.017168421
147	0xbe0a572c	-0.13509816
148	0xbde0e0ca	-0.10980375
149	0x3d060375	0.03271814
150	0xbd1a26f4	-0.037634805
151	0x3abca75f	0.0014393142
152	0x3e267dcf	0.1625893
153	0x3e0330f3	0.12811641
154	0x3dc3d6ec	0.095624775
155	0xbdff1c70	-0.12456596
156	0xbdc8397c	-0.09776589
157	0x3d9cfe82	0.07665731
158	0xbccbcda3	-0.024878329
159	0x3d3c56e8	0.045981318
160	0xbdb3baf2	-0.08775891
161	0xbdf08f0b	-0.11746033
162	0xbe1a7174	-0.15082341
163	0x3e056ca8	0.1302973
164	0xbcf25c88	-0.029585138
165	0x3d9193a4	0.07108238
166	0xbe09a244	-0.13440806
167	0x3e1a41cc	0.15064162
168	0xbab41b8a	-0.0013741117
169	0xbc4dead1	-0.012568192
170	0xbdbb2df6	-0.09139626
171	0x3d8113ba	0.06302591
172	0x3dca0f3c	0.09866187
173	0xbe058e48	-0.13042557
174	0xbe1a7148	-0.15082276
175	0xbd123b64	-0.03570117
176	0xbcaba94b	-0.020954749
177	0xbd50048d	-0.05078559
178	0x3e2d4242	0.16919807
179	0xbdd56a1e	-0.10420631
180	0x3cbfd659	0.023417639
181	0xbdd541b1	-0.1041292
182	0xbcbbcfb6	-0.022926193
183	0x3d1827ba	0.03714726
184	0xbd12fa7f	-0.035883423
185	0x3d199ee1	0.037505034
186	0xbce8e4a8	-0.028429344
187	0x3d075f87	0.033050086
188	0x3e0f8ee5	0.14019354
189	0xbdc1758b	-0.09446248
190	0xbdc2c286	-0.09509759
191	0x3df6c5c3	0.12049439
192	0x3d76d2e1	0.060259704
193	0xbdf8ff68	-0.1215809
194	0x3e07a032	0.13244703
195	0x3c9d6472	0.019212935
196	0xbd0ef8d4	-0.03490527
197	0xbc7d279b	-0.015451337
198	0xbd1b429c	-0.03790532
199	0xbd00bf2b	-0.031432312
200	0xbdcdf559	-0.10056562
201	0x3d3689ba	0.04456494
202	0xbcec1e98	-0.028823182
203	0xbd857713	-0.06516852
204	0x3cf38f09	0.02973129
205	0x3e0df0ae	0.13861343
206	0x3cac9497	0.021066947
207	0x3d9517f1	0.07279957
208	0xbde36b35	-0.111044325
209	0xbdad59af	-0.084643714
210	0x3db69faf	0.08917176
211	0x39bdb96b	0.00036187036
212	0x3d4dda16	0.05025681
213	0x3d768471	0.0601849
214	0x3c5522c5	0.013008778
215	0xbcf4b2c4	-0.029870398
216	0xbd8bb26b	-0.0682114
217	0x3d7da495	0.061924536
218	0xbd95cf13	-0.07314887
219	0xbcc86235	-0.024460891
220	0x3ccb4aba	0.024815906
221	0xbdba95de	-0.09110616
222	0x3cb4aa9a	0.022054005
223	0xbb9e9796	-0.004839848
224	0xbcd98053	-0.026550448
225	0xbd503851	-0.050834958
226	0xbdcc5135	-0.099764265
227	0xbd06bead	-0.032896686
228	0x3e23d4e5	0.15999182
229	0x3e034ed2	0.12823036
230	0x3c8a69d7	0.016896171
231	0x3b044e72	0.0020188359
232	0xbcfc44ab	-0.030794462
233	0x3d5e3a2e	0.054254703
234	0x3d9c7bae	0.076407775
235	0xbd9d0cb2	-0.07668437
236	0xbddb65d8	-0.107127845
237	0x3e09b65f	0.13448475
238	0x3da9ecea	0.08297141
239	0xbdb693a0	-0.08914876
240	0x3bf9e882	0.007626594
241	0x3b410bc9	0.0029456487
242	0xbd4b5fe9	-0.049652014
243	0x3dbab96f	0.091174
244	0xbc902852	-0.017597351
245	0x3cb4d9c2	0.022076491
246	0x3e07511d	0.13214536
247	0x3d8de290	0.06927979
248	0x3de2c88a	0.11073406
249	0xbda524ea	-0.080636814
250	0x3ce3b330	0.027795404
251	0x3dbdb3dc	0.09262821
252	0xbdba8a3e	-0.09108399
253	0x3d579d8e	0.05264049
254	0xbd635c85	-0.055508155
255	0xbb92b759	-0.004477423

MLP.3.bias f4 [32]
0	0xbdccbbcd	-0.09996758
1	0x3d5a1eb9	0.053251956
2	0x3e584548	0.21120179
3	0xbdc66e9c	-0.09689066
4	0x3dd2ff6d	0.10302625
5	0x3d49c790	0.049262583
6	0xbe132439	-0.14369287
7	0xbd3be403	-0.045871746
8	0x3d0a8f64	0.033828154
9	0x3e0d200a	0.13781753
10	0x3d5bd983	0.053674232
11	0xbe1afcc5	-0.15135486
12	0x3e15896b	0.14603202
13	0xbce1fc81	-0.027586224
14	0xbd3d45e3	-0.046209227
15	0xbe3698db	-0.17831747
16	0xbe0fda2c	-0.1404807
17	0x3d08127b	0.03322075
18	0x3df4ad07	0.11947065
19	0xbd2a689a	-0.041603662
20	0x3dc4c51f	0.0960791
21	0xb94146b9	-0.0001843226
22	0x3de8540e	0.11344157
23	0xbe0f8c51	-0.1401837
24	0xbd61b58e	-0.055104785
25	0x3c907ccb	0.01763763
26	0x3e0a62f2	0.13514307
27	0xbcdd8787	-0.027042164
28	0x3db94730	0.09046781
29	0x3d854d1a	0.065088466
30	0x3d74562e	0.0596525
31	0x3dbd2576	0.09235661

MLP.5.weight f4 [32, 32]
0	0x3a8830d1	0.0010390525
1	0x3ca79fd2	0.02046195
2	0xbd9af00f	-0.07565319
3	0xbcc7ac6a	-0.024374206
4	0x3d722a9f	0.059122678
5	0xbdcc5c21	-0.0997851
6	0x3d299d31	0.041409675
7	0x3c82f486	0.015985738
8	0xbd61f1c7	-0.055162217
9	0xbdec348d	-0.11533461
10	0x3c52747a	0.012845153
11	0x3cee953d	0.029123897
12	0xbdab177f	-0.08354091
13	0xbca78d67	-0.020453168
14	0x3e07cb69	0.13261189
15	0xbd2f670e	-0.04282289
16	0x3e01f540	0.12691212
17	0xbdcf08ef	-0.10109126
18	0x3d32e893	0.04367883
19	0xbda6e2aa	-0.081487015
20	0xbcc5f591	-0.024164947
21	0xb2e243a4	-2.6340622e-08
22	0x3dd85022	0.10562159
23	0x3e06afd9	0.13153018
24	0xbdecafbb	-0.115569554
25	0x3d732f8f	0.059371527
26	0x3e04b2d6	0.12958845
27	0xbda632e2	-0.08115174
28	0xbdc88e64	-0.09792784
29	0x3e35d7c9	0.17758097
30	0x3d1c34db	0.038136344
31	0x3c51fe37	0.012816957
32	0xbd8b1230	-0.06790578
33	0xbde2cf00	-0.11074638
34	0xbde7decc	-0.11321792
35	0x3c52663c	0.012841757
36	0x3d8a8279	0.06763167
37	0xbe0118d4	-0.12607127
38	0xbacdd3e9	-0.0015703413
39	0x3dc760a6	0.09735231
40	0xbe08dc39	-0.13365258
41	0x3dc104ab	0.094247185
42	0xba80cc85	-0.0009826577
43	0x3d1f66b5	0.03891631
44	0x3d8c4aa7	0.06850176
45	0x3d8cff85	0.06884674
46	0x3cb1c8e4	0.021702237
47	0xbd372d4f	-0.044720944
48	0x3e15db57	0.14634453
49	0x3df57e7b	0.11987015
50	0xbd4b501a	-0.049636938
51	0x3dd98a6c	0.10622105
52	0xbdf0c430	-0.1175617
53	0xb76416ac	-1.3595138e-05
54	0xbe58fde7	-0.21190606
55	0x3d71caa1	0.059031133
56	0x3d032202	0.032014854
57	0x3d89f997	0.067370586
58	0xbe1e7935	-0.15475924
59	0xbc87b973	-0.016567921
60	0x3dea97c2	0.11454727
61	0xbdf71469	-0.1206444
62	0xbd6f8f3d	-0.058486212
63	0x3da4fdff	0.080562584
64	0x3d74eef9	0.059798215
65	0xbdf757bf	-0.12077283
66	0xbdf5fa7d	-0.120106675
67	0xbe2346ce	-0.15944979
68	0x3db7bb58	0.0897128
69	0xbd88ba83	-0.06676199
70	0x3d096871	0.03354687
71	0xbd991fb5	-0.07476751
72	0x3dc95783	0.09831145
73	0xbde1b2f9	-0.110204645
74	0x3bf6ac20	0.007527843
75	0xbe1e7bdf	-0.1547694
76	0xbe130685	-0.14357956
77	0xbb5a5f40	-0.0033320934
78	0x3d071d18	0.03298673
79	0xbd84a932	-0.06477584
80	0x3dab8ec1	0.083768375
81	0xbdc74e3c	-0.09731719
82	0xbdfc78ec	-0.123277515
83	0xbe02c44e	-0.12770197
84	0xbdc4f404	-0.09616855
85	0x3678a529	3.7051016e-06
86	0x3d1b3be2	0.037898906
87	0xbcfae839	-0.03062831
88	0xbdd63e29	-0.10461075
89	0xbda3bd6b	-0.07995113
90	0x3d0f9bc4	0.03506066
91	0xbccecc82	-0.025244001
92	0x3d4cbc28	0.049984127
93	0x3d80ea34	0.06294671
94	0x3ccf492e	0.02530345
95	0xbd865c72	-0.06560601
96	0xbd214429	-0.039371643
97	0x3c1d824f	0.0096135875
98	0x3de5bb0b	0.11217316
99	0xbe0788d0	-0.13235784
100	0xbcbbb8a3	-0.02291519
101	0x37cdebb6	2.4547666e-05
102	0x3c6f38e5	0.014600967
103	0x3b7aa4dc	0.0038245237
104	0x3deb3350	0.114843965
105	0x3dba2d58	0.0909068
106	0xbd6bbf08	-0.05755523
107	0xbc76a4de	-0.015053956
108	0x3ded30a8	0.11581546
109	0xbd169e49	-0.036772046
110	0xbdf3d2eb	-0.11905464
111	0xbddfff6b	-0.10937389
112	0x3ca501d6	0.020142477
113	0x3defd82c	0.117111534
114	0xbc43a2cf	-0.011940672
115	0xbd5a0720	-0.05322945
116	0xbd5b5a19	-0.05355272
117	0x3612c2bc	2.1869046e-06
118	0xbe036649	-0.12831987
119	0x3c9219bf	0.017834542
120	0xbe27d1e0	-0.16388655
121	0xbdacfd03	-0.08446696
122	0x3e1fa6fe	0.15591046
123	0x3d4de3c9	0.05026606
124	0xbd9f3bd8	-0.07775086
125	0x3d472ed0	0.04862863
126	0x3d89dc40	0.067314625
127	0xbb42148a	-0.0029614293
128	0xbdc8a543	-0.09797146
129	0x3e03bc16	0.12864718
130	0xbdaf33e9	-0.08554823
131	0x3a4fb415	0.00079232577
132	0xbdaa1494	-0.08304706
133	0x3c86eab9	0.016469346
134	0x3db1d8ca	0.08683927
135	0x3ba8606e	0.0051384484
136	0xbe08fba5	-0.13377245
137	0xbbaabc4e	-0.005210436
138	0xbe10b053	-0.14129762
139	0x3d708a82	0.05872584
140	0x3de0fa81	0.1098528
141	0x3b5ca5c4	0.003366814
142	0x3d92ce64	0.07168272
143	0x3e352f6f	0.17693876
144	0x3dd349c7	0.10316806
145	0x3ddd107f	0.10794162
146	0xbb65d686	-0.0035070493
147	0x3bb4efd1	0.0055217524
148	0x3db87e52	0.09008469
149	0xb6a840c7	-5.0143312e-06
150	0x3d9fb22e	0.07797657
151	0xbdd3f659	-0.103497215
152	0x3c3aa2b5	0.011391331
153	0x3dd57849	0.10423333
154	0xbdedc736	-0.11610262
155	0xbd8bdfd6	-0.06829803
156	0xbd1bdeda	-0.038054325
157	0xbe1b8bfe	-0.15190122
158	0xbdc949bb	-0.09828516
159	0xbe1b48e1	-0.1516452
160	0xbd2f8de9	-0.042859945
161	0xbd14789c	-0.036247835
162	0xbd9500c1	-0.072755344
163	0x3c958d73	0.018255925
164	0x3da13830	0.07872045
165	0x3d197c92	0.037472315
166	0xbb3bf3af	-0.0028679182
167	0xbd04633d	-0.032321204
168	0xbd977b08	-0.07396513
169	0xbe0f61ee	-0.14002201
170	0x3d900810	0.07032788
171	0xbc8a9ed1	-0.016921433
172	0x3d56d74a	0.05245141
173	0x3c6e3ace	0.014540387
174	0xbe151add	-0.14561029
175	0xbd6e3646	-0.058157228
176	0x3d945292	0.072423115
177	0xbc828e87	-0.015937103
178	0x3d31e08e	0.043427043
179	0x3ccb5b2a	0.024823744
180	0xbe187b40	-0.14890766
181	0xb24be75c	-1.186876e-08
182	0x3e0afd14	0.13573104
183	0x3dbecae7	0.09316044
184	0xbc421a6b	-0.011847119
185	0xbd74b721	-0.059744958
186	0xbda0ffb8	-0.078612745
187	0xbe275192	-0.1633971
188	0xbda2f5fd	-0.07957075
189	0x3d8a9ba9	0.06767971
190	0x3daf2fb1	0.08554018
191	0x3d8b4c4e	0.06801663
192	0x3e0c9b64	0.13731152
193	0xbe075ab4	-0.13218194
194	0x3e052985	0.1300412
195	0x3d0eb182	0.034837253
196	0xbdd1b3c5	-0.102393664
197	0x3da92952	0.08259834
198	0xbd986c02	-0.07442476
199	0xbd352272	-0.044222303
200	0xbdde2cc7	-0.10848384
201	0x3bf3694f	0.0074283252
202	0xbd417975	-0.04723497
203	0xbe21422a	-0.15747896
204	0xbe063756	-0.13107046
205	0xbcc27177	-0.023735745
206	0xbdf3c8ac	-0.119035095
207	0x3d8ef6e2	0.06980683
208	0xbc1610fd	-0.009159324
209	0x3e34fe97	0.17675243
210	0x3da9f0ee	0.08297907
211	0xbd5ae01c	-0.053436384
212	0xbcf98e46	-0.03046335
213	0xb6b22d18	-5.310063e-06
214	0x3e461d4b	0.19347112
215	0x3cd49232	0.025948618
216	0xbceb0dde	-0.028693136
217	0x3e5c80e5	0.21533544
218	0x3d15414e	0.036439233
219	0xbe196dde	-0.14983317
220	0x3de19db5	0.11016408
221	0xbdc497b9	-0.09599251
222	0x3e03ba1e	0.12863967
223	0xbccb58ac	-0.024822555
224	0x3e099e79	0.13439359
225	0xbe09f417	-0.13472019
226	0xbe1ba4f0	-0.15199637
227	0xbdcf3ffd	-0.10119627
228	0xbe0aef17	-0.13567768
229	0x3d06821d	0.03283893
230	0x3d0c93d8	0.034320682
231	0xbdb7c8c7	-0.08973842
232	0xbdb2edd8	-0.08736771
233	0x3d0fc826	0.035102986
234	0xbe13ee9a	-0.14446488
235	0xbe345b5f	-0.1761298
236	0xbe09aac7	-0.13444053
237	0x3d1e9269	0.038713846
238	0x3c895417	0.01676373
239	0x3da79762	0.08183171
240	0x3d8b0647	0.06788307
241	0x3d810490	0.06299698
242	0xbce94a3c	-0.02847778
243	0x3dda8714	0.10670295
244	0x3c1c50ea	0.009540776
245	0x32cb67e9	2.3679563e-08
246	0x3d56ef3f	0.052474257
247	0x3c6a22aa	0.014290491
248	0xbc71a51a	-0.014748836
249	0x381f4264	3.7970385e-05
250	0x3d6a6e70	0.057234228
251	0x3e0cb888	0.13742268
252	0xbe2890ce	-0.16461489
253	0xbdb6e98d	-0.08931265
254	0xbd833cb5	-0.06408063
255	0x3ce13c6e	0.027494635

MLP.5.bias f4 [32]
0	0xbde93777	-0.11387532
1	0x3dd2fbab	0.10301908
2	0x3de9fe0e	0.1142541
3	0xbdd6b10a	-0.10482986
4	0x3dbf2b32	0.09334411
5	0x3e1b75f1	0.1518171
6	0xbd9f6364	-0.07782629
7	0xbc6e4e4f	-0.014545037
8	0x3de376ec	0.11106667
9	0x3d4eb1ad	0.050462414
10	0xbcb46a13	-0.022023236
11	0x3d6d716b	0.057969492
12	0x3e0b2768	0.13589251
13	0xbd3747da	-0.044746257
14	0xbe18fca2	-0.14940122
15	0xbe0e2751	-0.13882186
16	0x3db585b2	0.08863391
17	0xbded4e93	-0.115872525
18	0x3e0d1adf	0.13779782
19	0xbe1af68e	-0.15133116
20	0xbe1188bf	-0.1421232
21	0xbe1c744f	-0.15278743
22	0xbc826fb1	-0.0159224
23	0xbc291375	-0.01031958
24	0x3d47c0ac	0.04876773
25	0xbe048183	-0.1294003
26	0x3e09b6bf	0.13448618
27	0x3ddb0cbc	0.10695788
28	0x3d3b125d	0.04567181
29	0xbabeefac	-0.0014567277
30	0x3c165238	0.009174876
31	0x3d8e7517	0.06955927

MLP.6.weight f4 [32]
0	0x3f57d21a	0.84304965
1	0x3f4244e5	0.75886375
2	0x3f5f7b2b	0.87297314
3	0x3f5bf7b3	0.85924834
4	0x3f3e4990	0.74331
5	0x3f34d099	0.70630795
6	0x3f6656a3	0.8997595
7	0x3f5f1bbc	0.87151694
8	0x3f40cdca	0.7531401
9	0x3f53dabc	0.8275564
10	0x3f523305	0.821091
11	0x3f3c5e2c	0.73581195
12	0x3f4a15a8	0.78939295
13	0x3f5296f4	0.82261586
14	0x3f473bc8	0.77825594
15	0x3f47af3d	0.7800177
16	0x3f5d6ca3	0.8649389
17	0x3f5fecc3	0.87470645
18	0x3f434d7a	0.76290095
19	0x3f47d18b	0.7805411
20	0x3f540565	0.8282073
21	0x3f4ef96b	0.8084933
22	0x3f591c9f	0.848093
23	0x3f344293	0.70414084
24	0x3f5c4e06	0.86056554
25	0x3f5477e7	0.82995456
26	0x3f40c285	0.75296813
27	0x3f5bfe0f	0.8593454
28	0x3f52c564	0.82332444
29	0x3f4410be	0.76588047
30	0x3f33f676	0.70297945
31	0x3f48401e	0.78222835

MLP.6.bias f4 [32]
0	0xbbc23c9a	-0.0059276344
1	0xbc42729f	-0.011868148
2	0x3bc9f3e1	0.006163106
3	0x3c5782d5	0.013153751
4	0xbae68a0d	-0.001758875
5	0x3ac499b9	0.0014999426
6	0x3aa33dd8	0.0012454344
7	0xbca534ce	-0.02016678
8	0x3be4b279	0.0069792834
9	0x3c420c01	0.011843682
10	0x3cb92b75	0.02260373
11	0xbd14c765	-0.03632297
12	0xbba12f40	-0.0049189627
13	0xbb435c00	-0.0029809475
14	0xbac96405	-0.0015364891
15	0x3b945b40	0.0045274794
16	0xbbef921e	-0.0073111197
17	0x3c4379cd	0.011930895
18	0x3a5581b1	0.00081446307
19	0x3b9652ab	0.0045874915
20	0xbb9b89a5	-0.004746633
21	0x3c6f2846	0.014597004
22	0xbc51b73f	-0.012800037
23	0xbc4bc5f9	-0.012437337
24	0x3c0a700a	0.008449564
25	0xbcb4dc96	-0.02207784
26	0x3c2a87f6	0.010408392
27	0x3c399c24	0.011328731
28	0xbc4f542c	-0.0126543455
29	0x3b8f9cac	0.0043826904
30	0x3c2b6dbd	0.010463175
31	0x3c03dcf6	0.008048287

MLP.8.weight f4 [32, 32]
0	0xbde9eb4c	-0.114218324
1	0xbdcde8a6	-0.1005414
2	0x3e2fdae0	0.17173338
3	0xbbb7cc8b	-0.0056091
4	0x3d781378	0.06056544
5	0xbd240387	-0.040042426
6	0xbe04561f	-0.12923478
7	0xbd5a6e4a	-0.053327836
8	0xbcf1eb69	-0.029531198
9	0xbdcbe316	-0.099554226
10	0x3da9b573	0.08286562
11	0xbde2ebe3	-0.11080148
12	0x3dad1388	0.08450991
13	0x3c1aca1b	0.0094476
14	0xbe037f9d	-0.1284165
15	0xbb939fa6	-0.0045051156
16	0xbd929be6	-0.071586415
17	0x3c21849d	0.009858278
18	0xbcd68df9	-0.026190745
19	0x3e08d973	0.133642
20	0xbde932f7	-0.11386674
21	0x3dd5b6c9	0.10435254
22	0xbd7e23a3	-0.062045705
23	0xbd1a86d0	-0.037726223
24	0x3d96f0d1	0.07370151
25	0xbd20bac7	-0.039240625
26	0xbe1b5437	-0.15168844
27	0xbd782340	-0.060580492
28	0xbe0790ec	-0.13238877
29	0xbb02ba7e	-0.0019947584
30	0xbdccec4b	-0.10006007
31	0x3c31ecf2	0.010859715
32	0x3e186445	0.14882
33	0x3e1d1516	0.15340075
34	0x3deba817	0.1150667
35	0x3dcf05d8	0.101085365
36	0xbdf540a9	-0.119752236
37	0x3d7a859e	0.061162584
38	0xbd272b25	-0.04081263
39	0xbd80a088	-0.06280619
40	0xbd6467e7	-0.05576315
41	0xbe1e265c	-0.1544432
42	0xbd999165	-0.07498435
43	0xbda13df0	-0.07873142
44	0xbbf46a26	-0.007458943
45	0x3d8ced24	0.068811685
46	0x3e153150	0.14569592
47	0x3debb1ce	0.11508523
48	0xbc2b4b8d	-0.010455024
49	0xbdc4055a	-0.09571333
50	0x3d44f758	0.048087448
51	0xbe104b5b	-0.14091246
52	0xbdab3381	-0.08359433
53	0xba20bb01	-0.00061313814
54	0x3d1c9c17	0.038234796
55	0xbd084e6d	-0.033277918
56	0x3de83e22	0.11339976
57	0x3d817b1e	0.06322311
58	0xbe222958	-0.15836084
59	0x3d925a71	0.071461566
60	0xbd2b18de	-0.041771762
61	0x3dfc463b	0.12318083
62	0xbc236fda	-0.009975398
63	0x3c947e11	0.01812652
64	0x3e24f6fa	0.16109839
65	0x3b352299	0.002763903
66	0x3e2c6969	0.16837086
67	0xbd802212	-0.062564984
68	0x3d545bc3	0.051845323
69	0x3e193ac0	0.14963818
70	0xbdf26e5c	-0.11837456
71	0xbcc705f8	-0.024294838
72	0x3d327222	0.043565877
73	0x3e025120	0.12726259
74	0xbd7f91f1	-0.06239504
75	0x3d95ee9f	0.07320904
76	0x3e13e828	0.1444403
77	0x3daebff8	0.08532709
78	0xbbd4f3e0	-0.0064987987
79	0x3e022c32	0.12712172
80	0xbe1761c5	-0.1478339
81	0x3de0428f	0.10950195
82	0xbdc2cc47	-0.09511619
83	0xbde4a48d	-0.11164198
84	0x3e0f421d	0.13990064
85	0x3b46c00b	0.003032687
86	0x3e030536	0.12794957
87	0xbdd513e7	-0.10404187
88	0xbc1ab22c	-0.009441894
89	0xbd0f002d	-0.034912277
90	0xbddb48ba	-0.10707231
91	0x3db56797	0.08857649
92	0x3df979bc	0.12181422
93	0xbd7578e1	-0.059929732
94	0xbdcb485a	-0.09925909
95	0xbde5272b	-0.11189111
96	0xbe117f96	-0.14208826
97	0xbda90462	-0.08252789
98	0x3e099985	0.1343747
99	0xbe05e2f6	-0.1307486
100	0x3e0aad78	0.13542736
101	0x3d9b3db6	0.0758013
102	0xbdd44bac	-0.10365996
103	0xbe379381	-0.17927362
104	0xbe009e39	-0.12560357
105	0xbdbeb9cf	-0.09312784
106	0x3cb87624	0.022517271
107	0xbe1753c6	-0.14778051
108	0x3d8fbcb4	0.07018414
109	0x3d2b8d62	0.04188288
110	0xbdcafa0f	-0.09910976
111	0x3c8b9930	0.017040819
112	0x3ba82bd0	0.005132176
113	0x3ca94100	0.020660877
114	0x3d6636b8	0.056204528
115	0x3d99a801	0.07502747
116	0xbe1fbfb4	-0.15600473
117	0x3d9e3c95	0.07726399
118	0xbe076fd5	-0.13226254
119	0xbe05b63e	-0.13057801
120	0xbd6f1ad4	-0.058375195
121	0xbe202e7f	-0.15642737
122	0x3e0ff7fb	0.14059441
123	0xbda0c1fe	-0.07849501
124	0xbe0c04e2	-0.13673738
125	0x3c54413d	0.012955007
126	0x3dac7c73	0.08422174
127	0x3da680b5	0.08130018
128	0x3da26f4a	0.07931383
129	0xbd9bba1e	-0.076038584
130	0xbd24d579	-0.040242646
131	0xbdc7fba5	-0.09764794
132	0xbe21d0f5	-0.15802367
133	0xbd99b977	-0.07506078
134	0xbb78bbd3	-0.0037953749
135	0x3db813c5	0.08988146
136	0x3cc2cb20	0.023778498
137	0x3d4fdeba	0.050749518
138	0xbd9b6aa3	-0.07588699
139	0x3dc17072	0.09445275
140	0x3e11e3f8	0.1424712
141	0x3d08b159	0.033372257
142	0x3cd55582	0.02604175
143	0x3c6646fc	0.01405501
144	0xbe036723	-0.12832312
145	0x3de36498	0.11103171
146	0x3d3f5981	0.046716217
147	0xbd8e11f7	-0.0693702
148	0x3d7c7655	0.061636288
149	0xbd554385	-0.052066345
150	0x3c1387c5	0.009004538
151	0xbdadf13c	-0.084932774
152	0xbd5f0e13	-0.05445678
153	0xba357c18	-0.00069230935
154	0x3d1ac7eb	0.037788313
155	0x3cd5fb39	0.026120769
156	0xbdb01ac5	-0.08598856
157	0xbdabd6ed	-0.08390603
158	0xbcb637f5	-0.02224348
159	0xbda57db3	-0.08080616
160	0x3d0dc7df	0.03461444
161	0xbe3b00bd	-0.18262
162	0xbdeef4b7	-0.116677694
163	0x3dd046a0	0.10169721
164	0xbda0410f	-0.07824909
165	0x3dbf6d9c	0.09347078
166	0x3e19037f	0.1494274
167	0xbd8cbd1c	-0.06872007
168	0x3df7454c	0.12073764
169	0xbc68e4fb	-0.014214749
170	0x3df6f9c6	0.12059359
171	0xbc3a7784	-0.011381034
172	0xbda8b0db	-0.082368575
173	0xbb2c3c5a	-0.002628109
174	0x3d1e9900	0.03872013
175	0xbdb5b251	-0.08871902
176	0xbdd89a34	-0.10576287
177	0xbd51f273	-0.05125661
178	0xbcf8e6cd	-0.030383492
179	0xbe153a38	-0.1457299
180	0x3ce83f1e	0.02835041
181	0x3dcae0f4	0.09906188
182	0xbe1fcb98	-0.15605009
183	0x3db3760c	0.0876275
184	0xbd263122	-0.0405742
185	0x3d2ba948	0.041909486
186	0xbde59fab	-0.11212095
187	0x3e019ae1	0.12656738
188	0xba938996	-0.0011256214
189	0x3d2c18ac	0.042015716
190	0x3c7e631d	0.01552656
191	0xbcfaf1bd	-0.030632848
192	0xbd3c6227	-0.045992043
193	0x3e40e1bd	0.18836112
194	0xbdcc40e8	-0.099733174
195	0x3cc87cba	0.024473537
196	0x3d379d01	0.044827465
197	0x3c3e6aff	0.01162219
198	0xbe3342fa	-0.17506018
199	0x3d79837e	0.060916416
200	0xbdf873f7	-0.121314935
201	0x3e17fcb6	0.14842495
202	0x3d6d05cf	0.057866868
203	0xbc26a046	-0.010170048
204	0xbe1180bc	-0.14209265
205	0x3d69ec3f	0.057110067
206	0x3d968d2e	0.07351147
207	0xbd4774b6	-0.04869529
208	0x3dc3e4ca	0.095651224
209	0x3d573f7f	0.05255079
210	0x3dc1fc9e	0.09472011
211	0x3d073fe4	0.033019915
212	0x3d24a76a	0.04019872
213	0xbe2aba22	-0.16672567
214	0xbe247687	-0.1606084
215	0x3d002fe5	0.031295676
216	0xbcd9b842	-0.026577119
217	0x3c7cf414	0.015439052
218	0xbc75c6dd	-0.015001026
219	0xbe3868ce	-0.1800873
220	0x3cb90ead	0.022590006
221	0x3d0ff3ef	0.035144743
222	0xbd532aa0	-0.051554322
223	0xbcc74d0d	-0.024328733
224	0x3d4cd733	0.050009917
225	0x3d1b2d1e	0.037884824
226	0xbd2201a3	-0.039552342
227	0xbe01f186	-0.1268979
228	0x3d973c8e	0.07384597
229	0x3e0f3cee	0.13988087
230	0xbdf93647	-0.12168556
231	0xbd988aa0	-0.074483156
232	0xbcc476d1	-0.023982437
233	0x3d9ec93e	0.07753228
234	0x3b81b5a5	0.0039584213
235	0x3e0aceb5	0.13555415
236	0xbd08d1e9	-0.03340331
237	0xbd3711b4	-0.044694617
238	0xbd94e7fc	-0.0727081
239	0x3de4d4bb	0.111733876
240	0xbe1b9fd4	-0.15197688
241	0x3d813d6f	0.06310546
242	0xbcdbca42	-0.026829842
243	0x3d1d1455	0.03834947
244	0x3ce57373	0.028009152
245	0x3df4ee9b	0.11959573
246	0x3e101db6	0.14073834
247	0xbdb2e057	-0.08734196
248	0x3d08c6e4	0.033392802
249	0x3e1c0186	0.15234956
250	0xbbeab570	-0.0071627423
251	0xbdde2845	-0.108475246
252	0x3d1c3ce0	0.038143992
253	0xbda8194d	-0.08207951
254	0xbe21c407	-0.15797435
255	0xbcaaf685	-0.020869503

MLP.8.bias f4 [32]
0	0x3d2d8bb3	0.042369556
1	0x3e0ad265	0.13556822
2	0x3d30e251	0.043184582
3	0xbe07119b	-0.1319031
4	0x3d56bd28	0.052426487
5	0x3bae14ff	0.0053125615
6	0xbd807f40	-0.06274271
7	0xbdfc3797	-0.123152904
8	0xbe15a0fd	-0.14612193
9	0xbbb90717	-0.005646597
10	0xbce41910	-0.027843982
11	0x3e215da1	0.15758373
12	0x3ba85a05	0.0051376843
13	0xbb498d12	-0.003075425
14	0x3d46d52c	0.04854314
15	0xbd1cc163	-0.038270365
16	0x3dc0e7b9	0.094191976
17	0xbe1306a6	-0.14358005
18	0x3e1801be	0.14844415
19	0x3dc0a8ce	0.09407197
20	0x3dd0e903	0.102006935
21	0xbdf7bb51	-0.12096275
22	0xbd6ba114	-0.057526663
23	0x3cdbd3d9	0.026834415
24	0x3c18700c	0.009304058
25	0x3e122078	0.14270198
26	0xbba3bd6f	-0.0049969475
27	0xbbb9e70d	-0.0056732954
28	0x3ceef7fa	0.029170979
29	0xbb387678	-0.0028146785
30	0xbd08ebf9	-0.033428166
31	0x3e211506	0.15730676

MLP.10.weight f4 [32, 32]
0	0xbd83b36e	-0.06430708
1	0xbd8abc80	-0.06774235
2	0xbdd002da	-0.10156794
3	0xbd3f66fd	-0.046729077
4	0x3d171e76	0.036894284
5	0x3daa90a0	0.08328366
6	0xbcbb326d	-0.022851193
7	0xbb01ab71	-0.0019786025
8	0x3da17d14	0.07885185
9	0xbd1dcbe0	-0.03852451
10	0xbdf20fac	-0.118193954
11	0xbd6d3f21	-0.057921533
12	0x3cbb88a4	0.022892304
13	0x3dcd9c5b	0.10039588
14	0xbd538632	-0.05164165
15	0xbcf206c3	-0.02954424
16	0x3ddca3cc	0.10773429
17	0x3dd7000b	0.10498055
18	0x3d355a31	0.044275466
19	0x3dd88a33	0.105732344
20	0x3d8e949a	0.06961937
21	0x3e1f9ce5	0.15587194
22	0xbcfd6ccc	-0.030935667
23	0xbca3e4d9	-0.020006584
24	0x3d53fa37	0.051752295
25	0xbd14c88c	-0.03632407
26	0xbad52e74	-0.0016264454
27	0x3d30187e	0.042992108
28	0xbdd4372d	-0.103620864
29	0x3dfb4119	0.12268276
30	0x3c4b75c9	0.012418219
31	0x3d15c986	0.03656914
32	0x3cfc398e	0.030789163
33	0xbd2de828	-0.04245773
34	0xbd4984a8	-0.049198776
35	0xbb9a7e13	-0.0047147362
36	0x3dac3c46	0.08409934
37	0xbd3dbe13	-0.046323847
38	0xbc380cee	-0.011233551
39	0x3b1b1e8d	0.0023669333
40	0x3d382c46	0.044964097
41	0x3d314fa1	0.04328883
42	0xbc507c0b	-0.012724887
43	0xbe0dcc84	-0.13847548
44	0x3cb1e67f	0.021716354
45	0xbdfed404	-0.124427825
46	0x3d43cfbb	0.04780553
47	0xbbac3b4c	-0.005256092
48	0x3d876192	0.06610407
49	0x3c7dbcc4	0.0154869
50	0x3df5a126	0.11993627
51	0xbe2306ac	-0.15920514
52	0x3d2453d7	0.04011902
53	0xbe14e74b	-0.14541356
54	0xbd9615d3	-0.073283814
55	0x3d986542	0.074411884
56	0xbe05fd86	-0.13084993
57	0x3df89a29	0.12138779
58	0xbbd6ee65	-0.0065591806
59	0x3d7924ff	0.060826298
60	0x3e28dd3a	0.16490641
61	0xbe2707a5	-0.1631151
62	0xbc8fea76	-0.017567854
63	0x3da881dd	0.082278945
64	0xbdea7e2c	-0.114498466
65	0xbcafef6c	-0.02147647
66	0xbe0c1439	-0.1367959
67	0xbc385d77	-0.0112527525
68	0x3dba0835	0.090835966
69	0x3dac13ff	0.084022515
70	0x3e44e6e6	0.19228706
71	0xbdadaf32	-0.084806815
72	0xbc42f5e0	-0.0118994415
73	0x3de8ed29	0.1137336
74	0x3d973c46	0.07384543
75	0x3e0a5556	0.13509116
76	0x3e36c62b	0.17849033
77	0x3d0417fa	0.03224943
78	0xbd6c8ac5	-0.05774953
79	0x3c211572	0.009831773
80	0xbbfc9cc8	-0.0077091195
81	0x3dd70da4	0.105006486
82	0xbd60281e	-0.05472576
83	0x3df7e667	0.12104493
84	0xbde5b92a	-0.11216958
85	0x3d64b9c5	0.055841226
86	0xbdbfdb5c	-0.09368011
87	0xbd54a007	-0.051910426
88	0xbe08ea5a	-0.13370648
89	0xbe58c4bb	-0.21168797
90	0xbbab8814	-0.0052347276
91	0x3ae1b3a8	0.001721968
92	0x3d1975e0	0.03746593
93	0x3d9cf9d3	0.07664838
94	0xbcf4f052	-0.02989975
95	0xbe3c1007	-0.18365489
96	0x3ba439c8	0.005011771
97	0x3e2c20aa	0.16809335
98	0xbdfff357	-0.12497585
99	0xbde59a2a	-0.11211045
100	0xbdc19c36	-0.09453623
101	0x3e2b7b68	0.16746294
102	0x3cbfde23	0.023421353
103	0xbdfdab1c	-0.12386152
104	0xbe0129cd	-0.12613602
105	0xbd8e8cf4	-0.069604784
106	0xbe043589	-0.12911047
107	0x3de13ed7	0.10998314
108	0x3e0e7803	0.13912968
109	0x3e238c1b	0.15971415
110	0x3dcc3b06	0.09972195
111	0x3cdf1720	0.027232707
112	0x3dc1e5ad	0.09467635
113	0x3dcbd9c4	0.09953645
114	0x3dbcb55c	0.09214279
115	0xbe198f30	-0.14996028
116	0xbca38b5a	-0.019963909
117	0x3c04a373	0.00809561
118	0xbdc0d28a	-0.09415157
119	0xbe09777f	-0.1342449
120	0x3cbea9cb	0.023274323
121	0x3e2d5df1	0.16930367
122	0xbcf08c22	-0.029363696
123	0xbc830c30	-0.015997022
124	0xbc892a9b	-0.016743949
125	0xbd41c646	-0.04730823
126	0x3d2e3a18	0.04253587
127	0x3db1bdd5	0.08678786
128	0x3da207a3	0.07911613
129	0xbdae89c9	-0.08522374
130	0x3e195de1	0.14977218
131	0x3d97fcf8	0.07421297
132	0x3d10043e	0.035160296
133	0xbd4c3408	-0.04985431
134	0x3dc9aebb	0.0984778
135	0xbdb71319	-0.089391895
136	0x3d0b8264	0.034059897
137	0x3d49ae17	0.04923829
138	0xbe0d16c7	-0.1377822
139	0x3d4e85e2	0.05042065
140	0xbdaf91d5	-0.08572737
141	0xbe34c1c6	-0.17652044
142	0xbd91305a	-0.070893005
143	0x3d603327	0.054736283
144	0xbd6cb32a	-0.05778805
145	0x3ba620b0	0.0050698146
146	0x3e007279	0.12543668
147	0x3dca34f2	0.0987338
148	0xbcc5ac4e	-0.024130013
149	0xbdfaf686	-0.12254052
150	0x3d8f2664	0.06989744
151	0xbdebc940	-0.11512995
152	0xbd08500e	-0.03327947
153	0x3c7b6e92	0.015346186
154	0x3ccb0f40	0.024787545
155	0x3dc4b351	0.096045144
156	0x3d0d20f6	0.034455262
157	0xbdd6cc18	-0.104881465
158	0x3c519d4b	0.012793849
159	0xbe12234c	-0.14271277
160	0x3d407c1d	0.046993364
161	0xbdda76a8	-0.10667163
162	0xbd8dea6b	-0.06929477
163	0x3b8dd4b3	0.0043283342
164	0x3c3da2ac	0.0115744285
165	0x3ce1dd5f	0.027571378
166	0xbda0ff83	-0.07861235
167	0x3d80ffc9	0.06298787
168	0xbe12fc4a	-0.14354053
169	0xbdcd8916	-0.10035913
170	0x3d7d85b6	0.061895095
171	0x3e27558b	0.16341226
172	0x3d8b2803	0.06794741
173	0xbe2df18e	-0.16986677
174	0xbe0edaf1	-0.13950707
175	0x3d0f6ae4	0.03501405
176	0x3cf0c744	0.029391892
177	0x3d9cdff8	0.07659906
178	0x3dd779ca	0.10521276
179	0x3e27d585	0.16390045
180	0xbca167cd	-0.019702816
181	0x3db0738f	0.08615791
182	0x3d9052f9	0.07047076
183	0x3da263d7	0.07929199
184	0xbd4ca679	-0.04996345
185	0x3c98547b	0.01859497
186	0xbd8d0feb	-0.06887802
187	0x3bdc3b3b	0.006720928
188	0xbd2a9d71	-0.041654054
189	0xbd25b23a	-0.040453173
190	0xbcaac5f5	-0.020846346
191	0x3e21b6d9	0.15792407
192	0x3d703973	0.058648538
193	0x3e08d074	0.13360769
194	0xbdc7b08b	-0.0975047
195	0xbdfe7ba5	-0.12425927
196	0xbd995bcd	-0.07488213
197	0xbe0e123a	-0.1387414
198	0xbd5010bd	-0.050797213
199	0x3c8b9d32	0.01704273
200	0xbdb5f2a8	-0.08884174
201	0x3e20cd8b	0.15703408
202	0x3ae3265e	0.001733016
203	0x3d6da2e1	0.05801666
204	0x3db85f59	0.09002561
205	0xbd2af49d	-0.041737188
206	0xbc84b4a2	-0.016199414
207	0xbd44f679	-0.048086617
208	0x3d570cae	0.052502327
209	0x3d9458de	0.072435126
210	0x3d237ba1	0.039912824
211	0x3d3f9300	0.04677105
212	0xbcdef009	-0.027214067
213	0xbcc19f2b	-0.023635468
214	0x3ca6d98a	0.020367403
215	0xbdc5f108	-0.09665114
216	0x3ce7d707	0.028300775
217	0x3df39149	0.11892945
218	0x3ca204e3	0.01977772
219	0xbdc2eb03	-0.09517481
220	0xbd33754e	-0.043813042
221	0x3d306fb5	0.043075282
222	0x3d3bbdc0	0.045835257
223	0x3c4ae40d	0.012383473
224	0xbd9465a4	-0.07245949
225	0x3d5ab150	0.053391755
226	0x3b819344	0.003954323
227	0xbe1089e2	-0.14115098
228	0xbe2e6ca3	-0.17033629
229	0x3cd7ef0f	0.02635911
230	0xbe183aa3	-0.14866118
231	0xbcbe5feb	-0.023239097
232	0x3dbc7b83	0.092032455
233	0xbda4aa5d	-0.08040307
234	0x3dedc5c8	0.116099894
235	0xbcca6a11	-0.02470878
236	0x3d0fbdd6	0.03509315
237	0xbc6b0724	-0.014344964
238	0x3d2e5e7f	0.042570587
239	0xbbedd3b6	-0.007257904
240	0x3dba7433	0.091041945
241	0xbde27458	-0.11057347
242	0x3b542f5f	0.0032376868
243	0x3e004a4f	0.12528346
244	0x3d877943	0.06614926
245	0xbe1cc7eb	-0.15310638
246	0xbd450523	-0.048100602
247	0xbddecf23	-0.10879352
248	0xbdddbf3d	-0.108274914
249	0x3d3a2f7a	0.045455433
250	0xbd28ce2f	-0.041212257
251	0xbd2b7279	-0.041857217
252	0x3d3f1684	0.046652332
253	0x3db25958	0.08708447
254	0xbc580a8a	-0.013186106
255	0x3e16d4b3	0.14729576

MLP.10.bias f4 [32]
0	0x3e1c75fc	0.15279382
1	0xbe2d40e8	-0.16919291
2	0x3dbc48ba	0.09193559
3	0xbc682251	-0.014168338
4	0x3d7fc7ad	0.062446285
5	0xbda7e224	-0.0819743
6	0x3e0007f2	0.12503031
7	0xbe05062a	-0.12990633
8	0xbd8740df	-0.0660417
9	0xbdafaab2	-0.085774794
10	0x3e22ea9e	0.15909812
11	0xbe14166e	-0.14461681
12	0x3dc3f1ea	0.09567626
13	0x3dd7c0ae	0.105347976
14	0xbc33ec6d	-0.010981661
15	0x3dadce3a	0.084866
16	0xbe099b5e	-0.13438174
17	0x3e26d942	0.16293815
18	0xbe2ee36a	-0.17078939
19	0x3d30a935	0.04313012
20	0x3db6fbdf	0.08934759
21	0xbd96efe6	-0.07369976
22	0x3c82160a	0.01587965
23	0xb99a9391	-0.00029483114
24	0x3e2fd0b6	0.1716946
25	0xbdb88a36	-0.09010737
26	0xbd8b70ab	-0.06808599
27	0x3dbea2e0	0.0930841
28	0x3db9329f	0.09042858
29	0x3cb92b9b	0.0226038
30	0x3db42930	0.087969184
31	0xbda26d1a	-0.07930966

MLP.11.weight f4 [32]
0	0x3f6fafb1	0.9362746
1	0x3f5ddf8c	0.8666923
2	0x3f6a2819	0.91467434
3	0x3f665457	0.8997244
4	0x3f6f4db8	0.93477964
5	0x3f6fe829	0.93713623
6	0x3f70b434	0.9402497
7	0x3f69394f	0.9110307
8	0x3f6b040e	0.9180306
9	0x3f6497bd	0.89294034
10	0x3f6fe412	0.9370738
11	0x3f631f81	0.88719946
12	0x3f5b0e63	0.8556883
13	0x3f520015	0.82031375
14	0x3f66887f	0.90052027
15	0x3f709fda	0.93993914
16	0x3f4acce1	0.7921887
17	0x3f503ac8	0.81339693
18	0x3f5ccb00	0.86247253
19	0x3f6a6a28	0.9156823
20	0x3f6c2d91	0.9225703
21	0x3f691718	0.91050863
22	0x3f60b477	0.8777537
23	0x3f67bcbe	0.9052237
24	0x3f4731eb	0.77810544
25	0x3f59f61d	0.85141164
26	0x3f5b6b5d	0.857107
27	0x3f5b4c86	0.8566364
28	0x3f6656f9	0.8997646
29	0x3f676f97	0.9040465
30	0x3f6e4451	0.9307299
31	0x3f5a7a56	0.8534292

MLP.11.bias f4 [32]
0	0x3c0f8ecf	0.008762076
1	0x3c450819	0.012025856
2	0x3c2692f1	0.0101668695
3	0x3b6175b6	0.0034402437
4	0xbb34c32e	-0.0027582156
5	0xbb2b6ff2	-0.0026159254
6	0x3c3d8c6c	0.011569124
7	0xbc602b6f	-0.01368223
8	0x3b6dfc54	0.003631373
9	0x3a71330b	0.00092010264
10	0x3c686c71	0.014186011
11	0x3bd5855b	0.0065161414
12	0x3c015ff9	0.007896417
13	0xbc27a80d	-0.0102329375
14	0xbbd20ee7	-0.006410468
15	0x3bb848aa	0.0056238966
16	0x3a96d315	0.0011506999
17	0xbc4f63d7	-0.012658081
18	0xbbfbd0c1	-0.0076847975
19	0xbaac3670	-0.0013138782
20	0x3c17d2b1	0.009266541
21	0xb9e5a2a4	-0.0004379946
22	0x3b4e5820	0.0031485632
23	0x3b2fc7b0	0.0026821904
24	0x3d036c40	0.032085657
25	0x3c7c957c	0.015416499
26	0x3b405741	0.0029348882
27	0xbabe87ef	-0.0014536361
28	0x3b043ce5	0.0020177898
29	0x3b969c96	0.004596303
30	0x3c6810fe	0.0141642075
31	0x3c57d281	0.013172747

MLP.13.weight f4 [4, 32]
0	0xbc1bb42d	-0.0095034065
1	0xbe055311	-0.13019969
2	0xbd3a474c	-0.04547815
3	0xbde829f7	-0.11336129
4	0xbe0243ef	-0.12721227
5	0xbe004e43	-0.12529854
6	0xbe10e0e0	-0.14148283
7	0x3d2d5752	0.042319603
8	0x3dadfd95	0.084956326
9	0xbe13e617	-0.14443241
10	0x3ca08501	0.019594671
11	0x3c474a2e	0.012163682
12	0xbcabc547	-0.020968093
13	0xbafce3db	-0.001929398
14	0x3d90e50d	0.07074938
15	0x3e19fc41	0.15037633
16	0x3d7f39b3	0.062310886
17	0x3c336b0a	0.010950813
18	0x3ca41198	0.02002792
19	0x3c839fc9	0.016067402
20	0x3e10044a	0.14064136
21	0xbd32b4ad	-0.043629337
22	0xbdabf316	-0.08395974
23	0x3e02bc86	0.12767228
24	0xbc2ce883	-0.010553482
25	0x3c1d681a	0.009607339
26	0xbd708fbc	-0.058730826
27	0xbafc2cb9	-0.0019239403
28	0xbe091eb3	-0.13390617
29	0xbe2112e3	-0.15729861
30	0x3e2855fa	0.16439047
31	0x3dba5a1c	0.09099218
32	0x3c7393da	0.0148667935
33	0xbb551f57	-0.00325199
34	0x3bb51399	0.005526018
35	0xbd322f1c	-0.04350196
36	0x3d1eacaa	0.038738884
37	0x3c8fdb15	0.017560521
38	0x3c35aa15	0.011087914
39	0x3b8ede03	0.004359962
40	0x3d7a12b9	0.06105301
41	0xbc78442e	-0.015152974
42	0x3cbb9b9f	0.022901354
43	0xbb302318	-0.0026876386
44	0xbc956e3f	-0.018241046
45	0x3d0c04c1	0.03418422
46	0xbd3c4440	-0.045963526
47	0x3cc8f4f1	0.02453086
48	0xbc374c1a	-0.011187578
49	0x3c760b71	0.015017376
50	0xbc46add1	-0.012126402
51	0x3c8b7be2	0.017026845
52	0x3c61a913	0.013773221
53	0xbd042e6b	-0.03227083
54	0xbd159e48	-0.036527902
55	0xbd810095	-0.06298939
56	0x3c2001c0	0.009766042
57	0xbd549e46	-0.051908754
58	0xbc843275	-0.016137341
59	0x3cdecf85	0.027198562
60	0x3ca1cdd8	0.019751474
61	0xbd2c46b5	-0.04205962
62	0x3ac5a301	0.0015078486
63	0xbd18ba5c	-0.0372871
64	0xbc821d1b	-0.01588302
65	0x3bc108b8	0.005890932
66	0x3e259591	0.16170336
67	0x3db18bee	0.086692676
68	0x3d7ce1cd	0.061738778
69	0x3e0c5836	0.13705525
70	0xbdd7f507	-0.10544782
71	0xbde62733	-0.112379454
72	0xbd474f75	-0.04865976
73	0xbd785bab	-0.060634296
74	0xbdb8810e	-0.0900899
75	0xbdc52650	-0.09626448
76	0x3dccc374	0.09998217
77	0x3d471af5	0.048609693
78	0x3dfb5c5f	0.12273478
79	0xbdd8e75d	-0.10591004
80	0xbd468829	-0.048469696
81	0xbd8546ae	-0.06507622
82	0x3d9facd4	0.07796636
83	0xbde2655c	-0.11054489
84	0xbd409704	-0.04701902
85	0xbdcaf684	-0.099103004
86	0xbd683b53	-0.0566972
87	0x3d413431	0.047168914
88	0xbdd826db	-0.10554286
89	0xbd30e2ff	-0.04318523
90	0xbd13840a	-0.036014594
91	0x3da85dd7	0.082210235
92	0xbcb3385e	-0.021877464
93	0xbc6671c4	-0.01406521
94	0x3d0852f4	0.033282235
95	0xbd2084e9	-0.039189253
96	0x3e059ced	0.13048144
97	0xbc406019	-0.0117416615
98	0xbcb22c45	-0.021749625
99	0x3ce57650	0.028010517
100	0xbdeba430	-0.11505926
101	0x3dfca73b	0.12336584
102	0xbd8980ec	-0.06714043
103	0x3dbd1bae	0.09233795
104	0x3cee65f7	0.029101355
105	0xbbc5fbb6	-0.006041969
106	0x3dd5894d	0.10426579
107	0x3d9aaf48	0.075529635
108	0xbc97d6b6	-0.018535
109	0xbcc9996a	-0.024609286
110	0xbc8aa214	-0.016922988
111	0xbd859d66	-0.06524162
112	0x3cb94f49	0.022620814
113	0x3d28fd1e	0.041257016
114	0x3d2e07a6	0.042487763
115	0x3d866fcf	0.065642945
116	0xbde5d271	-0.11221779
117	0xbd01a7bd	-0.03165411
118	0xbb819790	-0.0039548352
119	0x3d8d57dd	0.06901524
120	0xbd845c2b	-0.06462892
121	0xbd082b39	-0.033244345
122	0x3d8360aa	0.064149216
123	0xbd69e15b	-0.05709968
124	0xbcfd1a5a	-0.030896354
125	0xbd017455	-0.031605083
126	0xbd8f99d9	-0.07011766
127	0x3c7f99c8	0.015600629

MLP.13.bias f4 [4]
0	0xbe0a39d3	-0.1349862
1	0x3b506b31	0.0031802172
2	0x3dc8d252	0.098057404
3	0x3df8b384	0.12143615
