example/model/diff_robot_default/model_500.pth (torch, 24588 bytes, 18 tensors)

MLP.0.weight f4 [32, 2]
000000 de f0 d7 3e ce 49 ae be 47 d6 a2 3e bc dc f5 3e
       0.42175955 -0.34040684 0.31804106 0.4801997
000010 bc c5 5e bd 95 b2 e9 3e 6c 94 05 be 81 e4 68 3e
       -0.054387793 0.4564406 -0.130449 0.22743417
000020 70 b2 c3 3e 4a 7e 23 3f 8f 3a 7e 3e 54 e5 84 3e
       0.38222075 0.63864577 0.24827026 0.25956213
000030 1f 94 c4 be ec 42 11 bf 40 e2 1d bf 7a a4 4e 3e
       -0.38394257 -0.5674274 -0.61673355 0.2017993
000040 d4 02 34 3f c1 33 93 be f6 20 fb 3d 5f e5 c2 3e
       0.70316815 -0.28750423 0.12262146 0.3806562
000050 63 25 bb be e2 3a 10 3f e5 3c 06 3f d2 1e 08 bf
       -0.3655196 0.5633985 0.5243667 -0.5317203
000060 f9 ab 49 be e6 06 24 3f 61 b3 c1 bd 61 82 1c 3f
       -0.19694509 0.64073026 -0.09458042 0.6113644
000070 c1 4d 2e 3f eb 77 39 3e 46 e6 05 be 5d f8 12 3f
       0.68087393 0.18112151 -0.13076124 0.5741022
000080 68 ad 36 3e 31 d1 bf 3e 3c 10 2f bc 22 37 3b 3e
       0.17839587 0.37464288 -0.010685023 0.1828275
000090 d5 85 ce bc 74 77 2a 3f 8d cd 50 be 0d 28 2c bc
       -0.0252103 0.6658852 -0.20390911 -0.010507596
0000a0 6a 40 be 3e 25 e5 73 bd 21 3a fa bc e3 fd 0d bf
       0.3715852 -0.0595447 -0.030545296 -0.55465525
0000b0 e3 3c 0a bf 91 57 f8 3e 5c f4 19 bf fc 51 aa 3d
       -0.53999156 0.48504308 -0.6013849 0.083164185
0000c0 1b f5 05 bf 35 49 fd 3d ec bc 01 bd de 20 1b be
       -0.52327126 0.12367479 -0.03167431 -0.15149257
0000d0 92 b9 ab be ce e1 b6 3d 29 43 90 3e af fb 06 bf
       -0.33540016 0.089297876 0.2817624 -0.5272779
0000e0 64 87 38 bf 80 cd 67 be b0 d3 07 be 5a f7 47 3d
       -0.7208159 -0.22636986 -0.13264346 0.048819877
0000f0 50 73 57 bd eb 6b 51 3e dc d0 1d bf 4a 93 96 3d
       -0.052600205 0.20451324 -0.6164682 0.07352312

MLP.0.bias f4 [32]
000000 64 2f e5 3e d6 13 bf bb 9b df 19 3f 8c ed 3b be
       0.4476272 -0.005831222 0.6010682 -0.18352336
000010 2d e0 11 be 2e 2f a3 be 2c ac 73 be 68 22 02 3f
       -0.14245673 -0.31871933 -0.23796147 0.5083375
000020 04 54 6e 3e 5a 48 66 bd 46 da de 3e 87 20 66 be
       0.23274237 -0.056221344 0.43525904 -0.22473346
000030 53 09 f0 be a8 fc 7c 3d e7 9c 9a be f2 2a 98 3e
       -0.46882114 0.06176439 -0.30197832 0.29720265
000040 d8 bb 93 3d 16 87 11 bf dd 27 3b 3e d2 df 17 3f
       0.07213563 -0.5684675 0.18276925 0.593259
000050 6e 4e fd 3e 9a c8 00 3d e4 b0 b0 be d7 ce 0e be
       0.494739 0.03144131 -0.34509957 -0.1394609
000060 42 a9 5c be 5d 14 30 be cf 21 c1 be 7d 88 38 3d
       -0.21548942 -0.17195268 -0.37721106 0.04505204
000070 6d b9 dc be 29 d9 14 bf 7c 03 a5 3e 95 44 02 bf
       -0.4311022 -0.5814386 0.3222922 -0.508859

MLP.1.weight f4 [32]
000000 b3 12 65 3f 26 e9 79 3f 32 7b 77 3f 59 10 6d 3f
       0.8948166 0.9762138 0.96672356 0.9260307
000010 ae 14 74 3f 11 6e 78 3f fd dc 6e 3f ef 1e 81 3f
       0.95344055 0.9704295 0.9330595 1.0087565
000020 27 d6 67 3f cb 92 70 3f f9 9c 77 3f ae ba 67 3f
       0.90561146 0.9397399 0.96723896 0.90519226
000030 0a c0 7c 3f ec 22 72 3f 19 18 81 3f 0b 3d 70 3f
       0.9873053 0.94584537 1.0085479 0.93843144
000040 e6 c8 71 3f b8 e2 5b 3f 8f be 6d 3f 9c e0 78 3f
       0.9444717 0.8589282 0.92868894 0.97217727
000050 2a ba 70 3f 83 44 74 3f 94 f3 75 3f 15 b7 65 3f
       0.94034064 0.9541704 0.96074796 0.89732486
000060 8d 82 76 3f d5 20 6f 3f f5 2f 6e 3f c0 ca 6b 3f
       0.96292955 0.9340947 0.93041927 0.92106247
000070 00 60 7d 3f e0 bb 76 3f 48 47 47 3f dc 53 71 3f
       0.9897461 0.96380424 0.7784314 0.94268584

MLP.1.bias f4 [32]
000000 52 d9 d9 3b 92 12 68 bb 65 dc 5a bb ac ba 9b bb
       0.006648221 -0.003541146 -0.0033395526 -0.0047524776
000010 60 a8 3b 3c ab 0e 7e 3b 1f f0 48 3c 76 e0 ca bc
       0.011453718 0.0038766067 0.012264281 -0.024765234
000020 33 fb e2 3c 24 57 1c bc c2 d2 50 3c 7f 28 54 3c
       0.027707672 -0.00954226 0.012745561 0.012949108
000030 5c 03 dc bb ed e1 3a bb 9e 02 07 bd 11 c5 fc bc
       -0.0067142677 -0.002851601 -0.03296148 -0.030855687
000040 89 fe 80 3c 9a a1 65 3c 7f 54 c6 bb 73 7d 1e ba
       0.015746372 0.01401558 -0.006052553 -0.0006045915
000050 ee eb 8c 3c 60 df 37 3c ca 60 9e 3c 28 38 d4 3c
       0.017202344 0.01122269 0.019333262 0.025905684
000060 d1 15 26 3b d6 88 91 bc 9a be 1f ba f7 b0 22 3c
       0.0025342593 -0.017765444 -0.00060937705 0.009929887
000070 23 9e 54 3c c5 0d 93 3c 56 0f d0 3c 60 e2 bd 3a
       0.012977156 0.017950902 0.025397938 0.0014487021

MLP.3.weight f4 [32, 32]
000000 56 40 de bd 6e 56 1d 3d 48 1f 20 be 4b b1 27 3e
       -0.10852115 0.038412504 -0.15636933 0.16376226
000010 a3 91 79 bd 3a 34 85 bd cf 92 3a be c4 38 86 3d
       -0.060929906 -0.06504102 -0.18220066 0.06553796
000020 f3 1e c1 3d 1e ab 02 be 6b eb df 3d c4 11 7e 3d
       0.09429731 -0.12760589 0.10933574 0.06202866
000030 c4 a3 a2 bd 2a e1 34 3d 66 4a cf 3d fe 91 1d 3e
       -0.07941392 0.044160046 0.10121612 0.15387723
000040 26 10 38 bd 15 f6 43 3d 73 0f 11 3d bf ed bb 3d
       -0.044937275 0.047842104 0.035415124 0.09176206
000050 28 17 12 be 89 d3 9e bd 0c d5 11 bd 95 e9 01 3d
       -0.14266646 -0.07755191 -0.035603568 0.0317169
000060 12 90 04 be 9a 31 df 3c f5 bd f9 3d 57 f4 95 bd
       -0.12945583 0.027245332 0.121944346 -0.07321995
000070 d2 19 13 3e 8f b6 b8 bd 5d e8 cb bd 14 7f 0b be
       0.14365318 -0.09019195 -0.09956429 -0.13622695
000080 e0 0c 5c bc 59 69 ba 3d 59 d5 81 bd a3 77 9e 3d
       -0.013430804 0.09102125 -0.06339521 0.07737663
000090 63 9e c3 bc 03 d3 13 be 75 ec 1d 3d 85 8f 5b 3d
       -0.023879236 -0.14435963 0.03855558 0.053603668
0000a0 a1 f9 17 3e 27 e5 e7 bc 76 18 a1 3d 42 84 ce bd
       0.1484132 -0.02830751 0.07865994 -0.1008382
0000b0 c3 a8 09 bc 4c 25 08 bd 78 df 23 be dd 46 42 3d
       -0.008402052 -0.033238694 -0.16003215 0.04743086
0000c0 54 31 86 3d f7 90 61 3d cb b1 cb 3c e6 f3 0c be
       0.06552377 0.05506989 0.024865052 -0.13764915
0000d0 a9 25 af bd e9 f0 2c 3e 68 61 c0 3c dd ec 1e be
       -0.08552105 0.16888775 0.023483947 -0.15520044
0000e0 fe 4a 20 be 9f 09 1f 3e 77 37 33 bd a2 4d c5 bd
       -0.15653607 0.15531014 -0.043754067 -0.09633948
0000f0 bd a4 27 be e9 91 03 be 83 06 2b be ad e1 59 3d
       -0.16371436 -0.12848629 -0.16701703 0.053193737
000100 a2 5c 11 3e a2 e1 21 bc c8 9d 83 3c b2 fb 0f 3e
       0.14195493 -0.009880455 0.016066447 0.14060858
000110 1d 2f f0 3d 97 6c 06 3d 81 cf e8 3c 5e b1 86 bc
       0.11727736 0.032818403 0.028419258 -0.016441997
000120 dd b4 62 bd 05 25 90 bd c6 e6 f6 bc 1b 3b 63 3d
       -0.055348266 -0.07038311 -0.030139338 0.05547629
000130 5f b5 2a 3e 73 c7 0c 3e ef f5 11 be 01 f3 bb bd
       0.1667075 0.13747959 -0.14253972 -0.09177209
000140 a4 f3 49 3d e6 56 19 bd 2c f9 c2 3c 39 66 8e 3d
       0.04930462 -0.03743639 0.023800455 0.06953091
000150 53 be 61 3c 33 23 1e 3e 34 44 65 3d 01 13 a2 3d
       0.013778287 0.15443115 0.055973247 0.07913781
000160 14 14 51 3d 21 ea 09 3e eb e0 c6 3d 36 db a1 3d
       0.05104454 0.1346822 0.097108684 0.07903139
000170 cb 72 87 3d 0f f7 cd 3d 3f ad 0b 3e 6b a8 22 3e
       0.06613692 0.10056888 0.13640307 0.15884559
000180 4d 53 42 3d ab 49 81 3d 3b fc 59 bd 64 eb 71 bd
       0.047442723 0.06312879 -0.05321906 -0.059062377
000190 50 0c a3 3d 9e 92 f8 3d ae e8 4f bd d9 c9 37 be
       0.07961333 0.1213734 -0.05075901 -0.17948093
0001a0 ba c2 c1 3d 73 a1 03 bc 9c fe 39 3e 32 23 ed 3c
       0.09460969 -0.008034098 0.18163532 0.028947446
0001b0 81 04 0d be b5 fb 26 bd 2a 28 08 3e 00 0a 80 3d
       -0.1377125 -0.04076739 0.13296571 0.06251907
0001c0 c1 a0 c9 3d 9e ea 14 be 1b 57 08 be 93 42 fa bd
       0.098451145 -0.14542624 -0.13314478 -0.12219729
0001d0 b8 b3 18 3d b5 ad 30 be c6 43 2e bd fb 11 3f 3c
       0.03728077 -0.17253764 -0.042545103 0.011662002
0001e0 71 11 2b be c5 7d 01 be 92 40 f1 bc 27 bf ed 3d
       -0.16705872 -0.12645634 -0.029449735 0.11608725
0001f0 a6 28 e8 3d 16 45 0a bc f4 4a 34 bc ab 3c 7c bd
       0.11335878 -0.008439323 -0.011004198 -0.061581295
000200 78 45 5b 3d 89 06 bc 3d ff e7 f8 bc 1f 8c 74 3d
       0.053533047 0.09180934 -0.030384062 0.059703942
000210 03 79 96 bd 24 31 fb bd 28 77 1a be 7f 4d c1 bd
       -0.073473 -0.12265232 -0.15084517 -0.09438609
000220 87 29 c5 3c 1c 99 ce bd 34 70 cb 3b 22 15 91 3d
       0.024067653 -0.10087797 0.006208444 0.07084109
000230 e3 48 35 3e 6e 21 29 3e 04 e8 de bd 1c db 06 bd
       0.17703585 0.16516659 -0.10884097 -0.032923803
000240 e3 bd e1 3b 26 d0 e5 bb d7 74 0a bc 14 12 0b be
       0.0068890913 -0.0070133386 -0.008450708 -0.13581115
000250 1a 4c ea bd 28 05 d9 3c 43 13 29 bd ed 5a 83 3b
       -0.114402965 0.026491717 -0.041278135 0.004008642
000260 a9 62 31 3e 5b ef 09 3e 85 ed ca 3d 32 af 11 be
       0.17322792 0.13470213 0.099085845 -0.14226988
000270 38 33 d6 bd 2e 90 8b 3d 3f e0 e9 bb 2a 32 3a 3d
       -0.10458988 0.068146095 -0.007137328 0.045457996
000280 36 95 b4 bd a7 c2 fb bd 74 4a 1f be a2 48 19 3e
       -0.08817522 -0.12292986 -0.15555745 0.14969113
000290 28 28 af bc 48 a6 a4 3d 0f 8c 0f be 46 5d 21 3e
       -0.021381453 0.08039528 -0.14018272 0.15758237
0002a0 79 81 5a ba 82 e7 52 bc e6 c2 bb bd 9b 02 88 3d
       -0.0008335333 -0.012872579 -0.09168033 0.06641122
0002b0 3a e1 d0 3d b4 83 0b be f1 dc 20 be b2 fb 11 bd
       0.101992086 -0.1362446 -0.15709282 -0.035640426
0002c0 8b 91 b3 bc c4 5e 03 be 81 b3 34 3e 28 a8 fc bd
       -0.021919986 -0.12829119 0.176466 -0.12336761
0002d0 b7 55 d6 3c 83 8c dc bd b2 cb cf bc 4e 4c 26 3d
       0.026163919 -0.10768988 -0.025365684 0.040600114
0002e0 d0 1e 18 bd 72 be 20 3d c2 79 01 bd 44 52 11 3d
       -0.03713876 0.039244123 -0.031610258 0.035478845
0002f0 27 87 14 3e ea ca 0f be 6d 1f 01 be 3d 7e 03 3e
       0.14504682 -0.1404225 -0.12609644 0.12841125
000300 2c 40 8a 3d 41 d9 1c be ee d2 16 3e 8c f7 72 3d
       0.06750521 -0.15317251 0.14728901 0.05931811
000310 af ef 07 bd de 5f 84 3a 14 83 08 bd 9c 51 16 bd
       -0.033187564 0.0010099371 -0.03332813 -0.036698923
000320 d3 48 ec bd 03 90 a0 3d 51 ca 14 bd 18 6b 94 bd
       -0.115373276 0.07839968 -0.036325756 -0.07246989
000330 4b 80 36 3d 4d 12 24 3e 47 e5 fb 3c 49 86 9f 3d
       0.044555943 0.16022606 0.030748976 0.07789285
000340 2f d6 2d be 80 0c 14 be 33 36 cf 3d e5 db 86 bd
       -0.16976236 -0.14457893 0.101177596 -0.0658491
000350 22 5f 3f 3d c2 18 9e 3d ca 42 84 3c e6 90 1c bd
       0.046721585 0.07719566 0.016145129 -0.038224123
000360 b4 96 9f bd c0 c3 b8 3d 10 46 a3 bd d9 43 c3 bc
       -0.07792416 0.09021711 -0.07972348 -0.023836063
000370 b8 9c 0a 3d 27 88 a4 bd 0d f9 9d 3c 8a 89 fc 3b
       0.033840865 -0.080337815 0.019283796 0.0077068256
000380 74 e8 d1 bc c5 aa 79 bd 1f bc d0 bd f3 f4 83 bd
       -0.025623538 -0.060953874 -0.10192131 -0.06443205
000390 94 3e 30 3e c1 d6 19 3e 95 3f 9e 3c 59 e1 22 3a
       0.17211372 0.15023328 0.019317428 0.0006213389
0003a0 4a 09 da bc 7a 73 85 3d e1 a5 ba 3d 15 9b ae bd
       -0.026615757 0.06516166 0.0911367 -0.08525673
0003b0 cb 1b f0 bd 10 78 24 3e fb 69 c2 3d 2d db b9 bd
       -0.11724051 0.16061425 0.094928704 -0.090750076
0003c0 5e 45 36 3c 6c ec 8c bd db 75 42 bd 50 0f 04 3e
       0.011124937 -0.068810314 -0.047475677 0.12896466
0003d0 af af 39 bc 31 c5 7c 3c fb db 12 3e 74 2e 9e 3d
       -0.01133339 0.0154278735 0.14341728 0.07723704
0003e0 01 9b fb 3d 6a 01 d0 bd 7c 6b d7 3c eb 15 c4 3d
       0.12285424 -0.1015652 0.02629637 0.09574493
0003f0 e2 b3 cd bd ef 09 4d 3d bf d8 db bd 12 e2 2a bc
       -0.100440755 0.0500583 -0.107347004 -0.010429876

MLP.3.bias f4 [32]
000000 ab ac b6 bd 21 1a 94 3d 56 f1 5d 3e a5 bd f6 bd
       -0.089196526 0.07231546 0.21674094 -0.120478906
000010 2f 2d 02 3e 8c 23 61 3d 9a 2f 27 be 75 d4 54 bd
       0.12712549 0.05496554 -0.16326752 -0.051960427
000020 a3 f7 59 3d 3c f8 16 3e 67 e7 92 3d 32 3a 16 be
       0.05321468 0.14743131 0.07173043 -0.14670637
000030 9f 62 1a 3e cc cf c8 bc 51 44 32 bd b6 55 41 be
       0.15076683 -0.024513148 -0.043522183 -0.18880352
000040 63 5c 1c be 1b 6d 20 3d 87 a1 fe 3d 00 bf 86 bd
       -0.15269618 0.03916655 0.12433153 -0.06579399
000050 6e 17 cb 3d 7e 66 03 ab 14 64 df 3d bc 55 1a be
       0.09916578 -4.6682786e-13 0.1090776 -0.15071768
000060 ec 77 8a bd d7 b3 d6 3c 60 2a 0e 3e c5 d2 0a bd
       -0.067611545 0.026208801 0.13883352 -0.03389241
000070 5d f4 bf 3d dc eb 7c 3d 4a f3 5e 3d 6e 2f b9 3d
       0.093727805 0.06174837 0.054431237 0.090422496

MLP.5.weight f4 [32, 32]
000000 21 90 a4 bc 6b 2a bd 3c b1 bb 97 bd 98 e1 8f bc
       -0.020088257 0.023091516 -0.07408846 -0.017563626
000010 8a c5 75 3d ca de d5 bd 06 47 92 3d d7 8f 41 bc
       0.06000284 -0.10442884 0.07142453 -0.011814079
000020 84 02 88 bd bf 3a 01 be a8 fc 95 3c d3 22 00 3d
       -0.06641105 -0.12620066 0.018308952 0.03128321
000030 c7 73 af bd 5d f9 50 bc c0 25 0c 3e 77 a6 7d bd
       -0.08567005 -0.012754765 0.13686275 -0.06192633
000040 34 be 0e 3e 12 d9 03 be b9 c7 60 3d 39 65 e7 bd
       0.13939744 -0.12875775 0.05487797 -0.112986036
000050 0a 60 9b bc 89 d8 b4 81 f9 59 00 3e 29 a3 35 3e
       -0.018966693 -6.643227e-38 0.12534322 0.17738022
000060 e7 80 06 be 9f 60 99 3d d9 1d 0d 3e 31 14 8c bd
       -0.1313511 0.07489132 0.13780917 -0.06839789
000070 b6 e7 c3 bd 6b 32 36 3e af d1 c1 3c 2c 2c ae 3c
       -0.0956568 0.1779267 0.023659555 0.021261297
000080 f0 ce 95 bd 7b 4a 21 be 9a 01 f5 bd 67 bc 00 3d
       -0.07314861 -0.15751068 -0.11963196 0.031429674
000090 c7 5d 9a 3d 6e 99 0b be c1 f5 c7 3c e1 ea 07 3e
       0.07537418 -0.13632748 0.024409177 0.13273193
0000a0 70 ed 0c be 4d 3f e3 3d b8 8c 8f bb 7e a5 d3 3c
       -0.1376245 0.11096058 -0.0043807887 0.025835749
0000b0 17 ae 95 3d e4 02 7e 3d 54 ec 48 3c da 70 3c bd
       0.07308596 0.062014475 0.012263376 -0.04600606
0000c0 78 4b 15 3e 14 58 00 3e f3 90 0c bd 5d ca f8 3d
       0.1457957 0.12533599 -0.03431792 0.12147973
0000d0 46 a2 e2 bd 23 e0 d6 81 56 be 59 be c1 f8 bb 3d
       -0.110661075 -7.8932805e-38 -0.21264014 0.091783054
0000e0 20 e0 1b 3d 57 80 c2 3d c4 bd 29 be a4 34 71 bd
       0.03805554 0.09497135 -0.16576296 -0.058888093
0000f0 c7 ed dd 3d ce e1 02 be 97 d8 7a bd 8d 39 b8 3d
       0.10836368 -0.1278145 -0.061241712 0.08995352
000100 1d 2d 8f 3d fd 75 0e be 8c 09 f6 bd 80 16 22 be
       0.069910266 -0.13912196 -0.1201354 -0.15828896
000110 4a e2 dd 3d 98 4b 96 bd 4c 2d da 3d d7 9f 07 be
       0.10834177 -0.07338637 0.10653171 -0.13244568
000120 43 32 c9 3d c4 2e ed bd b8 c7 89 3c 90 09 29 be
       0.0982404 -0.115811855 0.016818866 -0.16507554
000130 55 2f 1a be 61 07 25 3b 77 6f b0 3c 18 37 f5 bd
       -0.15057118 0.00251814 0.021537526 -0.11973399
000140 84 96 ae 3d 31 63 03 be 84 d3 f8 bd 0e e0 12 be
       0.08524802 -0.12830807 -0.121497184 -0.14343283
000150 62 79 c1 bd f2 8f 04 9a a5 30 2e 3d 1b ce 5d bd
       -0.0944698 -2.7413238e-23 0.04252686 -0.054151636
000160 e6 59 fa bd d7 b6 9a bd 4c c0 0c 3d ba d5 5c bd
       -0.12224178 -0.07554405 0.034363076 -0.053914763
000170 58 83 3e 3d 38 ac 6a 3d 70 c6 03 3d b0 d8 68 bd
       0.046511978 0.057293147 0.032171667 -0.056847274
000180 19 39 2e bd 59 d1 3e 3c d0 8f 01 3e 3d 15 08 be
       -0.04253492 0.011646592 0.12652516 -0.13289352
000190 15 93 e7 bc 66 76 08 ba 42 e8 ba bc f2 82 9d bc
       -0.028268376 -0.0005205631 -0.022815827 -0.019227479
0001a0 2d 5c d9 3d bb f1 b0 3d 67 df 83 bd 7c de c1 bc
       0.10613284 0.086398564 -0.06439095 -0.02366566
0001b0 26 75 ff 3d dc c4 f6 bc e4 b2 03 be 05 e8 03 be
       0.12473516 -0.030123167 -0.1286121 -0.12881477
0001c0 7e dc d6 3c 0f a0 e5 3d 06 84 59 bc 45 4e 82 bd
       0.026228186 0.112121694 -0.013276106 -0.06362585
0001d0 cd ad 8b bd b0 f5 04 0e 9b 0e 00 be 19 16 7d 3d
       -0.06820259 1.638855e-30 -0.12505572 0.061788652
0001e0 ae 3a 33 be 99 1c af bd 68 38 22 3e 90 f2 cd 3d
       -0.17502853 -0.085503764 0.1584183 0.10056031
0001f0 ac b0 b3 bd 1b bd 3c 3d 8a 2b 84 3d 4d f0 18 bc
       -0.08773932 0.046078783 0.06453617 -0.009334636
000200 68 2b fd bd 91 ff 1b 3e d9 3f a9 bd d5 ca 8a 3b
       -0.12361795 0.1523421 -0.08264131 0.0042356052
000210 9f 32 ae bd 1d 6f c5 3c 76 d5 1a 3e 4b 9f 9b 3b
       -0.08505749 0.024100835 0.15120491 0.004749214
000220 c8 3a 10 be 2c 82 70 bc df c8 0b be ba c2 6a 3d
       -0.14084923 -0.014679473 -0.13650845 0.057314612
000230 a6 6f f0 3d b5 9b b1 b9 df 1a a8 3d 7b 0c 3f 3e
       0.11740045 -0.00033876082 0.0820825 0.18657105
000240 bf 71 d3 3d 6f 80 f2 3d f6 f4 5b 3b de 66 75 3c
       0.1032443 0.11840903 0.0033562756 0.014978139
000250 e3 db d4 3d 6c 96 27 9a 36 07 92 3d b3 7a df bd
       0.103935026 -3.46563e-23 0.071302816 -0.10912075
000260 7c 5b 43 ba f8 8b d0 3d 34 ec e3 bd d1 b9 d9 bd
       -0.0007452292 0.10182947 -0.111290365 -0.10631145
000270 82 c6 e2 bc 4c 3c 12 be 0b 0b dc bd 48 99 1d be
       -0.027682547 -0.14280814 -0.10744294 -0.15390503
000280 d3 bb f3 bd 85 cb 21 bb 42 31 b2 bd 89 a5 9f 3c
       -0.11901059 -0.0024687957 -0.087008014 0.019488113
000290 3b c4 09 3e 40 05 13 3d bc 4f 10 bd 8f fe 0e be
       0.13453762 0.03589368 -0.03523229 -0.13964294
0002a0 f5 08 9b bd 9f 98 32 be 6e e6 a0 3d c8 7f 1a bd
       -0.07570068 -0.17441033 0.07856451 -0.037719518
0002b0 26 ae 89 3d b3 36 6c 3b 0f 84 1b be aa 09 a2 bd
       0.06722669 0.0036043345 -0.15187095 -0.079119995
0002c0 a5 1d c1 3d 89 07 c4 3c 85 93 51 3d 13 3a 5c 3d
       0.09429482 0.023929374 0.051166076 0.05376632
0002d0 b8 c9 36 be 6e fc c9 01 fb 7a 04 3e f2 35 db 3d
       -0.17850387 7.419796e-38 0.12937538 0.107036486
0002e0 0c 8e 99 bd e7 c4 a2 bd e7 2b b5 bd f8 f0 46 be
       -0.074977964 -0.079477124 -0.08846264 -0.1942786
0002f0 5b 02 ad bd c4 9b ba 3d a9 0a cd 3d d6 e3 ad 3d
       -0.08447715 0.09111741 0.10011799 0.08490722
000300 3d 0f 36 3e 56 c6 1f be 57 60 05 3e d4 ed 00 3d
       0.1777925 -0.15603003 0.13025032 0.03147681
000310 c5 4f e7 bd e1 f6 ad 3d 83 ea c5 bd 06 7b 6b bd
       -0.11294512 0.08494354 -0.0966387 -0.05749037
000320 38 72 f5 bd 15 fb 05 3c 3a 91 39 bd 60 e8 24 be
       -0.11984676 0.008177538 -0.045304514 -0.16104269
000330 27 91 16 be e5 f1 67 bc f7 58 f0 bd f7 8c a6 3d
       -0.14703809 -0.014156793 -0.11735719 0.08132356
000340 fe ba cb bc dd fc 36 3e 92 fb b2 3d 7e bd 4a bd
       -0.024869438 0.17869897 0.087393895 -0.04949712
000350 09 ca 1b bd 74 d0 65 17 fc f4 44 3e fc 36 72 3c
       -0.038034473 7.4256996e-25 0.19234079 0.014783617
000360 8e 3c 02 bd e3 0b 5b 3e 4e e4 1f 3d ee 6c 19 be
       -0.03179603 0.21391253 0.039036088 -0.1498296
000370 a0 9a ea 3d 0b e3 c7 bd 00 d3 0a 3e 34 c6 ec bc
       0.11455274 -0.09760102 0.13557053 -0.028903104
000380 4e 72 1e 3e 81 51 29 be e7 f3 2e be c1 e9 16 be
       0.15473291 -0.16534998 -0.17085229 -0.14737608
000390 10 b2 19 be e7 fe 99 3c cf 32 11 3b 18 cf ed bd
       -0.15009332 0.018798305 0.0022155528 -0.116117656
0003a0 9f 36 b5 bd f0 3d 3f 3d 1c 8d 1e be e4 04 42 be
       -0.08848309 0.046689928 -0.15483516 -0.18947178
0003b0 87 9b 20 be 4d 70 83 3c 55 75 9a 3c a8 dc 9f 3d
       -0.15684329 0.01604476 0.018854776 0.07805759
0003c0 d5 35 8e 3d 47 f9 87 3d 39 f3 2a bd ee db de 3d
       0.069438614 0.06639343 -0.04173586 0.10881792
0003d0 d0 3f d1 ba 0c 19 fc 01 96 58 51 3d 4f 05 84 b9
       -0.0015964452 9.260612e-38 0.051109873 -0.00025180957
0003e0 0e 1e b4 bb fe 59 eb bb bc f4 85 3d d0 5a fe 3d
       -0.005496747 -0.0071823588 0.0654082 0.12419665
0003f0 1b e6 35 be 91 d6 cf bd 82 9f 90 bd 78 1a dc 3c
       -0.1776356 -0.10148347 -0.07061674 0.02686809

MLP.5.bias f4 [32]
000000 80 f5 e0 bd 5b 5b e2 3d 4d 7a ed 3d 49 06 e3 bd
       -0.109843254 0.11052581 0.11595593 -0.11085183
000010 a4 60 cb 3d e7 ea 1e 3e 5c 03 9f bd a1 43 af bc
       0.09930542 0.15519296 -0.077643126 -0.021394553
000020 98 39 e8 3d 1e 02 5b 3d b4 bc e2 bc 78 b8 7c 3d
       0.1133911 0.053468816 -0.027677871 0.06169936
000030 81 80 16 3e e6 3f 32 bd df 27 1d be 2c 37 17 be
       0.14697458 -0.04351797 -0.15347241 -0.1476714
000040 b9 e2 bf 3d aa eb f8 bd 31 70 19 3e 3a 03 21 be
       0.09369416 -0.12154324 0.14984204 -0.15723887
000050 96 38 16 be 77 69 22 be cc d8 87 bc 62 1a 59 bc
       -0.14670023 -0.15860544 -0.016582869 -0.013250919
000060 af 3a 3e 3d 92 b3 07 be 1e d2 19 3e e3 75 d8 3d
       0.046442684 -0.13252094 0.1502156 0.1056936
000070 73 7b 5e 3d d1 72 50 3b 7f 7b 0d 3c 77 72 91 3d
       0.05431695 0.0031806717 0.008635401 0.071019106

MLP.6.weight f4 [32]
000000 0b 34 77 3f 79 c9 73 3f 17 a6 76 3f d5 e8 75 3f
       0.96563786 0.952293 0.96347183 0.960584
000010 e0 1a 6a 3f 2d d8 6a 3f c7 51 7d 3f ef 4e 7b 3f
       0.9144726 0.9173611 0.9895291 0.9816732
000020 5c b6 6c 3f 42 13 78 3f ff 1d 73 3f d9 37 6f 3f
       0.9246576 0.96904385 0.94967645 0.9344459
000030 15 7c 74 3f ca 8b 72 3f e8 b0 76 3f 8d 15 75 3f
       0.95501834 0.9474455 0.9636369 0.9573601
000040 44 31 79 3f 8d 3a 79 3f e7 24 73 3f 6c 3f 72 3f
       0.973408 0.97354966 0.94978184 0.94628024
000050 2e bb 74 3f f4 89 71 3f 3e c8 77 3f e1 a4 69 3f
       0.95598114 0.94351125 0.9678992 0.9126721
000060 f8 b1 76 3f f6 48 78 3f e2 1f 6f 3f 65 e2 76 3f
       0.9636531 0.9698633 0.93408024 0.964392
000070 91 7b 78 3f 93 b9 71 3f f9 61 65 3f cf 20 74 3f
       0.9706355 0.9442379 0.8960262 0.9536256

MLP.6.bias f4 [32]
000000 a8 bb f0 3b 7c 2f 64 bc 27 01 03 3c 4e 90 27 3c
       0.007346589 -0.013927337 0.00799588 0.010227276
000010 8f 09 04 3a 57 df 4e bc 6b 7a b0 3a ba 3a 9b bc
       0.0005036825 -0.012626491 0.0013464218 -0.018948901
000020 12 74 84 3b af f3 3b 3c 3a 8e 8a 3c b8 26 1e bd
       0.004042157 0.011471673 0.016913522 -0.038611144
000030 94 97 12 ba 7e 5b 99 bb f4 ff d9 ba 21 d3 a6 b9
       -0.0005592045 -0.004680096 -0.0016632066 -0.0003181929
000040 b5 9f bf bb 53 87 07 3c 9f 95 20 bb fe 5b 87 3b
       -0.005847896 0.00827201 -0.0024503244 0.0041308394
000050 36 04 aa bb 95 8b 1b 3c f5 c8 4c bc f9 bf 2e bc
       -0.0051884903 0.009493728 -0.012499084 -0.010665887
000060 36 3f a9 3b 8f c6 9b bc 7e 74 5a 3c b7 73 1c 3c
       0.005165006 -0.019015579 0.013333438 0.009549073
000070 52 3e f5 bb 56 61 ae 3b 68 32 f8 3b 47 5a 1b 3c
       -0.007484236 0.005321662 0.0075743683 0.009481973

MLP.8.weight f4 [32, 32]
000000 9c ec 06 be 05 a5 ba bd 15 a6 43 3e 18 af 8b 3d
       -0.13176197 -0.09113506 0.19106324 0.06820506
000010 94 76 8c 3d 3e 52 39 bd 95 54 01 be ef 51 89 bd
       0.068585545 -0.045244448 -0.12629922 -0.06705081
000020 c4 53 f8 bc 15 fc e1 bd 2c 79 e2 3d cd 88 f5 bd
       -0.03031338 -0.11034409 0.11058268 -0.11988983
000030 75 6c c3 3d 38 48 ab 3c a8 db 0c be 5e f9 bd 3c
       0.09542171 0.02090846 -0.13755667 0.023190197
000040 6d 3d 67 bd c7 66 af bc ff f3 e2 bc 00 47 18 3e
       -0.056455065 -0.021411313 -0.027704237 0.14870834
000050 89 aa ff bd 1e ab fd 3d 50 b9 9c bd 9f d0 68 bd
       -0.12483699 0.12386154 -0.07652533 -0.05683958
000060 26 fa a7 3d ef a8 4e bd d8 3d 15 be 11 75 a0 bd
       0.08202009 -0.050454076 -0.14574373 -0.07834829
000070 2f 0f 18 be 07 bf ba 3b 9f 33 bb bd 00 ef 44 b9
       -0.14849542 0.0056990418 -0.09140705 -0.00018781051
000080 bd 24 21 3e de 4c 2c 3e 3e d2 f3 3d 6a c5 cc 3d
       0.15736671 0.16826198 0.11905335 0.09998591
000090 8a 84 02 be 45 8a 8f 3d 2a 66 3b bd f5 d2 8b bd
       -0.12745872 0.07008795 -0.045751728 -0.06827346
0000a0 aa 09 81 bd 59 31 28 be 1b 9a aa bd 87 20 9c bd
       -0.063006714 -0.16425075 -0.083301745 -0.076233916
0000b0 e2 89 0d bc 6f 31 93 3d 83 00 18 3e 18 ac 06 3e
       -0.008638831 0.07187163 0.14843945 0.13151586
0000c0 38 ff 29 bc 45 47 c2 bd f7 59 4f 3d 89 ae 21 be
       -0.01037579 -0.0948625 0.050622907 -0.15789236
0000d0 7a b6 e1 bd f8 02 20 b9 b0 6f 53 3d 26 18 08 bd
       -0.11021133 -0.00015259895 0.051620185 -0.033226155
0000e0 04 cd 03 3e ff d3 91 3d 7b c6 28 be 00 75 a6 3d
       0.12871176 0.07120513 -0.16481964 0.08127785
0000f0 0f eb 3e bd b4 bf 0a 3e 71 75 91 3c cf 07 35 3c
       -0.046610888 0.13549691 0.017756196 0.011049225
000100 a0 88 11 3e 63 60 e6 3b 95 64 27 3e 73 1b a0 bd
       0.14212275 0.007030533 0.16346963 -0.078177355
000110 36 17 9b 3d db 77 10 3e 24 2e f5 bd fe 93 c5 bc
       0.075727865 0.14108221 -0.11971691 -0.02411842
000120 8b 00 89 3d b4 ca 15 3e 17 a5 6f bd e6 d9 8a 3d
       0.06689557 0.14628106 -0.05850705 0.06779842
000130 af 49 23 3e 18 62 d1 3d 04 8c d9 bc c3 b1 23 3e
       0.15946077 0.10223788 -0.026556022 0.1598578
000140 c9 08 2c be 3d cf 07 3e 7d 6a d2 bd ce 45 0c be
       -0.16800226 0.13262649 -0.10274217 -0.13698503
000150 4d 68 35 3e df 6f e5 3b 2b da 09 3e 99 b6 cb bd
       0.17715569 0.0070018615 0.1346213 -0.09946937
000160 0a 8e a4 bc 60 2e 31 bd e9 b5 01 be 6b 00 e0 3d
       -0.02008726 -0.043257117 -0.1266705 0.1093758
000170 53 90 00 3e 36 d7 97 bd 97 fd ee bd c0 3c f6 bd
       0.12555055 -0.07414095 -0.11669462 -0.12023306
000180 03 45 11 be a3 39 ad bd 9c 64 13 3e 6e ef 15 be
       -0.14186482 -0.08458259 0.14393848 -0.14642116
000190 5d 16 1b 3e 00 b8 b3 3d dd 95 d3 bd f9 b5 3c be
       0.1514525 0.087753296 -0.103313185 -0.18428792
0001a0 bd 3a 10 be 05 2b da bd 0d fe 8e 3c 9f a4 1d be
       -0.14084907 -0.106527366 0.017455125 -0.15394829
0001b0 a5 2e 97 3d b2 4f 1d 3d 34 99 b5 bd 11 8c b3 3c
       0.073819436 0.03840608 -0.08867112 0.021917375
0001c0 29 61 82 3c 42 fa 5a 3c 73 a8 77 3d c1 1a 05 3e
       0.01591547 0.01336533 0.06046338 0.12998487
0001d0 bf 62 2a be 7d c8 bb 3d 4b 3f 11 be a9 0b 0f be
       -0.16639231 0.091690995 -0.141843 -0.13969292
0001e0 69 34 64 bd a8 61 27 be 73 c0 15 3e de 93 b0 bd
       -0.055714045 -0.16345847 0.14624195 -0.086219534
0001f0 50 aa 10 be ce 96 64 3b 1f a2 b4 3d 72 d8 ec 3d
       -0.14127469 0.0034879926 0.08819985 0.11564721
000200 02 c7 ae 3d 6a 4f 9c bd ee 86 3d bd 7c da f8 bd
       0.085340515 -0.076323345 -0.046271257 -0.121510476
000210 0a 81 52 be 82 5f bb bd df 65 2d bc 04 fb cb 3d
       -0.20557037 -0.09149076 -0.01058337 0.09959987
000220 e3 cc 8a 3c 97 88 74 3d 6c 97 c1 bd 4c 7d 00 3e
       0.0169434 0.059700575 -0.094527096 0.12547797
000230 6e a6 2d 3e 97 24 23 3d 8f 37 b2 3c 2c c1 66 3c
       0.16958019 0.039829817 0.021755008 0.014084142
000240 41 b3 18 be 44 20 0e 3e 39 13 65 3d 0c a6 95 bd
       -0.1491213 0.13879496 0.055926535 -0.073070616
000250 54 f7 89 3d 7d a3 66 bd fd 02 84 3c fb cc fe bd
       0.06736627 -0.05630826 0.016114706 -0.12441441
000260 69 2a b9 bd 1b f6 a8 bb 67 c1 61 3d a8 65 78 3c
       -0.09041292 -0.005156291 0.055116083 0.0151609555
000270 3f 7f d8 bd 12 34 d0 bd 6f 64 3b bd 9e cd d4 bd
       -0.10571145 -0.101661816 -0.045750078 -0.10390781
000280 39 c3 ee 3c 90 28 39 be 82 cc fb bd 4a 16 ec 3d
       0.029145824 -0.1808188 -0.12294866 0.11527689
000290 eb 9a 99 bd ef b8 ba 3d 35 31 1d 3e f3 86 8c bd
       -0.075002514 0.091173045 0.15350802 -0.06861677
0002a0 66 ce ec 3d 75 83 13 bc 17 b9 05 3e 0f 83 01 bb
       0.11562805 -0.00900351 0.13058887 -0.0019761955
0002b0 7f 6b c6 bd 5d 1b c1 3b 3b 54 06 3d 44 55 c3 bd
       -0.09688472 0.0058931545 0.032795172 -0.095377475
0002c0 cc b8 e7 bd ca bd 72 bd 05 51 1d bd 0d 22 2c be
       -0.11314544 -0.05926303 -0.038407344 -0.16809864
0002d0 24 fc c6 3c 89 4b db 3d 72 b8 1d be 87 b7 b7 3d
       0.024290152 0.107077666 -0.15402392 0.08970552
0002e0 e6 0c 4a bd 4b c7 2e 3d 3a 4c f2 bd a1 3b 0c 3e
       -0.049328707 0.04267053 -0.11830945 0.13694622
0002f0 f3 b6 21 3c 66 ce 5d 3d 47 22 8b 3c d6 d3 e5 bc
       0.009870279 0.054151915 0.016984118 -0.028055113
000300 30 a8 56 bd 4d 21 49 3e 45 40 de bd 69 05 ce 3c
       -0.05240649 0.1964161 -0.10852102 0.025149064
000310 bd ee d4 3d 94 a2 4a 3c 7f 0f 39 be b5 0e 87 3d
       0.10397098 0.012367863 -0.18072318 0.06594602
000320 a7 cc 0a be d3 e9 2d 3e 8b 46 57 3d ab 6f 36 3c
       -0.13554631 0.16983728 0.05255751 0.011135022
000330 ff 9b 1f be ea bc 8a 3d 6b 8a 9f 3d df 1c 3e bd
       -0.15586852 0.06774314 0.07790073 -0.046414252
000340 45 a6 be 3d ce 17 80 3d ef 8a ca 3d cc ba 8b 3c
       0.09309057 0.062545404 0.09889781 0.017056845
000350 97 ff 0f 3d 99 c9 34 be 79 db 20 be 01 88 00 3d
       0.03515586 -0.17655028 -0.15708722 0.031379703
000360 39 46 d1 bc 06 d7 9a 3c 45 d0 b5 bc 74 2e 3f be
       -0.02554618 0.01890136 -0.022194037 -0.18670064
000370 54 60 e9 3c ba 7e 28 3d c9 26 6f bd 9e 04 1b bd
       0.028488316 0.04113648 -0.058386598 -0.0378462
000380 7b f7 05 3d 02 04 29 3d 28 a9 b0 bc b2 d4 02 be
       0.03270672 0.041263588 -0.021565035 -0.1277645
000390 67 b9 d6 3d 93 1c 1f 3e a6 9f 01 be 3e 6e ce bd
       0.104845814 0.15538244 -0.12658557 -0.10079621
0003a0 2c b9 b8 3c 7c bc 78 3d 8d 5f c7 3c 13 b2 fa 3d
       0.022549234 0.060726628 0.024337554 0.12240996
0003b0 c4 cd 16 bd 62 42 22 bd 21 8f bf bd 0d 99 16 3e
       -0.036817327 -0.03961409 -0.093534715 0.14706822
0003c0 70 54 19 be b0 92 9f 3d 4f aa 0f bd 24 42 cf 3c
       -0.14973617 0.0779165 -0.03507453 0.025300093
0003d0 b2 62 11 3d 45 fd 0d 3e f2 4a c8 3d 8f 31 01 be
       0.035494514 0.13866146 0.0977992 -0.12616561
0003e0 80 2b 66 3d 19 a0 19 3e c3 cf 05 bb f3 a6 22 be
       0.05619383 0.15002479 -0.0020418025 -0.15883999
0003f0 8e d4 29 3d c8 7b e0 bd 1f e0 3e be ff 77 0f bd
       0.041462474 -0.109611094 -0.18640183 -0.035026547

MLP.8.bias f4 [32]
000000 ed d7 64 3d 29 d5 11 3e dd a7 26 3d a7 0b 0e be
       0.055869985 0.1424147 0.04068743 -0.13871633
000010 13 09 83 3d 9a 73 45 3b af 03 8d bd db 2c 11 be
       0.06398215 0.0030128718 -0.06885468 -0.14177267
000020 b1 10 19 be 11 5f a1 bb 8b 7e 1c bd d8 50 22 3e
       -0.14947774 -0.004924663 -0.03820662 0.15851152
000030 6a e5 b0 3b dd 12 cf ba 03 a2 5d 3d 14 ba 28 bd
       0.005398442 -0.0015798468 0.054109585 -0.041193083
000040 7f e0 c6 3d 62 78 19 be 3f 20 1d 3e 10 c1 c0 3d
       0.09710788 -0.14987329 0.15344332 0.09411824
000050 ab 1d ff 3d c6 c4 04 be 9a 86 85 bd cd ae cd 3c
       0.124568306 -0.12965688 -0.06519814 0.025107766
000060 19 eb 97 3b ac 48 14 3e 8b 53 97 ba bd ae 48 ba
       0.00463618 0.14480847 -0.0011545283 -0.00076554326
000070 7e 83 06 3c b9 d1 4a bc 98 cc ea bc 27 e8 1f 3e
       0.008210061 -0.012379103 -0.028662011 0.15615903

MLP.10.weight f4 [32, 32]
000000 83 49 a2 bd bc b7 bc bd cb e5 12 be 29 91 34 bd
       -0.079241775 -0.09214732 -0.14345472 -0.044083748
000010 bd 21 7b 3d f2 e5 a9 3d d6 05 d6 39 40 af 30 be
       0.061311472 0.08295812 0.0004082161 -0.17254353
000020 2b 75 b9 3d 4c df a0 bd a4 6d e3 bd 09 65 7f bd
       0.09055551 -0.078550905 -0.11104897 -0.062352214
000030 b3 6c 10 3d 94 84 d3 3d 39 fe a4 bd f7 b9 a0 bd
       0.035259914 0.10328022 -0.080563016 -0.0784797
000040 55 7d 23 3e 9f 5c de 3d 9a c5 36 3d 62 fd f6 3d
       0.15965779 0.1085751 0.04462204 0.12060048
000050 d1 93 36 3d 52 b6 22 3e ab 85 18 bd e3 80 d4 bc
       0.044574562 0.15889862 -0.03723685 -0.025940364
000060 e7 30 6b 3d 78 1e 18 bd 33 98 34 38 c8 dd 07 3e
       0.057419684 -0.037138432 4.305709e-05 0.13268197
000070 67 50 f2 bd f9 30 f1 3d 3e 47 7a ba 7b 0a 13 3d
       -0.11831742 0.11776919 -0.0009547359 0.035898667
000080 7f 04 f6 ba cb 56 35 bd 1d da 7f bd e7 41 13 bb
       -0.001876965 -0.044272225 -0.06246387 -0.00224697
000090 86 3d 28 3e 63 87 63 bd 75 0f 0c bc 11 af b1 3d
       0.1642972 -0.055549037 -0.008548607 0.086759694
0000a0 b3 f6 a4 3d c2 21 82 3d 32 84 3b bd ab 88 0d be
       0.08054867 0.06354095 -0.04578037 -0.13821666
0000b0 8a 52 ad 3c d2 6c 19 be 5a 47 9d 3d 67 3e 4e bd
       0.021157522 -0.14982918 0.07679625 -0.05035248
0000c0 ed 64 cf 3d b5 47 e0 3c cb 46 0e 3e 67 8f 25 be
       0.10126672 0.027377943 0.13894193 -0.16167985
0000d0 a2 aa e4 3d 5b ec 1a be 70 3a 13 be a5 2d cd 3d
       0.11165358 -0.15129225 -0.14377761 0.10018472
0000e0 ba 28 08 be 56 3b 12 3e 1f cd e2 b9 3d 6f 02 3e
       -0.13296786 0.14280447 -0.00043258906 0.12737747
0000f0 3c 83 63 3e 0d 93 30 be 7b 08 30 bc 44 aa a5 3d
       0.2221803 -0.17243595 -0.010744209 0.08089116
000100 06 7a 18 be 1e d3 d5 bc 42 c5 18 be 72 0b d9 bc
       -0.14890298 -0.026101645 -0.14918998 -0.026494715
000110 3b eb da 3d 64 55 b8 3d bd ed 41 3e 42 1a 72 bd
       0.10689398 0.09000662 0.18938346 -0.059107073
000120 f3 ba 6c bc c2 e3 00 3e e6 f5 9b 3d 90 fd 09 3e
       -0.014448869 0.12586883 0.07615261 0.13475633
000130 01 92 36 3e fd d0 e3 3c b3 e8 cb bd ae 82 8a 3d
       0.17829134 0.027809614 -0.09956493 0.067632064
000140 6f 54 3a bc 77 2c d0 3d c3 9f 94 bd e0 4b ef 3d
       -0.01137267 0.10164731 -0.07257035 0.11684394
000150 7c 78 19 be c3 76 38 3d 81 c4 ef bd 19 fa 81 bd
       -0.14987367 0.045035135 -0.11707402 -0.063465305
000160 5e 5b 12 be 5f 96 62 be a2 a3 be b9 4d 3e 08 bd
       -0.14292666 -0.22127675 -0.0003636154 -0.03326254
000170 d2 a2 72 bc 37 8a 9d 3d fc fb e1 bb 54 d0 42 be
       -0.014809327 0.07692378 -0.006896494 -0.19024783
000180 2f 60 50 bb c6 fa 2a 3e ee 65 07 be 0f 61 e4 bd
       -0.003179561 0.16697225 -0.13222477 -0.11151325
000190 2e a0 e5 bd 80 7b 28 3e 68 72 c3 3c e5 59 fe bd
       -0.112121925 0.16453362 0.023858264 -0.1241949
0001a0 5c c2 fd bd 2c 01 90 bd 77 05 05 be 80 00 ea 3d
       -0.12390587 -0.070314735 -0.12990366 0.114258766
0001b0 c8 f2 11 3e 2e c5 26 3e ff c4 e9 3d a0 16 b1 3d
       0.1425277 0.16286156 0.11414527 0.086468935
0001c0 c4 c2 d2 3d 8f c6 dd 3d b2 3b c3 3d c4 48 15 be
       0.10291055 0.10828888 0.0953287 -0.14578539
0001d0 32 d9 a6 3c b1 4e 44 3c c5 f7 02 be 0c 97 0e be
       0.020367239 0.011981652 -0.12789829 -0.13924807
0001e0 01 2b c8 3c 78 78 4c 3e 88 26 8a b9 24 36 c2 bc
       0.024434568 0.1996783 -0.0002635012 -0.023707457
0001f0 b0 02 53 bc ae 5f 5d bd 8a cb f8 3c 86 87 be 3d
       -0.012879059 -0.054046325 0.030370492 0.09303193
000200 2a eb b9 3d 04 73 ba bd e1 d3 1d 3e 0d 1c 9a 3d
       0.09078057 -0.09103969 0.15412857 0.075248815
000210 fa 23 1a 3d 2c e1 5d bd 42 e3 a7 3d ac 12 84 bd
       0.037631966 -0.05416982 0.08197643 -0.06448874
000220 64 fb e8 3c c0 0c 64 3d 27 6a 14 be cc 0e 61 3d
       0.028440185 0.05567622 -0.14493619 0.054945752
000230 84 51 b7 bd 97 8f 37 be 8b 80 d0 bd 77 0d b3 3d
       -0.08951095 -0.17925869 -0.101807676 0.087428026
000240 39 ac 81 bd 90 fb 2c 3c 15 e0 ec 3d 54 ea bb 3d
       -0.06331677 0.010558024 0.11566178 0.09175554
000250 40 7d f3 3c 80 6c f4 bd ee 9b 9a 3d ee eb f5 bd
       0.02972281 -0.11934757 0.075492725 -0.12007891
000260 56 03 17 bd 72 ea b6 3c 23 7e d0 b9 a2 51 1f 3e
       -0.036868416 0.02232859 -0.0003976683 0.15558484
000270 1d 53 ed bc 9a 2c d6 bd 65 6a 18 3d 38 67 18 be
       -0.028970296 -0.10457726 0.03721084 -0.14883125
000280 31 c3 64 3d 0d 68 dc bd cb b6 8e bd ed 68 18 3a
       0.05585021 -0.107620336 -0.06968459 0.0005813975
000290 a2 cc d9 3c 9f e3 bc 3c 82 76 a8 bd 12 b8 03 3e
       0.026586834 0.023057757 -0.082257286 0.12863186
0002a0 12 05 13 be 1f a8 e3 bd 7b d1 9b 3d 6d b7 26 3e
       -0.14357403 -0.11116051 0.076083146 0.16280909
0002b0 9e aa 71 3d 10 fc 38 be 6d 05 17 be 13 0d c4 3d
       0.059000604 -0.18064904 -0.14748164 0.09572806
0002c0 47 a1 80 3d 5d 08 9f 3d 2a 3b db 3d bc 70 2b 3e
       0.06280761 0.07765267 0.10704644 0.16742224
0002d0 82 c0 1f bd 65 c7 b0 3d f4 c3 ed 3d 08 b0 aa 3d
       -0.03900195 0.086317815 0.11609641 0.083343565
0002e0 2f e0 3d bd 07 cd 2c 3d b9 6c f5 b9 00 a5 1b 3c
       -0.046356376 0.042187717 -0.00046811046 0.009499788
0002f0 a1 ec 9f 3b ca 42 34 bd d2 6d 2f 3c 74 a3 23 3e
       0.0048805033 -0.044009008 0.010707336 0.15980321
000300 78 78 98 3d 27 36 06 3e 5d 35 dc bd 5c 33 03 be
       0.074448526 0.13106595 -0.10752366 -0.12812561
000310 a0 dd ba bd 08 64 13 be 85 2a 65 bd 0c 5c c0 3c
       -0.09124303 -0.14393628 -0.055948753 0.023481391
000320 6c 2c d2 bd 2a 8d 28 3e a2 da 8d 3c 43 02 64 3d
       -0.10262379 0.164601 0.017316166 0.05566622
000330 50 67 c2 3d a2 a2 24 bd d0 5f 7e bc c1 db 0e be
       0.094923615 -0.04019416 -0.015525773 -0.13951017
000340 6c 8d 4e 3d 99 99 86 3d df 1f 1b 3d 83 01 46 3d
       0.05042784 0.06572265 0.03787219 0.048341285
000350 7e 01 be 3d 64 ee de bc e9 8b 9b 3c 34 c6 e1 bd
       0.09277628 -0.027213283 0.018987613 -0.11024132
000360 f4 60 c4 3c ef fc 09 3e 89 dc 07 3a 42 f7 fb bd
       0.023972012 0.13475393 0.00051827036 -0.1230302
000370 52 d8 fd bc aa f4 29 3d 77 ea 2b 3d b6 5c 44 3c
       -0.030986939 0.041493095 0.04197165 0.011984995
000380 8b 45 9b bd 2e 89 75 3d e4 60 19 3c 8e 7c 0b be
       -0.07581624 0.059945278 0.009361479 -0.13621733
000390 42 44 3e be e4 bc e5 3c c5 e9 18 be d8 c2 eb bd
       -0.18580726 0.028044172 -0.14932926 -0.11511773
0003a0 17 1e d0 3d f4 ac b6 bd 96 1e fa 3d 43 e1 a8 bc
       0.10161989 -0.08919707 0.12212865 -0.020615226
0003b0 f1 66 2e 3d 95 0d 73 bc c5 c0 0e 3d 1c 79 60 3d
       0.04257864 -0.014834781 0.034851808 0.054803
0003c0 db 27 e0 3d 5d a8 c7 bd 75 b5 4b 3c 53 55 06 3e
       0.10945102 -0.097489096 0.012433399 0.13118486
0003d0 8b 9d ad 3d 7c 12 1e be 31 e7 7a bd 8b 62 cc bd
       0.084773146 -0.15436739 -0.061255638 -0.09979733
0003e0 9e c4 d4 bd 95 ee 1f 3d 68 a0 b0 39 ee d4 3c bd
       -0.10389064 0.03904589 0.00033688848 -0.046101503
0003f0 eb c0 31 3d ca 11 b9 3d 5f e9 b5 bc 42 98 19 3e
       0.04339687 0.09036596 -0.022206007 0.14999488

MLP.10.bias f4 [32]
000000 bb bf 1c 3e 2a ed 30 be ba 3d b7 3d 2c 32 28 bc
       0.15307514 -0.17277971 0.0894732 -0.010265868
000010 6f 56 83 3d 64 8e a8 bd 88 42 01 3e d5 6b 05 be
       0.0641297 -0.08230284 0.12623036 -0.13029416
000020 7b e7 95 bd dc d9 a2 bd 73 84 20 3e 10 84 18 be
       -0.07319542 -0.0795171 0.15675525 -0.14894128
000030 a3 c0 c2 3d 81 b3 de 3d 70 5e 21 bc dc 38 a9 3d
       0.09509399 0.108740814 -0.009849176 0.08262798
000040 cb a3 0f be 82 e7 2a 3e b4 de 32 be 7b bb 30 3d
       -0.14027326 0.16689876 -0.17467767 0.043147545
000050 96 4d b3 3d a3 28 8c bd d8 5f cc 3c 3b 54 6c bb
       0.08755033 -0.06843688 0.024948046 -0.0036060947
000060 3d 02 2f 3e 17 e8 af bd a2 1e 8b bd 14 e6 b8 3d
       0.17090698 -0.085891895 -0.06792952 0.09028259
000070 67 33 c6 3d 5b 2a dd 3c 85 ee 9f 3d 96 dd ad bd
       0.09677773 0.026997736 0.07809166 -0.0848953

MLP.11.weight f4 [32]
000000 6e b1 7d 3f 6b ee 75 3f 40 ca 7b 3f 25 d9 76 3f
       0.9909886 0.9606692 0.98355484 0.96425086
000010 36 d6 7a 3f 31 45 7b 3f ca 13 7c 3f c4 61 79 3f
       0.9798311 0.9815245 0.98467696 0.97414804
000020 64 6e 7b 3f 6d ec 75 3f b9 ad 7e 3f 8e 0e 79 3f
       0.9821532 0.9606388 0.9948383 0.97287834
000030 07 2b 76 3f 5a 9e 74 3f a6 84 78 3f 5a fb 7b 3f
       0.96159405 0.95554125 0.97077405 0.9843041
000040 98 24 6d 3f 45 a0 77 3f 71 0b 78 3f df d3 79 3f
       0.9263396 0.96728927 0.9689246 0.97588915
000050 3f c3 7a 3f cc 5c 7b 3f b7 f5 77 3f b0 cd 75 3f
       0.9795417 0.9818847 0.96859306 0.9601698
000060 10 9c 6f 3f dc 73 79 3f f5 b1 74 3f e3 3f 76 3f
       0.9359751 0.9744241 0.9558404 0.96191233
000070 87 4a 78 3f 6d cb 77 3f f8 8f 7b 3f 29 3c 76 3f
       0.9698872 0.9679478 0.98266554 0.9618555

MLP.11.bias f4 [32]
000000 35 46 23 3c 95 6a 4e 3b 65 06 05 3c 07 0e 9b 3b
       0.009965469 0.0031496633 0.0081192 0.004731897
000010 69 52 1e bb 3f 11 4c bb 58 4d ef 3b 14 ef 45 bc
       -0.0024158007 -0.003113821 0.0073029213 -0.012080926
000020 ed 06 71 3b c6 fe b2 3a d8 91 46 3c c5 51 d8 3b
       0.003677781 0.0013656251 0.012119733 0.0066015446
000030 ba 95 2e 3b 46 bb fa bb f8 f7 c6 bb 55 92 ec 3a
       0.0026639537 -0.0076517193 -0.0060720406 0.0018048981
000040 22 de 7a 39 b9 c4 22 bc b6 f0 f0 bb e1 59 97 ba
       0.00023924609 -0.009934598 -0.0073529137 -0.0011547172
000050 f4 65 ed 3b f4 28 58 ba 26 42 32 3b 48 d2 32 3b
       0.00724482 -0.00082458486 0.0027200072 0.0027285982
000060 2e b8 0e 3d 13 5e 69 3c db 45 80 3a 1e 26 8d bb
       0.034843616 0.01424362 0.0009786444 -0.0043075224
000070 6c 84 66 3b e3 38 29 3b 60 23 2e 3c fb dc 41 3c
       0.0035174144 0.002582126 0.010628551 0.011832471

MLP.13.weight f4 [4, 32]
000000 3b 01 32 bc 42 9b 04 be 40 61 6c bd 06 b1 ea bd
       -0.010864551 -0.12949851 -0.057709932 -0.11459546
000010 d9 fa 07 be c4 d1 09 be 92 7b 17 be 00 5e 30 3d
       -0.13279285 -0.13458925 -0.14793232 0.043058395
000020 cc 87 b9 3d 00 05 11 be 51 ee a4 3c 86 fb a4 3c
       0.09059104 -0.14162064 0.02013317 0.020139467
000030 45 f5 b9 bc 7a 3b db bb c3 07 97 3d a8 7d 1c 3e
       -0.022699961 -0.00669044 0.07374527 0.15282309
000040 38 40 83 3d e6 e4 4d 3c 61 df a4 3c 99 3c cd 3c
       0.06408733 0.012566781 0.020126047 0.02505331
000050 fb 01 19 3e 32 47 35 bd a6 8b b3 bd a2 64 0b 3e
       0.14942162 -0.04425735 -0.0876687 0.13612607
000060 29 ce 39 bc e2 94 57 3c 56 d1 6b bd 43 18 9a bc
       -0.011340656 0.013158055 -0.057572685 -0.018810397
000070 de d7 10 be a1 bf 27 be 61 d8 28 3e ff 6b c3 3d
       -0.14144847 -0.16381694 0.16488792 0.09542083
000080 f2 81 75 3c 3a d1 f5 bb ea d7 ac 3b 88 b0 35 bd
       0.014984595 -0.0075017484 0.0052747624 -0.044357806
000090 41 39 0b 3d 92 17 7d 3c fa 17 2f 3c 35 fb 2c bb
       0.03399015 0.015447514 0.010686869 -0.0026394848
0000a0 2f 39 64 3d 65 e2 71 bc da f8 bd 3c 05 4d b4 bb
       0.055718597 -0.014763449 0.02318995 -0.0055023455
0000b0 68 dd 63 bc f8 d7 f5 3c 74 57 28 bd b8 81 c7 3c
       -0.013907768 0.030010208 -0.041099027 0.024353847
0000c0 ea ea 69 bc ba 4b 55 3c 64 3d 70 bc 0b 4a d9 3c
       -0.014277199 0.013018543 -0.014663074 0.026524564
0000d0 8f 08 74 3c 83 6c ed bc 0d 92 02 bd 4e 3b 5d bd
       0.014894619 -0.028982406 -0.031877566 -0.054011635
0000e0 62 25 4d 3c 87 50 34 bd 63 83 82 bc 7e 6f c5 3c
       0.01252112 -0.04402211 -0.01593179 0.024101015
0000f0 3c b7 90 3c 88 90 2b bd 8c eb 1a 3c bb 47 0d bd
       0.017665498 -0.041885883 0.009455573 -0.034492236
000100 69 5a 9b bc 04 a7 04 3c 41 8f 22 3e 8d 5c b7 3d
       -0.01896401 0.00809646 0.1587496 0.089531995
000110 28 b2 84 3d c2 42 10 3e ff ec e3 bd de 94 e5 bd
       0.06479293 0.14087966 -0.11129188 -0.11210035
000120 82 da 65 bd a9 44 91 bd a6 21 c6 bd f6 ae c4 bd
       -0.05611659 -0.07093174 -0.09674387 -0.09603684
000130 ab 94 df 3d 56 6d 55 3d 5f cd 09 3e 98 ee da bd
       0.10917028 0.052106224 0.13457249 -0.106900394
000140 0c b8 49 bd da 82 7a bd bb 9c aa 3d 5d dd dd bd
       -0.049247786 -0.061159946 0.08330675 -0.10833237
000150 50 3a 46 bd 0c 7d d2 bd 08 8c 69 bd 26 f3 4e 3d
       -0.048395455 -0.10277757 -0.05701831 0.050524853
000160 82 37 db bd 9c a0 32 bd 38 4d 0d bd 72 eb bd 3d
       -0.10703947 -0.0436102 -0.03449747 0.09273423
000170 9e 56 ce bc db 3f 4c bc 04 1e 0d 3d 7d 82 32 bd
       -0.025187787 -0.012466396 0.034452453 -0.043581475
000180 58 6a 06 3e e6 72 43 bc 74 14 d0 bc cb 6a db 3c
       0.13126504 -0.011929249 -0.025400378 0.026784321
000190 a2 2b f3 bd db 56 07 3e 6b c7 98 bd 77 be c1 3d
       -0.11873557 0.13216726 -0.07459911 0.094601564
0001a0 60 10 e4 3c 60 94 83 bc 39 80 d6 3d 6d a0 a2 3d
       0.02783984 -0.016061962 0.10473675 0.07940755
0001b0 5d 3a 98 bc 22 fd e0 bc e7 23 49 3b 88 e1 90 bd
       -0.018582517 -0.027464453 0.0030691565 -0.07074267
0001c0 22 2a c4 3c 78 51 3e 3d 43 5a 6d 3d 66 c3 8c 3d
       0.023945872 0.046464413 0.05794741 0.06873207
0001d0 fb df f3 bd 1f e2 09 bd 6c af 0e bc 0a 17 96 3d
       -0.11907955 -0.03366291 -0.008708816 0.07328613
0001e0 8c bb 84 bd 99 8b 5f bd 31 5d 8b 3d bb a9 6d bd
       -0.06481084 -0.05457649 0.06804884 -0.058023196
0001f0 3f 25 0a bd 81 7e 1c bd f2 7a 91 bd ce e6 87 3c
       -0.033726927 -0.03820658 -0.07103528 0.016589548

MLP.13.bias f4 [4]
000000 7e ec 0a be 68 09 0e 3c ee f7 c8 3d 54 43 fb 3d
       -0.13566777 0.008669235 0.09812914 0.12268701
