example/model/diff_robot_default/model_2500.pth (torch, 24610 bytes, 18 tensors)

MLP.0.weight f4 [32, 2]
0.38586026 -0.29542732 0.30606917 0.45093077 -0.04776128 0.38741532 -0.11344609 0.20076393
0.3600644 0.61126024 0.22069834 0.23846771 -0.36387873 -0.49442792 -0.55468214 0.17866012
0.5127528 -0.20426357 0.10648744 0.34887722 -0.33064306 0.5103634 0.49075475 -0.47374046
-0.17425859 0.5574396 -0.07483834 0.47050905 0.5879014 0.16058803 -0.12573633 0.48761478
0.1600854 0.33994314 -0.013523188 0.14881954 -0.028632123 0.5014516 -0.19061038 -0.0155346105
0.30423912 -0.044239704 -0.034822293 -0.445305 -0.48536432 0.45045522 -0.45368716 0.07057246
-0.45937842 0.11106568 -0.03285767 -0.115457885 -0.28069708 0.082848236 0.24918446 -0.43331194
-0.67045474 -0.21368302 -0.12101174 0.0402485 -0.039089583 0.112896025 -0.48044378 0.07208942
00000000: 7a8f c53e 4042 97be 19b5 9c3e 66e0 e63e
00000010: 55a1 43bd 4d5b c63e 6c56 e8bd 0f95 4d3e
00000020: 5c5a b83e 8d7b 1c3f bffe 613e e130 743e
00000030: 504e babe a825 fdbe a6ff 0dbf aef2 363e
00000040: c443 033f 782a 51be 1616 da3d 09a0 b23e
00000050: 0c4a a9be 2da7 023f 3544 fb3e 1c8e f2be
00000060: d870 32be 5db4 0e3f d844 99bd 90e6 f03e
00000070: b580 163f 3071 243e 06c1 00be a5a8 f93e
00000080: 6ded 233e 070d ae3e 5d90 5dbc 2664 183e
00000090: ea8d eabc 225f 003f 5e2f 43be e184 7ebc
000000a0: 3bc5 9b3e b134 35bd d2a1 0ebd 04ff e3be
000000b0: ac81 f8be 11a2 e63e af49 e8be 4b88 903d
000000c0: a633 ebbe 6776 e33d c495 06bd 2f75 ecbd
000000d0: 87b7 8fbe 56ac a93d 362a 7f3e 10db ddbe
000000e0: eca2 2bbf b9cf 5abe 01d5 f7bd 9cdb 243d
000000f0: 661c 20bd 0836 e73d bafc f5be 9ea3 933d

MLP.0.bias f4 [32]
0.12486042 0.029997284 0.38244584 -0.13004068 -0.02586914 -0.21231513 -0.09210522 0.3662322
0.04926454 -0.062409252 0.3045133 -0.13140844 -0.38659742 0.1657293 -0.25795466 0.22520654
-0.03989187 -0.33548483 0.05132073 0.31578445 0.25112465 0.10051773 -0.17647979 0.005806716
-0.17029223 0.0275364 -0.14895763 0.16733843 -0.20268266 -0.3814934 0.033327337 -0.28722423
00000000: d2b6 ff3d ddbc f53c f1cf c33e 6229 05be
00000010: 85eb d3bc 2369 59be a9a1 bcbd c982 bb3e
00000020: 9dc9 493d d8a0 7fbd 2be9 9b3e ef8f 06be
00000030: 19f0 c5be f1b4 293e a212 84be 8b9c 663e
00000040: a865 23bd abc4 abbe b035 523d 80ae a13e
00000050: 6993 803e 3ddc cd3d 1eb7 34be 4446 be3b
00000060: 1661 2ebe 0494 e13c 5988 18be c45a 2b3e
00000070: 0b8c 4fbe 1a53 c3be 3f82 083d 0e0f 93be

MLP.1.weight f4 [32]
0.6331026 0.745486 0.70804524 0.5141568 0.6979019 0.7282761 0.65504175 0.8376223
0.6073838 0.73621315 0.8282734 0.69381577 0.8151025 0.6721832 0.842534 0.7445689
0.60663414 0.40457278 0.5819391 0.7342168 0.6334414 0.7361686 0.75786805 0.5443465
0.7880141 0.52878076 0.6082434 0.662609 0.7733524 0.6395852 0.0057502137 0.7301904
00000000: 0313 223f 2cd8 3e3f 7442 353f c89f 033f
00000010: b3a9 323f 4d70 3a3f d1b0 273f 6a6e 563f
00000020: 817d 1b3f 7778 3c3f ba09 543f e99d 313f
00000030: 8faa 503f 3314 2c3f 4fb0 573f 119c 3e3f
00000040: 604c 1b3f 2a24 cf3e f6f9 143f a2f5 3b3f
00000050: 3729 223f 8c75 3c3f a403 423f 4b5a 0b3f
00000060: 4bbb 493f 2d5e 073f d7b5 1b3f bea0 293f
00000070: 6cfa 453f dbbb 233f 4a6c bc3b c2ed 3a3f

MLP.1.bias f4 [32]
0.020318434 -0.00013403861 0.015508172 -0.018221289 0.007960494 -0.006875499 0.012015349 -0.03113869
0.027140746 -0.01618443 0.022582121 0.021280635 -0.022548221 -0.005609975 -0.037589364 -0.038666938
0.015681801 0.008000247 0.005216406 0.01048806 0.037432052 0.001460623 0.0134649305 0.02455851
-0.011175829 -0.03518798 -0.010225405 0.028680727 0.017359592 0.021530079 0.04255554 -0.033157725
00000000: d872 a63c b78c 0cb9 fd15 7e3c d044 95bc
00000010: bb6c 023c de4b e1bb 07dc 443c 9116 ffbc
00000020: 4556 de3c 3695 84bc 24fe b83c ba54 ae3c
00000030: 0cb7 b8bc e2d3 b7bb 4ef7 19bd 3961 1ebd
00000040: 1f77 803c 7813 033c 63ee aa3b 1dd6 2b3c
00000050: 5a52 193d 6072 bf3a 039c 5c3c ee2e c93c
00000060: d31a 37bc 4521 10bd 7588 27bc d8f3 ea3c
00000070: b435 8e3c d95f b03c b84e 2e3d 65d0 07bd

MLP.3.weight f4 [32, 32]
-0.087053984 0.039597712 -0.11927459 0.050615557 -0.034761507 -0.04403407 -0.16901846 0.06450944
0.0598181 -0.084718086 0.082691304 0.052677434 -0.057741366 0.039258443 0.052515198 0.12425227
-0.027618872 0.0039390204 0.034632657 0.049704418 -0.09849906 -0.07522514 -0.020802831 0.029026927
-0.079879604 0.015497123 0.07485202 -0.061457448 0.11967705 -0.04256409 -0.011224632 -0.089200735
-0.010724396 0.07127738 -0.05890699 0.030689092 -0.022151053 -0.0875636 0.033196848 0.03370906
0.11928219 -0.019405685 0.062384866 -0.07856326 -0.0022050235 -0.031700917 -0.109438114 0.031491417
0.045291767 0.026844596 0.0133599285 -0.094073325 -0.068759 0.14656766 0.017470408 -0.11984434
-0.12427646 0.10960899 -0.026379855 -0.06908944 -0.14055982 -0.030107709 -0.01665294 0.032009635
0.123189814 -0.0105813015 -0.0020786652 0.10986767 0.10782381 0.03184031 0.020042464 -0.015625576
-0.06202415 -0.05811115 -0.03547951 0.051794562 0.1565333 0.11811851 -0.12752944 -0.091161214
0.03626442 0.038943093 0.018865284 0.03046978 -0.0067232386 0.14135893 0.06110126 0.07697055
0.067729 0.11478416 0.09956436 0.07383232 0.07474474 0.11337584 0.017891685 0.16846654
0.047415584 0.06015734 -0.033103675 -0.053087417 0.0714663 0.10107818 -0.04693743 -0.17312206
0.09296383 -0.004059876 0.1647067 0.028012283 -0.12918255 -0.0352265 0.12800932 0.056673516
0.08509708 -0.068547234 -0.11591113 -0.068573594 0.043907993 -0.1571156 -0.043718576 0.005017703
-0.16030237 -0.10565116 -0.037495274 0.10799936 0.09456888 -0.045268584 0.014958782 -0.06802025
0.045737308 0.078717284 -0.045279086 0.0393047 -0.06619479 -0.09415512 -0.12369797 -0.094653
0.020772504 -0.08511978 0.0020952527 0.058680627 0.15323514 0.1254186 -0.08802449 -0.041907236
0.0014807252 0.040515684 -0.02030345 -0.12775645 -0.103892066 0.033862185 -0.0350561 0.00023353062
0.15344536 0.11581716 0.089530155 -0.11447365 -0.09138295 0.07797234 -0.01707183 0.04644406
-0.0861026 -0.1058204 -0.14307724 0.1090933 -0.026628781 0.06572393 -0.1299723 0.14395458
-0.0019669426 -0.009185806 -0.08941808 0.060039442 0.09543235 -0.1235472 -0.14436999 -0.034175277
-0.016730485 -0.01459567 0.16112366 -0.092785366 0.020893011 -0.10096156 -0.020741975 0.033028856
-0.034660194 0.034247506 -0.025615588 0.030667508 0.12942791 -0.06611581 -0.055365223 0.11208677
0.048128538 -0.081755646 0.12092641 -0.0027611176 -0.023385743 -0.026789024 -0.04022538 -0.016786335
-0.08923126 0.020579202 -0.014724144 -0.06256235 0.018485459 0.11756789 0.008616994 0.07129759
-0.058341235 -0.05044942 0.07397271 0.036097746 0.046926856 0.04540149 0.013593632 -0.019478055
-0.05840411 0.034661118 -0.058820076 -0.023810051 0.016085915 -0.084591486 0.0050469604 -0.013378326
-0.024692606 -0.04290742 -0.089955725 -0.013796734 0.13732211 0.10214212 0.015024294 0.000102279155
-0.028837183 0.042084053 0.067443326 -0.06950376 -0.093391575 0.11321928 0.074585795 -0.08147753
0.004750172 0.015385682 -0.04469377 0.054120924 -0.019335203 0.021012697 0.11983994 0.058760755
0.09869957 -0.063849196 0.025408892 0.08434156 -0.0764254 0.042123076 -0.011784317 0.0009276651
00000000: 5c49 b2bd 3631 223d 3c46 f4bd 4252 4f3d
00000010: 1562 0ebd 125d 34bd 2d13 2dbe 861d 843d
00000020: d303 753d ad80 adbd 0f5a a93d 4bc4 573d
00000030: 3682 6cbd 76cd 203d 2d1a 573d f977 fe3d
00000040: f940 e2bc e612 813b f9da 0d3d dc96 4b3d
00000050: e0b9 c9bd a30f 9abd b36a aabc e1c9 ed3c
00000060: eb97 a3bd a5e7 7d3c 044c 993d ceba 7bbd
00000070: 3e19 f53d af57 2ebd 85e7 37bc e0ae b6bd
00000080: 61b5 2fbc e0f9 913d 7548 71bd b167 fb3c
00000090: 2076 b5bc 8b54 b3bd 6bf9 073d 8312 0a3d
000000a0: 394a f43d acf8 9ebc 4687 7f3d c6e5 a0bd
000000b0: 2882 10bb d2d8 01bd 1721 e0bd 25fd 003d
000000c0: dc83 393d 33e9 db3c 9ae3 5a3c 84a9 c0bd
000000d0: 85d1 8cbd d515 163e 1a1e 8f3c f370 f5bd
000000e0: a884 febd ae7a e03d 911a d8bc c47e 8dbd
000000f0: eaee 0fbe 71a4 f6bc bf6b 88bc 891c 033d
00000100: f14a fc3d 325d 2dbc 373a 08bb 4d02 e13d
00000110: bbd2 dc3d fc6a 023d 1830 a43c 3501 80bc
00000120: 090d 7ebd f505 6ebd f652 11bd 8926 543d
00000130: 444a 203e 1ee8 f13d 1497 02be bbb2 babd
00000140: 008a 143d cb82 1f3d 5e8b 9a3c c39b f93c
00000150: 9d4e dcbb 65c0 103e 5145 7a3d bca2 9d3d
00000160: 80b5 8a3d f513 eb3d 66e8 cb3d 6635 973d
00000170: c513 993d 9831 e83d 9591 923c 7e82 2c3e
00000180: d836 423d 8b67 763d b897 07bd 3172 59bd
00000190: ec5c 923d 1402 cf3d 7641 40bd e946 31be
000001a0: d263 be3d b508 85bb e0a8 283e 047a e53c
000001b0: 6e48 04be aa49 10bd e014 033e 7d22 683d
000001c0: 6147 ae3d 7e62 8cbd d162 edbd 5070 8cbd
000001d0: ded8 333d e9e2 20be 4012 33bd 8b6b a43b
000001e0: 4e26 24be a35f d8bd a594 19bd c52e dd3d
000001f0: 54ad c13d 8d6b 39bd ae15 753c 334e 8bbd
00000200: 0b57 3b3d 8736 a13d 9076 39bd f7fd 203d
00000210: 2291 87bd 66d4 c0bd 5c55 fdbd 6fd9 c1bd
00000220: 192b aa3c 4753 aebd 8250 093b 195b 703d
00000230: ace9 1c3e bc6d 003e 2f46 b4bd eca6 2bbd
00000240: e514 c23a c6f3 253d 6c53 a6bc 96d2 02be
00000250: 5dc5 d4bd 13b3 0a3d fc96 0fbd e6df 7439
00000260: c820 1d3e 8c31 ed3d 965b b73d 2971 eabd
00000270: fc26 bbbd f6af 9f3d 39da 8bbc 203c 3e3d
00000280: 8f56 b0bd 5eb8 d8bd d782 12be 4f6c df3d
00000290: 9a24 dabc 459a 863d 7517 05be d468 133e
000002a0: d2e7 00bb 1080 16bc d420 b7bd ebeb 753d
000002b0: 0972 c33d 5006 fdbd bad5 13be 60fb 0bbd
000002c0: 5f0e 89bc ad22 6fbc 9afd 243e 4106 bebd
000002d0: d227 ab3c efc4 cebd 13eb a9bc 4449 073d
000002e0: d9f7 0dbd 1d47 0c3d c8d7 d1bc 6d3a fb3c
000002f0: c088 043e ba67 87bd a5c6 62bd c08d e53d
00000300: 6e22 453d 816f a7bd 44a8 f73d def3 34bb
00000310: 7593 bfbc a874 dbbc 5ec3 24bd 7f83 89bc
00000320: e1be b6bd b795 a83c 893d 71bc b020 80bd
00000330: d16e 973c 6fc7 f03d 4b2e 0d3c 7904 923d
00000340: 38f7 6ebd 0da4 4ebd 017f 973d 3bdb 133d
00000350: 6036 403d eaf6 393d d3b7 5e3c 7190 9fbc
00000360: 2639 6fbd d1f8 0d3d 52ed 70bd 4c0d c3bc
00000370: 9cc6 833c 4d3e adbd f960 a53b c430 5bbc
00000380: 2648 cabc b1bf 2fbd b53a b8bd b20b 62bc
00000390: 2b9e 0c3e e32f d13d 7528 763c b47e d638
000003a0: f53b ecbc 5460 2c3d ba1f 8a3d fd57 8ebd
000003b0: 1544 bfbd 83df e73d 70c0 983d b1dd a6bd
000003c0: 55a7 9b3b 3a14 7c3c d110 37bd e7ad 5d3d
000003d0: dc64 9ebc d222 ac3c a46e f53d 1eaf 703d
000003e0: 0023 ca3d 5ec3 82bd 4f26 d03c 45bb ac3d
000003f0: ec84 9cbd 3f89 2c3d 0213 41bc 8d2e 733a

MLP.3.bias f4 [32]
-0.09759108 0.03927139 0.19879162 -0.08711776 0.0904918 0.043305356 -0.11751497 -0.042873073
0.033239808 0.13035272 0.040518243 -0.14565319 0.14257592 -0.015306925 -0.04377507 -0.16621156
-0.13267203 0.032117736 0.113849506 -0.02788651 0.09581115 -0.000112793095 0.10905327 -0.12735803
-0.05156696 0.012253479 0.13129795 -0.0169037 0.08142561 0.064748876 0.056088123 0.08073563
00000000: d5dd c7bd 09db 203d 0890 4b3e cc6a b2bd
00000010: c453 b93d f560 313d b0ab f0bd ad9b 2fbd
00000020: 7726 083d 2f7b 053e 75f6 253d 1c26 15be
00000030: 6cff 113e e6c9 7abc 7d4d 33bd 5d33 2abe
00000040: 2ddb 07be e38d 033d ee29 e93d 4072 e4bc
00000050: a338 c43d 558b ecb8 5257 df3d 256a 02be
00000060: e037 53bd d1c2 483c f872 063e a179 8abc
00000070: 78c2 a63d 0f9b 843d a9bc 653d b958 a53d

MLP.5.weight f4 [32, 32]
0.009767886 0.018603215 -0.069004916 -0.027047211 0.052800193 -0.08666482 0.047117963 0.009516256
-0.04407253 -0.1040438 0.010328962 0.025797825 -0.06857445 -0.0130985305 0.1293109 -0.029441193
0.11787532 -0.08034001 0.03872543 -0.06221104 -0.021510424 5.107536e-09 0.09409185 0.09410135
-0.10078118 0.054758105 0.12523897 -0.053010248 -0.08991162 0.17465578 0.049369927 0.010111827
-0.066540174 -0.08490407 -0.10641786 -0.0045755226 0.06086872 -0.119578704 -0.013106074 0.06576074
-0.12984031 0.06821045 -0.00364421 0.030312074 0.06377614 0.0702421 0.026064144 -0.04206244
0.13945109 0.11074863 -0.0592884 0.090904 -0.11741284 1.658134e-08 -0.20413707 0.037742406
0.022212869 0.055045903 -0.13996068 -0.008499002 0.11529313 -0.11390241 -0.055646997 0.06732372
0.025496798 -0.10410685 -0.118767306 -0.157509 0.068348505 -0.062669165 0.0074725244 -0.037868246
0.09401478 -0.10593138 0.0051856847 -0.14081582 -0.12838294 -0.0030670608 0.03294993 -0.041439157
0.08035706 -0.07326607 -0.120467246 -0.112607576 -0.08705641 2.586467e-05 0.03447414 -0.025568184
-0.0861576 -0.079590335 0.032336988 -0.016114978 0.046154797 0.060841307 0.025058186 -0.065124385
-0.02775722 0.0077088545 0.10513552 -0.12515879 -0.021384867 0.0034588359 0.02412064 0.0052755466
0.11229834 0.09328647 -0.053663626 -0.010612665 0.10692852 -0.040686056 -0.10986513 -0.08824636
0.023846418 0.115584165 -0.008407441 -0.047386594 -0.049441498 9.2865963e-07 -0.12567475 0.003322253
-0.15424009 -0.082485765 0.15238158 0.045071166 -0.07208155 0.054140475 0.066139415 -0.00078459724
-0.08304057 0.100447044 -0.086772114 -0.0091263885 -0.08152957 0.011558778 0.050294694 0.0056669875
-0.12477689 -0.00018338951 -0.13783605 0.06482111 0.10570184 0.0044937 0.066719756 0.16070753
0.1024059 0.10051162 -0.016845807 -0.0012696036 0.07297072 3.9149286e-06 0.077252515 -0.09186954
0.014901789 0.10229098 -0.118277386 -0.049769174 -0.040196475 -0.15279834 -0.09359854 -0.14403562
-0.016642764 -0.04468125 -0.06707485 0.016382286 0.032832015 0.03394243 -0.0086843595 -0.00936555
-0.06075555 -0.11564219 0.06235446 -0.0027564212 0.03451394 0.014498101 -0.13827875 -0.047933582
0.0643643 -0.035596035 0.03526806 0.011784308 -0.13812417 -4.651164e-07 0.12906891 0.071607895
0.009235414 -0.053248547 -0.07490399 -0.15104805 -0.07643066 0.060939852 0.06500718 0.056119725
0.119272 -0.09855668 0.12834877 0.036923368 -0.10023804 0.07841136 -0.052509144 -0.02831937
-0.10080752 0.013146073 -0.044687778 -0.145966 -0.12347987 -0.03208448 -0.1133686 0.056944136
-0.007941386 0.17480955 0.08334 -0.050015055 -0.024543695 -2.7607372e-05 0.1840881 0.033568755
-0.022883652 0.20551178 0.03719759 -0.12090447 0.109396905 -0.089904964 0.12054753 -0.020439375
0.10878322 -0.11157662 -0.13911614 -0.08824633 -0.121720545 0.034880865 0.040156215 -0.056723893
-0.08231698 0.02831778 -0.13640726 -0.16443384 -0.118641965 0.051931508 0.017042112 0.078320675
0.059089936 0.061597392 -0.026651269 0.10340838 0.013433887 -1.0309188e-07 0.04641091 0.015134905
-0.019780882 0.0013621463 0.053497806 0.10736005 -0.14549808 -0.08059122 -0.056247253 0.027572047
00000000: 7c09 203c c565 983c 7352 8dbd 1d92 ddbc
00000010: 0445 583d 537d b1bd c4fe 403d 12ea 1b3c
00000020: 6685 34bd ea14 d5bd ce3a 293c f655 d33c
00000030: c370 8cbd 389b 56bc 146a 043e a82e f1bc
00000040: 9e68 f13d 4e89 a4bd 8e9e 1e3d 01d1 7ebd
00000050: a136 b0bc 5d7e af31 3ab3 c03d 35b8 c03d
00000060: 5d66 cebd 094a 603d a53e 003e 4621 59bd
00000070: 9523 b8bd f7d8 323e 1f38 4a3d 14ac 253c
00000080: 3746 88bd 2fe2 adbd 9bf1 d9bd 44ee 95bb
00000090: 7b51 793d aee5 f4bd dcba 56bc 91ad 863d
000000a0: dcf4 04be ecb1 8b3d b3d3 6ebb 0751 f83c
000000b0: 119d 823d 17db 8f3d 7984 d53c aa49 2cbd
000000c0: 44cc 0e3e 2dd0 e23d 65d8 72bd e02b ba3d
000000d0: 2576 f0bd c16e 8e32 4f09 51be c897 1a3d
000000e0: c3f7 b53c d077 613d da51 0fbe 663f 0bbc
000000f0: ce1e ec3d ab45 e9bd 1bee 63bd 05e1 893d
00000100: a9de d03c f935 d5bd 463c f3bd 0a4a 21be
00000110: 4dfa 8b3d b158 80bd 14dc f43b bc1b 1bbd
00000120: d28a c03d 8df2 d8bd adec a93b 0632 10be
00000130: d176 03be be00 49bb 81f6 063d 1bbc 29bd
00000140: 3e92 a43d 850c 96bd 88b7 f6bd cd9e e6bd
00000150: a24a b2bd f5f7 d837 c134 0d3d 5e74 d1bc
00000160: 6573 b0bd 4200 a3bd ca73 043d 8f03 84bc
00000170: d00c 3d3d bc34 793d d346 cd3c ef5f 85bd
00000180: 1c63 e3bc 8f9a fc3b 4b51 d73d a029 00be
00000190: 512f afbc a3ad 623b a698 c53c 7ede ac3b
000001a0: acfc e53d fa0c bf3d 64ce 5bbd bee0 2dbc
000001b0: 57fd da3d 6ca6 26bd f800 e1bd 82ba b4bd
000001c0: 9059 c33c 64b7 ec3d 5dbf 09bc 7218 42bd
000001d0: 2b83 4abd 0149 7935 e2b0 00be 28ba 593b
000001e0: 1df1 1dbe 4cee a8bd eb09 1c3e 8b9c 383d
000001f0: 7e9f 93bd 67c2 5d3d 1a74 873d 6ead 4dba
00000200: 2d11 aabd 2eb7 cd3d 94b5 b1bd d986 15bc
00000210: faf8 a6bd 0761 3d3c cf01 4e3d 23b2 b93b
00000220: 078b ffbd 3f4c 40b9 e524 0dbe eec0 843d
00000230: 357a d83d e33f 933b 5ea4 883d 8490 243e
00000240: 2fba d13d 09d9 cd3d 3800 8abc d468 a6ba
00000250: ac71 953d fb5c 8336 9136 9e3d 1926 bcbd
00000260: a226 743c ef7d d13d 6a3b f2bd c3da 4bbd
00000270: 0fa5 24bd 2b77 1cbe 97b0 bfbd 137e 13be
00000280: 6856 88bc b003 37bd 8a5e 89bd 2534 863c
00000290: dd7a 063d 3807 0b3d d848 0ebc f771 19bc
000002a0: d0da 78bd d0d5 ecbd 6467 7f3d 13a5 34bb
000002b0: 7d5e 0d3d 7189 6d3c f298 0dbe 0156 44bd
000002c0: 6ed1 833d 26cd 11bd 3e75 103d f812 413c
000002d0: 6c70 0dbe 1cb5 f9b4 a42a 043e 29a7 923d
000002e0: 2250 173c 261b 5abd 4367 99bd 57ac 1abe
000002f0: ae87 9cbd 119c 793d 7c22 853d ccdd 653d
00000300: e144 f43d 16d8 c9bd dc6d 033e f53c 173d
00000310: 9a49 cdbd 2396 a03d d413 57bd 06fe e7bc
00000320: 2c74 cebd a062 573c 880a 37bd 1c78 15be
00000330: 04e3 fcbd 046b 03bd cc2d e8bd 413e 693d
00000340: 961c 02bc 4601 333e 29ae aa3d 96dc 4cbd
00000350: dc0f c9bc 6196 e7b7 9781 3c3e 647f 093d
00000360: 7f76 bbbc ae71 523e 805c 183d c39c f7bd
00000370: 7c0b e03d 1820 b8bd a0e1 f63d 7a70 a7bc
00000380: bdc9 de3d 4882 e4bd 7674 0ebe 7eba b4bd
00000390: 9f48 f9bd 3ddf 0e3d d87a 243d 5057 68bd
000003a0: ce95 a8bd b0fa e73c 58ae 0bbe 5861 28be
000003b0: 8ffa f2bd 22b6 543d e69b 8b3c 9766 a03d
000003c0: 4a08 723d 8c4d 7c3d c353 dabc c6c7 d33d
000003d0: ce19 5c3c 5c63 ddb3 5e19 3e3d 65f8 773c
000003e0: 840b a2bc 0c8a b23a 8420 5b3d 96df db3d
000003f0: 73fd 14be 020d a5bd 8563 66bd c6de e13c

MLP.5.bias f4 [32]
-0.109968476 0.09510086 0.11071542 -0.100051746 0.08917838 0.14455923 -0.074713685 -0.01170437
0.10463006 0.047644965 -0.018741384 0.056674328 0.12847075 -0.0413786 -0.14611007 -0.13037497
0.08605762 -0.11268659 0.12357339 -0.14417687 -0.13838115 -0.14667784 -0.016707765 -0.004513337
0.048343 -0.124171235 0.12223492 0.105144106 0.03806919 -0.0061839335 0.0078882715 0.06697175
00000000: 2737 e1bd 3dc4 c23d c4be e23d eee7 ccbd
00000010: 28a3 b63d 5607 143e 7d03 99bd b0c3 3fbc
00000020: 4948 d63d 5e27 433d 8887 99bc 5723 683d
00000030: d68d 033e 9b7c 29bd e19d 15be 0481 05be
00000040: fa3e b03d 3ac8 e6bd 0c14 fd3d 1aa3 13be
00000050: cab3 0dbe b732 16be b9de 88bc 9de4 93bb
00000060: 4f03 463d 7d4d febd 4d56 fa3d cb55 d73d
00000070: 70ee 1b3d 98a2 cabb cf3d 013c 7c28 893d

MLP.6.weight f4 [32]
0.74102545 0.6249933 0.78848654 0.78622484 0.6276028 0.58330137 0.82270813 0.79143405
0.65011567 0.7149022 0.7174023 0.57539314 0.6714652 0.73601294 0.6194913 0.6061389
0.78126115 0.80206215 0.6304273 0.6416495 0.7365046 0.7138438 0.75677353 0.59039986
0.77912545 0.7488799 0.6404203 0.77090436 0.65683097 0.6363294 0.55187833 0.620961
00000000: d8b3 3d3f 90ff 1f3f 41da 493f 0846 493f
00000010: 94aa 203f 3d53 153f 009d 523f 6c9b 4a3f
00000020: fb6d 263f d503 373f ada7 373f f74c 133f
00000030: 25e5 2b3f 586b 3c3f fb96 1e3f eb2b 1b3f
00000040: bb00 483f f253 4d3f af63 213f 2443 243f
00000050: 918b 3c3f 78be 363f e9bb 413f 7224 173f
00000060: c474 473f 98b6 3f3f 96f2 233f fd59 453f
00000070: 1326 283f 7ce6 223f e647 0d3f 4df7 1e3f

MLP.6.bias f4 [32]
-0.011754281 -0.011894641 0.0018952314 0.013465915 -0.0016835666 0.006085564 0.0029588966 -0.022787511
0.005052 0.013750601 0.025934663 -0.031086253 -0.006871194 0.001844461 -0.0035490992 0.0065495265
-0.0081474995 0.012624618 0.0024086449 0.0029954878 -0.004599898 0.01714067 -0.013627025 -0.012751047
0.009751865 -0.023867665 0.007044934 0.01136936 -0.016793016 0.004986265 0.010575562 0.005194436
00000000: 0795 40bc bee1 42bc 6a69 f83a 24a0 5c3c
00000010: 1fab dcba 6969 c73b 0cea 413b e0ac babc
00000020: 3f8b a53b 334a 613c ee74 d43c 99a8 febc
00000030: c127 e1bb d7c1 f13a 0198 68bb 699d d63b
00000040: 177d 05bc 7cd7 4e3c 5bda 1d3b f24f 443b
00000050: beba 96bb 976a 8c3c e343 5fbc c4e9 50bc
00000060: 49c6 1f3c 1f86 c3bc 31d9 e63b 8d46 3a3c
00000070: 8291 89bc d363 a33b 1f45 2d3c 1636 aa3b

MLP.8.weight f4 [32, 32]
-0.09985121 -0.09978253 0.1467631 0.0009251938 0.05409805 -0.036601882 -0.11780981 -0.04901615
-0.026211677 -0.08501354 0.064525746 -0.10543848 0.070391364 0.01710816 -0.123070605 -0.012100151
-0.07641453 0.028751755 -0.018234735 0.1296103 -0.09668588 0.095434345 -0.058372375 -0.030546118
0.05287389 -0.029282954 -0.14015603 -0.05155221 -0.10659148 -0.011026649 -0.09574092 0.0008213462
0.14293994 0.13411428 0.10849108 0.09569756 -0.104682565 0.05868082 -0.031018408 -0.05812664
-0.046812415 -0.13947499 -0.07132567 -0.076371685 0.00023929907 0.061348055 0.13835908 0.09659503
-0.0060894853 -0.09468752 0.046682246 -0.12234712 -0.06388575 -0.0032472727 0.028762588 -0.031931233
0.10193762 0.055832855 -0.14905843 0.061469734 -0.03159402 0.10513193 -0.014194334 0.019449774
0.15325251 -0.0013446335 0.15898553 -0.04104839 0.027494341 0.1413437 -0.10235021 -0.024896793
0.03691462 0.102042675 -0.05623183 0.05930761 0.12356944 0.07394044 -0.0014286211 0.105093256
-0.13080221 0.09665138 -0.08512953 -0.09913166 0.096218824 0.0018528003 0.11745503 -0.10292028
-0.010516393 -0.024539074 -0.09364337 0.07558169 0.11615915 -0.044041652 -0.06362183 -0.10155323
-0.14086284 -0.078218274 0.12222959 -0.12553047 0.13100238 0.0742769 -0.102642536 -0.17388941
-0.1142367 -0.07799432 0.024389243 -0.14045979 0.069494836 0.039089303 -0.10424835 0.0050319643
-0.0029552737 0.02914315 0.056671817 0.064459205 -0.15192811 0.06879988 -0.12274865 -0.11943879
-0.059786517 -0.15216699 0.13165773 -0.07324713 -0.1310102 0.011659935 0.08130022 0.06452359
0.06469671 -0.058598377 -0.022945175 -0.07487759 -0.086350515 -0.05717738 -0.016109861 0.071962066
0.01785006 0.035043843 -0.051087737 0.051204756 0.10827383 0.027055185 0.026736751 0.01117683
-0.0985177 0.072272435 0.03608288 -0.044773214 0.04492466 -0.040868577 0.003981602 -0.044650648
-0.022887107 -0.0014144413 0.013506111 0.027892662 -0.053707927 -0.05340522 -0.012405688 -0.046625298
0.03489235 -0.16645366 -0.11148029 0.085307516 -0.073880576 0.091876276 0.14048335 -0.06662505
0.12096122 -0.024030514 0.10914209 -0.014769284 -0.07086633 -0.0070946887 0.039835595 -0.074634366
-0.09909719 -0.045799386 -0.029044926 -0.12968563 0.032324284 0.093011804 -0.15280856 0.08663665
-0.033699423 0.036787175 -0.10570368 0.11457647 -0.010249844 0.03137907 0.019500703 -0.02669622
-0.035750248 0.17905949 -0.09029488 0.022618651 0.014993736 0.012298423 -0.167778 0.05522115
-0.11548943 0.13647449 0.05853445 -0.01362668 -0.13458194 0.048594516 0.068748884 -0.050515685
0.09515978 0.042376462 0.09370012 0.029996281 0.03663878 -0.15560378 -0.15820357 0.029398456
-0.030304113 0.015180752 -0.011638205 -0.16703743 0.016212178 0.03196899 -0.05061142 -0.029483266
0.044884536 0.035005543 -0.019549105 -0.120870136 0.05988515 0.123924784 -0.10501103 -0.0574093
-0.027649622 0.07429102 -0.000650232 0.12110817 -0.027216336 -0.04269765 -0.0582997 0.079678655
-0.13954835 0.030270029 -0.018826751 0.008903495 0.013340468 0.102076024 0.13808103 -0.03786394
0.018317096 0.1392434 -0.01326644 -0.054905213 0.033025805 -0.05521577 -0.100401714 -0.012180349
00000000: cb7e ccbd c85a ccbd 1149 163e b488 723a
00000010: eb95 5d3d dbeb 15bd 4546 f1bd 29c5 48bd
00000020: dfb9 d6bc 941b aebd 1326 843d 21f0 d7bd
00000030: 5929 903d 6926 8c3c 710c fcbd b63f 46bc
00000040: 397f 9cbd cd88 eb3c 0361 95bc 90b8 043e
00000050: 3f03 c6bd 1573 c33d df17 6fbd da3b fabc
00000060: 4b92 583d cee2 efbc 1085 0fbe 6928 53bd
00000070: a24c dabd 1ea9 34bc d113 c4bd 9c4f 573a
00000080: d95e 123e 4155 093e 9230 de3d 15fd c33d
00000090: d063 d6bd 4d5b 703d 511a febc 3316 6ebd
000000a0: 60be 3fbd 88d2 0ebe 3113 92bd c268 9cbd
000000b0: 5bec 7a39 1948 7b3d 01ae 0d3e 9dd3 c53d
000000c0: 4e8a c7bb 88eb c1bd e235 3f3d 2091 fabd
000000d0: 88d6 82bd 32d0 54bb 859f eb3c 53ca 02bd
000000e0: acc4 d03d feb0 643d c6a2 18be b0c7 7b3d
000000f0: bb68 01bd 694f d73d 5a8f 68bc 2255 9f3c
00000100: 3aee 1c3e 6a3e b0ba 1acd 223e 5b22 28bd
00000110: d03b e13c 67bc 103e fd9c d1bd 5cf4 cbbc
00000120: c933 173d c0fb d03d 5953 66bd 89ec 723d
00000130: f911 fd3d 166e 973d 9240 bbba 223b d73d
00000140: 04f1 05be 29f1 c53d 6458 aebd 8a05 cbbd
00000150: 600e c53d a9d9 f23a 438c f03d dec7 d2bd
00000160: f34c 2cbc 2b06 c9bc 18c8 bfbd 93ca 9a3d
00000170: d9e4 ed3d 0565 34bd 294c 82bd 24fb cfbd
00000180: 593e 10be e730 a0bd 8253 fa3d 0f8b 00be
00000190: 7d25 063e 7d1e 983d 4036 d2bd 1110 32be
000001a0: eef4 e9bd 7cbb 9fbd f3cb c73c b1d4 0fbe
000001b0: 4f53 8e3d 1b1c 203d 2980 d5bd 2de3 a43b
000001c0: 44ad 41bb 9ebd ee3c b520 683d 3003 843d
000001d0: 0b93 1bbe f4e6 8c3d a563 fbbd 539c f4bd
000001e0: b5e2 74bd aad1 1bbe 49d1 063e 9702 96bd
000001f0: 8a27 06be 5009 3f3c bb80 a63d f224 843d
00000200: b57f 843d da04 70bd 85f7 bbbc 6c59 99bd
00000210: 8ad8 b0bd d432 6abd d4f8 83bc d960 933d
00000220: 4a3a 923c 228a 0f3d 6041 51bd 14bc 513d
00000230: abbe dd3d d6a2 dd3c 0807 db3c 061f 373c
00000240: a6c3 c9bd 9203 943d a4cb 133d 1e64 37bd
00000250: ec02 383d cf65 27bd 1978 823b 99e3 36bd
00000260: be7d bbbc c664 b9ba bc48 5d3c 277f e43c
00000270: d8fc 5bbd 6fbf 5abd 3a41 4bbc 2bfa 3ebd
00000280: 48eb 0e3d d472 2abe c74f e4bd b5b5 ae3d
00000290: b34e 97bd a129 bc3d deda 0f3e b772 88bd
000002a0: 84ba f73d a4db c4bc e385 df3d defa 71bc
000002b0: 5e22 91bd 907a e8bb a62a 233d e7d9 98bd
000002c0: 78f3 cabd 2398 3bbd a0ef edbc 4fcc 04be
000002d0: 7866 043d f97c be3d d979 1cbe 8e6e b13d
000002e0: 6808 0abd 26ae 163d 2c7b d8bd 11a7 ea3d
000002f0: f6ee 27bc 5787 003d f0bf 9f3c 08b2 dabc
00000300: da6e 12bd 5f5b 373e 86ec b8bd c04a b93c
00000310: 49a8 753c 537f 493c ffcd 2bbe 932f 623d
00000320: b985 ecbd f8bf 0b3e d2c1 6f3d 7042 5fbc
00000330: d9cf 09be 0b0b 473d 37cc 8c3d 89e9 4ebd
00000340: 21e3 c23d f192 2d3d d9e5 bf3d c3ba f53c
00000350: 8c12 163d 9956 1fbe 1e00 22be 08d5 f03c
00000360: 5540 f8bc b0b8 783c 2bae 3ebc dc0b 2bbe
00000370: 67cf 843c eaf1 023d ec4d 4fbd e486 f1bc
00000380: d9d8 373d f961 0f3d 7225 a0bc c38a f7bd
00000390: 224a 753d 47cc fd3d 0610 d7bd 0426 6bbd
000003a0: 7681 e2bc e425 983d 5574 2aba 8f07 f83d
000003b0: cbf4 debc bbe3 2ebd abcb 6ebd 902e a33d
000003c0: c3e5 0ebe daf8 f73c 8f3a 9abc f7df 113c
000003d0: fa91 5a3c 3c0d d13d 1d65 0d3e 3817 1bbd
000003e0: bc0d 963c d295 0e3e 7b5b 59bc 4ae4 60bd
000003f0: 1146 073d ee29 62bd 6a9f cdbd 1690 47bc

MLP.8.bias f4 [32]
0.032262802 0.12830904 0.046937983 -0.124375485 0.042115603 0.0041310214 -0.054905616 -0.0998707
-0.14289664 -5.5432218e-05 -0.021963837 0.15438946 0.005402593 -0.0025969234 0.046025064 -0.032095306
0.08982502 -0.13892275 0.14327984 0.090970196 0.08527484 -0.1145488 -0.04254132 0.025555499
0.008474018 0.13719077 -0.010763275 -0.0069721243 0.044500537 0.0012714716 -0.034275685 0.15492435
00000000: 0026 043d 7263 033e 0b42 403d 93b8 febd
00000010: 6981 2c3d 855d 873b b6e4 60bd 0289 ccbd
00000020: 7f53 12be e47f 68b8 81ed b3bc 4518 1e3e
00000030: 3c08 b13b 2531 2abb c784 3c3d 5e76 03bd
00000040: 2ef6 b73d c441 0ebe f3b7 123e 954e ba3d
00000050: 93a4 ae3d 9098 eabd cf3f 2ebd c459 d13c
00000060: 9cd6 0a3c bd7b 0c3e 7358 30bc 6b76 e4bb
00000070: 3246 363d 82a7 a63a a964 0cbd 7da4 1e3e

MLP.10.weight f4 [32, 32]
-0.062096015 -0.06302136 -0.09006384 -0.049365815 0.0032407076 0.0744687 -0.034891628 0.010461689
0.06016487 -0.036844652 -0.112043194 -0.057783023 0.01501121 0.09009279 -0.033702984 -0.015686607
0.06854398 0.09323893 0.024052339 0.08864977 0.045753803 0.14580865 -0.026053626 -0.020066032
0.04241299 -0.039042275 -0.014425923 0.010343317 -0.0942561 0.11891635 0.0047554574 0.028237602
0.049073946 -0.02508958 -0.024331177 0.0017087172 0.026551703 -0.030555522 -0.0075972583 -0.012388416
0.0300451 0.029171128 0.011026423 -0.12797718 0.022728167 -0.09635174 0.03575347 0.004894171
0.047782537 0.017033415 0.11453473 -0.1483413 0.021204464 -0.12916467 -0.025066929 0.06600772
-0.11606066 0.106349505 -0.011272441 0.03540482 0.12716235 -0.14449942 -0.020054044 0.08925975
-0.07984389 -0.021558605 -0.120672196 -0.008894448 0.063911796 0.07479366 0.17507859 -0.032939073
-0.010465479 0.09426491 0.04860764 0.13055146 0.16238172 0.035240214 -0.032229442 0.015371123
-0.0067000194 0.10007086 -0.05241579 0.11451769 -0.08772256 0.058534518 -0.07318836 -0.050502136
-0.12953323 -0.19176608 -0.0042430325 0.0014175634 0.054149624 0.072167106 -0.02951357 -0.1775447
0.014489718 0.16524182 -0.11805681 -0.11115809 -0.06193101 0.16201548 0.024361825 -0.08333125
-0.12235852 -0.0633996 -0.11984434 0.10855239 0.13580376 0.1562736 0.08818655 0.016207624
0.09086157 0.09471987 0.08826431 -0.1487421 -0.017052788 0.008047503 -0.0502115 -0.12992881
0.02406759 0.15163632 -0.039265815 -0.01194657 -0.014775359 -0.0445591 0.041434973 0.07980261
0.08315041 -0.0816829 0.14335573 0.0733744 0.024259012 -0.044530056 0.10473432 -0.09207377
0.036161635 0.04723714 -0.13105413 0.048444226 -0.08123002 -0.17193791 -0.06843287 0.03100544
-0.05492826 0.0066474862 0.12757236 0.10225132 -0.034922 -0.12044644 0.06257231 -0.11416173
-0.03300477 0.017115546 0.019433089 0.055624824 0.048833337 -0.10536399 0.013812587 -0.13602115
0.038929813 -0.103273004 -0.069734454 0.006347434 0.006751285 0.029671377 -0.07588646 0.0050000176
-0.14216454 -0.0843037 0.05238233 0.16392018 0.06817413 -0.16423927 -0.12557222 0.0048736283
0.023670888 0.07604667 0.09959154 0.15987289 -0.019904178 0.08398214 0.050330095 0.07784285
-0.05124749 0.011704644 -0.049644805 0.009946961 -0.028822875 -0.038192105 -0.03627135 0.15672965
0.050960176 0.12987514 -0.09231918 -0.12323567 -0.060726143 -0.13557868 -0.049556587 -0.016004676
-0.08403757 0.14464323 -0.005174925 0.057509243 0.08930043 -0.04128851 -0.030421464 -0.017916488
0.048948124 0.074412905 0.03968842 0.04374033 -0.04522505 -0.021031162 0.010396552 -0.09236495
0.027579878 0.10570049 0.013173354 -0.0742222 -0.062924154 0.043306477 0.041427642 0.0111396015
-0.06007408 0.05022518 -0.002754165 -0.13220611 -0.134188 0.027561327 -0.13755362 0.008125306
0.08401365 -0.074449696 0.11955658 -0.022230864 0.0330146 -0.014813984 0.04784109 0.004368012
0.082824595 -0.109810755 -0.00013823013 0.12308337 0.047059182 -0.14455418 -0.0317575 -0.10689918
-0.108220935 0.049920645 -0.026744617 -0.021207204 0.05796329 0.0876094 -0.02020876 0.146639
00000000: 6458 7ebd 5811 81bd 6473 b8bd cf33 4abd
00000010: 0d62 543b 0c83 983d 86ea 0ebd 8167 2b3c
00000020: 706f 763d 6bea 16bd e776 e5bd e4ad 6cbd
00000030: 94f1 753c 9282 b83d 240c 0abd 3381 80bc
00000040: c960 8c3d 0df4 be3d 6909 c53c 038e b53d
00000050: 5768 3b3d dd4e 153e 6a6e d5bc 8561 a4bc
00000060: 3eb9 2d3d cbea 1fbd b55a 6cbc 0477 293c
00000070: 5809 c1bd 6a8a f33d abd3 9b3b 8b52 e73c
00000080: c301 493d aa88 cdbc 2d52 c7bc 09f7 df3a
00000090: f582 d93c 934f fabc 6cf2 f8bb c8f8 4abc
000000a0: 2421 f63c 4af8 ee3c 2ca8 343c 730c 03be
000000b0: 6c30 ba3c 1054 c5bd 3b72 123d 485f a03b
000000c0: 9fb7 433d a989 8b3c 2f91 ea3d c8e6 17be
000000d0: fcb4 ad3c be43 04be 2959 cdbc 0e2f 873d
000000e0: 36b1 edbd c5cd d93d 0bb0 38bc a504 113d
000000f0: d936 023e a8f7 13be 6148 a4bc d1cd b63d
00000100: 3285 a3bd ac9b b0bc fc22 f7bd 05ba 11bc
00000110: 30e4 823d 6b2d 993d cd47 333e 1feb 06bd
00000120: 6777 2bbc f60d c13d ce18 473d 48af 053e
00000130: 6547 263e 0b58 103d 0503 04bd 2ad7 7b3c
00000140: d68b dbbb f3f1 cc3d f0b1 56bd 4088 ea3d
00000150: e3a7 b3bd e4c1 6f3d c7e3 95bd 54db 4ebd
00000160: 5ca4 04be 545e 44be 2309 8bbb 89cd b93a
00000170: ffcb 5d3d 59cc 933d 71c6 f1bc 47ce 35be
00000180: 4866 6d3c 2735 293e c5c7 f1bd daa6 e3bd
00000190: 5fab 7dbd 63e7 253e 7392 c73c 93a9 aabd
000001a0: 1b97 fabd a6d7 81bd f370 f5bd b750 de3d
000001b0: 2410 0b3e 3006 203e 269b b43d dac5 843c
000001c0: a115 ba3d 7efc c13d ebc3 b43d d94f 18be
000001d0: 4ab2 8bbc add9 033c 93aa 4dbd 0f0c 05be
000001e0: 6529 c53c 8d46 1b3e 31d5 20bd 8cbb 43bc
000001f0: 5914 72bc 9a83 36bd b8b7 293d 8d6f a33d
00000200: c34a aa3d 5d49 a7bd d8cb 123e 5145 963d
00000210: d6ba c63c 2665 36bd f27e d63d 2c91 bcbd
00000220: 391e 143d bb7b 413d 0e33 06be 746d 463d
00000230: ed5b a6bd 7e10 30be 8826 8cbd 1fff fd3c
00000240: 75fc 60bd 28d3 d93b 54a2 023e 2469 d13d
00000250: 5f0a 0fbd a0ac f6bd e925 803d a0cd e9bd
00000260: 0230 07bd e735 8c3c 2432 9f3c dbd6 633d
00000270: 7705 483d 13c9 d7bd 304e 623c 2149 0bbe
00000280: de74 1f3d cc80 d3bd f0d0 8ebd 23fe cf3b
00000290: e239 dd3b 6311 f33c 5c6a 9bbd 30d7 a33b
000002a0: 9593 11be 6ba7 acbd db8e 563d b1da 273e
000002b0: e19e 8b3d 572e 28be 0196 00be f5b2 9f3b
000002c0: 73e9 c13c 5bbe 9b3d a6f6 cb3d b8b5 233e
000002d0: 160e a3bc d4fe ab3d ee26 4e3d 126c 9f3d
000002e0: e3e8 51bd d6c4 3f3c 5a58 4bbd 94f8 223c
000002f0: f31d ecbc 536f 1cbd 4491 14bd bd7d 203e
00000300: 9ebb 503d fdfd 043e d711 bdbd fc62 fcbd
00000310: fabb 78bd 23d5 0abe d9fb 4abd 3d1c 83bc
00000320: e41b acbd 5b1d 143e 6b92 a9bb d08e 6b3d
00000330: 25e3 b63d 241e 29bd 6f36 f9bc 99c5 92bc
00000340: d47d 483d cb65 983d 5390 223d 0f29 333d
00000350: e73d 39bd 8b49 acbc 4d56 2a3c d629 bdbd
00000360: 32ef e13c 8079 d83d 0dd5 573c cf01 98bd
00000370: 61de 80bd 2262 313d 08b0 293d e082 363c
00000380: 3d10 76bd ebb8 4d3d 397f 34bb 0a61 07be
00000390: 9468 09be 4bc8 e13c dbda 0cbe 0120 053c
000003a0: 590f ac3d 1579 98bd 15da f43d 801d b6bc
000003b0: 513a 073d 5ab6 72bc 05f5 433d 8a21 8f3b
000003c0: f19f a93d 76e4 e0bd def1 10b9 2213 fc3d
000003d0: 21c1 403d 0306 14be 2714 02bd f5ed dabd
000003e0: f0a2 ddbd 9779 4c3d 8717 dbbc bbba adbc
000003f0: ea6a 6d3d 8f6c b33d d78c a5bc 8928 163e

MLP.10.bias f4 [32]
0.14581873 -0.15412675 0.08583729 -0.015152599 0.060282364 -0.08023185 0.12001203 -0.12359367
-0.060685426 -0.08600892 0.15548462 -0.13789645 0.095986165 0.104105465 -0.009680977 0.08252435
-0.1272293 0.15953763 -0.16283914 0.043748368 0.08732057 -0.07241378 0.011538263 0.0034837902
0.16016422 -0.090306975 -0.064416684 0.091690004 0.0847153 0.018695083 0.085212715 -0.07731961
00000000: 8151 153e 67d3 1dbe 76cb af3d 9b42 78bc
00000010: a4ea 763d 9950 a4bd dec8 f53d ae1e fdbd
00000020: 4891 78bd 7225 b0bd 5c37 1f3e ba34 0dbe
00000030: 6594 c43d 3f35 d53d f69c 1ebc 8702 a93d
00000040: 6648 02be d55d 233e 4ebf 26be 7d31 333d
00000050: 21d5 b23d ad4d 94bd fc0a 3d3c 4d50 643b
00000060: 1702 243e ddf2 b8bd e5ec 83bd f8c7 bb3d
00000070: 377f ad3d 6e26 993c 0184 ae3d be59 9ebd

MLP.11.weight f4 [32]
0.8875901 0.8013641 0.8544675 0.8405822 0.89830476 0.9005622 0.9027339 0.85820514
0.8620471 0.8441219 0.8882626 0.81652695 0.7729432 0.72129846 0.84501296 0.899865
0.7015725 0.6881142 0.78107566 0.862381 0.87631166 0.855715 0.80853474 0.8595224
0.6948213 0.77047896 0.7844468 0.768829 0.8429753 0.85190535 0.883349 0.77902913
00000000: 1b39 633f 3326 4d3f 62be 5a3f 6530 573f
00000010: 4df7 653f 3f8b 663f 9219 673f 55b3 5b3f
00000020: 1eaf 5c3f 5f18 583f 2e65 633f e907 513f
00000030: 9bdf 453f 04a7 383f c552 583f 8d5d 663f
00000040: 419a 333f 4128 303f 93f4 473f 00c5 5c3f
00000050: f655 603f 2310 5b3f 22fc 4e3f a909 5c3f
00000060: cfdf 313f 1c3e 453f 81d1 483f fad1 443f
00000070: 3bcd 573f 7816 5a3f 2923 623f 746e 473f

MLP.11.bias f4 [32]
0.006971665 0.014256929 0.0069848937 0.003765574 -0.003047679 -0.0027419322 0.012463451 -0.01243743
0.0042996337 0.0022927115 0.01416819 0.007874102 0.00936507 -0.011952433 -0.006092708 0.005441607
0.0010395003 -0.012724721 -0.007395936 -0.0006481796 0.008353503 0.0011448502 0.0039654933 0.004334288
0.03293843 0.016451038 0.004013493 -0.003125085 0.0010833318 0.0053136228 0.014087513 0.014952988
00000000: 9172 e43b e595 693c 89e1 e43b d9c7 763b
00000010: 92bb 47bb fdb1 33bb 8133 4c3c 5dc6 4bbc
00000020: f1e3 8c3b 5141 163b b221 683c 6102 013c
00000030: f36f 193c 23d4 43bc 57a5 c7bb 824f b23b
00000040: d83f 883a 597b 50bc 9c59 f2bb 99ea 29ba
00000050: 22dd 083c cc0e 963a f8f0 813b a506 8e3b
00000060: 72ea 063d 54c4 863c 9f83 833b 3ace 4cbb
00000070: 95fe 8d3a e61d ae3b 50cf 663c 61fd 743c

MLP.13.weight f4 [4, 32]
-0.008318365 -0.13093136 -0.03998323 -0.11302735 -0.124153726 -0.123763695 -0.13900341 0.038779818
0.08362361 -0.14643322 0.0220956 0.007534575 -0.019523855 0.0007819508 0.06920781 0.14987773
0.062001854 0.013755896 0.018916937 0.014627004 0.1391281 -0.044330157 -0.084176734 0.12504461
-0.009581994 0.006299006 -0.063512966 0.0039998335 -0.13169551 -0.15541242 0.16500443 0.090053365
0.0142938355 -0.0010560617 0.004993125 -0.04516907 0.041103262 0.017349416 0.010150725 0.0057079983
0.062507086 -0.014673217 0.021721939 -0.0042026574 -0.01740808 0.038614176 -0.046565086 0.025139892
-0.023562925 0.017936558 -0.011757696 0.018635765 0.014676204 -0.03335299 -0.039621864 -0.06896098
0.008201049 -0.055474985 -0.018051408 0.031799685 0.021523472 -0.043999147 -0.0003654029 -0.043551616
-0.014837588 0.0052717943 0.16325298 0.08645948 0.063385434 0.13480543 -0.1041119 -0.113381185
-0.048847236 -0.06246198 -0.088281326 -0.09783978 0.1010258 0.049235456 0.12002833 -0.10610322
-0.04895659 -0.059059817 0.075937435 -0.11127325 -0.046551816 -0.099631645 -0.05823593 0.04680375
-0.10502755 -0.044491976 -0.03634639 0.08167903 -0.019893704 -0.015839368 0.03422491 -0.03766189
0.13065046 -0.0125301005 -0.01817562 0.027226057 -0.1151199 0.12053103 -0.06539831 0.09072703
0.029901363 -0.0110844 0.10566364 0.07689574 -0.018345961 -0.024218962 -0.017761534 -0.064954974
0.022321409 0.04550789 0.039204936 0.06301211 -0.11157198 -0.032385685 -0.0032389022 0.06903276
-0.063576415 -0.040714744 0.06245131 -0.053508297 -0.031203944 -0.03132817 -0.06903925 0.016518278
00000000: c049 08bc df12 06be 75c5 23bd e27a e7bd
00000010: 4f44 febd d277 fdbd e956 0ebe 96d7 1e3d
00000020: db42 ab3d 97f2 15be d501 b53c 99e4 f63b
00000030: 7ef0 9fbc d4fb 4c3a d3bc 8d3d 8c79 193e
00000040: a8f5 7d3d 6960 613c b1f7 9a3c 1aa6 6f3c
00000050: 9977 0e3e 8a93 35bd da64 acbd b20b 003e
00000060: ccfd 1cbc e467 ce3b 1613 82bd 0911 833b
00000070: 30db 06be 6f24 1fbe ecf6 283e e66d b83d
00000080: b130 6a3c 8d6b 8aba 5e9d a33b 3403 39bd
00000090: e55b 283d 5d20 8e3c 3a4f 263c 290a bb3b
000000a0: b703 803d ef67 70bc 35f2 b13c 72b6 89bb
000000b0: 649b 8ebc e629 1e3d 08bb 3ebd 2df2 cd3c
000000c0: 0907 c1bc b0ef 923c 5aa3 40bc 08aa 983c
000000d0: 7674 703c 259d 08bd 894a 22bd 6a3b 8dbd
000000e0: b15d 063c bd39 63bd 8ce0 93bc 6340 023d
000000f0: fe51 b03c 7338 34bd 8c93 bfb9 2e63 32bd
00000100: 5b19 73bc 04bf ac3b ca2b 273e ab11 b13d
00000110: 39d0 813d 6f0a 0a3e 9f38 d5bd 6534 e8bd
00000120: 0a14 48bd 22d8 7fbd d7cc b4bd 3960 c8bd
00000130: 9de6 ce3d 1eab 493d 6ad1 f53d a54c d9bd
00000140: b586 48bd b5e8 71bd 1685 9b3d 3be3 e3bd
00000150: 1ead 3ebd ad0b ccbd cc88 6ebd 4ab5 3f3d
00000160: af18 d7bd 383d 36bd f4df 14bd 5647 a73d
00000170: 1ff8 a2bc 90c1 81bc 6b2f 0c3d 5b43 1abd
00000180: 3cc9 053e 0d4b 4dbc 0ae5 94bc 2e09 df3c
00000190: fbc3 ebbd f9d8 f63d 8def 85bd 18cf b93d
000001a0: b4f3 f43c 589b 35bc 2e66 d83d 847b 9d3d
000001b0: 454a 96bc d866 c6bc a380 91bc 1d07 85bd
000001c0: 63db b63c 7b66 3a3d 5b95 203d 7e0c 813d
000001d0: da7f e4bd daa6 04bd c343 54bb 0c61 8d3d
000001e0: 5a34 82bd 81c4 26bd f2cc 7f3d 842b 5bbd
000001f0: 6a9f ffbc f851 00bd 7364 8dbd 5751 873c

MLP.13.bias f4 [4]
-0.1339865 -0.00029647304 0.09700461 0.1210851
00000000: c233 09be f06f 9bb9 5aaa c63d 77fb f73d
