example/model/acker_robot_default/model_2500.pth (torch, 24610 bytes, 18 tensors)

MLP.0.weight f4 [32, 2]
0	0x3ea818ed	0.32831517
1	0xbe2fe6dd	-0.17177911
2	0xbd1588b0	-0.03650731
3	0xbd4f7ef9	-0.0506582
4	0xbf00c3fa	-0.50299037
5	0xbe741fca	-0.23840252
6	0x3ddef9f5	0.10887519
7	0xbf1eec9d	-0.62079793
8	0xbe70c435	-0.23512347
9	0x3e18676f	0.14883207
10	0xbf0f690a	-0.5601965
11	0xbef97a3f	-0.4872608
12	0xbeef2350	-0.4670663
13	0xbe560718	-0.20901144
14	0xbe675420	-0.22590685
15	0x3e096514	0.13417464
16	0xbea7e630	-0.32792807
17	0x3eb6cf56	0.3570506
18	0x3c99c73e	0.018771764
19	0x3db63d27	0.08898383
20	0x3f18becc	0.5966613
21	0xbeef86ac	-0.46782434
22	0x3e975887	0.29559729
23	0x3f2692b9	0.6506763
24	0xbeb62886	-0.35577792
25	0x3ca7bcce	0.020475771
26	0x3da377cf	0.07981836
27	0xbea2c323	-0.31789503
28	0xbcfa557f	-0.030558346
29	0x3e96429d	0.29347697
30	0xbe7a1a4c	-0.24424094
31	0xbdc5a201	-0.096500404
32	0xbce3fb5d	-0.02782982
33	0xbe6b2817	-0.22964512
34	0x3ebebe82	0.3725472
35	0x3e4ae962	0.19815591
36	0x3e2e3472	0.17012194
37	0x3f152e34	0.58273625
38	0xbc75f2aa	-0.015011469
39	0xbf10df74	-0.5659096
40	0xbe561594	-0.20906669
41	0xbf0abe61	-0.54196745
42	0xbebc2a52	-0.36751038
43	0x3eb91b9c	0.36153877
44	0xbeeccac3	-0.46248445
45	0x3eb9d6fd	0.36296836
46	0xbe146b41	-0.14494039
47	0xbe82a71d	-0.25518122
48	0x3e57da2b	0.21079318
49	0x3e2cd63c	0.16878599
50	0x3c407a2f	0.011747881
51	0x3ed91f96	0.4240691
52	0xbe3cd460	-0.1844039
53	0xbe221105	-0.15826805
54	0x3ee229d7	0.44172546
55	0xbe2e9cb1	-0.1705196
56	0x3ee8257e	0.45341104
57	0xbec0feaf	-0.37694308
58	0xbe034f1b	-0.12823145
59	0xbe374af1	-0.17899682
60	0x3e453a49	0.19260515
61	0x3d4ccd0a	0.050000228
62	0xbf083677	-0.53208107
63	0xbef8ebd6	-0.4861743

MLP.0.bias f4 [32]
0	0x3f0bd1f7	0.54617256
1	0xbee54836	-0.44781655
2	0xbddf4508	-0.109018385
3	0xbe9533f6	-0.29141206
4	0x3ba63cf0	0.0050731823
5	0x3dcdd543	0.10050442
6	0xbea983bf	-0.33108327
7	0xbde9ac98	-0.11409873
8	0xbde47efa	-0.11157031
9	0x3dbeeb74	0.09322253
10	0x3dc10440	0.09424639
11	0x3e67061a	0.22560921
12	0x3f149f90	0.58055973
13	0x3e8ae4e8	0.27127767
14	0xbefad302	-0.4898911
15	0x3e83ce76	0.25743455
16	0xbdc6fe5a	-0.097164825
17	0x3e99c85d	0.30035678
18	0x3f16f57b	0.58968323
19	0x3eb86988	0.36018014
20	0x3f212089	0.6294027
21	0x3f059b58	0.5219016
22	0x3d1149f0	0.035470903
23	0xbcc8b697	-0.024501128
24	0x3dbc1f3b	0.09185644
25	0xbe9b272f	-0.30303332
26	0x3f4c89ff	0.79898065
27	0xbe811e35	-0.2521836
28	0xbdf9f832	-0.122055426
29	0x3f276f5d	0.654043
30	0x3ea2b9c1	0.31782344
31	0x3de1f301	0.110326774

MLP.1.weight f4 [32]
0	0x3f742acc	0.953778
1	0x3f9c2fe1	1.2202111
2	0x3f495c3a	0.7865635
3	0x3f64f783	0.8944017
4	0x3f4d0430	0.80084515
5	0x3f47b98e	0.7801751
6	0x3f6a5503	0.9153597
7	0x3f431e97	0.7621855
8	0x3f4d91d2	0.8030063
9	0x3f378639	0.7168918
10	0x3f4bd7cf	0.7962617
11	0x3f6d0f05	0.92601043
12	0x3f78521d	0.97000295
13	0x3f517833	0.81824034
14	0x3f4cf4b1	0.8006087
15	0x3f3f982d	0.74841577
16	0x3f52caf6	0.82340944
17	0x3f314b97	0.69255966
18	0x3f5cd9aa	0.8626963
19	0x3f4be605	0.79647857
20	0x3f74ef12	0.9567729
21	0x3f5d565c	0.864599
22	0x3f5648be	0.83704746
23	0x3f4ef25d	0.80838567
24	0x3f573fe6	0.84081876
25	0x3f3ee1a4	0.7456305
26	0x3f7c97ef	0.9866933
27	0x3f552721	0.8326283
28	0x3f3c4a9f	0.7355136
29	0x3f4d4cb5	0.8019517
30	0x3f62c803	0.88586444
31	0x3f5356f0	0.8255453

MLP.1.bias f4 [32]
0	0x3b7979e4	0.0038067037
1	0x3c873ec1	0.016509416
2	0xbcbbfa52	-0.02294651
3	0x3d911d9b	0.07085725
4	0xbcb683c4	-0.022279628
5	0x3c86dd4b	0.016462943
6	0xbd0736e1	-0.03301132
7	0xbb244582	-0.0025065844
8	0x3d46272f	0.048377212
9	0xbc3a5659	-0.011373126
10	0x3d01219c	0.031526193
11	0xbdaf68be	-0.085649
12	0x3c93199d	0.01795655
13	0x3bc9e18e	0.0061609214
14	0xbd2e11f4	-0.04249759
15	0x3d13c020	0.036071897
16	0x3d478072	0.04870648
17	0x3d7fc726	0.062445782
18	0xbdabeddb	-0.08394977
19	0x3ca23115	0.019798795
20	0x3b4b4c1e	0.0031020711
21	0x3a8de3c5	0.0010825327
22	0xbc7e8173	-0.015533793
23	0x3c2caba7	0.010538972
24	0x3c72e70e	0.014825596
25	0xbcc8f9cc	-0.024533175
26	0x3c8d1122	0.017220084
27	0xbce254d7	-0.027628345
28	0xbcc7b4a8	-0.024378136
29	0x3ce25649	0.027629035
30	0xba6235fd	-0.00086292607
31	0x3d94bee2	0.072629705

MLP.3.weight f4 [32, 32]
0	0xbdd85792	-0.10563578
1	0xbebcfd5c	-0.36912048
2	0x3de96042	0.11395313
3	0xbdfa0832	-0.122085944
4	0xbdae99d9	-0.08525438
5	0xbe130976	-0.14359078
6	0x3de9cff0	0.11416614
7	0xbda9413a	-0.08264394
8	0xbe182075	-0.14856131
9	0x3d9305cf	0.07178842
10	0xbe15108c	-0.14557093
11	0x3dcecb45	0.10097364
12	0x3b5656cd	0.0032705546
13	0x3dc01846	0.0937963
14	0xbdf38a20	-0.1189158
15	0x3d83ddd2	0.06438793
16	0xbe109775	-0.14120276
17	0x3ccc65cd	0.024950886
18	0xbd44abf9	-0.04801557
19	0xbbeeb85e	-0.007285162
20	0xbe17f8bd	-0.1484098
21	0x3e122413	0.14271574
22	0x3c801463	0.015634721
23	0x3e0630ca	0.13104549
24	0xbdf01cbd	-0.117242314
25	0x3d441ea3	0.04788078
26	0xbdc80a9b	-0.09767648
27	0x3cf89fe0	0.030349672
28	0xbcda20f3	-0.02662704
29	0x3e1fa6c7	0.15590964
30	0xbdde8975	-0.108660616
31	0x3d96eee0	0.073697805
32	0xbdb1b32b	-0.08676752
33	0xbde633a4	-0.112403184
34	0xbe181052	-0.14849976
35	0x3e0390a1	0.1284814
36	0x3dc1cd7c	0.09463021
37	0xbb866fb9	-0.004102674
38	0xbdff2a66	-0.12459259
39	0xbdfcdc7c	-0.123467416
40	0x3ddc783e	0.10765122
41	0x3d8e6a2a	0.06953843
42	0xbe2815d7	-0.16414581
43	0x3e111f5c	0.14172119
44	0xbdd80234	-0.10547295
45	0x3e0eb73d	0.13937087
46	0x3cf05cd6	0.029341143
47	0xbd87b25f	-0.066258185
48	0xbddb9eb7	-0.10723632
49	0x3e1d3d30	0.15355372
50	0x3d2529b1	0.040322963
51	0xbe0a17d1	-0.13485648
52	0xbe0a25b9	-0.13490953
53	0x3e1dc267	0.1540619
54	0x3e1b5d06	0.15172204
55	0x3d9f0803	0.077652
56	0xbc1cad60	-0.00956282
57	0x3cc0143d	0.02344715
58	0x3d14ff09	0.036376033
59	0xbbde272e	-0.006779573
60	0x3c65afe4	0.014018986
61	0x3d3598d4	0.0443352
62	0x3dce202e	0.100647315
63	0x3d341db3	0.043973636
64	0xbd6e97a5	-0.05825009
65	0xbc0b4fc8	-0.008502908
66	0xbda07dbf	-0.07836484
67	0x3e097927	0.13425122
68	0xbcc90d10	-0.024542361
69	0x3df6f007	0.120575
70	0x3d364cbf	0.044506785
71	0xbddf6178	-0.109072626
72	0xbdf780c7	-0.12085109
73	0xbdf1c56c	-0.11805233
74	0xbd885750	-0.066572785
75	0x3c41a0b5	0.011818101
76	0xbc8a1499	-0.016855525
77	0x3d748901	0.05970097
78	0xbd80fd8b	-0.062983595
79	0xbcc3ff62	-0.023925487
80	0x3e24b400	0.1608429
81	0x3e0d8962	0.13821939
82	0xbe48593c	-0.1956529
83	0x3dbc1913	0.0918447
84	0xbb036bbd	-0.002005323
85	0x3e139ce1	0.14415313
86	0x3c5e4adb	0.013567652
87	0xbcfdf2fb	-0.030999651
88	0x3db607d5	0.088882126
89	0x3d9ac0a8	0.075562775
90	0xbc913e4c	-0.0177299
91	0x3d987b34	0.07445374
92	0xbdf579c3	-0.11986115
93	0xbe0c204c	-0.13684195
94	0xbd606f30	-0.054793537
95	0x3e1b5e0e	0.15172598
96	0xac3b58d2	-2.6623603e-12
97	0xac05ae5e	-1.899723e-12
98	0x2b493875	7.1487895e-13
99	0x2cd98e6c	6.183323e-12
100	0xaa6474ce	-2.0290993e-13
101	0xac45d5c8	-2.8114056e-12
102	0x2c26acb3	2.3685886e-12
103	0x2a0a413c	1.2279495e-13
104	0xac705a1b	-3.415607e-12
105	0xaae19f8d	-4.007874e-13
106	0x2b5a2ee1	7.7514216e-13
107	0x2cb6bc82	5.1936797e-12
108	0xac7d89b3	-3.60299e-12
109	0x2b514d0b	7.4358634e-13
110	0x2c72d6be	3.4509474e-12
111	0xaa2db974	-1.5429829e-13
112	0x2aa2b264	2.8900764e-13
113	0xab2bc18f	-6.102002e-13
114	0x2bbe7edf	1.3535526e-12
115	0x2b9f7b36	1.1331827e-12
116	0xac86c65c	-3.8305314e-12
117	0xacc16d82	-5.4975477e-12
118	0xac3f8c62	-2.722066e-12
119	0xaa84f17e	-2.361548e-13
120	0x2b3cfdb6	6.714311e-13
121	0x2c078a8b	1.926156e-12
122	0x2c62197a	3.2130674e-12
123	0x2bdb9585	1.5602386e-12
124	0x2c3bbab8	2.6677948e-12
125	0x2c77b301	3.5200178e-12
126	0xa9431347	-4.331542e-14
127	0xac7e27ff	-3.6117773e-12
128	0xbe0ed57c	-0.13948625
129	0x3e1cf79a	0.15328828
130	0xbe0e2d53	-0.13884477
131	0x3dbb702c	0.091522545
132	0xbd72625b	-0.05917583
133	0x3d09bf1f	0.033629533
134	0x3d98ac3c	0.07454726
135	0x3e089f23	0.13341956
136	0xbd607b66	-0.054805182
137	0xbd351dad	-0.044217754
138	0xbe07f92c	-0.13278645
139	0x3bf1c4d2	0.007378199
140	0xbddc5e0c	-0.107601255
141	0x3dc3cae8	0.09560186
142	0xbe276910	-0.16348672
143	0x3ccc5004	0.024940498
144	0x3dd5a3e0	0.10431647
145	0x3d27a42a	0.040928043
146	0xbdf08f06	-0.117460296
147	0x3dee2525	0.116281785
148	0x3def79b7	0.11693137
149	0xbd0aa3cd	-0.03384762
150	0x3db58b47	0.08864456
151	0xbd168428	-0.036747128
152	0x3e054a40	0.13016605
153	0xbd5fd584	-0.054646984
154	0xbdaa68b1	-0.083207496
155	0xbe179a55	-0.14804967
156	0xbdced3e1	-0.100990064
157	0x3c10c337	0.008835605
158	0xbe11c96f	-0.14236997
159	0xbd540228	-0.05175987
160	0xbe2fa873	-0.17154102
161	0x3dbea6d2	0.09309162
162	0x3d3c50fb	0.045975666
163	0x3d99ab0c	0.07503328
164	0x3d478428	0.04871002
165	0xbd79ff7a	-0.061034657
166	0x3e73347c	0.2375049
167	0x3e3264a7	0.17421208
168	0x3ad65f70	0.0016355347
169	0x3d9d4e22	0.07680918
170	0xbdb00566	-0.0859478
171	0xbd0a910b	-0.03382973
172	0xbcbfb106	-0.023399841
173	0xbe154ca1	-0.14580013
174	0xbbef1d61	-0.0072972034
175	0x3c6777aa	0.014127651
176	0x3e0b3c13	0.13597135
177	0xbd0e6a11	-0.03476912
178	0xbb6aec6a	-0.003584648
179	0x3e14e05f	0.14538716
180	0xbdae3930	-0.085070014
181	0x3dabc46f	0.08387076
182	0x3e290800	0.16506958
183	0xbdc5a6c2	-0.09650947
184	0xbe15a0da	-0.14612141
185	0x3d751d80	0.059842587
186	0x3e32b2e8	0.1745106
187	0xbdf0ff97	-0.117675
188	0x3dd7e0a4	0.10540894
189	0xbdcde601	-0.100536354
190	0xbdd45f05	-0.10369686
191	0x3e47e24c	0.19519919
192	0xbe2a7f23	-0.16650061
193	0xbdfe1e4d	-0.12408123
194	0x3ccf30c1	0.025291802
195	0x3e5bfc2e	0.21482918
196	0xbd118287	-0.03552487
197	0xbe300453	-0.1718915
198	0x3e16c1f2	0.14722422
199	0xbd391570	-0.04518646
200	0x3da0cd46	0.07851653
201	0x3d95292c	0.072832435
202	0x3dd50670	0.104016185
203	0x3de30741	0.11085368
204	0xbbd59bd0	-0.0065188184
205	0x3dda1bbb	0.106498204
206	0x3d89275d	0.06696961
207	0x3e4e65f6	0.20156083
208	0x3da4259b	0.08014985
209	0xbdbfc8c5	-0.093644656
210	0xbb9194e6	-0.004442799
211	0x3c498f4c	0.012302231
212	0x3e2df976	0.16989693
213	0xbdcc6468	-0.099800885
214	0xbe297aec	-0.16550797
215	0xbc99478a	-0.01871087
216	0x3db891f7	0.090122156
217	0x3c81af3f	0.015830634
218	0x3e53df95	0.20690759
219	0xbe5af4b3	-0.21382408
220	0xbda0a012	-0.07843031
221	0x3d42c019	0.04754648
222	0x3cb2b7d2	0.021816168
223	0x3c08e58a	0.008355508
224	0x3d0574a1	0.03258193
225	0x3e723598	0.23653257
226	0x3df8087f	0.121109955
227	0x3bbaf445	0.0057053887
228	0xbd1380cf	-0.036011513
229	0xbde483c9	-0.111579485
230	0xbe358db0	-0.1772983
231	0x3cd03273	0.025414681
232	0xbdd201f8	-0.10254282
233	0x3e031ee3	0.12804751
234	0x3c9b0e71	0.018927785
235	0x3df95a36	0.121754095
236	0xbdab69b1	-0.083697684
237	0xbe1a4532	-0.15065458
238	0xbcf89505	-0.030344496
239	0x3cd7ecc8	0.026358023
240	0x3dc41ccd	0.09575806
241	0x3d2ac1a9	0.041688595
242	0xbd3e856d	-0.046513963
243	0x3dca0a32	0.09865226
244	0xbe1e947e	-0.15486333
245	0x3d50d80a	0.05098728
246	0x3e289920	0.16464663
247	0xbda49e76	-0.080380365
248	0xbdade020	-0.08490014
249	0xbe160e08	-0.1465379
250	0x3ad3fe10	0.0016173739
251	0x3dad0869	0.0844887
252	0x3d86d5d7	0.065837555
253	0xbb66c63a	-0.0035213367
254	0x3d1f1acc	0.038843915
255	0x3d90ec4f	0.07076322

MLP.3.bias f4 [32]
0	0x3e0afd62	0.1357322
1	0x3e30d24c	0.17267722
2	0x3e33a8a0	0.17544794
3	0xae26c0b5	-3.791519e-11
4	0xbd2b0370	-0.041751325
5	0xbbf0517a	-0.0073339315
6	0xbe393afb	-0.18088906
7	0x3daf47a8	0.08558589
8	0x3d805e8d	0.06268034
9	0xbde7d69b	-0.113202296
10	0x3dc02a7a	0.09383102
11	0xbda9445d	-0.082649924
12	0x3e0f6125	0.14001901
13	0x3c963dd3	0.018340027
14	0xbdd2c428	-0.1029132
15	0x3d850e82	0.06496908
16	0x3c84ba0a	0.016201992
17	0xbe08bed9	-0.13354053
18	0x3d01142e	0.031513385
19	0xbe2dee8a	-0.16985527
20	0xbd10aaf7	-0.035319295
21	0xbe1383ff	-0.14405821
22	0xbd9e9ad7	-0.07744377
23	0x3e2cd881	0.16879465
24	0xbdd12d69	-0.102137394
25	0x3d4d2cc5	0.050091524
26	0xbd3357cf	-0.043784913
27	0x3dd7ff8c	0.105467886
28	0x3dd976e1	0.106183775
29	0x3d563f9a	0.05230675
30	0xbd4d09d0	-0.050058186
31	0xbda9cf8e	-0.08291541

MLP.5.weight f4 [32, 32]
0	0xbdd1cdf5	-0.10244361
1	0x3d8a65f2	0.06757726
2	0x3d288d03	0.041150104
3	0x2aa7a83f	2.9781903e-13
4	0xbe15f4f3	-0.14644222
5	0x3d60e738	0.054908007
6	0xbd677fa3	-0.05651821
7	0x3c17beb5	0.009261777
8	0xbc4bfcb0	-0.012450382
9	0xbd2ee2a3	-0.042696606
10	0x3e1f8dd4	0.15581447
11	0xbca47caf	-0.020078985
12	0xbe392c80	-0.18083382
13	0xbdd3556d	-0.10319028
14	0x3e0addaa	0.1356112
15	0x3d95756f	0.07297789
16	0x3e12a343	0.14320092
17	0xbc89bff4	-0.016815163
18	0x3d36f9ba	0.04467175
19	0x3d993c24	0.07482174
20	0x3debd22b	0.11514696
21	0xbb35e403	-0.0027754314
22	0xbdc11ef4	-0.09429732
23	0xbe2b7799	-0.16744842
24	0xbdba505a	-0.09097357
25	0x3d439e94	0.047758654
26	0x3cc8f3fe	0.024530407
27	0x3d37dd64	0.04488887
28	0xbcbf5ab3	-0.023358678
29	0xbd4257ec	-0.04744713
30	0xbd69bd00	-0.05706501
31	0x3defebb0	0.11714876
32	0xbdaddbe8	-0.084892094
33	0xbe1b8812	-0.15188625
34	0x3e188d03	0.14897542
35	0xac371312	-2.601645e-12
36	0x3e0ffcdd	0.14061303
37	0x3db45950	0.088060975
38	0xbd24d415	-0.04024132
39	0x3dfe5217	0.12418001
40	0x3c325a0c	0.010885727
41	0xbdf05a7e	-0.1173601
42	0xbd413e82	-0.047178753
43	0xbdb37574	-0.08762637
44	0x3daa3b9a	0.08312149
45	0x3d37f8a3	0.044914853
46	0x3db9da1a	0.09074803
47	0x3dca8b2a	0.09889825
48	0x3e107416	0.14106783
49	0x3d228a67	0.039682772
50	0xbe1c57b9	-0.15267839
51	0x3c8d070a	0.01721527
52	0xbe258510	-0.1616404
53	0xbcb6c488	-0.02231051
54	0x3ca1a6ed	0.019732917
55	0x3d67bc8d	0.0565763
56	0xbe07f1ea	-0.13275877
57	0xbdbdf466	-0.09275131
58	0xbca8c970	-0.020603865
59	0xbda8f69f	-0.08250164
60	0x3dc9e841	0.09858752
61	0xbe10c91d	-0.14139219
62	0x3d97c2b3	0.07410183
63	0x3db36287	0.08759027
64	0x3e1e72e7	0.1547352
65	0x3daa4fe5	0.0831602
66	0x3cfb7f50	0.030700356
67	0xad0c60c4	-7.979565e-12
68	0x3e0b4ae2	0.13602784
69	0xbdf722a1	-0.12067152
70	0xbe01a138	-0.12659156
71	0x3da006b6	0.0781378
72	0xbc6bbfdb	-0.014389004
73	0xbc749290	-0.014927521
74	0xbe255731	-0.16146542
75	0x3c50428a	0.012711177
76	0x3dce7671	0.10081185
77	0x3da60556	0.081064865
78	0x3de08f54	0.10964838
79	0xbe1bf17f	-0.15228842
80	0xbd02b85e	-0.031914108
81	0xbda3fd71	-0.080073245
82	0x3d3c54b2	0.04597921
83	0x3cc72866	0.024311256
84	0xbd043c94	-0.032284334
85	0x3c23c31c	0.009995248
86	0xbd2ca737	-0.042151656
87	0x3de27a9a	0.11058541
88	0x3d11dfa3	0.035613667
89	0xbd980163	-0.074221395
90	0x3e11c173	0.14233951
91	0xbd5a538e	-0.05330234
92	0x3da447f3	0.08021536
93	0x3dd4c289	0.10388667
94	0xbd328406	-0.04358294
95	0x3de8b84c	0.11363277
96	0x3d9b3d79	0.07580084
97	0x3d4be5e3	0.049779784
98	0xbe2c6e17	-0.16838871
99	0xac0ebd36	-2.0284447e-12
100	0xbe5245d9	-0.20534457
101	0x3be6e5e2	0.007046447
102	0x3e90c71d	0.2827691
103	0xbe0d40ea	-0.13794294
104	0xbd2b755a	-0.041859962
105	0xbde97bdd	-0.11400578
106	0x3d87bacb	0.06627425
107	0xbd2b3dfb	-0.041807156
108	0xbd76b61c	-0.060232267
109	0x3cf48b40	0.029851556
110	0xbbe8ba05	-0.0071022534
111	0x3db6ec1b	0.08931752
112	0x3c281b4b	0.010260413
113	0x3e050d95	0.12993462
114	0x3d85634e	0.065130815
115	0xbcef8d6c	-0.02924224
116	0x3d825767	0.06364327
117	0x3cbb4767	0.022861196
118	0x3dc1d0d4	0.09463659
119	0x3e227023	0.1586309
120	0x3cfbec22	0.030752245
121	0x3dfab268	0.122410595
122	0xbd1a0598	-0.03760299
123	0x3d84130f	0.06448948
124	0x3d61759e	0.05504381
125	0x3de729d4	0.11287275
126	0xbdc58e1d	-0.096462466
127	0xbdc1b035	-0.09457437
128	0x3d1046b2	0.03522367
129	0xbd6297f4	-0.055320695
130	0xbd6c7c2c	-0.057735607
131	0x2ac6e729	3.5332265e-13
132	0x3d3f861c	0.046758756
133	0xbe1da9da	-0.15396824
134	0xbe0cc71d	-0.1374783
135	0xbdd090fb	-0.10183903
136	0x3da05676	0.07828991
137	0x3e4f362f	0.20235513
138	0x3b7403b0	0.0037233643
139	0xbd86cdba	-0.06582208
140	0xbd863a50	-0.06554091
141	0x3df4dce0	0.11956191
142	0xbd848263	-0.06470182
143	0x3d4573eb	0.04820625
144	0xbdd28e45	-0.10281042
145	0x3dbae4ed	0.091256954
146	0xbe9649cb	-0.29353175
147	0x3c4585cc	0.012055825
148	0xbdc6fdea	-0.09716399
149	0x39718cfa	0.00023036069
150	0xbc9e0f22	-0.019294325
151	0xbd96510c	-0.07339677
152	0xbe08db67	-0.13364945
153	0xbd3c5543	-0.04597975
154	0x3d996788	0.0749045
155	0xbde9949f	-0.114053
156	0xbe1de5ad	-0.15419646
157	0xbeb0fbd6	-0.34567136
158	0x3ce5760a	0.028010387
159	0x3e3b6f99	0.1830429
160	0xbd20c5f6	-0.03925129
161	0x3c2eaaa7	0.010660804
162	0xbdfd5492	-0.12369646
163	0x2c173bf7	2.1491678e-12
164	0x3c34d5d5	0.01103731
165	0x3e0f4998	0.13992918
166	0x3d70debf	0.058806177
167	0xbd56ec64	-0.052471533
168	0xbda8a761	-0.0823505
169	0xbd7663c1	-0.060153726
170	0xbd166094	-0.036713198
171	0x3cb99cec	0.022657834
172	0x3dccbcd0	0.099969506
173	0x3d0c19e8	0.034204394
174	0xbcb2ff47	-0.021850241
175	0x3ce06ffd	0.02739715
176	0x3d86687c	0.065628976
177	0x3e020c23	0.12699942
178	0xbdf49d1b	-0.11944028
179	0xbcefb834	-0.02926264
180	0xbdc8929f	-0.09793591
181	0x3cf31f6a	0.029678065
182	0xbc3dc4ee	-0.011582596
183	0xbd246ca8	-0.040142685
184	0x3d4ebc7a	0.050472714
185	0xbdb67670	-0.08909309
186	0x3d8b5b7a	0.06804557
187	0xbda76329	-0.0817321
188	0xbe084c9d	-0.13310476
189	0x3dad3cc0	0.08458853
190	0x3c9a0ef2	0.018805955
191	0x3dc7d881	0.09758092
192	0x3d5b6a31	0.05356807
193	0x3de937a2	0.11387564
194	0xbdd30bdc	-0.10304996
195	0xabf4f6db	-1.7405759e-12
196	0xbd6d9c30	-0.05801028
197	0xbd59ff38	-0.05322191
198	0x3e32acc8	0.17448723
199	0xbc17d08c	-0.00926603
200	0xbc042e45	-0.008067672
201	0x3e207b89	0.15672125
202	0x3de7c2bd	0.1131644
203	0xbe013d4c	-0.12621039
204	0xbd91cfa5	-0.07119683
205	0xbe08a880	-0.13345528
206	0x3dbdda59	0.09270162
207	0x3d4d9843	0.050194036
208	0xbe0f3ed1	-0.13988806
209	0xbc9cf96e	-0.019161906
210	0xbdd0c584	-0.10193923
211	0x3e456c09	0.19279493
212	0xbd0b9183	-0.034074318
213	0xbce8371e	-0.028346594
214	0x3d59960f	0.053121623
215	0x3c87786b	0.016536912
216	0xbe06adf4	-0.13152295
217	0x3e1e2058	0.15442026
218	0x3d81eb69	0.06343729
219	0xbd52993d	-0.05141567
220	0xbde8b8e9	-0.11363394
221	0xbdbe7ca6	-0.093011186
222	0xbdfdea9f	-0.12398266
223	0xbdc39d08	-0.09551436
224	0x3cfde6ca	0.030993838
225	0xbdf69ef1	-0.120420344
226	0x3d1d64bd	0.03842615
227	0xac0cf79f	-2.0032654e-12
228	0x3c687b1e	0.01418951
229	0x3d8c58ed	0.06852899
230	0xbd691e09	-0.05691341
231	0x3cce781e	0.02520376
232	0xbd188ba6	-0.037242554
233	0xbccedaf8	-0.025250897
234	0x3d2c949d	0.042133916
235	0xbd872749	-0.0659929
236	0xbce2b0f9	-0.027672278
237	0xbd62f693	-0.055410933
238	0xbd56d639	-0.052450392
239	0xbd6e83ef	-0.05823129
240	0xbe0ae242	-0.13562873
241	0x3e591a3c	0.21201414
242	0xbd3639af	-0.044488605
243	0x3d7df14a	0.06199769
244	0x3d7d45be	0.06183409
245	0x3c9d6211	0.0192118
246	0x3d514e7c	0.05110024
247	0xbc022627	-0.007943667
248	0xbdd2d65d	-0.10294793
249	0x3a182b0d	0.0005804755
250	0x3d9e035d	0.07715485
251	0x3da630c7	0.08114772
252	0x3c260786	0.01013363
253	0x3cdcec7d	0.026968235
254	0xbca5b6f8	-0.020228848
255	0x3d1f2211	0.038850848

MLP.5.bias f4 [32]
0	0xbd57a0d7	-0.052643623
1	0x3ce6744d	0.028131628
2	0xbc2bf276	-0.010494819
3	0xbca5724d	-0.020196104
4	0xbdc4fe3a	-0.09618802
5	0xbb767c6a	-0.0037610778
6	0xbd6efb9d	-0.058345426
7	0x3c3ab6ca	0.011396119
8	0x3cfa1f7a	0.030532587
9	0x3d2990de	0.04139792
10	0x3dc6f8da	0.097154334
11	0x3ce283c7	0.027650727
12	0x3ccf7a0e	0.025326755
13	0x3e00e39d	0.12586828
14	0x3d206184	0.0391555
15	0xbddfa40c	-0.10919961
16	0xbe1df609	-0.15425886
17	0x3dcc921f	0.09988808
18	0x3d164b3b	0.03669284
19	0xba632a44	-0.0008665661
20	0xbd31c312	-0.043398924
21	0x3d187539	0.037221167
22	0xbe17bea3	-0.14818816
23	0x3c06cba3	0.008227262
24	0xbd94cf2f	-0.0726608
25	0xbdc96f7b	-0.09835716
26	0x3e01d4cb	0.1267883
27	0xbe0bf516	-0.13667712
28	0xbdc5292f	-0.09626996
29	0x3d72f610	0.059316695
30	0xbd7da796	-0.0619274
31	0xbbe27309	-0.006910686

MLP.6.weight f4 [32]
0	0x3f60edf0	0.87863064
1	0x3f4570c0	0.7712517
2	0x3f43bf50	0.76463795
3	0x3f44539d	0.76690084
4	0x3f5cde65	0.8627685
5	0x3f0b96cf	0.5452699
6	0x3f404068	0.75098276
7	0x3f25321a	0.64529574
8	0x3f58fa5e	0.8475703
9	0x3f585530	0.84504986
10	0x3f39daae	0.72599304
11	0x3f61a4e4	0.8814223
12	0x3f566c34	0.83758855
13	0x3f530858	0.82434607
14	0x3f478a29	0.7794519
15	0x3f5f8af8	0.87321424
16	0x3f484819	0.7823501
17	0x3f648359	0.8926292
18	0x3f488b4f	0.7833757
19	0x3f296ce9	0.6618181
20	0x3f3e757d	0.7439802
21	0x3f618c3e	0.8810462
22	0x3f5f8eb8	0.87327147
23	0x3f52f22a	0.82400763
24	0x3f478db7	0.77950615
25	0x3f610205	0.87893707
26	0x3f55ef92	0.8356868
27	0x3f4e9b9a	0.8070618
28	0x3f553591	0.8328486
29	0x3f60bf43	0.8779184
30	0x3f2a11a0	0.66433144
31	0x3f5a74f4	0.85334706

MLP.6.bias f4 [32]
0	0x3c00236e	0.007820947
1	0x3c007d5c	0.007842388
2	0xbc0a0c27	-0.008425749
3	0xbc057b18	-0.008147024
4	0xbd1ce266	-0.038301848
5	0xba687586	-0.000886761
6	0xbb461b19	-0.0030228554
7	0xbbff0f1b	-0.007783783
8	0x3be32da2	0.00693293
9	0xbccbb9e0	-0.024868906
10	0xbb19a6f0	-0.002344545
11	0x39f2b129	0.00046289832
12	0x3d4af777	0.049552407
13	0x3d04af45	0.032393713
14	0x3d3a018c	0.04541163
15	0x3bf5e9d8	0.007504683
16	0xbd06d9d1	-0.03292257
17	0xbcde1651	-0.02711025
18	0x3a644bcc	0.00087088044
19	0x3c9a4f2c	0.01883658
20	0xbc052ded	-0.008128625
21	0xbc8a3089	-0.016868846
22	0x3c097f9e	0.008392243
23	0x3c3c54be	0.0114948135
24	0xbbad9b3f	-0.005298048
25	0xbc2fcfa7	-0.0107306605
26	0xbbbcb8c8	-0.0057593323
27	0x3b7547db	0.0037426862
28	0x3c8c37ba	0.017116416
29	0xbbef6ad6	-0.007306437
30	0xbb08206f	-0.0020771285
31	0x3b06f1a8	0.0020590816

MLP.8.weight f4 [32, 32]
0	0xbd81445c	-0.06311867
1	0xbd38ce3d	-0.04511856
2	0x3c1017ee	0.008794768
3	0x3dd0987e	0.101853356
4	0x3d734241	0.059389357
5	0x3d281bae	0.041042022
6	0xbdd299e3	-0.10283258
7	0x3e1e00f5	0.15430053
8	0x3df1ad22	0.118006006
9	0xbd1fa6d9	-0.038977478
10	0xbcea80dc	-0.028625898
11	0x3e015c2c	0.12632817
12	0xbcd5cffa	-0.026100148
13	0xbde5fb1f	-0.11229538
14	0x3e235a9d	0.15952535
15	0x3df719c3	0.120654605
16	0xbe338311	-0.17530467
17	0x3d9d8ba3	0.07692649
18	0xbdbf50b8	-0.09341568
19	0x3bc1521e	0.0058996817
20	0xbdd25815	-0.102707066
21	0xbd512607	-0.051061656
22	0x3e0b9ae5	0.13633306
23	0xbd9c70b7	-0.07638686
24	0x3d2c5b3a	0.042079188
25	0xbdaf751d	-0.085672595
26	0xbc793c20	-0.015212089
27	0x3d337214	0.043809965
28	0xbd846651	-0.06464828
29	0x3d0ad3ed	0.033893514
30	0x3e0510e0	0.12994719
31	0x3dce0370	0.100592494
32	0x3cb7aa1e	0.022419985
33	0xbd29e40e	-0.041477256
34	0x3de0a89d	0.109696604
35	0xbd18fb1e	-0.03734886
36	0xbd3d348b	-0.046192687
37	0x3e2a0a31	0.1660545
38	0x3dfa2a15	0.12215058
39	0xbc29586e	-0.010336025
40	0x3dae70f3	0.08517637
41	0xbdc3a228	-0.09552413
42	0xbdc9fdf3	-0.0986289
43	0xbc87466e	-0.016513076
44	0x3dd36050	0.103211045
45	0x3dc51730	0.09623563
46	0x3d9a865e	0.0754516
47	0x3e3bd614	0.18343383
48	0xbdb737ef	-0.08946215
49	0xbe06a6a2	-0.13149503
50	0x3dcfc8a3	0.1014569
51	0x3d93dd31	0.07219923
52	0x3dd29c6f	0.102837436
53	0x3e09ec70	0.134691
54	0xbe3d8d5e	-0.18510959
55	0x3d4ef2cf	0.05052453
56	0xbd3b60a5	-0.045746464
57	0xbde1a510	-0.11017811
58	0xbe10f5e9	-0.14156307
59	0x3e5d8020	0.21630907
60	0x3d92a8d3	0.07161107
61	0xbe382c3f	-0.17985629
62	0xbdfb7400	-0.122779846
63	0x3b682315	0.00354213
64	0xbdd54bc2	-0.1041484
65	0xbd997f57	-0.07494991
66	0xbda93ff5	-0.08264152
67	0xbe17d96c	-0.14829034
68	0xbe1c3090	-0.152529
69	0xbe0fbfe7	-0.14038049
70	0x3e3e0a19	0.1855854
71	0xbe0d8944	-0.13821894
72	0x3d1c1653	0.038107228
73	0x3c007593	0.007840532
74	0xbe2d6306	-0.16932306
75	0x3de9938f	0.11405098
76	0x3db035db	0.08604022
77	0x3df80562	0.12110402
78	0x3d9032f4	0.070409685
79	0xbe0f64a2	-0.14003232
80	0x3cfec4f1	0.031099768
81	0xbe115c32	-0.14195326
82	0x3e0d6b6c	0.1381051
83	0xbdebe2a7	-0.1151784
84	0xbdad8b2c	-0.084738106
85	0x3e47a8d5	0.19497998
86	0xbc9109c4	-0.017704852
87	0x3d47e7f8	0.048805207
88	0xbd14e921	-0.03635514
89	0xbc27fa0b	-0.010252486
90	0xbe237c4b	-0.15965383
91	0xbe15a1fa	-0.1461257
92	0x3dc03d0d	0.093866445
93	0xbe0c9f53	-0.13732652
94	0xbcfe77d9	-0.031063007
95	0xbd8de22d	-0.06927905
96	0x3dd41121	0.103548296
97	0xbd841e41	-0.06451083
98	0x3e1bf5bb	0.15230457
99	0x3ca5cd6d	0.020239556
100	0x3d6fd8ac	0.058556244
101	0xbd8ae109	-0.06781203
102	0x3e5a0eae	0.21294662
103	0x3d0f6b34	0.035014346
104	0xbdd62863	-0.10456922
105	0xbe08802a	-0.1333014
106	0xbdd35411	-0.10318769
107	0x3d4b4450	0.049625695
108	0xbd9f6803	-0.077835105
109	0xbdd7ad55	-0.10531107
110	0xbde7011e	-0.1127951
111	0x3d7f8449	0.062382016
112	0x3df7ad61	0.12093616
113	0x3e2d3199	0.16913451
114	0xbd688a2e	-0.056772403
115	0x3c1ab42a	0.0094423685
116	0x3ccf095d	0.02527302
117	0xbe35d194	-0.17755729
118	0x3d92d351	0.07169212
119	0x3da24cf3	0.07924833
120	0x3bf03399	0.0073303697
121	0xbe0d2001	-0.1378174
122	0xbce530d6	-0.027977388
123	0x3d04530e	0.03230577
124	0x3d701c45	0.05862071
125	0xbbdcdbe0	-0.0067400783
126	0xbd115908	-0.035485297
127	0xbda2b6a7	-0.079449944
128	0x3d4aac87	0.04948094
129	0xbd760e2f	-0.06007212
130	0xbcc7b9dc	-0.024380617
131	0x3d183e43	0.037168752
132	0xbdb548ff	-0.088518135
133	0xbc0589b7	-0.00815051
134	0x3d1d126d	0.03834765
135	0xbddf5997	-0.1090576
136	0xbdbbf98c	-0.09178457
137	0x3bafc8b8	0.0053645037
138	0xbad760c7	-0.001643204
139	0x3dc517bc	0.096236676
140	0x3e060f5b	0.13091795
141	0xbde616d2	-0.112348214
142	0x3e10a4ae	0.1412532
143	0xbc82cf65	-0.015968034
144	0x3dcc5b05	0.09978298
145	0x3e0db71d	0.13839383
146	0x3d92dc35	0.071709074
147	0xbd8e9ecc	-0.06963882
148	0x3de28dcf	0.11062204
149	0x3d6f6c14	0.05845268
150	0x3d865ae4	0.06560305
151	0xbe3a45eb	-0.18190734
152	0x3dccc850	0.09999144
153	0x3db5159e	0.08842014
154	0xbc5fd3b1	-0.013661311
155	0xbe01587b	-0.12631409
156	0xbd7c1efd	-0.06155299
157	0xbd469eb5	-0.0484912
158	0xbcc21383	-0.023690945
159	0xbcf52312	-0.02992395
160	0x3e1f808b	0.15576379
161	0x3d8560b4	0.06512585
162	0xbd475b92	-0.048671313
163	0xbe2458f1	-0.16049553
164	0xbddc18d9	-0.10746927
165	0xbda1e3d3	-0.07904782
166	0x3dc4d56e	0.09611021
167	0xbd556c14	-0.052105024
168	0xbe0d823f	-0.13819216
169	0xbdb5bd48	-0.08873993
170	0xbe14cd6f	-0.14531492
171	0x3d6fcc0e	0.05854421
172	0x3e21bea0	0.15795374
173	0x3e11cc2a	0.14238039
174	0x3c29cc97	0.010363719
175	0xbc9bffe0	-0.01904291
176	0xbd5a6672	-0.053320356
177	0x3e1068e9	0.1410252
178	0x3d9830cd	0.07431183
179	0x3db2aeba	0.08724733
180	0x3dfe8a0e	0.124286756
181	0x3e1d6843	0.15371804
182	0x3de7fa73	0.11327066
183	0xbe272b35	-0.16325076
184	0xbdfce36c	-0.12348065
185	0x3dd7cff6	0.10537712
186	0x3d656c8a	0.056011714
187	0xbd92611d	-0.07147429
188	0x3e223438	0.15840232
189	0xbdad5759	-0.08463926
190	0xbd0f36cf	-0.03496438
191	0x3e2c3ab0	0.16819263
192	0x3e002b1c	0.12516445
193	0x3b421fa3	0.0029620908
194	0xbdb263c0	-0.08710432
195	0xbc8b6166	-0.017014217
196	0xbe1c191f	-0.15243958
197	0xbde2ff7b	-0.11083885
198	0xbe19b43f	-0.15010165
199	0xbdc879ee	-0.09788881
200	0x3d8e4f2e	0.06948696
201	0xbdc796eb	-0.09745582
202	0x3d843d41	0.06456996
203	0xbe3906db	-0.18069021
204	0x3ba61f45	0.0050696456
205	0xbd4607e8	-0.048347384
206	0xbd9a4f26	-0.075346276
207	0x3df874b1	0.12131632
208	0xbdc41d3e	-0.0957589
209	0x3e09522e	0.13410255
210	0x3e207094	0.15667945
211	0xbd1ad88f	-0.037804183
212	0xbe22707d	-0.15863223
213	0x3dbb79d9	0.091541
214	0xbcf2638d	-0.029588485
215	0x3bcb758a	0.00620908
216	0xbd49fad3	-0.04931147
217	0xbe2286a6	-0.15871677
218	0xbc06c723	-0.008226189
219	0x3de9cc92	0.11415972
220	0xbc359136	-0.011081984
221	0x3d30786f	0.043083604
222	0xbe39685f	-0.1810622
223	0x3e24615d	0.16052766
224	0xbdb4c49a	-0.08826561
225	0x3dccd185	0.100009
226	0x3df7fb44	0.12108472
227	0xbd84ad7e	-0.064784035
228	0x3da1a8ec	0.078935474
229	0xbd11759a	-0.035512544
230	0xbe0984a4	-0.13429505
231	0xbd7dbf29	-0.061949883
232	0x3ca7a967	0.02046652
233	0xbe20d606	-0.15706643
234	0xbdfaf973	-0.1225461
235	0xbe0c18e0	-0.13681364
236	0x3e14e248	0.14539444
237	0x3d1c21a2	0.038118012
238	0x3e276442	0.16346839
239	0xbe305a51	-0.17221953
240	0x3d568c5d	0.052379955
241	0x3dd16e92	0.10226168
242	0xbd029416	-0.031879507
243	0x3d5576e4	0.052115336
244	0x3e0796e7	0.13241158
245	0xbd82ea88	-0.063923895
246	0x3e52315b	0.2052664
247	0x3d5c0de6	0.053724192
248	0xbe004257	-0.12525307
249	0xbd516cf6	-0.051129304
250	0x3d23f3ef	0.040027555
251	0x3c1e6cfa	0.009669537
252	0xbdbc6f46	-0.09200911
253	0xbe1100b3	-0.14160423
254	0xbc1f8a52	-0.009737568
255	0x3ba259a1	0.0049545323

MLP.8.bias f4 [32]
0	0xbe27316f	-0.16327451
1	0x3ddfab5e	0.109213576
2	0x3e1fa8cb	0.15591733
3	0x3cb533cb	0.022119423
4	0x3d14a96e	0.036294393
5	0x3c48db9f	0.012259393
6	0x3def0988	0.1167174
7	0xbca803ad	-0.020509565
8	0x3ccde82b	0.02513512
9	0x3d1d7f4f	0.03845149
10	0xbdc2bca9	-0.0950864
11	0x3e04c6ab	0.12966411
12	0xbd1ea8ef	-0.038735326
13	0xbd020884	-0.031746402
14	0x3df31b8c	0.118704885
15	0xbde14900	-0.11000252
16	0xbe00f386	-0.12592897
17	0xbde5ec08	-0.1122666
18	0x3d8e48fe	0.06947516
19	0xbcc4da4e	-0.024029877
20	0x3cc7eff6	0.024406414
21	0xbccd3b30	-0.025052637
22	0x3ba0a362	0.0049022892
23	0x3e2164fb	0.15761177
24	0x3d9a8e56	0.0754668
25	0xbc31728c	-0.010830533
26	0x3d293125	0.041306634
27	0x3d3501db	0.044191223
28	0xbcedfe40	-0.0290519
29	0x3d414b6b	0.047191065
30	0xbdda8ae4	-0.106710225
31	0x3da16bfa	0.07881923

MLP.10.weight f4 [32, 32]
0	0xbd6c6f8c	-0.057723567
1	0x3bcb0b6d	0.0061964304
2	0x3d795cbe	0.06087946
3	0x3e092455	0.13392766
4	0x3de673ea	0.112525776
5	0xbd69ca17	-0.057077494
6	0xbd355df3	-0.04427905
7	0x3e240db1	0.16020848
8	0xbd663e9a	-0.056212045
9	0x3cfc157d	0.030771965
10	0xbddd970c	-0.108198255
11	0x3d2120b8	0.039337844
12	0xbdbf8c3b	-0.09352919
13	0xbd89377f	-0.06700038
14	0xbda26209	-0.07928855
15	0x3cbbf325	0.022943089
16	0xbc10bc07	-0.008833892
17	0xbbc6cb21	-0.0060666953
18	0xbd78a216	-0.060701452
19	0x3dacb9da	0.08433886
20	0x3df5325b	0.11972495
21	0xbd989617	-0.07450502
22	0x3d6d2cd2	0.057904072
23	0xbe0596a8	-0.13045752
24	0x3e08120b	0.13288133
25	0xbc891f0a	-0.016738433
26	0x3e43c4bd	0.19118018
27	0x3dc8cc8c	0.09804639
28	0x3bf2b16a	0.0074064033
29	0x3d2a8342	0.041629083
30	0x3d80fa4d	0.06297741
31	0xbcddfd31	-0.02709827
32	0x3d0281e2	0.031862147
33	0xbe28bcbc	-0.16478246
34	0x3db96649	0.090527125
35	0x3b4700ec	0.003036554
36	0x3b94115b	0.0045186705
37	0x3d9778f9	0.073961206
38	0x3ded6027	0.11590605
39	0xbe0703a6	-0.13184986
40	0xbd6f5d2a	-0.058438458
41	0xbd5b95fa	-0.053609826
42	0x3d978e9d	0.07400248
43	0x3df085a6	0.117442414
44	0x3df4446b	0.11927112
45	0x3e179ae2	0.14805177
46	0x3e0fa2ee	0.14026996
47	0xbda397d9	-0.07987947
48	0xbc63b242	-0.01389748
49	0xb9da7493	-0.00041667055
50	0xbbf3db9e	-0.007441952
51	0x3d6fcb04	0.05854322
52	0xbbe9a50f	-0.007130272
53	0x3d40b200	0.047044754
54	0x3d08d45d	0.03340565
55	0xbe0c0d28	-0.13676894
56	0x3dc5d1d3	0.096591614
57	0x3d639667	0.055563357
58	0xbd29dbf5	-0.041469533
59	0x3da3e807	0.0800324
60	0x3d20fd14	0.039303854
61	0x3df33f0b	0.11877259
62	0x3cc0181c	0.023448996
63	0xbd938f54	-0.07205072
64	0xbe2b4e9b	-0.16729204
65	0xbc13ecbf	-0.009028613
66	0xbe404e60	-0.18779898
67	0xbe1080b4	-0.14111596
68	0xbb895eed	-0.0041922242
69	0xbb636ec6	-0.0034703477
70	0x3ab7d50d	0.0014025286
71	0xbe25a058	-0.16174448
72	0xbd358e93	-0.044325422
73	0x3e0d6d7d	0.13811298
74	0x3dda7b9a	0.106681064
75	0x3dea433b	0.114386044
76	0x3de675aa	0.112529114
77	0x3c80ab08	0.015706554
78	0x3d2aa80e	0.041664176
79	0x3e26cb6b	0.16288535
80	0xbc626061	-0.013816924
81	0xbd905ea0	-0.07049298
82	0xbe07fc3e	-0.13279817
83	0xbda1e5f2	-0.07905187
84	0x3d7930c5	0.060837526
85	0x3de23ac6	0.110463664
86	0xbdf5a6f1	-0.11994732
87	0x3e6aaabf	0.22916697
88	0xbd3367b5	-0.043800075
89	0xbddabdc3	-0.106807254
90	0xbdb448ef	-0.088029735
91	0x3d6edd65	0.058316607
92	0xbdad8077	-0.08471768
93	0xbdad0f46	-0.08450179
94	0x3d3f8484	0.046757236
95	0x3dc6f273	0.09714212
96	0xbb667047	-0.0035162137
97	0xbdb73fb3	-0.089476965
98	0x3da87a33	0.08226433
99	0xbc75ddc2	-0.015006484
100	0xbe192efb	-0.14959328
101	0xbdd9d49d	-0.10636256
102	0xbc7b9d0b	-0.015357266
103	0xbdbb1c74	-0.091362864
104	0xbcff5a7b	-0.031171074
105	0xbe29403c	-0.1652841
106	0xbd311f3f	-0.04324269
107	0x3d18415b	0.037171703
108	0x3dce1be1	0.10063911
109	0xbd949816	-0.072555706
110	0xbd73df6f	-0.059539255
111	0xbd8c2ffc	-0.0684509
112	0xbc86c03b	-0.016449085
113	0xbda08057	-0.07836979
114	0xbc73d063	-0.014881226
115	0xbaa806e4	-0.0012819436
116	0xbb18d769	-0.0023321754
117	0x3d850752	0.06495537
118	0x3e03f1c4	0.12885195
119	0x3d8de1af	0.06927811
120	0xbd827c26	-0.06371336
121	0x3c17ecbb	0.00927275
122	0x3ddb3899	0.107041545
123	0xbe14085e	-0.14456317
124	0x3dedeb02	0.1161709
125	0xbceaeced	-0.028677428
126	0x3dc748d5	0.097306885
127	0xbdd6127c	-0.10452744
128	0x3d5411f6	0.05177494
129	0x3d1ac5bc	0.03778623
130	0x3d15d3d0	0.036578953
131	0xbd845833	-0.06462135
132	0x3d3438c8	0.043999463
133	0xbdee3426	-0.1163104
134	0xbb9afbeb	-0.004729738
135	0x3de5e169	0.11224634
136	0x3ca8d607	0.020609869
137	0xbdf5cb4c	-0.120016664
138	0x3e148cef	0.14506887
139	0xbe09f6f3	-0.1347311
140	0xbe2018c8	-0.15634453
141	0x3dd29d45	0.10283903
142	0xbd6b7b30	-0.057490528
143	0xbd608119	-0.054810617
144	0x3cc7e738	0.024402246
145	0x3ccc5421	0.02494246
146	0xbdad4cb6	-0.08461897
147	0x3cc7b4a3	0.024378126
148	0xbde2578e	-0.11051856
149	0x3d59335f	0.053027507
150	0xbe1569c7	-0.14591132
151	0xbdcb28ff	-0.09919929
152	0xbe16b180	-0.14716148
153	0xbd5d39d5	-0.05401023
154	0x3df9cd9e	0.121974215
155	0x3d811e8a	0.06304653
156	0x3c829ca0	0.015943825
157	0xbde37d1e	-0.111078486
158	0xbd61c3c6	-0.055118345
159	0x3e1b065c	0.15139145
160	0xbe1b7b12	-0.15183666
161	0x3d9152f6	0.07095902
162	0x3de1e7fb	0.11030575
163	0x3cf5d9c0	0.030011058
164	0xbe11b962	-0.14230874
165	0x3e176014	0.14782745
166	0x3d7f2b28	0.062297016
167	0x3db746c3	0.089490436
168	0xbd118a58	-0.035532326
169	0x3bd7beb0	0.006584011
170	0xbd8def57	-0.06930416
171	0x3e2bd0b3	0.16778831
172	0x3dd7b8a3	0.105332635
173	0x3d4298ff	0.04750919
174	0xbda45889	-0.08024699
175	0xbcc9ec28	-0.02464874
176	0xbd9d7e75	-0.076901354
177	0xbd66ca1f	-0.0563451
178	0x3d93c743	0.072157405
179	0xbe0acfe0	-0.1355586
180	0xbd80c5e1	-0.062877424
181	0xbd0e3152	-0.034715004
182	0xbdb24905	-0.087053336
183	0x3cb1fa69	0.02172585
184	0xba5d21ff	-0.0008435547
185	0xbd682685	-0.05667736
186	0xba25fcb6	-0.00063319074
187	0x3d6d2b42	0.057902582
188	0x3e06a0e4	0.13147312
189	0xbc6bf425	-0.01440147
190	0x3b9b915e	0.0047475537
191	0xbe12fd9f	-0.14354561
192	0x3dca2435	0.09870187
193	0x3d25ef99	0.0405117
194	0xbd0a6876	-0.033791028
195	0xbda59d7e	-0.0808668
196	0x3d2ae2b4	0.041720107
197	0xbdb350c8	-0.08755642
198	0xbddc68e7	-0.10762196
199	0x3df077f5	0.1174163
200	0xbd09042b	-0.03345124
201	0xbdbb4bef	-0.091453426
202	0xbca7432e	-0.020417776
203	0xbc455404	-0.012043957
204	0x3e122d21	0.14275028
205	0x3df9bf81	0.121947296
206	0xbaf33b26	-0.0018557056
207	0x3e213a38	0.15744865
208	0xbde57a4c	-0.11204967
209	0xbd715c8e	-0.058926158
210	0x3d2ac8ac	0.041695282
211	0xbe04f74f	-0.12984966
212	0xbdd44551	-0.103647836
213	0x3c901e94	0.017592706
214	0x3e2b02a0	0.1670022
215	0x3d8e7b14	0.06957069
216	0x3cc6f156	0.024285
217	0xbd577dc9	-0.052610192
218	0x3c56a358	0.013100468
219	0x3e068859	0.1313795
220	0xbe445d51	-0.19176222
221	0x3d6d1fcf	0.057891663
222	0x3d6c5727	0.057700302
223	0x3cf62c2b	0.030050358
224	0x3d30c31b	0.043154817
225	0x3e382044	0.17981058
226	0x3d5c5944	0.053796068
227	0x3dbdbee6	0.092649266
228	0x3e35fa7b	0.17771332
229	0x3ca35ea4	0.01994259
230	0xbdcbec2b	-0.09957155
231	0x3de2bc30	0.1107105
232	0xbd552be7	-0.05204382
233	0x3de3ac6b	0.111168705
234	0xbde60c84	-0.11232856
235	0xbba4314d	-0.00501076
236	0xbd933e5d	-0.07189629
237	0xbcdfa11e	-0.027298506
238	0xbda8686d	-0.08223043
239	0x3cef4e51	0.029212149
240	0xbad2b41f	-0.0016075409
241	0x3d44b32d	0.048022438
242	0x3e130af3	0.14359646
243	0x3d98f936	0.07469408
244	0xbdc031b2	-0.09384479
245	0xbbebf7d4	-0.0072011743
246	0xbdfc2ab8	-0.123128355
247	0x3e69516d	0.22784968
248	0xbd804f84	-0.062651664
249	0x3d150f07	0.036391284
250	0x3e1ce1c7	0.15320502
251	0xbd724035	-0.059143264
252	0xbd453d86	-0.048154376
253	0xbd81eee6	-0.063443944
254	0xbd8155a8	-0.06315166
255	0xbdfd2de1	-0.12362266

MLP.10.bias f4 [32]
0	0xbdcc22e9	-0.09967596
1	0xbd9104f8	-0.07081026
2	0x3e155199	0.14581908
3	0x3dc16f7f	0.09445094
4	0x3e2be700	0.16787338
5	0x3d8e26cd	0.069409944
6	0x3da4fc26	0.08055906
7	0x3d6b65ac	0.05747001
8	0x3da23690	0.07920563
9	0x3df6f010	0.12057507
10	0xbe1cc019	-0.15307654
11	0x3daa5cf3	0.0831851
12	0x3e12836f	0.1430795
13	0x3dc1a709	0.094556876
14	0xbe24b94d	-0.16086312
15	0xbd84ad6d	-0.06478391
16	0xbb8447e5	-0.004036891
17	0x3df7be8d	0.120968916
18	0xbd06f7da	-0.032951213
19	0xbd873dec	-0.066036075
20	0x3cd7b677	0.026332123
21	0x3da948ba	0.082658246
22	0xbd6958e7	-0.05696955
23	0x3d3124eb	0.0432481
24	0x3e062366	0.13099441
25	0x3cc671ae	0.024224129
26	0x3d950772	0.07276811
27	0xbcc71a55	-0.024304548
28	0x3bd0df82	0.0063743005
29	0x3d1817a9	0.03713194
30	0x3c00f9cf	0.007872059
31	0xbd305920	-0.043053746

MLP.11.weight f4 [32]
0	0x3f32345a	0.6961113
1	0x3f6e5ea7	0.9311318
2	0x3f7332fc	0.9499967
3	0x3f70f93b	0.94130296
4	0x3f6361b3	0.8882095
5	0x3f768735	0.9630006
6	0x3f777e2b	0.9667689
7	0x3f68e123	0.9096853
8	0x3f6e34ad	0.93049127
9	0x3f6f7f88	0.9355397
10	0x3f591f32	0.84813225
11	0x3f746299	0.9546295
12	0x3f407a9d	0.75187093
13	0x3f740533	0.95320433
14	0x3f77d97a	0.9681622
15	0x3f647647	0.89242977
16	0x3f7845cf	0.9698152
17	0x3f76026e	0.9609746
18	0x3f6497b9	0.8929401
19	0x3f6c6d2b	0.9235408
20	0x3f74b85b	0.95593804
21	0x3f7a0ed2	0.97678864
22	0x3f606e2f	0.87668127
23	0x3f6c1959	0.9222618
24	0x3f7ad7d7	0.97985595
25	0x3f5b1a7e	0.855873
26	0x3f774406	0.9658817
27	0x3f6e3fd2	0.9306613
28	0x3f6f7dd4	0.93551373
29	0x3f4bb3c3	0.7957117
30	0x3f7536fc	0.95787024
31	0x3f77e6fa	0.9683682

MLP.11.bias f4 [32]
0	0xbbbcc9f7	-0.005761381
1	0xbc08040d	-0.008301747
2	0xbc9fed11	-0.019522222
3	0xbc348d59	-0.011020028
4	0x3ba9b301	0.0051788096
5	0x3a118ebf	0.0005552582
6	0x3b0ea44f	0.0021765416
7	0x3ca41456	0.020029228
8	0xbb5cf501	-0.003371537
9	0xbc37b10a	-0.011211643
10	0xba813d5b	-0.0009860204
11	0xbcbf6296	-0.02336244
12	0xbc1731f0	-0.009228215
13	0xbc5efd8f	-0.013610258
14	0xbcb257a1	-0.0217703
15	0xbc98c657	-0.018649263
16	0x3c153279	0.009106272
17	0x3bfc63bc	0.007702319
18	0xbbf09edc	-0.0073431563
19	0x3b2e0253	0.0026551678
20	0xbadf031a	-0.0017014474
21	0xbbc56bfc	-0.0060248356
22	0x3aa57b79	0.0012625299
23	0x3d0d16bb	0.034445506
24	0xba913c09	-0.0011080514
25	0x3c1b2b4e	0.009470774
26	0xbb1620b2	-0.0022907672
27	0xbb0fab28	-0.0021922085
28	0x3ca0e0ae	0.019638386
29	0xbd25afa5	-0.04045071
30	0x3ca09fc6	0.019607436
31	0xbc703daf	-0.014663144

MLP.13.weight f4 [4, 32]
0	0x3c516721	0.0127809355
1	0x3d537fa8	0.051635414
2	0x3dd66f6b	0.1047047
3	0x3df219c9	0.118213244
4	0x3d02e447	0.031955983
5	0x3e1684e3	0.1469913
6	0x3e0d2936	0.13785252
7	0xbd55ec6e	-0.05222743
8	0x3cc32908	0.023823276
9	0xbdb51ee5	-0.08843783
10	0xbd287163	-0.04112376
11	0x3e1f29d4	0.155433
12	0x3c25056f	0.010072096
13	0x3dc09074	0.09402552
14	0x3d6705b4	0.056401923
15	0xbd116df0	-0.035505235
16	0xbe1add2a	-0.1512343
17	0xbdf6439a	-0.12024613
18	0x3ca0c8d8	0.01962702
19	0x3d7f8edd	0.062392104
20	0x3de3df67	0.11126595
21	0x3e0236df	0.12716244
22	0xbcd38bfc	-0.025823586
23	0xbddd64b9	-0.10810227
24	0x3d7a84ab	0.06116168
25	0xbcf0a236	-0.029374223
26	0x3dada769	0.084791966
27	0x3cc61dbf	0.024184106
28	0xbdad7797	-0.084700756
29	0x3b447aa3	0.0029980324
30	0xbddb1463	-0.10697248
31	0x3e1822ae	0.14856979
32	0xbd1b218d	-0.037873793
33	0xbc491d26	-0.012275016
34	0x3bf3ea97	0.007443737
35	0xbd121b70	-0.035670698
36	0x3cb52891	0.02211407
37	0x3c8e7e33	0.01739416
38	0xbcbf3956	-0.02334277
39	0xbc0451d5	-0.008076151
40	0x3d5b519e	0.053544633
41	0x3d41f89e	0.04735624
42	0x3c312e8a	0.010814318
43	0xbcc2a856	-0.02376191
44	0x3c798ef7	0.015231839
45	0x3d20154d	0.039082814
46	0xbc543124	-0.012951169
47	0x3c98e40c	0.018663429
48	0xbbe5be67	-0.007011223
49	0xbdaa42bb	-0.08313509
50	0x3a4ecd6e	0.0007888888
51	0x3c1f19b2	0.009710716
52	0x3c602519	0.01368072
53	0x3c19bdbb	0.009383614
54	0x3d95359a	0.07285614
55	0x3c8bcea4	0.017066307
56	0xbd9f0e69	-0.077664204
57	0xbd41589c	-0.047203645
58	0xbca6da0a	-0.020367641
59	0xbda8deea	-0.082456425
60	0x3c9f55a6	0.01945002
61	0xbc2aad34	-0.010417271
62	0xbd8b5d3b	-0.06804892
63	0xbcabc670	-0.020968646
64	0x3d62a484	0.055332676
65	0x3c38c223	0.011276755
66	0xba74d527	-0.00093396235
67	0xbc639c60	-0.013892263
68	0xb9df50e5	-0.00042594146
69	0x3b101869	0.0021987206
70	0xba6ecde7	-0.00091096613
71	0xbc993f8b	-0.018707057
72	0xbc0d9fdb	-0.00864407
73	0x3b8546ad	0.004067263
74	0x3d2a0ab4	0.041514114
75	0xbb392c0b	-0.0028255011
76	0x3baa5af2	0.00519883
77	0xbc54697e	-0.012964604
78	0xbbdcca2b	-0.0067379675
79	0xbba5dba2	-0.0050615827
80	0x3c25ffb4	0.010131765
81	0x3c00e028	0.007865943
82	0x3cc2ff73	0.023803448
83	0xbb84a014	-0.004047403
84	0x3cdd75d9	0.027033733
85	0x3bbea5a0	0.005818084
86	0x3c2fe47f	0.01073563
87	0xbb306c6c	-0.0026920093
88	0x3d1cd3ae	0.03828781
89	0xbbc1110b	-0.0058919243
90	0xbce98f8a	-0.028510828
91	0xbc830354	-0.015992798
92	0xbbb02619	-0.0053756353
93	0x3cbfd2ba	0.023415912
94	0x3c7a1bd5	0.015265425
95	0xbbee9ffe	-0.007282256
96	0xbdabaaaa	-0.08382161
97	0xbdb2cc92	-0.08730425
98	0x3e07a902	0.13248065
99	0xbcfe6707	-0.031054987
100	0xbd9932ee	-0.07480417
101	0xbcac8777	-0.021060688
102	0xbdfba137	-0.12286609
103	0xbdc1c067	-0.09460526
104	0xbe22234c	-0.15833777
105	0xbd5ea599	-0.054357145
106	0x3d9bc102	0.07605173
107	0xbe0c599f	-0.13706063
108	0x3d76b9ab	0.06023566
109	0xbe1c9500	-0.15291214
110	0x3e2e10bc	0.16998571
111	0x3e173538	0.14766395
112	0xbe0eca0a	-0.1394426
113	0x3dfde218	0.123966396
114	0x3dd6f300	0.10495567
115	0x3b317059	0.002707502
116	0xbe1f5911	-0.1556132
117	0xbbbf7109	-0.0058423323
118	0x3c88d2af	0.016702024
119	0xbc224a95	-0.009905477
120	0xbd069b50	-0.03286296
121	0xbd1ae582	-0.037816532
122	0x3e2c5d93	0.1683257
123	0xbba7b614	-0.005118141
124	0xbd1f92e6	-0.038958453
125	0x3c9ec8ce	0.01938286
126	0x3d749969	0.059716616
127	0xbd6b441d	-0.057438005

MLP.13.bias f4 [4]
0	0x3e0253ec	0.12727326
1	0xbbaf8350	-0.00535623
2	0xbc0cbce9	-0.008589962
3	0xbd9973be	-0.07492779
