example/model/acker_robot_default/model_1500.pth (torch, 24610 bytes, 18 tensors)

MLP.0.weight f4 [32, 2]
0	0x3eaceb19	0.33773115
1	0xbe37d0e4	-0.17950779
2	0xbd17ca0b	-0.037057918
3	0xbd4ee5fc	-0.0505123
4	0xbf0bdba8	-0.54632044
5	0xbe818100	-0.25293732
6	0x3de71672	0.11283578
7	0xbf254475	-0.6455758
8	0xbe7ab849	-0.24484362
9	0x3e24abaa	0.1608111
10	0xbf169ba6	-0.5883125
11	0xbf01cf41	-0.5070687
12	0xbef21fef	-0.47289988
13	0xbe606f76	-0.21917519
14	0xbe72f577	-0.2372645
15	0x3e0b0df7	0.13579546
16	0xbeb0e374	-0.34548533
17	0x3ec0facc	0.37691343
18	0x3c9fda9c	0.01951342
19	0x3dbadb07	0.091238074
20	0x3f1c02ef	0.60941976
21	0xbef8d475	-0.48599592
22	0x3e9caa30	0.30598593
23	0x3f29d7d0	0.6634493
24	0xbeb86c62	-0.3602019
25	0x3cafbaa3	0.0214513
26	0x3da6d88e	0.08146773
27	0xbeab1b6e	-0.33419365
28	0xbce0e084	-0.027450807
29	0x3e9de2be	0.30837053
30	0xbe821b5e	-0.25411505
31	0xbdc834cf	-0.097756974
32	0xbcf0a15f	-0.029373823
33	0xbe6c3e00	-0.23070526
34	0x3ed04f37	0.40685436
35	0x3e5eb00b	0.21746843
36	0x3e37fe12	0.17968014
37	0x3f1ab35a	0.6042992
38	0xbc7ef833	-0.015562105
39	0xbf1a827e	-0.60355365
40	0xbe58211e	-0.21106383
41	0xbf0c74a9	-0.5486551
42	0xbec03a50	-0.3754449
43	0x3ec00c54	0.37509406
44	0xbef23012	-0.473023
45	0x3ebecca4	0.37265503
46	0xbe1bf338	-0.152295
47	0xbe85d2e8	-0.2613747
48	0x3e5e1f26	0.2169157
49	0x3e39ff71	0.1816385
50	0x3c5f0941	0.013613046
51	0x3eee7387	0.46572515
52	0xbe3d5ad3	-0.18491678
53	0xbe2378bb	-0.15964024
54	0x3ef28120	0.4736414
55	0xbe345ee5	-0.17614324
56	0x3ef9a0dd	0.4875554
57	0xbed66f27	-0.41881678
58	0xbe061d5d	-0.13097139
59	0xbe39ff08	-0.18163693
60	0x3e4d45f8	0.20046222
61	0x3d4e7897	0.050407972
62	0xbf0c7a27	-0.5487389
63	0xbf01be78	-0.5068126

MLP.0.bias f4 [32]
0	0x3f1aac79	0.6041942
1	0xbee602ea	-0.44924098
2	0xbe271422	-0.16316274
3	0xbe9e3964	-0.3090316
4	0x3c2c8364	0.010529373
5	0x3dde2bd6	0.10848205
6	0xbebf5fc8	-0.37377763
7	0xbe079b44	-0.13242823
8	0xbe029b70	-0.12754607
9	0x3dcbb37e	0.09946345
10	0x3da526ba	0.08064027
11	0x3e7faf66	0.24969253
12	0x3f199588	0.5999379
13	0x3e9aa751	0.30205777
14	0xbf0fbbac	-0.5614574
15	0x3e90d4b0	0.28287268
16	0xbdbf143a	-0.0933003
17	0x3ec5e5f5	0.38652006
18	0x3f1c4cb2	0.6105453
19	0x3ed1436e	0.40871757
20	0x3f260967	0.64858097
21	0x3f0fefec	0.56225467
22	0x3d2e7260	0.042589545
23	0xbd045ae3	-0.03231324
24	0x3db5f5f9	0.08884806
25	0xbebbdf34	-0.36693728
26	0x3f507a8d	0.81437
27	0xbea7926a	-0.32728893
28	0xbe1887c0	-0.14895535
29	0x3f327434	0.6970856
30	0x3eb5b500	0.35489655
31	0x3deebba9	0.11656887

MLP.1.weight f4 [32]
0	0x3f801d5e	1.0008962
1	0x3f9fef1c	1.2494845
2	0x3f6183d5	0.88091785
3	0x3f775f5c	0.9662988
4	0x3f62d2cb	0.88602895
5	0x3f598771	0.8497229
6	0x3f7864d3	0.97028846
7	0x3f5c541e	0.8606585
8	0x3f61264d	0.8794907
9	0x3f57df7a	0.84325373
10	0x3f609f0c	0.87742686
11	0x3f79d06d	0.9758366
12	0x3f80ab31	1.0052243
13	0x3f628090	0.8847742
14	0x3f5f5b6a	0.8724886
15	0x3f5dc073	0.8662178
16	0x3f6c1097	0.92212814
17	0x3f50f1a2	0.816187
18	0x3f660453	0.8985035
19	0x3f5da60c	0.8658149
20	0x3f8046b7	1.002158
21	0x3f6dfeb7	0.9296679
22	0x3f685cc5	0.90766555
23	0x3f68a5ea	0.90878165
24	0x3f678e47	0.90451473
25	0x3f64e2a5	0.8940833
26	0x3f85912e	1.043493
27	0x3f6ff3c7	0.9373135
28	0x3f55056b	0.8321139
29	0x3f66eb72	0.9020301
30	0x3f764585	0.9619983
31	0x3f5fa44b	0.87360066

MLP.1.bias f4 [32]
0	0xbb45c8de	-0.003017954
1	0x3c86e8f5	0.016468504
2	0xbccee241	-0.02525437
3	0x3d90bd07	0.07067304
4	0xbce55c09	-0.027997987
5	0x3c2cbe81	0.010543467
6	0xbcf05cb0	-0.029341072
7	0xbb2b7be5	-0.0026166376
8	0x3d449902	0.047997482
9	0xbc5993ab	-0.013279836
10	0x3cd60201	0.026124002
11	0xbda4adab	-0.08040937
12	0x3c804f83	0.015662914
13	0x3c34c1b0	0.011032507
14	0xbd47d607	-0.048788097
15	0x3d07ddf5	0.03317066
16	0x3d33fc8d	0.043942023
17	0x3d7edb14	0.062220648
18	0xbda2b798	-0.07945174
19	0x3c88434d	0.016633654
20	0x3b94d7b6	0.0045423163
21	0x3a723dcf	0.00092407776
22	0xbca547fa	-0.020175923
23	0x3c119e24	0.008887801
24	0x3c60529f	0.013691573
25	0xbca8ca03	-0.02060414
26	0x3c7727f1	0.015085206
27	0xbcec41e3	-0.028840011
28	0xbcbe1ec8	-0.023208037
29	0x3ce51ea4	0.027968712
30	0xbbd8ee94	-0.0066202376
31	0x3d8e99a2	0.06962897

MLP.3.weight f4 [32, 32]
0	0xbde31014	-0.11087051
1	0xbecb0744	-0.3965398
2	0x3de9bc4c	0.11412868
3	0xbdfcffea	-0.12353499
4	0xbdb42ea0	-0.087979555
5	0xbe16cc12	-0.14726284
6	0x3debd040	0.1151433
7	0xbdadfadf	-0.084951155
8	0xbe16a9c4	-0.14713198
9	0x3d9d1391	0.076697476
10	0xbe19459b	-0.14967959
11	0x3dcfda97	0.101491146
12	0x3be9259f	0.0071150805
13	0x3dbfed59	0.09371442
14	0xbdf16126	-0.11786108
15	0x3d8c82aa	0.0686086
16	0xbe1d560b	-0.15364854
17	0x3ce3616a	0.027756412
18	0xbd4ef2a6	-0.050524376
19	0xbc3a8b8f	-0.011385812
20	0xbe1941a3	-0.14966445
21	0x3e24af30	0.16082454
22	0x3cba481d	0.022739464
23	0x3e0bc229	0.13648285
24	0xbdf69759	-0.12040586
25	0x3d485928	0.04891315
26	0xbdd52c47	-0.10408836
27	0x3cf736e6	0.030177545
28	0xbcf2c2cb	-0.0296339
29	0x3e25da24	0.16196495
30	0xbde39dde	-0.11114095
31	0x3d998c0f	0.07497417
32	0xbdb9aace	-0.090657815
33	0xbe0466e6	-0.12929878
34	0xbe19b0ed	-0.15008898
35	0x3e063ae9	0.1310841
36	0x3dce9dc4	0.10088685
37	0x39602196	0.00021374816
38	0xbe013d93	-0.12621145
39	0xbe0520c7	-0.13000785
40	0x3de50f8e	0.111846074
41	0x3da4ecc0	0.08052969
42	0xbe2edb48	-0.17075837
43	0x3e180f29	0.14849533
44	0xbdde22b7	-0.10846465
45	0x3e156b75	0.14591773
46	0x3ce638b1	0.028103204
47	0xbd8bd3af	-0.06827485
48	0xbdfbd846	-0.1229711
49	0x3e208dd4	0.15679103
50	0x3d34f34b	0.044177335
51	0xbe117c76	-0.14207634
52	0xbe124415	-0.14283784
53	0x3e24e024	0.16101128
54	0x3e21b445	0.15791424
55	0x3dad99d8	0.08476609
56	0xbc5c13d0	-0.013432458
57	0x3cc86738	0.024463281
58	0x3d2d044d	0.04224043
59	0xbc23838b	-0.009980093
60	0x3c4a8d9d	0.012362865
61	0x3d652a7c	0.05594872
62	0x3dd497d3	0.10380521
63	0x3d4e69a3	0.05039371
64	0xbd717c1b	-0.058956247
65	0xbc2e99dd	-0.010656801
66	0xbd9cda01	-0.076587684
67	0x3e0430e3	0.12909274
68	0xbccb43f3	-0.024812674
69	0x3e0052e0	0.12531614
70	0x3d434d89	0.047681365
71	0xbde617ae	-0.11234985
72	0xbdfe375f	-0.12412905
73	0xbe0ad80e	-0.13558981
74	0xbd8c35f4	-0.06846228
75	0x3c9156b0	0.017741531
76	0xbc809c74	-0.015699603
77	0x3d7b77f6	0.0613937
78	0xbd868a56	-0.06569354
79	0xbcbd8a93	-0.023137366
80	0x3e2a7c8e	0.16649076
81	0x3e0d69a9	0.13809837
82	0xbe463837	-0.19357382
83	0x3dbfaaa6	0.093587205
84	0xbb6d7704	-0.003623427
85	0x3e1a8341	0.15089132
86	0x3c5e52bf	0.013569533
87	0xbd11ade9	-0.035566244
88	0x3db99d14	0.090631634
89	0x3da17a87	0.07884698
90	0xbc81011f	-0.015747605
91	0x3d9927db	0.07478305
92	0xbdfdbb24	-0.1238921
93	0xbe112b9c	-0.14176792
94	0xbd6bcafa	-0.05756662
95	0x3e1ff720	0.15621614
96	0x9ae3eb0b	-9.426473e-23
97	0x81444db0	-3.6055253e-38
98	0x9b806d9a	-2.1246652e-22
99	0x00e7d26b	2.1289483e-38
100	0x061c855d	2.943832e-35
101	0x9792d64c	-9.489125e-25
102	0x9bd557c3	-3.529461e-22
103	0x056b285c	1.105706e-35
104	0x929323ca	-9.285827e-28
105	0x02144444	1.0892914e-37
106	0x9d278d21	-2.2175228e-21
107	0x8a2997e8	-8.1656244e-33
108	0x055aface	1.0296376e-35
109	0x81864d6f	-4.933494e-38
110	0x813c170a	-3.4546676e-38
111	0x00b28f01	1.6398018e-38
112	0x01996c52	5.6358756e-38
113	0x19200afe	8.274026e-24
114	0x8284a13f	-1.9488208e-37
115	0x000adba2	9.97144e-40
116	0x80acf56f	-1.588375e-38
117	0x0bbd4251	7.2899934e-32
118	0x183d2a67	2.4449085e-24
119	0x8207946f	-9.960832e-38
120	0x828a6599	-2.0335592e-37
121	0x803bdf1c	-5.498331e-39
122	0x8022c5a1	-3.193303e-39
123	0x198c5526	1.4510052e-23
124	0x9962cb9d	-1.17250455e-23
125	0x001f22e0	2.859411e-39
126	0x0f03ff00	6.50791e-30
127	0x94a2b7af	-1.643027e-26
128	0xbe1614df	-0.14656399
129	0x3e7ba0c5	0.24573047
130	0xbe14d919	-0.14535941
131	0x3db824ac	0.089913696
132	0xbd8908c8	-0.06691128
133	0x3d314a97	0.043284025
134	0x3daa5907	0.08317762
135	0x3e14c231	0.14527203
136	0xbd817389	-0.06320865
137	0xbd5cbd60	-0.05389154
138	0xbe0fcda5	-0.14043291
139	0x3c1ee2e3	0.009697649
140	0xbdeb206a	-0.11480792
141	0x3dd9835a	0.106207564
142	0xbe33c155	-0.17554219
143	0x3d210898	0.039314836
144	0x3de857f5	0.113449015
145	0x3d24a2fc	0.040194497
146	0xbdf1d7d7	-0.11808746
147	0x3dfd86f4	0.12379256
148	0x3dfb768f	0.12278473
149	0xbced115a	-0.028938938
150	0x3db92a41	0.090412624
151	0xbd34240f	-0.0439797
152	0x3e0f00c6	0.13965139
153	0xbd6c9591	-0.057759825
154	0xbdc3c88d	-0.095597364
155	0xbe27bee6	-0.16381416
156	0xbde58f3c	-0.112089604
157	0x3c5a7a91	0.013334886
158	0xbe288216	-0.16455874
159	0xbd4ae32b	-0.04953305
160	0xbe2c9d4f	-0.16856883
161	0x3daddd31	0.084894545
162	0x3d1e59ce	0.038659863
163	0x3d942117	0.07232874
164	0x3d3fe352	0.04684765
165	0xbd8a20ab	-0.06744512
166	0x3e7359da	0.23764744
167	0x3e39b6be	0.18136117
168	0xbb995ea3	-0.004680471
169	0x3db451bd	0.08804653
170	0xbdb8527f	-0.0900011
171	0xbd10a49a	-0.035313226
172	0xbcb49cb8	-0.022047386
173	0xbe1b0337	-0.15137945
174	0xbc906f88	-0.017631307
175	0x3c8daf0d	0.017295385
176	0x3e12a96d	0.14322443
177	0xbcea213a	-0.028580297
178	0x3a71cae6	0.00092236546
179	0x3e202ed8	0.1564287
180	0xbda868db	-0.082231246
181	0x3dc14121	0.094362505
182	0x3e2e4047	0.17016707
183	0xbde6ed29	-0.112757035
184	0xbe1e9776	-0.15487465
185	0x3d696707	0.05698302
186	0x3e4d42ba	0.20044985
187	0xbe006ccb	-0.12541501
188	0x3de031bc	0.10946986
189	0xbdca42f5	-0.09876052
190	0xbdd0484d	-0.1017004
191	0x3e4f95c0	0.20271969
192	0xbe2a3a05	-0.16623695
193	0xbe0632dd	-0.1310534
194	0x3cc9c3b2	0.024629448
195	0x3e5f2b9d	0.21793981
196	0xbd1dbb88	-0.03850892
197	0xbe33ad94	-0.17546684
198	0x3e167ddc	0.14696449
199	0xbd4ba1a4	-0.0497147
200	0x3da2d85b	0.07951423
201	0x3d9e2df0	0.07723606
202	0x3dd53612	0.10410704
203	0x3de385bb	0.111094914
204	0xbc2aea53	-0.010431844
205	0x3de68fba	0.112578824
206	0x3d8ba2be	0.0681815
207	0x3e576111	0.21033122
208	0x3daf23ee	0.08551775
209	0xbdc23381	-0.0948248
210	0xbba84d47	-0.0051361653
211	0x3c5d20d4	0.013496596
212	0x3e321f0e	0.17394659
213	0xbdd0eeaf	-0.10201775
214	0xbe2e1ef8	-0.17004001
215	0xbca5c7d2	-0.020236883
216	0x3dbf2fbf	0.09335279
217	0x3c822ca4	0.015890427
218	0x3e594e4c	0.21221274
219	0xbe5e5c6e	-0.21714947
220	0xbda86ad5	-0.082235016
221	0x3d498e5a	0.049208023
222	0x3cc84c66	0.024450492
223	0x3c0db85d	0.008649913
224	0x3d03101a	0.031997778
225	0x3e7fe06c	0.24987954
226	0x3dffdc36	0.12493174
227	0x3bcbd93c	0.0062209647
228	0xbd16487f	-0.03669023
229	0xbde93c8c	-0.113885015
230	0xbe364412	-0.17799404
231	0x3cd72274	0.026261546
232	0xbdd77b1f	-0.1052153
233	0x3e0dd646	0.1385127
234	0x3c9d0c25	0.01917083
235	0x3e017966	0.12643966
236	0xbdb18b55	-0.086691536
237	0xbe1dd731	-0.1541412
238	0xbcf55820	-0.029949248
239	0x3cd45488	0.025919214
240	0x3dd24a0a	0.10268028
241	0x3d27977c	0.04091595
242	0xbd3f1ca1	-0.046658162
243	0x3dcd1c32	0.100151435
244	0xbe22628c	-0.15857905
245	0x3d520459	0.051273677
246	0x3e2a1668	0.1661011
247	0xbdaa5509	-0.083170004
248	0xbdb292b9	-0.087193914
249	0xbe1946ef	-0.14968465
250	0xbb51f54c	-0.0032037077
251	0x3db02406	0.08600621
252	0x3d89a9da	0.0672185
253	0xbbed8750	-0.0072487965
254	0x3d1edc4c	0.03878431
255	0x3d91b21d	0.071140505

MLP.3.bias f4 [32]
0	0x3e0ed3bb	0.13947956
1	0x3e3568a0	0.17715693
2	0x3e32a231	0.17444684
3	0xa301fa18	-7.0460634e-18
4	0xbd056f78	-0.032577008
5	0xbc030ce7	-0.007998682
6	0xbe3d03da	-0.184585
7	0x3da80ca9	0.0820554
8	0x3d811524	0.063028604
9	0xbdeba194	-0.11505428
10	0x3dc4fd6a	0.096186474
11	0xbdb87ae2	-0.09007813
12	0x3e1bdbe3	0.15220599
13	0x3be838bf	0.007086843
14	0xbde2e89d	-0.11079524
15	0x3d8767e2	0.06611611
16	0x3ca7e6b7	0.020495756
17	0xbe09d734	-0.13461
18	0x3d023bcf	0.03179532
19	0xbe333ece	-0.17504427
20	0xbd0b2286	-0.03396847
21	0xbe3a7af3	-0.18210964
22	0xbdba5878	-0.09098905
23	0x3e2d298e	0.16910383
24	0xbdde5908	-0.10856825
25	0x3d6f1deb	0.05837814
26	0xbd40e40d	-0.047092486
27	0x3dec5e41	0.11541415
28	0x3df0f92a	0.11766274
29	0x3d8e0eaf	0.069363944
30	0xbd44089c	-0.047859773
31	0xbdb3602b	-0.08758577

MLP.5.weight f4 [32, 32]
0	0xbdea9e81	-0.114560135
1	0x3d90325e	0.07040857
2	0x3d29c795	0.041450102
3	0x988167eb	-3.345065e-24
4	0xbe1f0d12	-0.1553233
5	0x3d8871b9	0.06662316
6	0xbd635aa7	-0.055506375
7	0x3c03422f	0.008011385
8	0xbc73c196	-0.014877697
9	0xbd1fb4de	-0.038990848
10	0x3e1ccbb7	0.15312086
11	0xbcbcf2a6	-0.023064923
12	0xbe476f42	-0.19476035
13	0xbde617ab	-0.11234983
14	0x3e142251	0.14466216
15	0x3da4194f	0.0801264
16	0x3e107af0	0.14109397
17	0xbc4fc07c	-0.012680169
18	0x3d3539b3	0.04424448
19	0x3db2f05f	0.087372534
20	0x3dfae6f2	0.122510806
21	0x3c5dbfa3	0.013534459
22	0xbdfa00c9	-0.12207181
23	0xbe34f143	-0.17670159
24	0xbdb7c59e	-0.08973239
25	0x3d4f20fb	0.050568562
26	0x3cfd632f	0.030931083
27	0x3d3ad358	0.04561171
28	0xbcd25991	-0.025677474
29	0xbd5dc812	-0.05414588
30	0xbd6219fb	-0.05520056
31	0x3df340e4	0.11877611
32	0xbdb22f6e	-0.08700453
33	0xbe212be4	-0.15739399
34	0x3e1eb41b	0.15498392
35	0x9e04cf6f	-7.030918e-21
36	0x3e1f4449	0.15553392
37	0x3dae010f	0.08496296
38	0xbd855281	-0.06509877
39	0x3e05d5a1	0.13069774
40	0x3c39c25b	0.011337842
41	0xbdf22fe1	-0.118255384
42	0xbd263747	-0.04058006
43	0xbdbf9d94	-0.093562275
44	0x3da41e29	0.08013565
45	0x3d3f137b	0.046649437
46	0x3dd237d4	0.102645546
47	0x3dd340e3	0.103151105
48	0x3e11b204	0.14228064
49	0x3d3068aa	0.043068565
50	0xbe1f4930	-0.15555263
51	0x3c890da3	0.016730135
52	0xbe33e5d7	-0.17568146
53	0xbcdb6d74	-0.02678559
54	0x3cc6882d	0.024234856
55	0x3d91276f	0.070875995
56	0xbe0cb2f4	-0.1374014
57	0xbdba2498	-0.09089011
58	0xbcde337b	-0.027124157
59	0xbdafaacf	-0.08577501
60	0x3dd84210	0.105594754
61	0xbe1281c0	-0.14307308
62	0x3da802be	0.08203648
63	0x3dbdb96b	0.09263881
64	0x3e2894a0	0.16462946
65	0x3dbd885f	0.09254526
66	0x3d09fd49	0.033688817
67	0x011e54d0	2.9080867e-38
68	0x3e107092	0.14105442
69	0xbe08047c	-0.1328296
70	0xbe06e750	-0.13174176
71	0x3da4439b	0.08020707
72	0xbcbfba17	-0.023404164
73	0xbcd65a91	-0.026166232
74	0xbe260136	-0.162114
75	0x3cb72f2d	0.022361362
76	0x3dcb3e82	0.09924032
77	0x3db2d2d6	0.0873162
78	0x3df702e5	0.12061099
79	0xbe2b9b61	-0.16758491
80	0xbd1aac1e	-0.0377618
81	0xbdc19adc	-0.09453365
82	0x3d475e45	0.048673887
83	0x3dbaa079	0.09112639
84	0xbce0c62f	-0.027438251
85	0x3d10ff8a	0.03539995
86	0xbd9956ef	-0.074872844
87	0x3df10ccc	0.11770019
88	0x3d369190	0.044572413
89	0xbd962bca	-0.07332571
90	0x3e227be5	0.15867575
91	0xbd50a211	-0.05093581
92	0x3db40e0c	0.08791742
93	0x3de0c1b9	0.1097445
94	0xbd28e88d	-0.041237403
95	0x3deadf02	0.114683166
96	0x3dc4604a	0.09588678
97	0x3d3facdf	0.046795722
98	0xbe2ee2a0	-0.17078638
99	0x268869fa	9.465621e-16
100	0xbe60f813	-0.21969633
101	0x3c4228b9	0.011850529
102	0x3ea3a5ce	0.31962436
103	0xbe15b0fc	-0.14618295
104	0xbd29b9a2	-0.0414368
105	0xbdebf5fb	-0.115215264
106	0x3d9606b2	0.07325496
107	0xbd9fac39	-0.07796521
108	0xbd694b16	-0.056956373
109	0x3d490d48	0.04908493
110	0xbc95941f	-0.018259106
111	0x3db9952e	0.09061657
112	0x3c667c7b	0.014067764
113	0x3e0b2a5e	0.1359038
114	0x3d89b37e	0.067236885
115	0x3b8a6074	0.004222924
116	0x3da65a1d	0.081226565
117	0x3d27b1c8	0.04094103
118	0x3e09b19f	0.13446663
119	0x3e37c123	0.1794477
120	0x3cf44fb2	0.029823158
121	0x3e07462c	0.13210362
122	0xbd0d7629	-0.034536514
123	0x3d9402ac	0.07227072
124	0x3d67ebaf	0.05662125
125	0x3df84731	0.12122954
126	0xbe0abb70	-0.13548064
127	0xbdad5b86	-0.08464722
128	0x3bcd5e15	0.006267319
129	0xbd59b2b5	-0.053148944
130	0xbd665321	-0.05623162
131	0xab4eb86a	-7.344183e-13
132	0x3d65177e	0.055930607
133	0xbe1e7560	-0.15474463
134	0xbe1df3f4	-0.15425092
135	0xbddb2150	-0.10699713
136	0x3da7dfd8	0.08196992
137	0x3e56b183	0.20966153
138	0xb9ed9af0	-0.000453196
139	0xbddf83fc	-0.10913846
140	0xbd88dd43	-0.06682827
141	0x3e1058db	0.14096396
142	0xbd94da04	-0.07268146
143	0x3d3f1644	0.046652094
144	0xbde3d73d	-0.11125038
145	0x3dc4770e	0.095930204
146	0xbeb135a1	-0.34611228
147	0x3cd5fb7b	0.026120892
148	0xbd84f212	-0.06491484
149	0xbc1e623a	-0.009666974
150	0xbca302ee	-0.019898858
151	0xbda7bb03	-0.081899665
152	0xbe0479be	-0.12937066
153	0xbd73aeea	-0.059492983
154	0x3dbdb9ce	0.09263955
155	0xbe1e80de	-0.15478846
156	0xbe29bf01	-0.16576768
157	0xbec3d641	-0.382494
158	0x3d3cc63f	0.0460875
159	0x3e21b096	0.15790018
160	0xbd72ca0e	-0.059274726
161	0x3c4f09e5	0.012636636
162	0xbe097f02	-0.13427356
163	0x8239e434	-1.3657145e-37
164	0x3bcf022a	0.0063173966
165	0x3e0bc37b	0.13648789
166	0x3d634d83	0.055493843
167	0xbd76f4e8	-0.060292155
168	0xbdd13e39	-0.10216946
169	0xbd757ffe	-0.059936516
170	0xbd0bf7c6	-0.034171842
171	0x3bd621b9	0.006534782
172	0x3dd240dc	0.10266277
173	0x3cebaef2	0.028769944
174	0xbd6e4ad2	-0.058176823
175	0x3cbdb767	0.023158742
176	0x3d8e1679	0.0693788
177	0x3e19aaaf	0.15006517
178	0xbe085b8c	-0.13316172
179	0xbd5d4e79	-0.054029915
180	0xbe043529	-0.12910904
181	0x3b4edebd	0.0031565868
182	0xbd2a140b	-0.04152302
183	0xbd3d0ecc	-0.04615669
184	0x3d4d8784	0.050178066
185	0xbde1956e	-0.110148296
186	0x3db15848	0.086594164
187	0xbdd74227	-0.105106644
188	0xbe260d91	-0.16216113
189	0x3dde96ab	0.108685814
190	0xbb95ee3c	-0.004575519
191	0x3dcf457d	0.10120676
192	0x3d5adb0a	0.05343155
193	0x3de40657	0.11134022
194	0xbddb67c4	-0.10713151
195	0x81b2bd4c	-6.56585e-38
196	0xbd7a9b26	-0.061183117
197	0xbd57f63c	-0.05272506
198	0x3e3bab81	0.18327142
199	0xbc072776	-0.008249154
200	0x3bd83fc0	0.0065993965
201	0x3e299ffb	0.16564934
202	0x3dee0ced	0.11623559
203	0xbe2e3fc2	-0.17016509
204	0xbd8c0fb3	-0.06838932
205	0xbe164c20	-0.14677477
206	0x3dcc7bf0	0.09984577
207	0x3d68ab2f	0.05680388
208	0xbe0ddfcd	-0.13854904
209	0xbc9cb6e5	-0.01913018
210	0xbde73439	-0.112892576
211	0x3e616302	0.22010425
212	0xbd4a135b	-0.049334865
213	0xbd51845e	-0.051151626
214	0x3da2c51f	0.07947754
215	0x3cbf045f	0.023317514
216	0xbe0a48c9	-0.13504328
217	0x3e23b6f2	0.15987757
218	0x3d8d4e80	0.06899738
219	0xbd4f8826	-0.05066695
220	0xbe0004bd	-0.12501808
221	0xbdd39159	-0.10330457
222	0xbe112536	-0.14174351
223	0xbdc59eb7	-0.09649413
224	0x3d172842	0.036903627
225	0xbe051239	-0.12995233
226	0x3d2df80d	0.042472888
227	0x1ac75e0e	8.2456424e-23
228	0xbb15b25b	-0.0022841904
229	0x3d9dc0ac	0.07702765
230	0xbd9fce1e	-0.078029856
231	0x3cb9da70	0.022687167
232	0xbd3a3eb2	-0.045469947
233	0xbcf08d5f	-0.029364286
234	0x3d36fc23	0.04467405
235	0xbdc672e7	-0.09689885
236	0xbc84a1e6	-0.01619048
237	0xbd67f529	-0.056630287
238	0xbd9871e0	-0.07443595
239	0xbd8ad5ef	-0.06779086
240	0xbe110c1b	-0.14164774
241	0x3e5f3156	0.21796164
242	0xbd3679ca	-0.04454974
243	0x3daa7b12	0.08324255
244	0x3d95aa61	0.07307888
245	0x3ca08e57	0.019599123
246	0x3d991d08	0.074762404
247	0xbb955165	-0.004556822
248	0xbddb7686	-0.10715966
249	0xbb0cf6fe	-0.0021509524
250	0x3db08de1	0.08620811
251	0x3dbe198e	0.09282218
252	0x3c5345a1	0.012895019
253	0x3cfd1092	0.03089169
254	0xbcff99d0	-0.031201273
255	0x3d813b9b	0.06310197

MLP.5.bias f4 [32]
0	0xbd608b1f	-0.054820176
1	0x3d0181a8	0.03161779
2	0xbc26b974	-0.010176051
3	0xbc98ed01	-0.0186677
4	0xbdc9e22a	-0.098575905
5	0xbbac167c	-0.005251704
6	0xbd6c53d8	-0.057697147
7	0x3bf6510c	0.0075169858
8	0x3cf81ba7	0.030286623
9	0x3d2f7fb0	0.04284638
10	0x3dd0b4ec	0.10190758
11	0x3ce6c5c6	0.028170478
12	0x3cd30a17	0.025761647
13	0x3e057ef4	0.1303671
14	0x3d43710d	0.047715236
15	0xbddd7307	-0.10812955
16	0xbe24149e	-0.1602349
17	0x3dd966d4	0.10615316
18	0x3d1f7b8f	0.038936194
19	0x3a968b0c	0.0011485531
20	0xbd59f151	-0.053208653
21	0x3d1b113c	0.037858233
22	0xbe20b25d	-0.1569304
23	0x3c085a10	0.008322254
24	0xbda18acf	-0.07887804
25	0xbddb3b81	-0.10704709
26	0x3e09125f	0.13385914
27	0xbe0dc67b	-0.13845246
28	0xbdca5b28	-0.09880668
29	0x3d83911e	0.06424163
30	0xbd897a83	-0.067128204
31	0xbb2bbaad	-0.0026203797

MLP.6.weight f4 [32]
0	0x3f756465	0.95856315
1	0x3f63dae6	0.8900589
2	0x3f67c1c4	0.9053004
3	0x3f60bc55	0.8778737
4	0x3f7847f1	0.96984774
5	0x3f437ab7	0.76359123
6	0x3f58b513	0.846513
7	0x3f4e5b9e	0.80608547
8	0x3f71684e	0.9429978
9	0x3f6c8113	0.9238445
10	0x3f5e19ec	0.86758304
11	0x3f773c8b	0.96576756
12	0x3f78f9e5	0.9725631
13	0x3f6e7582	0.9314805
14	0x3f65c976	0.8976053
15	0x3f7adcd0	0.97993183
16	0x3f6d1624	0.9261191
17	0x3f72f854	0.9491017
18	0x3f68ca7b	0.9093396
19	0x3f506adf	0.8141307
20	0x3f5e8d18	0.8693404
21	0x3f77d38c	0.9680717
22	0x3f74df37	0.956531
23	0x3f6a09d2	0.91421235
24	0x3f62cf71	0.8859778
25	0x3f742531	0.9536925
26	0x3f6cc208	0.9248357
27	0x3f669343	0.90068454
28	0x3f6bf10a	0.9216467
29	0x3f749e89	0.95554405
30	0x3f51858b	0.81844395
31	0x3f7455c7	0.95443386

MLP.6.bias f4 [32]
0	0x3bd05b3c	0.0063585322
1	0x3c177b50	0.009245709
2	0xbbb7e87a	-0.00561243
3	0xbc043622	-0.008069547
4	0xbd06b9e1	-0.03289211
5	0xbb5518ed	-0.0032516078
6	0xbb7c5aba	-0.0038506226
7	0xbc0fa823	-0.008768114
8	0x3c55679b	0.01302519
9	0xbc96892c	-0.018375956
10	0xbbd6b052	-0.0065517807
11	0x3a208f1f	0.00061248423
12	0x3d39c2a8	0.045351654
13	0x3d114ddf	0.035474654
14	0x3d1ba504	0.037999168
15	0x3bbd1678	0.0057705007
16	0xbd1cabd7	-0.038249817
17	0xbcbff256	-0.023430984
18	0x3b1ecf0f	0.0024232303
19	0x3c9bb48e	0.019006994
20	0xbab91a8b	-0.001412229
21	0xbc85cecf	-0.016333966
22	0x3bc2f3ae	0.005949459
23	0x3c676198	0.014122389
24	0xbaf0f516	-0.0018383588
25	0xbc579b8d	-0.013159645
26	0xbc1341e0	-0.008987874
27	0x3aee06e8	0.0018160017
28	0x3c4b8073	0.012420761
29	0xbb4d89c1	-0.0031362625
30	0xbb23c50a	-0.002498927
31	0x3b918e91	0.004442044

MLP.8.weight f4 [32, 32]
0	0xbd3b289f	-0.045693036
1	0xbd4adcac	-0.049526855
2	0xbc1f47d1	-0.009721712
3	0x3dd57a5a	0.10423727
4	0x3d84dde5	0.064876355
5	0x3d807e71	0.06274117
6	0xbdd39825	-0.10331754
7	0x3e2a5347	0.1663333
8	0x3df5a024	0.11993435
9	0xbd365447	-0.044513967
10	0xbcd958e0	-0.026531637
11	0x3e0399b6	0.12851605
12	0xbce63f5e	-0.028106388
13	0xbdf66a51	-0.12031997
14	0x3e286749	0.1644565
15	0x3e02bc4d	0.12767144
16	0xbe32c3c8	-0.17457497
17	0x3d9df563	0.077128194
18	0xbdd9c315	-0.10632912
19	0x3bf73e8e	0.007545299
20	0xbddbd0e1	-0.107332
21	0xbd62676b	-0.05527441
22	0x3e0fad0b	0.14030854
23	0xbda890fc	-0.082307786
24	0x3d320e7f	0.043470856
25	0xbdc0182e	-0.09379612
26	0xbc6ec73d	-0.014573869
27	0x3d425023	0.047439706
28	0xbd8293aa	-0.06375821
29	0x3d1d56e8	0.03841296
30	0x3e0ee5a7	0.13954793
31	0x3ddcc0ee	0.10778986
32	0x3cd1cdd2	0.025610838
33	0xbd2cb9dc	-0.042169437
34	0x3ded530f	0.11588108
35	0xbd101938	-0.0351803
36	0xbd43c628	-0.0477964
37	0x3e3b3393	0.18281393
38	0x3e0d113b	0.13776104
39	0xbc257371	-0.010098324
40	0x3db25e7f	0.0870943
41	0xbdc5aaf1	-0.09651745
42	0xbdcd15e0	-0.10013938
43	0xbc449926	-0.011999404
44	0x3dcf5829	0.10124237
45	0x3dd2ac2d	0.10286746
46	0x3da1298a	0.07869251
47	0x3e3e5c73	0.18589954
48	0xbdb91549	-0.09037263
49	0xbe073b18	-0.13206136
50	0x3dda9f04	0.10674861
51	0x3d94897f	0.07252788
52	0x3dd6caea	0.104879215
53	0x3e0f7341	0.1400881
54	0xbe4291f1	-0.19000985
55	0x3d6ead2b	0.058270615
56	0xbd675203	-0.056474697
57	0xbdf83847	-0.12120109
58	0xbe14c68b	-0.14528863
59	0x3e6c7c32	0.23094252
60	0x3d967e2f	0.07348286
61	0xbe3faaf4	-0.18717557
62	0xbdfb90c7	-0.122834735
63	0x3b19d522	0.0023472984
64	0xbdd6943d	-0.10477493
65	0xbd9fa833	-0.07795753
66	0xbdb56d35	-0.0885872
67	0xbe1a3074	-0.15057546
68	0xbe1ff6ba	-0.15621462
69	0xbe1d1a3a	-0.15342036
70	0x3e462dbb	0.19353382
71	0xbe155ea6	-0.14586887
72	0x3d207e4c	0.039182946
73	0x3c000849	0.007814475
74	0xbe31fe5d	-0.17382188
75	0x3df23116	0.11825769
76	0x3db2c764	0.08729437
77	0x3e000ae9	0.12504162
78	0x3d944847	0.07240348
79	0xbe12506b	-0.1428849
80	0x3d074301	0.033022884
81	0xbe139083	-0.14410596
82	0x3e123f58	0.14281976
83	0xbdfe7e1f	-0.124263994
84	0xbdb6942b	-0.089149795
85	0x3e4b5134	0.19855195
86	0xbc9c4c1c	-0.01907926
87	0x3d45874c	0.048224732
88	0xbd29b502	-0.041432388
89	0xbc3e0a9a	-0.011599207
90	0xbe269177	-0.16266428
91	0xbe1c00ef	-0.15234731
92	0x3dc1ab4c	0.094565004
93	0xbe117f49	-0.14208712
94	0xbce7139a	-0.028207589
95	0xbd96e6d7	-0.07368248
96	0x3dd7474d	0.105116464
97	0xbd908a7c	-0.07057664
98	0x3e1d2cec	0.15349168
99	0x3cb76da8	0.022391155
100	0x3d5c8450	0.05383712
101	0xbdaf0763	-0.08546331
102	0x3e64cc9e	0.2234368
103	0x3d01cfec	0.03169243
104	0xbdeb4df2	-0.11489476
105	0xbdfff0ee	-0.124971256
106	0xbdd9b6e9	-0.106305905
107	0x3d6555ee	0.055990152
108	0xbd9a1c69	-0.0752495
109	0xbdba849f	-0.09107327
110	0xbde8f2b0	-0.11374414
111	0x3d843c51	0.06456817
112	0x3ddd19b7	0.1079592
113	0x3e29ad67	0.16570054
114	0xbd5793b6	-0.052631103
115	0xbaa34713	-0.0012457095
116	0x3c4d5f13	0.0125348745
117	0xbe2ab1df	-0.16669415
118	0x3d9b3a6c	0.075795025
119	0x3dcad18a	0.09903248
120	0x3c0b39bf	0.008497654
121	0xbe10756a	-0.1410729
122	0xbd0a944b	-0.03383283
123	0x3d4a15f4	0.049337342
124	0x3d25fcd2	0.04052431
125	0xbcd5cab9	-0.026097642
126	0xbd1efa97	-0.0388132
127	0xbda4e834	-0.08052102
128	0x3d579ebd	0.05264162
129	0xbd958d13	-0.073022984
130	0xbd027c87	-0.03185704
131	0x3d2f46b7	0.04279205
132	0xbdae1ca2	-0.08501555
133	0xbc0d15ed	-0.008611185
134	0x3d308ab1	0.043101016
135	0xbe01094c	-0.12601203
136	0xbdb585c3	-0.08863404
137	0x3c5a985a	0.0133419875
138	0xbbbf1d60	-0.005832359
139	0x3ddaa340	0.10675669
140	0x3e0bb32b	0.13642566
141	0xbdfa251e	-0.12214111
142	0x3e23dd63	0.16002421
143	0xbc93c368	-0.018037513
144	0x3de588ea	0.11207755
145	0x3e0bd453	0.13655214
146	0x3d942d0d	0.07235155
147	0xbd9ef386	-0.07761292
148	0x3df7b3e5	0.12094859
149	0x3d6f7f19	0.05847082
150	0x3d7cc51d	0.06171142
151	0xbe451bb1	-0.19248845
152	0x3ddfa36c	0.10919842
153	0x3dd0bc65	0.101921834
154	0xbc9542d9	-0.018220352
155	0xbe136d65	-0.143972
156	0xbd98f01d	-0.07467673
157	0xbd565158	-0.05232367
158	0xbcce3812	-0.02517322
159	0xbcf73613	-0.030177152
160	0x3e2269e7	0.15860711
161	0x3d8433c8	0.06455189
162	0xbd4a69e3	-0.049417388
163	0xbe28dd2f	-0.16490625
164	0xbde69a6b	-0.11259922
165	0xbdbdeb8b	-0.09273442
166	0x3de29574	0.11063662
167	0xbd5dd8ce	-0.05416184
168	0xbe15ba7a	-0.14621916
169	0xbdb8671a	-0.0900404
170	0xbe1dc6ab	-0.15407817
171	0x3d796a3d	0.060892332
172	0x3e271b7a	0.16319075
173	0x3e15a43a	0.14613429
174	0x3c37f2af	0.011227294
175	0xbcf25b42	-0.02958453
176	0xbd690789	-0.05689195
177	0x3e15900f	0.14605735
178	0x3d9d2dc0	0.07674742
179	0x3dca2aa0	0.09871411
180	0x3e02a3df	0.12757824
181	0x3e215ed3	0.15758829
182	0x3df1f60b	0.11814507
183	0xbe2af6ee	-0.16695759
184	0xbe03e855	-0.12881596
185	0x3ddb6b08	0.10713774
186	0x3d6d0e6b	0.05787508
187	0xbda0ea4a	-0.07857187
188	0x3e266657	0.16249977
189	0xbdb4658c	-0.08808431
190	0xbd2515fc	-0.04030417
191	0x3e2ddd62	0.16978982
192	0x3e09ee15	0.13469727
193	0x3b6f33f7	0.003649948
194	0xbdb46b31	-0.08809508
195	0xbc5184fb	-0.012788053
196	0xbe200ba0	-0.15629435
197	0xbe048f5a	-0.1294531
198	0xbe169995	-0.14707024
199	0xbdc22531	-0.0947975
200	0x3d96c16e	0.073611125
201	0xbdc4cfd2	-0.09609951
202	0x3d87b1fd	0.066257454
203	0xbe3aa75c	-0.18227905
204	0x3b54a864	0.0032449001
205	0xbd4752bb	-0.048662882
206	0xbd9d82db	-0.07690974
207	0x3df0ab5c	0.11751434
208	0xbdcad418	-0.09903735
209	0x3e0ec304	0.1394158
210	0x3e2810ab	0.16412608
211	0xbd391165	-0.045182604
212	0xbe25f9d9	-0.1620859
213	0x3dbfc688	0.09364039
214	0xbcf6339e	-0.03005391
215	0x3c60b682	0.013715388
216	0xbd58d92c	-0.052941486
217	0xbe293301	-0.16523363
218	0xbc1182fa	-0.008881325
219	0x3df1d003	0.11807253
220	0xbc521b62	-0.012823911
221	0x3d5651e0	0.052324176
222	0xbe3bf88a	-0.18356529
223	0x3e297d25	0.16551645
224	0xbdbfaf14	-0.093595654
225	0x3dd91e36	0.106014654
226	0x3e003af8	0.12522495
227	0xbd868668	-0.06568605
228	0x3da9ba46	0.08287482
229	0xbd2cc308	-0.042178184
230	0xbe107531	-0.14107205
231	0xbdb14b82	-0.0865698
232	0x3ca08cd7	0.019598408
233	0xbe389bf4	-0.18028241
234	0xbe0a42ef	-0.13502096
235	0xbe1349a7	-0.14383565
236	0x3e280a54	0.1641019
237	0x3d16c48b	0.03680853
238	0x3e2f7e93	0.17138128
239	0xbe387680	-0.18013954
240	0x3d89da3b	0.06731077
241	0x3de20c1e	0.110374674
242	0xbd0f3c65	-0.034969706
243	0x3d542d5a	0.051801063
244	0x3e1401ec	0.14453858
245	0xbd7bcf83	-0.061477195
246	0x3e596dbe	0.2123327
247	0x3d7322ce	0.059359364
248	0xbe12e41a	-0.14344826
249	0xbd5acae7	-0.05341616
250	0x3d1cc3c9	0.038272653
251	0x3c1094f5	0.008824577
252	0xbdd74870	-0.10511863
253	0xbe197de8	-0.14989436
254	0xbc603089	-0.013683447
255	0x3b98f186	0.0046674637

MLP.8.bias f4 [32]
0	0xbe2f46c4	-0.17116839
1	0x3de9f9d3	0.11424603
2	0x3e21e82c	0.15811223
3	0x3cf2737f	0.029596088
4	0x3d0e27b2	0.034705825
5	0x3c678d5a	0.014132822
6	0x3df1ed98	0.118128955
7	0xbcd6b43d	-0.026208991
8	0x3c30bfb1	0.01078789
9	0x3d2caa27	0.042154457
10	0xbdc2dc64	-0.095146924
11	0x3e0aaf1b	0.1354336
12	0xbd23608d	-0.039887
13	0xbd1de367	-0.038546946
14	0x3dfce91d	0.1234915
15	0xbdefe27d	-0.11713121
16	0xbe0e152f	-0.13875268
17	0xbdf4f67d	-0.119610764
18	0x3da2ec31	0.07955206
19	0xbcc59ebd	-0.024123544
20	0x3c6cb6d5	0.014447887
21	0xbcceddda	-0.025252271
22	0x3b8a0865	0.0042124265
23	0x3e29f5bb	0.16597645
24	0x3da07b65	0.07836036
25	0xbbf1e82d	-0.007382414
26	0x3d3719fa	0.044702508
27	0x3d3614d5	0.04445346
28	0xbcdd39c9	-0.027005093
29	0x3d4dc12f	0.050233062
30	0xbe01a984	-0.12662321
31	0x3da21ac8	0.07915264

MLP.10.weight f4 [32, 32]
0	0xbdd38547	-0.10328155
1	0x3b432c29	0.002978096
2	0x3d761ce6	0.060086153
3	0x3e0f1107	0.13971339
4	0x3de90613	0.11378112
5	0xbd72f861	-0.059318904
6	0xbd2e6d03	-0.04258443
7	0x3e2c2bd2	0.16813591
8	0xbd712652	-0.058874436
9	0x3d0b715f	0.034043666
10	0xbddf7966	-0.10911827
11	0x3d1c638b	0.03818087
12	0xbde1768f	-0.110089414
13	0xbd8cfd47	-0.06884246
14	0xbda71398	-0.08158034
15	0x3cbd19aa	0.023083527
16	0xbc5875d0	-0.013211682
17	0xbc38c7bd	-0.01127809
18	0xbd87c2b4	-0.066289335
19	0x3dadd089	0.084870405
20	0x3dc83c94	0.09777179
21	0xbda18921	-0.078874834
22	0x3d6d9681	0.05800486
23	0xbe0a7fbc	-0.1352529
24	0x3e078590	0.13234544
25	0xbd12d97b	-0.035851937
26	0x3e58217d	0.21106525
27	0x3dcb13ac	0.099158615
28	0x3bb603c5	0.0055546486
29	0x3d32f4ee	0.043690614
30	0x3d9cab6a	0.07649882
31	0xbcefa40a	-0.029253025
32	0x3d43c1ab	0.047792118
33	0xbe2ba258	-0.16761148
34	0x3dbddc12	0.09270491
35	0xbca229da	-0.019795347
36	0xbac2e53d	-0.0014869344
37	0x3d991bc1	0.07475997
38	0x3df20404	0.11817172
39	0xbe237577	-0.15962778
40	0xbd7f3885	-0.06230976
41	0xbd5d55d4	-0.05403693
42	0x3d9f31b4	0.07773152
43	0x3df2d537	0.11857074
44	0x3dfc8fa8	0.12332088
45	0x3e288ed0	0.16460729
46	0x3e12ca7e	0.14335057
47	0xbda39a02	-0.07988359
48	0xbcc6f426	-0.02428634
49	0xbbd8e191	-0.0066186865
50	0xbd02c38d	-0.031924773
51	0x3d8882b7	0.06665557
52	0x3adfad0e	0.0017065124
53	0x3d4f49d4	0.050607517
54	0x3d01364f	0.031545933
55	0xbe0b8ff9	-0.1362914
56	0x3dc99f15	0.098447956
57	0x3d6a7838	0.057243556
58	0xbd2c2167	-0.042024042
59	0x3da62db6	0.081141874
60	0x3d2e0ff9	0.0424957
61	0x3e136900	0.14395523
62	0x3d39f47a	0.045399167
63	0xbd998f12	-0.074979916
64	0xbe336e42	-0.17522529
65	0xbc29cad8	-0.010363303
66	0xbe3efebc	-0.18651861
67	0xbe3d9a25	-0.18515833
68	0x3b133c2c	0.0022466285
69	0x3c707f5f	0.014678805
70	0xba599dfc	-0.00083014346
71	0xbe31b1e9	-0.17353024
72	0xbd346a9c	-0.044046983
73	0x3e121b8d	0.14268322
74	0x3dd490f4	0.1037921
75	0x3df601d7	0.1201207
76	0x3df8ca31	0.1214794
77	0x3c6747a0	0.014116198
78	0x3d276539	0.040868018
79	0x3e2e7659	0.17037334
80	0x3c213702	0.009839775
81	0xbdaa492f	-0.0831474
82	0xbe1b220c	-0.15149707
83	0xbda40df9	-0.080104776
84	0x3d7548f2	0.05988402
85	0x3df697e8	0.120406926
86	0xbe00e71d	-0.12588163
87	0x3e7704ae	0.24122879
88	0xbd2b3fc1	-0.041808847
89	0xbe04c06d	-0.1296403
90	0xbdbcf9c9	-0.0922733
91	0x3d7344a3	0.05939163
92	0xbdb085a0	-0.08619237
93	0xbdc7358f	-0.09727012
94	0x3d733085	0.059372444
95	0x3de2b146	0.110689685
96	0xbc2c2960	-0.010507911
97	0xbdb81c7b	-0.08989807
98	0x3da9d3a5	0.08292321
99	0xbd649f97	-0.05581626
100	0xbe29f58d	-0.16597576
101	0xbddd7785	-0.10813812
102	0xbc845d7a	-0.016157854
103	0xbdf30b84	-0.11867431
104	0xbd0ebfbf	-0.034850832
105	0xbe2ac7a4	-0.1667772
106	0xbd2ce37c	-0.042209134
107	0x3d1a1b6e	0.037623815
108	0x3dd2e0a9	0.10296757
109	0xbd9b2686	-0.07575707
110	0xbd7ac3f4	-0.06122203
111	0xbd8b2090	-0.0679332
112	0xbca8375a	-0.020534206
113	0xbdce9b80	-0.10088253
114	0xbd093c48	-0.033504754
115	0x3c5ec12b	0.0135958595
116	0x3cbfab64	0.023397155
117	0x3d85e5f4	0.06538001
118	0x3e121cb9	0.1426877
119	0x3d8ed24e	0.06973706
120	0xbd842abf	-0.06453466
121	0x3c3aa6ac	0.011392277
122	0x3ddab4fd	0.10679052
123	0xbe142941	-0.14468862
124	0x3df54abe	0.119771466
125	0xbcb98a70	-0.02264902
126	0x3e09832b	0.13428943
127	0xbdd844ea	-0.10560019
128	0x3d743e35	0.059629638
129	0x3d13a042	0.036041506
130	0x3d1e4c6b	0.038647097
131	0xbd5cfcd4	-0.053952053
132	0x3d5f7699	0.054556463
133	0xbe010c58	-0.12602365
134	0xbbcc3de3	-0.0062329634
135	0x3e0564af	0.13026689
136	0x3d3b0783	0.04566146
137	0xbe016750	-0.12637067
138	0x3e271a91	0.16318728
139	0xbe0c8002	-0.13720706
140	0xbe24b6ff	-0.16085432
141	0x3df82180	0.121157646
142	0xbd71afae	-0.05900543
143	0xbd6f9db5	-0.05850001
144	0x3d126228	0.03573814
145	0x3d040d6e	0.03223937
146	0xbdb69dbc	-0.08916804
147	0x3cf8a491	0.030351909
148	0xbdc41db0	-0.09575975
149	0x3d64c8bc	0.055855498
150	0xbe2087cb	-0.15676801
151	0xbdd45b01	-0.1036892
152	0xbe187c1c	-0.14891094
153	0xbcf780a7	-0.030212713
154	0x3e0be3a1	0.13661052
155	0x3d81b00b	0.06332406
156	0x3c6873c7	0.01418776
157	0xbe057a26	-0.13034877
158	0xbda352f1	-0.07974804
159	0x3e20a7d1	0.15689017
160	0xbe221018	-0.15826452
161	0x3d931dc9	0.071834154
162	0x3de46a4c	0.11153087
163	0xbd27e4eb	-0.040989798
164	0xbe2f0287	-0.17090808
165	0x3e27f8d7	0.16403519
166	0x3d93371d	0.071882464
167	0x3dfe0041	0.12402392
168	0xbcb7444e	-0.022371437
169	0x3b6bb996	0.0035968772
170	0xbd915984	-0.07097152
171	0x3e2cb651	0.16866423
172	0x3def98c3	0.11699059
173	0x3d4ad14c	0.049516007
174	0xbda0b96b	-0.07847866
175	0xbcb636f8	-0.022243008
176	0xbda58c6c	-0.08083424
177	0xbd471ead	-0.04861324
178	0x3db5aa4f	0.088703744
179	0xbe23c272	-0.15992144
180	0xbd23af2a	-0.03996197
181	0xbcfe2935	-0.031025508
182	0xbdd6f6b7	-0.10496276
183	0x3cbda632	0.023150537
184	0x3b12e40a	0.0022413754
185	0xbd2bdabf	-0.04195666
186	0x3c8b69f2	0.017018292
187	0x3d66f175	0.056382615
188	0x3e0a4e0e	0.13506338
189	0xbc2d37d1	-0.01057239
190	0xbdd29fb9	-0.10284371
191	0xbe0bb0cc	-0.13641661
192	0x3dd39eac	0.10332999
193	0x3d1fea16	0.0390416
194	0xbd0b6f18	-0.034041494
195	0xbdc859cf	-0.09782755
196	0x3d4bc150	0.049744904
197	0xbdb8f497	-0.09031027
198	0xbdde5a87	-0.108571105
199	0x3e07b94e	0.13254282
200	0xbd1fcfda	-0.039016582
201	0xbdbd6228	-0.092472374
202	0xbcb4c199	-0.02206497
203	0xbc4be80c	-0.012445461
204	0x3e1415b8	0.1446141
205	0x3dfc6002	0.123229995
206	0xba5d4719	-0.00084410753
207	0x3e21b6e6	0.15792426
208	0xbe168aba	-0.14701357
209	0xbd913e8b	-0.07092007
210	0x3d17213c	0.03689693
211	0xbe13508b	-0.14386193
212	0xbdd97cf2	-0.106195346
213	0x3ca6745d	0.020319158
214	0x3e3318fe	0.17490003
215	0x3d9194c2	0.071084514
216	0x3cc5596a	0.024090488
217	0xbd86f090	-0.065888524
218	0x3c36de84	0.01116145
219	0x3e06aaec	0.13151139
220	0xbe44521c	-0.19171947
221	0x3d81e8cb	0.0634323
222	0x3cdd0275	0.02697871
223	0x3cf9b35d	0.030481035
224	0x3d59a020	0.053131223
225	0x3e389864	0.18026882
226	0x3d58474f	0.05280238
227	0x3dee4660	0.11634517
228	0x3e3a1cea	0.18175092
229	0x3c96c3da	0.018403936
230	0xbdcb6a42	-0.099323764
231	0x3debe8f6	0.11519043
232	0xbd59889c	-0.053108796
233	0x3de7017b	0.11279579
234	0xbdfea932	-0.12434615
235	0xbba88fa3	-0.005144076
236	0xbd992a21	-0.074787386
237	0xbce8b279	-0.028405415
238	0xbda7e1b4	-0.08197346
239	0x3cf099aa	0.029370148
240	0xbbe9a45c	-0.007130189
241	0x3d6a7043	0.057235967
242	0x3e19dc6a	0.15025488
243	0x3d9c1b72	0.07622422
244	0xbdce8cd2	-0.10085453
245	0xbb77dbdd	-0.0037820258
246	0xbe0a3c91	-0.13499667
247	0x3e6b60d5	0.22986157
248	0xbd807b19	-0.06273479
249	0x3cec302a	0.02883156
250	0x3e21e385	0.15809448
251	0xbd74425b	-0.059633594
252	0xbd50077a	-0.05078838
253	0xbd99f995	-0.07518307
254	0xbdeafa28	-0.11473495
255	0xbe01c952	-0.12674454

MLP.10.bias f4 [32]
0	0xbdd80edf	-0.105497114
1	0xbd9094ca	-0.07059629
2	0x3e1c1ba9	0.15244927
3	0x3dc3fc64	0.09569624
4	0x3e311e46	0.17296705
5	0x3d97de0a	0.074153975
6	0x3da5e481	0.08100224
7	0x3d688126	0.05676379
8	0x3da9c27f	0.0828905
9	0x3df93ead	0.121701576
10	0xbe1f7d48	-0.15575135
11	0x3daf98c7	0.08574062
12	0x3e1adc3b	0.15123074
13	0x3dc874f3	0.09787931
14	0xbe27836b	-0.16358726
15	0xbd90de63	-0.07073667
16	0xbb8f9858	-0.0043821745
17	0x3dfacf6e	0.12246595
18	0xbd1884c4	-0.03723599
19	0xbd907cf1	-0.07055081
20	0x3cd46a82	0.025929693
21	0x3dae17e8	0.085006535
22	0xbd6e4d31	-0.058179084
23	0x3d2e8574	0.04260774
24	0x3e09c5ee	0.1345441
25	0x3cba486b	0.02273961
26	0x3d96f738	0.07371372
27	0xbcc69aec	-0.024243794
28	0x3b93d3e2	0.0045113424
29	0x3d19a31a	0.03750906
30	0x3bf6be0b	0.007529979
31	0xbd32a33f	-0.043612715

MLP.11.weight f4 [32]
0	0x3f529528	0.82258844
1	0x3f7837c6	0.96960104
2	0x3f77ec25	0.968447
3	0x3f75e9a0	0.9605961
4	0x3f713995	0.9422849
5	0x3f7a6ca0	0.97822
6	0x3f7ae445	0.9800456
7	0x3f72bde8	0.94821024
8	0x3f79451f	0.97371095
9	0x3f76df9d	0.96434957
10	0x3f673d83	0.90328234
11	0x3f7a90e1	0.9787732
12	0x3f589686	0.8460468
13	0x3f79c463	0.9756529
14	0x3f7e0654	0.99228406
15	0x3f73287e	0.9498366
16	0x3f7b8ce0	0.98261833
17	0x3f7c52e2	0.9856397
18	0x3f71fe33	0.945285
19	0x3f7330f2	0.9499656
20	0x3f79c154	0.9756062
21	0x3f7e2561	0.99275786
22	0x3f769116	0.96315134
23	0x3f755f91	0.9584895
24	0x3f8158b5	1.0105196
25	0x3f6dd3df	0.92901415
26	0x3f7c132d	0.9846676
27	0x3f7ec672	0.99521554
28	0x3f756c3d	0.95868284
29	0x3f6092c6	0.8772396
30	0x3f7afb30	0.9803953
31	0x3f7adb16	0.9799055

MLP.11.bias f4 [32]
0	0xbbb64d07	-0.0055633816
1	0xbbf44218	-0.007454168
2	0xbc8ecd19	-0.017431783
3	0xbc2bbbb1	-0.010481761
4	0x3bb7e415	0.0056119063
5	0x3b7a055c	0.0038150167
6	0x3b20e916	0.0024552993
7	0x3c9d47a8	0.019199207
8	0xba661340	-0.0008776672
9	0xbc2a2f84	-0.010387305
10	0xb86fa975	-5.713986e-05
11	0xbcad4996	-0.021153253
12	0xbc0d6896	-0.008630892
13	0xbc470586	-0.012147313
14	0xbca61ca6	-0.020277333
15	0xbca40e71	-0.020026417
16	0x3c0976a0	0.008390099
17	0x3bf0d88a	0.007350032
18	0xbbde8e0f	-0.006791837
19	0x3b846d45	0.0040413463
20	0xbabb6c06	-0.0014299161
21	0xbb93fd8e	-0.00451631
22	0x3b5acf4d	0.003338772
23	0x3cede78c	0.029041074
24	0xb6ac78ab	-5.140047e-06
25	0x3bece9cb	0.0072300187
26	0xbb1aa8ee	-0.0023599225
27	0xbb603aba	-0.0034214691
28	0x3c8f1596	0.017466348
29	0xbd2249b3	-0.039621066
30	0x3c9c65bc	0.01909148
31	0xbc603420	-0.013684303

MLP.13.weight f4 [4, 32]
0	0x3c2b31ba	0.010448867
1	0x3d56c574	0.0524344
2	0x3dd73c20	0.10509515
3	0x3df80a43	0.12111332
4	0x3d0542c0	0.03253436
5	0x3e16a447	0.14711104
6	0x3e0e2147	0.13879882
7	0xbd617b86	-0.05504944
8	0x3cc5c9c3	0.024144059
9	0xbdb6ceb9	-0.08926148
10	0xbd52aa35	-0.051431853
11	0x3e1f03e3	0.15528826
12	0x3bf3561b	0.007426036
13	0x3dc0f499	0.09421653
14	0x3d68eab4	0.056864455
15	0xbd1697a2	-0.036765702
16	0xbe1af942	-0.15134147
17	0xbdfa942f	-0.12235295
18	0x3ca11f44	0.019668229
19	0x3d80c2ce	0.06287156
20	0x3de4e4a7	0.111764245
21	0x3e02a1c2	0.12757018
22	0xbce776b3	-0.028254842
23	0xbddd6563	-0.108103536
24	0x3d7d3e5d	0.061827052
25	0xbcee99f2	-0.029126141
26	0x3dae91a1	0.0852387
27	0x3cc6804d	0.0242311
28	0xbdad0fde	-0.08450292
29	0x3b14a4e3	0.0022681288
30	0xbddc3cae	-0.10753761
31	0x3e187f6b	0.14892356
32	0xbd096705	-0.033545513
33	0xbc35a8d4	-0.011087615
34	0x3baf5c37	0.005351569
35	0xbd0fc4f2	-0.03509993
36	0x3ccfa03e	0.025344964
37	0x3c8fe502	0.017565254
38	0xbcb0ddb4	-0.021590091
39	0xbc171f6f	-0.009223803
40	0x3d5a9d8e	0.053372912
41	0x3d41952e	0.04726141
42	0x3c3335d1	0.010938124
43	0xbcc3f43f	-0.023920177
44	0x3bf80bc7	0.0075697633
45	0x3d2b0dd8	0.04176125
46	0xbc70f868	-0.014707662
47	0x3c9a7f07	0.0188594
48	0xbbc64917	-0.0060511935
49	0xbda7474b	-0.08167895
50	0x3ae84b75	0.0017722683
51	0x3c0f606f	0.008751019
52	0x3c8c8c5f	0.017156778
53	0x3b8c6181	0.0042840843
54	0x3d8f8ba3	0.070090555
55	0x3c9eab63	0.019368833
56	0xbd95a9dc	-0.07307789
57	0xbd387533	-0.045033645
58	0xbcba325e	-0.022729095
59	0xbd9df2f6	-0.07712357
60	0x3ca3278e	0.019916322
61	0xbbaa9a75	-0.005206401
62	0xbd8443b5	-0.064582266
63	0xbcac673d	-0.021045322
64	0x3d53b6be	0.05168795
65	0x3c327cba	0.010893995
66	0xbb0a3e1f	-0.0021094156
67	0xbc79ad19	-0.015239024
68	0xba66bc02	-0.0008801819
69	0xbba3c001	-0.004997254
70	0x3aa7253c	0.0012752186
71	0xbc95bfc8	-0.018279925
72	0xbbfeda41	-0.0077774827
73	0x3ae7135b	0.001762967
74	0x3d1ad6f3	0.037802648
75	0xbb10c648	-0.002209084
76	0x3b592294	0.0033132182
77	0xbc463e05	-0.012099748
78	0xbbddddab	-0.0067708096
79	0xbb96b4b6	-0.004599179
80	0x3bdaa623	0.006672637
81	0x3bf4134f	0.007448591
82	0x3cb9cc4b	0.022680422
83	0xbb54eef5	-0.0032491062
84	0x3cd38ee0	0.025824964
85	0x3ba4d98e	0.0050308174
86	0x3c2737bf	0.010206162
87	0xbb0cd728	-0.0021490548
88	0x3d0c45a8	0.034246117
89	0xbc008efd	-0.007846591
90	0xbcd65c3c	-0.026167028
91	0xbc31e378	-0.010857455
92	0xbb4c5074	-0.0031175883
93	0x3caf7ed9	0.02142279
94	0x3c622af5	0.013804187
95	0xbbc308d7	-0.0059519815
96	0xbda36503	-0.07978251
97	0xbdb4e2c3	-0.08832314
98	0x3e06d887	0.13168536
99	0xbcf6e334	-0.030137636
100	0xbd9f9d98	-0.077937305
101	0xbca2654e	-0.019823696
102	0xbdfd5fc7	-0.12371784
103	0xbdc163dc	-0.09442875
104	0xbe212a0f	-0.157387
105	0xbd511685	-0.051046867
106	0x3da07b0a	0.07835968
107	0xbe0ca42f	-0.13734506
108	0x3d5f3b3d	0.054499853
109	0xbe1c7766	-0.15279922
110	0x3e2ee4d4	0.17079479
111	0x3e18966b	0.1490113
112	0xbe0f4fbb	-0.13995259
113	0x3dfa6f69	0.12228281
114	0x3dd3e7de	0.103469595
115	0x3b57b6cb	0.003291535
116	0xbe2337cb	-0.15939252
117	0xbbf006bc	-0.0073250216
118	0x3c5a7397	0.013333223
119	0xbc1ceab5	-0.009577443
120	0xbd082c8b	-0.033245604
121	0xbd08a139	-0.03335688
122	0x3e2de776	0.16982827
123	0xbb982349	-0.004642878
124	0xbd24429f	-0.040102597
125	0x3ca0200a	0.019546527
126	0x3d76f077	0.06028792
127	0xbd654e14	-0.055982664

MLP.13.bias f4 [4]
0	0x3e032241	0.12806036
1	0xbaee52bc	-0.0018182616
2	0xbbd9e848	-0.0066500045
3	0xbd9959ed	-0.07487855
