example/model/acker_robot_default/model_0.pth (torch, 24032 bytes, 18 tensors)

MLP.0.weight f4 [32, 2]
00000000: c898 aa3e 6f1a 35be c4af 84bd bf29 51bd
00000010: a544 1bbf 2361 81be c4a4 d13d 7014 28bf
00000020: 6b64 77be 8a07 473e bc39 26bf fee8 08bf
00000030: b6fe d9be d5c8 81be 6267 72be 5d44 1c3e
00000040: dcb0 a9be 82c0 d33e 8682 263d 0110 e03d
00000050: 9a8e 1f3f 5f5d 02bf 9feb 9a3e 86df 343f
00000060: 6f45 bebe 56be c63c 7658 a63d 0e12 c1be
00000070: b34f 0c3d 8017 cd3e 9f45 91be 6a3e 0ebe
00000080: 3db3 41bd 3632 5cbe ca83 f03e 26cc 7c3e
00000090: cc3e 623e e8c3 283f 5582 98bc 7c18 31bf
000000a0: 0042 52be 0472 0abf 2b77 d0be e612 b93e
000000b0: 3a45 d2be 4d76 ca3e fedd 20be b14b 83be
000000c0: 4871 6d3e 0d4a 643e 8c79 e83d 088a dd3e
000000d0: 7fe6 2ebe bcf4 33be 6bdb 003f 69cf 38be
000000e0: bfc7 053f 6569 f9be 8dbf 0fbe 9067 54be
000000f0: 4bba 413e d87e 673d 1eee 16bf fbe6 07bf
0.33319688 -0.17685865 -0.06478837 -0.051065203 -0.6065162 -0.25269422 0.10236505 -0.65656185
-0.241594 0.1943647 -0.64931846 -0.5348052 -0.42577142 -0.25348535 -0.2367225 0.15260454
-0.33142745 0.4135781 0.04065182 0.109405525 0.6232697 -0.50923723 0.3025789 0.7065357
-0.3716235 0.024260681 0.08122341 -0.37709087 0.034255695 0.40056992 -0.2837343 -0.13890997
-0.047290076 -0.21503529 0.46975547 0.24687251 0.22094268 0.6592393 -0.018616835 -0.69177985
-0.2053299 -0.54080224 -0.40715918 0.3614723 -0.4106844 0.3954338 -0.15709683 -0.25643685
0.23187745 0.22293873 0.11351308 0.43269372 -0.17080115 -0.17573828 0.50334805 -0.1804787
0.52257913 -0.48713222 -0.14037915 -0.20742631 0.18918721 0.056517452 -0.5895709 -0.53086823

MLP.0.bias f4 [32]
00000000: 2055 1c3f f664 63be 2b26 be3c 8448 1ebf
00000010: 7621 2e3e accd 47bd d1c1 08bf 02a4 febd
00000020: cfd4 c5be d218 183e 56b5 993e d5fd d33e
00000030: 1fbc c43e 319f 9a3e 00d8 ddbe c824 e23d
00000040: 98b2 e83d 1594 dd3e ce88 1b3f 1885 173f
00000050: 0557 f33e fc7d f23e 87de a9be d6b5 16be
00000060: 2b0e c53d f237 04bf 2a0d 193f 2b4d 7fbe
00000070: e51c 843d 2bfd 0b3f f0b9 ae3e 6d79 9fbd
0.6106739 -0.22206482 0.02321156 -0.618294 0.17004952 -0.04878013 -0.5342074 -0.12433626
-0.38638923 0.14853218 0.3002116 0.41404596 0.38424775 0.30199578 -0.43328857 0.11042172
0.11362189 0.4327704 0.6075562 0.5918746 0.47527328 0.47361743 -0.33177587 -0.14717802
0.09621843 -0.51647866 0.5978571 -0.24931781 0.06450824 0.5468318 0.34126234 -0.07786832

MLP.1.weight f4 [32]
00000000: 7f5d 803f 3ce6 7e3f 6ff2 7e3f c04a 803f
00000010: 432e 7f3f 1410 803f fe66 803f fa8e 7f3f
00000020: 191a 7f3f 0509 803f 4f43 803f a451 803f
00000030: 99d1 7f3f 9674 7f3f 2c8e 7f3f 9d0e 7f3f
00000040: ba16 7f3f cd13 7e3f bffc 7e3f 5172 7f3f
00000050: 3944 803f bc2a 7f3f a55d 803f 6d86 803f
00000060: 33a7 7f3f fdb3 7f3f 8f33 7f3f 4b65 7f3f
00000070: 15bf 7f3f 7db0 7f3f 5252 803f 38c9 7f3f
1.0028533 0.9957006 0.99588674 1.0022812 0.99679965 1.0004907 1.0031431 0.9982754
0.99649197 1.0002753 1.0020541 1.0024915 0.99929196 0.9978727 0.9982631 0.99631673
0.99644053 0.99248964 0.9960441 0.9978381 1.002082 0.9967458 1.0028578 1.0041023
0.998645 0.99884015 0.9968805 0.99763936 0.99900943 0.99878675 1.0025122 0.9991641

MLP.1.bias f4 [32]
00000000: c260 afb9 c5d9 8d3b 6127 a038 7b75 7f3a
00000010: 7706 9739 2baa 9abb 58ee f43a 92ed ea3a
00000020: 859f 2cbb b1d1 e73a 2ee3 ab3b 53d3 7eba
00000030: 3997 59ba cff2 caba fbcd b7bb e0b5 473b
00000040: a7ab 963b 8f95 5e3b c0ea cbbb fa21 a7bb
00000050: b8cf 90bb b142 713b 92ae 42ba 847c 2fbb
00000060: d97c cfba de1f b33a 0921 45bb 3a5a 02bb
00000070: 59db 093c 013d 0eba fd8d 79bb e920 43ba
-0.0003345069 0.0043289387 7.6367294e-05 0.0009744984 0.0002880578 -0.0047199926 0.0018686755 0.0017923585
-0.0026340198 0.0017686394 0.005245588 -0.0009720821 -0.0008300427 -0.001548374 -0.0056092716 0.0030473396
0.0045980993 0.0033963656 -0.0062230527 -0.005100486 -0.0044192933 0.0036813433 -0.00074265257 -0.0026777098
-0.0015830054 0.0013666113 -0.0030079505 -0.0019890205 0.008414113 -0.00054259604 -0.0038079016 -0.00074435637

MLP.3.weight f4 [32, 32]
00000000: 7c86 e6bd 1d3d edbd 2d7c db3d abf7 8abd
00000010: 608f c9bd 5708 1dbe c1d3 e83d c0c2 9ebd
00000020: 590a 0cbe 4a95 a43d bb90 19be 9a52 da3d
00000030: de76 a2bc bf5d ae3d b35b f7bd 158a 7b3d
00000040: 9b04 1abe a6b5 083d 1714 5abd 9b36 2abc
00000050: 3658 1cbe cf9d f33d 640c f53c db83 183e
00000060: e8fe f7bd 0a25 413d 2ea8 07be c242 253d
00000070: 665e 8ebc 7fae 153e 7ad3 e8bd 5f0d 963d
00000080: d109 b2bd ec2e 3cbc eb91 f3bd 0c67 1d3e
00000090: b5ea ac3d cdde ba3c c2b5 d0bd 4d96 1ebe
000000a0: fdb1 b43d 6538 ae3d 60ff 09be fa7a 2a3e
000000b0: 83ad 1bbe 7707 323e 1817 e53c 493f 90bd
000000c0: 0878 f6bd 7d9c 093e 4721 5e3d 031d 03be
000000d0: b277 15be dbc5 063e 3639 093e 2be4 d83d
000000e0: cce8 e0bc 27a7 683c 1f0c 963b fe53 da3c
000000f0: 745b 583d 0df3 a53c ed52 b63d 9ca8 903d
00000100: bb06 73bd e0b0 4abc a805 41bd f5a9 ee3d
00000110: 4435 e1bc 6cf6 083e e504 7d3d b3f4 fabd
00000120: a44f 0ebe 686a 2dbe 2971 85bd 98aa 923d
00000130: e0e5 00bb 00e0 9c3d 8b8d a9bd 8263 56bc
00000140: 6492 2b3e ce36 fa3d b9cf 2abe 34bd 033e
00000150: c8de 13bc eb10 243e 08f9 0f3c 2260 cbbc
00000160: 17d2 a53d 91b4 933d 7de7 293d d7f2 8c3d
00000170: 175e fdbd e644 f8bd 6662 8abd b82f 203e
00000180: 3065 653d 44ba 5f3d 7e8a 063e 017a 2d3e
00000190: 89e4 833c a618 023e fa6e 03be 90cd 06be
000001a0: b01f 2e3e 809e 4d3d 4fe1 cabc f269 493d
000001b0: a5da da3d b3cc fabd f3df 153e a773 30be
000001c0: 237f 883d e3a6 a63d 70df 933d ecdc 01bc
000001d0: 065a e93d 5025 da3d 362b 8b3d 794d 30be
000001e0: b40f 81bd ccca 80bd 6a50 c5bc 6d96 1cbb
000001f0: cc4c 483d 9e87 16be 8192 953d c0cf 163d
00000200: 92e8 d3bd 6bc7 a73d 54c7 a8bd 5cba cc3d
00000210: 9ba5 bbbd a8a1 8b3d 4094 b53d 6129 fd3d
00000220: e264 b3bd f5be 52bd 4c93 9cbd 41f4 913d
00000230: 9bc8 bfbd f526 013e 3221 2abe 5991 9e3d
00000240: 1770 d73d 9b34 ccbb 2e14 85bd 3f25 d83d
00000250: 3d2e ca3d 8972 6dbd b068 6f3d 506f a1bd
00000260: 7665 0b3e 5277 01bd 3d5d 14bc 8b1c 2cbe
00000270: f0e9 6ebd eb75 aa3d 581b 36be 84ee 29bd
00000280: c155 f9bd 5acf 3d3d 49d0 dfbd bc93 a53d
00000290: 50ee e83c 7469 00be 6838 233e 1c89 2f3e
000002a0: 12da afbc abad 083e 5280 84bd a6f2 aabc
000002b0: 1881 80bd 71d5 1bbe 769e 14bc d980 c0bd
000002c0: caad 213e 45a2 523d 2026 4d3c 745d 223e
000002d0: 73b5 cabd d281 a13d 96ea 1f3e 00bf 1dbe
000002e0: 6f7e f3bd cef8 913d baf5 2e3e 8d4a bcbd
000002f0: 29eb 113e 1c8c 18be 4d59 083c edf1 273e
00000300: e704 d1bd be13 24bd b3fb 42bd 3d84 1d3e
00000310: 3da3 3dbd d486 15be eefc 253e 3e0d b2bd
00000320: 1279 963d 6784 cf3d fd9c 873d 4868 053e
00000330: 48c7 bfbd dace fc3d c90d 943d 9207 1f3e
00000340: 0299 503d 49c2 f0bd b704 943c 138a b03b
00000350: 253f 163e 3046 41bd c38d 34be 0861 d9bc
00000360: 3108 f13d 9a3a 433d fe21 d83d 5379 1bbe
00000370: a7c8 fdbd 7882 97bc 7f11 233d 7d1d 483d
00000380: 61be 283d abe6 603c e5ef 103e 369e 89bb
00000390: 178f 24bd 0e81 d8bd f7c9 33be d00b 803c
000003a0: 061b ebbd 3028 063e 6ebc d93c 6f15 f83d
000003b0: e5e1 81bd 103d 18be 66d8 38bd f0db 2e3d
000003c0: ea8c d33d 4f8e f63c 36f7 53bd 94f2 d93d
000003d0: 5d70 11be 9485 813d 3555 223e 2bd5 a4bd
000003e0: 1d31 d1bd 50ed 2cbe 2586 a83d 6324 973d
000003f0: 86bb 8c3d eea0 5f3d 879b 143d ee60 a13d
-0.112561196 -0.11583922 0.10717044 -0.0678552 -0.098418 -0.15335213 0.11368514 -0.07751989
-0.13675822 0.08036287 -0.14996617 0.10660286 -0.01983207 0.085139744 -0.12078037 0.061410982
-0.1504082 0.03337636 -0.053241815 -0.0103889955 -0.15268025 0.11895334 0.029913135 0.14894049
-0.121091664 0.047154464 -0.13247749 0.04034687 -0.017378997 0.14617346 -0.11368461 0.07326769
-0.086932786 -0.011485796 -0.11893066 0.1537134 0.08443204 0.022811318 -0.101909176 -0.15487023
0.08823011 0.0850685 -0.13476324 0.16648474 -0.15202908 0.1738566 0.027965114 -0.07043321
-0.12034613 0.13438602 0.054230954 -0.12804036 -0.14596441 0.13161413 0.1340073 0.105903946
-0.027454756 0.0142000085 0.0045790817 0.026651379 0.05282159 0.020257497 0.089025356 0.0706341
-0.05933259 -0.012371272 -0.047124535 0.116535105 -0.02749122 0.13375252 0.061772246 -0.12253704
-0.13897568 -0.16935122 -0.06515724 0.071614444 -0.0019668266 0.07659912 -0.0827895 -0.013085248
0.16755062 0.122174844 -0.16680802 0.12865144 -0.009025283 0.16022079 0.008787401 -0.024826113
0.08096712 0.07212175 0.04148053 0.068822555 -0.12371462 -0.12122516 -0.06757049 0.15643203
0.056004703 0.054620996 0.13138768 0.16941072 0.016100185 0.12704715 -0.12835303 -0.13164353
0.17004275 0.050199986 -0.024765639 0.049173303 0.106862344 -0.122460745 0.14636211 -0.17231618
0.066648744 0.081373 0.07220352 -0.007926207 0.11394124 0.10651648 0.06795351 -0.17217053
-0.06301823 -0.062886804 -0.024086196 -0.0023893372 0.048901364 -0.14700171 0.07303334 0.03681922
-0.10347094 0.08192333 -0.08241144 0.09996483 -0.09162446 0.06817943 0.08866167 0.12361408
-0.08759476 -0.051451642 -0.07645282 0.07126666 -0.09364434 0.12612517 -0.16614226 0.077425666
0.10519426 -0.006231857 -0.064979896 0.10553979 0.098721005 -0.057970557 0.058449447 -0.07882559
0.13612923 -0.031607933 -0.009055433 -0.16807763 -0.05832857 0.08323272 -0.17783868 -0.04148723
-0.121745594 0.046340324 -0.10928399 0.08084819 0.028433949 -0.12540227 0.15939486 0.17142147
-0.021466289 0.13347499 -0.06469788 -0.020867657 -0.06274623 -0.1521814 -0.009070983 -0.09399576
0.15788952 0.051424284 0.012521297 0.15855962 -0.0989789 0.078860894 0.15616831 -0.15404892
-0.1188935 0.07127534 0.17085925 -0.09193907 0.14249863 -0.14897197 0.008322072 0.16400881
-0.10206013 -0.04005789 -0.04760332 0.15382476 -0.046298254 -0.14602214 0.16209766 -0.08693932
0.07347311 0.101326756 0.0662174 0.13028061 -0.09364182 0.12344141 0.07229192 0.15530232
0.05092717 -0.11755807 0.018068654 0.0053875535 0.14672525 -0.047186077 -0.17632203 -0.026535526
0.117691405 0.04766331 0.105533585 -0.15183 -0.12391787 -0.01849483 0.039811607 0.048856247
0.041197184 0.0137268705 0.14154013 -0.0041997684 -0.040175524 -0.1057149 -0.17557512 0.015630633
-0.11479764 0.13101268 0.026579108 0.12113463 -0.06341914 -0.14867043 -0.04512825 0.042690217
0.103296116 0.030097155 -0.05174943 0.10641971 -0.1420302 0.06324306 0.15852816 -0.08048471
-0.10214446 -0.16887403 0.08228711 0.07379987 0.06871705 0.054596834 0.036281135 0.07879816

MLP.3.bias f4 [32]
00000000: 9404 243e a8b7 f93d ac56 013e 7b3b f0bd
00000010: a405 32bd 6d80 24bd 4ee7 19be 6c81 893d
00000020: 9a61 9e3d b385 17be 1444 8b3d 143a 9dbd
00000030: 80c7 1b3e 870f 2a3d 492d e1bd 4fa2 a33d
00000040: de16 c83c 5845 b8bd a035 143d 7f70 2cbe
00000050: d238 bcbc ab83 2abe c8a0 c3bd b687 1c3e
00000060: a3b8 17be 736c f53d 3570 89bd ed0a 0b3e
00000070: adc5 033e 2e5e dc3d 94ad 10bd 17c0 e1bd
0.16017371 0.12193233 0.12630719 -0.11730095 -0.04346241 -0.04016154 -0.15029642 0.067141384
0.0773346 -0.14797096 0.06800094 -0.07677093 0.15212822 0.041518714 -0.109949656 0.07989942
0.024424966 -0.08997601 0.036183953 -0.16839789 -0.022976313 -0.1665179 -0.09552151 0.15286145
-0.14816527 0.11983576 -0.06710855 0.13578387 0.12868376 0.10760151 -0.035321787 -0.11022966

MLP.5.weight f4 [32, 32]
00000000: c20d e8bd fb5b ab3d 25e7 3b3d f942 2cbe
00000010: 2ad1 14be 136c d13d 61dd 03be 19b3 3d3d
00000020: 8db5 0abd 023b 4ebc fbd5 073e 5cf2 783b
00000030: fe33 2dbe f8e0 d8bd a979 2b3e ecd9 673d
00000040: e64e 063e 8a9c 353e 8d97 143d 50c3 953c
00000050: 9937 143e b9b3 013d c7e9 21be 0297 32be
00000060: b917 00be be55 963d be65 34bd 7cbe 623d
00000070: 8559 90bd eb8b acbd b9fa cebd 6724 dd3d
00000080: 178b e8bd 2dda 14be 8054 f73d 7fd2 bdbb
00000090: 93e3 163e c562 5f3d 763d cbbd 32c4 163e
000000a0: 1da5 f73c af6b bbbd 0f28 94bd 49d3 e6bd
000000b0: bb13 623c 2287 e13c 2a73 de3d 76c1 d33d
000000c0: 0fe7 093e e820 663d f3d2 15be ad24 053d
000000d0: 6697 2abe 7317 97bc b2a4 f53c b105 723d
000000e0: 646e 23be 2962 0dbe 018c 92bd 0698 14be
000000f0: b565 e63d f87d e8bd bc40 f13d 4c54 4a3c
00000100: 5de4 233e c33f 163e c416 263d 4972 e43d
00000110: 1725 193e e617 1bbe aaee a1bd 4a17 f53d
00000120: 568c 39bc c4fb 3dbd 3704 0ebe 57b9 0b3b
00000130: 6d5f 853d 9691 b13d 4cce ca3d 932c 31be
00000140: 1769 24bd c509 1abe acb6 d73d ef82 b03d
00000150: 42c1 adbc 7ede b63d bf1a 05be 7d99 033e
00000160: dc1a b43d ca87 38bd 492a 153e b9f3 47bd
00000170: 143d d63d 4948 003e 54bd 833d 29c4 eb3d
00000180: f8d9 e03d 5031 0b3d 3f88 0cbe 440e 2c3e
00000190: dc12 2abe 02b5 803c c9da 213e f97c 1dbe
000001a0: de73 00bc b6d7 c3bd b959 ac3d 3d15 cabd
000001b0: 8a93 62bd 8505 b13d a4bd 08bd 4655 073e
000001c0: b5f4 873d 8ef2 343e 164c 843d c5a9 513d
000001d0: fdbe d43d 6bad 113e bdb6 2b3e b473 0e3e
000001e0: 89a5 643d fbc9 ca3d 9192 8a3d 7bbf c33d
000001f0: ed0b 553d 9e1d fc3d a023 2abe f659 1fbd
00000200: 5330 9fbb 11e1 ffbc 0cab 033a bdbe 84bc
00000210: d59c f93d e432 b0bd 0426 38be c202 f1bd
00000220: dcb6 c33d 07d7 0a3e b939 bbbb 1680 cebd
00000230: 93f5 60bc fdbe ff3d 89fb c93b 80a0 3b3d
00000240: e967 23be 2c8b 923c 0133 1bbe 2c77 bebd
00000250: 8259 6e3d f825 8e3d f774 573d f296 1bbe
00000260: bebd aabd 10e4 a4bd 23b9 b73d 3123 32be
00000270: ae89 a43c 0910 12be 2167 5b3d 05f5 e43d
00000280: 18a9 acbd 6572 0cbc 3730 12be 506f 27bc
00000290: 406f 923c 929f f73d 255e 183d a2fc adbd
000002a0: f6ac f1bd 7957 9cbd 294b 0fbd f4d5 b7bd
000002b0: 452e ce3d 6e44 8c3c ff31 02be 92b8 9b3c
000002c0: eae0 b53d 933c 2b3e 2290 2ebe 3304 52bc
000002d0: f9b5 33be 81ec adbd 1b1e d8bd ff0a 85bd
000002e0: 5afc e43c b39c 17be 82e4 0a3e 98e5 d2bd
000002f0: 7f5d 02be 1894 1b3e 97ce a3bd 56db 193e
00000300: c040 303d ee64 e43d c6d2 fdbd 1c80 9bbd
00000310: bcd6 cfbd 53a0 d2bc a2cb 083e f312 b93c
00000320: 1c54 1b3d ae15 233e 39eb d23d e91d 27be
00000330: 9b0f 48bd 37b8 09be 6bee fb3d dd98 da3d
00000340: 4c21 b6bd 4609 1a3c a317 0dbe 1bab 323e
00000350: 0208 28be 5bd1 b1bc 5906 223e 5338 12bc
00000360: 96f8 00be 4a9d 153e 9a30 073e e21a 80bd
00000370: b3d8 d0bd ced8 08be fc8b c5bd 6b0e 91bd
00000380: fa1e 633d e904 14be 862a 863d 37fb 673d
00000390: e4c6 a63c b8a6 983d 5d8e 383d 78fc 05bd
000003a0: 312f c7bd e2c5 ecbd d29c 653d 02a1 07be
000003b0: 7702 3eba 68d3 86bd c350 d7bd 5942 afbd
000003c0: 70bb 26be b9c9 263e db86 8dbd a3ee 1d3e
000003d0: 7f09 ad3d fe97 d2bc 2763 b83d a4a4 e5bc
000003e0: b3f7 2ebc 7356 80b8 c1e0 103e 2199 d23d
000003f0: 51fb 833d ac34 1e3d 78b2 9bbd aed8 cb3d
-0.11330749 0.08367153 0.045874733 -0.16822423 -0.14532915 0.10225692 -0.12877418 0.04631338
-0.033864547 -0.012587311 0.13265221 0.0037986254 -0.16914365 -0.105897844 0.16745628 0.05660431
0.13116035 0.17735496 0.036277343 0.018281609 0.14474334 0.031665538 -0.15811835 -0.17440417
-0.1250905 0.07340573 -0.04404234 0.05535744 -0.070483245 -0.08425125 -0.10106415 0.10797959
-0.11354654 -0.14536352 0.12076664 -0.0057929154 0.1473525 0.054537553 -0.09923832 0.1472328
0.0302301 -0.091513984 -0.07234203 -0.11270768 0.013798649 0.027530257 0.108618096 0.10339634
0.13467048 0.056183726 -0.14631252 0.03250568 -0.16659316 -0.018443799 0.02998576 0.05908746
-0.1596008 -0.13806976 -0.0715561 -0.14511117 0.11249868 -0.11352152 0.11779925 0.0123491995
0.16005082 0.1467276 0.040549055 0.11154611 0.14955555 -0.15145835 -0.0790685 0.11967333
-0.011324963 -0.04638268 -0.13868795 0.0021320188 0.06512342 0.086703464 0.09902629 -0.1730216
-0.040139284 -0.1504279 0.10532889 0.086187236 -0.021210317 0.08929156 -0.12998484 0.1285152
0.087941855 -0.045051374 0.14566912 -0.048816416 0.104608685 0.12527575 0.06432596 0.11512024
0.10979074 0.033982575 -0.13723849 0.16802317 -0.16608757 0.015711311 0.15806116 -0.15379705
-0.007840125 -0.09562628 0.08415551 -0.09867332 -0.055316485 0.08643631 -0.03338398 0.13216123
0.06638471 0.17670652 0.06459825 0.051187295 0.103879906 0.1422631 0.16768928 0.13911325
0.05582193 0.09901806 0.067662366 0.095580064 0.052013326 0.123103365 -0.16615152 -0.038904153
-0.0048580556 -0.03123525 0.00050227414 -0.016204232 0.121881165 -0.086034566 -0.17983252 -0.11768104
0.09556362 0.13558589 -0.005713668 -0.10083024 -0.013730424 0.124876 0.0061640185 0.04580736
-0.15957607 0.017888628 -0.15156175 -0.09300074 0.05819083 0.06940836 0.05260178 -0.151943
-0.08336972 -0.08051312 0.08970859 -0.17396237 0.020085182 -0.1426393 0.05356515 0.11179546
-0.084306896 -0.008572196 -0.14276205 -0.01021941 0.017875314 0.120909825 0.03719916 -0.084954515
-0.11800568 -0.076338716 -0.034983788 -0.08976355 0.10067419 0.017122474 -0.12714384 0.019008908
0.088807896 0.16722326 -0.1704717 -0.012818384 -0.17549886 -0.08492375 -0.10552617 -0.06496238
0.027952362 -0.1480587 0.13563731 -0.10297698 -0.12730978 0.15193212 -0.07998388 0.15025076
0.0430305 0.11152063 -0.123937175 -0.07592794 -0.10148379 -0.025711214 0.1335893 0.022592044
0.03792201 0.15926239 0.102987714 -0.16320004 -0.048843008 -0.13449179 0.12301334 0.106736876
-0.088930696 0.009401625 -0.13778548 0.17448084 -0.16409305 -0.021706274 0.15822734 -0.008924562
-0.12594828 0.14610782 0.13202134 -0.062551275 -0.10197582 -0.13363954 -0.096458405 -0.07082828
0.055449463 -0.14454998 0.065510795 0.05663606 0.02035851 0.07453674 0.045057643 -0.032711476
-0.09725798 -0.11561181 0.05605776 -0.13245013 -0.0007248292 -0.06583291 -0.10513451 -0.08557577
-0.16282439 0.16287889 -0.06910487 0.15423064 0.08449077 -0.025707241 0.09003287 -0.028032608
-0.010679173 -6.119618e-05 0.14148237 0.10283113 0.06444419 0.03862445 -0.076023996 0.09953438

MLP.5.bias f4 [32]
00000000: 29da 55bd 4b90 233d d766 eb3b ea1f 83bc
00000010: 2aeb b4bd 357c 08bb 9caa 4dbd 0854 f6bb
00000020: 0fd9 a23c a262 863d 1cdf 013e 2baa ab3c
00000030: 01a2 063a 99e5 063e ccb3 5c3d 58f1 dbbd
00000040: 895e 21be aa92 083e b4ec 1e3d cb49 98bc
00000050: 7f12 92bd 1126 2e3d 1ffe 30be 3fe4 3d3b
00000060: 7c8d aabd 3963 fabd 0531 193e 1dad 14be
00000070: ee41 dabd 09d0 8a3d d5b9 adbd 1f41 fb3b
-0.052210007 0.03993253 0.0071838903 -0.016006429 -0.088339165 -0.0020825986 -0.050211534 -0.0075173415
0.019878892 0.065617815 0.12682766 0.020955166 0.0005135835 0.13173522 0.053882405 -0.10739392
-0.15758719 0.13337198 0.038799956 -0.018589875 -0.07132434 0.04251677 -0.1728444 0.0028975157
-0.08327767 -0.122259565 0.14960106 -0.14519162 -0.10657106 0.06777961 -0.0848271 0.007667675

MLP.6.weight f4 [32]
00000000: a59e 803f db63 7f3f 985b 803f 55af 7f3f
00000010: d96b 803f 1310 803f ae78 7f3f 35cb 803f
00000020: 1c27 803f d602 803f f3df 7e3f 5c56 803f
00000030: f319 803f bca2 7f3f 51e6 7f3f 4753 803f
00000040: b3cf 7f3f ac4e 803f d934 803f 21bd 7f3f
00000050: 20c7 7e3f a3fc 7f3f da8a 803f 5233 803f
00000060: a0cb 7e3f d168 803f d5a7 7f3f 6898 7f3f
00000070: 1034 803f 1443 803f de6d 7f3f b735 803f
1.0048414 0.9976174 1.0027952 0.9987691 1.0032912 1.0004905 0.9979352 1.0062014
1.0011935 1.0000865 0.9956047 1.0026355 1.0007919 0.9985769 0.9996081 1.0025414
0.999263 1.0024009 1.0016128 0.9989796 0.9952259 0.9999487 1.0042374 1.0015662
0.9952946 1.0031987 0.99865466 0.9984193 1.0015888 1.0020471 0.9977702 1.0016392

MLP.6.bias f4 [32]
00000000: bc8f 7c37 1a00 d037 b6a9 adba 2645 0b3b
00000010: 6520 64bb e9f2 b0ba 5ac7 36ba b235 04bb
00000020: cf81 543a efcc 533b afb4 863a 14d9 e1ba
00000030: 71f8 803a deab 21bb 5098 4ab9 21c1 06bb
00000040: 3ff4 21b9 e6e9 403b d686 823a 7f57 e3ba
00000050: e614 f53b 3b1e 4ebb e708 08bb 5b5d 313b
00000060: 61bb b43b df09 47bb 1827 a9ba 5708 a8ba
00000070: f3c4 da3a 9f2f a139 1876 80bb 3841 1e3b
1.5053836e-05 2.479558e-05 -0.001324943 0.0021250932 -0.0034809348 -0.0013500127 -0.0006972455 -0.0020173606
0.0008106501 0.0032318195 0.0010277237 -0.0017230832 0.0009839666 -0.0024669091 -0.00019320962 -0.002056189
-0.00015445145 0.002943629 0.0009958397 -0.0017344801 0.007479298 -0.0031451124 -0.002075726 0.00270637
0.0055155014 -0.0030370874 -0.0012905328 -0.0012819868 0.0016690776 0.00030743793 -0.003920328 0.002414776

MLP.8.weight f4 [32, 32]
00000000: b27a 4abd da23 c9bd d6a8 8939 07e7 003e
00000010: 3d4a 5c3d 783e 0e3e 1d3d b7bd 84b6 173e
00000020: 39be 983d 56cb 74bd 93b3 66bc 8035 093e
00000030: 1783 f0bc d449 e9bd 800b 343e cb93 f13d
00000040: fed6 dfbd dc32 0a3e baa9 93bd 7a88 2ebd
00000050: 796b b4bd 1c82 bebd a529 163e 3574 dabd
00000060: 4c34 f73c cca0 e3bd c64f f13b 965a b6ba
00000070: 490d 89bd a3cd 9c3d 2ca1 a83d 8736 c73d
00000080: 469a 0b3d d89f ebbd 84c0 083e 8819 b3ba
00000090: a4c0 2ebd f6c8 183e 4fb2 173e 3e92 a0bb
000000a0: 9a9b b83d af89 d4bd e6ed acbd ff03 733c
000000b0: 1552 ae3d cfe0 d23d 1ce1 923d 8d58 073e
000000c0: e56c 66bd 3a06 d8bd 0e9c c33d a898 273d
000000d0: 5e87 df3d e6ab fc3d 174e 32be a5db 8a3d
000000e0: feb3 99bd 0d05 f6bd 8745 21be 82e1 2c3e
000000f0: cf2c b23d 96f4 32be 3179 cebd 1dd0 4abd
00000100: 842a f5bd 83bc 7fbd 7331 aabd 9237 06be
00000110: 90c7 22be 04e8 15be 9a46 1b3e 5961 33be
00000120: 6621 1f3d d930 c73b 0381 25be 6e64 033e
00000130: 859b 853d 0340 0a3e 139f a23d 5972 12be
00000140: 5a68 3d3d d238 14be 3f85 0d3e 3e47 0ebe
00000150: 211c b4bd 7475 203e 3265 f4bc c81b 873d
00000160: 836e 2bbd 93b5 92bc 274b 20be c785 29be
00000170: 05f2 c23d 2179 08be ce6a b4bc 1d82 6abd
00000180: 9d02 143e 570c cfbd 4b12 203e 4b3d fb3c
00000190: 5cdb af3d 22db fa3d 3de2 5fbd 9f4a c5bd
000001a0: d81f 05be 8af6 84bd 7d94 1dbe 84bd 9c3d
000001b0: 468c 1cbd d4a3 88bd 7733 01be f28f 113d
000001c0: 452b 0b3e b92a 1a3e 1d9f 1c3c de0a ac3c
000001d0: d822 2d3e 2e19 813c 9b79 1dbc f109 fc3d
000001e0: 2dab 193d 4c8b 24be 4aa8 33bd a148 a83d
000001f0: cef4 60bd aab7 d53d a41d a6bd 2291 eebd
00000200: 944b d43d d7f6 6fbc fd94 9abd 4ca9 243d
00000210: 81b5 84bd 680f 22bc d82a af3d c047 16be
00000220: 62a7 5cbd 7c5d 663d 3c60 42bd 018e c23d
00000230: b3f3 f83d 7d04 0fbe 6a46 173e ce8e c03c
00000240: 042e 973d 9c84 bf3d fe74 ac3d c685 95bd
00000250: eda2 ce3d b69a ab3d 936e 403d ba90 27be
00000260: 339a 063e 3df8 dc3d 3522 08bd 2172 f5bd
00000270: d9eb 9cbd 774d c5bd 9ed6 1fbc 78e5 0abc
00000280: 40da 203e bdd5 8f3d 80f9 febc cedf 32be
00000290: b83d f7bd 80cc 14be 309c fc3d 63eb 15bd
000002a0: 85c7 1abe 8944 81bd a002 33be 9e52 d83d
000002b0: d872 213e 3dfa 1f3e 80b0 483c d2eb b8bd
000002c0: 17ea 6dbd b51e 1a3e 4a2e b33d 7238 d83d
000002d0: 860b fb3d 4696 1f3e 2293 d03d c5bc 29be
000002e0: 2cc1 18be db21 cc3d a5fd 823d c6c1 b0bd
000002f0: 160b 113e bc53 4fbd 9ab3 38bd de3c 2a3e
00000300: 7ad3 013e df4d c5bb c893 fbbc 3dba babc
00000310: 9376 20be eedd 31be 4231 32be d0bd a7bd
00000320: d6e5 9d3d 707d bebd 1bbc aa3d d1f2 19be
00000330: 5d21 85bc 62ae 36bd 5b86 aebd b199 ac3d
00000340: 096e b6bd d922 243e bea4 2e3e 4013 33bd
00000350: 0eb9 2dbe 6ed2 923d 2fe5 03bd fac2 c83c
00000360: 8ece 89bd 25e4 2fbe 6efe 8fbb ebb3 ca3d
00000370: f8ad 20bc 8a2d d03d 3e52 25be 2834 243e
00000380: f774 bdbd f0fe 193e 6442 f73d a2e9 91bd
00000390: 8d0d c73d 530a b3bd 8a50 32be 6e3a 08be
000003a0: 8927 993c 0f40 2fbe 9f30 1fbe be3f 24be
000003b0: d9b7 243e fdc8 0e3d ff97 2f3e 1308 2cbe
000003c0: a248 a73d a095 dd3d 3877 8ebd 4d71 503d
000003d0: 15e5 273e 0563 ccbd e8f3 373e bd48 e03d
000003e0: 1621 1ebe 8b63 55bd 92d4 153d b8bd ab3c
000003f0: e4d2 e5bd 8b6d 26be d03f 993c 1f79 953c
-0.049433418 -0.09821291 0.0002625647 0.1258813 0.053781737 0.13891017 -0.08947203 0.14815718
0.07458157 -0.05976423 -0.0140809 0.13399315 -0.029359384 -0.11391035 0.17582512 0.117957674
-0.109296784 0.13495964 -0.07210107 -0.042610623 -0.08809561 -0.0930216 0.14664324 -0.10666696
0.030176304 -0.11114654 0.007364246 -0.0013912495 -0.06691987 0.076564096 0.08233866 0.09727197
0.034082673 -0.11505097 0.13354689 -0.0013664225 -0.042664185 0.1492041 0.14814113 -0.004900246
0.09014054 -0.103778236 -0.08443813 0.014832496 0.0851175 0.10296785 0.071718425 0.13217373
-0.056256194 -0.105480626 0.095512494 0.04091707 0.10914491 0.123374745 -0.17412601 0.06780175
-0.07505034 -0.12012682 -0.15749179 0.168829 0.08699953 -0.17476115 -0.10081709 -0.04951488
-0.11971 -0.06243564 -0.08310213 -0.13107136 -0.1589644 -0.14639288 0.15163651 -0.17517604
0.03885021 0.006078821 -0.16162495 0.1283128 0.065238036 0.13500981 0.07940497 -0.14301433
0.046242096 -0.144748 0.1382036 -0.13894364 -0.08794428 0.15669805 -0.02983341 0.06597096
-0.04185344 -0.017908847 -0.15653668 -0.16554938 0.09518818 -0.13327457 -0.022023585 -0.057252992
0.14454122 -0.101097755 0.15631978 0.030668875 0.08586761 0.122488275 -0.054659117 -0.096333735
-0.13000429 -0.06492336 -0.15388675 0.07653335 -0.038219713 -0.06671873 -0.12617289 0.035537668
0.13590725 0.1505536 0.00955942 0.021001276 0.16907823 0.015759077 -0.0096115125 0.12306584
0.03751676 -0.16068763 -0.043861665 0.08216978 -0.054920964 0.10435422 -0.08111122 -0.11648776
0.10365978 -0.014646254 -0.075479485 0.040200517 -0.064799316 -0.009891368 0.08553094 -0.14675808
-0.053870566 0.056241497 -0.047455058 0.09499741 0.12155857 -0.13966556 0.14772955 0.023505595
0.07381824 0.09351465 0.08420752 -0.07300906 0.100896694 0.08379118 0.04698045 -0.16363803
0.1314476 0.10789535 -0.033235747 -0.11984659 -0.07662172 -0.09633916 -0.009755759 -0.008477561
0.15708256 0.07023189 -0.03112483 -0.17468187 -0.12072319 -0.14531136 0.12334478 -0.036601435
-0.15115173 -0.063119 -0.1748147 0.10562633 0.15766466 0.15622802 0.012249112 -0.09029354
-0.058084574 0.15050776 0.08749063 0.10557641 0.12258057 0.15584669 0.10184313 -0.16575916
-0.14917439 0.09967395 0.06396035 -0.08630709 0.14164385 -0.050616965 -0.045093156 0.16624781
0.12678328 -0.006021246 -0.030710116 -0.022793883 -0.15670232 -0.17369816 -0.17401603 -0.08190501
0.07709853 -0.09301269 0.083366595 -0.15034033 -0.01625126 -0.0445999 -0.0852172 0.08427752
-0.08907706 0.16028918 0.17055032 -0.04371953 -0.16965124 0.071690425 -0.03220099 0.024507035
-0.0672885 -0.17176874 -0.004394344 0.09897598 -0.009807102 0.10164936 -0.16144654 0.16035521
-0.09250825 0.15038657 0.1207321 -0.0712464 0.097193815 -0.087422036 -0.17413536 -0.13303539
0.01869561 -0.1711428 -0.15545891 -0.1603994 0.16085757 0.034859646 0.17147826 -0.16799955
0.081681505 0.10819554 -0.06956333 0.050889302 0.16395982 -0.09979824 0.17964137 0.10951374
-0.15442309 -0.052096885 0.036579676 0.020964488 -0.11221865 -0.16252725 0.018707186 0.018246232

MLP.8.bias f4 [32]
00000000: 97d0 27be 4740 e33d 7118 2b3e 9bbf 4c3d
00000010: 71c0 da3c 6b4f b03c 93be f03d ad9a 07bd
00000020: 7796 c6bd 2a2c 573d 06d2 ccbd fea5 c93d
00000030: b7b6 07bd e69f 4abd 4161 d03d 6c7d 1dbe
00000040: 55e5 15be fe05 0cbe 4bf1 b63d 057f c8bc
00000050: b150 20bd 7593 bbbc ed93 00bc b8d3 133e
00000060: 0704 923d 6fef 11bd 0a52 1d3d dcec dd3b
00000070: f45d d9bc 1d90 323d 304c edbd 3bec 833d
-0.16388164 0.11096244 0.16708542 0.049987417 0.026703091 0.021522244 0.11755099 -0.033106495
-0.09696668 0.052532353 -0.10000996 0.098461136 -0.033133235 -0.049468897 0.101748 -0.15379876
-0.14638264 -0.13674161 0.08932742 -0.02447463 -0.039139453 -0.022897461 -0.007847768 0.14436233
0.071296744 -0.035628732 0.038408317 0.0067726206 -0.026534058 0.04359447 -0.11586797 0.06441542

MLP.10.weight f4 [32, 32]
00000000: 5caa edbd 381b 9cbc 8b4a 313d b09d 36be
00000010: 5c04 953d 0cd8 4dbd 2241 09bd 14bc 113e
00000020: 6639 503d eb56 91b9 55f4 c2bd 5d5e d93c
00000030: 1481 ffbd fcca 82bd 19fb 98bd 14bd 7a3c
00000040: 69fa ed3c a972 2bbc 0c82 93bd 7495 833d
00000050: ebe4 c43d 3960 a4bd a50b 363d 0ba2 31be
00000060: 373c 0d3e d734 98bd bf02 aa3d ab36 dc3d
00000070: 8821 323d ef12 823d 383c ea3d 8662 3dbd
00000080: 0e0a ae3c 8ffb 29be ba9d d33d 97df b43d
00000090: 0230 46bc 149e 6b3d 0f32 f43d 4cdf 0dbe
000000a0: 8ce8 c63d b3d5 c7bd d151 9a3d fdb9 d83d
000000b0: c40f 0a3e 69cb 123e f89e 023e 4875 a2bd
000000c0: 28a3 fdbc 3bdc 30bd 793b 5bbd 79ef 193d
000000d0: 088a ce3d 601d d23c 9a9c ba3c 1c86 2abe
000000e0: 076b a63d 1832 f53d f1e3 713d cd90 ab3d
000000f0: 028f 6c3d 4dd2 203e fa63 edbd bb4f cdbd
00000100: ae98 31be 47d2 4c3c 6944 29be 9368 c33d
00000110: b8a4 4f3d 2de9 6e3d 577e d1bb 5c3c a6bd
00000120: 6c9e e4bd 7a5d 053e 6361 943d 53cc 133e
00000130: 3ece 113e a81c 3f3d 060b d63c 20b1 273e
00000140: 1235 383c 0bf4 68bd 2280 bdbd 7970 abbd
00000150: 6508 febd 888b 003e 4f10 09be a112 fe3d
00000160: 92c2 44bd 09d3 25be 9d50 8c3d 093e 333d
00000170: 2c78 04be 764d 24bd 9d90 293d 6e17 1d3e
00000180: 0420 3abb be0c 46bd 590a b13d 4801 143e
00000190: 7063 dcbd ab7c d9bd 8d06 3cbc 6811 cfbd
000001a0: 1b3f 183e 7bab 29be 492a 82bd dd89 323d
000001b0: ebf3 ee3d b109 c1bd cb6a 90bd acb7 48bd
000001c0: 6055 2cbd 4f07 15be 2c23 ddbc 4289 793d
000001d0: c556 0d3e 4511 6d3d 1fa2 243e f45f 0a3e
000001e0: 21b3 88bd a471 b4bc 3aa0 ed3d 1be8 17be
000001f0: 73c4 093e 2537 a13d 2b6d f7bb 8bd7 96bd
00000200: 6170 183d 68eb 723c 3364 a03d c843 ab3d
00000210: b6c0 2c3d 4c1e 16be 5d3c 8bbc d3fa 223e
00000220: 2248 3a3b d53b 1fbe 8105 283e cd3d 11be
00000230: c021 0ebe 4c61 fc3d 8360 8fbd 45ad 86bd
00000240: b332 523d a1c5 9c3c a4a8 9dbd 2cf9 f73c
00000250: 62a3 fb3d e590 443d 8dc9 2ebe f62d 35bd
00000260: 315c 19be ac41 a73d 70cf 1f3e dcd4 9e3d
00000270: 2158 fa3c 441b 2abe 9535 f7bd b7dd 1d3e
00000280: cf8f 25be 1dc1 7e3c c4c9 ae3d c122 fabc
00000290: 14f2 2ebe 70d8 263e 2f07 9a3d 4586 2a3e
000002a0: 56c6 0d3e 026c bcbd 3c04 b0bd 8615 1e3e
000002b0: b5c9 043e ddaa 23bc 7a5a 8bbd 021f 37bd
000002c0: d8c6 01be 6341 35bd 95d4 053e 3d50 f7bd
000002d0: 0c8e dabd b6ec 13bd 6f6d e7bd f4d1 9d3b
000002e0: 308d 6b3b 4aeb 47bd 6b23 203d 01fc d13c
000002f0: 8027 dd3d 2cb3 993c ecb0 1fbe 5243 ebbd
00000300: 1a48 a93d 5a6e 2d3d f6e5 edbc 509d 0dbe
00000310: d264 0f3d a5af cabd 2b07 d6bd 2bda 273e
00000320: 8449 e43d cb46 02be 938c 4ebd cf96 bfbc
00000330: 68e9 1b3e b3e3 d43d 9994 67bc 4b31 263e
00000340: 2058 32be f803 d5bd ea55 613d e633 35be
00000350: 59ca fe3c fcef 70bb c73d 293e f847 f53d
00000360: e8ba 103c fdb7 20bd e10d c1ba eca6 053e
00000370: 3a5f 2cbe 1364 c43d 0948 08be 2ebd 003d
00000380: 3444 05bd 0909 103e 03a6 ab3c 6d0c 373e
00000390: af41 363e 7f4d c33c 00b2 babd f0cb cc3d
000003a0: 169e adbd ccf6 b73d 0b2b 0bbe 867a e1bc
000003b0: 0471 02be 354d 62bd c56a a6bd 084d a93c
000003c0: cb9d 0e3d 0d9f 223e 0b3f 113e c533 bd3d
000003d0: 780b c23d 65ff 8dbc c040 1fbe b9f1 db3d
000003e0: bec4 aebd 282b f73d 7dae 893d e198 96bd
000003f0: 7d84 8ebd de52 b1bd ba87 bfbd a291 04be
-0.11604759 -0.019055948 0.04328398 -0.1783359 0.07276222 -0.050254866 -0.03350938 0.14231902
0.05083599 -0.00027721314 -0.09519259 0.026534254 -0.124757916 -0.063863724 -0.07469768 0.015303869
0.029050069 -0.010464349 -0.07202539 0.0642499 0.09613975 -0.080261655 0.0444447 -0.1734697
0.13792501 -0.074319534 0.08301305 0.107526146 0.04348901 0.063512675 0.11437267 -0.046236537
0.021245029 -0.16599868 0.10332818 0.08831709 -0.012096407 0.057523802 0.119236104 -0.13854712
0.097123235 -0.09757557 0.075351365 0.105823494 0.13482577 0.14335407 0.12755954 -0.07932526
-0.030961588 -0.04317878 -0.053523514 0.037581895 0.10084921 0.025648773 0.022779752 -0.16652721
0.081258826 0.11972445 0.059055272 0.08377228 0.05775357 0.15705223 -0.11591335 -0.10024973
-0.17343399 0.012501306 -0.16530003 0.0954143 0.050694197 0.058327843 -0.0063932347 -0.081169814
-0.11163029 0.1302394 0.072451375 0.14433412 0.14238831 0.046658188 0.026128303 0.16376162
0.011243122 -0.056873363 -0.09252955 -0.08371062 -0.12403945 0.12553227 -0.13385127 0.12405897
-0.04803712 -0.16193785 0.06851313 0.043760333 -0.12936467 -0.040112935 0.04139768 0.15340969
-0.002840043 -0.048351996 0.08644552 0.14453614 -0.10761154 -0.10619482 -0.011476171 -0.10110742
0.14867823 -0.16569321 -0.063557215 0.043588508 0.116676174 -0.094256766 -0.07051619 -0.04900329
-0.042073607 -0.1455357 -0.02699431 0.060921915 0.13802631 0.057877798 0.1607747 0.13513166
-0.06674791 -0.022026844 0.116028264 -0.14834635 0.13453846 0.07871846 -0.0075508556 -0.0736533
0.037216548 0.014826633 0.078316115 0.083625376 0.04217597 -0.14659995 -0.016996557 0.15915994
0.0028424342 -0.15550168 0.1640835 -0.14183731 -0.13880062 0.123232454 -0.0700083 -0.06576017
0.05131788 0.019137206 -0.07698181 0.030270182 0.12287022 0.047989745 -0.17069073 -0.044233285
-0.14976574 0.08166823 0.15606475 0.077554435 0.030559601 -0.16611964 -0.12070767 0.15416609
-0.1616814 0.0155489715 0.085345775 -0.03053415 -0.17084533 0.16293502 0.075209014 0.16652782
0.1384519 -0.09200288 -0.08594558 0.15437898 0.1296757 -0.009989467 -0.068043664 -0.044707306
-0.12673509 -0.04425181 0.13069375 -0.12075851 -0.106716245 -0.036114417 -0.1130017 0.004816288
0.0035942309 -0.048808374 0.039096277 0.02563286 0.1079855 0.018762194 -0.15594834 -0.1148745
0.082657054 0.042341568 -0.029040318 -0.13829541 0.03500826 -0.09896783 -0.10450586 0.16391818
0.111468345 -0.12722318 -0.05042703 -0.02338734 0.15225756 0.10394993 -0.01413455 0.16229741
-0.1741643 -0.104011476 0.055013575 -0.17695579 0.031102346 -0.0036764136 0.16527472 0.119766176
0.008833624 -0.039237965 -0.0014728868 0.13051957 -0.16833201 0.095894 -0.13308729 0.031430416
-0.032535747 0.14065947 0.020953184 0.17875834 0.17798494 0.023840664 -0.09115982 0.099998355
-0.08477418 0.0898262 -0.13590638 -0.027524244 -0.12738425 -0.05524941 -0.081258334 0.020666614
0.03481845 0.15880986 0.14184205 0.0923839 0.09474844 -0.017333696 -0.15552044 0.10739464
-0.08533619 0.12068778 0.06722734 -0.07353378 -0.06958864 -0.08658384 -0.0935206 -0.1294618

MLP.10.bias f4 [32]
00000000: c77b dbbd c3af a6bd 937a 1e3e f23a d13d
00000010: dfb5 363e 3da3 863d ff8c a13d a619 083d
00000020: 4109 c83d 01b1 0a3e a41b 23be 5b6c e73d
00000030: 82db 053e ea75 fa3d 4b9c 1bbe e6da 80bd
00000040: 90a5 40bc cd67 f13d 1d51 99bd 30f0 7fbd
00000050: d7cd e93c 35fc 9c3d b30e 85bd ccae 1d3c
00000060: e082 0e3e 2d95 233c 87db a23d ba4d 17bd
00000070: 2886 46bc 781a e33c 0314 6ebc 8739 f8bc
-0.10716968 -0.08138993 0.15476446 0.10216321 0.17842816 0.06574104 0.07888221 0.033227585
0.0976739 0.13544084 -0.15928513 0.11299964 0.13072017 0.122295216 -0.1519634 -0.062917516
-0.011758223 0.117873766 -0.07486174 -0.06248492 0.028540535 0.07665292 -0.06496944 0.009624194
0.13917112 0.009984297 0.07952028 -0.03693936 -0.012116946 0.027722582 -0.014531138 -0.030300869

MLP.11.weight f4 [32]
00000000: 0748 7f3f 111e 803f cae1 7e3f 2dfe 7f3f
00000010: 947f 7f3f 2765 7f3f 52ac 7f3f f3f7 7f3f
00000020: 5362 803f b453 803f 2e54 803f 6a74 803f
00000030: 7367 803f 82a2 7f3f e789 803f ec84 7e3f
00000040: f1ec 7f3f 325b 803f 6ece 7e3f e75c 803f
00000050: a81c 7f3f bd23 803f be90 803f 9430 7f3f
00000060: 3330 803f 332f 803f 7a7d 803f 4c3a 803f
00000070: 7a64 803f 8146 803f e87a 803f b066 803f
0.9971928 1.0009176 0.99563277 0.99997216 0.99804044 0.9976372 0.99872315 0.99987715
1.0030006 1.0025544 1.002569 1.0035527 1.003157 0.9985734 1.0042084 0.9942157
0.9997092 1.0027831 0.99533737 1.0028352 0.996531 1.0010906 1.0044172 0.996835
1.0014709 1.0014404 1.0038292 1.0017791 1.0030663 1.0021516 1.0037508 1.0031338

MLP.11.bias f4 [32]
00000000: 3449 493b e50d d03a 2dbf 98bb 597d 4cbb
00000010: fcf5 413b 9694 43bb 5ba3 34bb 84e0 b0b9
00000020: c08c efba 1279 993a f7e1 d23a a7ef 62bb
00000030: d49f 4539 5df6 45bb ad08 25bb 387c 423a
00000040: 9578 76ba 3dd8 183b a824 f63a dc91 4bbb
00000050: ba79 abba 2ac3 45bb dc07 183b 751b 7d3b
00000060: c0fd 16bb 583d b6ba 8ba8 663b ed6f 10bb
00000070: 22a6 2d3b 4b13 c63a e536 213b 01d6 4bbb
0.0030713798 0.0015873282 -0.004661462 -0.0031202643 0.002959608 -0.0029843203 -0.0027563188 -0.00033736613
-0.00182762 0.0011709055 0.0016089071 -0.0034627707 0.00018846925 -0.0030206658 -0.0025182173 0.0007419023
-0.00094021234 0.0023322247 0.0018779235 -0.003106228 -0.0013082542 -0.0030176141 0.0023198044 0.0038621102
-0.002303943 -0.001390378 0.0035195674 -0.002203937 0.0026496728 0.0015111951 0.002459937 -0.0031102898

MLP.13.weight f4 [4, 32]
00000000: 5c54 003c fe21 633d 625a d23d ed2b 2e3e
00000010: 086e 053d 4bb9 153e 8ac0 183e 9bde 32bd
00000020: 2267 183d 7a9d a6bd 3ef1 32be 56ff 2e3e
00000030: 8491 8ebd 5a9d e43d 96a3 193d 71cb 24bd
00000040: d2c2 23be ef86 12be 5971 3a3b 9a9b 813d
00000050: cd85 1f3e 9514 e33d 9291 fabc 17af e1bd
00000060: ab3c 8d3d df82 22bc f645 bb3d 12ff 7e3c
00000070: c54e babd c219 5ebc edca 00be 8972 2c3e
00000080: b4a5 b0ae 9cfe 4f3b fd1b 733d d436 18bc
00000090: dad0 26bd 122a b23d 8437 e6bd 8d0b dabd
000000a0: 074d af3c a3e4 1fbe 6299 ec3d 7603 df3c
000000b0: f002 b9bc 94f4 8a3d d31a 94bb 9755 abbd
000000c0: 4518 12bd 6865 93bd d8bb 003e 61f0 073e
000000d0: e4d5 18be e2e2 223e 5e56 323c a843 fabd
000000e0: f670 173c caae 093e d894 ea3c f843 a23d
000000f0: d341 06be 93fc 17be 3519 30bd f509 153e
00000100: 63df 0fbe a233 0ebe 18cb 823b da28 94bd
00000110: 9979 1dbe a606 063e 6f6a 013e 9105 353e
00000120: 6714 e33d 51d4 2abe 8780 1d3e 10ef 8abd
00000130: 8918 b63d 911d 01be f971 303e 93b7 04be
00000140: 9990 803d 4cbe 71bd 04a9 2fbd d37b b73d
00000150: f129 23bb 70fd 433d 7052 e0bd 229e a23d
00000160: 5bfb 95bd c64d 0c3e 2b80 debc 47c5 273e
00000170: dda7 90bc c447 02bd 5f37 fcbd c607 04bd
00000180: 4713 0bbe 2c03 a0bd 2bb4 143e 0e6b be3c
00000190: 93b1 c4bd c86b 68bd 6006 01be ca19 d4bd
000001a0: 6512 23be ab55 60bd 0a10 d43d 0574 20be
000001b0: d58b 1d3d 15af 1dbe 81e7 2d3e 0232 1b3e
000001c0: 3717 18be 363b 073e 32b7 d73d 7c13 6ebb
000001d0: 5732 26be 4cf6 00bd f4d5 e3bc 9e5a 5fbd
000001e0: 6594 f9bc 64b6 0c3d a140 2f3e 5f6f 3139
000001f0: f232 51bd d0db af3c 23a2 ad3d 06e4 9bbd
0.007832613 0.05545234 0.102711454 0.17008944 0.032575637 0.14621465 0.14917198 -0.043669324
0.03720773 -0.08135505 -0.17474839 0.1708959 -0.06961349 0.11162825 0.037509523 -0.04023308
-0.15992287 -0.14309286 0.0028448908 0.06328507 0.15578385 0.1108791 -0.030586991 -0.11019724
0.06896337 -0.009918897 0.09144203 0.015563743 -0.09097055 -0.013555946 -0.1257741 0.16840567
-8.032988e-11 0.0031737452 0.059352864 -0.009290416 -0.04072652 0.086994305 -0.112410575 -0.106467344
0.021399034 -0.15614562 0.11552693 0.02722333 -0.022584409 0.06784931 -0.0045197993 -0.08365934
-0.035667676 -0.07197076 0.12571657 0.13275291 -0.14925343 0.15906861 0.010884849 -0.12219936
0.009243241 0.13445583 0.028635427 0.0792312 -0.13111047 -0.14842443 -0.04299279 0.1455458
-0.14050059 -0.13886884 0.003991496 -0.07234354 -0.15378417 0.13088474 0.12638257 0.17677905
0.11087876 -0.16682555 0.1538106 -0.06783879 0.088913985 -0.12608935 0.17230977 -0.12960653
0.0627758 -0.059019372 -0.042885795 0.089591645 -0.0024896825 0.04784912 -0.10953224 0.07940318
-0.07323333 0.13701543 -0.027160725 0.16383849 -0.017658168 -0.031806722 -0.12315249 -0.032233976
-0.13581572 -0.07813105 0.14521854 0.023244407 -0.09604182 -0.056743413 -0.12600088 -0.103564814
-0.15924986 -0.0547692 0.10354622 -0.15669258 0.038463432 -0.1539882 0.16982843 0.15155795
-0.14852606 0.13206181 0.105329886 -0.0036327532 -0.1623014 -0.031484887 -0.027811982 -0.05452978
-0.030466268 0.03435363 0.17114498 0.00016921524 -0.051073976 0.02146712 0.08478191 -0.076118514

MLP.13.bias f4 [4]
00000000: d087 083e bcec a0bc eb5d babd 2e3b 81bd
0.13333058 -0.019644134 -0.09099945 -0.06310116
