example/model/acker_robot_default/model_3500.pth (torch, 24610 bytes, 18 tensors)

MLP.0.weight f4 [32, 2]
000000 a4 dc a3 3e 68 1c 29 be 60 25 16 bd ac 25 4f bd
       0.32004273 -0.16514742 -0.036656737 -0.050573036
000010 ff 2f ef be 2f cc 61 be 6b 91 d8 3d 1c 8b 19 bf
       -0.46716306 -0.22050546 0.10574611 -0.5997789
000020 6f e8 67 be ca 27 0b 3e ad 5f 09 bf 0a 9b ef be
       -0.2264726 0.13589397 -0.53661615 -0.46797973
000030 85 3f eb be 0c 41 4b be 23 c4 5d be 2a f0 05 3e
       -0.459469 -0.19849032 -0.21656851 0.13079897
000040 76 92 a0 be b8 48 ad 3e bb f7 99 3c e3 41 ab 3d
       -0.3136174 0.33844543 0.018794885 0.08362176
000050 c8 eb 14 3f 4c 11 e7 be 60 9a 92 3e 10 58 22 3f
       0.58172274 -0.45130384 0.28633404 0.6341562
000060 74 48 b4 be 3c 18 96 3c 8a d4 9f 3d 1f 18 9b be
       -0.35211527 0.018322103 0.078042105 -0.3029184
000070 a7 e9 02 bd c8 2c 8e 3e 26 a5 70 be 98 40 bf bd
       -0.03196111 0.2776854 -0.23500499 -0.09338492
000080 ac b3 dc bc b6 a9 66 be 5a 20 b0 3e c4 2f 39 3e
       -0.026941143 -0.22525677 0.34399682 0.18084627
000090 a5 a7 26 3e d9 0f 0f 3f 3d b0 6b bc ae 1c 09 bf
       0.16274889 0.55883557 -0.01438528 -0.53559387
0000a0 84 42 51 be 72 75 08 bf c0 f9 b7 be 09 3c b2 3e
       -0.2043553 -0.5330421 -0.35932732 0.34811428
0000b0 67 0f e7 be 23 3e b5 3e 81 89 0e be 8d aa 7d be
       -0.4512894 0.3539897 -0.13919641 -0.24772091
0000c0 ea f6 4f 3e f9 e2 23 3e 24 93 ef 3b 7c 66 c5 3e
       0.20309034 0.16004552 0.0073112417 0.38554752
0000d0 bf f9 3b be 65 ef 1f be cc 1f d2 3e 56 92 2b be
       -0.1835699 -0.15618666 0.41039884 -0.16755041
0000e0 a8 ee d8 3e 5e 2a b0 be d8 04 00 be 11 1f 34 be
       0.4236958 -0.34407324 -0.12501848 -0.17589976
0000f0 f8 c1 40 3e 53 e5 4b 3d 3e 43 04 bf 77 63 ef be
       0.18823993 0.049779247 -0.51665103 -0.46755573

MLP.0.bias f4 [32]
000000 6f 1a 00 3f 84 0d e4 be 0b e9 9b bd 05 6b 89 be
       0.50040334 -0.44541562 -0.07612809 -0.26839462
000010 35 3c 2d bb 4d 77 b9 3d ee 41 96 be d5 0a da bd
       -0.0026433591 0.09055958 -0.29347175 -0.10646597
000020 23 f1 d3 bd 8e 10 af 3d 28 23 a8 3d 81 19 50 3e
       -0.103487276 0.085480794 0.082098305 0.20322229
000030 19 b6 0e 3f 41 0f 80 3e 68 40 e0 be be 94 60 3e
       0.5574661 0.25011638 -0.43799138 0.2193174
000040 4d 15 c8 bd 82 c6 79 3e a1 eb 10 3f 20 09 a5 3e
       -0.09769688 0.24392131 0.5660954 0.32233524
000050 78 18 1d 3f 0f 0e f8 3e 5a c8 b4 3c 40 56 88 bc
       0.6136546 0.48448226 0.022068191 -0.01664269
000060 4c 88 bc 3d 93 b4 83 be 09 05 47 3f f2 af 36 be
       0.09205684 -0.25723705 0.7774206 -0.17840555
000070 c3 0c d9 bd d1 ff 1a 3f ff b3 94 3e 80 c4 d6 3d
       -0.10598137 0.60546595 0.29043576 0.10486698

MLP.1.weight f4 [32]
000000 73 01 69 3f ed 5a 97 3f a3 9c 36 3f ad 57 55 3f
       0.91017836 1.1824623 0.7133276 0.8333691
000010 ae fa 39 3f 00 7d 39 3f 50 f2 5c 3f fc 51 2e 3f
       0.7264813 0.7245636 0.8630724 0.6809385
000020 0f 6b 3c 3f bb de 1d 3f b0 e5 3a 3f 01 a0 5f 3f
       0.7360086 0.61667985 0.73006725 0.8735352
000030 83 3a 6f 3f 1b 8c 41 3f 17 0f 3e 3f 2c af 20 3f
       0.93448657 0.7560441 0.74241775 0.6276729
000040 8a 55 3d 3f ee ac 1a 3f e5 22 53 3f c5 ea 3d 3f
       0.7395865 0.6042012 0.8247512 0.74186355
000050 a7 af 6a 3f 37 eb 4d 3f 9e cf 47 3f 18 e0 36 3f
       0.91674274 0.80437034 0.78051174 0.7143569
000060 a9 e8 48 3f c8 6a 23 3f e0 bb 6d 3f 03 dd 3d 3f
       0.7848001 0.6383481 0.928648 0.7416536
000070 a8 66 2a 3f e3 f5 35 3f 1e 91 51 3f 53 34 48 3f
       0.6656289 0.7107832 0.81862056 0.7820484

MLP.1.bias f4 [32]
000000 8f 91 02 3c 94 95 82 3c 88 39 d0 bc 5f 6a 99 3d
       0.007969274 0.015940465 -0.025418058 0.07490992
000010 49 51 94 bc 02 4f 96 3c cb a3 11 bd cf 6d b6 bb
       -0.018105166 0.01834822 -0.035556596 -0.0055672894
000020 57 da 4a 3d c2 e9 19 bc 66 bb 03 3d a3 86 b1 bd
       0.04952463 -0.009394111 0.03216114 -0.08668258
000030 09 45 a4 3c 2e a9 c0 3b 3b da 1b bd 93 c6 1e 3d
       0.02005245 0.005879543 -0.038049918 0.038763594
000040 44 ba 53 3d 13 f2 5a 3d e4 75 ae bd 50 69 c7 3c
       0.05169131 0.053453516 -0.085185796 0.02434221
000050 34 a7 c9 3b 7d 12 93 3a 2c 2c 80 bc 08 d1 3b 3c
       0.0061539654 0.001122072 -0.015646063 0.011463411
000060 63 2b 80 3c 9d 5b f9 bc 90 87 a7 3c 97 7e c2 bc
       0.015645688 -0.030439192 0.020450383 -0.023742003
000070 ae 02 a8 bc 63 8b ef 3c bf 61 8d 3b 00 60 95 3d
       -0.02050909 0.02924127 0.0043146308 0.07293701

MLP.3.weight f4 [32, 32]
000000 9a 1e ce bd 50 d3 b1 be a4 8b e7 3d f7 aa f2 bd
       -0.100644305 -0.3473153 0.11305931 -0.11849015
000010 e0 b9 a5 bd 94 72 0f be 0a 19 e8 3d 69 36 a2 bd
       -0.080920935 -0.14008552 0.11332901 -0.07920534
000020 45 97 16 be de cb 88 3d 23 11 0f be 98 0e cd 3d
       -0.14706142 0.066795096 -0.13971381 0.10012549
000030 96 6e a6 3a 9d 62 bc 3d 73 9b f4 bd a0 f0 77 3d
       0.0012697752 0.091984965 -0.11943712 0.060532212
000040 50 64 05 be 51 38 ba 3c 54 f0 3e bd 0f ca 74 bb
       -0.13026547 0.022731932 -0.046615914 -0.0037351882
000050 f0 c4 14 be 88 fe 03 3e 65 d6 17 3c 99 92 00 3e
       -0.1452825 0.12890065 0.009267424 0.12555923
000060 6e 61 ea bd a8 ba 3a 3d b3 2a ba bd 2b 46 f5 3c
       -0.114443645 0.045588166 -0.090901755 0.029940685
000070 2c 0c c5 bc 25 9f 1a 3e 23 46 d9 bd ed 90 94 3d
       -0.024053656 0.15099771 -0.10609081 0.07254205
000080 b3 fa a6 bd 5c dd cf bd 65 97 15 be ce e3 ff 3d
       -0.08153286 -0.10149643 -0.14608534 0.12494622
000090 57 05 b3 3d 7b 66 e2 bb f9 1e fe bd dc a9 f2 bd
       0.08741253 -0.0069091893 -0.12408251 -0.11848804
0000a0 de 38 d1 3d 22 e7 6e 3d 2d b4 20 be dd cc 09 3e
       0.10215925 0.058325894 -0.15693732 0.13457055
0000b0 1f 13 cf bd 48 a2 09 3e 8f 4c e7 3c c7 1c 7f bd
       -0.10111069 0.13440812 0.028234748 -0.062283304
0000c0 11 0f c4 bd 55 9a 18 3e bd 36 1a 3d b8 dc 01 be
       -0.09573186 0.14902623 0.03764986 -0.12681854
0000d0 63 0b 02 be 6c d2 17 3e 78 53 14 3e ce 55 8f 3d
       -0.12699656 0.14826363 0.14484966 0.06998788
0000e0 6a fa e4 bb 68 f4 a8 3c eb 7b 0f 3d 85 4c 86 bb
       -0.0069878595 0.020624354 0.035030287 -0.0040984773
0000f0 df 26 81 3c 58 05 20 3d 95 b6 c8 3d 92 1f 20 3d
       0.015765605 0.039067596 0.0980045 0.039092608
000100 c5 26 67 bd fb 70 eb bb 1c ae a1 bd 7d c3 08 3e
       -0.056433458 -0.007185099 -0.07894537 0.13355823
000110 50 85 c4 bc 17 74 ee 3d 66 4d 29 3d b1 8e d8 bd
       -0.02398935 0.11643236 0.04133358 -0.10574091
000120 29 e5 f0 bd 7a 01 d1 bd c2 2e 85 bd 0c 9f 0d 3c
       -0.11762459 -0.1020536 -0.06503059 0.008643877
000130 4d 8f 85 bc b6 46 6c 3d a2 1a 76 bd d0 7a c0 bc
       -0.016303683 0.057684623 -0.060083993 -0.023496062
000140 f9 8d 17 3e 21 02 0c 3e 78 77 45 be c7 37 b6 3d
       0.14800252 0.13672687 -0.19283855 0.088973574
000150 c5 88 0b bb cf 4c 0f 3e 2e b6 5f 3c d0 71 e9 bc
       -0.0021291238 0.13994144 0.013654275 -0.028496653
000160 3a cd b1 3d 00 b3 95 3d c4 57 a4 bc 29 00 96 3d
       0.08681722 0.07309532 -0.020061381 0.07324249
000170 48 e1 ee bd 85 42 06 be 7a cd 53 bd 16 d1 16 3e
       -0.11664063 -0.13111313 -0.05170963 0.14728197
000180 eb 26 1e b6 07 68 0d 35 cd 37 2c 35 4c e7 0b 36
       -2.3566488e-06 5.2677973e-07 6.4156194e-07 2.0847247e-06
000190 20 b1 09 34 7c 0b 4c b4 d4 a7 e2 35 05 5c 54 31
       1.2823557e-07 -1.9003159e-07 1.6887157e-06 3.0902367e-09
0001a0 d9 65 04 b6 94 d9 fc ae 05 d2 f2 b5 a2 2f 16 b5
       -1.9728816e-06 -1.1498283e-10 -1.8091529e-06 -5.594867e-07
0001b0 80 ff d8 34 28 8d ad 34 47 90 e8 b5 83 28 63 2d
       4.0419036e-07 3.2326466e-07 -1.7327337e-06 1.29124515e-11
0001c0 ef 11 59 b2 57 26 47 b4 a9 6c 6c 35 ff 40 6e 36
       -1.263514e-08 -1.8547267e-07 8.807497e-07 3.5502596e-06
0001d0 e1 13 be 36 72 de 5a b4 62 b9 4d b3 b3 56 df 31
       5.6647555e-06 -2.0383757e-07 -4.7898887e-08 6.5000108e-09
0001e0 d6 77 6b b2 9f ed 1b b6 dc cc 12 b5 3a cd 81 b5
       -1.3706048e-08 -2.3235114e-06 -5.468735e-07 -9.670978e-07
0001f0 13 35 48 b5 19 f5 54 b4 66 05 96 b3 64 0f df b4
       -7.458304e-07 -1.9833205e-07 -6.985901e-08 -4.1548185e-07
000200 e6 57 06 be 7b c8 cf 3d e5 ba 05 be 57 9c b9 3d
       -0.13119468 0.101456605 -0.13059576 0.090630226
000210 08 9b 50 bd c8 96 d4 3c 69 6e 87 3d 7a 5f f7 3d
       -0.0509291 0.025950804 0.06612856 0.120787576
000220 7e f0 3e bd 3a f3 0f bd d6 25 04 be a8 2a ef 3b
       -0.04661607 -0.03514407 -0.12905058 0.007298786
000230 c6 ec cc bd 79 33 ae 3d 50 4a 1c be bf be 72 3c
       -0.100060984 0.085059114 -0.15262723 0.014815985
000240 37 f9 bf 3d 56 f5 27 3d 50 cc e8 bd 86 69 df 3d
       0.09373706 0.041005455 -0.113670945 0.10908799
000250 7c 79 e5 3d 1f dd 0a bd 4d 7f b5 3d 37 d9 03 bd
       0.11204812 -0.033902284 0.08862171 -0.032189574
000260 33 e6 f9 3d 36 2d 51 bd 28 80 96 bd 5a c0 05 be
       0.1220211 -0.051068507 -0.073486626 -0.13061658
000270 11 d0 bd bd 73 44 b8 3b 15 b4 f9 bd a2 48 5a bd
       -0.09268201 0.005623394 -0.12192551 -0.053291924
000280 d8 d3 2e be fd ee bf 3d 7d 7a 44 3d 6c 10 9d 3d
       -0.17073 0.09371755 0.047968376 0.07669148
000290 78 04 48 3d 71 c5 6b bd 06 42 6f 3e 2e 12 2a 3e
       0.048832387 -0.05756134 0.2336503 0.16608498
0002a0 15 44 b9 3b 90 ca 8c 3d 28 b2 a8 bd df 1f 04 bd
       0.005653868 0.06874573 -0.082371056 -0.032256957
0002b0 bd b3 bb bc ce 6c 0f be 1f 36 70 b8 39 c3 48 3c
       -0.022912854 -0.1400635 -5.7270863e-05 0.012253576
0002c0 65 72 04 3e 3b 36 12 bd 04 2a d6 bb f1 b5 0b 3e
       0.12934263 -0.03569625 -0.0065357704 0.13643624
0002d0 f4 d0 b2 bd d6 ae 9c 3d 0e 85 23 3e fa 78 af bd
       -0.08731261 0.07650535 0.15968725 -0.08567996
0002e0 69 a2 0d be 3b 8a 7c 3d 19 2b 21 3e 5b 74 e6 bd
       -0.13831486 0.061655264 0.15739097 -0.11252662
0002f0 b6 29 cf 3d 81 cb cc bd 5e e0 d0 bd 67 19 41 3e
       0.101153776 -0.09999753 -0.10199045 0.18857346
000300 80 92 29 be 0c ae f7 bd 2c 8d d0 3c 68 94 55 3e
       -0.16559792 -0.12093744 0.025457941 0.20857394
000310 9a 95 08 bd aa 6c 2d be ee b5 15 3e 19 d9 2d bd
       -0.033345796 -0.16935983 0.14620182 -0.04244337
000320 c7 99 9d 3d de 09 8c 3d 5f b6 d0 3d 79 ed e3 3d
       0.07695346 0.068378195 0.101910345 0.11129279
000330 4a a1 e0 ba bf 91 cf 3d db 88 84 3d a9 be 46 3e
       -0.0017137912 0.10135221 0.064714156 0.19408669
000340 c3 06 94 3d 6e bb bb bd 9b b7 1c bb 51 49 3c 3c
       0.07227852 -0.09166609 -0.0023913148 0.011492089
000350 b0 fb 29 3e fd 36 c1 bd fd b6 24 be 1c 1d 98 bc
       0.16599917 -0.09434316 -0.1608543 -0.018568568
000360 c4 3a b3 3d fe 2b 7f 3c 5c 9a 4f 3e d3 90 58 be
       0.08751443 0.015574453 0.20273727 -0.21148996
000370 b9 b1 9e bd c4 d0 40 3d 75 af a7 3c 9c 53 f2 3b
       -0.07748742 0.047074094 0.020469407 0.007395221
000380 fa c5 08 3d 93 ee 60 3e 6d 70 ef 3d 47 4d be 3b
       0.03339193 0.21966009 0.116913654 0.005807552
000390 a2 4f 12 bd 31 6d df bd 84 14 34 be 5b 12 c4 3c
       -0.035720475 -0.109094985 -0.17585951 0.023934534
0003a0 fd f2 cd bd 96 c1 ef 3d 4c 49 9f 3c fb da f2 3d
       -0.10056112 0.117068455 0.01944413 0.118581735
0003b0 a8 e5 a7 bd 02 c6 15 be 8e 4d fd bc 6a 56 cb 3c
       -0.081981 -0.14626315 -0.03092077 0.024821479
0003c0 f3 41 b8 3d 00 ec 2b 3d cd 81 39 bd 71 7b c7 3d
       0.08996954 0.041973114 -0.045289803 0.097403415
0003d0 9e 40 1a be 9b 75 4d 3d 9c f4 25 3e 2a de 9d bd
       -0.15063712 0.050160985 0.16206592 -0.0770839
0003e0 71 e5 a6 bd 92 fb 12 be c6 10 bb 3b 80 38 ac 3d
       -0.08149231 -0.14353779 0.0057087867 0.08409214
0003f0 16 d8 85 3d 97 6b b6 b9 40 ec 1f 3d f7 eb 8d 3d
       0.06535356 -0.00034793906 0.039043665 0.06929772

MLP.3.bias f4 [32]
000000 d1 38 06 3e 3e 0f 2c 3e db ae 31 3e bf 6c db b8
       0.13107611 0.1680269 0.17351858 -0.00010462989
000010 7f 2c 30 bd fc 6b 27 bb 7d 7c 31 be 84 31 b1 3d
       -0.043011185 -0.0025546541 -0.17332645 0.086520225
000020 c4 ef 78 3d d4 1e e3 bd e6 c1 b9 3d b8 b7 9c bd
       0.060775533 -0.110898644 0.09070186 -0.07652229
000030 a0 2e 02 3e 5e 19 c4 3c 93 ba ba bd 88 93 82 3d
       0.12713099 0.023937877 -0.091176175 0.063757956
000040 7f 50 4d 3c ed ef 04 be 44 64 e5 3c c6 a6 22 be
       0.012531399 -0.1298215 0.028001912 -0.15883932
000050 4d a7 0b bd e0 d6 e0 bd 36 70 80 bd 9c 2b 2c 3e
       -0.034095097 -0.10978484 -0.062714025 0.1681351
000060 76 4e c4 bd ac 6c 3b 3d 86 04 1c bd c1 21 c4 3d
       -0.09585278 0.045757934 -0.03809025 0.095767505
000070 66 7e c2 3d cd d8 31 3d 3d b8 57 bd a5 a6 9d bd
       0.09496765 0.043419648 -0.052665938 -0.076978005

MLP.5.weight f4 [32, 32]
000000 e0 aa c0 bd 4d 80 87 3d 9a e1 24 3d ef cd 3b b6
       -0.09407592 0.06616268 0.040254213 -2.798504e-06
000010 f4 33 0f be e3 69 3e 3d 6e a1 60 bd 05 60 05 3c
       -0.13984662 0.0464877 -0.05484145 0.008140569
000020 9e 4d 48 bc e2 7a 35 bd 0b f7 20 3e 5f 85 8e bc
       -0.012225537 -0.044306643 0.1571924 -0.01739758
000030 10 50 2e be eb d4 c4 bd 1e d4 00 3e 1b ea 81 3d
       -0.17022729 -0.096109234 0.12580916 0.0634348
000040 b9 d1 11 3e 4d 8e ae bc cf b6 39 3d 4b 19 8c 3d
       0.14240159 -0.021308089 0.045340355 0.06840762
000050 41 fe dd 3d b6 ae 18 bc 6e 46 a2 bd f1 61 21 be
       0.10839511 -0.009318998 -0.0792359 -0.15760018
000060 9f 6f b9 bd 27 3c 35 3d 3b d0 9d 3c 08 dc 30 3d
       -0.09054493 0.04424682 0.019264331 0.04317859
000070 5f e8 a5 bc b3 9b 2f bd 87 51 71 bd 88 9c e4 3d
       -0.020252405 -0.042873096 -0.05891564 0.111626685
000080 c3 28 a7 bd 91 a9 14 be 4c e6 11 3e 0c ee c6 34
       -0.081620716 -0.1451781 0.14248008 3.7053576e-07
000090 44 e6 f8 3d 92 76 b5 3d 02 eb ce bc 2c ef f4 3d
       0.12153295 0.08860506 -0.025258545 0.11959681
0000a0 11 05 3c 3c 6b 75 ee bd c2 40 4f bd a2 82 a4 bd
       0.011475817 -0.116434895 -0.050598867 -0.08032729
0000b0 53 68 ab 3d a4 1c 35 3d 8d 19 aa 3d 9d 37 c1 3d
       0.08369508 0.044216767 0.08305655 0.094344355
0000c0 50 e5 0e 3e d9 37 1a 3d 55 b2 19 be 50 0d 27 3c
       0.13954663 0.037650917 -0.15009435 0.010196045
0000d0 41 a8 18 be 36 77 6f bc a8 f3 8b 3c e7 8d 54 3d
       -0.14907934 -0.014615824 0.017083958 0.05189314
0000e0 68 c1 03 be ff 87 af bd 69 74 79 bc a4 de a0 bd
       -0.12866747 -0.08570861 -0.015225508 -0.07854965
0000f0 0b 52 bd 3d 3d 0b 0f be 46 c8 8c 3d 36 0f b0 3d
       0.09244164 -0.13969131 0.068741366 0.08596651
000100 25 f8 16 3e c0 6f 9d 3d ce d3 f4 3c 53 7f 0d b4
       0.14743097 0.0768733 0.029886153 -1.3177969e-07
000110 e6 b8 05 3e 1d 54 e4 bd 15 f3 f3 bd 76 78 9b 3d
       0.13058814 -0.11148856 -0.119115986 0.075913355
000120 3b 7e 7d bb 53 bb 2e bc 44 64 23 be 30 10 24 3c
       -0.0038679976 -0.010664779 -0.15956217 0.010013625
000130 5a b6 cc 3d 12 1f 94 3d 36 d1 cb 3d eb 94 0f be
       0.09995718 0.07232489 0.09952013 -0.14021651
000140 b3 4f de bc 82 c7 8c bd a4 48 2e 3d 06 60 f1 ba
       -0.027137613 -0.068739906 0.042549744 -0.0018415458
000150 7a fc 0f bd aa 44 1e 3b 64 42 b1 bc aa 8b d3 3d
       -0.03515289 0.0024149814 -0.021638103 0.10329373
000160 8f 71 f9 3c 84 ee 95 bd db 58 09 3e d1 53 59 bd
       0.030449657 -0.07320884 0.13412802 -0.05305845
000170 28 ea 91 3d 6f 6e c5 3d 11 59 32 bd 75 7f e1 3d
       0.0712474 0.09640204 -0.04354197 0.110106386
000180 1b a7 75 3d 18 b0 45 3d b0 ff 27 be 8a 48 6b b5
       0.059973817 0.04826364 -0.16406131 -8.764988e-07
000190 11 be 43 be 04 66 50 3b 1f 0b 81 3e 20 36 03 be
       -0.19115473 0.0031799087 0.25203797 -0.12813616
0001a0 02 38 21 bd 5b d9 e0 bd ce 02 84 3d c1 ea c6 bc
       -0.039360054 -0.10978957 0.064458475 -0.024281861
0001b0 68 ab 7d bd e9 b8 a2 3c b6 40 20 bb 1e a7 b0 3d
       -0.061931044 0.019863563 -0.0024452633 0.08625625
0001c0 b7 bf 1e 3c 07 cd fc 3d 46 fb 77 3d d7 e4 0e bd
       0.009689263 0.12343793 0.060542367 -0.034886207
0001d0 bc 8f 51 3d 18 19 75 3c 10 27 7d 3d 9b 6a 13 3e
       0.051162466 0.014959596 0.06180483 0.14396136
0001e0 c5 73 00 3d 83 5f e6 3d f1 ef 2a bd 5c 6a 70 3d
       0.031360406 0.11248686 -0.041732732 0.058695182
0001f0 00 6d 4a 3d 45 4a d8 3d 2a 2d 97 bd 3c f7 c4 bd
       0.049420357 0.10561041 -0.07381661 -0.09617469
000200 45 de 31 3d 35 81 69 bd a7 52 5c bd 90 4d c7 34
       0.043424863 -0.057007987 -0.05378976 3.7123073e-07
000210 f4 e4 17 3d 33 6d 15 be 05 e5 f9 bd f8 89 c5 bd
       0.03708358 -0.14592437 -0.12201885 -0.09645456
000220 0c 5b a0 3d 20 87 49 3e d1 9a c8 3b 59 4f 24 bd
       0.07829866 0.19680452 0.006121971 -0.040114734
000230 e8 32 79 bd 40 bb de 3d 50 0e 51 bd 9c fe 48 3d
       -0.060839564 0.10875559 -0.05103904 0.04907094
000240 9f 33 c2 bd 6e c9 b1 3d 4b 53 7f be 7b 5e 3d 3b
       -0.09482502 0.08680998 -0.24934117 0.0028895426
000250 7b ea c6 bd 02 f5 37 39 b8 9f 68 bc 25 28 8f bd
       -0.09712692 0.00017543513 -0.014198236 -0.06990079
000260 11 9a 03 be b5 03 0b bd bd b1 83 3d 00 fe c0 bd
       -0.1285174 -0.033939082 0.06430385 -0.09423447
000270 f7 75 0a be 45 5e 9b be 32 08 c5 3c b4 54 40 3e
       -0.13521563 -0.3034536 0.02405176 0.18782312
000280 d8 88 c7 bc a8 a9 37 3c 59 23 e2 bd 8e 51 fd 2a
       -0.024357244 0.011209883 -0.11041898 4.4998418e-13
000290 42 69 78 3c 7e 92 0a 3e 64 96 42 3d 13 3b 2f bd
       0.015161814 0.13532445 0.047506705 -0.042780947
0002a0 25 66 82 bd f6 ce 75 bd b3 84 27 bd 51 63 be 3c
       -0.06367139 -0.060011826 -0.040898036 0.023240717
0002b0 85 61 bc 3d 99 f3 07 3d c3 20 46 ba 4d de d9 3c
       0.09198288 0.033191297 -0.00075579825 0.02659526
0002c0 94 61 6e 3d 14 e7 c9 3d 14 02 d2 bd 44 6f b4 bb
       0.058198527 0.09858528 -0.102543026 -0.005506428
0002d0 87 5d 89 bd 77 d5 91 3c 34 82 ef 3a 39 4f 03 bd
       -0.06707292 0.017801983 0.0018273056 -0.032057974
0002e0 be bf 3b 3d 46 1f 8a bd 85 fd 43 3d 87 85 7e bd
       0.045837156 -0.06744246 0.047849197 -0.06213906
0002f0 a7 1f da bd 95 57 88 3d dd 49 d3 3c c0 f0 b2 3d
       -0.106505685 0.0665733 0.025792057 0.08737326
000300 e6 93 5b 3d 99 e4 ed 3d 3c d8 cc bd 3b 90 a1 35
       0.053607844 0.11615867 -0.10002181 1.2037411e-06
000310 c6 bf 5f bd 64 1f 5e bd 99 b6 28 3e d8 23 02 bc
       -0.05462625 -0.054229155 0.16475905 -0.007943116
000320 40 bc 5a bc 5e c8 16 3e 27 32 df 3d 42 f5 ca bd
       -0.013350546 0.14724872 0.10898238 -0.099100605
000330 4e c7 95 bd 33 04 f8 bd 6e bf aa 3d 42 f9 46 3d
       -0.07313405 -0.12110176 0.083372936 0.048577555
000340 d8 fd 0b be 54 50 89 bc 3b 33 c2 bd c2 58 33 3e
       -0.13671052 -0.016761936 -0.09482428 0.17514327
000350 e3 44 b7 bc 20 47 0b bc bd 52 19 3d da 41 43 3c
       -0.022371715 -0.008500844 0.03743242 0.011917556
000360 d6 3d 03 be 9f 73 17 3e 4c 47 7f 3d 44 7c 51 bd
       -0.12816557 0.147902 0.062323853 -0.0511439
000370 df 16 d3 bd bd c0 b0 bd 4d ef d7 bd 86 8a c0 bd
       -0.10307097 -0.08630512 -0.1054369 -0.09401421
000380 e0 07 a7 3c c1 3f e9 bd 85 fb 18 3d 29 3f cc ad
       0.020389497 -0.11389113 0.037349243 -2.3220164e-11
000390 42 50 a8 3c d1 e7 68 3d ae 1c 2f bd f6 98 cf 3c
       0.020546082 0.056861702 -0.04275196 0.025341492
0003a0 2a 01 f7 bc 76 a2 b2 bc 03 e5 27 3d 43 2d cc bc
       -0.030151922 -0.021805983 0.040989887 -0.024923926
0003b0 7c 80 ef bc 2e 96 2d bd 14 2a c1 bc 17 d5 52 bd
       -0.02923607 -0.04237955 -0.023579635 -0.05147275
0003c0 db 6b 04 be cb 11 4e 3e be 69 2c bd 62 fb 2c 3d
       -0.12931769 0.20123975 -0.04209303 0.042231925
0003d0 1c c4 50 3d 29 f2 59 3c 04 e7 0a 3d d8 69 6d bc
       0.050968274 0.013302364 0.03391172 -0.014490567
0003e0 5c ee c2 bd c0 01 46 ba 55 91 83 3d a3 56 87 3d
       -0.0951812 -0.00075533614 0.06424204 0.066083215
0003f0 c9 89 0d 3c 1a e4 c8 3c 5c c8 8a bc 40 57 3c 3c
       0.008638808 0.02452283 -0.016941242 0.011495411

MLP.5.bias f4 [32]
000000 09 fe 4f bd 86 c7 db 3c a9 4f 35 bc 8e ed a4 bc
       -0.050779376 0.026828539 -0.011066356 -0.020132806
000010 a4 b3 be bd a2 28 40 bb 57 de 6d bd 09 99 67 3c
       -0.093116075 -0.0029321094 -0.058073368 0.0141356075
000020 ee 4f f5 3c 71 3e 20 3d dd 24 bf 3d cd d9 e1 3c
       0.02994534 0.03912205 0.09333203 0.027569676
000030 e3 27 c6 3c aa 19 f8 3d dd 9b 00 3d 80 9a de bd
       0.024188941 0.1211427 0.031398643 -0.10869312
000040 e3 67 17 be c2 ad c5 3d f8 1b 0d 3d 9d 8d d2 b9
       -0.14785723 0.09652282 0.0344505 -0.0004015983
000050 56 82 1e bd 46 fc 17 3d 36 81 12 be cd ab 0d 3c
       -0.038698517 0.03710582 -0.14307103 0.0086469175
000060 51 de 8d bd 26 76 bb bd dd 0b f7 3d 04 52 0a be
       -0.06927169 -0.091533944 0.120628096 -0.13507849
000070 9d 66 c1 bd a7 74 5f 3d f5 67 6c bd c1 c1 2b bc
       -0.094434 0.054554608 -0.05771633 -0.010483206

MLP.6.weight f4 [32]
000000 f4 56 4f 3f 43 11 2e 3f 10 18 29 3f 9f 6b 2b 3f
       0.80992055 0.6799509 0.6605234 0.6696109
000010 64 b9 48 3f 50 8e b9 3e 88 d2 2f 3f 6c 69 04 3f
       0.78407884 0.36241388 0.6868062 0.5172336
000020 cb 03 43 3f 01 d2 48 3f bc b6 18 3f 2a 3c 50 3f
       0.7617766 0.7844544 0.5965383 0.81341803
000030 09 6b 3e 3f 59 b0 3f 3f 6b 40 31 3f a7 bc 4b 3f
       0.7438207 0.7487846 0.6923892 0.79584736
000040 f8 db 2f 3f f2 c1 57 3f 89 43 2f 3f d6 fc 0a 3f
       0.6869502 0.8428031 0.68462425 0.5429205
000050 d3 2c 27 3f 3a 5b 4f 3f 3c c6 4e 3f 3d 6e 42 3f
       0.6530277 0.80998576 0.8077123 0.7594946
000060 06 73 31 3f 87 30 50 3f b2 26 44 3f 93 b0 3c 3f
       0.69316137 0.81324047 0.76621544 0.7370693
000070 5f a0 44 3f 67 a2 51 3f de c4 0c 3f ec 27 45 3f
       0.76807207 0.8188843 0.54987895 0.7701404

MLP.6.bias f4 [32]
000000 eb 51 1d 3c 36 08 04 3c 6d a7 13 bc 0e b2 17 bc
       0.00960205 0.008058598 -0.009012085 -0.00925876
000010 72 55 1e bd da 19 1e 3b 17 f9 2e bb 2c f6 c4 bb
       -0.038655706 0.0024124295 -0.0026698762 -0.0060107913
000020 4e 14 d8 39 ea 4b e0 bc 2f d7 f1 3a 09 8d 21 39
       0.0004121386 -0.027379949 0.001845097 0.00015406696
000030 35 88 4f 3d c5 c7 e7 3c 20 06 40 3d ab 4d 19 3c
       0.050667007 0.0282935 0.04688084 0.009356896
000040 b6 e5 f6 bc 72 e0 e2 bc 3c 01 b5 b8 50 19 91 3c
       -0.030138832 -0.027694914 -8.6309825e-05 0.017712265
000050 c0 f6 06 bc a3 91 8a bc a6 a0 10 3c 2a 14 35 3c
       -0.008237541 -0.016915148 0.008827364 0.011052171
000060 37 0a be bb ea 6a 06 bc c3 14 51 bb 52 eb 80 3b
       -0.0057995575 -0.008204201 -0.0031903244 0.0039343024
000070 31 ec ae 3c 7f ed 14 bc b0 3b 24 bb c4 a8 ca 3a
       0.02135286 -0.009089827 -0.002505999 0.0015461673

MLP.8.weight f4 [32, 32]
000000 92 68 88 bd 9b b2 12 bd c3 bc 97 3c 68 58 c6 3d
       -0.0666057 -0.035814863 0.018522626 0.09684831
000010 ae 4b 5b 3d 3f c0 14 3d 0c cb d3 bd fa 0d 0d 3e
       0.05353897 0.036316153 -0.103414625 0.13774863
000020 f1 51 e8 3d 7d b8 08 bd af 9b d1 bc dd 6d fe 3d
       0.11343754 -0.033379067 -0.025586931 0.124232985
000030 07 c5 c5 bc 04 eb d4 bd 02 67 1d 3e 91 5c e6 3d
       -0.024141802 -0.10396388 0.15371326 0.112481244
000040 09 ac 32 be 58 6f 9d 3d fe f3 a0 bd f9 de 97 3b
       -0.17448439 0.07687253 -0.07859038 0.0046347347
000050 e1 01 c9 bd 83 ad 4a bd b2 b3 03 3e 61 c1 8d bd
       -0.098148115 -0.04948188 0.12861517 -0.0692165
000060 cc f2 1d 3d dd b7 a7 bd b6 53 3a bc e0 d8 12 3d
       0.038561627 -0.08189366 -0.011372497 0.03585136
000070 7e 5d 86 bd 13 32 10 3d 8f fd ef 3d a5 31 c4 3d
       -0.06560801 0.035204004 0.11718284 0.095797814
000080 41 32 9a 3c fe 90 1e bd 7b 2f da 3d b5 68 22 bd
       0.018822791 -0.038712494 0.106535874 -0.039650638
000090 a2 4c 35 bd 99 c7 16 3e ae 05 e5 3d e9 af 03 bc
       -0.044262536 0.14724578 0.11182724 -0.008037546
0000a0 4d bf a7 3d 33 66 bf bd 58 62 c0 bd fc f9 8b bc
       0.081907846 -0.09345665 -0.093937576 -0.017086975
0000b0 23 fb d1 3d 09 c2 b9 3d 3a 72 95 3d 7d d1 35 3e
       0.10252979 0.090702124 0.072971776 0.17755695
0000c0 c2 d9 b4 bd e3 70 05 be 33 c3 c6 3d dd 43 91 3d
       -0.088305965 -0.13031344 0.097052 0.07093022
0000d0 11 8f cc 3d 88 2f 01 3e c6 05 3a be e2 c4 3c 3d
       0.09988225 0.12615788 -0.18166265 0.0460862
0000e0 3c d8 17 bd 7f ca d2 bd d6 fc 0c be c7 c7 4d 3e
       -0.03707145 -0.10292529 -0.13768324 0.2009574
0000f0 dc fe 8d 3d 2d 3e 30 be 21 10 f0 bd 65 a4 6f 3b
       0.06933376 -0.17211218 -0.11721826 0.0036566493
000100 8a 87 d0 bd 88 0b 8f bd 66 71 a2 bd d8 5d 16 be
       -0.10182102 -0.06984621 -0.07931785 -0.14684236
000110 c0 6a 18 be 06 83 01 be 81 d0 36 3e 8c bc 05 be
       -0.14884472 -0.12647638 0.17852975 -0.13060206
000120 3f 21 19 3d 57 8f 02 3c af 04 27 be 98 78 e2 3d
       0.03738522 0.007968745 -0.1631038 0.11058158
000130 df 00 ac 3d 7e 68 f1 3d c4 50 8c 3d 50 a7 0c be
       0.08398604 0.117875084 0.06851342 -0.137357
000140 11 8c f6 3c 35 de 0f be f6 14 09 3e 33 33 d5 bd
       0.030096086 -0.14049609 0.13386902 -0.10410156
000150 5a 6c a6 bd 1e cd 43 3e 1c 7b 88 bc 71 51 47 3d
       -0.08126135 0.19121215 -0.016660266 0.048661653
000160 c9 4b 06 bd d0 c7 07 bc 36 0a 20 be 35 00 0e be
       -0.032787118 -0.008287385 -0.15628895 -0.13867266
000170 6f a3 bd 3d d4 2c 07 be 75 e5 02 bd 97 bb 86 bd
       0.09259688 -0.13200694 -0.03195711 -0.06578749
000180 19 91 d2 3d 50 05 66 bd ef a1 16 3e 52 12 75 3c
       0.102815814 -0.05615741 0.1471021 0.014957981
000190 ed 67 85 3d b9 25 6d bd 2d 12 52 3e 35 f5 f5 3c
       0.06513963 -0.057897303 0.20514746 0.03002415
0001a0 ee 92 c9 bd d2 3f 0f be 41 27 c3 bd ed 33 3f 3d
       -0.09842478 -0.1398919 -0.095289715 0.04668038
0001b0 83 12 9c bd fd 0c e7 bd d4 80 df bd 9b 2d 77 3d
       -0.07620718 -0.11281774 -0.10913244 0.060346227
0001c0 4f 16 06 3e f9 19 2a 3e dc 7f 7d bd 36 e0 a7 3c
       0.13094448 0.1661147 -0.061889514 0.020492654
0001d0 14 d0 0a 3d ad 49 39 be 63 c9 8d 3d eb 8d 87 3d
       0.033889845 -0.18094511 0.06923177 0.066188656
0001e0 e5 9c a7 3b d2 35 08 be 8c e0 b7 bc 1e 16 ad 3c
       0.005115139 -0.13301781 -0.02244594 0.02112871
0001f0 9c 3a 8e 3d 35 d6 0a bb 89 b5 04 bd e8 d7 9d bd
       0.069447726 -0.0021184806 -0.032399688 -0.077071965
000200 b9 d9 29 3d 86 68 4c bd e1 85 8f bc 78 39 1a 3d
       0.041467402 -0.04990437 -0.017519893 0.037652463
000210 67 3e bc bd f0 73 04 bb 69 60 f9 3c 15 26 aa bd
       -0.0919159 -0.0020210706 0.03044148 -0.08308045
000220 13 92 b9 bd 39 ab 40 3b 82 65 62 bb 75 c1 b1 3d
       -0.090610646 0.0029398932 -0.0034545367 0.08679477
000230 29 1e 02 3e 5a 95 d3 bd 9e 37 f5 3d 9a 93 55 bc
       0.12706818 -0.10331221 0.11973499 -0.013035679
000240 6c ef b9 3d ce be 0c 3e 7c f5 94 3d e8 2f 86 bd
       0.09078869 0.13744661 0.07273385 -0.06552106
000250 c9 d2 c8 3d 63 07 7e 3d aa a9 85 3d d9 52 2b be
       0.09805829 0.062018763 0.065265015 -0.16730823
000260 ce 0f b9 3d d2 47 a3 3d 8e 4d 3b bc db 29 e5 bd
       0.09036218 0.07972683 -0.011432065 -0.11189624
000270 ef 25 58 bd 5d 2e 30 bd 20 1a d1 bc 1c 27 bf bc
       -0.05277055 -0.043012965 -0.025525153 -0.023334078
000280 89 fd 1a 3e 54 70 7a 3d 37 1a 38 bd 35 d1 1b be
       0.15135778 0.06114228 -0.044946875 -0.15216525
000290 17 f4 d4 bd 1c 79 89 bd 64 f3 b5 3d 2c 86 42 bd
       -0.10398119 -0.06712553 0.08884314 -0.047491238
0002a0 d7 0b 05 be c0 67 b1 bd cb c1 0d be 7c 89 5f 3d
       -0.12992798 -0.08662367 -0.13843457 0.054574475
0002b0 0e 9d 1d 3e fd f6 0d 3e d8 7e 11 3c a5 ee 20 bc
       0.15391943 0.1386375 0.00888034 -0.009822522
0002c0 7e 20 54 bd ca 19 0d 3e 3f c5 93 3d 4d 0f 98 3d
       -0.0517888 0.13779369 0.07215356 0.074247934
0002d0 8d 23 f9 3d 2b c1 1a 3e 16 82 e1 3d a2 cd 23 be
       0.12164984 0.1511275 0.1101114 -0.15996411
0002e0 d3 96 f1 bd 64 2d d6 3d 21 d8 57 3d cf e9 88 bd
       -0.117963456 0.10457876 0.05269635 -0.066852205
0002f0 e8 6d 1e 3e fe 56 ab bd 97 2a ef bc c0 bd 27 3e
       0.15471613 -0.08366202 -0.029195113 0.16380978
000300 12 f9 ec 3d 90 8a 19 ba 60 54 aa bd 48 44 9f bc
       0.11570944 -0.0005857134 -0.083168745 -0.019441739
000310 3f 96 18 be 65 fe b1 bd 5e a2 17 be 50 0b c7 bd
       -0.14901064 -0.086911 -0.14808032 -0.097189546
000320 29 2e 88 3d 1e 6d c8 bd 4a cb 73 3d 9e e2 36 be
       0.06649429 -0.097864375 0.059520043 -0.17859885
000330 d0 ff e2 3b 9b c5 47 bd b3 0c 9a bd ed a6 fe 3d
       0.006927468 -0.048772436 -0.075219534 0.12434182
000340 e5 52 c0 bd d1 c2 04 3e bd 47 1a 3e 3d d2 ff bc
       -0.09390811 0.12964942 0.15066428 -0.03122818
000350 4b ac 1d be 19 50 b8 3d f7 24 e9 bc a9 c8 c2 39
       -0.15397756 0.089996524 -0.028460009 0.00037152067
000360 e6 00 35 bd 5a d0 1a be 52 59 23 bc 24 cc e4 3d
       -0.04419031 -0.15118542 -0.009970026 0.11171749
000370 14 23 20 bc e1 8d ed 3c fd e2 32 be 44 5a 1d 3e
       -0.009773988 0.028998317 -0.17469402 0.15366465
000380 ab 06 a1 bd fb 47 bd 3d c9 d9 eb 3d dd 14 82 bd
       -0.078626 0.09242245 0.115161486 -0.063516356
000390 15 54 9b 3d b3 5c f9 bc 35 b5 ff bd 1a ca 1d bd
       0.07584397 -0.03043971 -0.124857344 -0.038522817
0003a0 10 65 ba 3c 30 9d 0c be c3 cc ed bd ba 9e 04 be
       0.022753268 -0.13731837 -0.11611321 -0.12951174
0003b0 d0 ac 08 3e 9d b9 16 3d 7c 80 1e 3e 57 45 28 be
       0.13347173 0.03679811 0.154787 -0.16432701
0003c0 8c 78 4a 3d 59 bb c0 3d c2 e7 04 bd f2 df 3d 3d
       0.04943137 0.09410734 -0.032447584 0.04635615
0003d0 89 0d f6 3d 80 51 81 bd ff ad 4b 3e 78 be 4b 3d
       0.120143004 -0.06314373 0.19890593 0.049742192
0003e0 e8 4f e4 bd b3 58 52 bd fa 4b 29 3d 68 b6 3c 3c
       -0.111480534 -0.05135412 0.041332223 0.011518098
0003f0 26 e3 a2 bd 2f f9 08 be 6e c4 c3 bb 10 ea 2b 3c
       -0.079534814 -0.13376306 -0.005974344 0.010492817

MLP.8.bias f4 [32]
000000 58 79 1f be 8a 51 d8 3d 19 06 1d 3e 66 e9 86 3c
       -0.15573633 0.10562427 0.15334357 0.016468715
000010 32 93 14 3d bd f6 2d 3c aa ea e9 3d 7a 71 89 bc
       0.03627319 0.010617909 0.11421712 -0.016777743
000020 11 7f b1 3c 43 d7 04 3d f5 7c bb bd 75 34 fc 3d
       0.021667035 0.032431852 -0.09154693 0.12314693
000030 cb 50 1d bd f3 c5 e0 bc ef 10 e8 3d 23 b5 d7 bd
       -0.03840713 -0.02743814 0.11331355 -0.10532596
000040 9e 20 e8 bd 90 28 d5 bd ec 38 6b 3d 5a 5a d0 bc
       -0.11334346 -0.10408127 0.05742733 -0.025433708
000050 17 09 04 3d 3c 0c cf bc 34 f7 f8 3b 23 4a 1a 3e
       0.03223523 -0.025274388 0.0075978283 0.15067343
000060 95 6c 94 3d 26 8d ea bb 8f 56 1f 3d 2d e1 37 3d
       0.07247273 -0.0071579395 0.038900908 0.04489248
000070 04 26 f1 bc 1d c2 28 3d a8 54 95 bd 9b 8a a1 3d
       -0.029437073 0.041200746 -0.072915375 0.07887765

MLP.10.weight f4 [32, 32]
000000 55 b5 05 bd 10 3c 29 3c d7 d0 75 3d 8b eb 01 3e
       -0.032643635 0.010329261 0.06001362 0.12687509
000010 37 6d e5 3d e1 3f 65 bd bd f6 3b bd c8 22 1c 3e
       0.11202472 -0.055969123 -0.045889605 0.15247643
000020 21 37 50 bd b0 7d ee 3c f2 c9 d6 bd 1c 75 28 3d
       -0.050833825 0.029112667 -0.10487737 0.04112731
000030 a1 2c a3 bd 08 7a 81 bd 2b 58 9d bd d7 3a c2 3c
       -0.07967497 -0.06322104 -0.07682832 0.023709698
000040 8c d8 ed bb 21 08 5a ba b3 ec 65 bd 1b 26 ab 3d
       -0.0072584804 -0.00083172513 -0.056133937 0.083568774
000050 f7 fd e2 3d 65 63 8f bd 8b d2 6f 3d 63 e8 fd bd
       0.11083596 -0.0700138 0.0585504 -0.1239784
000060 cf d8 07 3e fa ac e9 bb d3 42 23 3e fa b8 c8 3d
       0.132663 -0.007131216 0.1594346 0.098009065
000070 91 63 c2 3b 1b b9 1c 3d 29 52 8c 3d 62 95 cc bc
       0.0059322794 0.038262468 0.06851608 -0.024973575
000080 38 c1 6a 3c 1b 5e 26 be a4 d8 b5 3d 07 e8 46 3c
       0.0143282935 -0.16246836 0.088792115 0.012140281
000090 b7 48 10 3c 79 30 93 3d 96 91 e8 3d e4 b5 cb bd
       0.008806399 0.0718698 0.11355893 -0.09946802
0000a0 0b dd 4d bd ad b5 5b bd 88 2c 93 3d 5b ce ee 3d
       -0.05025963 -0.053640056 0.07186228 0.11660453
0000b0 1c cb eb 3d e8 18 09 3e 16 be 0d 3e f7 3b a3 bd
       0.115133494 0.13388407 0.13842043 -0.07970422
0000c0 b6 06 3b bc f7 a0 06 3b 3c 2d 32 3b 89 62 4e 3d
       -0.011415174 0.002054272 0.0027187606 0.05038694
0000d0 00 a1 ba bb 90 29 3c 3d 9f 89 0b 3d 4f 90 0a be
       -0.005695462 0.045938075 0.034066793 -0.13531612
0000e0 00 be c4 3d eb 1a 77 3d 60 42 2a bd 07 20 a3 3d
       0.09606552 0.060328405 -0.041567206 0.07965093
0000f0 52 c4 14 3d 8d 99 c2 3d 5f 1d c5 3c 2f 09 8f bd
       0.03632004 0.09501944 0.024061857 -0.069841735
000100 30 86 18 be c9 4c b4 bb 44 ad 3f be 71 77 03 be
       -0.14894938 -0.0055023176 -0.1871844 -0.12838532
000110 81 68 4a bc 02 f1 ee bb f9 e5 a8 3b 37 5e 1b be
       -0.012354017 -0.007291914 0.005154368 -0.15172659
000120 ba 63 50 bd 51 6a 09 3e d0 d7 cc 3d 1a 86 e0 3d
       -0.050876357 0.13419463 0.100021005 0.10963078
000130 55 b6 d6 3d 47 fd 98 3c 03 14 2a 3d 48 3e 21 3e
       0.10483996 0.01867546 0.04152299 0.15746415
000140 f2 da cc bc d9 d9 6b bd 47 8a f7 bd d2 de a4 bd
       -0.025006745 -0.057580803 -0.12086921 -0.08050312
000150 f7 6f 5f 3d cf 66 cd 3d e3 d7 ee bd c8 ea 5f 3e
       0.054550137 0.10029375 -0.11662271 0.21866906
000160 02 01 3c bd 33 b6 b6 bd 2a 73 af bd cb 7a 68 3d
       -0.0458994 -0.089214705 -0.08566888 0.05675773
000170 28 5e a8 bd ce 14 95 bd d8 32 f8 3c 3c 13 b6 3d
       -0.08221084 -0.07279359 0.030297682 0.088903874
000180 ea d4 00 bb 4b 9c b6 bd d1 f8 a7 3d 41 e4 c6 bb
       -0.0019658157 -0.08916529 0.08201755 -0.0060696905
000190 57 d0 0a be 78 00 d6 bd be 15 6f bc cc cb 89 bd
       -0.13556038 -0.10449308 -0.014592586 -0.06728324
0001a0 92 bf 1e bd ba bc 27 be 57 a4 50 bd d0 e1 17 3d
       -0.038756914 -0.16380587 -0.050937977 0.037080586
0001b0 51 a8 cb 3d 99 8d 8c bd e3 25 70 bd bb d9 8b bd
       0.09944213 -0.06862945 -0.05862988 -0.06828638
0001c0 4b b0 79 bc 26 ef 86 bd b0 ab e2 bb 28 24 53 bc
       -0.015239785 -0.06588583 -0.0069174394 -0.012887038
0001d0 3a d0 c7 bc f3 63 83 3d 38 6b f1 3d b3 48 8d 3d
       -0.024391282 0.06415548 0.117880285 0.06898632
0001e0 55 42 80 bd 7a 24 5e 3b ad d1 d9 3d 78 5c 13 be
       -0.06262652 0.0033896253 0.106356956 -0.14390743
0001f0 e8 6a e7 3d b5 22 cb bc 15 3c ad 3d 02 e8 d3 bd
       0.112996876 -0.024796823 0.08458725 -0.10346986
000200 59 8f 35 3d 77 e9 1c 3d 00 f5 11 3d 50 b5 70 bd
       0.04432616 0.038308587 0.03563404 -0.058766663
000210 39 2e 15 3d 8e 93 da bd ea c5 4c bb f7 de bc 3d
       0.036421034 -0.10672675 -0.0031245896 0.09222215
000220 f9 76 f0 ba 15 3a ec bd 1d ec 03 3e 32 a3 07 be
       -0.0018346003 -0.11534516 0.12883039 -0.13245848
000230 54 dd 1a be 1a e9 b3 3d d5 4b 68 bd f3 a2 51 bd
       -0.15123492 0.08784695 -0.056712944 -0.05118079
000240 fe 25 83 3c 4e 11 7f 3c c9 59 9c bd 52 9d a5 3c
       0.016009327 0.015568091 -0.07634313 0.020216618
000250 00 28 e6 bd ba 90 53 3d 4c fa 09 be 41 1c c1 bd
       -0.11238098 0.051651694 -0.13474387 -0.09429217
000260 b0 43 14 be 02 0f 87 bd 5f b0 da 3d b4 ae 7f 3d
       -0.14478946 -0.065946594 0.10678171 0.06242247
000270 58 23 84 3c 73 cc b8 bd 43 21 4f bd 34 8f 15 3e
       0.016130134 -0.090233706 -0.05056883 0.14605409
000280 8f e5 10 be f8 cf 90 3d 22 6f e0 3d 49 eb fd 3c
       -0.1415007 0.07070917 0.10958697 0.030995982
000290 e1 9e f8 bd 45 83 0d 3e 00 6e 6a 3d c0 76 87 3d
       -0.12139679 0.13819607 0.05723381 0.06614447
0002a0 4d 89 04 bd 53 74 08 3c 96 c7 8a bd 27 27 2b 3e
       -0.032357503 0.008328515 -0.06776349 0.16714154
0002b0 3c 9a c5 3d 0a 10 41 3d 63 20 a5 bd 71 49 c5 bc
       0.096485585 0.047134437 -0.08062818 -0.024082871
0002c0 fb 34 95 bd 64 e3 6e bd 04 61 65 3d 4c 59 ec bd
       -0.07285496 -0.058322325 0.056000724 -0.115404695
0002d0 84 5f 82 bd 4f 6f 10 bd 27 da 95 bd 6f 0b ad 3c
       -0.063658744 -0.035262402 -0.07317 0.021123616
0002e0 2f 07 33 bb db 1f 6c bd 02 c6 d4 bb 20 10 71 3d
       -0.0027317514 -0.057647567 -0.006493331 0.05885327
0002f0 df 40 03 3e 3b e0 8e bc 82 3a 8e 3d 8a c6 15 be
       0.12817715 -0.017440906 0.06944753 -0.14626518
000300 19 58 ba 3d 14 14 29 3d 52 8d 0b bd 33 23 a7 bd
       0.090988345 0.041278914 -0.03407032 -0.081610106
000310 97 5f 1a 3d 04 e9 af bd 3f a8 da bd 9a 63 d8 3d
       0.037688818 -0.08589366 -0.10676622 0.105658725
000320 85 f8 e1 bc 57 5d ba bd 7a b6 99 bc 22 d0 46 bc
       -0.027584324 -0.090998344 -0.01876377 -0.012134584
000330 93 e2 0e 3e c0 88 f2 3d f8 ea 64 bb 75 91 20 3e
       0.13953619 0.11842489 -0.0034930091 0.15680487
000340 6b d7 b7 bd 5d 79 4a bd a3 47 1a 3d 24 fa f0 bd
       -0.089766346 -0.049432147 0.037665974 -0.117664605
000350 a3 19 d2 bd ff bb 84 3c bf 70 22 3e 76 96 8b 3d
       -0.10258796 0.016202925 0.15863322 0.068158075
000360 a1 40 c0 3c 2f 1e 4a bd a8 46 4b 3c 77 0a 06 3e
       0.023468317 -0.04934519 0.0124069825 0.1308993
000370 af de 43 be 52 bc 69 3d b4 6c 61 3d 05 ac e7 3c
       -0.19127916 0.057064362 0.055035308 0.028280267
000380 1f cc 09 3d f3 db 36 3e 9d da 5f 3d 67 d7 a1 3d
       0.03364193 0.17857341 0.054651845 0.07902413
000390 86 d0 30 3e 24 0b a8 3c ef d7 cb bd 9d 0b d9 3d
       0.17267045 0.020513125 -0.099532954 0.10597918
0003a0 cb 49 3e bd 93 41 e1 3d 51 01 cc bd f5 c7 a1 bb
       -0.046457093 0.109988354 -0.099611886 -0.004937167
0003b0 95 4b 8e bd 47 31 e4 bc 01 ba a8 bd 12 f5 ea 3c
       -0.0694801 -0.027855529 -0.082386024 0.028681312
0003c0 ec b8 11 3b 6e fa 26 3d c0 c9 0b 3e 63 da 95 3d
       0.0022235466 0.040766172 0.1365118 0.073170446
0003d0 73 d2 b4 bd 81 e9 1d bc 06 35 eb bd 6c ee 66 3e
       -0.088292025 -0.009638191 -0.11484723 0.22551888
0003e0 ff c5 7f bd f0 ad 19 3d cd f9 18 3e 95 18 71 bd
       -0.062444683 0.037519395 0.14939041 -0.058861334
0003f0 91 73 3c bd 34 73 5f bd 83 ec ed bc ad 11 f8 bd
       -0.04600865 -0.054553226 -0.029043442 -0.121127464

MLP.10.bias f4 [32]
000000 12 0f c3 bd 0c fe 8f bd 2a 65 0f 3e b2 5b c0 3d
       -0.09524359 -0.070308775 0.14003435 0.093924895
000010 23 9e 27 3e e5 c4 88 3d f2 8e a1 3d 0d cb 6c 3d
       0.16368918 0.0667818 0.07888593 0.05781083
000020 9a e7 9e 3d da f4 f3 3d b9 80 19 be 41 55 a4 3d
       0.07759018 0.11911936 -0.1499051 0.080240734
000030 2a 7d 0c 3e 6e 76 bb 3d 32 17 21 be 79 e1 72 bd
       0.13719621 0.09153448 -0.15731505 -0.05929706
000040 eb 25 46 bb eb b9 f4 3d e2 20 fb bc 8d 8d 7e bd
       -0.0030235003 0.119495235 -0.030655328 -0.062146712
000050 64 be d8 3c 62 5e a3 3d 71 9a 65 bd 23 f1 31 3d
       0.026457973 0.079769865 -0.05605549 0.043442857
000060 5d e7 03 3e 7a 4e ce 3c 89 9d 93 3d 95 40 c5 bc
       0.12881227 0.025183905 0.07207782 -0.024078647
000070 fd d0 0a 3c 67 ca 12 3d 0e 06 05 3c 52 2f 2e bd
       0.008472678 0.035837557 0.008119119 -0.042525597

MLP.11.weight f4 [32]
000000 85 7d 1a 3f a1 38 65 3f 59 ea 6e 3f ea 72 6c 3f
       0.6034778 0.89539534 0.93326336 0.92362845
000010 7e 40 56 3f 8d fb 72 3f 6d 2a 74 3f 4e 7a 5e 3f
       0.8369216 0.94915086 0.95377237 0.8690537
000020 58 a4 64 3f 41 7b 68 3f 5a 37 4e 3f 39 29 6f 3f
       0.8931327 0.9081307 0.8055321 0.93422276
000030 5d 93 2f 3f cf a7 6e 3f 8d 05 72 3f 12 bf 58 3f
       0.68584234 0.93224806 0.9453972 0.8466655
000040 d9 25 75 3f 05 33 70 3f d0 34 59 3f fd 79 66 3f
       0.95760876 0.9382785 0.8484621 0.9002989
000050 33 c8 6f 3f f7 0b 76 3f cb 77 4e 3f 07 b9 63 3f
       0.93664855 0.96112007 0.8065154 0.88954204
000060 e5 27 73 3f a9 8b 4a 3f e8 da 72 3f 1e 4b 60 3f
       0.9498275 0.79119354 0.94865274 0.8761462
000070 a0 c2 69 3f 0d d0 3c 3f 7b e2 6f 3f 01 06 75 3f
       0.913126 0.7375496 0.93704957 0.95712286

MLP.11.bias f4 [32]
000000 42 eb b2 bb 1d 55 11 bc f6 eb aa bc e6 66 37 bc
       -0.005460174 -0.00887039 -0.020864468 -0.0111939665
000010 f9 bd 93 3b c8 b2 c3 ba 72 d4 e9 3a 6b d1 a8 3c
       0.0045087305 -0.00149306 0.0017839803 0.02060767
000020 aa 49 ab bb b6 34 47 bc 16 c1 f8 ba a3 56 cf bc
       -0.0052272873 -0.012158563 -0.0018978443 -0.025309866
000030 54 1c 26 bc be fa 74 bc 79 0a b9 bc 29 f0 8e bc
       -0.01013859 -0.01495236 -0.022588002 -0.017448502
000040 78 ea 23 3c f9 9f fc 3b 89 1d 05 bc 85 ab 08 3b
       0.010004632 0.0077095 -0.0081247175 0.0020854187
000050 56 af 07 bb 0e 0b ed bb 2c 56 2b ba 12 0d 19 3d
       -0.0020703874 -0.007233984 -0.0006535973 0.03736598
000060 13 14 eb ba 60 04 36 3c 2f 71 08 bb f9 9a ca ba
       -0.001793506 0.0111094415 -0.0020819416 -0.0015457562
000070 4c 8b b0 3c e6 1e 25 bd 45 a4 a3 3c 77 5a 7d bc
       0.021550797 -0.04031267 0.01997579 -0.015463463

MLP.13.weight f4 [4, 32]
000000 83 1c 7d 3c 5c e9 50 3d 3d cc d5 3d 05 a5 ed 3d
       0.015448692 0.0510038 0.10439346 0.116037406
000010 c1 65 01 3d 82 60 16 3e 96 5f 0c 3e 68 a8 4d bd
       0.03159118 0.14685252 0.13708338 -0.050209433
000020 ff d5 c2 3c 0f 57 b4 bd 54 49 0d bd 0f 2f 1f 3e
       0.023783682 -0.088056676 -0.03449376 0.15545295
000030 79 b4 48 3c 13 c1 c0 3d f1 b7 65 3d d1 0a 0e bd
       0.012250059 0.09411826 0.056083623 -0.034678284
000040 ba ba 1a be 72 5f f3 bd 5b b7 a4 3c 7f e5 7f 3d
       -0.15110293 -0.11883439 0.020106962 0.062474724
000050 be 25 e3 3d 1c c4 01 3e 9c 11 cb bc 81 72 dd bd
       0.11091183 0.12672466 -0.02478867 -0.108128555
000060 66 58 78 3d 84 b4 f5 bc 99 43 ad 3d a7 16 c9 3c
       0.06063118 -0.029993303 0.08460159 0.024546934
000070 d2 81 ad bd f6 de 64 3b ea 8e da bd 0e d8 17 3e
       -0.08472027 0.0034922934 -0.1067179 0.14828512
000080 4c e0 36 bd 2f 73 3a bc 77 6a 0c 3c cf 31 12 bd
       -0.0446475 -0.011380001 0.008570305 -0.035692032
000090 e5 ab 9d 3c 74 8e 99 3c 4e f3 c6 bc ec 39 fd bb
       0.019247005 0.018744685 -0.024285939 -0.007727852
0000a0 60 39 5d 3d 3e fd 40 3d 07 91 45 3c 55 84 bd bc
       0.054009795 0.04711651 0.012058503 -0.02313439
0000b0 17 9f 95 3c 74 3c 17 3d 31 dd 4b bc 5a 8b 9e 3c
       0.018264337 0.036922887 -0.012442873 0.019353557
0000c0 ac c1 03 bc 98 80 ab bd 7f 49 89 39 a7 da 0f 3c
       -0.00804178 -0.08374137 0.00026185435 0.008780158
0000d0 8a 8a 3d 3c 0a c8 54 3c 64 a7 99 3d 18 1d 7b 3c
       0.011568675 0.012987146 0.0750263 0.015326761
0000e0 c0 98 a4 bd f1 a4 47 bd 8f c9 a1 bc cb 49 af bd
       -0.08036947 -0.048741285 -0.019749431 -0.08558997
0000f0 f4 f1 9b 3c a7 53 3f bc f9 33 91 bd e3 6e a9 bc
       0.01903627 -0.011677659 -0.07089991 -0.020682758
000100 8d 1f 6c 3d 0f 65 38 3c b5 00 37 3a aa 54 60 bc
       0.057647277 0.011254563 0.00069810014 -0.0136920605
000110 b9 ac 9a 3a 71 9a cc 3b 03 b2 0d ba a0 43 9f bc
       0.0011800743 0.006243997 -0.0005405249 -0.019441426
000120 86 46 16 bc 2f da ac 3b 34 f9 34 3d f1 3b 33 bb
       -0.009172088 0.005275033 0.04418297 -0.002734896
000130 06 c2 b7 3b 3f 62 59 bc 6e 5f db bb 5f 28 af bb
       0.005607846 -0.013268053 -0.0066947257 -0.005345389
000140 4f c4 49 3c 45 51 cd 3b 7d 0e ca 3c 16 d2 87 bb
       0.01231487 0.0062657916 0.024665112 -0.0041449172
000150 b0 ae de 3c bb be cb 3b 41 5b 3b 3c cf ec 1b bb
       0.027182907 0.006217805 0.011435331 -0.0023792272
000160 f7 08 26 3d b9 32 9d bb 9e 15 f7 bc bf a8 94 bc
       0.040535893 -0.0047973064 -0.030161675 -0.01814687
000170 29 73 e9 bb 6a e9 c9 3c 15 61 89 3c f7 b8 05 bc
       -0.007124324 0.024647433 0.016769925 -0.008161775
000180 63 31 b2 bd 0d 21 b2 bd 6a 4c 08 3e 72 e6 01 bd
       -0.08700826 -0.0869771 0.133104 -0.03171391
000190 b1 20 96 bd 67 84 aa bc 5f e2 f9 bd 99 69 c0 bd
       -0.07330454 -0.020815087 -0.1220138 -0.09395141
0001a0 9b 90 22 be bc 81 67 bd 2d de 99 3d 97 20 0c be
       -0.15875475 -0.05652021 0.0751308 -0.13684307
0001b0 16 8f 83 3d 5a aa 1c be af 66 2d 3e 3f d3 15 3e
       0.06423776 -0.15299359 0.16933702 0.14631365
0001c0 27 54 0e be 54 fa fd 3d c5 16 d9 3d 8b 62 08 3b
       -0.13899289 0.12401262 0.10600046 0.002081069
0001d0 4f 12 1d be 03 83 93 bb 65 f9 8c 3c 64 b4 1d bc
       -0.15339015 -0.004501702 0.017208764 -0.009625528
0001e0 b3 31 08 bd 97 61 23 bd b0 3c 2b 3e 7d 66 a8 bb
       -0.033250522 -0.03988799 0.16722369 -0.0051391707
0001f0 81 34 1b bd a4 21 a1 3c b6 22 6d 3d 5c a0 6e bd
       -0.03789187 0.019669361 0.05789443 -0.0582584

MLP.13.bias f4 [4]
000000 91 a9 01 3e bc 3b 0f bc 51 eb 27 bc 1c 79 99 bd
       0.1266234 -0.008742269 -0.010248975 -0.07493803
