example/model/acker_robot_default/model_3000.pth (torch, 24610 bytes, 18 tensors)

MLP.0.weight f4 [32, 2]
000000 d6 b9 a5 3e a9 19 2c be 44 67 15 bd 4d 56 50 bd
       0.32368344 -0.16806664 -0.036475435 -0.050863553
000010 65 1b f8 be 92 0f 6b be 05 44 db 3d dd 0f 1c bf
       -0.484584 -0.22955158 0.10706333 -0.60961705
000020 9e 6f 6b be e9 2b 11 3e 77 20 0c bf 0a 44 f4 be
       -0.22991797 0.14176907 -0.5473704 -0.4770816
000030 34 39 ed be 23 4b 50 be a4 7a 61 be 5b 31 08 3e
       -0.46332705 -0.20341162 -0.2201944 0.13300078
000040 47 bd a3 be 64 cc b1 3e 8b 9f 99 3c a5 d9 b0 3d
       -0.31980345 0.3472625 0.018752834 0.086352624
000050 a2 a5 16 3f 09 35 eb be 84 ec 94 3e df 45 24 3f
       0.58846486 -0.459389 0.29086697 0.64169115
000060 95 0a b5 be 4b eb 9f 3c 1b 9d a1 3d 7f c7 9e be
       -0.35359636 0.019521376 0.078912936 -0.31011578
000070 f6 50 ff bc ed fa 91 3e 09 d1 74 be 63 5d c2 bd
       -0.031166535 0.28511754 -0.23907866 -0.09490468
000080 57 78 df bc 04 26 69 be b4 ec b5 3e a7 a5 41 3e
       -0.027279062 -0.22768408 0.35532153 0.18910848
000090 9b 47 29 3e 91 0f 12 3f 79 10 70 bc 57 98 0c bf
       0.16531222 0.57055 -0.014652365 -0.5491995
0000a0 c4 75 53 be df 85 09 bf 12 f3 b9 be 0c 65 b5 3e
       -0.20650393 -0.53719896 -0.3631826 0.35428655
0000b0 0f cd e9 be e8 78 b7 3e 0d 9d 10 be fe c0 80 be
       -0.4566426 0.35834432 -0.1412241 -0.2514724
0000c0 7b 6e 53 3e 87 cb 27 3e 47 45 1c 3c 41 4d ce 3e
       0.20647614 0.16386233 0.009538001 0.40293315
0000d0 7b 9a 3c be 80 af 20 be c8 fc d8 3e 43 e4 2c be
       -0.18418305 -0.15691948 0.42380357 -0.1688395
0000e0 05 7f df 3e 0e 8f b7 be c6 c2 01 be 9d 77 35 be
       0.43651596 -0.3585133 -0.12671956 -0.1772141
0000f0 2a b5 42 3e ac b0 4c 3d 0d 04 06 bf c6 f4 f3 be
       0.19014421 0.049973175 -0.5234993 -0.47647685

MLP.0.bias f4 [32]
000000 6b f1 04 3f 23 1f e5 be 9b 8e b2 bd 2f 4e 8e be
       0.51930875 -0.44750318 -0.08718606 -0.27794024
000010 19 06 85 3a a6 1e c0 3d cb aa 9d be 32 9a dd bd
       0.0010148912 0.09380846 -0.30794367 -0.10820426
000020 fa 48 d9 bd 24 fa b6 3d 4c f4 b2 3d cd 76 59 3e
       -0.10609622 0.08934429 0.08738002 0.21236725
000030 06 ab 11 3f cd c2 83 3e 53 34 ea be e0 2e 74 3e
       0.56901586 0.2573456 -0.45743045 0.23846006
000040 ef 4a c8 bd 96 46 87 3e 1a 6a 13 3f 3e 91 ac 3e
       -0.097799174 0.2642104 0.57583773 0.3370456
000050 16 f9 1e 3f 13 14 00 3f 06 f9 e4 3c df 6b a2 bc
       0.62098825 0.5003063 0.027950775 -0.019826828
000060 cd 86 bc 3d ba a9 8d be 1a d7 49 3f 03 b4 58 be
       0.09205399 -0.27668554 0.78843844 -0.21162419
000070 f1 ab e6 bd 5b df 20 3f 44 c3 9a 3e 8f 0e dd 3d
       -0.11263264 0.62840813 0.302271 0.107937925

MLP.1.weight f4 [32]
000000 c3 40 6e 3f a3 d7 99 3f 12 e7 3e 3f 9f 54 5c 3f
       0.9306757 1.2018932 0.74571335 0.8606662
000010 53 02 42 3f 0d 6b 3f 3f 59 1c 63 3f 6a 7a 37 3f
       0.75784796 0.7477272 0.8871513 0.71671164
000020 2f 2b 44 3f 11 82 29 3f cf 45 42 3f 82 30 66 3f
       0.7662839 0.6621409 0.7588777 0.8991777
000030 4a aa 73 3f 8b c0 48 3f 67 77 44 3f c8 79 2f 3f
       0.95181715 0.784188 0.76744694 0.685452
000040 26 7e 47 3f 75 9e 23 3f ec 8d 57 3f 23 38 44 3f
       0.7792686 0.6391366 0.8420093 0.7664816
000050 47 60 6f 3f c3 00 55 3f 76 2d 4e 3f 1f 10 42 3f
       0.9350628 0.8320429 0.8053812 0.7580585
000060 9c 4a 4f 3f a6 f0 2f 3f 5c 26 75 3f 81 5e 48 3f
       0.8097322 0.68726575 0.95761657 0.782692
000070 ba cb 31 3f 78 06 41 3f f8 ea 59 3f d7 10 4d 3f
       0.6945149 0.75400496 0.8512416 0.8010382

MLP.1.bias f4 [32]
000000 77 d3 c9 3b e9 79 84 3c 0f b8 c5 bc 2b d5 95 3d
       0.006159242 0.016171413 -0.024135618 0.07316049
000010 a3 f2 a2 bc 95 50 91 3c 7e fc 0e bd b8 ca 66 bb
       -0.019891089 0.01773862 -0.034908764 -0.0035216045
000020 aa 9c 4b 3d 7b 39 26 bc 96 87 03 3d a5 34 b1 bd
       0.049709953 -0.01014554 0.032111727 -0.08652619
000030 79 7a 9e 3c 6d b5 b6 3b 2a 7f 25 bd 0c ea 1a 3d
       0.019345509 0.005575827 -0.040404476 0.03782086
000040 ac 2b 4e 3d 5c 54 6c 3d ac bb ae bd f1 89 b2 3c
       0.050334617 0.05769764 -0.08531889 0.021794291
000050 8d eb 97 3b 02 95 b9 3a e2 34 71 bc 06 76 39 3c
       0.004636234 0.0014158788 -0.014722081 0.011319643
000060 e7 66 79 3c 0a ad e3 bc 9f 5f 9a 3c 5e 26 d6 bc
       0.015222288 -0.027792472 0.018844424 -0.026141342
000070 27 0c bc bc ad 55 ea 3c 22 92 07 3b 1d 83 95 3d
       -0.022955013 0.028605307 0.0020686467 0.073003985

MLP.3.weight f4 [32, 32]
000000 77 a4 d2 bd 13 83 b6 be 7c 94 e8 3d c7 df f7 bd
       -0.102852754 -0.35646877 0.11356446 -0.12103229
000010 81 f2 a9 bd 6a 03 11 be c5 f7 e8 3d ed 87 a5 bd
       -0.08298207 -0.14161459 0.11375383 -0.080825664
000020 02 5d 17 be 93 15 8d 3d 0c e2 11 be 5e 6b cd 3d
       -0.14781573 0.068888806 -0.14246386 0.10030244
000030 c4 ac 12 3b bc 6c be 3d f5 ef f3 bd 50 15 80 3d
       0.0022380808 0.09298083 -0.119110025 0.06254065
000040 22 5d 0a be 94 0f c2 3c f1 cb 41 bd dc 3a c5 bb
       -0.1351209 0.023689069 -0.047313634 -0.0060189795
000050 ad df 15 be 8e 31 0a 3e 15 31 47 3c c1 69 03 3e
       -0.14636107 0.13495466 0.012157698 0.1283331
000060 0f 3f ed bd 18 76 40 3d 60 0e c1 bd c8 b9 f7 3c
       -0.11584293 0.046987623 -0.0942657 0.030239955
000070 fe 2c ce bc 2a ea 1c 3e a5 c3 db bd 00 f7 95 3d
       -0.025167938 0.15323702 -0.107306756 0.07322502
000080 9d cf ab bd 42 47 d8 bd f6 0b 17 be 8e bc 01 3e
       -0.083892085 -0.10560466 -0.14750656 0.12669584
000090 7d fb b9 3d 09 d1 b7 bb 9f 65 ff bd 93 52 f7 bd
       0.09081171 -0.0056096357 -0.124705546 -0.12076297
0000a0 fe ea d6 3d 10 8a 81 3d 80 38 24 be 8c 3f 0c 3e
       0.1049404 0.063251615 -0.16037178 0.13696116
0000b0 0d ca d2 bd c2 f8 0b 3e 3c 11 ec 3c 20 17 83 bd
       -0.102924444 0.13669112 0.028816812 -0.06400895
0000c0 bc 79 ce bd 65 fd 1a 3e 69 5b 1c 3d bb b7 05 be
       -0.10081813 0.15135725 0.038173113 -0.13058369
0000d0 e0 87 05 be 16 c5 1a 3e 9b c6 17 3e 5d 3d 97 3d
       -0.13040113 0.15114245 0.14821856 0.07384751
0000e0 54 e7 07 bc 63 d4 b2 3c 78 bc 11 3d 85 cc b2 bb
       -0.008294899 0.02182979 0.03558013 -0.0054565095
0000f0 f3 9f 73 3c 76 14 29 3d db 64 cb 3d 7f d1 29 3d
       0.014869678 0.04127928 0.09931346 0.041459557
000100 ad f5 69 bd f4 95 f1 bb 7f 6a a1 bd 4e 50 0a 3e
       -0.05711906 -0.007372612 -0.07881641 0.13507196
000110 3a 36 c8 bc 70 e2 f1 3d b9 ad 2e 3d 95 d6 db bd
       -0.02443992 0.11810768 0.042646144 -0.10734288
000120 70 59 f4 bd 32 8f e0 bd 24 3a 86 bd 9a c2 24 3c
       -0.11931121 -0.10964812 -0.06554058 0.010056162
000130 c9 f8 8a bc d1 eb 70 3d 41 2a 7b bd 5e 84 c4 bc
       -0.016964333 0.058818642 -0.061319593 -0.023988899
000140 22 a3 1f 3e b9 d4 0c 3e 29 73 47 be 36 ad b9 3d
       0.15589574 0.13753022 -0.19477524 0.090662405
000150 a5 0c f7 ba 43 b1 10 3e 81 a6 5a 3c 02 57 f0 bc
       -0.0018848373 0.1413012 0.013345362 -0.029338364
000160 c2 d9 b3 3d b9 8a 97 3d e4 58 a2 bc 9d 44 97 3d
       0.087817684 0.07399506 -0.019817777 0.07386134
000170 f2 65 f1 bd 2a 35 09 be 90 41 59 bd d9 a7 18 3e
       -0.11787023 -0.13399187 -0.05304104 0.14907779
000180 95 6e 9a b7 09 cf 5d 37 6a b6 e5 b6 81 b6 c5 37
       -1.8409724e-05 1.3220831e-05 -6.8459676e-06 2.3569215e-05
000190 df 25 9b 36 3c ea b5 36 1f 1e 21 b7 44 d6 1b 36
       4.6237687e-06 5.421489e-06 -9.603361e-06 2.3221519e-06
0001a0 0e 2f 21 b8 2a 84 d8 b1 e2 12 f0 b7 bb aa a9 b7
       -3.8429214e-05 -6.3014527e-09 -2.8619022e-05 -2.0225873e-05
0001b0 85 18 96 b7 b4 e7 e5 36 b0 2e 81 35 16 a3 55 b6
       -1.7892811e-05 6.8517056e-06 9.624837e-07 -3.1834402e-06
0001c0 08 2b 19 33 ca 5f 53 b7 48 21 01 b8 d5 02 78 37
       3.5662225e-08 -1.2598883e-05 -3.0786992e-05 1.4782611e-05
0001d0 c7 3c d0 b6 7d 67 a7 b7 89 84 3e 36 12 24 fb 35
       -6.2059585e-06 -1.9956142e-05 2.8389352e-06 1.8711455e-06
0001e0 ea b8 9b b6 74 c1 37 35 11 d4 6e b7 51 10 15 37
       -4.640887e-06 6.8454324e-07 -1.4235281e-05 8.884891e-06
0001f0 b6 01 0a b6 26 ab 2a b6 e6 73 12 36 c9 0b 90 b6
       -2.0564598e-06 -2.5431596e-06 2.1823157e-06 -4.2929064e-06
000200 a6 b6 0a be 5b 77 fc 3d 65 47 0a be 3d ef bb 3d
       -0.13546237 0.12327453 -0.13503797 0.091764905
000210 96 cc 61 bd b2 77 f2 3c 26 11 90 3d 57 47 02 3e
       -0.05512675 0.02959809 0.07034521 0.12722526
000220 9f 21 4f bd 1c 48 22 bd a5 b7 05 be 02 d0 d8 3b
       -0.050569173 -0.03961955 -0.13058336 0.0066165933
000230 27 6e d5 bd b1 de b8 3d 03 65 21 be 0d 4a 9b 3c
       -0.104214005 0.0902685 -0.15761189 0.018956209
000240 11 0c cc 3d f8 47 28 3d 96 fb ee bd 23 97 e6 3d
       0.09963239 0.04108426 -0.1166908 0.11259296
000250 97 33 ea 3d 6b 01 0d bd 6f 19 b5 3d c9 91 0a bd
       0.11435621 -0.03442518 0.08842742 -0.033830438
000260 39 09 01 3e cc 4c 58 bd 9b fd a0 bd b6 60 0e be
       0.12601174 -0.052807614 -0.078608714 -0.1390408
000270 72 ad c5 bd b2 b6 d5 3b df 13 07 be eb 0a 57 bd
       -0.09652223 0.006522023 -0.13191174 -0.052500647
000280 1e cd 2f be 27 56 c0 3d 25 f9 42 3d c4 a1 9b 3d
       -0.1716809 0.09391432 0.047600884 0.07599214
000290 cd 2c 49 3d 67 f0 70 bd 55 c1 71 3e ef 6c 2e 3e
       0.04911499 -0.058823016 0.23608907 0.17033742
0002a0 1c b8 84 3b 6b 11 94 3d 39 1a ad bd 90 88 07 bd
       0.004050268 0.07229885 -0.08452267 -0.03308922
0002b0 29 26 bc bc 6d 71 12 be 65 e2 57 bb ee 4f 59 3c
       -0.022967415 -0.14301081 -0.0032941338 0.013263686
0002c0 c3 a5 07 3e bf de 12 bd b6 61 b1 bb 01 fc 0f 3e
       0.13246827 -0.03585696 -0.0054132594 0.14060976
0002d0 41 86 b0 bd fc 33 a4 3d b0 7f 26 3e 71 32 b9 bd
       -0.08619357 0.08017728 0.16259646 -0.09042824
0002e0 02 a4 11 be 60 3e 79 3d 9e e7 28 3e c9 f0 eb bd
       -0.1422272 0.0608505 0.16494605 -0.115205355
0002f0 8a 95 d2 3d 27 99 cd bd 71 9d d3 bd b1 8e 44 3e
       0.102824286 -0.10038977 -0.10332764 0.19195057
000300 5e 1d 2a be 9b e3 f8 bd 55 b2 d0 3c 5c 4f 59 3e
       -0.16612765 -0.12152787 0.02547566 0.2122168
000310 3b 3c 0c bd 8d a7 2e be 17 55 16 3e 51 00 32 bd
       -0.034237128 -0.17056103 0.14680897 -0.043457333
000320 47 a3 9e 3d be 76 90 3d e0 2b d3 3d 1a 82 e3 3d
       0.077459864 0.07053898 0.10311103 0.11108799
000330 d0 fa 88 bb 2c 7f d4 3d 8e 8c 86 3d 96 45 4a 3e
       -0.00418029 0.103758186 0.065697774 0.19753107
000340 0f 9f 9c 3d b0 cf bd bd 4d b2 62 bb 6f 01 47 3c
       0.076475255 -0.09268129 -0.0034591139 0.012146338
000350 a7 e9 2b 3e 8b 4a c7 bd 15 f3 26 be ce 85 97 bc
       0.1678835 -0.09731015 -0.16303666 -0.01849642
000360 f4 a1 b5 3d 65 ad 7e 3c 6c 81 51 3e 74 a2 59 be
       0.08868781 0.01554427 0.20459527 -0.21253377
000370 bd 02 9f bd 85 98 41 3d ec 88 ab 3c ff 50 ff 3b
       -0.07764194 0.047264595 0.020939313 0.007791638
000380 17 75 07 3d ce c3 6a 3e e1 e7 f3 3d cc 07 b9 3b
       0.03307065 0.22926256 0.11909462 0.0056466814
000390 9a 9d 12 bd 39 97 e1 bd 0d c2 34 be 8d a2 ca 3c
       -0.03579483 -0.110151716 -0.1765215 0.024735713
0003a0 ca c7 cf bd 26 be fa 3d ea 16 9c 3c ae 84 f5 3d
       -0.101455286 0.12243299 0.019053895 0.11988197
0003b0 17 70 a9 bd e3 23 18 be f1 6c fa bc 59 cd d3 3c
       -0.082733326 -0.1485744 -0.030569525 0.025854753
0003c0 b7 62 be 3d d2 eb 2a 3d 26 69 3d bd 99 6c c8 3d
       0.09296172 0.041728802 -0.046242855 0.09786338
0003d0 e6 68 1c be 36 8e 4f 3d ce 63 27 3e 86 20 a1 bd
       -0.1527439 0.050672732 0.16346666 -0.078675315
0003e0 23 ba aa bd 7e 61 14 be 92 4a 3b 3b 9e 44 ac 3d
       -0.08336284 -0.14490315 0.0028578383 0.08411525
0003f0 b0 03 86 3d 9b 5e 0f bb cb 03 1f 3d c8 d4 8f 3d
       0.06543672 -0.0021876458 0.038821977 0.07023007

MLP.3.bias f4 [32]
000000 22 ad 08 3e 11 ba 2e 3e c8 d4 32 3e f9 40 18 ba
       0.13347295 0.17063166 0.17463982 -0.00058080215
000010 47 f4 2d bd 61 54 a7 bb f7 76 35 be 59 6a b0 3d
       -0.04246929 -0.0051064943 -0.17721163 0.08614034
000020 82 ec 7c 3d a9 78 e5 bd 61 70 bc 3d 2c ed a3 bd
       0.06174899 -0.11204655 0.09201122 -0.08004221
000030 42 ca 08 3e a4 7a b6 3c e0 fa c5 bd f0 5a 83 3d
       0.13358405 0.022275276 -0.09666991 0.06413829
000040 d7 46 66 3c 1f 6d 07 be 92 fd f2 3c cb b6 28 be
       0.0140549755 -0.1322522 0.029661927 -0.1647598
000050 0c 3a 11 bd d9 18 01 be 42 78 8e bd dc 5b 2c 3e
       -0.03545575 -0.12607135 -0.06956531 0.16831917
000060 59 24 ca bd b9 63 43 3d 8f 9f 28 bd 99 9f cd 3d
       -0.09870214 0.047702525 -0.041167792 0.100402065
000070 0c 89 cb 3d 84 02 3f 3d 0c d7 51 bd 19 0c a4 bd
       0.09938249 0.04663326 -0.051230475 -0.0801012

MLP.5.weight f4 [32, 32]
000000 c5 71 c8 bd be 0a 8a 3d ee 99 26 3d 9e 0a 46 b8
       -0.09787325 0.0674033 0.040674143 -4.7216767e-05
000010 5f 8f 12 be cb 76 4e 3d fa f5 61 bd 8f cb 16 3c
       -0.14312504 0.05040626 -0.055166222 0.009203806
000020 3a 70 3f bc b7 5e 30 bd 22 dd 20 3e 54 3d 9a bc
       -0.011684472 -0.043059077 0.15709355 -0.018828072
000030 2a 70 33 be 12 72 cb bd 0d a5 05 3e 7d 6b 8b 3d
       -0.17523256 -0.099338666 0.13051243 0.06807611
000040 36 04 13 3e 6f 72 9a bc 83 b0 38 3d 65 08 91 3d
       0.14357075 -0.018853394 0.04509021 0.07081679
000050 34 c6 e4 3d ba 42 e7 bb b8 16 b0 bd c3 77 25 be
       0.11170617 -0.007057515 -0.08598083 -0.16158967
000060 93 47 ba bd 56 f1 3c 3d ae 15 b0 3c bf 49 34 3d
       -0.09095683 0.046128593 0.021494713 0.044015642
000070 f4 61 b1 bc 5b 29 37 bd 64 b5 6f bd 82 23 ea 3d
       -0.021653153 -0.044717174 -0.058522597 0.11432554
000080 e4 1e aa bd 43 d9 17 be 90 2f 15 3e 76 0e 49 b9
       -0.08306673 -0.14828973 0.14568925 -0.00019174241
000090 02 9c 05 3e 5d 4b b5 3d 87 e3 06 bd 10 d0 f9 3d
       0.13047794 0.08852265 -0.03293183 0.12197888
0000a0 3a 8d 40 3c 8a 29 f0 bd 3d ce 49 bd c1 64 ac bd
       0.011752421 -0.11726673 -0.04926895 -0.08417655
0000b0 71 dc aa 3d 67 94 35 3d 7f f6 b0 3d 6f c7 c6 3d
       0.08342827 0.04433098 0.086407654 0.09706008
0000c0 e2 9b 10 3e 66 24 1e 3d 9b 67 1b be b5 90 69 3c
       0.14121965 0.03860893 -0.15176241 0.014255692
0000d0 21 44 1f be 98 44 99 bc 1f 64 95 3c 64 b7 5a 3d
       -0.15553333 -0.018709466 0.018236218 0.05339755
0000e0 9a 05 06 be e9 7c b8 bd 72 73 8a bc b5 fb a3 bd
       -0.13088074 -0.090082 -0.016900752 -0.08006994
0000f0 05 b4 c2 3d 62 5f 10 be b5 d2 90 3d 53 0f b2 3d
       0.09506992 -0.14098886 0.07071439 0.08694329
000100 da e1 1a 3e 4e 15 a3 3d 9a fd f7 3c 32 64 ec 35
       0.15125218 0.07963048 0.030272294 1.7612531e-06
000110 1e 67 08 3e fc f2 ec bd 81 bb fb bd 66 da 9d 3d
       0.13320586 -0.11569783 -0.12291623 0.07707672
000120 e2 f8 0a bc f4 86 40 bc 2f 92 24 be 80 22 2b 3c
       -0.00848219 -0.011750925 -0.1607139 0.010445237
000130 9b 4c ce 3d ff f6 9c 3d 5a a9 d6 3d 9b ec 14 be
       0.10073205 0.07664298 0.1048152 -0.14543383
000140 b9 aa eb bc da d0 96 bd ad b2 34 3d b4 ad e5 3b
       -0.02876793 -0.07364054 0.04411571 0.0070092324
000150 0b ea 0a bd 65 45 c3 3b 55 db f0 bc 99 c0 da 3d
       -0.033914607 0.0059592 -0.02940146 0.10681266
000160 74 86 06 3d d0 43 97 bd 8d bf 0d 3e d8 63 5a bd
       0.03284307 -0.07385981 0.13842602 -0.053317875
000170 5c ae 9a 3d 48 e3 cc 3d d9 3c 36 bd 3e ed e5 3d
       0.07552788 0.10004288 -0.044491623 0.11226891
000180 40 07 88 3d eb 57 48 3d ad 73 2a be ab 4f c9 36
       0.06642008 0.04891197 -0.1664569 5.9995414e-06
000190 fb fc 4a be f9 30 92 3b 5d cb 88 3e e2 3b 08 be
       -0.19823067 0.0044614044 0.26717654 -0.13304093
0001a0 92 39 28 bd 6f 83 e4 bd a5 e0 85 3d b7 03 09 bd
       -0.04107053 -0.111578815 0.06536988 -0.03345081
0001b0 36 8d 7c bd 00 3a be 3c 1e 3c a3 bb d7 b0 b2 3d
       -0.061658107 0.023221016 -0.0049815318 0.08725136
0001c0 06 b7 13 3c a7 be 01 3e be a3 80 3d 83 ce 15 bd
       0.009015804 0.12670384 0.06281231 -0.036573898
0001d0 c1 96 68 3d 46 f1 8b 3c db 6e 9b 3d 13 39 1a 3e
       0.056784395 0.017082822 0.075895034 0.15060835
0001e0 83 dc fe 3c 96 6e f0 3d 5c b1 27 bd 0b dc 79 3d
       0.031111008 0.117398426 -0.040940627 0.061000865
0001f0 4f 28 54 3d 04 fa de 3d f1 7f aa bd b7 1c c6 bd
       0.051796254 0.108875304 -0.08325184 -0.09673446
000200 67 c3 25 3d 84 64 68 bd f3 77 68 bd 7b a3 cd 36
       0.040469553 -0.056736484 -0.056755017 6.1285077e-06
000210 c1 71 25 3d e3 7c 1a be 05 07 04 be 04 cf ca bd
       0.040391687 -0.15086703 -0.12893303 -0.09902766
000220 47 8e 9f 3d d7 c9 4b 3e 2f 4e ba 3b ac cf 50 bd
       0.07790809 0.19901215 0.0056855897 -0.0509793
000230 c7 e0 82 bd c0 d4 e8 3d ae e8 6c bd e6 55 46 3d
       -0.06390529 0.11368704 -0.05783909 0.048421763
000240 9b 6f c9 bd 38 2b b5 3d 3a 3a 8a be 13 9b d0 3b
       -0.0983574 0.08846134 -0.26997548 0.0063661425
000250 4f 69 ca bd fb 9f 81 ba 9b 70 85 bc b4 b2 91 bd
       -0.09883367 -0.0009889597 -0.016289046 -0.07114163
000260 b0 14 07 be 38 54 21 bd 23 d4 8b 3d ef 8f d3 bd
       -0.13191485 -0.039386958 0.06827571 -0.103301875
000270 e5 a7 14 be 22 4f a6 be 41 ee ce 3c aa f0 3e 3e
       -0.14517172 -0.3248225 0.025260093 0.18646494
000280 21 e9 fe bc 3d 2d 39 3c a7 3c f0 bd d1 4e c2 b3
       -0.031117024 0.01130229 -0.117303185 -9.0481656e-08
000290 3c 5e 61 3c 6f 20 0e 3e af c8 5e 3d 94 a7 40 bd
       0.013755377 0.1387956 0.054390606 -0.047034815
0002a0 9f 90 94 bd 1a f7 79 bd 5a 19 1d bd 52 71 cf 3c
       -0.07254147 -0.06102667 -0.038354255 0.02532259
0002b0 91 58 c6 3d 55 a9 0d 3d 36 dc 13 bc ca 49 e1 3c
       0.096848615 0.034585316 -0.00902467 0.027501006
0002c0 5b a4 80 3d 3d 0f e7 3d d2 f7 e2 bd de 22 80 bc
       0.06281348 0.11282203 -0.11082424 -0.015641626
0002d0 1f 62 a6 bd 23 15 c5 3c 1b 06 36 bb c5 e3 14 bd
       -0.08124184 0.02405793 -0.0027774635 -0.03635003
0002e0 82 a3 48 3d e3 41 a1 bd 80 b1 73 3d 00 c2 92 bd
       0.04898406 -0.07873895 0.05949545 -0.07165909
0002f0 2a 7c f4 bd 0e c5 9a 3d e2 07 c5 3c dd cc be 3d
       -0.11937745 0.075571164 0.02405161 0.09316418
000300 de b6 5a 3d e6 b4 eb 3d 25 a1 cf bd cb e4 05 38
       0.053397052 0.11509113 -0.10138158 3.192275e-05
000310 6a c5 65 bd 94 74 5c bd 2a dd 2d 3e 52 15 16 bc
       -0.05609647 -0.053822115 0.16978899 -0.009160357
000320 03 ae 47 bc 1c b5 1a 3e e5 d7 e3 3d f4 71 e3 bd
       -0.012187484 0.1510815 0.11125163 -0.11105719
000330 8a 00 94 bd 62 ad 02 be 71 5c b3 3d 9f 6d 48 3d
       -0.07226665 -0.12761453 0.08757866 0.048932668
000340 4f e4 0e be 00 4e 9a bc d8 f2 c7 bd da a4 3c 3e
       -0.1395428 -0.018836021 -0.09763116 0.18422261
000350 9c ba df bc d6 21 71 bc 1f 08 30 3d b2 dc 63 3c
       -0.027310662 -0.01471754 0.042976495 0.013907598
000360 b4 c3 04 be ac e8 1a 3e 34 54 7d 3d 1c 73 52 bd
       -0.1296528 0.1512782 0.06184788 -0.051379308
000370 fa 9f dc bd 8b 4b b6 bd 5e a9 e9 bd ca be c2 bd
       -0.107727006 -0.089011274 -0.11409257 -0.095090464
000380 88 c8 ce 3c 7c 34 ee bd d4 d4 18 3d a0 f9 b0 36
       0.025242105 -0.11631104 0.037312344 5.274269e-06
000390 19 a8 96 3c 8b b0 7c 3d 43 43 48 bd ef d4 d3 3c
       0.018390702 0.061691802 -0.04889227 0.02585837
0003a0 f1 43 08 bd b5 e2 c4 bc 99 ff 2a 3d fc 46 3b bd
       -0.03326792 -0.024033884 0.041747663 -0.045721993
0003b0 10 6e f9 bc e7 16 4e bd 16 7e 1f bd a9 54 5d bd
       -0.03044799 -0.05031481 -0.038938604 -0.054035816
0003c0 5e a4 07 be a6 09 54 3e 3c ed 30 bd 6a 71 51 3d
       -0.13246295 0.20706806 -0.043194994 0.05113355
0003d0 a5 30 66 3d 44 a6 96 3c 4e 5b 2b 3d a2 76 42 bc
       0.056198735 0.018389829 0.04183512 -0.011869105
0003e0 d7 00 cc bd 18 97 4d b9 85 3e 90 3d 53 20 96 3d
       -0.09961098 -0.0001960661 0.07043175 0.07330384
0003f0 70 2c 17 3c fc e1 d2 3c f4 0b 8f bc 96 54 bc 3c
       0.009226903 0.025742523 -0.017461754 0.022989552

MLP.5.bias f4 [32]
000000 73 dc 50 bd f5 36 e0 3c 6a cc 2b bc 88 87 a7 bc
       -0.050991487 0.027369956 -0.010485748 -0.020450369
000010 81 a8 c1 bd 58 60 3b bb 87 3f 6f bd 6e 83 55 3c
       -0.09455968 -0.002859136 -0.058410194 0.013031824
000020 7b c5 f7 3c e1 31 26 3d 68 cb c1 3d b8 af e2 3c
       0.030245533 0.040574912 0.09462625 0.02767168
000030 d4 90 ca 3c f8 1e fc 3d 51 08 0f 3d 6d 17 e0 bd
       0.024727263 0.12310594 0.03492004 -0.10941968
000040 de 64 1a be 41 c4 c8 3d da 37 11 3d bf 2b a7 b9
       -0.1507754 0.098030575 0.035453655 -0.00031885316
000050 be 62 24 bd 6e 6d 17 3d 07 be 14 be b9 b7 11 3c
       -0.04013323 0.036969595 -0.14525615 0.008893901
000060 24 f7 8f bd 2f 82 c1 bd f8 86 fc 3d 84 ee 0a be
       -0.0702956 -0.09448659 0.12330431 -0.13567549
000070 c9 93 c2 bd 5f 0b 67 3d 45 94 74 bd 3e 4f 15 bc
       -0.09500844 0.05640733 -0.059711713 -0.009113131

MLP.6.weight f4 [32]
000000 77 95 57 3f 40 f6 38 3f 9f e1 34 3f ff 2d 37 3f
       0.8421244 0.7225075 0.7065677 0.7155456
000010 4a e7 51 3f a3 92 e2 3e 64 0d 37 3f 33 ef 12 3f
       0.81993544 0.442525 0.7150481 0.5739624
000020 ea 58 4d 3f ad ec 4f 3f 54 1b 28 3f 18 29 58 3f
       0.802138 0.81220514 0.656667 0.84437704
000030 8b fb 48 3f 67 98 48 3f f5 74 3b 3f db b4 54 3f
       0.78508824 0.7835755 0.7322534 0.83088464
000040 7a e7 39 3f d2 cc 5d 3f cb 7c 3a 3f d4 d7 18 3f
       0.7261883 0.86640656 0.7284667 0.5970433
000050 20 f2 31 3f 6b 81 57 3f dd 8b 56 3f e8 eb 49 3f
       0.6951008 0.8418185 0.83807164 0.7887559
000060 47 9a 3b 3f fc 17 58 3f 0d 76 4c 3f 2b f1 44 3f
       0.73282284 0.844116 0.7986763 0.76930493
000070 78 3d 4c 3f e7 b1 58 3f 28 9a 19 3f 89 f6 4e 3f
       0.79781294 0.8464646 0.6000085 0.8084493

MLP.6.bias f4 [32]
000000 6a 64 10 3c aa ca fc 3b 36 fc 0d bc 95 7e 13 bc
       0.008813003 0.007714589 -0.008666089 -0.0090023475
000010 92 f8 1f bd 79 2b ac 3a 11 29 32 bb ab 77 e2 bb
       -0.039055414 0.0013135514 -0.0027185122 -0.006911238
000020 06 e3 5e 3b 3d 8e dc bc 01 3f e7 b9 3e 29 e0 39
       0.0034009828 -0.026923293 -0.00044106695 0.00042755337
000030 f7 5c 4f 3d 32 a4 f6 3c a5 7c 3f 3d 90 89 0b 3c
       0.050625768 0.030107591 0.04674973 0.008516684
000040 65 54 00 bd 03 e6 e3 bc a8 53 13 39 f0 46 97 3c
       -0.031330485 -0.02781964 0.00014050177 0.018466443
000050 5c a9 10 bc 1e 52 8b bc af f8 13 3c 0c 0d 3b 3c
       -0.008829441 -0.01700693 0.009031459 0.011416685
000060 72 37 be bb 15 c9 17 bc dc 15 81 bb e4 88 84 3b
       -0.0058049494 -0.00926425 -0.0039393734 0.004044639
000070 72 76 9f 3c e9 74 09 bc a6 8d 20 bb 8d e1 ca 3a
       0.019465659 -0.00838969 -0.0024498492 0.0015478596

MLP.8.weight f4 [32, 32]
000000 ba 14 85 bd c8 ea 25 bd 08 80 67 3c 6e 58 cd 3d
       -0.06498094 -0.040507108 0.014129646 0.10026632
000010 0b f5 65 3d 38 d2 18 3d 70 73 d4 bd 72 80 15 3e
       0.056141894 0.037309855 -0.103735805 0.14599779
000020 63 f6 ec 3d 8a 42 13 bd 4c 5c da bc e4 62 00 3e
       0.11570432 -0.03595213 -0.026655339 0.12537724
000030 9f 72 cb bc 63 da dc bd a6 8c 20 3e 1b 2d ef 3d
       -0.024834929 -0.107838415 0.15678653 0.11678525
000040 03 2a 33 be 79 c4 9c 3d bd 5d af bd bd 79 b2 3b
       -0.17496495 0.07654662 -0.08562801 0.0054466412
000050 0e 4d ce bd 56 cd 4d bd 8b cf 07 3e 19 37 96 bd
       -0.10073291 -0.05024465 0.13262765 -0.07334728
000060 9e d1 22 3d 2b dc aa bd 75 dd 56 bc d6 0f 23 3d
       0.039750688 -0.08342775 -0.013114323 0.039810024
000070 dc b8 85 bd 93 ce 07 3d 41 8a fa 3d fc 27 c9 3d
       -0.065294 0.03315599 0.12233401 0.098220795
000080 2f b5 a6 3c 4c cb 23 bd 86 62 dd 3d 29 15 1e bd
       0.020350067 -0.0399888 0.108098075 -0.0385944
000090 2b 81 39 bd 6c fa 1f 3e 30 f4 ed 3d f7 c1 14 bc
       -0.0452892 0.15622872 0.11618841 -0.009079448
0000a0 06 4a ab 3d 35 56 c1 bd 6c 19 c5 bd f5 e5 8b bc
       0.08363728 -0.09440271 -0.096239895 -0.017077425
0000b0 54 f5 d2 3d 05 83 bf 3d 7b 16 98 3d aa 00 39 3e
       0.10300699 0.09351162 0.07426163 0.1806666
0000c0 86 58 b6 bd 5e 15 06 be 26 8f ca 3d 4f 48 93 3d
       -0.08903603 -0.13094088 0.09890585 0.07191526
0000d0 f4 b3 cf 3d c0 46 05 3e ca c5 3b be 9f 4a 44 3d
       0.10141745 0.1301527 -0.1833717 0.047922727
0000e0 8f 09 27 bd 8a 58 d9 bd 17 c2 0e be 08 a9 55 3e
       -0.0407806 -0.106125906 -0.13941227 0.20865262
0000f0 dc 3a 90 3d 7a 15 34 be c7 97 f6 bd 56 a1 76 3b
       0.070424765 -0.17586318 -0.12040668 0.0037632785
000100 c5 fa d2 bd 7c 22 94 bd 13 ae a5 bd ed ad 17 be
       -0.10301737 -0.0723314 -0.08089843 -0.14812441
000110 b6 11 1a be 6f 5b 09 be 1f 45 3a 3e 9b 85 09 be
       -0.15045819 -0.13413785 0.1819043 -0.13429873
000120 0c 77 1a 3d f3 2c 02 3c f1 49 2a be d3 c2 e5 3d
       0.03771119 0.007945287 -0.16629769 0.112188004
000130 b6 f7 ad 3d 81 48 f4 3d 88 fd 8d 3d c7 1c 0e be
       0.08494513 0.119278915 0.06933123 -0.13878165
000140 38 e8 fa 3c d6 98 10 be 5b 17 0b 3e 84 57 df bd
       0.030628309 -0.14120802 0.13583128 -0.10905364
000150 4e 7a a9 bd f7 79 45 3e 2e 75 8c bc aa 3b 48 3d
       -0.08275281 0.19284807 -0.01714572 0.048885025
000160 6b 93 0c bd 12 b4 17 bc 4d af 21 be ec b0 11 be
       -0.034320276 -0.009259241 -0.15789528 -0.14227647
000170 72 2c bf 3d 84 b8 09 be 1b f1 01 bd dd 4d 8a bd
       0.09334649 -0.13449293 -0.031724077 -0.067531325
000180 1a bb d3 3d b3 08 7a bd db f6 17 3e 14 0c 94 3c
       0.10338421 -0.061043452 0.14840262 0.018072166
000190 cb 34 81 3d ba e2 7e bd e1 f8 55 3e 57 21 04 3d
       0.063088976 -0.062227942 0.20895721 0.032258358
0001a0 2d 06 ce bd bc d2 0c be e0 4f c9 bd d7 06 45 3d
       -0.10059772 -0.13752264 -0.09829688 0.048102226
0001b0 a5 ae 9e bd de e8 e1 bd 7c 15 e2 bd a4 09 77 3d
       -0.077481546 -0.11030744 -0.11039254 0.06031193
0001c0 ed a4 03 3e 03 01 2b 3e 11 39 77 bd 4f 9a 70 3c
       0.12855883 0.16699605 -0.060357157 0.014685228
0001d0 d1 0b f6 3c f7 3f 38 be 7f f9 90 3d 5d 5a 91 3d
       0.030034931 -0.1799315 0.070788376 0.070973136
0001e0 1b 1f ba 3b e7 84 0a be 76 b4 ca bc 52 45 be 3c
       0.0056799776 -0.1352726 -0.024744254 0.023226414
0001f0 9d d6 86 3d e0 3c 97 bb c7 fa 06 bd 2d df a1 bd
       0.06583903 -0.004615411 -0.032954004 -0.079038955
000200 4c 23 3a 3d 54 87 60 bd be b9 a5 bc ff a4 19 3d
       0.045443818 -0.05481656 -0.02023017 0.03751087
000210 36 9c b9 bd 34 16 b0 bb 74 0a 0d 3d bc 20 c5 bd
       -0.09062998 -0.0053737406 0.034433797 -0.09625384
000220 96 c8 ba bd 3a b3 5f 3b 71 91 14 bb c3 eb bb 3d
       -0.0912029 0.0034133927 -0.0022669698 0.09175827
000230 8f 06 04 3e 8a 05 dc bd a9 2c 05 3e 82 8c 71 bc
       0.12893127 -0.10743244 0.13005318 -0.014742972
000240 74 1a c1 3d 08 70 0e 3e f6 1d 94 3d 5b 41 8b bd
       0.09428874 0.13909924 0.07232277 -0.06799575
000250 7b 1e d6 3d f4 e4 78 3d b3 26 87 3d 11 95 32 be
       0.104550324 0.06076522 0.06599178 -0.17439677
000260 73 4f c2 3d d7 98 aa 3d c1 43 50 bc a6 70 f3 bd
       0.0948781 0.08329933 -0.012711466 -0.1188672
000270 26 4c 68 bd ce eb 3b bd a1 48 c4 bc 9c 3e de bc
       -0.056713246 -0.045879178 -0.023960413 -0.027129464
000280 16 3c 1d 3e 37 83 81 3d 64 8f 41 bd 59 e3 1f be
       0.15354952 0.06323855 -0.04725589 -0.1561407
000290 97 55 d8 bd 2c f1 94 bd ca fe bc 3d 8f 76 4d bd
       -0.105632 -0.072725624 0.09228285 -0.050161894
0002a0 8f 06 09 be 6f de b3 bd 6b 92 10 be 6b 00 68 3d
       -0.13381408 -0.0878266 -0.14118354 0.056641024
0002b0 41 89 1f 3e c0 d0 0f 3e c5 57 20 3c ff a9 5e bc
       0.15579702 0.14044476 0.009786551 -0.013590335
0002c0 3b 57 56 bd d3 6f 0e 3e 53 8e 95 3d 2c b2 a3 3d
       -0.052329283 0.13909845 0.07302537 0.07992968
0002d0 14 8f fb 3d 49 ee 1b 3e fa a7 e4 3d 93 56 25 be
       0.12283149 0.15227617 0.111648515 -0.16146307
0002e0 af 00 f7 bd 3d d3 d6 3d 39 1e 5f 3d 49 71 8d bd
       -0.12060677 0.10489509 0.054472182 -0.06906373
0002f0 10 4d 20 3e 73 d4 ac bd 8c e2 02 bd 9c 07 2a 3e
       0.15654397 -0.08438959 -0.031954333 0.16604465
000300 55 99 f5 3d b7 28 92 3a b0 64 ae bd dc aa 97 bc
       0.119921364 0.001115105 -0.08515298 -0.01851409
000310 cf 85 1a be 25 61 c9 bd 6a 82 19 be 61 ca c8 bd
       -0.15090106 -0.09832982 -0.14991155 -0.09804226
000320 4f 3c 8b 3d 11 0f c8 bd ff 9a 7d 3d 0e 16 38 be
       0.06798612 -0.09768499 0.061915394 -0.17977163
000330 a0 b2 ce 3b 33 4a 46 bd e3 ce 99 bd 94 39 fc 3d
       0.006307915 -0.048410606 -0.07510164 0.1231567
000340 e8 96 c2 bd 8a c2 06 3e 73 48 1d 3e 3c 39 0e bd
       -0.09501439 0.13160148 0.15359668 -0.03472255
000350 8f 36 20 be 22 92 ba 3d b6 69 ee bc 94 f0 33 3b
       -0.15645812 0.09109904 -0.029103141 0.0027456628
000360 cf 0c 3e bd 37 6f 1e be 59 38 13 bc d6 91 e7 3d
       -0.046398934 -0.15472113 -0.008985602 0.11307113
000370 84 f4 2c bc 3e a8 13 3d 28 62 36 be 6a f5 20 3e
       -0.010556344 0.03604912 -0.17810881 0.15718618
000380 81 11 ad bd b1 26 c6 3d bf 6a f2 3d a3 8d 83 bd
       -0.08450604 0.096753486 0.118367665 -0.064234994
000390 dc 4a 9e 3d 3e 0e 06 bd a8 dc 04 be 0c 6d 47 bd
       0.07729122 -0.032728426 -0.12974799 -0.04868798
0003a0 b8 cd b1 3c 0e 2a 16 be 8c 87 f3 bd 40 80 08 be
       0.02170454 -0.1466448 -0.11891088 -0.13330173
0003b0 58 07 0e 3e 58 38 19 3d 13 13 22 3e e4 37 2c be
       0.13869989 0.03740725 0.15827589 -0.16818196
0003c0 25 73 4d 3d 94 ad c9 3d c4 40 04 bd 30 c6 4b 3d
       0.05015864 0.098475605 -0.032288328 0.049749553
0003d0 60 8e 01 3e 9a 8c 82 bd 91 3f 4f 3e 1d 1f 53 3d
       0.12651968 -0.06374474 0.20239092 0.051543344
0003e0 b7 cd ef bd a7 67 4f bd 2d 6a 25 3d 90 8b 28 3c
       -0.11709159 -0.05063596 0.04038446 0.010287181
0003f0 11 0a ae bd d0 b1 0c be 5d 86 00 bc dd f7 f5 3b
       -0.08498014 -0.13739705 -0.007844535 0.0075063542

MLP.8.bias f4 [32]
000000 45 fc 22 be 08 cb db 3d d4 41 1e 3e de b9 9a 3c
       -0.15916546 0.107320845 0.15454799 0.018887457
000010 56 3e 15 3d 9b 3a 3c 3c 7f a1 ec 3d 11 53 9a bc
       0.0364364 0.011488582 0.115542404 -0.018838437
000020 13 91 bd 3c 55 75 0f 3d e8 75 bf bd 16 a3 01 3e
       0.023140466 0.035024006 -0.09348661 0.12659869
000030 78 68 1d bd ff 94 ec bc ec 8d ed 3d 3c b9 db bd
       -0.038429707 -0.02887964 0.11599335 -0.1072869
000040 6f a8 f4 bd eb 85 de bd 78 e5 81 3d 38 c9 ca bc
       -0.11946189 -0.108653866 0.06342596 -0.024754152
000050 a1 61 ed 3c 53 f7 ce bc ac 63 c8 3b 37 d7 1d 3e
       0.028977217 -0.025264418 0.0061153974 0.15414129
000060 22 df 96 3d d9 a8 19 bc 23 f3 23 3d 4b aa 39 3d
       0.07366778 -0.009378635 0.040026795 0.04532842
000070 af 36 f1 bc 21 e1 34 3d d1 3f b8 bd d8 cc a0 3d
       -0.02944502 0.044160012 -0.08996547 0.07851571

MLP.10.weight f4 [32, 32]
000000 23 9e 36 bd f5 af 08 3c 6b 13 79 3d 8a 11 04 3e
       -0.044584405 0.008342733 0.060809534 0.12897316
000010 2a fc e5 3d b7 3a 67 bd 66 83 39 bd 73 fc 1f 3e
       0.11229737 -0.05645248 -0.045291327 0.15623645
000020 28 ed 60 bd 16 03 f5 3c 17 57 db bd fa 3b 25 3d
       -0.05491367 0.029908698 -0.107099704 0.0403404
000030 c5 3e b0 bd a6 f6 85 bd 91 cc 9f bd 8b f6 bb 3c
       -0.08605722 -0.06541185 -0.0780269 0.02294471
000040 39 c0 10 bc ef a7 67 bb 6b 2a 6e bd 9a 36 ac 3d
       -0.008834892 -0.00353479 -0.05814592 0.08408852
000050 98 82 ed 3d 25 9b 94 bd ff 02 6e 3d 25 72 02 be
       0.115971744 -0.07256154 0.058108326 -0.12738855
000060 f4 f1 07 3e c9 39 25 bc 18 5d 32 3e 0d b5 c8 3d
       0.13275892 -0.010084578 0.17418325 0.09800158
000070 3b 3e d5 3b 2a 8c 22 3d 2c 4e 7d 3d db f1 d3 bc
       0.0065076626 0.039684452 0.06184213 -0.025872162
000080 3d 8c b5 3c 27 8b 27 be d8 68 b7 3d 5a 6a 24 3c
       0.022161597 -0.16361676 0.08955544 0.010035122
000090 2c 70 ed 3b d7 8a 95 3d 27 fe ea 3d 20 a1 ec bd
       0.007246038 0.07301872 0.11474257 -0.1155417
0000a0 d5 9a 61 bd c9 46 5b bd 29 2c 95 3d 94 a9 ef 3d
       -0.0550793 -0.053534303 0.072838135 0.11702266
0000b0 2e bc ef 3d 71 cd 0f 3e ad 8d 0e 3e 79 90 a3 bd
       0.11705814 0.14043213 0.13921233 -0.0798654
0000c0 61 56 49 bc 1b f5 1f 3a 84 75 b3 ba dd b2 5f 3d
       -0.012288661 0.0006101892 -0.0013691639 0.054613937
0000d0 b9 b4 e2 bb 55 47 3d 3d 01 0f 0b 3d f9 94 0b be
       -0.0069185165 0.046210606 0.033949856 -0.13631047
0000e0 2a 25 c5 3d 3b 58 6d 3d c7 cb 29 bd e4 70 a3 3d
       0.09626229 0.05794547 -0.041454103 0.079805166
0000f0 54 20 19 3d ff 92 d9 3d 47 16 ba 3c 57 51 91 bd
       0.037384346 0.106237404 0.0227157 -0.070955925
000100 c3 e3 20 be c9 65 e1 bb ad 0a 40 be 02 fe 06 be
       -0.15711884 -0.006878589 -0.18754072 -0.13182834
000110 5a fd 0e bc 90 82 e9 bb d4 49 72 3b b7 70 1f be
       -0.008727396 -0.00712616 0.0036970275 -0.15570341
000120 4c 7b 46 bd 97 bd 0b 3e d1 aa d3 3d 74 a3 e5 3d
       -0.04845743 0.13646542 0.10335315 0.11212817
000130 10 8a de 3d 0d 9f 88 3c 0c 9f 2b 3d e5 ea 23 3e
       0.10866177 0.016677404 0.041899726 0.16007574
000140 30 2b a1 bc 4d 38 81 bd fb 02 03 be 43 fb a3 bd
       -0.019673914 -0.06309567 -0.12794106 -0.08006909
000150 87 c6 6e 3d 9e 80 d8 3d 44 d1 f1 bd 74 44 65 3e
       0.0582948 0.10571407 -0.118074924 0.22389394
000160 e9 6c 37 bd 83 15 c4 bd 0f da b0 bd 99 a8 6c 3d
       -0.0447816 -0.095744155 -0.086353414 0.057777975
000170 71 3d ab bd 9a db a0 bd fa 88 1c 3d 3a d2 bc 3d
       -0.083613284 -0.07854386 0.03821657 0.09219785
000180 79 25 f9 ba a8 2f b7 bd f3 17 a8 3d cc 36 5a bc
       -0.001900836 -0.089446366 0.08207693 -0.013318729
000190 7b a0 12 be 87 99 d7 bd 44 12 75 bc 5d 29 a2 bd
       -0.14319031 -0.1052733 -0.014957968 -0.07918046
0001a0 b8 37 0a bd 7f 7c 28 be 6d 00 3f bd d3 b8 17 3d
       -0.033744544 -0.16453741 -0.046631265 0.037041496
0001b0 71 7c cc 3d 5a b1 90 bd ca 21 72 bd bf 46 8c bd
       0.09984673 -0.07065077 -0.059114255 -0.06849431
0001c0 eb 15 72 bc bc 01 92 bd 3d f6 28 bc 94 79 02 bc
       -0.014775733 -0.07129237 -0.010312614 -0.007963557
0001d0 24 b8 4a bc 47 70 84 3d 0d 9d fb 3d 69 3e 8d 3d
       -0.012373004 0.06466728 0.122858144 0.068966694
0001e0 8c 22 81 bd 19 7a f4 3b e0 fe db 3d 61 c8 13 be
       -0.063054174 0.0074608442 0.10741973 -0.14431907
0001f0 2e be e9 3d b0 33 e2 bc 13 be b1 3d 33 8b d5 bd
       0.11413227 -0.027612537 0.08678832 -0.10426941
000200 42 a2 45 3d f6 f7 1c 3d 2c 4f 14 3d 1f f6 76 bd
       0.048250444 0.03832241 0.036208317 -0.060293313
000210 6e ad 24 3d 3f 5c e2 bd 74 6c 62 bb 74 e8 d0 3d
       0.040204458 -0.11052751 -0.0034549506 0.10200587
000220 1a 76 b8 3b 18 d6 f0 bd 2c 23 0c 3e 36 a6 08 be
       0.005629313 -0.11759585 0.13685292 -0.13344654
000230 55 8d 1d be 62 68 c3 3d 5d 08 69 bd ee dd 57 bd
       -0.15385945 0.09541394 -0.05689274 -0.052701883
000240 f8 24 a3 3c c8 9c a0 3c 3a 8c a5 bd 80 3a b8 3c
       0.019915089 0.01960601 -0.08083387 0.022488832
000250 82 2c e3 bd 5d a7 56 3d 4a 61 0f be f3 e9 c5 bd
       -0.110924736 0.052405704 -0.14001957 -0.09663763
000260 c4 49 15 be f1 6e 7b bd 0f 42 eb 3d e2 cb 80 3d
       -0.1457892 -0.0613851 0.11487209 0.062888876
000270 df bd 84 3c b7 ab cc bd 06 3a 4e bd 84 91 18 3e
       0.016203819 -0.099936895 -0.050348304 0.1489926
000280 6a b0 15 be e1 d2 91 3d b1 a8 e1 3d 5b f3 21 3d
       -0.14618078 0.071203 0.110185035 0.039538722
000290 97 6c 04 be 44 3f 11 3e 12 f3 73 3d f6 b6 9a 3d
       -0.12932049 0.1418429 0.05955798 0.07554428
0002a0 9f c3 07 bd 1a d5 06 3c 1d 75 8b bd 23 f1 2b 3e
       -0.033145543 0.008229518 -0.06809447 0.16791205
0002b0 86 1d cf 3d 4f f2 41 3d b2 71 a4 bd b7 ab c8 bc
       0.10113053 0.047350224 -0.08029498 -0.024495943
0002c0 d0 9f 99 bd e1 e6 6f bd 3e e4 7c 3d c3 31 fe bd
       -0.07501185 -0.058569793 0.061741106 -0.12411835
0002d0 39 c2 83 bd 2c 93 0e bd 45 1a a2 bd 15 5c b2 3c
       -0.064335294 -0.034808323 -0.07915167 0.021772424
0002e0 68 fd e2 ba 79 69 71 bd 9b 5b 88 bb a7 33 71 3d
       -0.0017317953 -0.058938477 -0.004161311 0.05888715
0002f0 23 0f 05 3e 55 86 87 bc b9 67 51 3d 60 57 15 be
       0.12994055 -0.016543547 0.05112431 -0.14584112
000300 6a 43 c3 3d fd ed 27 3d 85 3e 0b bd b6 09 9f bd
       0.095343426 0.040998448 -0.03399517 -0.07765524
000310 2f f2 21 3d 4e 57 b1 bd 92 4d db bd 8b 54 e3 3d
       0.039537605 -0.0865923 -0.10708155 0.1110011
000320 e6 66 fe bc 12 3d ba bd 02 0c a4 bc 11 f3 43 bc
       -0.031054925 -0.090936795 -0.020025257 -0.011959807
000330 d9 7e 10 3e 6a 38 f6 3d cf aa 28 bb bf e8 20 3e
       0.14110889 0.12022479 -0.0025736575 0.15713786
000340 0f a0 c8 bd e4 d5 5c bd bd b5 20 3d 17 1d fd bd
       -0.09796154 -0.05391492 0.03923582 -0.12359064
000350 ad cf d3 bd bf 6e 8b 3c 03 96 26 3e e2 36 8d 3d
       -0.103423454 0.017020581 0.16268162 0.06895234
000360 5f e6 c3 3c b5 1f 50 bd 63 4b 4f 3c d1 62 06 3e
       0.02391356 -0.05081149 0.012652251 0.13123633
000370 7a 6d 44 be 9e 34 6a 3d 6e 7b 73 3d 1a 19 ee 3c
       -0.19182387 0.057179086 0.059443884 0.029064704
000380 26 1c 1b 3d ca 82 37 3e a1 85 5e 3d b8 d0 ad 3d
       0.03786864 0.17920986 0.054326657 0.084870756
000390 6e 81 33 3e 19 03 a6 3c 69 1d cc bd 0d 7a dd 3d
       0.17529842 0.020265149 -0.09966547 0.10814295
0003a0 0b f2 4c bd e9 fd e1 3d 1f 51 d8 bd 72 d1 a3 bb
       -0.050035518 0.11034758 -0.105623476 -0.004999333
0003b0 da 86 90 bd dc 46 e1 bc 5f a4 a8 bd 49 c9 ec 3c
       -0.07056971 -0.027499609 -0.08234476 0.028904574
0003c0 b8 c7 52 3a 7e 69 36 3d dd e9 0f 3e 48 5b 97 3d
       0.00080406247 0.0445342 0.14054056 0.073904574
0003d0 2d 06 bd bd 58 79 0d bc 0f 87 f2 bd 69 3a 68 3e
       -0.092296936 -0.008634888 -0.11842167 0.22678532
0003e0 2e 32 80 bd ff 5d 18 3d e4 45 1a 3e b5 a5 71 bd
       -0.06259571 0.037199017 0.15065724 -0.05899592
0003f0 74 26 3f bd 86 67 6f bd 63 c7 22 bd 15 0f fa bd
       -0.04666753 -0.058448337 -0.03974093 -0.12209908

MLP.10.bias f4 [32]
000000 85 38 c7 bd ed d5 90 bd 6b 1a 12 3e 5b d7 c0 3d
       -0.09727577 -0.07072053 0.1426789 0.09416076
000010 e1 de 29 3e 7c 41 8b 3d 14 18 a3 3d 26 49 6c 3d
       0.16588928 0.067995995 0.07963577 0.057686947
000020 48 73 a0 3d 9f 45 f5 3d 91 42 1b be a2 f3 a6 3d
       0.07834488 0.1197617 -0.15162112 0.08151938
000030 2e 4d 0f 3e af ab bd 3d 49 13 23 be 00 fc 7d bd
       0.13994285 0.09261262 -0.15925325 -0.062007904
000040 9e a3 61 bb b3 78 f6 3d ab c6 02 bd 5f 48 83 bd
       -0.0034429799 0.1203474 -0.031927746 -0.06410288
000050 bd 92 d8 3c 23 6e a6 3d 6e c3 67 bd aa 25 33 3d
       0.026437158 0.08126476 -0.05658286 0.04373709
000060 d6 04 05 3e ce 51 cc 3c 79 51 94 3d 5d 0d c5 bc
       0.12990126 0.024941351 0.07242102 -0.024054224
000070 cf a4 ff 3b 88 66 14 3d fe 94 03 3c cc f8 2f bd
       0.007801629 0.036230594 0.008031128 -0.04296188

MLP.11.weight f4 [32]
000000 3d c6 24 3f 3c 9b 69 3f f4 fa 70 3f a1 9c 6e 3f
       0.6436499 0.91252494 0.94132924 0.93207747
000010 b2 8d 5c 3f 43 ba 74 3f 27 c8 75 3f b3 77 63 3f
       0.8615371 0.9559671 0.96008533 0.8885452
000020 77 39 69 3f d4 d2 6b 3f e4 2d 53 3f 5b a0 71 3f
       0.9110331 0.92118573 0.824919 0.9438531
000030 6d 47 37 3f ec 31 71 3f cb d8 74 3f 22 41 5e 3f
       0.7159336 0.942168 0.956433 0.86818135
000040 be ac 76 3f 77 e7 72 3f c9 91 5e 3f 6e 47 69 3f
       0.96357334 0.9488444 0.869412 0.9112462
000050 d3 2a 72 3f 9a fe 77 3f 65 dd 56 3f df bc 67 3f
       0.94596595 0.96872866 0.8393157 0.9052257
000060 9f eb 76 3f 51 59 52 3f 00 fc 74 3f 0f cf 66 3f
       0.9645328 0.82167536 0.9569702 0.90159696
000070 c1 89 6c 3f d1 9c 43 3f 93 5a 72 3f a6 6b 76 3f
       0.92397696 0.7641116 0.94669455 0.9625801

MLP.11.bias f4 [32]
000000 4a cb b7 bb 4d 40 0e bc 71 4f a5 bc 0a 5a 37 bc
       -0.0056089507 -0.008682323 -0.020179482 -0.011190901
000010 ff 75 a3 3b bd f5 e6 b9 e3 a1 05 3b a8 e7 a6 3c
       0.0049884315 -0.00044052108 0.0020390681 0.020374134
000020 75 37 92 bb 98 ed 40 bc 4e 3f c6 ba fd 66 c8 bc
       -0.0044621774 -0.011775397 -0.0015125067 -0.024463171
000030 d9 89 1e bc ed 8e 69 bc 1f 79 b6 bc 9b d5 93 bc
       -0.00967642 -0.014255268 -0.022274552 -0.018046191
000040 bf f7 18 3c 01 11 ff 3b f0 4c ff bb ae eb 16 3b
       0.009336411 0.0077840094 -0.007791154 0.002302866
000050 87 db f4 ba 12 31 d8 bb 19 99 68 39 02 65 14 3d
       -0.0018681147 -0.0065976465 0.00022182277 0.03622914
000060 87 6e b9 ba 60 ac 2b 3c 37 26 0e bb 02 fc f6 ba
       -0.001414732 0.010478109 -0.0021690258 -0.0018843415
000070 3d f6 a9 3c 64 5b 27 bd 49 7e a2 3c 98 91 79 bc
       0.020747298 -0.04085864 0.019835608 -0.015232466

MLP.13.weight f4 [4, 32]
000000 a3 aa 72 3c 35 7b 51 3d f6 1e d6 3d 46 2c ef 3d
       0.014811191 0.05114289 0.10455124 0.11678366
000010 a3 5c 01 3d 43 6a 16 3e c0 ae 0c 3e 50 ce 4f bd
       0.031582486 0.14688973 0.13738537 -0.050733864
000020 79 19 c3 3c 36 2d b4 bd 5c 22 15 bd 5d 28 1f 3e
       0.023815857 -0.08797686 -0.03640972 0.15542741
000030 4e 56 3c 3c ba 73 c0 3d ac e7 65 3d ef 6b 0f bd
       0.011495186 0.09397073 0.056129143 -0.035015043
000040 88 be 1a be d4 31 f4 bd aa 09 a2 3c c6 e9 7e 3d
       -0.15111744 -0.119235665 0.019779999 0.062234662
000050 55 40 e3 3d a5 ef 01 3e 17 4a ce bc 8d 5e dd bd
       0.11096255 0.12689073 -0.025181813 -0.1080905
000060 5c 5d 79 3d 1f e6 f0 bc 48 47 ad 3d 72 74 c7 3c
       0.06088005 -0.029406605 0.084608614 0.024347518
000070 65 64 ad bd 50 1b 61 3b 38 53 da bd 46 d7 17 3e
       -0.08466414 0.0034348555 -0.10660404 0.14828214
000080 67 0d 27 bd e4 84 43 bc b6 c8 05 3c 74 ae 12 bd
       -0.040784266 -0.011933539 0.008165529 -0.035810903
000090 b5 aa a4 3c 04 2e 95 3c 34 22 c1 bc b9 8f 07 bc
       0.02010093 0.018210419 -0.02357588 -0.008274012
0000a0 c7 32 5c 3d a7 07 42 3d 8d 09 3e 3c 79 4a c0 bc
       0.053759363 0.04737058 0.011598957 -0.023473011
0000b0 de 34 88 3c 72 7f 1a 3d 0f bf 4d bc 52 22 9e 3c
       0.016626772 0.037719198 -0.012557759 0.019303475
0000c0 3c 7f f7 bb 04 eb aa bd 58 3d 3a 3a 4c 7e 18 3c
       -0.0075530093 -0.08345607 0.0007104478 0.009307455
0000d0 3f 9e 4c 3c 91 5e 3c 3c a8 92 97 3d ef 75 84 3c
       0.012488901 0.011497156 0.07401019 0.016169516
0000e0 2a 3f a2 bd c1 79 44 bd 8e 5b a4 bc a4 4b ac bd
       -0.07922204 -0.047967676 -0.020063188 -0.08412865
0000f0 ed 77 9d 3c 3d 05 35 bc a6 ad 8e bd 28 28 ab bc
       0.019222224 -0.011048612 -0.069667146 -0.020893171
000100 38 49 63 3d a7 6b 37 3c 7a fe ae b8 ab 29 61 bc
       0.05548975 0.0111951 -8.3443665e-05 -0.013742845
000110 b3 4e 97 39 bb fe 91 3b 97 6f 51 ba 51 33 9b bc
       0.000288596 0.004455415 -0.00079893455 -0.018945368
000120 86 97 13 bc 6b 10 98 3b 5c 11 30 3d eb 90 36 bb
       -0.009008294 0.004640629 0.042985305 -0.0027857374
000130 ea c4 ac 3b 93 ef 56 bc f1 22 df bb 99 2c ad bb
       0.0052724974 -0.013118642 -0.0068095853 -0.0052848575
000140 a7 48 3a 3c c3 bb e6 3b 17 a8 c6 3c 1d a7 86 bb
       0.011369861 0.007041426 0.024250073 -0.004109277
000150 37 0d de 3c 24 dc c5 3b 86 67 37 3c e8 79 23 bb
       0.02710591 0.0060382057 0.0111941155 -0.0024944488
000160 28 76 22 3d 9e 70 b2 bb 21 e9 f0 bc e3 d0 8c bc
       0.039663464 -0.005445554 -0.02940804 -0.017189449
000170 7e 80 cf bb d9 45 c5 3c bf bf 84 3c 1a c4 fc bb
       -0.006332456 0.024081158 0.016204713 -0.007713807
000180 01 f3 ad bd 7d 59 b2 bd 41 00 08 3e d4 2e 01 bd
       -0.08493615 -0.08708475 0.13281347 -0.0315388
000190 b7 0a 97 bd d6 27 ad bc 4d 81 fa bd b2 fb c0 bd
       -0.073750906 -0.02113716 -0.122316934 -0.09423007
0001a0 df 60 22 be 91 66 63 bd 17 94 9a 3d ef 37 0c be
       -0.15857266 -0.055517737 0.07547777 -0.13693212
0001b0 1d ef 7f 3d 3d ab 1c be 6e ba 2d 3e ff 71 16 3e
       0.062483896 -0.15299697 0.16965649 0.14691924
0001c0 bc 75 0e be 0e 99 fd 3d f2 26 d8 3d 45 86 1e 3b
       -0.139121 0.123827085 0.10554303 0.0024188918
0001d0 04 42 1e be 7f ee a6 bb d7 8e 86 3c a8 32 20 bc
       -0.1545487 -0.005094349 0.016425533 -0.009777702
0001e0 a2 c6 07 bd a2 61 1e bd 58 8e 2b 3e fd 65 ac bb
       -0.033148415 -0.03866733 0.16753519 -0.0052611814
0001f0 d0 2f 1d bd ba c4 9f 3c 3f cf 70 3d 29 91 6d bd
       -0.038375676 0.019502986 0.058791395 -0.057999764

MLP.13.bias f4 [4]
000000 e4 fa 01 3e d8 e0 e8 bb bf f0 1b bc d1 7d 99 bd
       0.12693363 -0.0071068816 -0.009517848 -0.07494701
