example/model/acker_robot_default/model_4000.pth (torch, 24610 bytes, 18 tensors)

MLP.0.weight f4 [32, 2]
00000000: e33e a23e 2596 26be 4453 17bd f529 4ebd
00000010: a6b9 e7be 1ee6 58be fece d53d 4e1f 17bf
00000020: 7d0a 65be a034 053e c685 06bf a03a ebbe
00000030: e695 e9be 0a73 46be fa28 5abe f788 033e
00000040: dcd2 9dbe df30 a93e f730 963c 2f09 a63d
00000050: 9d48 133f 8c15 e3be 10ab 903e f9a1 203f
00000060: 943a b3be a809 8b3c 0831 9d3d ff86 97be
00000070: 35d3 04bd 9cec 8a3e 7206 6dbe 2168 bbbd
00000080: 852f dabc b5c5 63be 9dfd a93e 4ce9 313e
00000090: 8426 243e ac0c 0c3f 5415 6dbc 1ee8 05bf
000000a0: de21 50be bd77 07bf c01b b6be 8737 af3e
000000b0: a30d e4be f922 b33e 98f5 0cbe 106e 79be
000000c0: be79 4d3e 2c05 203e 7595 b73b 7637 bd3e
000000d0: dd2f 3bbe 8752 1fbe 4afd cc3e 6a70 29be
000000e0: a575 d23e a176 a9be 8724 fcbd 10bf 32be
000000f0: 78d5 3d3e 913c 4b3d deb2 02bf 5f37 ebbe
0.31688604 -0.16268213 -0.036944643 -0.050332982 -0.45258826 -0.21181533 0.10439871 -0.5903214
-0.22367282 0.13008356 -0.5254787 -0.45943165 -0.45622176 -0.19379821 -0.21304694 0.12845217
-0.30824935 0.33045098 0.018333895 0.081072204 0.57532674 -0.44352376 0.2825551 0.6274715
-0.3500563 0.016972378 0.076753676 -0.2959518 -0.032427985 0.27133644 -0.2314699 -0.091507204
-0.026633987 -0.22243388 0.33201304 0.17374152 0.16030318 0.54706836 -0.014470417 -0.5230731
-0.2032542 -0.5291708 -0.35568047 0.34222052 -0.44541654 0.3498762 -0.13765562 -0.24358392
0.20065972 0.15626973 0.0056025335 0.36956376 -0.18279977 -0.15558825 0.40036994 -0.16546789
0.4110538 -0.3309832 -0.123116545 -0.17455697 0.18538463 0.049618308 -0.5105418 -0.45940682

MLP.0.bias f4 [32]
00000000: 6f48 f83e 4a72 e3be b833 88bd 3c33 85be
00000010: ff23 c6bb 8748 b53d 3c7f 90be be3f d5bd
00000020: a88f cebd d2cc a63d e198 9c3d 9cde 463e
00000030: 685b 0c3f 467a 793e cf5b d7be a2d8 4f3e
00000040: 5449 c7bd e5cd 653e 9092 0e3f 4190 9d3e
00000050: 5e0b 1b3f efb0 f03e 98cf 903c 8f01 5cbc
00000060: eb83 bb3d 1c36 74be a6b4 443f dee9 16be
00000070: 1b05 cfbd b7b0 153f 01f5 8e3e d52f d23d
0.48492762 -0.44423133 -0.066504896 -0.2601565 -0.0060467715 0.08851724 -0.28222072 -0.104125485
-0.10085994 0.08144535 0.07646347 0.19420856 0.54826975 0.2436305 -0.42062232 0.20297483
-0.09730783 0.22441824 0.55692387 0.3077412 0.6056422 0.4700999 0.017677113 -0.013428106
0.09156021 -0.23848766 0.7683815 -0.14737651 -0.10108396 0.5847277 0.27921298 0.102630295

MLP.1.weight f4 [32]
00000000: ae88 643f 5c54 953f 90b5 2f3f 672a 4f3f
00000010: 7dd8 323f 3eb5 333f 58c9 573f 7fe7 253f
00000020: 3c01 363f 2397 133f fb06 353f 3d1c 5a3f
00000030: 354b 6b3f 6329 3b3f 5b34 383f 5664 153f
00000040: dff0 333f 7738 133f 6f35 4f3f 5c3c 383f
00000050: 8064 663f 4fba 473f b5ef 413f eeb5 2d3f
00000060: 466d 433f 40d7 183f 6e43 673f 6f4a 353f
00000070: 61c1 233f f1f8 2b3f 1d0e 4a3f 54f3 433f
0.89271057 1.166637 0.6863642 0.80924076 0.69861585 0.7019843 0.842916 0.6480636
0.71095634 0.5765249 0.70713776 0.8519934 0.9191163 0.73110026 0.7195489 0.58356225
0.70289415 0.57508034 0.8094091 0.719671 0.899971 0.7801866 0.7575639 0.6785573
0.76338613 0.59703445 0.90337265 0.708167 0.6396695 0.6717673 0.78927785 0.76543164

MLP.1.bias f4 [32]
00000000: 1824 1e3c 613e 813c eccc dabc 7292 9c3d
00000010: 5b45 87bc 3bf3 9e3c 62cb 14bd a784 eebb
00000020: 774e 4b3d cf28 17bc ab6a 053d 66bb b1bd
00000030: a956 ad3c db78 b73b 7c63 11bd c2b0 203d
00000040: 372f 583d aabd 463d 9709 aebd da93 d63c
00000050: 6a43 e13b 93b7 3c3a 40d9 84bc 9259 363c
00000060: 5e73 893c ad55 09bd d1ae b43c cc25 b1bc
00000070: 6f21 9abc 097f f73c 24d6 b23b cd4b 953d
0.00965216 0.015776815 -0.026709042 0.0764512 -0.016512563 0.01940309 -0.036326773 -0.007278997
0.049635377 -0.009226038 0.03257243 -0.086783215 0.021159487 0.005599124 -0.035495266 0.03923107
0.052779403 0.04852072 -0.08497923 0.026193548 0.0068744915 0.00071989855 -0.016216874 0.011129754
0.016778644 -0.033528972 0.022056015 -0.021624468 -0.01881477 0.030211942 0.0054576565 0.072898485

MLP.3.weight f4 [32, 32]
00000000: d834 cabd bacc adbe 8aef e53d 3e74 ecbd
00000010: 196f a1bd f859 0ebe 06d2 e63d 82e2 9ebd
00000020: f212 16be 9576 853d 93a9 0cbe 8fea cd3d
00000030: 0a39 7439 ec84 ba3d 46f2 f6bd 4a62 6e3d
00000040: ed51 01be 5c75 b53c 07ff 39bd c472 63ba
00000050: 22eb 13be 403b fd3d 8e71 db3b d6a3 fa3d
00000060: cd03 e7bd 82f1 323d a92e b2bd fcfc f23c
00000070: d465 bebc 1404 193e 0462 d6bd b47e 923d
00000080: 21b8 a2bd 02ee c7bd 78fa 13be 5127 fc3d
00000090: 72e6 ac3d 0359 06bc b7d0 fcbd 0bb6 edbd
000000a0: 0650 cc3d 65ea 5c3d b5d2 1dbe 133b 083e
000000b0: bb86 cbbd 5c22 073e b5d6 e13c 03fa 76bd
000000c0: 92c0 babd 3738 163e bad3 193d 65ee fcbd
000000d0: b2da fdbd 9822 153e af5c 113e c451 873d
000000e0: d2b0 bbbb 2448 a13c cbdc 0c3d dbac 4fbb
000000f0: a23e 853c 2aed 173d 98fb c53d aeb7 163d
00000100: e323 65bd 93e3 e0bb 927f a1bd bc54 073e
00000110: 9375 c0bc 6d9d eb3d fe26 253d 1117 d5bd
00000120: b17f edbd c8ca c4bd 2521 84bd da1c de3b
00000130: b035 81bc 3897 673d b178 70bd b3e5 bcbc
00000140: 52ee 103e a0ed 0a3e 464a 44be c2cf b23d
00000150: f3fb 13bb aadb 0d3e 85b5 643c 74fb ddbc
00000160: 9f82 af3d c0f9 933d 1c14 a7bc 0716 953d
00000170: d53a ecbd 6c95 03be a45b 4fbd cd49 153e
00000180: 473c 9f81 d017 8502 e270 9a02 90e2 9c01
00000190: ce48 5602 66da 9f82 010f 9402 a777 8902
000001a0: 5858 3b80 13a1 8e82 d0c4 2f81 9286 6101
000001b0: f672 9782 1433 1782 5970 8f02 eb78 8f82
000001c0: a110 9882 f20c a382 3e3a 9b82 e813 6b80
000001d0: 5c9a 8381 c471 0081 20e9 b200 af82 9802
000001e0: 6a94 a682 62fe 4002 4f40 9182 c90e 9c02
000001f0: 71ce a302 eff2 8582 5ddd 9a82 7ff8 9982
00000200: 605c 02be 5401 af3d aae4 00be 480e b83d
00000210: 9afc 40bd 3a9d b93c 62b9 7f3d a621 ea3d
00000220: 67a9 30bd 0cf7 ffbc d468 02be f86b fe3b
00000230: 9084 c5bd 487e a43d 89a0 17be 9d85 3a3c
00000240: 9f63 b53d dcd7 263d 5e2b e3bd 013d d93d
00000250: 9bae e13d ef8b 09bd 553b b53d 63e2 f8bc
00000260: 07fc f13d 2ee2 4abd b695 8dbd ab39 fabd
00000270: df86 b5bd af50 993b c623 e7bd d1d3 5cbd
00000280: c003 2ebe 1a76 bf3d e515 463d d0b5 9d3d
00000290: a5f6 473d 750e 66bd 2c02 6d3e 5201 263e
000002a0: 8b4b f33b e906 863d 49f9 a4bd 8be1 00bd
000002b0: 0ba4 babc a2c7 0cbe 2172 223b c455 3f3c
000002c0: 1310 013e 79fd 11bd bc99 e8bb 1eae 073e
000002d0: e0c4 b3bd 18f5 953d e52c 213e a6f2 a6bd
000002e0: d64e 0abe 942b 7e3d fdaa 1a3e bd95 e1bd
000002f0: 1ca8 cb3d ff34 cbbd 1e6b cebd 9654 3e3e
00000300: e1b5 28be 03b6 f7bd 1633 cf3c 8d44 523e
00000310: 0a70 06bd 585b 2cbe e3e6 143e f73d 2bbd
00000320: 3ec3 9b3d 46b3 873d 6987 ce3d 5732 e43d
00000330: 305b 083a cd39 cb3d d149 823d 8c15 433e
00000340: 461b 8c3d 5c66 b9bd 35ca cfba cab2 333c
00000350: b303 283e b6cb bbbd 89c1 22be d109 98bc
00000360: 710c b13d d105 803c f0d9 4d3e 8f3b 57be
00000370: 84fd 9dbd c643 403d c910 a53c 8843 e13b
00000380: 254b 0a3d 4092 583e 4d4e eb3d c801 c13b
00000390: 9c37 12bd 4a3b ddbd be8d 33be 0868 bd3c
000003a0: a16f ccbd 2974 e53d 9b0e a23c 4b19 f03d
000003b0: 65cb a6bd 7b75 13be 7a3a 00bd b782 c23c
000003c0: 54ff b13d 0e9c 2c3d d4b4 36bd 8a92 c63d
000003d0: 6952 18be 6630 4b3d 0898 243e 1f99 9abd
000003e0: 8aa5 a3bd 1f5e 11be 919f 043c bb43 ac3d
000003f0: 00c5 853d 5c4e 9b3a fdd6 203d c18f 8c3d
-0.098733604 -0.33945256 0.11227329 -0.11545609 -0.07882518 -0.13901508 0.112705275 -0.07758047
-0.14655665 0.06516758 -0.13736562 0.10054504 0.00023290902 0.09107384 -0.12057929 0.058199205
-0.12628908 0.022150688 -0.04540923 -0.0008676464 -0.14445165 0.12364817 0.0066968864 0.122382805
-0.11280022 0.04368735 -0.08700306 0.029661648 -0.023241915 0.14942962 -0.10467914 0.07153073
-0.07945276 -0.09762193 -0.14451015 0.123121865 0.084423915 -0.008199933 -0.12344497 -0.116069876
0.09976201 0.053934474 -0.1541241 0.13303785 -0.09937807 0.13196701 0.0275682 -0.060297024
-0.09118761 0.14669882 0.037555434 -0.12350158 -0.123952284 0.14563978 0.14195512 0.066073924
-0.0057278657 0.01968772 0.034390252 -0.0031688723 0.016265217 0.03709141 0.09667128 0.036796264
-0.055942427 -0.0068630665 -0.0788566 0.13215917 -0.023493564 0.11504636 0.04032039 -0.1040479
-0.11596621 -0.0960899 -0.06451634 0.0067783417 -0.01577267 0.056540698 -0.05870885 -0.023058748
0.14153412 0.13567209 -0.19168958 0.08731033 -0.0022580593 0.13853326 0.013959293 -0.027097441
0.08569836 0.072253704 -0.020395331 0.07279592 -0.11534659 -0.12849969 -0.050624505 0.14578934
-5.849387e-38 1.9556261e-37 2.2693058e-37 5.763045e-38 1.5743131e-37 -2.3488305e-37 2.1755257e-37 2.0199018e-37
-5.449986e-39 -2.0957477e-37 -3.228363e-38 4.1422523e-38 -2.225344e-37 -1.1108387e-37 2.1076446e-37 -2.1081365e-37
-2.2343937e-37 -2.3958128e-37 -2.2808632e-37 -9.833539e-39 -4.8343295e-38 -2.359151e-38 1.6430348e-38 2.2409401e-37
-2.4476693e-37 1.4178936e-37 -2.1342746e-37 2.2930626e-37 2.406919e-37 -1.968203e-37 -2.2755323e-37 -2.262396e-37
-0.12730551 0.08545175 -0.12587228 0.08987099 -0.0471159 0.02265798 0.062432654 0.11432199
-0.043130305 -0.03124573 -0.12735301 0.0077643357 -0.09644425 0.08031899 -0.14807333 0.011384395
0.08856892 0.040733203 -0.11092256 0.10607339 0.110196315 -0.033580717 0.08849207 -0.030381387
0.118156485 -0.049532108 -0.06913321 -0.122180305 -0.08863615 0.0046788077 -0.1128612 -0.05391294
-0.16993618 0.09348698 0.048360724 0.077006936 0.048819203 -0.05616613 0.2314536 0.16211441
0.007424777 0.06544287 -0.0805536 -0.031465095 -0.0227833 -0.13748029 0.0024787264 0.011678163
0.12603788 -0.03564212 -0.0070984047 0.13250014 -0.08777785 0.073221385 0.15739782 -0.0815175
-0.13506636 0.062053278 0.1510429 -0.110148884 0.09944174 -0.099222176 -0.10079025 0.18586954
-0.16475631 -0.12095263 0.025292914 0.20533963 -0.032821693 -0.1683172 0.14541201 -0.04180714
0.07605599 0.066259906 0.10084421 0.11142414 0.0005201576 0.09923134 0.063617356 0.19051188
0.068411395 -0.090527266 -0.0015853109 0.01096792 0.16407661 -0.09169714 -0.1589414 -0.018559368
0.08644951 0.015627773 0.20102668 -0.21018814 -0.0771437 0.046939634 0.020149605 0.0068745054
0.03376307 0.2114954 0.11489544 0.005890105 -0.035697564 -0.10802324 -0.17534539 0.023120895
-0.09982229 0.112037964 0.019782355 0.11723574 -0.08144263 -0.14400284 -0.031305768 0.02374397
0.08691278 0.042141013 -0.044606045 0.09695919 -0.14875187 0.049606703 0.1607362 -0.07548737
-0.079905584 -0.1419606 0.008094684 0.08411356 0.065317154 0.0011848914 0.03926753 0.068633564

MLP.3.bias f4 [32]
00000000: f676 033e e343 2a3e 3dcd 2f3e d301 ab82
00000010: 7085 2dbd 4f35 26ba 7d6d 2dbe d83c b13d
00000020: 2307 753d 0ec6 e0bd 6668 b73d 86e7 95bd
00000030: 75cc f83d e7c1 cb3c c26a aebd 6181 803d
00000040: 6cb8 373c 5e52 03be efd8 d13c 8986 1cbe
00000050: cd9b 0cbd a1eb c2bd 3100 69bd dcc3 2b3e
00000060: 8abe bdbd 82a5 323d f75f 12bd fffb b93d
00000070: 2096 ba3d 43e0 293d 54f4 5bbd f144 96bd
0.12838349 0.16627459 0.17168136 -2.5127239e-37 -0.042363584 -0.0006340341 -0.16936298 0.08654183
0.05982126 -0.10975276 0.08955459 -0.0731955 0.12148372 0.024872733 -0.08516456 0.06274677
0.011213403 -0.1282439 0.025616137 -0.15285696 -0.03432827 -0.09517599 -0.05688495 0.16773933
-0.09264858 0.04361487 -0.03573605 0.090812676 0.09110665 0.04147364 -0.053699806 -0.07337368

MLP.5.weight f4 [32, 32]
00000000: c6fd b9bd 509d 873d fc6e 233d 2015 9802
00000010: bd58 0cbe c52a 2e3d 9239 5ebd 631d 013c
00000020: 45b9 49bc d63f 38bd ac06 213e a7f8 85bc
00000030: 8eae 29be 721f bfbd 67b8 f73d d5c4 773d
00000040: e846 113e e7ac babc eb72 3b3d 4031 873d
00000050: 087e d73d e5fd 2abc b54c 96bd 374f 1dbe
00000060: 487d b8bd a5e6 2d3d 996f 8b3c 2331 2d3d
00000070: 80fd 99bc 4ee1 27bd 1dbe 6ebd d64f de3d
00000080: 8346 a5bd 2c55 11be 3394 0e3e a760 8f82
00000090: a08f e73d 45cf b53d a032 a2bc f599 f13d
000000a0: 655a 3c3c 4710 ecbd 01e4 54bd 16a9 9cbd
000000b0: 9fc2 ab3d 8b66 353d e135 a43d fd40 bc3d
000000c0: 125c 0d3e 8a9b 193d f336 18be 5584 b23b
000000d0: 529d 12be a810 2cbc 3d99 823c 6e23 4f3d
000000e0: 7a60 01be 442a a7bd 300e 5cbc c4fa 9ebd
000000f0: f8dc b73d 7beb 0dbe 8877 893d cea9 ad3d
00000100: 6d0a 133e df9e 993d 1f35 f33c b44c 8c02
00000110: aff4 023e ddfc dbbd e3ed ebbd dedd 993d
00000120: 3eb1 6e38 3c8e 0ebc b503 22be 98d2 293c
00000130: 99d4 ca3d 0415 8d3d 6ba8 c23d 016c 0abe
00000140: 92d9 cfbc be13 82bd 19d9 283d d408 d4bb
00000150: 9eec 12bd 7d69 f439 5928 70bc fa57 cd3d
00000160: 6fa5 e93c 75e4 93bd c38c 043e 3bc4 57bd
00000170: 3f01 8a3d 7e7f be3d 0eb8 2dbd 7697 dc3d
00000180: 8b21 603d ac49 403d 91d6 25be 341d 9402
00000190: 50e6 3cbe 5ca9 143b 5cac 733e a26a febd
000001a0: d30f 1abd 327d debd 6a42 833d 3be4 87bc
000001b0: 2dbc 7cbd a324 903c dba9 94b8 315e ae3d
000001c0: 772b 2e3c a4bb f53d a619 713d b856 04bd
000001d0: 0822 3e3d a29f 693c 2923 573d 6e5b 0d3e
000001e0: 903b fd3c 9bbc db3d ae05 30bd ad7f 673d
000001f0: 62a4 443d 899d d33d 5241 8abd 037b c2bd
00000200: 9534 3e3d 66b0 6bbd 416e 4ebd d615 9482
00000210: 80c4 0c3d be57 10be 9b99 ebbd 2a40 c0bd
00000220: 4a2d a13d e975 473e d127 e33b eee0 08bd
00000230: d894 6cbd c474 d43d ca7d 3bbd d3ef 473d
00000240: 35c7 bbbd 162d ae3d 3a15 6fbe 7312 6aba
00000250: 078c c1bd ec4c 8d39 d9fb 64bc 3c77 8cbd
00000260: 73c3 00be e0c3 edbc c4af 7e3d 311a b3bd
00000270: 79d9 03be 079e 92be f33e ab3c c709 413e
00000280: b843 96bc 8e6b 473c 12e4 d1bd d2d7 3a02
00000290: e085 823c eb3e 053e fd40 223d 79b8 1abd
000002a0: 4cd9 5fbd c4b0 68bd 80dd 32bd 6cd8 a63c
000002b0: 85e8 af3d 1b36 fc3c 7aa5 933b 03cf d03c
000002c0: 86e1 5c3d 5f3b b73d 7984 c0bd 0b87 b83a
000002d0: 1d26 5ebd fcc0 343c 6d05 893b 245d dfbc
000002e0: 774b 283d f2c6 61bd b286 1a3d 3460 58bd
000002f0: 22e5 c1bd f72e 6e3d 445c dd3c 639b a43d
00000300: 2418 5d3d 0aee ed3d 5d27 cabd a4c9 9682
00000310: b17f 59bd cbb9 5fbd efb3 233e b82c 0abc
00000320: 97f6 7abc d68b 113e fd7c da3d a5f0 b5bd
00000330: de33 97bd 772e ebbd 19ae a23d 47e8 403d
00000340: cfeb 0abe 699b 89bc ae59 bdbd b105 2c3e
00000350: 9a2d 8fbc 027b c2bb 6eb1 063d 7b87 243c
00000360: 7f7c 01be 47f3 133e cdb0 7c3d 8994 50bd
00000370: 223a cabd 7fad abbd 50ba cabd b378 bdbd
00000380: 327e 7f3c 1ef4 e4bd 4229 173d 8ca1 8882
00000390: 83d3 b73c 390b 513d c703 0ebd 1697 cb3c
000003a0: c6d8 e1bc 183e 9cbc a9a1 273d d7c6 05bc
000003b0: 73b1 e5bc 537f 0fbd bcd7 27bc 12f0 48bd
000003c0: da45 01be 0ed8 483e b71e 25bd 987d 0f3d
000003d0: 993c 3b3d c591 e13b 0ab5 dc3c 3615 89bc
000003e0: 3b48 bbbd d51a d5ba b6ac 6d3d 6ecc 703d
000003f0: 8a5e 0b3c 3980 c33c ac0e 88bc 03a5 33b9
-0.090816066 0.06621802 0.039900765 2.2346518e-37 -0.13705726 0.042521257 -0.054254122 0.0078805415
-0.012312238 -0.044982754 0.15725201 -0.016353918 -0.16570494 -0.093321696 0.12095719 0.060490448
0.14187205 -0.022787524 0.04576389 0.066011906 0.105220854 -0.01043651 -0.073388495 -0.1536225
-0.090082705 0.042456288 0.017020987 0.04228319 -0.018797636 -0.04098635 -0.058286775 0.10855071
-0.0807009 -0.14192647 0.13923721 -2.1067437e-37 0.11306691 0.08877424 -0.01979953 0.11796943
0.011496161 -0.11526542 -0.051975254 -0.07649438 0.083867304 0.044287246 0.08018089 0.09192083
0.13804653 0.03750185 -0.14864711 0.005447904 -0.14317825 -0.010502018 0.01594221 0.050570898
-0.12634459 -0.081623584 -0.013431117 -0.077626735 0.08977693 -0.1385936 0.06712252 0.08479653
0.14359446 0.075010054 0.029688416 2.0615177e-37 0.12788652 -0.10741589 -0.11519983 0.07513021
5.690869e-05 -0.0087009035 -0.15821727 0.010365151 0.09903831 0.06888774 0.095047794 -0.13517763
-0.0253723 -0.06351422 0.041222665 -0.006470779 -0.035870187 0.00046617902 -0.014658057 0.10026546
0.028521268 -0.07221309 0.12944321 -0.052677374 0.06738519 0.09301661 -0.042411856 0.107710764
0.05471949 0.04694526 -0.16195132 2.1763407e-37 -0.18447232 0.0022683954 0.23796219 -0.12422682
-0.037612747 -0.10863723 0.06409152 -0.016588321 -0.061702896 0.017595595 -7.088828e-05 0.08514059
0.01063048 0.1199868 0.05886235 -0.032309264 0.046419173 0.014259251 0.052523766 0.13804409
0.03091219 0.10729333 -0.042974167 0.056518245 0.04800833 0.10332782 -0.0675074 -0.09496119
0.046436865 -0.057541274 -0.050398115 -2.1759179e-37 0.034367085 -0.14095971 -0.11503907 -0.09387238
0.07869966 0.19478573 0.0069322367 -0.033417635 -0.057759136 0.10373834 -0.04577426 0.0488127
-0.09168855 0.08504693 -0.23347941 -0.0008929141 -0.09450536 0.00026950927 -0.013976061 -0.0685868
-0.12574558 -0.029024065 0.062179342 -0.0874523 -0.12875928 -0.2863619 0.02090404 0.18851386
-0.018342838 0.012171639 -0.10248579 1.3727059e-37 0.015932977 0.13012283 0.03961276 -0.037773583
-0.05465059 -0.0568092 -0.04366827 0.02036687 0.085892715 0.030787518 0.0045058103 0.025489336
0.053926013 0.08946871 -0.09400267 0.0014078332 -0.054235566 0.011032339 0.004181555 -0.027266093
0.041087594 -0.05512137 0.03772611 -0.05282612 -0.09467532 0.058150258 0.027021535 0.0803745
0.0539781 0.11617668 -0.09870789 -2.2156255e-37 -0.05310029 -0.054620545 0.15986608 -0.008433513
-0.015317581 0.142135 0.10668371 -0.0888379 -0.0738294 -0.11483472 0.07943363 0.047096517
-0.13566516 -0.016797738 -0.09245621 0.16799046 -0.0174778 -0.005935074 0.032884054 0.010042067
-0.12645148 0.14448272 0.061692048 -0.050922904 -0.09874369 -0.08382701 -0.098988175 -0.09251537
0.015594052 -0.11179374 0.03690458 -2.0076127e-37 0.022439724 0.051036093 -0.03467157 0.024852317
-0.027569186 -0.019072577 0.040925656 -0.008165083 -0.028038716 -0.035033535 -0.010244306 -0.049057074
-0.12624303 0.19613668 -0.040312495 0.035031885 0.045712087 0.006883832 0.026941795 -0.016733747
-0.09144636 -0.0016258607 0.058026038 0.05878871 0.008506427 0.023864852 -0.016608559 -0.00017132242

MLP.5.bias f4 [32]
00000000: 8063 4dbd 013d db3c f656 3bbc 23b9 a3bc
00000010: 2bbb bbbd 65cf 2dbb aa76 6fbd 5e85 773c
00000020: fca9 f13c e35d 1b3d 4627 bc3d bf0e e03c
00000030: 5adb c43c f89a f43d e779 e43c f857 dcbd
00000040: 6424 15be a977 c33d 57f3 073d b120 57ba
00000050: 161c 19bd 07d7 183d 751a 10be b5d7 123c
00000060: 316c 8bbd effc b5bd a9bd f03d 99bd 09be
00000070: 043a c0bd a4fb 583d 6a62 67bd 3fe9 3abc
-0.05014372 0.026762487 -0.011434307 -0.019985741 -0.09166559 -0.0026521322 -0.058462776 0.015107481
0.0295 0.037931334 0.09187178 0.027350781 0.024030376 0.119436204 0.027890159 -0.10758966
-0.14564663 0.09544308 0.03319105 -0.00082064705 -0.0373803 0.03731444 -0.14072593 0.008962561
-0.06807745 -0.08886134 0.11754925 -0.13451232 -0.093860656 0.05297436 -0.05649034 -0.011408149

MLP.6.weight f4 [32]
00000000: 8cd8 473f 3899 243f a50f 1f3f 1ee9 203f
00000010: 49de 403f e8d8 9a3e 96b9 293f 0ce8 ef3e
00000020: 48ca 393f 8eb0 423f 6132 0b3f 8347 493f
00000030: b46d 353f ab0f 383f 3648 283f ecec 433f
00000040: 9354 273f 2d41 523f ab3d 253f c870 fe3e
00000050: 9871 1d3f 9c25 483f 3ad1 473f 27e8 3b3f
00000060: 3983 283f 7c0d 493f fdf5 3c3f 0370 353f
00000070: 3f10 3e3f 6f66 4b3f 22f1 013f a383 3c3f
0.780648 0.64296293 0.62133247 0.6285571 0.7533918 0.3024361 0.66298807 0.46856725
0.7257428 0.7605065 0.5437375 0.78624743 0.7087052 0.7189891 0.65735185 0.7653339
0.65363425 0.821307 0.6454722 0.4969542 0.61501455 0.7818239 0.7805363 0.7340111
0.6582523 0.785362 0.7381285 0.7087404 0.7424354 0.79453176 0.50758564 0.7363836

MLP.6.bias f4 [32]
00000000: 9bb1 2d3c 8b0c 0a3c 6156 17bc c470 1dbc
00000010: d5e6 1bbd 8d8e 803b 846d 2dbb 54f3 a4bb
00000020: fa71 31bb 00f4 dbbc 93ef 883b 1f8c 4bb9
00000030: 3a96 4f3d 06ca da3c a823 3f3d 29f5 263c
00000040: c4cf efbc 1375 e5bc 2f98 b2b9 c487 8c3c
00000050: 7029 ecbb 74af 8abc 31b1 0f3c 1ace 333c
00000060: ec6a bdbb c6c9 f6bb 3def 17bb b5bd 683b
00000070: 6a08 bc3c c7de 1bbc ad7e 39bb 705a 023b
0.0106014265 0.008425842 -0.009236903 -0.009609405 -0.038061935 0.0039232434 -0.0026462981 -0.00503389
-0.0027075992 -0.026849747 0.00417895 -0.00019411788 0.050680377 0.02670766 0.046664864 0.010190287
-0.029273875 -0.028009927 -0.0003406419 0.017154582 -0.007207088 -0.016929366 0.008770273 0.010974431
-0.0057805683 -0.0075313775 -0.0023183369 0.0035513465 0.02295323 -0.0095135635 -0.0028304264 0.001989033

MLP.8.weight f4 [32, 32]
00000000: be23 89bd 9536 00bd f563 a43c be94 be3d
00000010: 9da2 533d 695e 0c3d b391 cebd 8de2 053e
00000020: 08ff e43d ebda fbbc 6dbd cabc 8b0a fd3d
00000030: 62a8 c6bc f9eb cdbd debd 1a3e 7e61 dd3d
00000040: 91fc 31be 0020 9d3d 555a 96bd 0e7f 773b
00000050: e92a c3bd d16f 48bd 9f8c ff3d e821 84bd
00000060: e9b8 163d bcd8 a5bd 0e5e 21bc ed9f fc3c
00000070: 8c55 87bd 2f34 193d 539c e83d baac be3d
00000080: 01fa 8a3c 4aef 19bd 10ce d73d 646d 27bd
00000090: 81d2 30bd 46f7 0d3e b39b dd3d 8548 eebb
000000a0: d504 a43d a167 bdbd 9541 bbbd 7719 8bbc
000000b0: 9fb0 d03d d358 b43d 8470 923d 04b4 323e
000000c0: 1427 b4bd 27b3 04be 462d c23d 3f5e 8f3d
000000d0: 0aa7 c93d fed4 fa3d 2c6a 38be bd84 363d
000000e0: 66b9 08bd a0c7 ccbd fd4d 0bbe 3473 463e
000000f0: 74a2 8b3d 33ce 2cbe e9b2 e8bd b622 473b
00000100: bf22 cebd d2e2 8abd acce 9ebd 8887 14be
00000110: aec7 16be 89e5 f2bd 46b8 333e 4140 02be
00000120: a447 173d dd9e fb3b 3b5d 23be 7859 df3d
00000130: 8667 aa3d 63a7 ee3d 649c 8a3d 4a25 0bbe
00000140: e6d8 f33c 74f9 0ebe 9500 073e 2257 cbbd
00000150: ad44 a3bd df46 423e b661 84bc 18f5 453d
00000160: 5d22 01bd 294b f0bb ac9b 1ebe fb74 0abe
00000170: d969 bc3d bd1a 05be b1e9 01bd 9bb5 83bd
00000180: 4dd5 cf3d 6898 55bd fc03 163e 3716 533c
00000190: de0d 873d 53d6 55bd 5680 4d3e 6fed d73c
000001a0: c999 c5bd 16c3 11be 259b bdbd 5549 3a3d
000001b0: 38db 97bd f745 ebbd 2d82 ddbd ed3c 783d
000001c0: 5396 063e 7b60 293e d8e3 80bd f882 cf3c
000001d0: 131b 1a3d 4f8b 39be 0237 8b3d f9d9 7a3d
000001e0: 6c42 9f3b 9e93 05be efcc a8bc 8135 a43c
000001f0: 618f 933d ee15 34ba 43b5 03bd d4ac 99bd
00000200: 7435 223d ec1a 3bbd c275 78bc 195d 193d
00000210: 1df9 bcbd f6a1 1939 6b8a da3c cf3b 92bd
00000220: 8010 b8bd 13e4 5b3b a287 64bb 609f a83d
00000230: 51a5 ff3d 9a2c cbbd 998c e03d 12aa 41bc
00000240: d767 b33d 0d34 0b3e 462e 943d 619f 80bd
00000250: c597 bc3d b7c5 7c3d 5410 833d 7607 25be
00000260: a946 af3d 5b18 993d 0b64 2abc cdc0 d6bd
00000270: 7ee2 4abd fbe5 26bd 9b0f dabc e9f9 99bc
00000280: 1f84 183e 7cfc 713d ec74 30bd bfb4 17be
00000290: 0c15 d2bd f3e4 7abd 8d67 b13d 14fa 37bd
000002a0: 5192 01be 2641 afbd dfe2 09be 240f 563d
000002b0: 64ec 1b3e 685b 0c3e 0e6e 053c 1083 dcbb
000002c0: 6e2b 52bd 337f 0b3e 22b8 913d c192 8e3d
000002d0: 9a50 f63d fa8c 193e 8445 de3d 2e44 22be
000002e0: bc46 ecbd 18e4 d53d f003 523d 25f2 84bd
000002f0: 0df2 1c3e 2d3a a9bd fb44 d7bc f126 253e
00000300: 4b11 e53d cf3d d5ba cf0f a8bd 605f a1bc
00000310: 7ec9 16be a3c5 9abd 808d 14be 2832 c4bd
00000320: f111 853d 15dd c8bd 5ffc 6b3d e08a 35be
00000330: 170a fa3b aa14 49bd 4dd0 99bd 1760 003e
00000340: 8e23 bebd c787 023e 6fd7 163e 8dcc e3bc
00000350: 1e56 1bbe c192 b53d e80b e5bc 227f bbba
00000360: 0c8b 2dbd c0a5 17be 107e 2fbc 9473 e13d
00000370: 5571 10bc b3a3 b13c 911e 2fbe 27a3 193e
00000380: 36a0 96bd 518c b23d 9f7d e63d 97ad 7dbd
00000390: 1d5b 983d 7084 e0bc 8b24 f7bd 8774 f2bc
000003a0: fe0d c33c 625e 03be aa3d e8bd 1afa 00be
000003b0: 8043 043e ed24 133d 02dc 183e 6823 24be
000003c0: 49ac 493d 48a3 ba3d 2f76 04bd c1ea 2d3d
000003d0: b425 ea3d c36e 7dbd b31a 483e 5189 453d
000003e0: c5b7 d7bd 4a19 53bd 0d7f 2a3d 8521 4d3c
000003f0: 93b0 98bd 7259 05be 23de a2bb 9045 573c
-0.066962704 -0.031302053 0.020067194 0.09305714 0.051668752 0.034269724 -0.10086384 0.13074704
0.11181456 -0.030744037 -0.024748528 0.123555265 -0.024250213 -0.10054774 0.15111491 0.10809611
-0.17381503 0.07672119 -0.07341448 0.003776494 -0.09529669 -0.04893476 0.12477993 -0.064517796
0.036797438 -0.080979794 -0.009849085 0.030837977 -0.06608114 0.03740328 0.113579415 0.09310289
0.016964914 -0.03758172 0.1053735 -0.040875807 -0.043169502 0.13863859 0.10820713 -0.0072718286
0.08008734 -0.09248281 -0.09143368 -0.016979916 0.10189938 0.088060044 0.07150367 0.17451483
-0.08796516 -0.12958966 0.094812915 0.07000398 0.09846313 0.12247656 -0.18009251 0.044560183
-0.033379935 -0.09999013 -0.13603969 0.19379884 0.06818095 -0.16875534 -0.113622494 0.003038568
-0.10065221 -0.06781544 -0.07754263 -0.14504826 -0.1472461 -0.118601866 0.17550763 -0.12719823
0.036933556 0.00767885 -0.15953533 0.10905737 0.08320527 0.1165302 0.067681104 -0.13588443
0.029766511 -0.13962346 0.13183816 -0.09928729 -0.07972083 0.18972348 -0.016159873 0.048329443
-0.031526912 -0.0073331785 -0.15489072 -0.13521187 0.09199876 -0.12998481 -0.031717006 -0.06431123
0.10148106 -0.0521473 0.14649957 0.012883714 0.06594442 -0.05220635 0.20068488 0.026358334
-0.09648473 -0.14234576 -0.09258107 0.04548009 -0.074148595 -0.11487954 -0.10815845 0.06060498
0.13143282 0.1654071 -0.06293458 0.025331005 0.037623476 -0.18119548 0.06797601 0.06124303
0.004860213 -0.13044593 -0.020605532 0.020045044 0.07205082 -0.0006869723 -0.032155287 -0.075036675
0.039601758 -0.04567997 -0.015164794 0.0374423 -0.09227202 0.00014651552 0.026677331 -0.07140314
-0.08987522 0.003355269 -0.0034870883 0.08233523 0.124827035 -0.099206164 0.10964317 -0.011820333
0.0876004 0.13594075 0.072353885 -0.06280399 0.09208635 0.061711993 0.06399599 -0.16116127
0.08558399 0.074753486 -0.010399829 -0.104859926 -0.049532406 -0.04074667 -0.02661877 -0.018795924
0.1489415 0.05907868 -0.043080255 -0.14815043 -0.102579206 -0.0612535 0.08662329 -0.044916227
-0.12653472 -0.08557348 -0.1346545 0.052260533 0.15226895 0.13706744 0.008143915 -0.006729491
-0.05131095 0.13622741 0.07115199 0.06961585 0.12027092 0.14995185 0.10853103 -0.15846321
-0.11536929 0.10443896 0.051273286 -0.06491498 0.1532671 -0.08263049 -0.02627801 0.16128136
0.11184939 -0.0016269031 -0.0820614 -0.019698799 -0.147253 -0.075572275 -0.14507103 -0.09579879
0.06497563 -0.09807793 0.057613727 -0.17728758 0.0076305973 -0.049091972 -0.07510433 0.12536655
-0.09284125 0.12747107 0.14730619 -0.027807498 -0.1516957 0.08865882 -0.027959779 -0.0014304856
-0.042368934 -0.14809322 -0.010711208 0.11008373 -0.008816083 0.021684503 -0.17101504 0.15003644
-0.073547766 0.087181695 0.11254429 -0.061933126 0.074392535 -0.027406901 -0.12067517 -0.02959658
0.023810383 -0.12828973 -0.113398865 -0.12595406 0.12916374 0.035923887 0.14927676 -0.16029131
0.04923657 0.09113175 -0.03233927 0.042460207 0.114329726 -0.06187321 0.19541435 0.04822666
-0.10533098 -0.05153779 0.04162507 0.012520199 -0.07455554 -0.13022402 -0.0049703284 0.013139144

MLP.8.bias f4 [32]
00000000: 1ef7 1bbe 2bdb d43d eac9 1b3e 5970 633c
00000010: 6b47 123d 68d8 243c 6db5 e73d 3f13 7cbc
00000020: 71b0 933c c70f f53c 39c6 b6bd 7b23 f53d
00000030: fc72 1cbd 9f51 d7bc 232a e33d 4c29 d4bd
00000040: 201d ddbd f5c0 ccbd 2ea2 533d 1b56 dbbc
00000050: db46 103d e25b cfbc 95e3 1d3c ef99 163e
00000060: c7b7 913d fa8a bbbb d3d5 1a3d 698c 363d
00000070: c138 f0bc 8845 1e3d 9924 67bd 1c8f a13d
-0.15230986 0.103933655 0.15213743 0.013881766 0.03571264 0.010061361 0.11313901 -0.015385448
0.01802847 0.02991475 -0.08924527 0.11969658 -0.038195595 -0.026284037 0.11092021 -0.10359439
-0.10796571 -0.09997741 0.05166834 -0.026774457 0.035223823 -0.025312368 0.009636779 0.14707159
0.07115131 -0.0057233544 0.037801575 0.0445675 -0.029323937 0.03864053 -0.056431387 0.07888624

MLP.10.weight f4 [32, 32]
00000000: 30a1 c1bc ec11 413c 5fd3 733d aa71 fb3d
00000010: 92bd e43d d29d 63bd dc16 3dbd 905f 183e
00000020: d273 37bd 9eb9 e53c 4b44 d2bd 7df3 2b3d
00000030: d60a 97bd 275a 7bbd 0013 9bbd fbd4 c73c
00000040: 5980 d4bb 2748 003b d7f1 5dbd 5cdf a93d
00000050: 2e9d d83d a67c 8abd 759c 713d 3a1d f7bd
00000060: 6fda 073e 88ee 85bb e3d8 153e 3ca7 c83d
00000070: e896 ab3b ce1c 173d 5440 8e3d 41d8 c4bc
00000080: c588 293c 504b 25be eb4d b43d a42c 783c
00000090: c6d0 213c 180f 913d 8353 e63d 4660 b0bd
000000a0: 43c7 36bd 7395 5bbd 842a 903d 25e2 ed3d
000000b0: c2db e73d 580e 033e 6ae9 0c3e 82d2 a2bd
000000c0: 9259 2abc bca3 453b b55b d73b c850 3f3d
000000d0: 2749 19bb f6e6 3b3d dbe0 0a3d f033 09be
000000e0: ea78 c43d 09a5 823d 5ff0 29bd aa92 a23d
000000f0: 7d09 103d 2500 ad3d 2f0b c03c b7a5 8cbd
00000100: 512f 11be 1f37 8ebb 3c2d 3fbe 7f8b fdbd
00000110: 9152 83bc c5df f1bb c045 ca3b 59b2 17be
00000120: 107a 5dbd bb87 073e a41b c83d cc19 dc3d
00000130: 63b8 cf3d e6e3 a93c 7ecd 293d 2a01 1f3e
00000140: abc5 e3bc f1ab 55bd c063 eabd 0901 a6bd
00000150: 8133 513d 5aef c33d cba3 ebbd 0424 5b3e
00000160: 3827 3fbd a6a3 aabd 7eb4 adbd c0a5 653d
00000170: 7dfa a4bd c2c8 8bbd 134c e53c 7d82 af3d
00000180: c7a3 20bb 7e45 b6bd 9aca a73d 5747 a53a
00000190: a879 02be 6efb d4bd bc9e 6dbc 20b8 6cbd
000001a0: 5f2b 34bd c30e 27be fada 5cbd f9dc 173d
000001b0: 84c1 ca3d 8cd0 88bd d576 6ebd 59b0 8bbd
000001c0: 7509 7bbc 5a44 7ebd e85b 32bb 57ce 88bc
000001d0: 0044 02bd 483e 823d 63ae e63d ebef 8c3d
000001e0: b916 7fbd e7d3 933a 8a17 d83d 8bfc 12be
000001f0: b9f6 e43d 0690 b4bc e096 ab3d 0fef d2bd
00000200: 7068 2c3d 93dc 1b3d b96f 103d 86e1 72bd
00000210: 0f5e 083d f93b d3bd 2dba 22bb e042 a83d
00000220: 3d11 efbb ab76 e7bd 6cc2 f83d eb88 06be
00000230: 03fc 17be cc37 a63d f7af 67bd a1bb 4bbd
00000240: daa2 4b3c 8f0c 383c b451 92bd 2147 963c
00000250: d7a5 e2bd 99e6 503d ff66 04be 7943 bcbd
00000260: 6d1d 13be 1d15 91bd bf61 cd3d 01f8 7d3d
00000270: 674f 813c 4e71 a6bd a284 5dbd c292 123e
00000280: 5b05 0cbe be48 903d f76b df3d 7a35 db3c
00000290: 7d77 ecbd 0c42 0a3e e783 613d c8cb 723d
000002a0: 598e 01bd 9041 0b3c 7a16 8bbd bf6e 2a3e
000002b0: bd3a bc3d 3628 3f3d 1bbc a5bd 0c0b c0bc
000002c0: 063a 91bd f210 6fbd 0363 553d 866d debd
000002d0: a7d4 7dbd ab2b 12bd 47b4 8bbd e772 a83c
000002e0: dde2 68bb 622e 63bd 61e0 ffbb cacf 703d
000002f0: b795 013e d2b4 95bc 76cc a13d dcac 15be
00000300: b4d3 b23d 6c2d 2a3d ab5c 0cbd bd18 aebd
00000310: 3ce4 163d 3662 aebd 9ec0 d9bd dca6 cc3d
00000320: 2c93 cbbc 8834 babd c1bf 91bc bdf6 48bc
00000330: 5e34 0d3e da0d ee3d 1bbc 91bb 5348 203e
00000340: 4782 a7bd 6ca8 39bd c9f2 133d 0735 e4bd
00000350: 7c8e d1bd dda8 7c3c baf9 1e3e ff0a 8a3d
00000360: d19d bb3c ff77 4abd 30d5 433c 4cae 053e
00000370: e331 43be 8d14 693d a527 613d 5e39 e13c
00000380: 1a97 fa3c 1c22 363e bcf8 603d c0e4 943d
00000390: cb28 2e3e 8ca7 a93c 9333 cbbd 19db d43d
000003a0: d9d9 2dbd 2173 e03d ff61 c1bd 15a3 9fbb
000003b0: b503 8cbd 4ca4 e6bc 35c0 a8bd 253b e93c
000003c0: caf5 563b e1c0 193d 1628 073e 254f 943d
000003d0: 0285 afbd 3f85 2bbc a5b1 e3bd 5fa8 653e
000003e0: d823 7fbd fe24 123d 7a87 173e b5a8 70bd
000003f0: 685f 3abd 7eeb 51bd d8da bfbc 84fd f5bd
-0.02363643 0.011784058 0.05952775 0.12277539 0.1116897 -0.05557043 -0.04616438 0.14880204
-0.04478819 0.02804261 -0.10266932 0.041980255 -0.07375114 -0.061365273 -0.07571983 0.02439355
-0.006485027 0.0019574256 -0.054185715 0.082945555 0.10576855 -0.06762056 0.0589871 -0.120661214
0.1326692 -0.004087273 0.14633517 0.097975224 0.0052364953 0.036892705 0.06945863 -0.0240289
0.01034755 -0.1614201 0.08803924 0.015147362 0.009876436 0.07082957 0.11246397 -0.08612113
-0.044623625 -0.053609323 0.07039359 0.11615399 0.11321212 0.1279844 0.13760915 -0.079503074
-0.010397332 0.0030157408 0.0065722116 0.0467079 -0.002338955 0.04587456 0.033905845 -0.13398719
0.09593375 0.06379134 -0.041489 0.0793813 0.0351653 0.08447293 0.023442833 -0.06867545
-0.14178206 -0.004340067 -0.186696 -0.123801224 -0.016030582 -0.0073814117 0.0061728656 -0.14814128
-0.054071486 0.13235371 0.09770897 0.10747108 0.10142591 0.020738553 0.04145574 0.15527788
-0.027804216 -0.05216593 -0.11444807 -0.08105666 0.05107451 0.09567137 -0.115058504 0.21400458
-0.04666826 -0.08331995 -0.08481692 0.056066275 -0.08055589 -0.06825401 0.027990377 0.085698105
-0.0024511681 -0.08899973 0.0819294 0.0012609762 -0.1274172 -0.10399519 -0.014503177 -0.057792783
-0.043986674 -0.16314225 -0.05391977 0.03707597 0.099001914 -0.06680402 -0.058218796 -0.06820745
-0.015322079 -0.062076904 -0.0027215425 -0.016699953 -0.03180313 0.063595355 0.112637304 0.06881698
-0.06227753 0.0011278362 0.10551365 -0.1435415 0.11179871 -0.022041332 0.083783865 -0.10299503
0.042091787 0.038052153 0.035262797 -0.059297107 0.033292826 -0.10314173 -0.0024830208 0.082158804
-0.007295756 -0.11301931 0.12146458 -0.13138168 -0.14842229 0.08116111 -0.056564298 -0.049739484
0.012428964 0.011233463 -0.0714449 0.018344464 -0.11066788 0.051001165 -0.12929915 -0.09192557
-0.14366694 -0.07084105 0.10028409 0.062004093 0.015784932 -0.0812708 -0.054081567 0.14313796
-0.13673918 0.070451245 0.109092645 0.026758898 -0.11546228 0.13501757 0.055057433 0.059276372
-0.031629894 0.008499518 -0.067913964 0.16643809 0.09190891 0.046669208 -0.08092519 -0.023442768
-0.07091145 -0.05836577 0.052096378 -0.10860734 -0.06197038 -0.035686176 -0.068214945 0.020562602
-0.0035535612 -0.055464156 -0.0078087305 0.058791913 0.12654768 -0.018274698 0.07900326 -0.14616722
0.087317854 0.041547224 -0.034268063 -0.08500812 0.036838755 -0.08514826 -0.10632442 0.099927634
-0.02485045 -0.09092051 -0.01779163 -0.012265858 0.13789508 0.11623736 -0.0044474727 0.1565259
-0.08179145 -0.045326635 0.03612021 -0.11142927 -0.10232255 0.0154211195 0.1552495 0.067403786
0.022902401 -0.049430843 0.011952683 0.1305477 -0.19061999 0.056904364 0.05496945 0.027493175
0.030589629 0.17786449 0.05492471 0.07270193 0.17007749 0.020709775 -0.099219464 0.10393352
-0.042444084 0.10959459 -0.094425194 -0.004871736 -0.068366446 -0.028154515 -0.082397856 0.028470585
0.003280031 0.03753746 0.13198885 0.07241658 -0.08570291 -0.01046878 -0.111178674 0.2242751
-0.062290043 0.03567981 0.14797774 -0.05875464 -0.045501143 -0.051249973 -0.023419783 -0.12011245

MLP.10.bias f4 [32]
00000000: 17f5 bebd c730 8fbd 660d 0d3e a0d1 bf3d
00000010: 8c79 253e 115f 863d 2438 9f3d d864 6d3d
00000020: 6eb5 9d3d 4b9e f23d bacd 17be ac78 a13d
00000030: ed1e 0a3e b332 b83d fb25 1fbe 908e 67bd
00000040: 21f1 18bb 427e f33d a715 f3bc 6264 78bd
00000050: 2193 d83c 03ab a03d d660 62bd 75b2 313d
00000060: c406 033e c79b d03c f6de 923d bd81 c3bc
00000070: 3475 193c 701c 103d 3d16 083c 6400 2dbd
-0.09324091 -0.069917254 0.13774642 0.09366155 0.16159648 0.06561101 0.0777438 0.0579575
0.077006206 0.11846598 -0.14824572 0.078843445 0.1348836 0.08994045 -0.15541832 -0.056532443
-0.0023337083 0.11889316 -0.02967341 -0.060642608 0.026437344 0.07845118 -0.05526813 0.04338308
0.1279555 0.025464905 0.07171433 -0.023865575 0.009366322 0.03518337 0.008306083 -0.0422367

MLP.11.weight f4 [32]
00000000: 3764 113f ee01 613f 2ff9 6c3f fc52 6a3f
00000010: 111a 503f 3050 713f db99 723f 5e85 593f
00000020: 5348 603f f948 653f 1892 493f d0ec 6c3f
00000030: 11f3 283f 4e2c 6c3f b14a 6f3f 6ac7 533f
00000040: dbae 733f ff8a 6d3f bf43 543f 66c6 633f
00000050: 6076 6d3f 3a32 743f 03f6 463f 96fb 5f3f
00000060: 5387 6f3f 9a35 433f 43d1 703f 2b30 5a3f
00000070: 9114 673f b19d 363f ee71 6d3f f4a4 733f
0.5679354 0.8789357 0.92567724 0.91532874 0.81289774 0.9426298 0.94766015 0.8496913
0.8761036 0.8956447 0.78738546 0.9254885 0.6599589 0.92255104 0.93473345 0.82726157
0.95188683 0.92790216 0.8291587 0.88974607 0.9275875 0.9538914 0.77719134 0.87493265
0.93565863 0.76253664 0.9406931 0.8522975 0.90265757 0.7133437 0.9275197 0.95173573

MLP.11.bias f4 [32]
00000000: c14f abbb 31c0 14bc 42bd aebc 153e 38bc
00000010: 8dc8 863b 18fe 1cbb 0bf4 ce3a 3d97 aa3c
00000020: 2dbc bfbb 5400 4dbc 66b8 13bb 4b07 d6bc
00000030: d84e 2cbc 5653 7ebc a7c8 babc 21d4 89bc
00000040: a754 2f3c f172 fa3b f3b1 0cbc c869 003b
00000050: 05a1 0ebb 4e02 febb 3364 adba 45d2 1c3d
00000060: fe77 06bb a5ba 3f3c abc9 02bb f79f a4ba
00000070: 6ff0 b53c ddf5 22bd a3b1 a43c 6c4d 80bc
-0.0052280133 -0.009079025 -0.02133048 -0.01124527 0.004113263 -0.0023955163 0.0015789283 0.02082407
-0.0058512897 -0.012512285 -0.002254033 -0.026126524 -0.010516845 -0.0155227985 -0.022800757 -0.016824784
0.010701335 0.0076430966 -0.008587348 0.00195943 -0.0021763456 -0.0077517396 -0.0013228714 0.038286466
-0.0020518298 0.011702214 -0.001995663 -0.001255988 0.022209374 -0.039785255 0.020104235 -0.015661918

MLP.13.weight f4 [4, 32]
00000000: af15 893c 7170 503d 6a75 d53d 401e ec3d
00000010: df07 013d e757 163e 9309 0c3e cfca 4abd
00000020: 3fbe c13c caab b4bd b10b 05bd df2f 1f3e
00000030: b2f8 543c 99fa c03d 0797 653d 72c4 0cbd
00000040: 0cba 1abe 837e f2bd 664f a73c eb69 803d
00000050: 7ceb e23d 589b 013e 76a4 c8bc 0c7e ddbd
00000060: 7568 773d eddd f8bc f344 ad3d 0ccd ca3c
00000070: f78a adbd 8bba 673b f081 dabd a5d6 173e
00000080: fc2d 48bd 6653 36bc b57a 163c 46c2 11bd
00000090: d08a 973c 797a 9f3c 0979 cabc 5b99 e5bb
000000a0: 173a 5e3d c828 403d 987a 4c3c 0581 bbbc
000000b0: 2433 a33c 344e 143d b478 4ebc aedd 9f3c
000000c0: 3ac3 0cbc c71a acbd d958 80b9 7519 053c
000000d0: 908c 2e3c 7d95 6b3c 7ab1 9b3d 1ca7 703c
000000e0: ff4d a7bd 27d4 4abd 957c 9ebc 46c6 b1bd
000000f0: bd63 9b3c 416f 47bc 09a4 93bd ce29 a8bc
00000100: 4015 733d 0db0 393c acb6 c73a 5b1c 5fbc
00000110: 45c5 243b 4726 003c c983 64b9 80e1 a2bc
00000120: 5239 18bc ecb8 bb3b e872 393d 4f7d 36bb
00000130: 0a96 c03b 9ca3 5abc a455 dabb 1b87 b0bb
00000140: 0bb4 543c 65c7 b73b 3578 cd3c 7401 8abb
00000150: 9575 df3c 123f cf3b 7730 3f3c 6eaf 14bb
00000160: 89cf 283d 28b8 8dbb 1b34 fcbc 1ef7 99bc
00000170: 879e febb 8baf cd3c 43e9 8e3c d93f 0cbc
00000180: 110c b5bd 3325 b2bd 4395 083e 6ea1 02bd
00000190: a612 95bd 7305 a6bc 4d52 f9bd 7353 bfbd
000001a0: 36c1 22be 4c57 6bbd 4e99 983d 5509 0cbe
000001b0: 42fc 863d 87a0 1cbe f21e 2d3e bd3e 153e
000001c0: 2035 0ebe e60a fe3d c1eb d93d 3d86 f13a
000001d0: a898 1cbe 74b6 81bb 278c 8f3c ec67 1abc
000001e0: 4089 09bd 1284 25bd 90f6 2a3e 626c a1bb
000001f0: a1f8 19bd 46ce a23c ca2d 6a3d 11ba 6ebd
0.016733972 0.050888482 0.104227856 0.11529207 0.031501647 0.1468197 0.13675527 -0.04950982
0.023650287 -0.08821829 -0.032481853 0.15545605 0.012998747 0.09422798 0.056052234 -0.034367032
-0.15110034 -0.118405364 0.020423602 0.06270202 0.11080071 0.12656915 -0.024492484 -0.10815057
0.060402352 -0.03037926 0.08460417 0.024755977 -0.08473771 0.003535899 -0.10669315 0.14827974
-0.04887198 -0.011128282 0.009184529 -0.035585664 0.018498808 0.01946758 -0.024715917 -0.007006807
0.054254618 0.046913892 0.0124804005 -0.02288867 0.019921847 0.036207393 -0.01260202 0.019514885
-0.0085914675 -0.08403545 -0.0002448026 0.008123745 0.01065363 0.0143789025 0.0760221 0.0146882795
-0.081691734 -0.04951873 -0.019346515 -0.08680396 0.018968457 -0.012172521 -0.072090216 -0.020527747
0.059346437 0.011333478 0.0015236936 -0.0136176 0.0025141996 0.007821626 -0.00021792868 -0.019882917
-0.00929101 0.0057288315 0.0452756 -0.0027845686 0.005877261 -0.013344672 -0.006663041 -0.0053871996
0.012982379 0.0056084865 0.025081733 -0.004211599 0.027277747 0.0063246572 0.01166927 -0.0022687572
0.041213546 -0.0043249317 -0.030786565 -0.018794592 -0.007770363 0.02510812 0.017445212 -0.008560144
-0.08840192 -0.086985014 0.13338189 -0.031892233 -0.072789475 -0.02026627 -0.12173901 -0.093420886
-0.15894017 -0.0574563 0.074511155 -0.13675435 0.06591083 -0.15295611 0.16906336 0.14574714
-0.13887453 0.124044225 0.106406696 0.0018426847 -0.15292609 -0.0039585177 0.017522885 -0.009424191
-0.033578157 -0.040409155 0.16695619 -0.0049262503 -0.037590627 0.01987375 0.057172574 -0.058282916

MLP.13.bias f4 [4]
00000000: 2c5f 013e e219 29bc 63fc 31bc ac7c 99bd
0.12633961 -0.010321112 -0.010863396 -0.074944824
