example/model/acker_robot_default/model_1000.pth (torch, 24610 bytes, 18 tensors)

MLP.0.weight f4 [32, 2]
0	0x3eb1f95b	0.34760556
1	0xbe3f6618	-0.1869129
2	0xbd2c3bb7	-0.042049136
3	0xbd4b452e	-0.04962652
4	0xbf11afcb	-0.56908864
5	0xbe7cebf9	-0.24699391
6	0x3def9e95	0.11700169
7	0xbf296ac7	-0.66178554
8	0xbe8081ad	-0.25098935
9	0x3e2b62be	0.16736886
10	0xbf1cd3dd	-0.6126078
11	0xbf035b39	-0.5131107
12	0xbef07735	-0.46965948
13	0xbe67189a	-0.22567979
14	0xbe7efac5	-0.24900348
15	0x3e08ef0e	0.13372442
16	0xbeb98fea	-0.3624261
17	0x3ec62908	0.3870318
18	0x3cd324b7	0.025774343
19	0x3db7b56b	0.089701496
20	0x3f1e2d4b	0.6178786
21	0xbefe931e	-0.49721617
22	0x3ea0f919	0.31440046
23	0x3f2ab744	0.6668589
24	0xbeba8d5e	-0.3643598
25	0x3cb571a3	0.022148913
26	0x3dad975f	0.08476137
27	0xbeb0cdcf	-0.3453202
28	0xbce016b5	-0.027354578
29	0x3ea2f1d9	0.3182514
30	0xbe836e34	-0.25670016
31	0xbdce7388	-0.100806296
32	0xbd054874	-0.0325398
33	0xbe6b4fe5	-0.22979696
34	0x3ee59c3b	0.44845757
35	0x3e6509e4	0.22367054
36	0x3e4216fa	0.18954077
37	0x3f1ebc17	0.6200575
38	0xbbf2df66	-0.007411885
39	0xbf1f31a2	-0.6218511
40	0xbe5601a7	-0.20899068
41	0xbf0ba146	-0.5454296
42	0xbec2ebae	-0.38070434
43	0x3ec13246	0.37733668
44	0xbef2c9c2	-0.47419554
45	0x3ec18236	0.37794656
46	0xbe217efe	-0.157711
47	0xbe872686	-0.2639658
48	0x3e62d4f9	0.22151555
49	0x3e446ae9	0.19181408
50	0x3cd2ca5f	0.025731264
51	0x3ef88421	0.48538306
52	0xbe3aabac	-0.1822955
53	0xbe25d4e7	-0.16194497
54	0x3efcd0e6	0.49378127
55	0xbe34388d	-0.17599697
56	0x3f04e76a	0.5191561
57	0xbee2e040	-0.44311714
58	0xbe040eec	-0.12896317
59	0xbe3c22ef	-0.18372701
60	0x3e545ec3	0.20739274
61	0x3d50c6f6	0.050970994
62	0xbf106707	-0.5640721
63	0xbf03e117	-0.51515335

MLP.0.bias f4 [32]
0	0x3f2408a3	0.6407568
1	0xbee356ec	-0.44402254
2	0xbe2e3071	-0.17010666
3	0xbe9e814d	-0.30958024
4	0x3bdf4923	0.0068141385
5	0x3daf29ca	0.085528925
6	0xbed48e70	-0.4151492
7	0xbe19e336	-0.1502808
8	0xbe243ae5	-0.16038091
9	0x3dd98977	0.106219225
10	0x3d99f2c5	0.07517008
11	0x3e896f2b	0.26842627
12	0x3f18b12e	0.59645355
13	0x3ea791e7	0.32728502
14	0xbf1e7cf7	-0.6190943
15	0x3e91dd70	0.28489256
16	0xbda792dc	-0.08182308
17	0x3eef1e48	0.4670279
18	0x3f1f0c9d	0.6212862
19	0x3ee98b74	0.45614207
20	0x3f27bff2	0.6552726
21	0x3f12a42d	0.5728176
22	0x3c8305e1	0.015994014
23	0xbd04160a	-0.03224758
24	0x3db97648	0.090557635
25	0xbec37026	-0.381715
26	0x3f509319	0.81474453
27	0xbeb396c3	-0.3507596
28	0xbe0cba45	-0.13742931
29	0x3f35fd60	0.71089745
30	0x3ebb7524	0.3661281
31	0x3dd97afe	0.10619162

MLP.1.weight f4 [32]
0	0x3f838429	1.0274707
1	0x3fa06b53	1.2532753
2	0x3f6e968f	0.93198484
3	0x3f817782	1.0114596
4	0x3f70dfe1	0.9409161
5	0x3f6a571a	0.91539156
6	0x3f7f48c7	0.99720424
7	0x3f6cc6a2	0.9249059
8	0x3f6e300c	0.93042064
9	0x3f6aef6f	0.91771597
10	0x3f6c37eb	0.92272824
11	0x3f7ec999	0.99526364
12	0x3f8255c7	1.0182427
13	0x3f6c8a5f	0.9239864
14	0x3f6bf800	0.9217529
15	0x3f6813b6	0.90655077
16	0x3f791a24	0.9730551
17	0x3f64e72e	0.8941525
18	0x3f6aca51	0.9171496
19	0x3f694b94	0.9113095
20	0x3f81a1d7	1.0127515
21	0x3f748e8d	0.95530015
22	0x3f72e31d	0.948778
23	0x3f74f9a8	0.95693445
24	0x3f718d68	0.94356394
25	0x3f78f77e	0.97252643
26	0x3f8774d9	1.0582534
27	0x3f7cea9e	0.987955
28	0x3f67ee02	0.90597546
29	0x3f72df40	0.948719
30	0x3f7fb44e	0.998845
31	0x3f68f585	0.90999633

MLP.1.bias f4 [32]
0	0xbc3c7a0e	-0.0115037095
1	0x3c6872aa	0.014187494
2	0xbcd13b8e	-0.025541093
3	0x3d8ef88f	0.069810025
4	0xbd148cba	-0.03626702
5	0xbb63d8e8	-0.0034766737
6	0xbcae38f6	-0.021267395
7	0xbc2b10e4	-0.010441039
8	0x3d0f4a4f	0.034982976
9	0xbc437c3d	-0.011931476
10	0x3c710846	0.014711445
11	0xbd98c00c	-0.07458505
12	0x3c26250e	0.01014067
13	0x3c695ae5	0.014242862
14	0xbd5aa0c0	-0.05337596
15	0x3cfc9373	0.030832028
16	0x3d15e5a1	0.036595944
17	0x3d0afdb4	0.033933356
18	0xbd96323f	-0.073338024
19	0x3cbc0468	0.02295132
20	0x3c02f5b9	0.007993155
21	0xbb1de1a8	-0.00240908
22	0xbce98f6c	-0.028510772
23	0x3c321852	0.010870056
24	0x3c53bc2d	0.012923283
25	0xbc60fa02	-0.0137314815
26	0x3c6eb185	0.014568691
27	0xbca47bc2	-0.020078544
28	0xbc12e61f	-0.008965998
29	0x3cfc978c	0.030833982
30	0xbc505679	-0.012715929
31	0x3d6c54a8	0.057697922

MLP.3.weight f4 [32, 32]
0	0xbde9f19e	-0.11423038
1	0xbecae3c9	-0.3962691
2	0x3de951cc	0.11392555
3	0xbddca741	-0.10774089
4	0xbdaa6dc3	-0.08321717
5	0xbe1a45ac	-0.1506564
6	0x3decfbe9	0.115714855
7	0xbda09ad4	-0.07842031
8	0xbe0fc546	-0.14040098
9	0x3da76f63	0.08175542
10	0xbe1d8dee	-0.15386173
11	0x3dd6ede7	0.10494595
12	0x3b8716d6	0.0041225953
13	0x3db86cb7	0.09005111
14	0xbdf0c0cb	-0.11755522
15	0x3d8a86ba	0.06763978
16	0xbe1fb4e5	-0.1559635
17	0x3cf2456b	0.029574117
18	0xbd51b4a8	-0.051197678
19	0xbbfb3288	-0.007665936
20	0xbe1a4fba	-0.15069476
21	0x3e261aef	0.16221212
22	0x3cf940da	0.030426431
23	0x3e0e0cbb	0.13872044
24	0xbdf62f99	-0.12020797
25	0x3d392322	0.04519952
26	0xbde01349	-0.10941178
27	0x3cfb3df3	0.030669188
28	0xbd05b85d	-0.032646526
29	0x3e271ba5	0.1631914
30	0xbde7150d	-0.11283312
31	0x3d96b09f	0.073579066
32	0xbdbda882	-0.09260656
33	0xbe112f07	-0.14178096
34	0xbe173d90	-0.14769578
35	0x3e077d6f	0.13231443
36	0x3dd2d2d9	0.10294122
37	0x3ba6f9e7	0.0050957086
38	0xbdfd8ecb	-0.12380751
39	0xbe0970d7	-0.13421951
40	0x3de5c25d	0.112187125
41	0x3db218f9	0.086961694
42	0xbe2da345	-0.16956814
43	0x3e1ed82b	0.15512149
44	0xbde828f3	-0.113359354
45	0x3e1a30ea	0.15057722
46	0x3ce5b07f	0.028038261
47	0xbd932415	-0.071846165
48	0xbe069b98	-0.13145292
49	0x3e1e688e	0.15469572
50	0x3d437d86	0.04772713
51	0xbe1552b3	-0.14582328
52	0xbe181ff3	-0.14855938
53	0x3e2548d7	0.16141067
54	0x3e21edb4	0.15813333
55	0x3db6d835	0.08927957
56	0xbc810f71	-0.015754433
57	0x3cd32da0	0.025778592
58	0x3d4c8943	0.04993559
59	0xbbe87e75	-0.007095153
60	0x3c8523ed	0.016252482
61	0x3d8227ac	0.06355223
62	0x3dd4fed2	0.104001656
63	0x3d6267b3	0.055274677
64	0xbd6bba76	-0.05755087
65	0xbc5aae32	-0.013347195
66	0xbd98f74b	-0.074690424
67	0x3dee96e4	0.11649874
68	0xbccebdd1	-0.025236996
69	0x3e03bfc6	0.12866125
70	0x3d4b9cd9	0.04971013
71	0xbdec2ab7	-0.11531585
72	0xbe025902	-0.12729266
73	0xbe0e6592	-0.13905933
74	0xbd8a74cc	-0.067605585
75	0x3ce07542	0.027399663
76	0xbc563c72	-0.013075935
77	0x3d8082c9	0.06274945
78	0xbd8a186d	-0.0674294
79	0xbcbfe1a4	-0.023423024
80	0x3e1f9da1	0.15587474
81	0x3e0c2c0a	0.13688675
82	0xbe3c9c82	-0.18419078
83	0x3dbde0be	0.09271382
84	0xbc310fb9	-0.010806971
85	0x3e21a6b1	0.15786244
86	0x3c4ae3a5	0.012383376
87	0xbd319ee4	-0.04336442
88	0x3dbecb82	0.0931616
89	0x3dac9021	0.08425928
90	0xbc57ffcb	-0.013183544
91	0x3d97fca8	0.07421237
92	0xbe0078f2	-0.12546137
93	0xbe13ad3e	-0.14421555
94	0xbd708f20	-0.058730245
95	0x3e219ea3	0.15783171
96	0x98bda937	-4.902622e-24
97	0x81bbc34f	-6.8973205e-38
98	0x25c85411	3.4751435e-16
99	0x261fb736	5.5412504e-16
100	0x14e11c20	2.2730287e-26
101	0x291b85bd	3.4532913e-14
102	0x242f6359	3.8031227e-17
103	0x0e639a35	2.8054158e-30
104	0x20422149	1.6443452e-19
105	0x8f36a14d	-9.004358e-30
106	0x9a8252a4	-5.390025e-23
107	0xaa9a66fe	-2.742736e-13
108	0x9433b15a	-9.072167e-27
109	0x9b6f42af	-1.9791163e-22
110	0x25d51d46	3.6969446e-16
111	0x8ccc1eca	-3.1449707e-31
112	0x8bd4b362	-8.1929335e-32
113	0xa6c85933	-1.3901965e-15
114	0xa9da8bba	-9.7053835e-14
115	0x2732feee	2.484066e-15
116	0x28c8782a	2.2256573e-14
117	0x1e31aae2	9.40564e-21
118	0x1f92e26a	6.2207976e-20
119	0x1aa1cef3	6.6922384e-23
120	0xa3a987ab	-1.8380474e-17
121	0xa8c01b0b	-2.132801e-14
122	0x990797d5	-7.009999e-24
123	0xa0392918	-1.5683706e-19
124	0x1a89fff3	5.707538e-23
125	0x953ceb75	-3.815204e-26
126	0x9cc3539e	-1.2925632e-21
127	0x28ffc2ac	2.8395113e-14
128	0xbe1770fc	-0.14789194
129	0x3e9f0ccd	0.31064454
130	0xbe10df82	-0.14147761
131	0x3dc1c669	0.09461672
132	0xbd9355e4	-0.07194117
133	0x3d4e371a	0.050345518
134	0x3dc0524b	0.09390696
135	0x3e187062	0.1488662
136	0xbd8e6a7c	-0.06953904
137	0xbd718b2a	-0.058970608
138	0xbe0cc250	-0.13746
139	0x3c79dfb2	0.015251087
140	0xbdf1d0f7	-0.11807435
141	0x3de57325	0.11203603
142	0xbe3755ee	-0.17903873
143	0x3d3b620c	0.0457478
144	0x3df83f54	0.12121454
145	0x3d068865	0.03284492
146	0xbdf19ab9	-0.11797089
147	0x3e0182c7	0.12647544
148	0x3dfbc1f1	0.12292851
149	0xbd034fc5	-0.032058496
150	0x3db1f571	0.08689392
151	0xbd36951e	-0.044575803
152	0x3e11ff80	0.14257622
153	0xbd689bb9	-0.056789134
154	0xbdd0e37f	-0.101996414
155	0xbe2db8dd	-0.16965051
156	0xbde3e2a4	-0.11127213
157	0x3c631373	0.0138596175
158	0xbe37fd8e	-0.17967817
159	0xbd45da40	-0.048303843
160	0xbe21cf1b	-0.1580166
161	0x3d64da74	0.055872396
162	0x3cc1e5d5	0.023669163
163	0x3d96f569	0.07371027
164	0x3d2af197	0.041734304
165	0xbda258c7	-0.07927089
166	0x3e67e7f6	0.2264708
167	0x3e386ca5	0.18010195
168	0xbc2c78b0	-0.010526821
169	0x3dcae31d	0.099066
170	0xbdb4e170	-0.08832061
171	0xbceed8fb	-0.029156199
172	0xbcad9347	-0.021188391
173	0xbe1c191e	-0.15243956
174	0xbcdfb541	-0.027308108
175	0x3c8a9169	0.01691504
176	0x3e16d65b	0.14730208
177	0xbc55a738	-0.013040356
178	0x3c05be96	0.008163115
179	0x3e25ac3d	0.16178985
180	0xbda67579	-0.08127875
181	0x3dc428a5	0.09578065
182	0x3e2d492c	0.16922444
183	0xbe037282	-0.1283665
184	0xbe1dd567	-0.15413438
185	0x3d6426f9	0.05570123
186	0x3e63c69f	0.22243737
187	0xbe056528	-0.1302687
188	0x3deb3f5b	0.114866935
189	0xbdbc548a	-0.09195812
190	0xbdba118e	-0.090853795
191	0x3e4da447	0.20082198
192	0xbe2a170d	-0.16610356
193	0xbe0b3369	-0.1359383
194	0x3cc8903c	0.024482839
195	0x3e5ad0b4	0.21368676
196	0xbd1e84de	-0.03870093
197	0xbe32e3fe	-0.17469785
198	0x3e168888	0.1470052
199	0xbd558c05	-0.052135486
200	0x3da996fc	0.08280751
201	0x3da404f8	0.0800876
202	0x3dd246d5	0.102674164
203	0x3de58747	0.11207443
204	0xbc63b210	-0.013897434
205	0x3de99c68	0.11406785
206	0x3d8e4093	0.0694591
207	0x3e5bec1b	0.21476786
208	0x3dadcd62	0.08486439
209	0xbdc525ff	-0.09626388
210	0xbb42b532	-0.0029710052
211	0x3c471870	0.012151822
212	0x3e32e1ae	0.17468902
213	0xbdcb0c18	-0.09914416
214	0xbe2e40fa	-0.17016974
215	0xbcb8e4b2	-0.022569988
216	0x3dc1a5d3	0.094554566
217	0x3c8e9ded	0.01740929
218	0x3e5b4dbc	0.21416372
219	0xbe5dbbe7	-0.2165371
220	0xbdafa139	-0.08575673
221	0x3d49af85	0.049239654
222	0x3cd54cb9	0.02603756
223	0x3c3457f5	0.011007299
224	0x3cface1f	0.030615864
225	0x3e7fbce5	0.24974401
226	0x3e02ea62	0.12784722
227	0x3b74ec54	0.0037372308
228	0xbd13c3de	-0.036075465
229	0xbde99cce	-0.11406861
230	0xbe3569f4	-0.17716199
231	0x3cde9cc9	0.02717437
232	0xbdd850f2	-0.10562314
233	0x3e0fd0fb	0.14044563
234	0x3c95f99e	0.018307503
235	0x3e027c9a	0.12742844
236	0xbdac9540	-0.08426905
237	0xbe1f5806	-0.15560922
238	0xbd03b8ad	-0.032158542
239	0x3ce1b7ec	0.027553521
240	0x3dd581d6	0.10425155
241	0x3d20cd55	0.03925832
242	0xbd41d3a8	-0.04732099
243	0x3dd11938	0.10209888
244	0xbe1d6305	-0.15369804
245	0x3d600562	0.054692633
246	0x3e2be934	0.16788179
247	0xbdabb618	-0.08384341
248	0xbdb635bd	-0.088969685
249	0xbe1eb58b	-0.1549894
250	0x3bf153ae	0.0073647117
251	0x3dad7b9d	0.08470843
252	0x3d878a9c	0.066182345
253	0xbb409294	-0.0029384242
254	0x3d1a9c6f	0.037746843
255	0x3d921537	0.07132953

MLP.3.bias f4 [32]
0	0x3e118663	0.1421142
1	0x3e3176d7	0.1733049
2	0x3e2ae2c3	0.16688065
3	0xae848136	-6.0256175e-11
4	0xbcfbd0b6	-0.03073917
5	0x3b86642e	0.004101298
6	0xbe3f903e	-0.18707368
7	0x3d9ce70d	0.07661257
8	0x3d7b6a8a	0.0613809
9	0xbdea5f73	-0.11443987
10	0x3dc9c978	0.0985288
11	0xbdb76bb7	-0.08956092
12	0x3e1ec787	0.15505801
13	0x399fe2ea	0.00030495907
14	0xbddb3aaf	-0.107045524
15	0x3d8d5243	0.06900456
16	0x3cd428a8	0.025898293
17	0xbe067dc9	-0.1313392
18	0x3d0be015	0.03414925
19	0xbe2f9559	-0.17146815
20	0xbd00bb41	-0.03142858
21	0xbe5667ad	-0.20937987
22	0xbdc08cd1	-0.094018586
23	0x3e2b0966	0.16702804
24	0xbde135fe	-0.10996626
25	0x3d8b965c	0.06815788
26	0xbd3aa407	-0.045566585
27	0x3e03da44	0.1287623
28	0x3dfd3e79	0.12365431
29	0x3dade046	0.084900424
30	0xbd3f1bfc	-0.046657547
31	0xbdbb92c2	-0.09158851

MLP.5.weight f4 [32, 32]
0	0xbdfb7659	-0.122784324
1	0x3d9e9b1a	0.07744427
2	0x3d37db25	0.044886727
3	0x2210fec2	1.9650507e-18
4	0xbe1d7d09	-0.15379728
5	0x3d9af602	0.075664535
6	0xbd632f65	-0.05546512
7	0x3c4e0a45	0.012575691
8	0xbcb245cd	-0.0217618
9	0xbcaa179b	-0.02076321
10	0x3e1ea585	0.15492828
11	0xbcbbac8c	-0.022909425
12	0xbe4de138	-0.20105445
13	0xbdec564f	-0.115398996
14	0x3e1281e6	0.14307365
15	0x3d9c2a2c	0.07625231
16	0x3e0f804b	0.14013784
17	0x3c7d0fb7	0.015445641
18	0x3d3dcf02	0.046339996
19	0x3da5c387	0.080939345
20	0x3dfd89dd	0.12379811
21	0x3cd007c7	0.025394334
22	0xbe14cea1	-0.14531948
23	0xbe34840e	-0.176285
24	0xbdb0d983	-0.08635237
25	0x3d604bc9	0.054759774
26	0x3ccd259d	0.02504235
27	0x3d42a961	0.047524814
28	0xbcec4ce4	-0.028845258
29	0xbd72d849	-0.059288297
30	0xbd7cf4e1	-0.061756972
31	0x3deec0f5	0.116578974
32	0xbdb19a04	-0.08671954
33	0xbe1edcdf	-0.15513943
34	0x3e1f8108	0.15576565
35	0x8df58695	-1.513169e-30
36	0x3e1f265c	0.15541977
37	0x3d9b1ec6	0.07574229
38	0xbdc01478	-0.09378904
39	0x3e0bf740	0.13668537
40	0x3c5645d0	0.013078168
41	0xbded38eb	-0.11583122
42	0xbd11b71e	-0.035575025
43	0xbdc82bd9	-0.09773988
44	0x3d947ac1	0.07249976
45	0x3d4d80c4	0.05017163
46	0x3de2a24f	0.11066114
47	0x3dd34e85	0.10317711
48	0x3e11357f	0.14180563
49	0x3d45f1ea	0.04832641
50	0xbe1ead16	-0.15495715
51	0x3c751492	0.014958518
52	0xbe395005	-0.18096931
53	0xbd018bc0	-0.031627417
54	0x3cd83c9d	0.02639609
55	0x3db4eeb7	0.08834594
56	0xbe1317b5	-0.14364512
57	0xbdaf8aa6	-0.08571367
58	0xbd1c18f1	-0.038109723
59	0xbdb6efe8	-0.08932477
60	0x3de28d95	0.11062161
61	0xbe105b48	-0.14097321
62	0x3dba6c55	0.09102694
63	0x3dc42909	0.09578139
64	0x3e2dd402	0.16975406
65	0x3dd06f6e	0.101775035
66	0x3d161f23	0.036650788
67	0x22b6f621	4.95918e-18
68	0x3e145c77	0.14488398
69	0xbe109e79	-0.14122953
70	0xbe06445a	-0.13112012
71	0x3da69a36	0.08134882
72	0xbce030fc	-0.027367108
73	0xbd1d1819	-0.03835306
74	0xbe245a3c	-0.16050047
75	0x3caa63b9	0.020799505
76	0x3dc5141b	0.096229754
77	0x3dba9b8f	0.09111702
78	0x3df79382	0.12088682
79	0xbe3babf2	-0.1832731
80	0xbd33c94a	-0.043893136
81	0xbdc891ab	-0.09793409
82	0x3d39c9ce	0.04535847
83	0x3df4b5bb	0.11948725
84	0xbcc84bdd	-0.024450237
85	0x3da3eaa8	0.080037415
86	0xbdd0a197	-0.10187071
87	0x3df80786	0.1211081
88	0x3d53ea83	0.05173732
89	0xbd8f8aab	-0.07008871
90	0x3e29a81b	0.16568033
91	0xbd43e964	-0.04783
92	0x3daa5ada	0.0831811
93	0x3dd733de	0.1050794
94	0xbd0a2aa9	-0.03373209
95	0x3df1d56e	0.118082866
96	0x3dd0c3e2	0.10193612
97	0x3d2e9d1e	0.042630307
98	0xbe30c962	-0.17264321
99	0x816dc383	-4.3670298e-38
100	0xbe6b6034	-0.22985917
101	0x3c69efef	0.014278396
102	0x3eb0d385	0.34536377
103	0xbe181221	-0.14850666
104	0xbd13e872	-0.03611035
105	0xbde71230	-0.11282766
106	0x3d997fcb	0.07495078
107	0xbddeda85	-0.10881523
108	0xbd666658	-0.056249946
109	0x3d8094c4	0.06278375
110	0xbd0c8b0a	-0.034312285
111	0x3dc9f926	0.098619744
112	0x3ca6e4d6	0.02037279
113	0x3e129a0f	0.14316581
114	0x3d87b84d	0.066269495
115	0x3cd9f1b7	0.026604516
116	0x3dbc219f	0.091861
117	0x3db4114f	0.08792364
118	0x3e1b20a9	0.15149178
119	0x3e42f4c3	0.19038682
120	0x3cf85a45	0.030316481
121	0x3e0bd3d7	0.13655029
122	0xbcec7f55	-0.02886931
123	0x3da57c52	0.08080353
124	0x3d66d28b	0.056353133
125	0x3dfdfa8a	0.12401302
126	0xbe28f358	-0.16499078
127	0xbd9ee37f	-0.07758235
128	0xbccc841b	-0.024965337
129	0xbd56e381	-0.05246306
130	0xbd243eaf	-0.040098842
131	0x022fba0c	1.2910362e-37
132	0x3d807ea2	0.06274153
133	0xbe17fba3	-0.14842086
134	0xbe2a2c61	-0.16618492
135	0xbde1c34a	-0.110235766
136	0x3dbd9ffc	0.0925903
137	0x3e5d5bfb	0.21617119
138	0xbc244407	-0.010025985
139	0xbe082dc0	-0.13298702
140	0xbd87d2b6	-0.06631987
141	0x3e038e88	0.1284734
142	0xbd952b48	-0.07283646
143	0x3d48c655	0.04901727
144	0xbde887a4	-0.113539964
145	0x3dcb8af0	0.099386096
146	0xbea359ee	-0.31904548
147	0x3a70bbdc	0.00091832667
148	0xbce055b1	-0.02738461
149	0xbdaeab02	-0.08528711
150	0xbc6f1703	-0.014592889
151	0xbdc49d36	-0.09600298
152	0xbdeae54d	-0.11469517
153	0xbd87c27f	-0.06628894
154	0x3dcc70b3	0.09982433
155	0xbe353821	-0.17697193
156	0xbdf08440	-0.11743975
157	0xbea7d731	-0.32781366
158	0x3d859317	0.06522196
159	0x3df5025a	0.11963339
160	0xbd8ce911	-0.068803914
161	0x3c866ece	0.016410258
162	0xbe0f1530	-0.13972926
163	0x8f5394bc	-1.04317484e-29
164	0x3bfcc9e8	0.007714499
165	0x3e0c523d	0.13703246
166	0x3d76fcfe	0.060299866
167	0xbd7e950a	-0.062153853
168	0xbde1ef98	-0.11032027
169	0xbd5e61bd	-0.05429243
170	0xbd0647af	-0.032783207
171	0xbd1e9d79	-0.038724396
172	0x3ddd3e8a	0.10802944
173	0x3c8bf74b	0.017085692
174	0xbdb1fee5	-0.086911954
175	0x3cc0358d	0.023463035
176	0x3d95ad07	0.07308393
177	0x3e2b61ce	0.16736528
178	0xbe0e893c	-0.13919538
179	0xbd76e670	-0.060278356
180	0xbe148e55	-0.1450742
181	0xbdce6567	-0.10077935
182	0xbda75459	-0.08170385
183	0xbd3ae146	-0.045624994
184	0x3d487406	0.048938774
185	0xbdf7ff54	-0.12109247
186	0x3dc43e8b	0.095822416
187	0xbdeab052	-0.11459412
188	0xbe39e689	-0.18154348
189	0x3e060a72	0.13089922
190	0xbce5666a	-0.028002936
191	0x3ddc8ee1	0.107694395
192	0x3d584ff4	0.052810624
193	0x3de4c009	0.1116944
194	0xbde43444	-0.111427814
195	0x1bdaa1c0	3.6169603e-22
196	0xbd84760f	-0.064678304
197	0xbd4f7d5d	-0.050656665
198	0x3e3d0d1b	0.1846203
199	0x39588b77	0.0002065132
200	0x3ce5bd81	0.028044464
201	0x3e37e78e	0.17959425
202	0x3de93947	0.11387878
203	0xbe46db9a	-0.19419709
204	0xbd85f769	-0.0654133
205	0xbe220edd	-0.15825982
206	0x3dd89e3b	0.10577055
207	0x3d95d5f3	0.07316198
208	0xbe0023e0	-0.12513685
209	0xbbc532fb	-0.0060180402
210	0xbdfd289a	-0.1236126
211	0x3e686f61	0.22698738
212	0xbd87ca57	-0.0663039
213	0xbd3233e7	-0.04350653
214	0x3dd1197a	0.102099374
215	0x3cdb33a0	0.026758015
216	0xbe0ff691	-0.14058901
217	0x3e24df24	0.16100746
218	0x3da77ca8	0.08178073
219	0xbd4c6b80	-0.049907207
220	0xbe06e059	-0.1317152
221	0xbde7ebaa	-0.11324246
222	0xbe12ce02	-0.14336398
223	0xbdc46637	-0.095898084
224	0x3d2ce456	0.042209946
225	0xbe10b304	-0.14130789
226	0x3d500487	0.050785568
227	0x0174fd42	4.4997426e-38
228	0xbc5118ca	-0.012762258
229	0x3dace3b7	0.08441871
230	0xbd62775d	-0.055289615
231	0x3c210255	0.009827216
232	0xbd5e9bc1	-0.054347757
233	0xbd2ff9c1	-0.042962793
234	0x3d37cf67	0.04487553
235	0xbddf084d	-0.10890255
236	0xbb7f4b52	-0.0038954807
237	0xbd6f9cf1	-0.05849928
238	0xbdac01d9	-0.0839879
239	0xbd9ced81	-0.07662488
240	0xbe195fa7	-0.14977895
241	0x3e587379	0.211378
242	0xbd2e084c	-0.04248838
243	0x3dc7e192	0.09759821
244	0x3da7bfeb	0.08190902
245	0x3cc9d48b	0.024637481
246	0x3daeffab	0.085448585
247	0xbbeb4686	-0.007180038
248	0xbdcb23a3	-0.099189065
249	0x3bc1f934	0.0059196
250	0x3dd01503	0.10160258
251	0x3ddbcd4b	0.10732516
252	0x3c92c44c	0.017915867
253	0x3d105bc5	0.03524377
254	0xbd3ed1ab	-0.046586674
255	0x3da1d331	0.0790161

MLP.5.bias f4 [32]
0	0xbd503d89	-0.050839934
1	0x3d11e723	0.03562082
2	0xbc1650bf	-0.009174525
3	0xbc899c91	-0.01679829
4	0xbdc9a490	-0.09845841
5	0xbb942d7b	-0.0045220233
6	0xbd67eef8	-0.056624383
7	0xb83dfb2b	-4.529503e-05
8	0x3cdffcd9	0.027342247
9	0x3d36a567	0.044591334
10	0x3dddd94f	0.10832464
11	0x3cdcbffa	0.02694701
12	0x3cc3c264	0.023896404
13	0x3e0a570b	0.13509767
14	0x3d5d671a	0.054053403
15	0xbde0d2dd	-0.10977719
16	0xbe26be1f	-0.16283463
17	0x3de3ce75	0.11123363
18	0x3d1fc038	0.039001673
19	0x3a625132	0.0008633315
20	0xbd6925ff	-0.056921
21	0x3d21e952	0.039529152
22	0xbe262860	-0.1622634
23	0x3c1ae206	0.009453302
24	0xbda6d5c3	-0.081462406
25	0xbde3adc4	-0.111171275
26	0x3e0f8468	0.14015353
27	0xbe10eae6	-0.14152107
28	0xbdd39fca	-0.10333212
29	0x3d89fd7e	0.06737803
30	0xbd95f493	-0.073220395
31	0xbb0c18bc	-0.0021377048

MLP.6.weight f4 [32]
0	0x3f800ac2	1.0003283
1	0x3f74dab7	0.9564623
2	0x3f7931af	0.97341436
3	0x3f723d1b	0.9462449
4	0x3f82380d	1.0173355
5	0x3f5f19a9	0.8714853
6	0x3f6cc1a6	0.92482984
7	0x3f66ab71	0.9010535
8	0x3f7b61d8	0.9819617
9	0x3f77868f	0.96689695
10	0x3f717a3e	0.9432715
11	0x3f7fd70a	0.999375
12	0x3f85caf4	1.0452561
13	0x3f7d9417	0.9905409
14	0x3f7929f1	0.9732962
15	0x3f84d140	1.0376358
16	0x3f821b0d	1.0164505
17	0x3f7a2b77	0.9772257
18	0x3f7aca4e	0.9796494
19	0x3f667f36	0.9003786
20	0x3f722b6c	0.94597507
21	0x3f80b83e	1.0056226
22	0x3f7e475c	0.99327636
23	0x3f7814dd	0.96906835
24	0x3f715e14	0.94284177
25	0x3f7cadd0	0.98702717
26	0x3f789823	0.9710714
27	0x3f7328d2	0.9498416
28	0x3f7a1244	0.9768412
29	0x3f7d89a6	0.9903816
30	0x3f67dcb6	0.90571153
31	0x3f80faf6	1.0076587

MLP.6.bias f4 [32]
0	0x3be9128a	0.0071128057
1	0x3c247034	0.010036517
2	0xbb466254	-0.003027101
3	0xbc03c035	-0.008041431
4	0xbcc59b26	-0.024121832
5	0xbb7ba8d1	-0.0038400183
6	0xbba8a0be	-0.005146115
7	0xbb90f314	-0.0044235084
8	0x3c542dbc	0.012950357
9	0xbc41d590	-0.011830702
10	0xbbe489fa	-0.006974456
11	0x3a353ed9	0.0006913967
12	0x3d143296	0.036181055
13	0x3d135477	0.035969224
14	0x3ce176b3	0.02752242
15	0x3b175cc5	0.0023096066
16	0xbd2150f8	-0.03938386
17	0xbc98b64a	-0.01864161
18	0x3a951cae	0.0011376345
19	0x3c9aee91	0.018912585
20	0x3c603eb3	0.013686824
21	0xbc798407	-0.015229232
22	0x3be45d37	0.00696912
23	0x3c983033	0.01857767
24	0x3b5262b4	0.0032102289
25	0xbc434db8	-0.011920385
26	0xbc3083a9	-0.010773578
27	0x3abaea3a	0.0014260479
28	0x3c1fdb01	0.009756804
29	0xb9c2a189	-0.00037122917
30	0xbade91f0	-0.0016980749
31	0x3b5d92f7	0.0033809522

MLP.8.weight f4 [32, 32]
0	0xbd0ed5a1	-0.0348717
1	0xbd427390	-0.04747349
2	0xbcb7b667	-0.022425843
3	0x3dde3f82	0.10851957
4	0x3d897fce	0.0671383
5	0x3d92a187	0.07159715
6	0xbda1771b	-0.07884046
7	0x3e307d73	0.17235355
8	0x3dfa49c7	0.12221103
9	0xbd3db8e8	-0.04631892
10	0xbcf0e89a	-0.029407788
11	0x3e066a44	0.13126475
12	0xbce794cf	-0.0282692
13	0xbdfaf9ea	-0.122546986
14	0x3e2c506c	0.16827554
15	0x3e020d77	0.12700449
16	0xbe313a4c	-0.17307395
17	0x3d9c9bc0	0.076468945
18	0xbdf02cf1	-0.11727322
19	0x3beb85f8	0.007187601
20	0xbde3be9f	-0.111203425
21	0xbd651991	-0.055932585
22	0x3e0ee6a2	0.13955167
23	0xbda2d7fc	-0.07951352
24	0x3d27da6a	0.04097978
25	0xbdca0b50	-0.09865439
26	0xbc33cc67	-0.010974026
27	0x3cfee9c7	0.031117333
28	0xbd83c324	-0.064337045
29	0x3d494d49	0.04914597
30	0x3e17bbda	0.14817753
31	0x3ddd49f3	0.1080512
32	0x3caa99e2	0.02082533
33	0xbd2be6be	-0.0419681
34	0x3e01a821	0.12661792
35	0xbd0db8d4	-0.034600094
36	0xbd4c8ccf	-0.049938973
37	0x3e4428a8	0.19156134
38	0x3e1a1fe4	0.15051228
39	0xbbe03445	-0.0068421685
40	0x3db73c57	0.08947056
41	0xbdc62731	-0.09675444
42	0xbdd60d48	-0.10451752
43	0xbbb219a8	-0.0054351874
44	0x3dcc5d88	0.09978777
45	0x3dd873db	0.10568973
46	0x3da12cb5	0.07869855
47	0x3e3a803d	0.18212982
48	0xbdb9ff07	-0.09081846
49	0xbe042bbc	-0.12907308
50	0x3ddb5392	0.10709299
51	0x3d9022f0	0.07037914
52	0x3ddd7d77	0.10814946
53	0x3e11482d	0.14187689
54	0xbe454cdb	-0.192676
55	0x3d84389d	0.064561106
56	0xbd7abcac	-0.061215088
57	0xbe01e394	-0.1268447
58	0xbe17dd27	-0.14830457
59	0x3e691971	0.22763611
60	0x3d96ac68	0.07357103
61	0xbe3e241b	-0.1856846
62	0xbdf0caf6	-0.11757462
63	0xb8f675cc	-0.000117521355
64	0xbddd9925	-0.108202256
65	0xbd9e66ec	-0.077344745
66	0xbdbb0a40	-0.091328144
67	0xbe1c5d18	-0.15269887
68	0xbe211cae	-0.15733597
69	0xbe162ea8	-0.14666235
70	0x3e454745	0.19265468
71	0xbe1a3149	-0.15057863
72	0x3d165529	0.03670231
73	0x3be2b1c7	0.0069181654
74	0xbe321363	-0.17390208
75	0x3df1f084	0.11813453
76	0x3daf15f3	0.08549108
77	0x3e009f51	0.12560774
78	0x3d93c93e	0.07216118
79	0xbe11b60f	-0.14229606
80	0x3d129773	0.035788964
81	0xbe139934	-0.14413911
82	0x3e14e770	0.14541411
83	0xbe02d459	-0.12776317
84	0xbdb9b52f	-0.09067761
85	0x3e4a4124	0.19751412
86	0xbc9931c3	-0.018700486
87	0x3d43b968	0.04778424
88	0xbd29f72e	-0.041495495
89	0xbc2562d9	-0.010094368
90	0xbe27f774	-0.1640299
91	0xbe1daf6e	-0.15398952
92	0x3dc32121	0.09527803
93	0xbe0fc294	-0.1403907
94	0xbce347ae	-0.02774414
95	0xbd981992	-0.07426752
96	0x3dc9a771	0.0984639
97	0xbda8a953	-0.08235421
98	0x3e1edfa1	0.15514995
99	0x3c982f3a	0.018577207
100	0x3d5d39dd	0.05401026
101	0xbdf401a5	-0.11914376
102	0x3e6b2cb0	0.22966266
103	0x3cbd21be	0.023087379
104	0xbdf0187d	-0.11723421
105	0xbde8be7b	-0.11364456
106	0xbdd9892e	-0.10621868
107	0x3d6d69e0	0.0579623
108	0xbd8e5cdf	-0.069513075
109	0xbd91b947	-0.07115417
110	0xbdec456b	-0.11536678
111	0x3d83351d	0.06406615
112	0x3dc1cf8f	0.09463417
113	0x3e2638cb	0.16232602
114	0xbd6fbfbb	-0.058532458
115	0x3bb69254	0.005571643
116	0x3b09d4b0	0.0021031313
117	0xbe202b62	-0.15641549
118	0x3d8c8544	0.06861356
119	0x3e062309	0.13099302
120	0x3c867c73	0.016416764
121	0xbe0a59e5	-0.13510855
122	0xbd0fad48	-0.035077363
123	0x3d8eeb50	0.06978476
124	0x3d0dfc7b	0.034664612
125	0xbb0df97e	-0.0021663602
126	0xbd13c244	-0.036073938
127	0xbdcd9b7a	-0.100394204
128	0x3d7096d5	0.058737595
129	0xbd8a50b5	-0.06753675
130	0xbd2512b8	-0.040301055
131	0x3d34cd88	0.044141322
132	0xbda6250c	-0.08112535
133	0xbbe6ff66	-0.007049489
134	0x3d4a8578	0.049443692
135	0xbe05c0b0	-0.13061786
136	0xbdab67f7	-0.08369439
137	0x3cb01f49	0.021499293
138	0xbc9cd761	-0.01914567
139	0x3dede13b	0.11615225
140	0x3e0aea4c	0.1356594
141	0xbe04e01f	-0.1297612
142	0x3e299331	0.16560055
143	0xbcb4d52d	-0.022074306
144	0x3de77b94	0.113028675
145	0x3e046cc4	0.12932116
146	0x3d9a11f6	0.07522957
147	0xbdacbba9	-0.08434231
148	0x3dfdfae6	0.12401371
149	0x3d7dc5e2	0.061956294
150	0x3d680bf7	0.056652036
151	0xbe3f73c6	-0.18696508
152	0x3df2f83d	0.11863754
153	0x3ddb2765	0.10700873
154	0xbca2278c	-0.019794248
155	0xbe16fce7	-0.14744912
156	0xbdab9a05	-0.08378986
157	0xbd4afe1a	-0.049558736
158	0xbc8c0ee5	-0.017096946
159	0xbcfad781	-0.030620338
160	0x3e241bcf	0.16026233
161	0x3d758645	0.059942503
162	0xbd37df4a	-0.04489068
163	0xbe289c51	-0.1646588
164	0xbded4ea8	-0.11587268
165	0xbddf9e04	-0.10918811
166	0x3dfcfd56	0.123530075
167	0xbd50f764	-0.05101718
168	0xbe195530	-0.14973903
169	0xbdb505cd	-0.08838997
170	0xbe220b15	-0.1582454
171	0x3d91b228	0.07114059
172	0x3e29aef1	0.16570641
173	0x3e17f260	0.14838552
174	0x3c38a616	0.011270067
175	0xbd337716	-0.04381474
176	0xbd72edb7	-0.059308734
177	0x3e1aebb5	0.15128978
178	0x3da0bc72	0.07848443
179	0x3dd4abe4	0.10384348
180	0x3e05b316	0.13056597
181	0x3e22e258	0.15906656
182	0x3df91408	0.12162024
183	0xbe309501	-0.1724434
184	0xbe07d706	-0.13265619
185	0x3ddb2aad	0.10701499
186	0x3d6cdd54	0.057828262
187	0xbdac70b3	-0.08419933
188	0x3e26b0d5	0.16278394
189	0xbdbc998b	-0.092089735
190	0xbd2b27a1	-0.04178584
191	0x3e2b598d	0.1673338
192	0x3e0f828e	0.14014646
193	0xba1015f9	-0.0005496438
194	0xbdabc46b	-0.08387073
195	0xbc38949e	-0.011265902
196	0xbe1fd587	-0.15608798
197	0xbe150284	-0.14551741
198	0xbe144553	-0.1447957
199	0xbdafcb09	-0.08583648
200	0x3da5b4c4	0.08091119
201	0xbdbd1f27	-0.092344575
202	0x3d7c4eea	0.061598696
203	0xbe390fb5	-0.18072398
204	0xbaded069	-0.0016999367
205	0xbd4c8644	-0.049932733
206	0xbda43225	-0.08017377
207	0x3de3893e	0.11110161
208	0xbdcf85d1	-0.10132945
209	0x3e12d5af	0.14339326
210	0x3e2be40b	0.1678621
211	0xbd451acd	-0.048121262
212	0xbe24eaa4	-0.16105133
213	0x3dc309c3	0.09523346
214	0xbce9959c	-0.028513722
215	0x3c9ee231	0.019394966
216	0xbd5b24e7	-0.05350199
217	0xbe2a73f3	-0.16645794
218	0xbc51b000	-0.012798309
219	0x3dfb6248	0.12274605
220	0xbc852fe5	-0.01625819
221	0x3d704808	0.058662444
222	0xbe33e72a	-0.17568651
223	0x3e27dce8	0.16392863
224	0xbdc31487	-0.095254
225	0x3df1c417	0.11804979
226	0x3dffa253	0.12482133
227	0xbd8be7c6	-0.06831317
228	0x3dae1266	0.08499603
229	0xbd38ac97	-0.04508647
230	0xbe1211a2	-0.14264539
231	0xbdc9f15e	-0.0986049
232	0x3c9bbb22	0.01901013
233	0xbe447585	-0.19185455
234	0xbe172e1f	-0.14763688
235	0xbe14fc07	-0.14549266
236	0x3e34f1ff	0.17670439
237	0x3d0f2ed5	0.034956772
238	0x3e346ae1	0.17618896
239	0xbe3cd7e9	-0.18441738
240	0x3da49944	0.080370456
241	0x3dd8c0e1	0.10583664
242	0xbd1b0040	-0.037842035
243	0x3d5c579a	0.05379448
244	0x3e180555	0.14845784
245	0xbd80460f	-0.062633626
246	0x3e5b9bcb	0.21446149
247	0x3d8584a5	0.065194406
248	0xbe1dc262	-0.15406182
249	0xbd5ff560	-0.054677367
250	0x3d23493c	0.039864764
251	0x3c1223d1	0.008919672
252	0xbddecfda	-0.10879488
253	0xbe1a426d	-0.15064402
254	0xbbdaf7e7	-0.0066823843
255	0x3c19efdb	0.009395565

MLP.8.bias f4 [32]
0	0xbe3099df	-0.17246197
1	0x3deef805	0.116684
2	0x3e2211ad	0.15827055
3	0x3d0eceb1	0.034865085
4	0x3d01be3e	0.03167557
5	0x3c72040e	0.0147714745
6	0x3decbce6	0.11559467
7	0xbcec070e	-0.028811958
8	0xbc0a6a31	-0.00844817
9	0x3d30f137	0.04319879
10	0xbdc08e4b	-0.0940214
11	0x3e0bbd16	0.1364635
12	0xbd24f216	-0.040269934
13	0xbd4a6655	-0.049413998
14	0x3dfa3918	0.12217921
15	0xbdfe060b	-0.12403496
16	0xbe130950	-0.14359021
17	0xbdfd10a4	-0.123566896
18	0x3daff3e9	0.08591444
19	0xbcb0f101	-0.021599295
20	0x3b214868	0.0024609808
21	0xbcc79f5d	-0.024367983
22	0x3b57a9e0	0.003290765
23	0x3e2d9579	0.1695155
24	0x3da2b76e	0.07945143
25	0xbb28662c	-0.0025695665
26	0x3d414089	0.047180686
27	0x3d1b712e	0.037949733
28	0xbcd5e6ac	-0.02611097
29	0x3d764fda	0.060134746
30	0xbe061199	-0.1309265
31	0x3d9f0435	0.07764474

MLP.10.weight f4 [32, 32]
0	0xbe0455a7	-0.12923299
1	0x3a2a7944	0.00065030553
2	0x3d60d3ed	0.05488961
3	0x3e0de161	0.13855506
4	0x3dea5cff	0.11443519
5	0xbd762c07	-0.06010058
6	0xbd2a1057	-0.04151949
7	0x3e328232	0.17432478
8	0xbca1ba96	-0.019742291
9	0x3d196f1c	0.037459478
10	0xbdd88c87	-0.105736785
11	0x3d17612a	0.036957897
12	0xbdf5d049	-0.12002618
13	0xbd56465e	-0.0523132
14	0xbda6b74e	-0.08140431
15	0x3ccf2812	0.025287662
16	0xbc83b383	-0.016076809
17	0xbc32fb82	-0.010924222
18	0xbd8b211a	-0.06793423
19	0x3db118fd	0.08647344
20	0x3d357d2b	0.044308823
21	0xbd9fba18	-0.077991664
22	0x3d6596c5	0.05605199
23	0xbe0a5e59	-0.13512553
24	0x3e0770c3	0.13226609
25	0xbd334110	-0.04376322
26	0x3e567568	0.20943224
27	0x3dcf0dd1	0.10110057
28	0x3bad2e26	0.0052850423
29	0x3d3e3a61	0.046442393
30	0x3dcd78ee	0.10032831
31	0xbcf745a1	-0.030184569
32	0x3d39caf3	0.045359563
33	0xbe2d4122	-0.16919377
34	0x3dbef0c7	0.093232684
35	0xbcc67693	-0.024226462
36	0xbb5b34ef	-0.00334483
37	0x3d923ce3	0.071405195
38	0x3df38d9f	0.118922465
39	0xbe29195e	-0.16513583
40	0xbd4cc1f0	-0.04998964
41	0xbd64e5ec	-0.055883333
42	0x3da171c9	0.07883031
43	0x3df0fd2e	0.1176704
44	0x3e003fdc	0.1252436
45	0x3e2d40f2	0.16919306
46	0x3e13182d	0.14364691
47	0xbda4f7c2	-0.080550686
48	0xbd03f19d	-0.032212842
49	0xbc643100	-0.013927698
50	0xbd799ce4	-0.06094064
51	0x3d8476cf	0.064679734
52	0x3b392cc6	0.0028255447
53	0x3d52c452	0.051456757
54	0x3d0c122f	0.03419703
55	0xbe0ba8db	-0.13638632
56	0x3dc60645	0.096691646
57	0x3d2e4129	0.04254261
58	0xbd45b6a5	-0.048269887
59	0x3da79333	0.08182373
60	0x3d3fb1f1	0.046800558
61	0x3e2f25da	0.17104283
62	0x3d9cffb3	0.07665958
63	0xbd9c0ef4	-0.076200396
64	0xbe2e5129	-0.17023148
65	0xbbe9f2a4	-0.0071395207
66	0xbe3991ea	-0.18122068
67	0xbe81e1ca	-0.25367576
68	0x3b8b4f5c	0.0042514037
69	0x3d0455e3	0.03230847
70	0xba283610	-0.00064167473
71	0xbe31714d	-0.17328377
72	0xbd47a419	-0.04874048
73	0x3e13587e	0.14389226
74	0x3db27c0f	0.087150685
75	0x3dffacec	0.12484154
76	0x3e06a974	0.13150579
77	0x3cb75fbd	0.022384519
78	0x3d1459a3	0.036218297
79	0x3e303cf5	0.17210753
80	0x3cdc4276	0.02688716
81	0xbdb20e93	-0.08694186
82	0xbe2f76b7	-0.1713513
83	0xbdafd0c2	-0.08584739
84	0x3d17c431	0.037052337
85	0x3df68e8e	0.12038909
86	0xbe02b452	-0.12764099
87	0x3e7e5c27	0.24839841
88	0xbd2c3497	-0.04204234
89	0xbe2e3b92	-0.17014912
90	0xbdc195d6	-0.09452407
91	0x3d7048cc	0.058663175
92	0xbdae9031	-0.08523596
93	0xbdd942e1	-0.10608459
94	0x3d4a2732	0.049353786
95	0x3df0c2ec	0.117559284
96	0xbc8a23f4	-0.016862847
97	0xbdb69a49	-0.08916146
98	0x3dad3637	0.08457606
99	0xbdc27792	-0.094954625
100	0xbe3693ff	-0.17829894
101	0xbde14bf8	-0.11000818
102	0xbc764cbb	-0.015032942
103	0xbdf757c5	-0.120772876
104	0xbc35ff99	-0.0111083025
105	0xbe2bc1b7	-0.16773115
106	0xbd380cf3	-0.044934224
107	0x3d1d5f56	0.038420998
108	0x3ddaa1b5	0.106753744
109	0xbd9bedee	-0.07613741
110	0xbd7bfb9b	-0.061519247
111	0xbd88c2cd	-0.0667778
112	0xbccee9da	-0.025257993
113	0xbdf9429d	-0.121709086
114	0xbd817242	-0.06320621
115	0x3ccabde3	0.024748748
116	0x3d2c3d24	0.042050496
117	0x3d8481c9	0.06470067
118	0x3e203a00	0.15647125
119	0x3d91f7b9	0.071273275
120	0xbd84bb50	-0.064810395
121	0xbc40686d	-0.011743647
122	0x3dd5e662	0.10444333
123	0xbe13539c	-0.14387363
124	0x3dffec6d	0.124962665
125	0x3b962254	0.004581729
126	0x3de16cc8	0.110070765
127	0xbdcff119	-0.101534076
128	0x3d463f5b	0.048400264
129	0x3d1487ba	0.03626225
130	0x3d2afa4c	0.041742608
131	0x3c9780ee	0.018494096
132	0x3d7165b8	0.058934897
133	0xbe08ba0f	-0.13352226
134	0xbbdcc958	-0.0067378692
135	0x3e1074be	0.14107034
136	0x3d5f1768	0.05446568
137	0xbe03c89b	-0.12869494
138	0x3e30ff62	0.17284921
139	0xbe0d4885	-0.13797195
140	0xbe249b58	-0.16074884
141	0x3e04e3eb	0.12977569
142	0xbd76c9f2	-0.060251184
143	0xbd75251e	-0.05984985
144	0x3d010399	0.03149757
145	0x3d0a5efd	0.033781994
146	0xbdc1a814	-0.094558865
147	0x3d06007a	0.0327153
148	0xbda2200c	-0.07916269
149	0x3d70e79c	0.05881463
150	0xbe264309	-0.1623651
151	0xbdd3ba55	-0.103382744
152	0xbe1a8ab6	-0.15091977
153	0xbca38f39	-0.019965755
154	0x3e0dcead	0.13848372
155	0x3d8555dc	0.06510517
156	0x3c8d7627	0.017268253
157	0xbe0eb760	-0.1393714
158	0xbdc03f0a	-0.09387024
159	0x3e246e2a	0.16057649
160	0xbe2605a2	-0.16213086
161	0x3d84c446	0.06482749
162	0x3dd7c951	0.10536445
163	0xbe0047a1	-0.12527324
164	0xbe35d8af	-0.1775844
165	0x3e2fb847	0.1716014
166	0x3d9f18dd	0.07768414
167	0x3e0dce8e	0.13848326
168	0xbca163ca	-0.019700903
169	0xbb872268	-0.0041239746
170	0xbd971f3a	-0.07379003
171	0x3e295096	0.16534647
172	0x3df39f3b	0.11895605
173	0x3d4cf3c8	0.050037175
174	0xbda00b0b	-0.07814606
175	0xbcd81601	-0.02637768
176	0xbdbd1e80	-0.09234333
177	0xbd2c7e9a	-0.042112924
178	0x3dbc26d7	0.091870956
179	0xbe2a6323	-0.1663938
180	0xbce43cab	-0.02786096
181	0xbce695b0	-0.028147548
182	0xbdce83c7	-0.10083728
183	0x3cb301dc	0.021851473
184	0x3a9d82d7	0.0012017143
185	0xbd25b505	-0.040455837
186	0x3c814667	0.01578064
187	0x3d50c3fe	0.050968163
188	0x3e08a260	0.13343191
189	0xbbef28c2	-0.00729856
190	0xbe250477	-0.16114984
191	0xbe060757	-0.13088737
192	0x3dcc5854	0.09977785
193	0x3d19a388	0.03750947
194	0xbd0da107	-0.034577396
195	0xbdf0ba3f	-0.117542736
196	0x3d5860de	0.052826755
197	0xbdc283b0	-0.09497774
198	0xbde0212e	-0.109438285
199	0x3e19d0b2	0.15021017
200	0xbd033ca0	-0.03204024
201	0xbdc47ff1	-0.095947154
202	0xbcf5d816	-0.030010264
203	0xbc6d9f8c	-0.014503371
204	0x3e152f42	0.14568809
205	0x3dffe93f	0.1249566
206	0xbaa1e746	-0.001235225
207	0x3e20d671	0.15706803
208	0xbe34865a	-0.17629376
209	0xbda3e14e	-0.08001958
210	0x3d09fa0b	0.033685725
211	0xbe1ebd95	-0.15502007
212	0xbd9d5490	-0.07682145
213	0x3ca7be74	0.020476557
214	0x3e3a1bca	0.18174663
215	0x3d90f2c0	0.07077551
216	0x3cb947c0	0.02261722
217	0xbd594928	-0.053048283
218	0x3bfd73f0	0.007734768
219	0x3e05dc92	0.13072422
220	0xbe420389	-0.18946661
221	0x3da7b7a7	0.08189326
222	0xbccf6002	-0.025314335
223	0x3d048abe	0.032358877
224	0x3d5c5ff3	0.05380244
225	0x3e385d53	0.1800435
226	0x3d4f667a	0.05063484
227	0x3e22b2fb	0.15888588
228	0x3e3c422b	0.18384616
229	0x3c9b29cb	0.018940827
230	0xbdcc6d0b	-0.09981736
231	0x3de04664	0.10950926
232	0xbd949ff6	-0.07257073
233	0x3dea9bd6	0.114555046
234	0xbe03acbf	-0.12858866
235	0xbbab34de	-0.005224808
236	0xbda31ec9	-0.07964856
237	0xbcfc5fb2	-0.03080735
238	0xbda719e5	-0.08159236
239	0x3cf386c2	0.029727343
240	0xbc0c53b0	-0.0085648745
241	0x3d80298b	0.06257924
242	0x3e1ff5c1	0.15621091
243	0x3da04453	0.07825532
244	0xbdd5a4cb	-0.104318224
245	0xba568042	-0.0008182564
246	0xbe140366	-0.14454421
247	0x3e6a9084	0.22906691
248	0xbd80f13d	-0.062960126
249	0x3cbc8af9	0.023015486
250	0x3e257c34	0.16160661
251	0xbd78709e	-0.060654275
252	0xbd614ad2	-0.055002995
253	0xbdb05185	-0.086092986
254	0xbe1abe2c	-0.15111607
255	0xbe03dd43	-0.12877373

MLP.10.bias f4 [32]
0	0xbddf32a8	-0.10898334
1	0xbd927838	-0.07151836
2	0x3e1e8e88	0.15484059
3	0x3dc7ac9b	0.09749719
4	0x3e3360ba	0.17517367
5	0x3d97b5e6	0.07407741
6	0x3da6aae7	0.08138066
7	0x3d625798	0.055259317
8	0x3daec16f	0.08532988
9	0x3dfac7ef	0.122451656
10	0xbe20e911	-0.15713908
11	0x3dc1179d	0.09428332
12	0x3e1af099	0.15130843
13	0x3dcf3b66	0.10118751
14	0xbe278d99	-0.16362609
15	0xbd913e0d	-0.07091913
16	0xbb6b2d8f	-0.003588531
17	0x3dfc81f4	0.12329474
18	0xbd34fce6	-0.044186495
19	0xbd904c5b	-0.07045814
20	0x3cc83f29	0.02444418
21	0x3daeaf3a	0.085295156
22	0xbd786469	-0.060642634
23	0x3d163735	0.036673743
24	0x3e0bc08c	0.1364767
25	0x3cb2c34d	0.021821642
26	0x3d989a23	0.07451274
27	0xbc9e175c	-0.019298248
28	0x3a580422	0.0008240362
29	0x3d15227e	0.036409847
30	0x3bfcd9ef	0.0077164094
31	0xbd2bf7bc	-0.041984305

MLP.11.weight f4 [32]
0	0x3f683e35	0.9071992
1	0x3f7d8db2	0.99044335
2	0x3f7a9503	0.97883624
3	0x3f79d50d	0.97590715
4	0x3f79215e	0.9731654
5	0x3f7c6378	0.9858928
6	0x3f7d0e2c	0.9884975
7	0x3f7825a4	0.96932435
8	0x3f7f39ec	0.99697757
9	0x3f7acffd	0.97973615
10	0x3f70c102	0.94044507
11	0x3f7dad33	0.99092406
12	0x3f6ac00d	0.91699296
13	0x3f7cfba2	0.9882146
14	0x3f8094ab	1.004537
15	0x3f7b8109	0.9824377
16	0x3f7ce76d	0.9879063
17	0x3f8047b8	1.0021887
18	0x3f797ae6	0.97453153
19	0x3f770f51	0.96507746
20	0x3f7c5972	0.9857398
21	0x3f8006ad	1.0002037
22	0x3f80e440	1.0069656
23	0x3f79b25d	0.97537786
24	0x3f836b78	1.0267172
25	0x3f786f24	0.9704459
26	0x3f7ec1a1	0.99514204
27	0x3f840e73	1.031691
28	0x3f782e76	0.96945894
29	0x3f708575	0.9395364
30	0x3f7ee662	0.99570286
31	0x3f7c8361	0.9863797

MLP.11.bias f4 [32]
0	0xbb81f379	-0.003965792
1	0xbbd7a5bf	-0.006581038
2	0xbc5996b8	-0.013280563
3	0xbc189900	-0.009313822
4	0x3bb85fb3	0.0056266426
5	0x3ba582a4	0.005050974
6	0x3b0076e9	0.0019602126
7	0x3c8e0269	0.017335134
8	0x3ab85555	0.0014063517
9	0xbc18b6ed	-0.009320957
10	0x3979f03b	0.00023835983
11	0xbc94acfc	-0.018148892
12	0xbc0d23a0	-0.008614451
13	0xbc3b1213	-0.011417883
14	0xbc986372	-0.018602107
15	0xbc9dad49	-0.019247668
16	0x3c0d458c	0.008622538
17	0x3bda304e	0.0066585904
18	0xbbc17010	-0.0059032515
19	0x3bb5aa63	0.0055439933
20	0xbae0c72a	-0.0017149199
21	0xbb28b2f7	-0.0025741437
22	0x3ba52bdf	0.00504063
23	0x3cb48831	0.022037597
24	0xb8dfecfe	-0.00010677612
25	0x3b981fc2	0.0046424577
26	0xbb17fd50	-0.0023191758
27	0xbba704ac	-0.0050969925
28	0x3c622285	0.013802175
29	0xbd0600bb	-0.03271554
30	0x3c9d276a	0.019183833
31	0xbc4419b9	-0.011969023

MLP.13.weight f4 [4, 32]
0	0x3b8def11	0.0043314775
1	0x3d5eee3a	0.05442641
2	0x3dd71366	0.10501747
3	0x3e02d808	0.12777722
4	0x3d0daa29	0.034586105
5	0x3e16ddb2	0.14733008
6	0x3e10986d	0.14120646
7	0xbd7b8b2e	-0.06141203
8	0x3cc94b1c	0.024571948
9	0xbdb91f48	-0.090391695
10	0xbd8ecfe5	-0.069732465
11	0x3e1f1869	0.15536655
12	0x3b70caf4	0.0036742063
13	0x3dc2fef3	0.09521284
14	0x3d6e3b95	0.05816229
15	0xbd1b1663	-0.037863147
16	0xbe1b4b6a	-0.15165487
17	0xbe0175d5	-0.12642606
18	0x3cab6cd2	0.020925913
19	0x3d834fb6	0.06411688
20	0x3de829e6	0.113361165
21	0x3e029629	0.12752594
22	0xbcfd36f9	-0.030910002
23	0xbdde1636	-0.1084408
24	0x3d811a2f	0.06303822
25	0xbcfe7340	-0.031060815
26	0x3db01fd5	0.085998215
27	0x3ccd4f3e	0.0250622
28	0xbdadeeec	-0.08492836
29	0x393a9909	0.00017795352
30	0xbde28532	-0.11060561
31	0x3e1a16a4	0.15047699
32	0xbd04f744	-0.032462373
33	0xbc005f42	-0.007835211
34	0x3b8c17fb	0.0042753196
35	0xbd0dd648	-0.034628183
36	0x3cf4b11b	0.029869607
37	0x3ca87439	0.020563232
38	0xbccad9f8	-0.024762139
39	0xbc07c0b8	-0.008285694
40	0x3d5516a8	0.05202356
41	0x3d348d9c	0.04408036
42	0x3c42c68c	0.011888158
43	0xbcbf756c	-0.02337142
44	0x3a234ab4	0.0006229088
45	0x3d2d9da4	0.042386666
46	0xbc895e6f	-0.016768662
47	0x3c867e73	0.016417718
48	0xbbb60c22	-0.0055556456
49	0xbda0f8d1	-0.07859958
50	0x3b8802d4	0.0041507278
51	0x3beb1689	0.0071743173
52	0x3cbb338a	0.022851724
53	0x3b60def3	0.0034312576
54	0x3d854e8f	0.065091245
55	0x3cad0076	0.021118384
56	0xbd8cada4	-0.06869057
57	0xbd34da57	-0.044153538
58	0xbcc767d8	-0.024341509
59	0xbd940511	-0.07227529
60	0x3cab103e	0.020881768
61	0xba502bcb	-0.0007941096
62	0xbd75fb88	-0.060054332
63	0xbcad6948	-0.021168366
64	0x3d52b517	0.051442232
65	0x3c299fe4	0.010353062
66	0xbb7b53e7	-0.003834957
67	0xbc94333e	-0.01809084
68	0x3acda63d	0.0015689802
69	0xbc23abaf	-0.009989663
70	0x3b9be1b4	0.0047571305
71	0xbc90d4a1	-0.017679514
72	0xbbce92e6	-0.0063041328
73	0xbadc9d48	-0.0016831541
74	0x3d0d3f15	0.034483988
75	0xbae4015e	-0.0017395427
76	0x3b6ccd8b	0.0036133255
77	0xbc412cb9	-0.011790448
78	0xbbc78ac4	-0.00608954
79	0xbb9666e2	-0.0045899013
80	0x3adb5c98	0.0016735969
81	0x3bc7757e	0.006087004
82	0x3cad193a	0.021130193
83	0xbb0b9de8	-0.0021303836
84	0x3cc2f2b0	0.023797363
85	0x3b80bf2b	0.003929039
86	0x3c294561	0.010331483
87	0xba8fcd48	-0.0010971213
88	0x3d02166b	0.03175966
89	0xbc20916a	-0.009800294
90	0xbcc0fa54	-0.023556866
91	0xbbbf46e4	-0.0058373082
92	0xb9ba5555	-0.00035540262
93	0x3c99d232	0.018776987
94	0x3c419c32	0.011817025
95	0xbb9f205b	-0.004856152
96	0xbda7c0d8	-0.08191079
97	0xbdb46281	-0.08807851
98	0x3e061b77	0.13096415
99	0xbccb7b38	-0.024839029
100	0xbdae17ba	-0.08500619
101	0xbca1d41f	-0.019754468
102	0xbdfd271f	-0.123609774
103	0xbdc02b98	-0.09383315
104	0xbe205ebf	-0.15661143
105	0xbd4748b3	-0.048653316
106	0x3da10452	0.07862152
107	0xbe0d2d6a	-0.13786855
108	0x3d45734f	0.04820567
109	0xbe1c8c81	-0.15287973
110	0x3e2f1b64	0.17100292
111	0x3e198120	0.14990664
112	0xbe0f27b4	-0.1397999
113	0x3dfae624	0.12250927
114	0x3dd214a9	0.10257847
115	0x3b0e91d4	0.00217544
116	0xbe24ac6f	-0.16081403
117	0xbc1776a7	-0.0092445975
118	0xb9dcc760	-0.00042110216
119	0xbc13b19f	-0.009014516
120	0xbcfbb935	-0.030727962
121	0xbcd5cf06	-0.026099693
122	0x3e3154ff	0.1731758
123	0xbb2c1cdd	-0.002626232
124	0xbd283ab9	-0.041071627
125	0x3c9df520	0.019281924
126	0x3d794c26	0.060863636
127	0xbd5e424f	-0.054262456

MLP.13.bias f4 [4]
0	0x3e03a23c	0.12854856
1	0x3a987b7f	0.0011633484
2	0xbb85e335	-0.004085923
3	0xbd97da15	-0.07414643
