example/model/acker_robot_default/model_2000.pth (torch, 24610 bytes, 18 tensors)

MLP.0.weight f4 [32, 2]
00000000: 6976 aa3e 9443 33be 3d4f 16bd 16fa 4ebd
00000010: 5857 06bf 057d 7cbe 5006 e33d ca05 22bf
00000020: 82de 75be 44e6 1e3e eb01 13bf 3980 febe
00000030: dcf5 f0be e000 5cbe 2228 6dbe b5d4 0a3e
00000040: db5f acbe 2be3 bb3e dedd 9a3c e6f8 b83d
00000050: 6dc2 1a3f 0be5 f3be 05fd 993e 707a 283f
00000060: ff4d b7be b371 ad3c 0235 a53d 9403 a7be
00000070: 3351 ebbc 0849 9a3e e610 80be a565 c7bd
00000080: a1cb e8bc 79f9 6bbe d436 c73e 8607 553e
00000090: 4d26 333e 353f 183f 90e3 81bc e5ba 15bf
000000a0: c38d 57be 16ae 0bbf 164e bebe 1c70 bc3e
000000b0: 910f f0be ec49 bc3e 1879 18be 9e74 84be
000000c0: b455 5b3e 6de6 323e 054f 3d3c fa43 e43e
000000d0: 9523 3dbe a01a 23be eae2 ea3e 8449 32be
000000e0: 4770 f03e 1fa2 cbbe 9665 04be 3049 39be
000000f0: cf16 493e e47d 4c3d b67a 0abf 2bdb fdbe
0.33293465 -0.17506248 -0.03669666 -0.05053147 -0.52477026 -0.24657066 0.110851884 -0.63290083
-0.24010661 0.15517527 -0.574248 -0.497072 -0.47062576 -0.21484709 -0.2315984 0.13557704
-0.33666882 0.36696753 0.018904623 0.090318486 0.6045292 -0.47635683 0.3007585 0.65811825
-0.35801694 0.02117238 0.08066751 -0.32619917 -0.028725242 0.30133843 -0.25012892 -0.09736184
-0.02841741 -0.23044385 0.38909018 0.20803651 0.1749508 0.59471446 -0.01585558 -0.58488303
-0.21050172 -0.5456251 -0.3716895 0.36804283 -0.46886876 0.36775148 -0.14889944 -0.25870222
0.21419412 0.17470713 0.011554484 0.44583112 -0.18470605 -0.15928125 0.45876247 -0.17410856
0.4696066 -0.39772126 -0.12929377 -0.18094325 0.19637607 0.049924746 -0.5409349 -0.49581274

MLP.0.bias f4 [32]
00000000: 9fc9 123f fdd7 e5be ddfa 0bbe f77f 9abe
00000010: ec3c 053c b375 d93d cd1d b5be 1247 fbbd
00000020: 9508 f3bd 34ec c53d 0849 c13d eded 743e
00000030: 3fb3 173f f747 933e 0481 06bf 2df7 8b3e
00000040: 20dc c3bd 2e1c af3e b6f5 193f ed05 c53e
00000050: 52ce 233f 6052 0b3f 5459 273d 26da eebc
00000060: fc4d b83d dd9a acbe d2ff 4e3f c45b 96be
00000070: ebbc 09be ece9 2d3f 8428 ac3e a91a eb3d
0.573389 -0.44891348 -0.13669915 -0.30175754 0.008132201 0.106181525 -0.353743 -0.12269415
-0.11866871 0.09664193 0.09437758 0.23918886 0.5925788 0.28765842 -0.5254061 0.27337018
-0.0956347 0.34201187 0.6014055 0.38481084 0.63986695 0.5442257 0.040856674 -0.029156756
0.08999249 -0.337119 0.808591 -0.29366887 -0.13450973 0.6793506 0.3362466 0.114796944

MLP.1.weight f4 [32]
00000000: bb56 7a3f b586 9e3f 3233 553f b31c 6e3f
00000010: 1e35 583f ae72 503f 9dd8 713f 03be 4f3f
00000020: c0c2 573f b549 473f 81be 563f 6c4e 743f
00000030: 4a49 7d3f 9370 5a3f 02ba 553f b752 513f
00000040: 5808 5f3f 0775 413f 38fe 613f c67e 543f
00000050: 60b2 7a3f 4b31 663f a022 5f3f ebcb 5c3f
00000060: 2494 5f3f c8ef 503f 432f 823f fa61 633f
00000070: ab22 483f dce4 5a3f 97dd 6c3f 83aa 593f
0.9778859 1.2384859 0.8328124 0.9301254 0.8445605 0.8142499 0.9447115 0.8114931
0.8428154 0.77846843 0.83884436 0.9543216 0.98939955 0.85328025 0.8348695 0.8176684
0.87122107 0.75569195 0.8827853 0.8300594 0.9792843 0.89918965 0.8716221 0.86248654
0.8733542 0.8161588 1.0170673 0.88821375 0.781779 0.8550546 0.9252562 0.85025805

MLP.1.bias f4 [32]
00000000: 732f ac3a e2a5 873c 4ffe bebc b439 8f3d
00000010: b145 cebc e601 763c a2cd 01bd 8b01 15bb
00000020: d35b 453d bfcf 50bc 7850 fa3c 18bf aabd
00000030: f2e5 8b3c d7b1 043c 7e9f 37bd bbd9 0b3d
00000040: 0b4c 3f3d 5073 883d c3b2 a8bd e382 923c
00000050: 3a6b 5b3b bb06 8d3a bc2f 8dbc 2ee1 193c
00000060: 6da6 703c 8e94 babc 306b 7f3c ef83 e0bc
00000070: ed3c c7bc 2dad e03c 4f2b 59bb 6cc3 923d
0.00131367 0.016558591 -0.023314623 0.06993428 -0.025179716 0.015015101 -0.031690247 -0.0022736515
0.048183274 -0.012744843 0.030555949 -0.083372295 0.01707742 0.008099041 -0.044829838 0.03414319
0.04670338 0.06662619 -0.08237221 0.017884677 0.003348066 0.0010759452 -0.017234676 0.009392066
0.0146881165 -0.022775915 0.01558952 -0.02740666 -0.024321044 0.027426327 -0.0033137386 0.0716618

MLP.3.weight f4 [32, 32]
00000000: 9322 debd 9096 c4be f903 e93d 4542 febd
00000010: a1a1 b3bd 386c 15be 9dce e93d 5d80 adbd
00000020: ca32 19be 1d19 983d 3e23 18be 7d52 d03d
00000030: fc58 a73b 5aa2 c23d d235 f3bd 3f2a 883d
00000040: 440b 17be f655 db3c 3e95 47bd b254 1bbc
00000050: b399 18be ec87 1a3e a075 9a3c 0bd7 083e
00000060: eddd f2bd c30f 493d 8202 cfbd 1003 f83c
00000070: e79f e6bc 96db 223e 9177 e0bd 3673 973d
00000080: fdfc b5bd d9fb f6bd ccfc 18be c404 063e
00000090: 13c0 c73d d36b dfba b241 00be 993e 02be
000000a0: 82f6 df3d 1726 983d b7ac 2bbe a08c 143e
000000b0: 652b dbbd 99b2 123e 97d0 e63c 5e23 8abd
000000c0: d00f eabd dff1 1e3e 4a91 2c3d 7fda 0cbe
000000d0: f808 0dbe 0fc6 203e 246d 1e3e 04d3 a73d
000000e0: 6c89 43bc a686 bc3c 7b6a 213d 9130 0bbc
000000f0: 030a 593c 42f3 4e3d 5c26 d13d 4b9d 423d
00000100: dc08 71bd d6a6 29bc f164 9fbd deb4 073e
00000110: b182 cbbc 472e fb3d 35bb 3c3d ef28 e3bd
00000120: 5e21 fbbd 844f 02be a7f6 89bd c589 6e3c
00000130: aac4 86bc 2eb4 783d 25a0 84bd 60fe c1bc
00000140: 16fd 283e ef0c 0e3e bbd9 47be 9857 be3d
00000150: 2a9c 18bb 06b4 163e 1559 5c3c 22ad 08bd
00000160: 6da6 b83d fada 9d3d 9e87 7fbc f772 993d
00000170: d438 f9bd f746 0ebe 5cc1 65bd e48a 1d3e
00000180: af3d 33b1 2801 0826 0245 1633 cf44 1934
00000190: 0d52 bc1e cd21 0c34 0150 a3b2 361c a71a
000001a0: c603 96aa c52b 23ae b1c4 a0ae 650e 31b5
000001b0: 1c14 c630 1bac 4dab a763 fa33 6da1 b52f
000001c0: 1008 9f2c bbaf 9bb2 58b8 27b5 8697 5f33
000001d0: d113 4634 6578 c4aa 0953 3c25 02b6 5e31
000001e0: 820f 18b3 bb84 ffb2 da57 35b3 5d63 d3b3
000001f0: 2612 daac 56b4 26b1 2ab1 e0b1 a400 1a34
00000200: 501c 13be f307 463e abb3 12be f272 b93d
00000210: d847 80bd 620e 183d 3fc9 9f3d a120 0f3e
00000220: 8334 6fbd 2362 46bd 9d99 0bbe 866e 0b3c
00000230: 3380 e4bd fe96 cd3d 402a 2dbe 332e fe3c
00000240: 3a58 de3d 14de 2a3d 18fb f0bd b1f2 f43d
00000250: 0fca f43d 8629 03bd 2ee7 b73d 694a 26bd
00000260: e1ac 0a3e 466b 65bd 0ff9 b5bd 077f 1fbe
00000270: da1d d9bd e4bd 303c 542c 1cbe e09b 53bd
00000280: a990 2ebe 4c17 b63d 0d66 323d e921 963d
00000290: b3b0 443d b0a0 81bd 6fe5 733e dce0 353e
000002a0: b6a5 c1ba ce4e a73d 1087 b4bd 4282 0fbd
000002b0: 42e0 babc f7ea 17be ce5d 4abc 1882 813c
000002c0: 1329 0e3e 4f46 07bd b353 b1ba 9793 1a3e
000002d0: a892 aabd c077 b63d 98b6 2b3e 0ba4 d4bd
000002e0: 8e70 1abe da1b 6e3d e500 3f3e fe35 f8bd
000002f0: 9aa0 db3d 61b1 cbbd abc1 d3bd 00fc 4b3e
00000300: ce36 2abe fbd3 01be b177 cc3c 0416 5e3e
00000310: dc23 18bd 0b8a 31be 3bc6 163e e321 42bd
00000320: d676 a13d 0639 993d e93c d63d b5fe e23d
00000330: b043 0fbc 4464 e03d 0213 8b3d 7e93 523e
00000340: 54d0 aa3d 9f31 c1bd 7d1e abbb c555 503c
00000350: f1a3 2f3e 0104 d0bd e210 2cbe 249f 9bbc
00000360: efa0 bb3d 138a 843c e3d2 553e 264c 5cbe
00000370: a30a a3bd 65f0 433d 0d9c bc3c e65e 0f3c
00000380: 89f3 033d 343d 7a3e 11f1 fb3d dd1e cf3b
00000390: a1e3 14bd 20aa e7bd a855 36be 0c5d d43c
000003a0: 3ea2 d4bd 7ce9 083e 7174 9a3c 9ef9 fd3d
000003b0: fc0c aebd 033d 1cbe df9e f7bc 46c0 d83c
000003c0: 9075 ca3d a950 2a3d e22e 3fbd 0621 cc3d
000003d0: eaa3 20be da42 513d 4fa8 293e b612 a8bd
000003e0: 48b7 b0bd 2ff5 17be 4918 53b8 d731 ae3d
000003f0: 38fb 873d 65d8 a3bb 1663 1f3d bd5c 913d
-0.10846438 -0.3839612 0.11377711 -0.12414984 -0.08771063 -0.14592063 0.114163615 -0.08471749
-0.1496078 0.07426665 -0.14857194 0.101719834 0.0051070433 0.09503622 -0.118755 0.06648683
-0.14750391 0.026774388 -0.048726313 -0.009480642 -0.14902382 0.15090913 0.018854916 0.13363282
-0.11858735 0.049087297 -0.101079 0.030274898 -0.02815242 0.15904078 -0.109603055 0.073950216
-0.08886144 -0.12059755 -0.14940184 0.13087755 0.09753432 -0.0017045684 -0.12525061 -0.12719192
0.109356895 0.0742914 -0.16765104 0.14506769 -0.10701636 0.14325942 0.028175635 -0.06745027
-0.11428797 0.15521954 0.042130746 -0.13755225 -0.13772953 0.15700553 0.15471321 0.08194545
-0.011934619 0.023013424 0.03940819 -0.008495466 0.013247016 0.050524957 0.102123946 0.047513288
-0.05884634 -0.010354718 -0.07782925 0.13252589 -0.024842592 0.12264686 0.046076972 -0.11091792
-0.12262224 -0.12725645 -0.06736498 0.014559214 -0.016451199 0.060718708 -0.06475858 -0.023680866
0.16502795 0.13872121 -0.19516651 0.09294051 -0.002328644 0.14717111 0.013448973 -0.033368237
0.09016118 0.07707782 -0.0155962985 0.07492631 -0.12169042 -0.13894258 -0.056092605 0.15385014
-2.6082991e-09 4.7186046e-16 3.498736e-08 1.4274268e-07 1.993921e-20 1.3050813e-07 -1.9012079e-08 6.911516e-23
-2.664797e-13 -3.7100784e-11 -7.310897e-11 -6.5958585e-07 1.4412112e-09 -7.3069475e-13 1.1659659e-07 3.3038408e-10
4.519947e-12 -1.8124288e-08 -6.2480603e-07 5.2059043e-08 1.8447396e-07 -3.4900135e-13 1.6334534e-16 3.2408711e-09
-3.5404362e-08 -2.9746266e-08 -4.2222247e-08 -9.843527e-08 -6.1979475e-12 -2.4258688e-09 -6.5393992e-09 1.43426e-07
-0.14366269 0.1933897 -0.1432635 0.09055127 -0.06263703 0.03712309 0.078020565 0.1397729
-0.05839969 -0.048433434 -0.13632818 0.008510238 -0.111572646 0.10038565 -0.16910648 0.031027889
0.10856672 0.041715696 -0.11766642 0.11960352 0.11952602 -0.03202202 0.08979641 -0.040598307
0.1354251 -0.056010507 -0.08885395 -0.15575801 -0.10601397 0.010787461 -0.15251285 -0.051662326
-0.17047371 0.08891162 0.043554354 0.073306866 0.048020076 -0.06329477 0.2381799 0.17761558
-0.0014774117 0.08169328 -0.08814824 -0.035036333 -0.022812013 -0.14835726 -0.012351466 0.015809104
0.13882856 -0.033026036 -0.0013528973 0.15095364 -0.08328754 0.08909559 0.16768873 -0.10382851
-0.15081999 0.05813203 0.18652685 -0.12119673 0.10723992 -0.09945942 -0.103396736 0.19920349
-0.16622469 -0.1267852 0.024959417 0.21688086 -0.037143573 -0.17337815 0.14724056 -0.0473956
0.07883994 0.074815795 0.104608364 0.11083738 -0.008744165 0.10956624 0.06790735 0.20564076
0.08340517 -0.094332926 -0.0052221403 0.012715762 0.17152382 -0.10157014 -0.16803315 -0.018996783
0.09161555 0.01617912 0.20881228 -0.21513423 -0.07961013 0.04783668 0.02302363 0.008750653
0.032214675 0.2443741 0.12301839 0.006320818 -0.036349896 -0.11311746 -0.17806113 0.025923274
-0.10382508 0.13370317 0.018854352 0.12401126 -0.0849857 -0.15257649 -0.030227123 0.02645887
0.098857045 0.04158083 -0.04667557 0.09967236 -0.15687528 0.051089145 0.16568111 -0.08206694
-0.08628708 -0.14839624 -5.0328938e-05 0.085056 0.06639713 -0.0050001615 0.038912855 0.070977665

MLP.3.bias f4 [32]
00000000: eb1c 0d3e 0b79 323e 088e 343e 2bfb 57b7
00000010: a2a8 1ebd 3233 2abc 37da 3bbe 1199 ac3d
00000020: 6094 7f3d 5e43 eabd 20ae c33d 7b5f b1bd
00000030: 6213 163e b85a 4a3c 02c4 dfbd b4d0 863d
00000040: 092b 953c b948 0abe 96db 023d 5eea 31be
00000050: 08b1 0dbd 0adc 26be 9872 afbd 9840 2d3e
00000060: 9af5 d7bd edce 573d 2032 3cbd 1888 e13d
00000070: 1ef1 e83d 2361 773d 4972 47bd 3996 b0bd
0.13780563 0.17428987 0.17632306 -1.2873478e-05 -0.03873504 -0.0103881825 -0.18344961 0.084276326
0.06239736 -0.114386305 0.09554696 -0.086607896 0.14655831 0.012350731 -0.109260574 0.06582776
0.018208997 -0.13504304 0.031947695 -0.1737456 -0.03459266 -0.16294876 -0.08566779 0.16919172
-0.10544892 0.052687574 -0.04594624 0.11012286 0.113741145 0.06039537 -0.048692975 -0.08622403

MLP.5.weight f4 [32, 32]
00000000: 70ca dcbd ebfd 8b3d 04e3 283d bcb5 9fb4
00000010: b26b 1abe d4d9 753d dfd4 66bd fa4e 133c
00000020: cb83 57bc 1b5f 2cbd 3dfe 1d3e 4a7f b1bc
00000030: bfde 3fbe 1a75 dcbd ec3d 0f3e c900 a03d
00000040: ae17 123e 50b1 76bc 00d4 363d e650 a53d
00000050: 8173 f33d 8430 9a3b 53ae d8bd 63fd 30be
00000060: a9d6 b9bd ca6c 493d 5f25 e63c 4310 3a3d
00000070: f398 c7bc 3fd4 4dbd a1ec 61bd 3c09 f53d
00000080: a4f3 b1bd 996d 1ebe 7bf6 1b3e 67df bf36
00000090: 410d 193e 3b64 b23d f837 4cbd 544b 023e
000000a0: 1052 2e3c 523a f1bd 4801 36bd 8690 b9bd
000000b0: ce47 a83d ffc6 3a3d d8c5 c43d 51fb cf3d
000000c0: 3bf3 103e 1613 283d 6831 1dbe d201 9c3c
000000d0: df25 2cbe 86bd cdbc 6820 b23c 89f0 7f3d
000000e0: 5ae3 09be f345 bfbd 51ad bfbc 5107 afbd
000000f0: cace d13d 4828 11be e3e1 a23d 84ca b53d
00000100: da64 223e fb82 b03d a15b 013d 93f2 59b7
00000110: 1cc5 0d3e 733c 01be 7abd 04be bc60 a03d
00000120: 48a4 adbc 051b adbc e1b3 25be 67ac 933c
00000130: b15f cd3d f4f1 ac3d 722d ec3d b483 24be
00000140: b502 12bd ff7e b7bd 99e3 453d 9bae 4b3d
00000150: bdc2 f7bc 12ee 973c f38b 6abd 7c0c ea3d
00000160: 1ebb 203d 89f6 97bd 3dc6 183e f685 58bd
00000170: 2332 af3d 9dd0 dd3d 9872 2cbd cd30 e93d
00000180: 7cef b03d ac4b 4f3d 996d 2ebe 41e8 61b3
00000190: 3633 59be 05e5 1d3c 2a73 993e a0cf 11be
000001a0: 089f 2abd da23 ecbd b611 8b3d e1b1 5fbd
000001b0: d49f 6fbd b7e9 1e3d efcb 36bc b965 bb3d
000001c0: 45e9 473c 4832 093e 7bd9 883d 46f9 88bc
000001d0: 0f6c 923d 1a41 ef3c f22a ea3d f0e1 2b3e
000001e0: f4b6 f63c 1462 023e 78af 10bd a97b 8c3d
000001f0: 5573 693d d6eb ef3d bf8b e7bd 513f b9bd
00000200: b4d8 cc3c 71a4 58bd e441 71bd d893 bf31
00000210: b9dc 553d ef77 1fbe 5c43 15be 4251 d5bd
00000220: 5654 a43d 81d4 523e 71f2 403a 3926 adbd
00000230: 6f34 89bd 4227 043e 6236 90bd da9a 483d
00000240: d34d dbbd 81da c03d fe9a a3be 743e 8a3c
00000250: 77d9 b2bd fb2d 913b 8f0c aebc b8fd 9cbd
00000260: 7b43 09be 5eab 55bd 47ce a93d c46f 05be
00000270: c056 28be f35c bdbe 6875 193d 4bec 333e
00000280: 423f 49bd 4d78 523c 7577 04be 4455 8eaf
00000290: 26e0 0c3c 1b89 0e3e e05e 703d 0c02 6abd
000002a0: fe14 bcbd 3d8e 7abd f163 12bd e90e 8e3c
000002b0: 1b6b d03d c496 043d c234 16bd a47c dc3c
000002c0: 6637 8a3d 3a84 0e3e d14a 02be e7f0 21bd
000002d0: f2db e8bd 685c e63c 9774 bbbc c631 32bd
000002e0: 3753 4f3d d641 cbbd 557e 9b3d 4b49 bdbd
000002f0: 30b4 16be ee44 c23d e320 283c 6bf0 ca3d
00000300: 0696 5c3d 3317 e53d 4cca d6bd 3855 0b37
00000310: 0786 74bd de9d 58bd c541 373e 34ed 1bbc
00000320: 8b09 00bb 2e5a 243e 05e6 ea3d 2db8 14be
00000330: b53a 8fbd 5981 0ebe 8509 c73d 9767 543d
00000340: 136e 0fbe 2843 a8bc 7d94 dabd af14 4e3e
00000350: 6dc0 28bd 2865 30bd 7d41 863d 0c86 9c3c
00000360: c181 08be fa0f 213e 4031 883d ede2 51bd
00000370: f1f8 f3bd d478 c7bd b5c2 08be 0b43 c4bd
00000380: f71f 0f3d bb8b ffbd 346b 223d 5672 74b3
00000390: 8648 063c 1728 973d 9139 88bd 11a9 c83c
000003a0: 8145 28bd 19fb dcbc d860 313d 043d aabd
000003b0: eb72 bebc f219 6cbd 8ecc 82bd 2b83 80bd
000003c0: 4310 0ebe 8a10 5d3e 3593 38bd 018b 903d
000003d0: eaa1 893d 694c 8f3c 5fe9 7c3d 524a babb
000003e0: 1193 d8bd 4306 4c39 e6c1 a73d c6b7 b43d
000003f0: ac36 383c c25b ea3c b5b4 ccbc 2ed7 533d
-0.107807994 0.068355404 0.041232124 -2.9748287e-07 -0.15080145 0.06002219 -0.056355353 0.008990997
-0.0131539805 -0.042082887 0.15429015 -0.021667141 -0.18737315 -0.10764523 0.13988465 0.0781265
0.14266846 -0.015056923 0.044635773 0.08072071 0.11887265 0.0047054905 -0.10580125 -0.1728416
-0.09074146 0.049176015 0.028093992 0.045425665 -0.024364924 -0.05025124 -0.055157308 0.11964652
-0.08689049 -0.15471496 0.15230744 5.718251e-06 0.14946462 0.08710524 -0.049858063 0.12724048
0.010639682 -0.11778702 -0.044434816 -0.09060769 0.08216821 0.045599934 0.09608048 0.10155357
0.14155285 0.041033827 -0.15350878 0.019043837 -0.16811322 -0.025114786 0.021743968 0.06248525
-0.13465634 -0.09339514 -0.023398073 -0.08546317 0.1024452 -0.14175522 0.07953241 0.088765174
0.15858784 0.086187325 0.031581525 -1.2990687e-05 0.13844723 -0.12620716 -0.12962905 0.078309506
-0.0211965 -0.021131048 -0.161819 0.018026544 0.10028017 0.084445864 0.115321055 -0.16065866
-0.035647113 -0.089597695 0.048312757 0.049727064 -0.030244226 0.018546138 -0.057262372 0.114281625
0.03924095 -0.0742007 0.14919372 -0.05286213 0.08554485 0.108308055 -0.042101473 0.11386261
0.08639428 0.050609276 -0.17033996 -5.259813e-08 -0.21210942 0.009637122 0.29970676 -0.14239359
-0.04165557 -0.11530276 0.067904875 -0.054612998 -0.058502033 0.038797107 -0.01115702 0.091502614
0.012201612 0.13398087 0.06682106 -0.016720425 0.07149517 0.029205848 0.114339724 0.16785407
0.030116536 0.12732726 -0.03532359 0.06859524 0.056994755 0.11714904 -0.11305951 -0.0904528
0.025005676 -0.0528912 -0.05890073 5.5756395e-09 0.05221245 -0.15573095 -0.14576477 -0.10415889
0.08023898 0.20588876 0.00073603453 -0.08454556 -0.06699454 0.129056 -0.07041623 0.048975803
-0.10708203 0.09416676 -0.31954187 0.016875483 -0.087328844 0.00443053 -0.021246223 -0.076655805
-0.13404648 -0.05216538 0.082912974 -0.13030916 -0.16439342 -0.36984977 0.037465483 0.17570607
-0.049132593 0.012846065 -0.12936194 -2.5890234e-10 0.008598363 0.13919489 0.05868423 -0.05713086
-0.091836914 -0.061170805 -0.035739843 0.017341094 0.10176679 0.032370344 -0.036671408 0.026914902
0.06748848 0.13917628 -0.12723853 -0.039536383 -0.11370076 0.028120235 -0.022882743 -0.0435045
0.05061647 -0.099246666 0.07592455 -0.09242495 -0.14717174 0.094858035 0.010261747 0.09909137
0.05385401 0.111860655 -0.10487804 8.304887e-06 -0.05969813 -0.05288493 0.17896183 -0.009517003
-0.0019536938 0.16050026 0.11469654 -0.14523382 -0.06993619 -0.1391653 0.097186126 0.051856603
-0.14006834 -0.020539835 -0.10672853 0.20125078 -0.041199137 -0.04306522 0.0655546 0.019106887
-0.13330747 0.15728751 0.06650019 -0.051241804 -0.11912716 -0.09739843 -0.13355525 -0.095831
0.034942593 -0.12477823 0.039653018 -5.6914665e-08 0.008196002 0.073806934 -0.06651605 0.02449468
-0.04108191 -0.026975201 0.043305248 -0.08312419 -0.023248157 -0.05764193 -0.06386672 -0.06275018
-0.13873391 0.2158834 -0.045062263 0.07057763 0.06720336 0.01749249 0.061745998 -0.005685129
-0.10574926 0.00019457289 0.0819128 0.088241145 0.011243504 0.028608207 -0.024988512 0.051718883

MLP.5.bias f4 [32]
00000000: 74eb 5dbd c39d f33c 9ffd 2fbc 39ec 9ebc
00000010: b4fa c7bd 0ba9 8dbb c9ca 6fbd 87bf 1f3c
00000020: 76d9 f93c 5831 2b3d 386f cb3d 4195 e43c
00000030: 51d7 d13c fa78 033e 670c 303d e268 dfbd
00000040: 4425 21be 800b d23d 43f5 1a3d 4f62 88b9
00000050: 61f3 44bd 7581 1a3d 537b 1bbe 3069 033c
00000060: 3f49 99bd fc76 d1bd 27f3 043e 0b8b 0cbe
00000070: 6499 c7bd 559c 7b3d 5f6e 83bd dd2b 98bb
-0.054179624 0.029738313 -0.01074162 -0.01939975 -0.09764615 -0.00432313 -0.058543 0.0097502535
0.030499201 0.041795105 0.09933323 0.027903201 0.025615366 0.12839118 0.042980578 -0.10908677
-0.15736872 0.102561 0.037831556 -0.00026013187 -0.048083667 0.037721116 -0.15183763 0.008020684
-0.07484674 -0.102277726 0.1298338 -0.13724916 -0.09746054 0.061428387 -0.06417536 -0.004643901

MLP.6.weight f4 [32]
00000000: 90fb 6a3f 5ec6 533f b81b 553f 41fb 513f
00000010: 33bc 693f 0d22 273f 9d34 4b3f 0d8d 393f
00000020: 3afa 643f 16c0 613f 62b7 4b3f 5234 6c3f
00000030: b580 663f 4a8a 5f3f b976 553f 2113 6c3f
00000040: 48ec 583f 0780 6b3f 3540 583f 7899 3b3f
00000050: e9bd 4c3f ada1 6c3f 9094 693f 2b9b 5d3f
00000060: 8db5 543f d271 6a3f c193 603f f4aa 593f
00000070: fd86 5f3f 01ea 693f cf07 3d3f 4c3b 673f
0.91790104 0.8272456 0.8324542 0.8202401 0.91302794 0.6528633 0.79377156 0.7248085
0.89444315 0.88183725 0.79576695 0.92267334 0.9004014 0.8732039 0.8338428 0.9221669
0.84735537 0.9199223 0.8447297 0.7328105 0.7997728 0.924342 0.91242313 0.8656489
0.83089525 0.91579926 0.87725455 0.8502648 0.8731535 0.91372687 0.7384004 0.90324855

MLP.6.bias f4 [32]
00000000: 1aa3 e53b 0bdd 103c 214c f7bb 988d 00bc
00000010: 5d52 13bd f0c8 05bb b5f9 63bb 8398 0dbc
00000020: cf81 243c 40cb b6bc 6542 93bb baaa f639
00000030: 9df9 433d 0168 0b3d dafa 2f3d ca76 d23b
00000040: c903 0dbd 92b6 d4bc 8380 aa3a 3433 9d3c
00000050: 9500 d3bb 492d 89bc 0dda e83b 64be 473c
00000060: 01e1 79bb a65a 4bbc 8fbb fabb b99d 4b3b
00000070: f6f8 703c 9909 bdbb e641 08bb aac8 463b
0.0070079686 0.008841763 -0.007546917 -0.007846259 -0.03596722 -0.0020413958 -0.0034786288 -0.008642319
0.010040714 -0.022313714 -0.004493999 0.00047047978 0.04784547 0.034034733 0.04296384 0.006422852
-0.034427438 -0.025965963 0.001300827 0.019189455 -0.0064392784 -0.016745226 0.007106072 0.012191389
-0.0038128498 -0.012411749 -0.0076517533 0.0031069352 0.014707794 -0.0057689664 -0.0020791232 0.0030332007

MLP.8.weight f4 [32, 32]
00000000: a4a3 68bd d0d0 44bd 7cd4 c33a 5256 d23d
00000010: a84b 7f3d 0b28 4b3d c45a d3bd 7217 253e
00000020: 4774 f43d 13d1 2abd 9ac1 edbc 651b 023e
00000030: f604 debc 73e7 eebd 16a8 253e 8496 fe3d
00000040: 984c 33be 3ffd 9d3d c816 ccbd 1bcd d73b
00000050: c5b1 d6bd 92ed 56bd 315d 0e3e 732f a2bd
00000060: 8ad0 333d 28e3 b5bd 1a66 83bc 8633 423d
00000070: 093b 83bd 57b0 133d 42cc 0a3e 621e d53d
00000080: 1aa4 cc3c 03c4 2cbd 5543 e53d 1c95 14bd
00000090: 551d 40bd ab7d 333e 0109 043e b93a 31bc
000000a0: 121e b03d f593 c5bd f3fa cbbd 823e 74bc
000000b0: 29d7 d23d 33bc cb3d 04a4 9d3d 6e74 3d3e
000000c0: 42dd b6bd 8f44 07be 63f6 d53d fb76 943d
000000d0: e7e9 d33d 31e8 0d3e 71ac 3fbe ff87 5b3d
000000e0: b1ae 51bd 4e1a ecbd 7fc6 12be c73b 653e
000000f0: 4621 953d 568a 3bbe 7cf0 fdbd 2a52 5a3b
00000100: edf1 d6bd e5c7 9dbd d91f aebd d5b9 18be
00000110: ed43 1ebe e079 16be 5059 423e 1f64 11be
00000120: d2ab 1e3d 43d6 003c 560b 30be 9c99 ed3d
00000130: 551f b23d f3dc fb3d 8565 923d 1dcb 10be
00000140: 047b 013d ee23 12be b1c6 0f3e 20ca f6bd
00000150: 7e9b b1bd 87d4 493e 08f6 96bc 6cbc 463d
00000160: cd56 1ebd 0eb9 35bc 2e3b 25be 1654 19be
00000170: faf1 c03d 6b60 0fbe 4f95 f5bc 640b 92bd
00000180: 9b50 d53d c4b1 87bd 3e76 1d3e 18fc aa3c
00000190: 313f 603d 3ce8 98bd 04c5 5e3e a149 0d3d
000001a0: 6d7f e2bd 9cfd 04be 02ab d8bd 469b 563d
000001b0: aa55 9ebd 7cfc c9bd 3ee3 e8bd 137e 823d
000001c0: 1bdd ea3d e391 2c3e 72ea 5cbd dc8b 5d3b
000001d0: aa6d 9b3c 6a6b 31be 4ac3 953d a6be b43d
000001e0: 917b 043c d049 0fbe aefb fdbc fb7c 283d
000001f0: cb5e 513d d8cf 30bc b050 1abd 0eb6 a0bd
00000200: 95a5 513d 6419 88bd 0bce e1bc ddfd 213d
00000210: 65cf b2bd f9c6 00bc 3b26 243d 8f3c f4bd
00000220: 556a bbbd 6a25 053c 321c 2ebb 753e cd3d
00000230: 1a64 093e 55a8 efbd ca15 1b3e b555 88bc
00000240: f0a4 d73d 3f1e 0d3e 2936 933d 1a5c 94bd
00000250: 8459 ee3d bd44 6b3d dbed 823d 483b 41be
00000260: 5e0f d63d 0a97 c23d 991a 7cbc bbf7 0abe
00000270: 8851 89bd 4021 4fbd e33c d3bc 1933 f9bc
00000280: 6e9d 213e 57ab 883d c498 4bbd 2c88 27be
00000290: 4367 e0bd 6381 aebd 902d d03d dc9f 59bd
000002a0: b17a 11be 2f19 b7bd 4a8d 19be 31fc 763d
000002b0: d500 243e 4ed5 133e 5a7b 303c ac66 cabc
000002c0: 2b79 60bd 0080 123e c2a9 9a3d 03c6 c03d
000002d0: 32bb 003e 562e 1f3e e626 ec3d 22d4 28be
000002e0: f65c 01be 2b04 d93d 846e 6a3d 2f3d 98bd
000002f0: ff36 243e 0a9a aebd 231f 1abd 0dd9 2d3e
00000300: 3e54 063e e95c 993b 98b8 b6bd 6942 76bc
00000310: af92 1dbe 43f3 f7bd 9ea8 17be d61f c7bd
00000320: dbab 903d b4a7 c7bd ff36 893d c9d0 39be
00000330: 8da7 843b f041 46bd 28ba 9abd 8915 f53d
00000340: eb47 c5bd 62ab 0b3e 416e 233e 3561 26bd
00000350: 4fd2 24be 6728 bc3d b3f5 f4bc de77 1a3c
00000360: 495c 56bd 67a5 26be 5e65 fabb c768 ec3d
00000370: eef2 38bc dabe 443d 3da6 3bbe 8334 273e
00000380: ed0c babd 712e d13d 53c0 fc3d 4c22 85bd
00000390: 2253 a53d 7d2d 1fbd 5125 0dbe 6d0b 98bd
000003a0: a3ed a33c f724 2cbe 1c98 02be d4a9 0fbe
000003b0: c92c 1d3e 40ef 1b3d 9a16 2c3e 0b91 34be
000003c0: c3b4 6b3d 906c d93d 2407 07bd 69f9 583d
000003d0: 53a1 0d3e 1705 82bd e962 553e 39d3 673d
000003e0: b631 09be 5450 55bd c6ee 203d e7ea 103c
000003f0: 4e5e cabd 7b57 15be 1ec6 39bc 4d03 5f3b
-0.056796685 -0.0480507 0.0014940645 0.102703705 0.06232801 0.049598735 -0.103200465 0.16122225
0.11936241 -0.041703295 -0.02902298 0.12705763 -0.027101975 -0.11665239 0.16177401 0.12431052
-0.17509687 0.077143185 -0.09965283 0.00658573 -0.104831256 -0.05247266 0.13902737 -0.079192065
0.04390005 -0.08881217 -0.016039897 0.047412418 -0.064077444 0.036056843 0.1355448 0.10406186
0.024980593 -0.04217912 0.11194483 -0.036275014 -0.046902973 0.17528407 0.1289406 -0.010817223
0.085994855 -0.09647361 -0.09959974 -0.014907481 0.10294945 0.099480055 0.07697299 0.18501446
-0.0892892 -0.13209747 0.10447385 0.07249256 0.10347348 0.13858105 -0.18718125 0.053596493
-0.05119199 -0.11528455 -0.14333533 0.22386084 0.07281737 -0.1831449 -0.123993844 0.0033313134
-0.104953624 -0.077041425 -0.08502168 -0.1491464 -0.15455599 -0.14694929 0.18979383 -0.1419835
0.03873808 0.007863584 -0.17191824 0.11601564 0.08697382 0.12298002 0.071482696 -0.14139982
0.031611457 -0.14271519 0.14040639 -0.12050271 -0.08672236 0.19709979 -0.018427864 0.048519537
-0.038657 -0.011091484 -0.16135857 -0.14973482 0.09421153 -0.14001624 -0.029978422 -0.07131079
0.10415765 -0.06625703 0.15377137 0.02087216 0.054747764 -0.0746617 0.21754843 0.034494046
-0.11059461 -0.1298737 -0.10579492 0.052394174 -0.07731183 -0.09862611 -0.11371468 0.06371703
0.11467954 0.16852526 -0.053934522 0.0033805287 0.01897319 -0.17326131 0.07312639 0.08825426
0.008086101 -0.13993001 -0.0310038 0.041134816 0.051115792 -0.010791741 -0.037674606 -0.07847224
0.051183302 -0.06645468 -0.02756407 0.039548744 -0.087309636 -0.007859939 0.040075522 -0.11925613
-0.091511406 0.008126596 -0.0026567099 0.10021678 0.13417092 -0.11702029 0.1514503 -0.01664243
0.10529506 0.13781069 0.071880646 -0.072441295 0.116381675 0.0574386 0.063930236 -0.1887027
0.1045215 0.09501465 -0.015387201 -0.13571064 -0.06705004 -0.05056882 -0.025785869 -0.030419873
0.15782711 0.066733055 -0.049706236 -0.16360539 -0.109571956 -0.08520772 0.1016494 -0.05313097
-0.1420696 -0.0894035 -0.14995304 0.060299102 0.16015942 0.14436838 0.010771597 -0.02470716
-0.054803055 0.1430664 0.0755191 0.09412768 0.1257141 0.1554502 0.11530857 -0.16487172
-0.12633118 0.10596498 0.057234302 -0.07433545 0.16036604 -0.08525474 -0.03762735 0.1697733
0.13118073 0.004680265 -0.08921927 -0.015030482 -0.15387987 -0.12106945 -0.14810416 -0.09722869
0.07064029 -0.09748784 0.06699943 -0.18146051 0.004048294 -0.048402727 -0.07555038 0.11966998
-0.09632858 0.13639596 0.15960027 -0.040620048 -0.16095851 0.09187394 -0.029902315 0.009427993
-0.052334104 -0.16274033 -0.0076414784 0.11543422 -0.011288388 0.048033573 -0.18325134 0.16328625
-0.09084497 0.10213936 0.123413704 -0.06500682 0.08072497 -0.03886174 -0.13783766 -0.07424054
0.020010775 -0.16810976 -0.12753338 -0.14029628 0.15349115 0.038069963 0.16805497 -0.17633455
0.057545435 0.1061641 -0.032965794 0.05297223 0.13831072 -0.06348627 0.20838512 0.056597922
-0.1339787 -0.05207856 0.039290212 0.008845068 -0.098812684 -0.14584152 -0.011338739 0.0034029067

MLP.8.bias f4 [32]
00000000: 115a 2bbe 9b87 e43d 1cd9 203e 3416 d33c
00000010: 6279 133d bb2a 573c 6aa8 f13d c32a babc
00000020: 129e a73c 8ceb 283d 597d c4bd ba88 073e
00000030: 8039 20bd 1817 0fbd dd01 fa3d ea2b e9bd
00000040: 5189 07be 24d0 edbd 583e 993d 68b9 bfbc
00000050: 7259 aa3c 2058 cdbc f530 873b cc25 253e
00000060: f66d 9d3d fbbc 1ebc 4396 2f3d 4a3a 333d
00000070: 3f10 e8bc 5d13 453d 4df6 f4bd 2610 a13d
-0.16733576 0.11158677 0.1570782 0.025767423 0.03600443 0.013132746 0.117997006 -0.022725469
0.020461116 0.04124026 -0.09594221 0.13235751 -0.039117336 -0.034934133 0.12207387 -0.11385329
-0.13235976 -0.11611965 0.07482594 -0.023403838 0.020794604 -0.025066435 0.004125709 0.161277
0.07686989 -0.009688611 0.04286791 0.04375676 -0.02832806 0.04811417 -0.11961041 0.07864408

MLP.10.weight f4 [32, 32]
00000000: 5d7c 97bd 5686 943b 9765 7a3d a288 0d3e
00000010: 14c2 e63d a0d3 6dbd e1d9 31bd be69 273e
00000020: 24da 73bd 7292 023d 1ee4 ddbd fc0e 1e3d
00000030: 82f0 cebd ed81 8dbd 0348 a5bd c645 bf3c
00000040: 310f 29bc 8b1a 10bc 6218 82bd 29f7 ac3d
00000050: 70d9 ed3d 8d89 9cbd 5bcd 6c3d ec42 08be
00000060: be21 083e e3cd c6bc 5ae7 513e 9674 c93d
00000070: 6580 fd3b 078c 2f3d c2df 8c3d 9669 e8bc
00000080: 1b62 263d 5201 2abe 5dd2 bb3d 03a8 3fbc
00000090: d69b 1a38 3302 993d 42d2 ef3d ce36 17be
000000a0: f92f 80bd ab43 5cbd 6a97 9a3d 669c f13d
000000b0: 7fcc f83d fa7e 1f3e cbf8 103e 6d4b a3bd
000000c0: 4611 8cbc 5c44 30bb 145a 8fbc 23b7 7f3d
000000d0: 25f9 b9bb a987 463d 1331 053d 8302 0cbe
000000e0: fb49 c73d a283 653d 7de2 2abd 28c3 a43d
000000f0: f5d4 273d b84f 053e 82b8 bc3c 088e 96bd
00000100: dd50 33be 2dac 32bc bdec 3fbe 39c1 20be
00000110: b433 aa39 b830 603b d729 deb9 8486 2bbe
00000120: 54c9 29bd ab44 0f3e de28 dd3d 8ce0 ef3d
00000130: 03c5 ef3d 8765 6b3c fb96 293d d930 2a3e
00000140: 83d6 3bbb b1d7 9dbd 79ff 0ebe 0e28 a0bd
00000150: b0b7 783d 580e ed3d a5c2 f9bd 1b5a 703e
00000160: d9df 2dbd b203 f5bd 9af3 b7bd d5a6 713d
00000170: 6fa4 afbd 896a b7bd 4732 533d 2112 d33d
00000180: a19c e3bb cb78 b7bd 1a08 a93d f3bb d3bc
00000190: ef5d 21be feb2 dbbd 9ee7 80bc 5345 d7bd
000001a0: 1861 0bbd fc05 2abe 694d 28bd 4e02 193d
000001b0: f806 d03d 2f84 98bd da59 76bd 84d0 8bbd
000001c0: 3a66 8abc fdff b3bd 6c0e a7bc 8a1d df3b
000001d0: f91a d23b 60c4 853d e3ca 0a3e 0c5b 8e3d
000001e0: c5c3 83bd 41c1 1f3c 4543 da3d 9031 14be
000001f0: 40ae f13d 34bc ddbc 670f eb3d 47e5 d6bd
00000200: 5c10 673d af03 173d 6885 193d 6850 8dbd
00000210: b218 483d c45c f9bd e0ff bdbb 70a6 f93d
00000220: d313 173d caa6 fbbd 7a92 1d3e 853d 0bbe
00000230: 256b 22be a557 e33d d634 6ebd 1849 68bd
00000240: 1892 f83c 625d f03c f1b3 b3bd 2b2b dc3c
00000250: 64c5 d5bd 0ca6 5d3d 97f3 1abe 5204 d0bd
00000260: 31bc 17be fdb4 2ebd 64a4 043e 5635 813d
00000270: f52f 753c 7231 f9bd d341 8dbd e4ad 1d3e
00000280: f927 1fbe 8b89 913d 45f1 e13d 4e0b c13b
00000290: f7ad 20be da75 1f3e a604 883d e6d4 dc3d
000002a0: 7756 0abd 07d8 a13b 7446 90bd 8e1f 2c3e
000002b0: e4fb e03d 2198 433d 9812 a3bd 6903 c3bc
000002c0: 8724 9fbd 0c96 59bd 9156 a73d e763 17be
000002d0: c7ed 69bd e04e 09bd 22a5 c2bd e2ec b53c
000002e0: 7e8e c939 1bd2 53bd caea a33b d0a2 693d
000002f0: d738 083e 56a8 49bc b613 6bbd 57ac 0fbe
00000300: e822 cf3d 2534 233d 386c 0abd 3ed4 abbd
00000310: b12e 383d 4fac b5bd 9e88 ddbd 640a fd3d
00000320: 9e79 16bd aa6a bcbd 9d34 acbc e12e 47bc
00000330: 2d7c 133e 0b48 fb3d 6765 adba 9e86 213e
00000340: 88fa 02be 7ed6 84bd 8fa8 2d3d 43cd 0abe
00000350: 9522 d9bd 7184 983c 49a0 2f3e b3d6 8f3d
00000360: 5642 c73c 0415 6bbd 3d73 493c 679f 063e
00000370: ea68 44be d340 753d 9162 793d bd0f fa3c
00000380: 925e 473d 1e83 383e 3a6e 5a3d ebcc ce3d
00000390: 4262 383e 3c65 9d3c 9fd0 cbbd edba e83d
000003a0: c5f3 58bd 2f79 e53d dc6b f3bd fea3 a5bb
000003b0: 39fa 95bd 8e3a dfbc aff1 a7bd 53bd ef3c
000003c0: 6e88 a3bb 41e1 553d 1d6d 163e 7c65 9a3d
000003d0: 3523 c3bd 4f30 bbbb fae0 03be b361 6a3e
000003e0: be40 80bd 32fd 0c3d d4c1 1f3e d004 73bd
000003f0: 1724 4bbd a0a7 8cbd 90b7 aebd 6f14 00be
-0.07396767 0.0045326157 0.06113204 0.13821653 0.11267486 -0.05806315 -0.043420676 0.16348931
-0.059534207 0.031877942 -0.108345255 0.03858851 -0.10104467 -0.06909547 -0.08070376 0.0233487
-0.010318563 -0.008795391 -0.06352307 0.084455796 0.116137385 -0.07643423 0.05781303 -0.13306779
0.13294122 -0.024268096 0.2049841 0.0983669 0.007736253 0.04285815 0.06878616 -0.02837066
0.040620904 -0.16602066 0.09170983 -0.011697772 3.6861595e-05 0.074711226 0.11710025 -0.14767
-0.0625915 -0.05377547 0.07548411 0.11797409 0.121483795 0.15575781 0.14157407 -0.07973371
-0.01709808 -0.0026896214 -0.017499007 0.062430512 -0.0056754523 0.04846922 0.032517504 -0.13672833
0.097309075 0.056033738 -0.041719902 0.080450356 0.040974576 0.13018692 0.023037199 -0.07351309
-0.17511316 -0.010905308 -0.18742652 -0.15698709 0.0003246345 0.0034208726 -0.00042374313 -0.16750532
-0.041451767 0.13991039 0.107988104 0.11712751 0.11707499 0.014367468 0.04140375 0.16620196
-0.0028661794 -0.077071555 -0.13964643 -0.0782014 0.060722053 0.115750015 -0.121953286 0.23471873
-0.042449806 -0.119635954 -0.0898201 0.058996994 -0.08576285 -0.08955867 0.05156162 0.10306192
-0.006946162 -0.08958586 0.082534984 -0.025846457 -0.15758489 -0.107274994 -0.015735444 -0.105112694
-0.034028143 -0.16603845 -0.04108945 0.037355714 0.10157579 -0.07447087 -0.060144283 -0.068268806
-0.016894449 -0.0878906 -0.02039262 0.0068089413 0.006411907 0.06531596 0.13553958 0.069509596
-0.064338244 0.009750665 0.10657362 -0.14472032 0.11800814 -0.027067281 0.11477547 -0.1049295
0.056412086 0.036868747 0.03748074 -0.06900102 0.048851676 -0.12175897 -0.005798325 0.121899486
0.03688414 -0.12287672 0.15387908 -0.13597687 -0.15861185 0.11100701 -0.058155857 -0.056710333
0.0303431 0.029341403 -0.087745555 0.026876053 -0.1043804 0.054113433 -0.15131985 -0.10157074
-0.14817883 -0.042653073 0.12953335 0.06309001 0.014965047 -0.12167634 -0.068973206 0.15398365
-0.15542592 0.07106312 0.11032347 0.00589124 -0.15691362 0.155723 0.066415116 0.10782795
-0.033773866 0.0049390825 -0.07044688 0.16808912 0.10985544 0.047752503 -0.07962531 -0.023805337
-0.07770639 -0.05312161 0.08170808 -0.14784203 -0.057111528 -0.033522487 -0.09504153 0.022207681
0.00038443872 -0.051714044 0.0050023543 0.057040036 0.13302933 -0.012308201 -0.057391845 -0.14030586
0.1011408 0.03984465 -0.03379461 -0.08390091 0.044966403 -0.08870756 -0.10817073 0.123554975
-0.036737077 -0.09200032 -0.021021182 -0.012157173 0.14402838 0.122696005 -0.0013229073 0.15774009
-0.12790883 -0.06486224 0.042397078 -0.13554864 -0.10602299 0.01861784 0.17150988 0.070233725
0.024323624 -0.05739309 0.012295541 0.13146745 -0.19180647 0.059876274 0.060885016 0.030525083
0.048674174 0.18018767 0.053327776 0.10097679 0.18006232 0.019213311 -0.09951901 0.11363778
-0.05296685 0.112047546 -0.11885807 -0.00505495 -0.07323117 -0.0272496 -0.08200394 0.029265082
-0.004990629 0.052216772 0.14690061 0.07538888 -0.095281996 -0.005712546 -0.1287879 0.22888832
-0.062623486 0.034421153 0.15601283 -0.05933076 -0.049594965 -0.068679094 -0.085311055 -0.12507795

MLP.10.bias f4 [32]
00000000: f86f d1bd f2e9 90bd a2f6 183e ba62 c23d
00000010: 3f46 2e3e 2664 913d 52bc a53d 988c 6a3d
00000020: e440 a53d 0e5b f83d 4c0e 1ebe 5177 ae3d
00000030: a367 163e d729 c53d 0221 26be 44d0 8abd
00000040: 95e0 8bbb 7407 f93d 3401 0cbd 4604 8cbd
00000050: f6a3 d63c 6d22 ac3d d0d1 6abd cf3f 2f3d
00000060: 0997 073e 2a07 c13c dbd2 953d 2671 c7bc
00000070: 05d6 af3b 01f4 1b3d 6963 f93b 20af 31bd
-0.102264345 -0.070758715 0.14937833 0.09491487 0.17018984 0.0709918 0.0809256 0.057262987
0.080690175 0.12126742 -0.15435141 0.085188515 0.14687972 0.09627121 -0.16223529 -0.06778005
-0.0042687156 0.12159625 -0.034180835 -0.068367526 0.02620123 0.08405004 -0.057329 0.042785462
0.13241209 0.023562986 0.07315608 -0.024345946 0.0053660893 0.038074497 0.0076107276 -0.043379903

MLP.11.weight f4 [32]
00000000: e65a 413f 5c41 733f f780 753f 0064 733f
00000010: c12f 6a3f 8160 783f d236 793f 73f6 6d3f
00000020: 4899 733f cc2c 733f d1cd 5f3f 4b52 773f
00000030: dd40 4b3f fcd7 763f 55e5 7a3f 586e 6b3f
00000040: e7e8 793f 2623 793f cf08 6b3f 3fb5 6f3f
00000050: 0846 773f c623 7c3f 8ef5 6a3f 0fa3 703f
00000060: e6d9 7e3f 323a 643f c69c 793f 3429 763f
00000070: af71 723f 9420 553f 2508 783f 495e 793f
0.75529325 0.95021605 0.9589991 0.9507446 0.91479117 0.97022253 0.97349274 0.92954177
0.95155764 0.9499023 0.87423426 0.96609944 0.7939585 0.96423316 0.9800618 0.91965246
0.97621006 0.9731926 0.91810316 0.93635935 0.96591234 0.98492086 0.91780937 0.9399881
0.99551237 0.891513 0.9750484 0.9615662 0.9470472 0.83252835 0.9688743 0.9740949

MLP.11.bias f4 [32]
00000000: 42fe bdbb ee3c 01bc 274f 98bc a7ab 30bc
00000010: 87a3 b13b d967 ff3a af48 163b 9d16 a13c
00000020: b7ab 15bb 6b76 30bc 5b2e f1b9 abaa b4bc
00000030: 6a04 12bc b8b5 52bc 5bd0 acbc 74f2 9ebc
00000040: f38c 113c 65fa f73b 807c e7bb 0b64 523b
00000050: 14ea c9ba f780 aebb 53c0 183b 9bd9 023d
00000060: 0c5a 24ba 917f 0a3c f59e 1cbb 2f77 24bb
00000070: 4c66 973c 2bd5 23bd 8d76 9e3c 7c6e 67bc
-0.005798132 -0.007888062 -0.01859243 -0.010783113 0.0054211053 0.0019485905 0.0022931506 0.019664103
-0.0022837946 -0.010770421 -0.0004600164 -0.022054037 -0.008912185 -0.012860708 -0.021095445 -0.01940272
0.008883703 0.007567691 -0.007064402 0.0032103087 -0.0015404844 -0.0053254324 0.0023307994 0.031945806
-0.00062695215 0.008453266 -0.0023898457 -0.0025095453 0.018481396 -0.039998215 0.019343639 -0.014125463

MLP.13.weight f4 [4, 32]
00000000: dc50 333c b3a1 553d 92e0 d63d 681e f53d
00000010: 88ca 033d cb98 163e 6fb4 0d3e 1f1b 5cbd
00000020: 3d05 c43c eb2c b6bd 5ebb 3cbd 941b 1f3e
00000030: a5d7 0c3c 9996 c03d 1ffe 673d ece0 13bd
00000040: acf7 1abe bf6d f8bd aaf5 a03c a81b 803d
00000050: c879 e43d 617f 023e 7e7a dbbc 265f ddbd
00000060: cebe 7b3d dc6b f0bc 62f5 ad3d 0a5b c53c
00000070: 0453 adbd 8ed4 3c3b 9ba9 dbbd 5554 183e
00000080: 2df3 0ebd e242 4abc b63b d93b 5c16 11bd
00000090: 2de3 c43c e3cd 8a3c 3b77 b5bc 7583 05bc
000000a0: 4766 5a3d a359 413d a600 303c 4d13 c4bc
000000b0: d45a 423c c5f5 253d 17ab 61bc 3cfb 993c
000000c0: 3630 debb 8dd8 a8bd 7edd 523a 44a7 1b3c
000000d0: c830 783c a0e6 db3b ffa7 923d 4d83 943c
000000e0: 706b 9bbd 6a5a 3dbd e132 adbc f42d a4bd
000000f0: 37f6 a13c 7ec6 13bc a6a4 87bd 0fa0 acbc
00000100: 7c15 5f3d 351e 373c 0047 c5ba e651 69bc
00000110: 303a a6ba 74db 7eba 3660 ccb9 094a 97bc
00000120: fe25 07bc 2a88 4a3b 72a1 223d 262b 35bb
00000130: 9ab9 923b 8395 50bc 89bf d9bb e4dc 9bbb
00000140: b6a1 0c3c b6dc 013c 1215 bf3c 75bb 76bb
00000150: f148 da3c cd84 bc3b 0a8c 2a3c 4a83 2fbb
00000160: 6bf8 143d 68c5 d4bb 8fd8 e0bc c5a4 65bc
00000170: 622b 8bbb 5670 b83c eb05 713c 8607 ddbb
00000180: a940 a8bd b0aa b3bd 1d4e 073e 0015 fcbc
00000190: a0dd 9bbd c24c a8bc 0edf fcbd 3913 c2bd
000001a0: 2ac9 21be 91e7 58bd 2bff 9d3d 1e82 0cbe
000001b0: 6863 6c3d cd7c 1cbe 0b76 2e3e 43e5 173e
000001c0: f00e 0fbe d1d5 fc3d 9889 d53d fb31 483b
000001d0: eedd 20be 8b1a d7bb 1c6f 733c 623f 22bc
000001e0: 4da5 06bd 8ae1 14bd 8b10 2d3e 71ab a3bb
000001f0: 3efb 21bd 5bb1 9e3c e877 763d 9da8 68bd
0.010944571 0.05215616 0.10492052 0.1196869 0.03217557 0.14706723 0.13838361 -0.053736802
0.023928279 -0.08895286 -0.046077125 0.15537864 0.008596336 0.09403724 0.056638833 -0.036103174
-0.15133542 -0.121303074 0.019648392 0.06255275 0.111560404 0.12743904 -0.026791807 -0.10809164
0.061461262 -0.029348306 0.08494069 0.024091262 -0.084630996 0.0028813216 -0.10725709 0.1487592
-0.03489988 -0.012345048 0.0066294326 -0.035421714 0.024034107 0.016943878 -0.02215158 -0.008149018
0.053320196 0.047204625 0.010742342 -0.023934985 0.011862475 0.040517587 -0.013773701 0.018796556
-0.0067806495 -0.08244429 0.0008043869 0.009500328 0.015148349 0.0067108423 0.07160949 0.018129015
-0.075888515 -0.046228804 -0.021142425 -0.08016577 0.019770725 -0.009019492 -0.06623201 -0.021072416
0.05446385 0.0111766355 -0.0015051067 -0.0142407175 -0.0012682136 -0.0009722032 -0.00038981595 -0.01846792
-0.008248804 0.0030903914 0.039704747 -0.0027644127 0.004477692 -0.012730959 -0.006645147 -0.004756557
0.008583477 0.007926157 0.023325477 -0.0037648354 0.02664611 0.005753136 0.0104093645 -0.0026781135
0.036369722 -0.006493259 -0.027447013 -0.014016335 -0.004247115 0.022514503 0.014710884 -0.0067452816
-0.08215458 -0.087727904 0.13213392 -0.030771732 -0.07610631 -0.020544413 -0.12347232 -0.09476323
-0.15799394 -0.052955214 0.07714685 -0.13721511 0.05771199 -0.15281983 0.17037217 0.1483355
-0.13970542 0.1234547 0.104266346 0.0030547369 -0.1570966 -0.0065644435 0.0148580335 -0.009902807
-0.032872487 -0.036347903 0.16900842 -0.0049948026 -0.039546244 0.019371679 0.060172945 -0.056801427

MLP.13.bias f4 [4]
00000000: 39ba 023e a30b 6ebb 0006 fabb 366f 99bd
0.12766351 -0.0036322854 -0.00763011 -0.07491915
