example/model/acker_robot_default/model_4500.pth (torch, 24610 bytes, 18 tensors)

MLP.0.weight f4 [32, 2]
0	0x3ea099fc	0.3136748
1	0xbe244d33	-0.16045074
2	0xbd184cc4	-0.037182584
3	0xbd4e2921	-0.050332192
4	0xbee0f23d	-0.43934813
5	0xbe50ffa5	-0.2041002
6	0x3dd3a44a	0.1033407
7	0xbf14dc87	-0.58149
8	0xbe61b818	-0.22042882
9	0x3dffb676	0.124859735
10	0xbf03e2fe	-0.5151824
11	0xbee6deeb	-0.45091948
12	0xbee82319	-0.45339277
13	0xbe41f9cb	-0.18942945
14	0xbe5706c1	-0.2099867
15	0x3e010c1d	0.12602277
16	0xbe9b98bb	-0.30389962
17	0x3ea519ce	0.3224625
18	0x3c94f916	0.01818518
19	0x3da14819	0.0787508
20	0x3f1163eb	0.5679309
21	0xbedf4970	-0.43610716
22	0x3e8f0aa9	0.2793782
23	0x3f1ebfc8	0.62011385
24	0xbeb269d1	-0.34846357
25	0x3c824c2e	0.015905466
26	0x3d9bad02	0.07601358
27	0xbe947f52	-0.29003388
28	0xbd0747e9	-0.033027563
29	0x3e87a3a5	0.26492038
30	0xbe690429	-0.22755493
31	0xbdb6f500	-0.08933449
32	0xbcd59c06	-0.026075374
33	0xbe610b19	-0.2197689
34	0x3ea3e994	0.32014143
35	0x3e2acb8c	0.1667921
36	0x3e21b3f1	0.15791298
37	0x3f0955c9	0.5364652
38	0xbc6959f5	-0.014242639
39	0xbf02c939	-0.5108829
40	0xbe4e7179	-0.20160474
41	0xbf065956	-0.52480066
42	0xbeb40eb2	-0.35167462
43	0x3eac549c	0.33658302
44	0xbee18ef3	-0.44054374
45	0x3eb10e79	0.34581354
46	0xbe0b1b4f	-0.13584636
47	0xbe75b609	-0.23995222
48	0x3e4b4d1f	0.19853638
49	0x3e1c4cc5	0.1526366
50	0x3b64e182	0.0034924452
51	0x3eb52d50	0.35386133
52	0xbe3ab095	-0.18231423
53	0xbe1e602f	-0.15466379
54	0x3ec7a89c	0.38995826
55	0xbe260e27	-0.16216336
56	0x3ecca5b7	0.3997018
57	0xbea31b30	-0.3185668
58	0xbdf8ca13	-0.121479176
59	0xbe30d995	-0.17270501
60	0x3e3b07cb	0.18264692
61	0x3d4a8f0a	0.04945282
62	0xbf011013	-0.5041515
63	0xbee772ad	-0.45204678

MLP.0.bias f4 [32]
0	0x3ef02fbe	0.46911424
1	0xbee2b50e	-0.4427876
2	0xbd686fe9	-0.05674735
3	0xbe810728	-0.25200772
4	0xbc13e477	-0.009026638
5	0x3db02240	0.08600283
6	0xbe8a9453	-0.27066287
7	0xbdcebb99	-0.10094375
8	0xbdc7f890	-0.097642064
9	0x3da02a7b	0.078206025
10	0x3d910a46	0.07082038
11	0x3e3d5ee3	0.18493228
12	0x3f09db4c	0.53850245
13	0x3e7326ed	0.23745318
14	0xbecf0fc5	-0.4044172
15	0x3e3f331b	0.18671839
16	0xbdc674a4	-0.09690216
17	0x3e539ed6	0.2066606
18	0x3f0c4c6d	0.54804116
19	0x3e95a808	0.2922976
20	0x3f1913bf	0.59795755
21	0x3ee93a81	0.45552447
22	0x3c44671c	0.011987474
23	0xbc28c1b1	-0.010300086
24	0x3db9193a	0.09038015
25	0xbe61f269	-0.22065128
26	0x3f421f95	0.7582944
27	0xbdf58738	-0.119886816
28	0xbdc3795f	-0.09544634
29	0x3f0fe62d	0.56210595
30	0x3e89a494	0.26883376
31	0x3dccc7d0	0.09999049

MLP.1.weight f4 [32]
0	0x3f6037c2	0.8758508
1	0x3f932efc	1.1498713
2	0x3f294657	0.66122955
3	0x3f498748	0.7872205
4	0x3f2c05c4	0.671963
5	0x3f2e54bc	0.68098044
6	0x3f52c7d3	0.8233616
7	0x3f1e19cc	0.6175811
8	0x3f3041a8	0.68850183
9	0x3f09f6c7	0.5389218
10	0x3f2f4d4b	0.68477315
11	0x3f54ff2b	0.83201855
12	0x3f678de0	0.9045086
13	0x3f355c1d	0.7084368
14	0x3f32b3a8	0.69805384
15	0x3f0a9ead	0.5414837
16	0x3f2b05c3	0.66805667
17	0x3f0c1ba1	0.5472966
18	0x3f4b6bdd	0.7946146
19	0x3f32d0e3	0.69849986
20	0x3f62283e	0.88342655
21	0x3f41a8a7	0.7564797
22	0x3f3cafb6	0.73705614
23	0x3f24fa02	0.6444398
24	0x3f3e774f	0.744008
25	0x3f0f4814	0.5596936
26	0x3f60c2ad	0.8779705
27	0x3f2d7788	0.67760515
28	0x3f1e1923	0.61757106
29	0x3f22780d	0.6346443
30	0x3f432342	0.76225674
31	0x3f3fa4e6	0.7486099

MLP.1.bias f4 [32]
0	0x3c384ae6	0.011248326
1	0x3c7e5ab3	0.015524554
2	0xbce1c430	-0.02755937
3	0x3d9f63d4	0.077827126
4	0xbc76aa95	-0.015055318
5	0x3ca7b6e9	0.02047296
6	0xbd17a55e	-0.03702294
7	0xbc0f6372	-0.008751737
8	0x3d4ac9d4	0.049508885
9	0xbc13af10	-0.009013906
10	0x3d05e740	0.03269124
11	0xbdb1c9d8	-0.08681077
12	0x3cb55fe9	0.02214046
13	0x3bbd878c	0.0057839807
14	0xbd087282	-0.03331233
15	0x3d2215cc	0.03957157
16	0x3d5bee33	0.05369396
17	0x3d33f619	0.04393587
18	0xbdad683d	-0.084671475
19	0x3ce24143	0.02761901
20	0x3c025e92	0.007957118
21	0x3a459419	0.0007537022
22	0xbc8bb18f	-0.01705244
23	0x3c2fa817	0.010721228
24	0x3c924e0e	0.017859485
25	0xbd0fe526	-0.035130642
26	0x3cbfbb56	0.023404758
27	0xbca61e10	-0.020278007
28	0xbc8d7535	-0.017267803
29	0x3cfbb38a	0.03072526
30	0x3bd7eb3b	0.006589321
31	0x3d95c854	0.073136

MLP.3.weight f4 [32, 32]
0	0xbdc6ada0	-0.09701085
1	0xbea9421a	-0.33058244
2	0x3de4b733	0.11167755
3	0xbde83678	-0.11338514
4	0xbd9b9408	-0.07596594
5	0xbe0cda7f	-0.13755225
6	0x3de604b0	0.11231363
7	0xbd99e97e	-0.07515238
8	0xbe151646	-0.14559278
9	0x3d814fb6	0.06314032
10	0xbe0a6f3e	-0.13518998
11	0x3dcde9dd	0.100543715
12	0xb97a996f	-0.00023899016
13	0x3db7b044	0.08969167
14	0xbdf73a6c	-0.1207169
15	0x3d665aa3	0.05623878
16	0xbdfa76c9	-0.12229688
17	0x3cae70c0	0.021293998
18	0xbd3653b3	-0.044513416
19	0x3a54956a	0.00081094226
20	0xbe12e7e4	-0.14346272
21	0x3df376c0	0.11887884
22	0x3b8d6912	0.004315504
23	0x3df4a2fd	0.1194515
24	0xbde464cc	-0.11152038
25	0x3d2d1d15	0.042264063
26	0xbdac0f27	-0.084013276
27	0x3ced6ec1	0.028983476
28	0xbcba718e	-0.022759225
29	0x3e1691e7	0.14704095
30	0xbdd3ef34	-0.10348359
31	0x3d914131	0.070925124
32	0xbd9ea956	-0.07747142
33	0xbdc172c1	-0.09445716
34	0xbe120eba	-0.1426343
35	0x3df8fe2e	0.12157856
36	0x3da6cb7c	0.0814428
37	0xbc158652	-0.009126263
38	0xbdfb7756	-0.12278621
39	0xbde91e1e	-0.113826975
40	0x3dc733b6	0.0972666
41	0x3d4a3d65	0.049374957
42	0xbe1b214f	-0.15149425
43	0x3e06c010	0.13159204
44	0xbdc80f0d	-0.09768496
45	0x3e04e14b	0.12976567
46	0x3cd98724	0.026553698
47	0xbd6ddd46	-0.05807235
48	0xbdb17386	-0.086646125
49	0x3e136deb	0.14397399
50	0x3d19dd1c	0.037564382
51	0xbdf5efb2	-0.12008609
52	0xbdf7a5ac	-0.12092146
53	0x3e12611c	0.14294857
54	0x3e0e6f65	0.13909681
55	0x3d7f343b	0.06230567
56	0xbb9f01d1	-0.0048525115
57	0x3c97a663	0.018511957
58	0x3d0a14a5	0.033711094
59	0xbb21d147	-0.002469139
60	0x3c88d16a	0.016701419
61	0x3d120977	0.035653558
62	0x3dc2e507	0.0951634
63	0x3d0eea81	0.03489161
64	0xbd61b3f4	-0.055103257
65	0xbbc71e93	-0.006076643
66	0xbda21ce5	-0.079156674
67	0x3e06f748	0.13180268
68	0xbcc0a3eb	-0.023515662
69	0x3de75083	0.11294653
70	0x3d205613	0.039144587
71	0xbdd265e0	-0.10273337
72	0xbdeb77aa	-0.114974335
73	0xbdb7096c	-0.08937344
74	0xbd819179	-0.06326575
75	0x3bd238d9	0.006415468
76	0xbc888b74	-0.016668059
77	0x3d6534dd	0.055958617
78	0xbd6b20c3	-0.05740429
79	0xbcc2a36b	-0.023759564
80	0x3e0bf3d5	0.13667233
81	0x3e0a5975	0.13510688
82	0xbe427c6e	-0.18992779
83	0x3db08337	0.08618777
84	0xbb32cc64	-0.002728247
85	0x3e0b75e9	0.13619198
86	0x3c5d6adb	0.013514246
87	0xbcd978b6	-0.026546817
88	0x3daf2429	0.08551819
89	0x3d9213ad	0.07132659
90	0xbcae4c0d	-0.021276498
91	0x3d961f07	0.07330137
92	0xbde7e20a	-0.113224104
93	0xbe015c5e	-0.12632892
94	0xbd499185	-0.049211044
95	0x3e12f4fd	0.14351268
96	0x819f3c47	-5.849387e-38
97	0x028517d0	1.9556261e-37
98	0x029a70e2	2.2693058e-37
99	0x019ce290	5.763045e-38
100	0x025648ce	1.5743131e-37
101	0x829fda66	-2.3488305e-37
102	0x02940f01	2.1755257e-37
103	0x028977a7	2.0199018e-37
104	0x803b5858	-5.449986e-39
105	0x828ea113	-2.0957477e-37
106	0x812fc4d0	-3.228363e-38
107	0x01618692	4.1422523e-38
108	0x829772f6	-2.225344e-37
109	0x82173314	-1.1108387e-37
110	0x028f7059	2.1076446e-37
111	0x828f78eb	-2.1081365e-37
112	0x829810a1	-2.2343937e-37
113	0x82a30cf2	-2.3958128e-37
114	0x829b3a3e	-2.2808632e-37
115	0x806b13e8	-9.833539e-39
116	0x81839a5c	-4.8343295e-38
117	0x810071c4	-2.359151e-38
118	0x00b2e920	1.6430348e-38
119	0x029882af	2.2409401e-37
120	0x82a6946a	-2.4476693e-37
121	0x0240fe62	1.4178936e-37
122	0x8291404f	-2.1342746e-37
123	0x029c0ec9	2.2930626e-37
124	0x02a3ce71	2.406919e-37
125	0x8285f2ef	-1.968203e-37
126	0x829add5d	-2.2755323e-37
127	0x8299f87f	-2.262396e-37
128	0xbdfdfd2b	-0.124018036
129	0x3d926cef	0.07149684
130	0xbdf6fe4a	-0.120602205
131	0x3db71148	0.08938843
132	0xbd3204a6	-0.043461464
133	0x3ca1fbd9	0.01977341
134	0x3d740440	0.059574366
135	0x3ddd6baa	0.10811551
136	0xbd23f3d3	-0.04002745
137	0xbce3cb6c	-0.02780696
138	0xbe007acc	-0.12546843
139	0x3c044b47	0.008074588
140	0xbdbcf971	-0.09227265
141	0x3d9b546e	0.07584463
142	0xbe12d10d	-0.14337559
143	0x3c0ee69d	0.008721975
144	0x3dabc9d0	0.08388102
145	0x3d23705e	0.039902084
146	0xbddece9e	-0.10879253
147	0x3dd3697d	0.10322855
148	0x3dddbee6	0.108274266
149	0xbd07beb7	-0.033140864
150	0x3db3ffe1	0.087890394
151	0xbce7e621	-0.028307976
152	0x3de9cca5	0.11415986
153	0xbd43f7f2	-0.04784388
154	0xbd85f6d4	-0.06541219
155	0xbdeb1061	-0.114777334
156	0xbdadd8f4	-0.08488646
157	0x3b67a6d8	0.003534725
158	0xbdd6d5a8	-0.104899704
159	0xbd5ec2a4	-0.054384843
160	0xbe2d168e	-0.16903135
161	0x3dbf75c6	0.093486354
162	0x3d467fd6	0.048461758
163	0x3d9dfd57	0.07714336
164	0x3d479bc7	0.048732545
165	0xbd60ee3e	-0.054914705
166	0x3e6aaf9e	0.22918555
167	0x3e21fd7f	0.15819357
168	0x3c144579	0.009049767
169	0x3d7fd523	0.062459122
170	0xbda16e39	-0.078823514
171	0xbcfbb7bd	-0.030727262
172	0xbcbc09e4	-0.022953935
173	0xbe0a37c6	-0.13497838
174	0x3b9a06cf	0.0047005187
175	0x3c367375	0.011135926
176	0x3dfb91ce	0.122836694
177	0xbd10e4da	-0.0353745
178	0xbbef4077	-0.007301386
179	0x3e03f2b3	0.12885551
180	0xbdb4394a	-0.087999895
181	0x3d8f99ac	0.070117325
182	0x3e1f11e0	0.15534163
183	0xbd9f65e6	-0.077831075
184	0xbe07384e	-0.13205072
185	0x3d7f016b	0.06225721
186	0x3e14b46d	0.14521952
187	0xbddc9a09	-0.107715674
188	0x3dc89c3e	0.09795426
189	0xbdc983f2	-0.0983962
190	0xbdcb9ba8	-0.099417984
191	0x3e3bd636	0.18343434
192	0xbe27d49d	-0.163897
193	0xbdf628e5	-0.12019519
194	0x3ccdbb62	0.025113765
195	0x3e4f22dc	0.20228142
196	0xbd02f2ab	-0.031969707
197	0xbe2b6ba6	-0.16740283
198	0x3e13fe91	0.14452578
199	0xbd274b15	-0.04084309
200	0x3d9a1e47	0.07525306
201	0x3d8387e0	0.064224005
202	0x3dcbc00c	0.099487394
203	0x3de48226	0.11157636
204	0x3b224ed6	0.0024766228
205	0x3dc6958c	0.096964926
206	0x3d7ff15b	0.062486034
207	0x3e3f221c	0.18665355
208	0x3d845261	0.06461025
209	0xbdb701fc	-0.08935925
210	0xba39d8d3	-0.0007089499
211	0x3c2e7a82	0.010649325
212	0x3e262aa9	0.16227211
213	0xbdb61859	-0.08891363
214	0xbe208a55	-0.1567777
215	0xbc995c16	-0.018720668
216	0x3daf272c	0.08552393
217	0x3c7e3cf9	0.015517467
218	0x3e4c018d	0.19922467
219	0xbe55e3fc	-0.2088775
220	0xbd9db7da	-0.077010825
221	0x3d3fa17a	0.046784855
222	0x3ca2bbdb	0.019864967
223	0x3bcb9271	0.0062125255
224	0x3d0b974b	0.03407983
225	0x3e50e5f5	0.20400222
226	0x3de7533e	0.11295174
227	0x3bc49dd2	0.006000259
228	0xbd120603	-0.035650264
229	0xbdda8139	-0.106691785
230	0xbe32d658	-0.17464578
231	0x3cb72c3b	0.022359958
232	0xbdcb09b6	-0.099139616
233	0x3dda3496	0.10654561
234	0x3ca4938f	0.020089893
235	0x3decbed4	0.11559835
236	0xbda5fb8e	-0.08104621
237	0xbe113056	-0.14178595
238	0xbd00d86f	-0.031456407
239	0x3cb85604	0.022501953
240	0x3dad0ba7	0.08449488
241	0x3d2c61eb	0.04208557
242	0xbd359d7b	-0.04433964
243	0x3dc56a38	0.096394
244	0xbe164705	-0.1467553
245	0x3d487c68	0.048946768
246	0x3e233614	0.15938598
247	0xbd96486c	-0.07338032
248	0xbda081d8	-0.07837266
249	0xbe0fa7fe	-0.14028928
250	0x3c1721f8	0.009224407
251	0x3dac3c21	0.08409906
252	0x3d85bd69	0.06530268
253	0x3b06b801	0.0020556452
254	0x3d20f8b1	0.03929967
255	0x3d8b7c75	0.06810848

MLP.3.bias f4 [32]
0	0x3e00851d	0.12550779
1	0x3e286387	0.16444217
2	0x3e2e6888	0.17032063
3	0x82ab01d3	-2.5127239e-37
4	0xbd2afe66	-0.04174652
5	0x3a582267	0.00082448724
6	0xbe29bb63	-0.16575389
7	0x3db06500	0.08613014
8	0x3d6fe021	0.058563355
9	0xbddf0f41	-0.10891581
10	0x3db57b63	0.08861425
11	0xbd8de708	-0.06928831
12	0x3dedee12	0.11617674
13	0x3cc86b66	0.024465274
14	0xbda32fe6	-0.0796812
15	0x3d77165d	0.06032406
16	0x3c21c1c3	0.009872857
17	0xbe0207e5	-0.12698324
18	0x3cb8d4b3	0.02256236
19	0xbe16ae88	-0.14715016
20	0xbd0b0d13	-0.033948015
21	0xbda519a2	-0.0806153
22	0xbd5445bb	-0.051824313
23	0x3e2b378e	0.16720411
24	0xbdb8afb6	-0.09017889
25	0x3d2a1fc4	0.0415342
26	0xbd0b08af	-0.03394383
27	0x3daf2429	0.08551819
28	0x3db461ba	0.08807702
29	0x3d2a073e	0.041510813
30	0xbd5fa09e	-0.054596536
31	0xbd8e370f	-0.06944095

MLP.5.weight f4 [32, 32]
0	0xbdb40ff5	-0.08792106
1	0x3d86f2ab	0.06589254
2	0x3d22c2aa	0.039736427
3	0x02981520	2.2346518e-37
4	0xbe08fe0a	-0.13378158
5	0x3d1fa8af	0.03897923
6	0xbd5bea84	-0.05369045
7	0x3bee6cca	0.0072761523
8	0xbc5231d5	-0.012829264
9	0xbd387b44	-0.04503943
10	0x3e210501	0.15724565
11	0xbc7ce236	-0.015434792
12	0xbe24d53e	-0.1609697
13	0xbdb968c3	-0.09053185
14	0x3deda8ec	0.11604485
15	0x3d6b1ba8	0.057399422
16	0x3e106863	0.1410232
17	0xbcc659c7	-0.024212731
18	0x3d3e4823	0.046455514
19	0x3d81e570	0.0634259
20	0x3dd0e164	0.1019924
21	0xbc2c6056	-0.010521015
22	0xbd8b1ee9	-0.06793005
23	0xbe199d6d	-0.1500146
24	0xbdb76f88	-0.0895682
25	0x3d2642ec	0.040591165
26	0x3c79fc4f	0.015257909
27	0x3d2a2406	0.04153826
28	0xbc8e75b7	-0.017390115
29	0xbd1ee8ba	-0.038796164
30	0xbd6c887c	-0.05774735
31	0x3dd8150d	0.1055089
32	0xbda43edb	-0.08019801
33	0xbe0e64d0	-0.13905644
34	0x3e0b1910	0.1358378
35	0x828f60a7	-2.1067437e-37
36	0x3dd8c300	0.10584068
37	0x3db60a88	0.088887274
38	0xbc733e7d	-0.014846441
39	0x3ded64cd	0.11591492
40	0x3c351257	0.011051736
41	0xbdebcba2	-0.11513449
42	0xbd5bcd1f	-0.053662416
43	0xbd96700e	-0.073455915
44	0x3dabdce5	0.08391742
45	0x3d342b8c	0.043986842
46	0x3d9e07b0	0.0771631
47	0x3db7007a	0.08935638
48	0x3e0b2462	0.13588098
49	0x3d168366	0.036746405
50	0xbe16aeda	-0.14715138
51	0xba24aec6	-0.0006282147
52	0xbe0cefa5	-0.13763292
53	0xbc01a06f	-0.0079117855
54	0x3c68001a	0.01416018
55	0x3d45c6a9	0.04828516
56	0xbdff24e9	-0.12458212
57	0xbda07ea4	-0.07836655
58	0xbc3c4bc9	-0.011492678
59	0xbd9de84f	-0.07710325
60	0x3db278eb	0.087144695
61	0xbe0cd5e2	-0.13753465
62	0x3d860966	0.06544761
63	0x3daa2c6e	0.083092555
64	0x3e0fe3d9	0.1405176
65	0x3d96c96b	0.07362636
66	0x3cf27147	0.02959503
67	0x028c4cb4	2.0615177e-37
68	0x3e0073d1	0.1254418
69	0xbdd2b6a4	-0.10288742
70	0xbde3bea3	-0.111203454
71	0x3d990981	0.07472516
72	0x3b469260	0.0030299649
73	0xbbcd1738	-0.0062588714
74	0xbe209877	-0.1568316
75	0x3c3279dd	0.010893312
76	0x3dc9ab96	0.098471805
77	0x3d88871d	0.06666396
78	0x3dbbaf24	0.09164265
79	0xbe04c577	-0.12965952
80	0xbcc2c1e3	-0.023774093
81	0xbd6e996e	-0.05825179
82	0x3d2424da	0.040074207
83	0xbc08a7ac	-0.008340757
84	0xbd13be99	-0.03607044
85	0xba2e797f	-0.00066556776
86	0xbc10c6ae	-0.008836431
87	0x3dc88741	0.09791423
88	0x3cd97d36	0.026548963
89	0xbd911dfc	-0.07085797
90	0x3e006286	0.12537584
91	0xbd552e49	-0.052046094
92	0x3d828c24	0.06374386
93	0x3db76beb	0.089561306
94	0xbd29ddfa	-0.04147146
95	0x3dd8accb	0.10579833
96	0x3d4dc660	0.050238013
97	0x3d3c99f5	0.046045262
98	0xbe23a26c	-0.15979928
99	0x02941d34	2.1763407e-37
100	0xbe36cc98	-0.17851484
101	0x3aa9ab97	0.0012944815
102	0x3e661bb9	0.22471513
103	0xbdf64577	-0.12024968
104	0xbd12012d	-0.035645653
105	0xbdda974d	-0.106733896
106	0x3d82f3dd	0.063941695
107	0xbc1f49dc	-0.009722199
108	0xbd7be3a9	-0.06149641
109	0x3c847d2f	0.016172973
110	0x3b0328cf	0.0020013337
111	0x3daba88b	0.083817564
112	0x3c42c35e	0.0118873995
113	0x3deec83a	0.11659284
114	0x3d69eb2a	0.057109036
115	0xbcee825a	-0.02911489
116	0x3d2cba4e	0.04216986
117	0x3c595944	0.0132659115
118	0x3d3e789b	0.046501737
119	0x3e081ccb	0.13292234
120	0x3cfc223f	0.030778049
121	0x3dd1ac9b	0.10238
122	0xbd3714ef	-0.0446977
123	0x3d5f2da5	0.05448689
124	0x3d3fdb2a	0.04683987
125	0x3dcfb81c	0.10142538
126	0xbd7c9168	-0.061662108
127	0xbdbefec3	-0.09325936
128	0x3d466f03	0.048445713
129	0xbd6c684a	-0.057716645
130	0xbd43ba7b	-0.047785264
131	0x829415d6	-2.1759179e-37
132	0x3d05c318	0.03265676
133	0xbe0ad3b6	-0.13557324
134	0xbddbba09	-0.10728843
135	0xbdbb869d	-0.09156535
136	0x3da13123	0.078707
137	0x3e45e7a4	0.19326645
138	0x3bfed97e	0.007777392
139	0xbce6a1ed	-0.028153384
140	0xbd5c8610	-0.05383879
141	0x3dcc8a2e	0.09987293
142	0xbd27dc61	-0.040981654
143	0x3d46733c	0.04844974
144	0xbdb6587b	-0.08903595
145	0x3dab0ffd	0.08352659
146	0xbe6269e7	-0.22110711
147	0xbb9c2ece	-0.0047663217
148	0xbdb8c795	-0.09022442
149	0x3aec8ab3	0.0018046707
150	0xbc5c4f90	-0.013446704
151	0xbd88fcac	-0.06688818
152	0xbdfce1f7	-0.12347787
153	0xbccba83a	-0.02486049
154	0x3d74171b	0.059592348
155	0xbda8478f	-0.08216774
156	0xbdfca6dd	-0.12336514
157	0xbe8b44bb	-0.27200875
158	0x3c95b745	0.018275866
159	0x3e40f65a	0.18843976
160	0xbc60a21c	-0.013710525
161	0x3c5a19a3	0.013311776
162	0xbdc027fd	-0.09382627
163	0x023ad7d2	1.3727059e-37
164	0x3c75e48a	0.015008101
165	0x3dfbebc0	0.12300825
166	0x3d04b12c	0.032395527
167	0xbd058192	-0.03259427
168	0xbd3b2c29	-0.04569641
169	0xbd52efde	-0.051498286
170	0xbd3aa15c	-0.04556404
171	0x3c94e164	0.01817388
172	0x3da0c69c	0.07850382
173	0x3ce7cfd9	0.028297352
174	0x3c0129f3	0.007883537
175	0x3cbde1be	0.023178931
176	0x3d49b0cf	0.049240883
177	0x3da738c1	0.08165122
178	0xbdada196	-0.08478086
179	0x3b99c037	0.0046921032
180	0xbd2f393e	-0.0427792
181	0x3bd9faa9	0.0066521955
182	0x3bc777a4	0.0060872603
183	0xbcbb6a60	-0.022877872
184	0x3d1371a7	0.03599706
185	0xbd30387a	-0.04302261
186	0x3cecea87	0.028920425
187	0xbd3756dd	-0.044760574
188	0xbda9c95b	-0.08290359
189	0x3d4ff31f	0.050768968
190	0x3cd7ce31	0.026343437
191	0x3d93d1f5	0.072177805
192	0x3d5e540a	0.054279365
193	0x3dee93c5	0.116492786
194	0xbdc72e11	-0.09725583
195	0x8296c9a4	-2.2156255e-37
196	0xbd531028	-0.05152908
197	0xbd60f81b	-0.05492411
198	0x3e1eaed5	0.1549638
199	0xbc0e85fb	-0.008698936
200	0xbc8934af	-0.016748754
201	0x3e0d1cd4	0.13780528
202	0x3dd68a71	0.10475624
203	0xbda1f5ec	-0.07908234
204	0xbd988bbd	-0.07448528
205	0xbddf88db	-0.10914775
206	0x3d9b60c3	0.07586815
207	0x3d3bbbed	0.045833517
208	0xbe09b697	-0.13448559
209	0xbc863601	-0.016383173
210	0xbdb8978a	-0.09013279
211	0x3e253a8f	0.1613562
212	0xbc5365d7	-0.0129026985
213	0xbbb89372	-0.005632811
214	0x3cf31683	0.02967382
215	0x3c1124ed	0.008858901
216	0xbdfee857	-0.12446659
217	0x3e1088bc	0.1411466
218	0x3d75968b	0.059958022
219	0xbd4f05b3	-0.050542545
220	0xbdc25669	-0.09489138
221	0xbda6efdd	-0.08151219
222	0xbdbdcbb8	-0.09267372
223	0xbdb9f5aa	-0.0908006
224	0x3c454548	0.012040444
225	0xbde073e4	-0.109596044
226	0x3d1541ed	0.036439825
227	0x8288a18c	-2.0076127e-37
228	0x3cc351eb	0.023842772
229	0x3d37bdc6	0.044858716
230	0xbcdd80b0	-0.027038902
231	0x3cc38e50	0.02387157
232	0xbccff3cc	-0.025384806
233	0xbc8a4667	-0.016879274
234	0x3d26ab63	0.04069079
235	0x3b5d214b	0.0033741768
236	0xbcdcf1de	-0.0269708
237	0xbceb55f5	-0.028727511
238	0x3a19fbd8	0.00058740145
239	0xbd3f3641	-0.0466826
240	0xbdfc5b85	-0.123221435
241	0x3e41e69b	0.18935625
242	0xbd1dc3de	-0.03851687
243	0x3cf6a231	0.030106636
244	0x3d25a115	0.040436823
245	0x3b1e7d17	0.0024183446
246	0x3caf1e18	0.021376655
247	0xbc993221	-0.018700661
248	0xbdb2b1df	-0.087253325
249	0xbb31ed39	-0.0027149452
250	0x3d53d909	0.051720653
251	0x3d55fda7	0.052243855
252	0x3c02d13b	0.007984455
253	0x3cbd8280	0.023133516
254	0xbc884369	-0.016633706
255	0xbc16457d	-0.009171841

MLP.5.bias f4 [32]
0	0xbd4b9d17	-0.04971036
1	0x3cd5c0c1	0.026092889
2	0xbc3980e5	-0.011322235
3	0xbc9f2b0e	-0.01942971
4	0xbdb86a50	-0.090046525
5	0xbae5d456	-0.0017534595
6	0xbd6f8913	-0.058480334
7	0x3c808eb2	0.015693042
8	0x3cf3bba8	0.029752567
9	0x3d16533e	0.03670048
10	0x3db9d851	0.09074462
11	0x3ce09770	0.027415961
12	0x3cbf4644	0.023348935
13	0x3df03a71	0.11729897
14	0x3cccca4e	0.02499881
15	0xbdda46c3	-0.10658028
16	0xbe130063	-0.14355616
17	0x3dc04313	0.093877934
18	0x3d020850	0.03174621
19	0xba739cff	-0.00092931086
20	0xbd161ece	-0.03665047
21	0x3d18a787	0.03726914
22	0xbe0dc6da	-0.13845387
23	0x3c12da2c	0.008963149
24	0xbd88a51b	-0.06672116
25	0xbdb0834c	-0.08618793
26	0x3deae5e4	0.114696294
27	0xbe097dee	-0.13426945
28	0xbdbeee43	-0.093227886
29	0x3d5270e9	0.05137721
30	0xbd62648a	-0.055271663
31	0xbc487ae1	-0.012236328

MLP.6.weight f4 [32]
0	0x3f410532	0.7539855
1	0x3f1c03ef	0.609435
2	0x3f168695	0.58799106
3	0x3f17140f	0.5901498
4	0x3f3a0404	0.7266238
5	0x3e8291a3	0.25501737
6	0x3f247afa	0.6425015
7	0x3ed7e7fb	0.42169175
8	0x3f31538a	0.69268095
9	0x3f3d37c9	0.73913246
10	0x3efdb817	0.49554512
11	0x3f42c9ef	0.76089376
12	0x3f2d6115	0.6772626
13	0x3f3175f3	0.693206
14	0x3f206c15	0.6266492
15	0x3f3cdc38	0.7377353
16	0x3f1fce39	0.62424046
17	0x3f4d238b	0.8013236
18	0x3f1be558	0.60896826
19	0x3eea17db	0.45721325
20	0x3f14c9fc	0.58120704
21	0x3f41a971	0.7564917
22	0x3f414bff	0.75506586
23	0x3f35e90c	0.71058726
24	0x3f20a8c1	0.627575
25	0x3f42604b	0.7592818
26	0x3f366278	0.71244
27	0x3f2f430d	0.68461686
28	0x3f386eb7	0.7204394
29	0x3f45a6f3	0.7720787
30	0x3ef04cf2	0.46933705
31	0x3f350925	0.7071708

MLP.6.bias f4 [32]
0	0x3c393283	0.011303547
1	0x3c0e2fa0	0.008678347
2	0xbc115624	-0.008870635
3	0xbc26072b	-0.010133545
4	0xbd191fa9	-0.03738371
5	0x3bbdbb99	0.0057901856
6	0xbb1fd792	-0.0024389965
7	0xbb89f029	-0.0042095375
8	0xbba59f77	-0.00505441
9	0xbcd95853	-0.026531374
10	0x3bd7c056	0.0065842075
11	0xba199fc7	-0.00058602955
12	0x3d4de1f9	0.050264332
13	0x3ccfa5fa	0.025347698
14	0x3d3b04d5	0.045658905
15	0x3c339cae	0.010962648
16	0xbcecd685	-0.028910885
17	0xbceb5cf3	-0.028730845
18	0xb9f39f94	-0.00046467467
19	0x3c876353	0.016526854
20	0xbbd1f606	-0.006407502
21	0xbc8a2559	-0.016863512
22	0x3c0ca83b	0.008585031
23	0x3c33172a	0.010930816
24	0xbbc9d4c7	-0.0061593982
25	0xbbdf4d5b	-0.0068146414
26	0xbab03c4c	-0.0013445704
27	0x3b41fe9c	0.0029601222
28	0x3cc68af1	0.024236174
29	0xbc208adc	-0.009798732
30	0xbb3cf6b5	-0.0028833572
31	0x3b1cf2ff	0.0023948548

MLP.8.weight f4 [32, 32]
0	0xbd86e12e	-0.06585918
1	0xbcdedf9a	-0.02720623
2	0x3ca70912	0.020390067
3	0x3db61221	0.088901766
4	0x3d4cc2d1	0.04999048
5	0x3d02bcc9	0.03191832
6	0xbdc96532	-0.098337546
7	0x3dfc982b	0.12333711
8	0x3de13cdc	0.10997936
9	0xbceaf605	-0.028681764
10	0xbcc8860c	-0.024477981
11	0x3dfb2712	0.122633114
12	0xbcc5a3d1	-0.024125965
13	0xbdc80f5d	-0.09768555
14	0x3e17d69e	0.14827964
15	0x3dd58375	0.10425464
16	0xbe310067	-0.1728531
17	0x3d9d222a	0.07672532
18	0xbd8d66de	-0.06904386
19	0x3b4d157a	0.0031293319
20	0xbdbc8c52	-0.092064515
21	0xbd44872f	-0.047980484
22	0x3df88c18	0.12136096
23	0xbd77c3a1	-0.0604893
24	0x3d0e768f	0.034781035
25	0xbda33d05	-0.07970623
26	0xbc0ecede	-0.008716313
27	0x3cd71542	0.026255254
28	0xbd87a180	-0.066226006
29	0x3d207550	0.039174378
30	0x3de100ef	0.10986506
31	0x3db97d32	0.09057082
32	0x3c75ef99	0.015010738
33	0xbd174b3c	-0.036936983
34	0x3dd689a6	0.10475473
35	0xbd28b580	-0.041188717
36	0xbd2cd217	-0.042192545
37	0x3e04272a	0.12905565
38	0x3dd6e8ef	0.10493647
39	0xbbd821db	-0.0065958328
40	0x3d9ff5e3	0.07810571
41	0xbdbb9d7c	-0.09160897
42	0xbdb54e6d	-0.08852849
43	0xbc8aae17	-0.016928716
44	0x3dcf19bd	0.10112331
45	0x3dafb216	0.08578889
46	0x3d8f7111	0.070039876
47	0x3e2f86e8	0.17141306
48	0xbdb34ad4	-0.08754507
49	0xbe03896d	-0.12845393
50	0x3dbd9205	0.09256367
51	0x3d8c569a	0.068524554
52	0x3dc6a484	0.096993476
53	0x3df3750e	0.11887561
54	0xbe36c3b0	-0.17848086
55	0x3d30bd99	0.043149564
56	0xbcf6158f	-0.030039577
57	0xbdc74670	-0.09730232
58	0xbe099d21	-0.13438846
59	0x3e3f6344	0.1869021
60	0x3d89b7db	0.06724521
61	0xbe28fe20	-0.16503191
62	0xbde06616	-0.10956971
63	0x3b15cf81	0.0022859278
64	0xbdcaed23	-0.099085115
65	0xbd875940	-0.0660882
66	0xbd9c91e8	-0.07645017
67	0xbe124e99	-0.14287795
68	0xbe14feff	-0.14550398
69	0xbde34ea9	-0.110989876
70	0x3e3122f3	0.17298488
71	0xbdfd99f2	-0.12382878
72	0x3d1566d5	0.03647502
73	0x3bed6e3b	0.0072458065
74	0xbe1f01ea	-0.15528074
75	0x3ddc3a1a	0.107532695
76	0x3da8a9e8	0.08235532
77	0x3debf273	0.11520853
78	0x3d88e477	0.06684201
79	0xbe0990cf	-0.13434146
80	0x3cf1b138	0.02950345
81	0xbe0dfd49	-0.13866152
82	0x3e04eb7f	0.1298046
83	0xbdc154ea	-0.09440024
84	0xbda02f7c	-0.07821557
85	0x3e40ed2e	0.18840477
86	0xbc7ffa99	-0.015623712
87	0x3d4480fc	0.04797457
88	0xbcfb1a02	-0.03065205
89	0xbbd14d35	-0.0063873776
90	0xbe1d4dcb	-0.15361707
91	0xbe0739a3	-0.1320558
92	0x3dbb7b2d	0.09154353
93	0xbe0383de	-0.12843272
94	0xbd007cd6	-0.031369053
95	0xbd8123e3	-0.06305673
96	0x3dccc829	0.09999115
97	0xbd3b3a97	-0.045710173
98	0x3e1451c2	0.14484313
99	0x3c18e980	0.0093330145
100	0x3d88a274	0.066716105
101	0xbd3a7693	-0.045523237
102	0x3e495b9c	0.19663852
103	0x3cbba41a	0.022905398
104	0xbdc32d8d	-0.095301725
105	0xbe13b341	-0.14423849
106	0xbdb64665	-0.089001454
107	0x3d3a32ca	0.045458592
108	0xbd93e8ce	-0.07222138
109	0xbdedba08	-0.11607748
110	0xbdd9c88d	-0.10633955
111	0x3d75cd22	0.060010083
112	0x3e06fdf5	0.13182814
113	0x3e27163c	0.16317075
114	0xbd8465e1	-0.06464744
115	0x3cea8c81	0.02863145
116	0x3d237c41	0.03991342
117	0xbe3aa499	-0.18226852
118	0x3d839ab0	0.06425989
119	0x3d68cc39	0.056835387
120	0x3b8b3320	0.004248038
121	0xbe03d079	-0.12872495
122	0xbc940a5f	-0.018071352
123	0x3c966fcd	0.018363858
124	0x3d97b9e1	0.074085005
125	0x393ef169	0.00018209744
126	0xbcff5b31	-0.031171413
127	0xbd93f77a	-0.07224937
128	0x3d1ed090	0.03877312
129	0xbd2f516c	-0.04280226
130	0xbc58dac8	-0.013235755
131	0x3d1902a3	0.03735603
132	0xbdbc8d2a	-0.092066124
133	0x3aa08dcc	0.001224929
134	0x3cc0f64f	0.02355495
135	0xbd775bb3	-0.060390186
136	0xbdb5f455	-0.08884493
137	0x3b81efac	0.0039653387
138	0xbb39c018	-0.0028343257
139	0x3d9fed95	0.07808987
140	0x3df9ecc0	0.122033596
141	0xbdc30461	-0.095223196
142	0x3dcc0b6e	0.099631175
143	0xbc30c6cc	-0.010789584
144	0x3dabe1ec	0.083927006
145	0x3e0a3894	0.13498145
146	0x3d91988c	0.07109174
147	0xbd74e636	-0.05978986
148	0x3db1c4ab	0.086800896
149	0x3d772423	0.060337197
150	0x3d80235a	0.06256743
151	0xbe1ee1eb	-0.15515868
152	0x3da56253	0.080753945
153	0x3d8de244	0.06927922
154	0xbc20fd31	-0.009825991
155	0xbdc9b732	-0.09849395
156	0xbd3f3ca1	-0.04668868
157	0xbd1e75ca	-0.03868655
158	0xbcdcbc19	-0.02694516
159	0xbc7dc225	-0.015488182
160	0x3e163da4	0.14671952
161	0x3d6ae5f4	0.057348207
162	0xbd28fa20	-0.041254163
163	0xbe13dc3a	-0.14439479
164	0xbdcf83c1	-0.10132552
165	0xbd61cf96	-0.05512961
166	0x3dad5ab0	0.08464563
167	0xbd2c142a	-0.042011417
168	0xbdfbe1ba	-0.12298913
169	0xbdacdb9d	-0.084403254
170	0xbe064c55	-0.13115056
171	0x3d4cf228	0.050035626
172	0x3e1a4408	0.15065014
173	0x3e0ad890	0.13559175
174	0x3bf107de	0.007355674
175	0xbb7c13bd	-0.0038463913
176	0xbd506413	-0.05087669
177	0x3e09c657	0.13454567
178	0x3d900afd	0.07033346
179	0x3d8594fc	0.06522557
180	0x3df354d0	0.11881411
181	0x3e188c8a	0.14897361
182	0x3ddb8649	0.10718972
183	0xbe20d419	-0.15705909
184	0xbde71377	-0.112830095
185	0x3dd63238	0.10458797
186	0x3d4c4284	0.04986812
187	0xbd808f62	-0.06277348
188	0x3e1b742d	0.15181036
189	0xbda6dbea	-0.08147414
190	0xbcbf5165	-0.023354242
191	0x3e22df49	0.15905489
192	0x3ddeda11	0.108814366
193	0xbb2c66c5	-0.0026306373
194	0xbda72dc6	-0.081630275
195	0xbc9ed3f6	-0.01938818
196	0xbe1525b1	-0.1456516
197	0xbd85e88d	-0.06538496
198	0xbe113d8d	-0.14183636
199	0xbdc00c92	-0.093773976
200	0x3d826de7	0.063686185
201	0xbdc8a7a5	-0.09797601
202	0x3d653c92	0.055965967
203	0xbe339352	-0.17536667
204	0x3c02e178	0.007988326
205	0xbd49be5b	-0.049253803
206	0xbd997655	-0.07493273
207	0x3e01020f	0.12598442
208	0xbdbc4a9e	-0.091939196
209	0x3e005c09	0.12535109
210	0x3e13a40e	0.1441805
211	0xbccc2179	-0.024918305
212	0xbe190933	-0.14944915
213	0x3db35568	0.08756524
214	0xbce075f5	-0.027399996
215	0xbb4706d3	-0.0030369058
216	0xbd273f4a	-0.04083184
217	0xbe14a804	-0.14517218
218	0xbc3b0288	-0.011414178
219	0x3ddf3390	0.10898507
220	0xbc044a5b	-0.008074368
221	0x3c70e49b	0.014702941
222	0xbe2a7ba0	-0.16648722
223	0x3e162968	0.14664233
224	0xbd8d323f	-0.06894349
225	0x3dacb531	0.08432997
226	0x3de0c95a	0.10975905
227	0xbd7b1130	-0.06129569
228	0x3d964fe0	0.07339454
229	0xbcc15d53	-0.02360407
230	0xbdefd457	-0.117104225
231	0xbcbac374	-0.022798277
232	0x3cc90be2	0.024541799
233	0xbdf71c1b	-0.120659076
234	0xbde257bb	-0.110518895
235	0xbdfbc11d	-0.12292693
236	0x3e000063	0.12500148
237	0x3d0cd1dd	0.03437983
238	0x3e11f4f3	0.14253597
239	0xbe1f6c82	-0.15568736
240	0x3d4879c5	0.048944253
241	0x3db2e754	0.087355286
242	0xbd00b448	-0.03142193
243	0x3d219e74	0.039457753
244	0x3dde9c49	0.10869653
245	0xbd79cf1e	-0.060988538
246	0x3e43d650	0.19124722
247	0x3d3df824	0.046379223
248	0xbdcaf9bd	-0.09910915
249	0xbd535dfb	-0.0516033
250	0x3d2aa56c	0.041661665
251	0x3c63213b	0.013862903
252	0xbd8e0d5a	-0.0693614
253	0xbe01c70e	-0.1267359
254	0xbbb2591b	-0.005442751
255	0x3c8beaac	0.017079674

MLP.8.bias f4 [32]
0	0xbe18f33a	-0.14936534
1	0x3dd1f3fd	0.10251615
2	0x3e1a72ea	0.15082899
3	0x3c42d470	0.011891469
4	0x3d0cafaa	0.034347214
5	0x3c1d2acd	0.009592724
6	0x3de59b0e	0.11211215
7	0xbc6c8cc8	-0.014437862
8	0x3c714682	0.014726283
9	0x3ce1631c	0.02751308
10	0xbdb22bf7	-0.08699792
11	0x3dee164a	0.11625345
12	0xbd1b8dcc	-0.037977025
13	0xbcd1aa1b	-0.025593808
14	0x3ddeffa2	0.10888602
15	0xbdd1046d	-0.10205922
16	0xbdd32c33	-0.10311165
17	0xbdc366fe	-0.095411286
18	0x3d417258	0.047228187
19	0xbce76b4a	-0.028249402
20	0x3d1bdbb4	0.038051322
21	0xbccf6526	-0.025316786
22	0x3c2f3ecf	0.010696127
23	0x3e1366bd	0.1439466
24	0x3d8eebc2	0.06978561
25	0xbb894cb6	-0.004190053
26	0x3d163b1e	0.036677472
27	0x3d35e35f	0.04440629
28	0xbcedecb8	-0.02904354
29	0x3d1cf663	0.03832091
30	0xbd2d9ed6	-0.042387806
31	0x3da19d84	0.07891372

MLP.10.weight f4 [32, 32]
0	0xbc8884db	-0.016664913
1	0x3c589d13	0.013221043
2	0x3d740751	0.05957729
3	0x3df389e6	0.118915364
4	0x3de3d419	0.11124439
5	0xbd61f60b	-0.055166285
6	0xbd3dab8e	-0.046306185
7	0x3e14bc85	0.1452504
8	0xbd194693	-0.03742082
9	0x3ce0874a	0.02740826
10	0xbdcdbb72	-0.10045518
11	0x3d2f3f21	0.042784814
12	0xbd8bfeb8	-0.06835693
13	0xbd747225	-0.05967917
14	0xbd98e539	-0.07465596
15	0x3ccd9dbf	0.025099633
16	0xbbc29a38	-0.0059387945
17	0x3b952aa4	0.0045522023
18	0xbd567ea9	-0.052366886
19	0x3da7e492	0.08197893
20	0x3dd0059d	0.10157321
21	0xbd86348e	-0.06552993
22	0x3d7259dd	0.05916773
23	0xbdeff5a6	-0.117167756
24	0x3e07dcd0	0.13267827
25	0x3771839c	1.4395362e-05
26	0x3e0a3582	0.13496974
27	0x3dc8ab91	0.09798349
28	0x3b9e536b	0.0048317215
29	0x3d125721	0.035727624
30	0x3d8dd57e	0.06925486
31	0xbcbcb07f	-0.023033379
32	0x3c13686c	0.008997064
33	0xbe2454d2	-0.16047981
34	0x3db31276	0.087437555
35	0x3c859b11	0.016309293
36	0x3c2dbabb	0.010603602
37	0x3d8f1f5a	0.06988402
38	0x3de43b2a	0.11144097
39	0xbd985d80	-0.07439709
40	0xbd1ce6f6	-0.0383062
41	0xbd5b0a10	-0.053476393
42	0x3d8ccc9b	0.06874963
43	0x3decc73b	0.11561438
44	0x3de467f7	0.11152642
45	0x3dfb3c14	0.12267318
46	0x3e0bf5dc	0.13668007
47	0xbda28050	-0.0793463
48	0xbc13a420	-0.009011298
49	0x3b887296	0.0041640503
50	0x3c1e7027	0.009670294
51	0x3d31129e	0.043230645
52	0x3aa9a2a4	0.0012942147
53	0x3d3b83e2	0.04578007
54	0x3d08317f	0.03325033
55	0xbe0778ce	-0.13229677
56	0x3dc4205d	0.09576485
57	0x3d88e219	0.0668375
58	0xbd27010c	-0.040772483
59	0x3da1e6d3	0.07905354
60	0x3d0bdc5a	0.03414569
61	0x3d96e33c	0.0736756
62	0x3ca51723	0.020152634
63	0xbd8a100f	-0.06741344
64	0xbe09e727	-0.13467084
65	0xbb7931ba	-0.0038024024
66	0xbe3ea4a2	-0.1861749
67	0xbdf4b14b	-0.119478785
68	0xbc9d20f6	-0.019180756
69	0xbc09700b	-0.0083885295
70	0x3bdb0690	0.006684132
71	0xbe1461e3	-0.14490466
72	0xbd617f39	-0.05505297
73	0x3e05babd	0.13059516
74	0x3dc55f6b	0.0963734
75	0x3dd800d1	0.10547031
76	0x3dca0184	0.0986357
77	0x3cb60cf5	0.022222975
78	0x3d2943e2	0.041324504
79	0x3e1c80d4	0.15283519
80	0xbce957bf	-0.028484223
81	0xbd4210f7	-0.04737946
82	0xbdde8c3a	-0.1086659
83	0xbda67e0e	-0.08129512
84	0x3d43cfd7	0.047805633
85	0x3dbc1b9a	0.09184952
86	0xbde83326	-0.11337881
87	0x3e56aff6	0.20965561
88	0xbd41f0ee	-0.04734891
89	0xbda231f1	-0.07919682
90	0xbdab090d	-0.08351336
91	0x3d63067b	0.055426102
92	0xbda21bf4	-0.07915488
93	0xbd894fe5	-0.06704692
94	0x3cda8868	0.026676372
95	0x3da82bec	0.082115024
96	0xbb42bd5a	-0.0029714913
97	0xbdb5e15d	-0.08880875
98	0x3da798fe	0.08183478
99	0x3bf5b8d3	0.0074988394
100	0xbdf5b602	-0.11997606
101	0xbdd3f618	-0.10349673
102	0xbc6b79e0	-0.014372319
103	0xbd4d0f4f	-0.050063428
104	0xbd4ae8d3	-0.049538445
105	0xbe2666e5	-0.16250189
106	0xbd64ac25	-0.055828232
107	0x3d17e642	0.037084825
108	0x3dca07bb	0.09864756
109	0xbd855741	-0.06510783
110	0xbd6d01d1	-0.05786306
111	0xbd8b8940	-0.06813288
112	0xbc7817d7	-0.015142403
113	0xbd6f3460	-0.058399558
114	0x3a3d3a20	0.0007218439
115	0xbc9e41a2	-0.019318406
116	0xbd1e97c7	-0.038718965
117	0x3d812bc1	0.063071735
118	0x3ddbc726	0.10731344
119	0x3d8c8b1c	0.068624705
120	0xbd7df8b0	-0.062004745
121	0xba78611b	-0.0009474919
122	0x3dd65377	0.104651384
123	0xbe12a017	-0.14318882
124	0x3de29890	0.11064255
125	0xbc9dbfd4	-0.01925651
126	0x3da6e7b1	0.081496604
127	0xbdd24ad9	-0.10268182
128	0x3d224225	0.03961386
129	0x3d1a0570	0.03760284
130	0x3d0fddfc	0.03512381
131	0xbd777c01	-0.060420994
132	0x3cfaecb1	0.030630441
133	0xbdcb5653	-0.099285744
134	0xbad3101a	-0.0016102821
135	0x3d93bc91	0.072137006
136	0xbc53a816	-0.012918493
137	0xbde24e0a	-0.11050041
138	0x3de9610c	0.11395463
139	0xbe0567b2	-0.13027838
140	0xbe150f24	-0.14556557
141	0x3d9abb2d	0.07555232
142	0xbd66f847	-0.05638912
143	0xbd462dd0	-0.048383534
144	0x3c183071	0.009288893
145	0x3bfbb530	0.0076815113
146	0xbd86aec6	-0.06576304
147	0x3c8884c1	0.016664864
148	0xbdd7ca8d	-0.1053668
149	0x3d4d0066	0.050049208
150	0xbdfdb7ab	-0.123885475
151	0xbdb77cc4	-0.08959344
152	0xbe11f97a	-0.14255324
153	0xbd95424a	-0.07288034
154	0x3dc1e6ef	0.09467875
155	0x3d7c7f60	0.06164491
156	0x3c8013d7	0.01563446
157	0xbd935e2b	-0.071956955
158	0xbd608ad8	-0.05481991
159	0x3e0fd23a	0.14045039
160	0xbe075879	-0.13217343
161	0x3d8f5e20	0.07000375
162	0x3dde7018	0.10861224
163	0x3ccead34	0.025229074
164	0xbde23bfe	-0.11046599
165	0x3e07328a	0.13202873
166	0x3d596faa	0.053085007
167	0x3d5b8731	0.053595725
168	0xbd0107da	-0.03150163
169	0x3c0daae8	0.008646704
170	0xbd8c479b	-0.06849595
171	0x3e298465	0.16554411
172	0x3db50ff0	0.088409305
173	0x3d3c85c6	0.046026014
174	0xbda6868d	-0.08131132
175	0xbcba5720	-0.022746623
176	0xbd8b7dd5	-0.0681111
177	0xbd6ca2a7	-0.057772305
178	0x3d4513ac	0.048114464
179	0xbdd4202b	-0.10357698
180	0xbd7a5d65	-0.061124224
181	0xbd140e31	-0.036146346
182	0xbd84217d	-0.064517
183	0x3ca37075	0.019951085
184	0xbb9041ec	-0.0044023897
185	0xbd5d0fde	-0.05397021
186	0xbc171803	-0.009222033
187	0x3d700910	0.058602393
188	0x3dffd305	0.12491421
189	0xbc9e4817	-0.019321484
190	0x3db20553	0.08692422
191	0xbe15b159	-0.14618434
192	0x3dac26d3	0.08405843
193	0x3d2af25b	0.041735034
194	0xbd0c5f2e	-0.034270458
195	0xbdafd121	-0.0858481
196	0x3d16541a	0.0367013
197	0xbdacbf4d	-0.08434925
198	0xbdd8b244	-0.105808765
199	0x3dc19d45	0.09453825
200	0xbcb601eb	-0.022217711
201	0xbdb9c438	-0.09070629
202	0xbc87b576	-0.01656602
203	0xbc4ab5cf	-0.012372448
204	0x3e0bec8a	0.13664451
205	0x3deab2df	0.11459898
206	0xbbace93f	-0.0052768285
207	0x3e1ffe51	0.15624358
208	0xbd97903b	-0.07400557
209	0xbd287000	-0.041122437
210	0x3d10bfff	0.03533935
211	0xbdd72105	-0.10504345
212	0xbdd07adb	-0.10179683
213	0x3c71080e	0.014711393
214	0x3e1bd88e	0.15219328
215	0x3d88b186	0.06674485
216	0x3cb817d6	0.022472303
217	0xbd487315	-0.048937876
218	0x3c448e77	0.011996857
219	0x3e056519	0.13026847
220	0xbe424b65	-0.18974073
221	0x3d6aca4b	0.057321828
222	0x3d7be2af	0.06149548
223	0x3cdc6766	0.026904773
224	0x3cea3c41	0.028593184
225	0x3e355a64	0.17710263
226	0x3d61741f	0.055042382
227	0x3d8a6ac9	0.06758649
228	0x3e2b62f7	0.16736971
229	0x3caa03c0	0.020753741
230	0xbdca87b7	-0.09889167
231	0x3dd08a8a	0.10182674
232	0xbd1e5a39	-0.03866026
233	0x3ddfc458	0.109261215
234	0xbdb8f4c7	-0.090310626
235	0xbb9cff63	-0.0047911867
236	0xbd8a502e	-0.06753574
237	0xbce8d4a4	-0.028421707
238	0xbda8a2bd	-0.08234165
239	0x3ce6d7f3	0.028179144
240	0x3b89cfd0	0.0042056814
241	0x3d0d235c	0.03445755
242	0x3e028ee9	0.12749828
243	0x3d933b35	0.07189027
244	0xbdab1c02	-0.083549514
245	0xbc37f4f5	-0.011227836
246	0xbddc2fd9	-0.10751314
247	0x3e64797b	0.22311966
248	0xbd7e95af	-0.06215447
249	0x3d04d249	0.032427106
250	0x3e159e9a	0.14611283
251	0xbd7032a4	-0.058642045
252	0xbd3848ea	-0.04499141
253	0xbd42ebea	-0.047588266
254	0xbc9990a2	-0.018745724
255	0xbdf3b2e1	-0.11899353

MLP.10.bias f4 [32]
0	0xbdbacf53	-0.09121575
1	0xbd8e3fd9	-0.06945772
2	0x3e0ab501	0.1354561
3	0x3dbf1cec	0.09331688
4	0x3e23aa65	0.15982969
5	0x3d840433	0.064461134
6	0x3d9d5041	0.07681323
7	0x3d6db34f	0.05803233
8	0x3d9c1324	0.07620838
9	0x3df19df4	0.11797705
10	0xbe161718	-0.14657247
11	0x3d9eb892	0.07750048
12	0x3e082b98	0.1329788
13	0x3db59d7d	0.08867929
14	0xbe1d2f16	-0.15349993
15	0xbd5e4dcb	-0.054273408
16	0xbacbfdcf	-0.0015563312
17	0x3df227ff	0.11824035
18	0xbceff0b8	-0.029289588
19	0xbd73078a	-0.05933336
20	0x3cd88953	0.026432669
21	0x3d9e1b58	0.07720059
22	0xbd5edb4e	-0.054408364
23	0x3d31f941	0.043450598
24	0x3e021ccb	0.12706296
25	0x3cd2d90d	0.025738264
26	0x3d920c0f	0.07131206
27	0xbcbe02bd	-0.023194665
28	0x3c2764c9	0.0102169
29	0x3d0d2654	0.03446038
30	0x3c0a2246	0.008431023
31	0xbd2c0a85	-0.04200222

MLP.11.weight f4 [32]
0	0x3f093bbb	0.53606766
1	0x3f5cea01	0.8629456
2	0x3f6b1b4d	0.9183853
3	0x3f683050	0.9069872
4	0x3f49f8b6	0.7889513
5	0x3f6fab9a	0.9362122
6	0x3f7112f8	0.9416957
7	0x3f5493e2	0.8303815
8	0x3f5c20b6	0.8598741
9	0x3f624104	0.88380456
10	0x3f453ba1	0.7704411
11	0x3f6ad80a	0.917359
12	0x3f22fa49	0.63663155
13	0x3f69b5c9	0.9129301
14	0x3f6ca5ad	0.924403
15	0x3f4f2235	0.8091157
16	0x3f723c7d	0.9462355
17	0x3f6afbb8	0.9179034
18	0x3f4fa90b	0.81117314
19	0x3f612443	0.87945956
20	0x3f6b3a4c	0.9188583
21	0x3f726501	0.9468537
22	0x3f403358	0.75078344
23	0x3f5c7b7d	0.8612593
24	0x3f6beebd	0.9216116
25	0x3f3c4306	0.7353977
26	0x3f6ec9ad	0.9327648
27	0x3f5484ec	0.8301532
28	0x3f647d38	0.8925357
29	0x3f30cf8d	0.690667
30	0x3f6b0d49	0.91817147
31	0x3f72490c	0.9464271

MLP.11.bias f4 [32]
0	0xbba3a712	-0.0049942816
1	0xbc18c266	-0.009323692
2	0xbcb26e78	-0.021781191
3	0xbc39341e	-0.01130393
4	0x3b6f8d84	0.0036552856
5	0xbb57eee1	-0.003294878
6	0x3ab86a7c	0.0014069821
7	0x3cac1b83	0.021009212
8	0xbbd8bf26	-0.0066145835
9	0xbc52fc82	-0.012877585
10	0xbb203749	-0.0024447015
11	0xbcddeab5	-0.027089456
12	0xbc31969a	-0.010839129
13	0xbc830ae2	-0.0159964
14	0xbcbbda73	-0.022931313
15	0xbc837baf	-0.016050188
16	0x3c38e6f6	0.011285534
17	0x3bf9b63c	0.007620601
18	0xbc13a561	-0.009011597
19	0x3aee752b	0.0018192878
20	0xbb1547c3	-0.002277837
21	0xbc06a5c8	-0.008218236
22	0xbafda61b	-0.0019351871
23	0x3d1ffeef	0.039061483
24	0xbb144626	-0.002262482
25	0x3c499176	0.012302747
26	0xbafc0922	-0.0019228796
27	0xba7f1603	-0.0009730758
28	0x3cbaa722	0.022784773
29	0xbd20d9b6	-0.039270125
30	0x3ca5bf15	0.020232717
31	0xbc823e00	-0.015898705

MLP.13.weight f4 [4, 32]
0	0x3c927de7	0.0178823
1	0x3d50681b	0.050880533
2	0x3dd518e1	0.10405136
3	0x3deab3a4	0.11460045
4	0x3d007a30	0.031366527
5	0x3e164a4d	0.14676781
6	0x3e0bb961	0.13644935
7	0xbd484578	-0.048894376
8	0x3cc09463	0.023508256
9	0xbdb50d98	-0.088404834
10	0xbcfa2a11	-0.030537637
11	0x3e1f3194	0.15546256
12	0x3c5ee92b	0.013605396
13	0x3dc1260b	0.09431084
14	0x3d65e1e5	0.056123633
15	0xbd0b85be	-0.034063093
16	0xbe1aae8a	-0.15105644
17	0xbdf1a96f	-0.11799895
18	0x3ca99c26	0.02070434
19	0x3d80d979	0.062914796
20	0x3de2b374	0.11069384
21	0x3e0168ef	0.12637685
22	0xbcc671fc	-0.024224274
23	0xbddd925f	-0.10818934
24	0x3d7651e1	0.06013668
25	0xbcfa9fa9	-0.03059371
26	0x3dad20ad	0.08453498
27	0x3ccbdcd9	0.024885582
28	0xbdad93bb	-0.08475443
29	0x3b6a9634	0.0035795094
30	0xbdda5aeb	-0.106618725
31	0x3e17d737	0.14828192
32	0xbd5714ac	-0.05250995
33	0xbc35794e	-0.011076285
34	0x3c20f631	0.009824322
35	0xbd10dcc9	-0.035366807
36	0x3c8ec7b4	0.01742921
37	0x3ca622ae	0.020280208
38	0xbcce4ceb	-0.025183162
39	0xbbde090f	-0.006775982
40	0x3d604849	0.054756436
41	0x3d3f7a9b	0.046747785
42	0x3c545247	0.01295907
43	0xbcb952ba	-0.022622455
44	0x3ca875f0	0.02056405
45	0x3d117656	0.035513245
46	0xbc52cc60	-0.01286611
47	0x3ca199e1	0.019726695
48	0xbc16a447	-0.00919444
49	0xbdac891b	-0.08424588
50	0xba727399	-0.0009248793
51	0x3bf5deed	0.0075033815
52	0x3c2060ef	0.009788736
53	0x3c816be4	0.015798517
54	0x3d9dd1ea	0.077060536
55	0x3c67353e	0.014111815
56	0xbda8ae7c	-0.08236405
57	0xbd4e4d5b	-0.05036674
58	0xbc9ce760	-0.019153297
59	0xbdb499bc	-0.08818385
60	0x3c9a7efe	0.018859383
61	0xbc4fe28e	-0.012688292
62	0xbd95ccdd	-0.07314465
63	0xbca77c9a	-0.020445157
64	0x3d7ac8d2	0.061226673
65	0x3c398abc	0.011324581
66	0x3b19c9b9	0.0023466183
67	0xbc5e59d6	-0.013571223
68	0x3b8fd81a	0.004389775
69	0x3c192fad	0.009349746
70	0x38ab303c	8.1629e-05
71	0xbca68724	-0.020328112
72	0xbc1a349b	-0.009411956
73	0x3bc5f1ff	0.006040811
74	0x3d3d6c8e	0.046246104
75	0xbb384a5e	-0.0028120498
76	0x3bc8299d	0.0061084763
77	0xbc5bd93b	-0.013418491
78	0xbbd7fdbf	-0.006591528
79	0xbbb242d2	-0.0054400945
80	0x3c5de1d6	0.013542613
81	0x3ba37fbe	0.0049895933
82	0x3cd044b7	0.02542339
83	0xbb88df9a	-0.004177046
84	0x3ce15a50	0.027508885
85	0x3bd24a3a	0.00641754
86	0x3c43e933	0.0119574545
87	0xbb0eae73	-0.002177146
88	0x3d2baa7c	0.041910633
89	0xbb81cb8d	-0.0039610327
90	0xbd0086d0	-0.031378567
91	0xbc9d3ab6	-0.019193035
92	0xbc097cb8	-0.008391552
93	0x3cd0d046	0.025489938
94	0x3c957677	0.018244965
95	0xbc11c82f	-0.008897825
96	0xbdb78d73	-0.08962526
97	0xbdb20109	-0.08691604
98	0x3e08e734	0.13369447
99	0xbd03a49d	-0.03213941
100	0xbd93e3ce	-0.07221185
101	0xbca27c8a	-0.019834775
102	0xbdf85e87	-0.12127405
103	0xbdbe6336	-0.09296267
104	0xbe22f2ab	-0.15912883
105	0xbd6ef572	-0.058339544
106	0x3d974062	0.07385327
107	0xbe0bf397	-0.13667141
108	0x3d8a423e	0.06750916
109	0xbe1c94f2	-0.15291193
110	0x3e2cc767	0.16872941
111	0x3e14c255	0.14527257
112	0xbe0e14be	-0.138751
113	0x3dfe16d5	0.124066986
114	0x3ddad047	0.10684257
115	0x3ac59773	0.0015075043
116	0xbe1cc7e9	-0.15310635
117	0xbb65f79a	-0.003509021
118	0x3c8f4808	0.017490402
119	0xbc16d10d	-0.009205115
120	0xbd0aa784	-0.03385116
121	0xbd2603c2	-0.040530927
122	0x3e2a3f55	0.16625722
123	0xbb98fb26	-0.004668611
124	0xbd1936ca	-0.037405767
125	0x3ca59f39	0.020217525
126	0x3d68fb1b	0.056880098
127	0xbd6eab16	-0.05826863

MLP.13.bias f4 [4]
0	0x3e01132a	0.12604967
1	0xbc42eeda	-0.011897767
2	0xbc3b2fcc	-0.01142497
3	0xbd995a88	-0.074879706
