example/model/polygon_robot/model_4500.pth (torch, 24610 bytes, 18 tensors)

MLP.0.weight f4 [32, 2]
0	0x3ea2ae78	0.31773734
1	0xbe54fa7a	-0.20798674
2	0x3dd8b11d	0.10580657
3	0xbee59953	-0.4484354
4	0xbf0e58d9	-0.5560432
5	0x3ebe0c2e	0.37118667
6	0xbed65ae4	-0.4186622
7	0x3eb79936	0.35859078
8	0x3e80905c	0.25110137
9	0xbea82f8f	-0.32848784
10	0xbf05e625	-0.523043
11	0xbec8dcc3	-0.39230928
12	0xbe435f1a	-0.19079247
13	0xbeabcb84	-0.33553708
14	0x3ed163e0	0.4089651
15	0xbeb13dab	-0.3461736
16	0x3e820eda	0.25401956
17	0xbe25b183	-0.16180997
18	0xbc969cef	-0.018385379
19	0xbef8284a	-0.48468238
20	0x3ea78e7d	0.32725897
21	0x3e7e9aba	0.24863711
22	0x3ef7fc6f	0.4843478
23	0xbd99ef9e	-0.075164065
24	0xbe91afac	-0.2845434
25	0x3de55a80	0.11198902
26	0x3cbfbd47	0.023405684
27	0xbece70ca	-0.40320426
28	0x3ea9d6eb	0.33171782
29	0xbe699b27	-0.22813092
30	0x3efee4ea	0.49784023
31	0x3ed3868e	0.41313595
32	0xbf0e2e55	-0.5553945
33	0xbeca3f77	-0.39501545
34	0x3e9f9bbc	0.31173503
35	0xbf09fd69	-0.539023
36	0x3ec367d2	0.38165146
37	0xbef57cb8	-0.47946715
38	0xbbc6a8ee	-0.0060626185
39	0xbdc8d266	-0.09805755
40	0xbcf85e11	-0.030318292
41	0x3e8886cb	0.2666534
42	0x3eb77207	0.35829183
43	0x3d059645	0.03261401
44	0x3e4beadc	0.1991381
45	0x3e2313d7	0.15925537
46	0x3d9ad86d	0.07560811
47	0x3e5cb56a	0.21553579
48	0x3de60ea3	0.112332605
49	0x3e9a07b6	0.30084008
50	0xbdc776e3	-0.09739473
51	0x3e792d7b	0.24333756
52	0xbd0db0a4	-0.034592286
53	0xbefea71f	-0.49736878
54	0xbc01c047	-0.007919378
55	0xbd84d5de	-0.064861044
56	0xbe22631e	-0.15858123
57	0xbe3b4e10	-0.18291497
58	0x3e0c8a32	0.13724592
59	0x3dfdeb08	0.12398344
60	0x3efe00cc	0.49609983
61	0xbebf66e9	-0.37383202
62	0xbcb5e9ec	-0.02220627
63	0x3d609914	0.054833487

MLP.0.bias f4 [32]
0	0x3941ec30	0.00018493901
1	0x3eef5c07	0.467499
2	0x3b645a04	0.0034843693
3	0x3e6f1d80	0.23351097
4	0x3e94659c	0.28983772
5	0x3e05d071	0.13067795
6	0x3e2401cb	0.16016309
7	0x3daacc08	0.08339697
8	0x3e90b4df	0.28262994
9	0x3d463ea1	0.04839957
10	0xbddedd82	-0.10882093
11	0xbdb4d1c1	-0.0882907
12	0x3e12b81d	0.14328046
13	0xbe476a40	-0.19474125
14	0xbbadb724	-0.005301373
15	0x3e2aed19	0.16692008
16	0xbe16c047	-0.14721785
17	0x3e0646d0	0.1311295
18	0xbea22177	-0.31666157
19	0xbe4d4de7	-0.20049249
20	0xbdc00b53	-0.0937716
21	0x3ea6470d	0.32476082
22	0x3e370927	0.17874585
23	0x3db35492	0.08756365
24	0x3ea9160e	0.3302464
25	0xbebee95d	-0.37287417
26	0x3e59085d	0.21194597
27	0x3eaa21d6	0.3322894
28	0xbe3556d1	-0.17708899
29	0xbe9c259b	-0.3049744
30	0xbd88c8a9	-0.06678898
31	0xbe9f2264	-0.31080925

MLP.1.weight f4 [32]
0	0x3f220c82	0.63300335
1	0x3f2cabf6	0.6744989
2	0x3f01c9bb	0.5069844
3	0x3f2bd013	0.6711437
4	0x3f1830be	0.59449375
5	0x3f12e414	0.5737927
6	0x3f1466c8	0.5796933
7	0x3eed2617	0.46318123
8	0x3f12972b	0.57261914
9	0x3f199cb1	0.6000472
10	0x3f006238	0.5014987
11	0x3f392351	0.72319514
12	0x3f1591da	0.58425677
13	0x3f35d89d	0.7103365
14	0x3f08ffc7	0.53515285
15	0x3f333ccd	0.7001465
16	0x3f11f4d3	0.570142
17	0x3f1c6681	0.6109391
18	0x3f27aeec	0.65501285
19	0x3eccccc1	0.39999965
20	0x3f461a99	0.77384335
21	0x3f22dd19	0.6361862
22	0x3f25cb0c	0.6476295
23	0x3f2f710b	0.68531865
24	0x3f264370	0.6494665
25	0x3f44bb5d	0.76848394
26	0x3f2a1430	0.66437054
27	0x3f009ad7	0.50236267
28	0x3f31c9dd	0.69448644
29	0x3f237b1c	0.63859725
30	0x3f1a32bc	0.60233665
31	0x3f3c1729	0.7347284

MLP.1.bias f4 [32]
0	0xbacba475	-0.0015536683
1	0xbc444a5b	-0.011980618
2	0xbd108d9c	-0.0352913
3	0x3b595c46	0.0033166572
4	0x3c3a39de	0.011366336
5	0x3d26ca9a	0.04072056
6	0xbc98614b	-0.01860108
7	0xbd93fdb0	-0.072261214
8	0xbd4773a8	-0.048694283
9	0xbb747f32	-0.003730726
10	0x3b8564c0	0.004070848
11	0x3c9aee31	0.018912407
12	0x3cada870	0.021198481
13	0xbc309412	-0.01077749
14	0xbbe4d4cb	-0.0069833747
15	0xbd204b76	-0.039134465
16	0xbd839f52	-0.06426872
17	0x3d00fe2a	0.03149239
18	0xbc782447	-0.015145368
19	0xbc45698d	-0.012049091
20	0x3d3d4f9b	0.046218496
21	0x3aeda826	0.0018131777
22	0x3cfd3e7b	0.030913582
23	0x3c8ec6ed	0.01742884
24	0x3d510a6c	0.05103533
25	0xbd0c1ff2	-0.034210153
26	0x3c707967	0.014677382
27	0x3bbf9c71	0.0058475067
28	0xbceded86	-0.029043924
29	0x3c3b46c7	0.011430449
30	0x3d1b6454	0.037937477
31	0xbcd2a269	-0.025712209

MLP.3.weight f4 [32, 32]
0	0xbd54f781	-0.05199385
1	0x3d2bbe4a	0.04192952
2	0xbc73d44c	-0.0148821585
3	0xbe0c39a0	-0.13693857
4	0x3cfe79fc	0.031064026
5	0xbd987c16	-0.074455425
6	0x3e0d47e1	0.13796951
7	0x3a937439	0.0011249847
8	0x3dd7cb0b	0.10536774
9	0x3dccfdcf	0.10009348
10	0xbaeb6f1c	-0.001796219
11	0xbde4288d	-0.11140547
12	0x3e0b57eb	0.13607757
13	0xbd98e784	-0.07466033
14	0xbdf43e9b	-0.119260035
15	0x3d172870	0.0369038
16	0xbd3192ed	-0.04335301
17	0xbcc15467	-0.023599816
18	0xbd63d1fd	-0.055620182
19	0xbd4663da	-0.04843507
20	0x3da3b121	0.07992769
21	0x3dd0fbca	0.10204275
22	0xbbfe5dae	-0.0077626323
23	0x3bbb1fb3	0.005710566
24	0x3e1b390b	0.15158479
25	0xbdf96cca	-0.12178953
26	0x3dd303c0	0.1030345
27	0x3dc84cb8	0.09780258
28	0xbdb9875d	-0.090590216
29	0xbd517aa9	-0.05114237
30	0x3d0074c5	0.03136136
31	0x3b877e0d	0.0041348995
32	0x3ca21902	0.019787315
33	0x3d12d1d4	0.03584464
34	0xbc3b1c8e	-0.011420382
35	0xbd8e7824	-0.06956509
36	0xbd922672	-0.07136239
37	0xbdbd68cd	-0.09248505
38	0xbdca6c22	-0.09883906
39	0xbd8c977a	-0.06864829
40	0xbd11a888	-0.035561115
41	0xbd1dd970	-0.038537443
42	0xbd3ff9f3	-0.04686923
43	0x3d1f94b7	0.038960185
44	0xbd2df490	-0.04246956
45	0xbda44c34	-0.08022347
46	0x3c8565a7	0.016283823
47	0xbc8e1d87	-0.017348064
48	0xbdd6eb49	-0.10494096
49	0x3d95fa5e	0.073231444
50	0x3d64641a	0.055759527
51	0x3cb7ee71	0.022452565
52	0xbdef681d	-0.1168978
53	0x3d24be3f	0.040220495
54	0xbcdf8bd8	-0.027288362
55	0x3dd2e97d	0.102984406
56	0x3d9ebab7	0.07750457
57	0x3d7e53de	0.0620917
58	0xbc2465e6	-0.01003406
59	0xbc509d98	-0.012732886
60	0x3d93ec81	0.07222844
61	0xbd3e0062	-0.046387084
62	0xbdce7c65	-0.1008232
63	0x3db1ea75	0.08687297
64	0x3d5fd8dd	0.054650176
65	0x3ca02edc	0.019553594
66	0xbce9f15b	-0.02855747
67	0x3a62e5a7	0.00086554367
68	0x3da1a8dd	0.07893536
69	0x3df2c8ea	0.118547276
70	0xbd80168b	-0.062543
71	0x3d26ab42	0.040690668
72	0xbc12857e	-0.00894296
73	0xbd9e0ecc	-0.07717666
74	0x3d1b9e21	0.0379926
75	0x3c6267c6	0.013818687
76	0xbcc707a9	-0.024295645
77	0xbdd24548	-0.102671206
78	0xbd444d36	-0.047925197
79	0xbdb73854	-0.089462906
80	0x3bb5fd01	0.005553842
81	0xbd04cbf4	-0.032421067
82	0x3b468873	0.0030293732
83	0xbcf0a2f1	-0.029374572
84	0xbe0832a7	-0.13300572
85	0x3d908c41	0.07058001
86	0xbd90edf6	-0.070766374
87	0x3d87e384	0.06635192
88	0x3cd7e2fb	0.02635335
89	0xbdebc0a3	-0.11511352
90	0x3e0816ff	0.13290022
91	0x3da01143	0.078157924
92	0xbbf82c44	-0.0075736362
93	0xbe10b6ae	-0.14132187
94	0xbd8d1a98	-0.06889838
95	0xbdd1b173	-0.10238924
96	0x3e27878d	0.16360302
97	0xbb97f241	-0.004637033
98	0x3df011ce	0.11722146
99	0xbe267d64	-0.1625877
100	0xbcc3097e	-0.023808237
101	0x3d8ae3db	0.06781741
102	0xbc301b33	-0.010748672
103	0xbc62df9d	-0.013847259
104	0xbdfa4899	-0.12220878
105	0x3da2b505	0.07944683
106	0xbc3a8ac6	-0.011385625
107	0x3e57f7e3	0.21090655
108	0x3d88ebad	0.066855766
109	0xbe0c4329	-0.13697495
110	0x3daa5a5d	0.08318017
111	0xbe32c4bf	-0.17457865
112	0xbddcb48e	-0.107766256
113	0x3c11a553	0.008889514
114	0x3de78bc1	0.11305953
115	0x3b8a0976	0.0042125536
116	0xbe0f0709	-0.13967527
117	0x3e0ffe80	0.14061928
118	0x3ce1188d	0.027477527
119	0x3e092b59	0.13395442
120	0x3d2a432d	0.04156797
121	0x3e0bb8c9	0.13644709
122	0xbd15b10a	-0.03654579
123	0xbe4b3c05	-0.19847114
124	0x3ae6ba4c	0.0017603128
125	0x3dc915de	0.09818624
126	0x3dfd1a65	0.1235855
127	0x3e0eccad	0.13945265
128	0xbdfe0442	-0.12403156
129	0xbdd09cb5	-0.101861395
130	0xbb6d9507	-0.0036252157
131	0x3d2f8bad	0.042857815
132	0xbd296e10	-0.04136473
133	0xbb895cba	-0.004191962
134	0x3db02e89	0.08602626
135	0x3d97d272	0.07413186
136	0x3d7dd43d	0.061969984
137	0xbc67594a	-0.014120409
138	0xbde92edf	-0.11385893
139	0xbd14f940	-0.036370516
140	0x3d351e44	0.044218317
141	0x3c93f97b	0.018063297
142	0x3d86bbca	0.06578787
143	0xbdc32a90	-0.095296025
144	0x3d5d7014	0.054061964
145	0x3db9a5a3	0.09064796
146	0x3de1a9e1	0.1101873
147	0x3d1bccc2	0.03803707
148	0x3df93e69	0.12170107
149	0xbe15008b	-0.14550988
150	0x3d292dd1	0.04130346
151	0xbd07a364	-0.033114806
152	0x3de17538	0.11008686
153	0x3da25300	0.07925987
154	0xbcbca965	-0.023029992
155	0xbca4ecb7	-0.020132406
156	0x3d62e1fa	0.05539129
157	0x3d81d310	0.06339085
158	0x3ccd01ac	0.025025211
159	0x3d8884c0	0.06665945
160	0xbe3d0f64	-0.18462902
161	0x3d0f91ca	0.035051145
162	0x3e1ea408	0.1549226
163	0xbcf4eb3d	-0.029897327
164	0xbe39178c	-0.18075389
165	0x3d3a12cd	0.045428086
166	0xbd06e5a7	-0.032933857
167	0xbd964293	-0.07336917
168	0xbe180dee	-0.14849064
169	0xbc83f61f	-0.01610857
170	0x3dbe114b	0.09280642
171	0x3c8fcb6b	0.017553052
172	0xbc1bd473	-0.009511101
173	0x3e02c454	0.12770206
174	0xbe3ecc6b	-0.18632667
175	0x3d624b85	0.055247802
176	0x3e127107	0.14300929
177	0xbe0f6074	-0.14001638
178	0xbd1c34bf	-0.03813624
179	0x3df6b331	0.12045897
180	0xbe251cde	-0.16124293
181	0xbd733320	-0.05937493
182	0xbd10ccb1	-0.03535146
183	0xbe194ea3	-0.14971404
184	0xbe31f7bd	-0.17379661
185	0x3dae4b8c	0.08510503
186	0x3dda0ba5	0.10646752
187	0x3d71c0db	0.059021812
188	0x3cf8062d	0.030276382
189	0x3d6bc2a7	0.05755868
190	0x3d12065d	0.0356506
191	0x3dc47495	0.09592549
192	0x3ddf47fd	0.109024025
193	0xbb836d07	-0.0040108
194	0xbd517a1a	-0.051141836
195	0x3dc0e9c3	0.094195865
196	0x3ddaa1b8	0.10675377
197	0xbc04efa4	-0.008113775
198	0xbb995f34	-0.0046805386
199	0xbd4aee40	-0.04954362
200	0xbddadb61	-0.106863745
201	0x3d04bb5b	0.03240524
202	0xbcb9ab3f	-0.022664664
203	0x3dcdca07	0.10048299
204	0xbde6c15b	-0.112673484
205	0xbcf338b0	-0.029690117
206	0x3da01085	0.07815651
207	0x3de92f9e	0.113860354
208	0x3d04bef9	0.03240869
209	0x3ddef87d	0.10887239
210	0xbde84d31	-0.11342848
211	0xbd4d34d9	-0.050099228
212	0xbdd2d7f6	-0.102950975
213	0xbdbdd039	-0.09268231
214	0x3db7634b	0.089544855
215	0xbd896020	-0.067077875
216	0xbd5f2902	-0.054482467
217	0xbe04ff9a	-0.1298813
218	0x3d4c0540	0.049809694
219	0xbbeeb2ec	-0.0072845127
220	0x3d88f3f5	0.06687156
221	0xbd2b1a00	-0.041772842
222	0xbdb7ef90	-0.0898124
223	0x3bf654ef	0.007517449
224	0x3cdfa8a7	0.0273021
225	0xbd02cb91	-0.031932417
226	0x3d4c4528	0.04987064
227	0x3e4ea335	0.20179446
228	0x3cd47e66	0.025939178
229	0x3e0a31cd	0.1349556
230	0x3ce0d711	0.027446302
231	0x3d8d593f	0.06901788
232	0xbdc5ae4e	-0.096523866
233	0x3c9a0667	0.018801881
234	0xbd5355a1	-0.051595334
235	0x3d8e09da	0.06935473
236	0xbc36f19b	-0.011166002
237	0xbd05fdd9	-0.03271279
238	0xbd65cbe8	-0.056102663
239	0x3d094ce0	0.03352058
240	0xbdbdf1c8	-0.09274632
241	0xbd6ccb49	-0.057811055
242	0xbdc00753	-0.09376397
243	0x3d0ffe1e	0.035154454
244	0x3dedd81c	0.11613485
245	0x3c46fc17	0.012145064
246	0xbe0517e1	-0.1299739
247	0xbdcd5294	-0.10025516
248	0x3dba2875	0.09089748
249	0x3cd9bfe6	0.026580762
250	0xbd645baa	-0.05575148
251	0x3d444105	0.04791357
252	0xbe0af967	-0.13571702
253	0x3dd7b070	0.105317
254	0xbc48d52b	-0.012257854
255	0x3a120e79	0.00055716146

MLP.3.bias f4 [32]
0	0x3dd1316f	0.10214507
1	0xbdbd692f	-0.09248578
2	0xbe0fa155	-0.14026387
3	0xbcc44039	-0.023956405
4	0x3bdabb9f	0.006675198
5	0xba6e54ab	-0.0009091596
6	0x3c315206	0.010822779
7	0x3c99b962	0.018765155
8	0x3dc4f452	0.09616913
9	0xbdf65e44	-0.120296985
10	0xbd6b80af	-0.05749577
11	0xba12dc54	-0.00056022895
12	0xbcd05b1b	-0.025434067
13	0xbd3f9f27	-0.04678264
14	0xbdccf840	-0.100082874
15	0xbe2d93c5	-0.16950901
16	0xbccb3010	-0.024803191
17	0xbca5d3e4	-0.020242639
18	0xbd09ad2c	-0.033612415
19	0x3e0ed126	0.13946971
20	0xbdcba103	-0.0994282
21	0xbda9d9b9	-0.082934804
22	0x3e2d4619	0.16921271
23	0xbb8dc3e1	-0.004326329
24	0x3db1fea8	0.0869115
25	0xbd14419a	-0.036195375
26	0xbd3b85bb	-0.045781832
27	0x3d674d0e	0.05646997
28	0xbcfadfbd	-0.030624265
29	0x3cf24da8	0.029578045
30	0xbe15a4ff	-0.14613722
31	0x3dc4cd54	0.09609476

MLP.5.weight f4 [32, 32]
0	0x3c9cc7da	0.019138265
1	0xbc2547b5	-0.010087897
2	0x3d81c3c2	0.06336166
3	0xbd9bf2c5	-0.07614664
4	0xbd232451	-0.039829556
5	0xbdb2ac34	-0.087242514
6	0x3e188326	0.14893779
7	0xbe0cde9d	-0.13756795
8	0x3c63527e	0.013874648
9	0xbced5f8b	-0.028976223
10	0xbd9b0d90	-0.07570946
11	0x3cdca6e4	0.026935048
12	0xbcc300bb	-0.02380406
13	0x3b75cb6f	0.003750529
14	0x3d0a71fd	0.033800114
15	0xbdfdc6d0	-0.12391436
16	0xbd2f1442	-0.04274393
17	0x3bf31ccf	0.0074192057
18	0x3d3c6229	0.04599205
19	0x3d885f83	0.066588424
20	0xbd172ddf	-0.03690898
21	0x3d7fd8bb	0.06246255
22	0x3dc0e9e1	0.09419609
23	0xbd8347cf	-0.06410181
24	0xbdadb33e	-0.08481453
25	0x3c39ec69	0.0113478685
26	0x3c8148e1	0.015781822
27	0x3bb4eaea	0.005521168
28	0x3dc99abb	0.098439656
29	0xbd2b205c	-0.041778907
30	0xbd1a9947	-0.037743833
31	0xbcaf0843	-0.021366244
32	0xbceff3e9	-0.02929111
33	0xbd4e978b	-0.05043749
34	0x3b5ed308	0.0034000296
35	0xbbcaa951	-0.006184735
36	0xbd3cfada	-0.04613767
37	0x3dd17142	0.1022668
38	0xbdb9ad2a	-0.090662315
39	0x3c861929	0.01636942
40	0x3d10de3e	0.035368197
41	0x3ad9cbc4	0.0016616513
42	0xbbc8bcf5	-0.006126041
43	0x3b33b5c2	0.0027421569
44	0xbd281068	-0.04103127
45	0x3c8154f6	0.015787583
46	0xbb3225ac	-0.0027183099
47	0x3d04681b	0.032325845
48	0x3d2505c1	0.04028869
49	0x3c0c47cb	0.008562039
50	0xbc9eceda	-0.019385744
51	0xbe0a7ee7	-0.13524972
52	0x3c8b1810	0.016979247
53	0x3d93573f	0.07194375
54	0x3c88a5cd	0.016680622
55	0xbcbaa933	-0.022785759
56	0x3d72b890	0.059258044
57	0x3d79ebfa	0.06101606
58	0x3d4655d6	0.048421703
59	0xbd38a4e4	-0.045079127
60	0xbd6cb23d	-0.05778717
61	0x3dbe0c07	0.09279638
62	0x3d92c27d	0.07166002
63	0x3c9fffc6	0.019531142
64	0xbdd85012	-0.10562147
65	0xbd6c818b	-0.05774073
66	0x3c2d6a3f	0.010584413
67	0x3d60d0cd	0.054886628
68	0x3d1c5d05	0.038174648
69	0xbe299e41	-0.16564275
70	0xbd8bcbe9	-0.06826002
71	0x3cb2022b	0.02172955
72	0x3b5248af	0.003208678
73	0xbd83568f	-0.06412994
74	0xbc812fba	-0.015769828
75	0xbe0ae18e	-0.13562605
76	0xbd972a85	-0.07381157
77	0xbdc01f6b	-0.093809925
78	0x3cd7d504	0.026346691
79	0xbddef3ee	-0.1088637
80	0xbca321d4	-0.019913591
81	0x3d8afa8e	0.06786071
82	0xbd7f3137	-0.062302794
83	0x3de0ec07	0.10982519
84	0xbb1ea0a5	-0.0024204638
85	0xbda72244	-0.081608325
86	0xbd071702	-0.032980926
87	0xbd56cd69	-0.05244199
88	0x3bace2d1	0.005276062
89	0x3e1b6fa3	0.15179305
90	0xbe0a36e1	-0.13497497
91	0x3c8f04ca	0.017458338
92	0xbd0c066c	-0.034185812
93	0x3dc23460	0.09482646
94	0x3d885356	0.0665652
95	0x3d190386	0.037356876
96	0xbd23f3ba	-0.040027358
97	0xbdb863a9	-0.09003384
98	0x3db9bee5	0.09069613
99	0xbd19c0b1	-0.03753728
100	0x3e03b0c6	0.12860402
101	0x3e720bb8	0.23637283
102	0x3db0fe3a	0.0864224
103	0xbd4765d7	-0.048681106
104	0x3c44d835	0.012014438
105	0xbd7ca3aa	-0.06167952
106	0x3d030a7d	0.031992424
107	0x3dae6452	0.08515228
108	0x3d9fa0e9	0.07794363
109	0x3db84f79	0.08999533
110	0xba0f4931	-0.00054659235
111	0xbd91254d	-0.07087193
112	0xbd067ecf	-0.032835778
113	0x3dc1c888	0.094620764
114	0xbc90ed61	-0.017691316
115	0xbd9debf6	-0.077110216
116	0x3d1d325d	0.03837811
117	0x3da4eaa1	0.080525644
118	0x3d8b3cef	0.067987315
119	0x3d17139f	0.036883947
120	0xbd946b5d	-0.072470404
121	0xbcc390b4	-0.02387271
122	0xbd680cb5	-0.056652743
123	0xbd491d68	-0.04910031
124	0x3ce14bbe	0.027501937
125	0x3e0ffce2	0.14061311
126	0x3d8f7ad3	0.07005849
127	0x3d8a2b82	0.0674658
128	0xbda8ad88	-0.082362235
129	0x3d3244e8	0.043522745
130	0xbcc29062	-0.023750488
131	0x3bc326c3	0.0059555485
132	0xbc82b7ff	-0.015956877
133	0xbd94c1cc	-0.07263526
134	0x3d412fff	0.047164913
135	0xbda931d7	-0.08261459
136	0xbaf39b4e	-0.0018585713
137	0xbd940908	-0.07228285
138	0x3bf8473c	0.007576851
139	0x3dc61d98	0.09673613
140	0xbda82120	-0.08209443
141	0xbc9964ef	-0.018724887
142	0x3d5650c3	0.052323114
143	0xbdfeb2af	-0.12436425
144	0x3d473b1f	0.048640367
145	0x3d1e703d	0.038681258
146	0xbdb30fe2	-0.08743264
147	0x3d34e858	0.044166893
148	0x3d453769	0.048148546
149	0x3daf536a	0.08560832
150	0xbe0d664d	-0.13808556
151	0xbd76c2a7	-0.06024423
152	0xbd8cbfce	-0.06872521
153	0x3cdee69c	0.027209572
154	0x3d583d76	0.05279299
155	0x3d917057	0.07101505
156	0xbc965b1c	-0.018353991
157	0xbd137436	-0.0359995
158	0x3cefd891	0.029278072
159	0x3da49e47	0.080380015
160	0xbd59ad1d	-0.05314361
161	0xbd7e6d93	-0.062116217
162	0x3ddb6243	0.10712101
163	0xbde3e9d5	-0.11128584
164	0xbdbd384b	-0.09239253
165	0xbdc3da28	-0.095630944
166	0x3cdf334d	0.027246142
167	0x3d5f102b	0.05445878
168	0x3d45c865	0.048286814
169	0xbd143d93	-0.036191534
170	0xbd8dc02f	-0.06921422
171	0x3dc2bad8	0.09508294
172	0x3d62ccb2	0.055370994
173	0xbd3d908b	-0.046280425
174	0x3d9255d9	0.071452804
175	0xbd22964c	-0.039694116
176	0x3ca3e28b	0.020005485
177	0xbd0c0394	-0.0341831
178	0x3d64bc87	0.055843856
179	0x3db7993d	0.08964775
180	0xbd2ad393	-0.04170568
181	0x3ce08bb9	0.027410375
182	0x3e10a7db	0.14126532
183	0x3e258425	0.1616369
184	0xbcb278c2	-0.021786097
185	0x3dc1ea23	0.09468486
186	0xbd9b4d8e	-0.07583152
187	0xbc330a5e	-0.010927765
188	0xbd5e23b9	-0.054233287
189	0x3d391bb4	0.045192435
190	0x3da4bdf3	0.080440424
191	0x3e19c7b9	0.15017594
192	0x3d887528	0.06662971
193	0x3d41adf9	0.047285054
194	0xbdcf37cb	-0.101180635
195	0x3d5484a9	0.051884327
196	0x3d2fbaff	0.042902943
197	0x39cf0724	0.00039487437
198	0xbcba248e	-0.022722509
199	0xbdd9b67e	-0.10630511
200	0x3dd157f7	0.10221856
201	0x3d0deba7	0.034648564
202	0x3d2bc7c9	0.041938577
203	0x3d6412b8	0.055681914
204	0x3d347579	0.044057343
205	0x3d6c02b4	0.057619765
206	0xbd4b4d24	-0.049634114
207	0xbdeeb078	-0.116547525
208	0x3d013c5b	0.0315517
209	0xbc4b26e7	-0.012399412
210	0x3da76c73	0.08174982
211	0xbdb2ca82	-0.087300315
212	0xbb0b46e7	-0.0021251978
213	0x3dc07d50	0.093989015
214	0xbd24013d	-0.040040243
215	0x3da3b5fd	0.07993696
216	0x3da8ab36	0.08235781
217	0x3bd882e6	0.006607401
218	0x3d59225d	0.053011287
219	0xbdb3804b	-0.08764704
220	0x3ddb126e	0.106968746
221	0xbdf4ed7b	-0.11959358
222	0x3a3f43dc	0.00072961836
223	0xbb7937fa	-0.003802775
224	0xbcff41c1	-0.031159284
225	0x3d040fde	0.032241695
226	0x3c864eea	0.016395051
227	0x3e64702a	0.22308412
228	0xbda9c299	-0.0828907
229	0xbdabce1e	-0.08388923
230	0xbcf4751b	-0.029840996
231	0xbdac876b	-0.084242664
232	0xbc8b05be	-0.016970512
233	0xbd517bd9	-0.0511435
234	0xbcd93df8	-0.026518807
235	0xbccad857	-0.024761362
236	0xbca8dd18	-0.020613238
237	0xbd7bc588	-0.061467677
238	0xbda4834d	-0.08032856
239	0x3d17b859	0.037041042
240	0xbc4a172f	-0.012334629
241	0xbdc6a6cb	-0.09699782
242	0xbcd8f4e9	-0.02648397
243	0x3ce6afe6	0.028160047
244	0xbc5a9a71	-0.013342486
245	0xbd3fcd45	-0.04682662
246	0xbcf12c8d	-0.029440189
247	0x3da1d067	0.07901078
248	0x3e10a50a	0.14125457
249	0xbd66abdc	-0.05631624
250	0x3cd6c1f3	0.02621553
251	0x3d0b120b	0.033952754
252	0x3e0ee2bf	0.13953684
253	0x3e36846a	0.1782395
254	0xbd81cf01	-0.06338311
255	0x3cc92b0f	0.024556665

MLP.5.bias f4 [32]
0	0xbdb4b98d	-0.088244535
1	0x3dd61f2f	0.104551665
2	0x3dccc465	0.09998397
3	0xbd72f2c8	-0.059313565
4	0x3e015d3c	0.12633222
5	0xbdf16afd	-0.117879845
6	0x3d5168c9	0.05112532
7	0x3cc830a1	0.02443725
8	0xbd8b12d6	-0.06790702
9	0xbde7b316	-0.11313455
10	0xbdb7cef7	-0.08975022
11	0x3d83ae3e	0.064297184
12	0xbe26eb70	-0.1630075
13	0x3bb0d3a1	0.005396322
14	0xbd4f80e4	-0.05066003
15	0x3dd61245	0.104527034
16	0x3da5ab5f	0.08089327
17	0x3b5cede1	0.0033711123
18	0x3e009818	0.12558019
19	0xbd9281bf	-0.07153653
20	0x3d197418	0.03746423
21	0x3da131a9	0.078708
22	0xbb51e90d	-0.0032029778
23	0x3ddfda00	0.10930252
24	0x3d15a5fd	0.036535252
25	0x3dbb9a6e	0.091603145
26	0xbd8950a0	-0.06704831
27	0x3d9c4a99	0.07631416
28	0xbdf19e46	-0.117977664
29	0xbd673787	-0.05644944
30	0xbc449411	-0.011998192
31	0x3cc10470	0.023561686

MLP.6.weight f4 [32]
0	0x3f3a962d	0.728854
1	0x3f2ba293	0.67044944
2	0x3ef3fe20	0.4765482
3	0x3f306bcd	0.6891449
4	0x3f2260c0	0.6342888
5	0x3f29d11a	0.6633469
6	0x3f3824df	0.7193126
7	0x3f27353f	0.6531562
8	0x3f1f612e	0.6225766
9	0x3f21f608	0.6326604
10	0x3f0ed988	0.55800676
11	0x3f239dc2	0.63912594
12	0x3f235fb6	0.6381792
13	0x3eff9a3c	0.4992236
14	0x3f3b9dbf	0.73287576
15	0x3f22137b	0.63310975
16	0x3f36af0f	0.7136087
17	0x3f1edcd9	0.62055737
18	0x3f2650e4	0.6496718
19	0x3f31a345	0.69389755
20	0x3f2fe2ea	0.6870562
21	0x3f1eaf46	0.61986196
22	0x3f3b5227	0.7317223
23	0x3f37c6cb	0.7178771
24	0x3f0e51e4	0.55593705
25	0x3f354258	0.7080436
26	0x3f3c9109	0.73658806
27	0x3eff7fdd	0.4990224
28	0x3f367f4f	0.7128801
29	0x3f00415e	0.5009974
30	0x3f406133	0.75148314
31	0x3e98a0e5	0.29810253

MLP.6.bias f4 [32]
0	0xbbf31cf4	-0.007419223
1	0x3d4f7085	0.050644416
2	0xbc61e235	-0.013786842
3	0x3b5d084d	0.0033726871
4	0xbc168a39	-0.009188228
5	0x3bc7322b	0.0060789785
6	0xbb0aef74	-0.0021199854
7	0xbca79d69	-0.020460801
8	0xbc3e5460	-0.011616796
9	0xbbf6b1a9	-0.007528503
10	0x3bf16a70	0.0073674247
11	0xbcc93239	-0.02456008
12	0xbc74fef4	-0.014953364
13	0xbc43d7a0	-0.0119532645
14	0x3cec49ec	0.028843842
15	0x3c79dcaf	0.015250369
16	0xbd1599d6	-0.036523663
17	0xbc4056bc	-0.011739429
18	0x3bda1402	0.006655217
19	0x3beb04ba	0.0071721943
20	0xbc4d9ff1	-0.01255034
21	0xbce75b4c	-0.028241776
22	0xbca25d61	-0.019819917
23	0xbbcdf878	-0.0062857233
24	0x3c82a3c5	0.015947232
25	0xbc7705d1	-0.01507707
26	0x3c365fd3	0.011131245
27	0x3d1481d7	0.036256637
28	0x39cee899	0.0003946468
29	0xbc69fe1c	-0.014281776
30	0x3cdd3d3f	0.027006743
31	0x3c25124f	0.010075166

MLP.8.weight f4 [32, 32]
0	0xbde39ab1	-0.111134894
1	0x3e0ec2a6	0.1394144
2	0x3e2a1bac	0.16612118
3	0x3d8aa10b	0.06768998
4	0x3c652962	0.013986917
5	0xbcf00f31	-0.029304119
6	0xbc280d7e	-0.010257123
7	0x3d12d352	0.035846062
8	0xbe609ae2	-0.21934083
9	0x3db55f57	0.08856075
10	0x3bed8d4f	0.0072495113
11	0x3d8e11b9	0.06936974
12	0xbe1dffef	-0.15429662
13	0x3ce2771d	0.027644688
14	0x3d635774	0.055503324
15	0xbe0797f9	-0.13241567
16	0xbe56922a	-0.20954195
17	0xbe19f7ce	-0.15035936
18	0x3dfbd812	0.122970715
19	0xbdae542b	-0.085121475
20	0xbd8e3fd0	-0.06945765
21	0xbcffb813	-0.031215703
22	0x3e206e38	0.15667045
23	0x3e42d31b	0.19025843
24	0x3dd1a197	0.10235899
25	0xbe2ac222	-0.16675618
26	0x3e2a5a3c	0.16635984
27	0x3da8ab6d	0.08235822
28	0xbdf2c3a1	-0.118537195
29	0xbdab5ef8	-0.08367723
30	0x3db079d9	0.086169906
31	0xbd0c1890	-0.034203112
32	0x01d4947b	7.808956e-38
33	0x81aeec18	-6.4256283e-38
34	0x81e939f6	-8.567385e-38
35	0x0137a0a1	3.3727037e-38
36	0x81b5395e	-6.6571217e-38
37	0x80e81f18	-2.131699e-38
38	0x81ce8a90	-7.5871276e-38
39	0x01b4f867	6.6477997e-38
40	0x81c434ed	-7.2074974e-38
41	0x01c29fc2	7.1493586e-38
42	0x01ff18e8	9.3707945e-38
43	0x0027101e	3.587366e-39
44	0x01ffc8ca	9.3960324e-38
45	0x01fc2520	9.262345e-38
46	0x8205c54b	-9.827917e-38
47	0x80fa41e8	-2.2982517e-38
48	0x01cb9933	7.4790253e-38
49	0x020e5b6d	1.045875e-37
50	0x81cbac2f	-7.4817494e-38
51	0x81c01d36	-7.0571577e-38
52	0x00529e68	7.587336e-39
53	0x018ea538	5.239964e-38
54	0x81a0de88	-5.9094034e-38
55	0x02155f51	1.0974146e-37
56	0x01d14b8b	7.6882874e-38
57	0x818a3597	-5.077009e-38
58	0x018f6522	5.267502e-38
59	0x81981220	-5.586199e-38
60	0x81416bd8	-3.5525876e-38
61	0x81c0d292	-7.0831815e-38
62	0x81be34ee	-6.987093e-38
63	0x01c2587a	7.13913e-38
64	0xbd08828a	-0.033327617
65	0xbccc0dcc	-0.024908923
66	0xbcc05ef3	-0.023482775
67	0xbde186c5	-0.110120334
68	0xbd113001	-0.03544617
69	0x3c49a286	0.012306815
70	0x3c96839b	0.018373301
71	0xbc7a29a9	-0.015268722
72	0x3c807203	0.015679365
73	0xbd44da8f	-0.048059996
74	0x3d830575	0.06397525
75	0xbd6d1c36	-0.057888232
76	0xbc3fcabf	-0.011706053
77	0xbca4536f	-0.020059315
78	0x3d48928c	0.048967883
79	0x3cbbfa79	0.022946583
80	0xbcd4c51f	-0.0259729
81	0xbaaf7a6a	-0.0013387923
82	0xbd63cc7e	-0.05561494
83	0x3d1f856c	0.0389456
84	0x3c5d6088	0.013511784
85	0xbc0fd919	-0.008779787
86	0xbb9695d1	-0.004595496
87	0xbd3106b3	-0.04321928
88	0x3d384bd4	0.04499419
89	0xbcc3ceb4	-0.023902275
90	0xbb4e68d5	-0.003149559
91	0xbacad597	-0.0015475032
92	0x3c4f374a	0.012647459
93	0x3d753026	0.05986037
94	0x3ce4da10	0.027936012
95	0x3ccd4c61	0.025060834
96	0x3d977bcf	0.073966615
97	0xbd811054	-0.063019425
98	0x3d0ba55b	0.034093242
99	0xbdd59ef2	-0.10430707
100	0x3dceadeb	0.10091766
101	0x3d86e621	0.06586862
102	0x3cc755af	0.02433285
103	0x3cee048a	0.029054899
104	0xbcb666bd	-0.022265786
105	0xbcfec075	-0.03109763
106	0xbd5c1326	-0.0537292
107	0x3cbc21f5	0.02296541
108	0xbda1ec4b	-0.079063974
109	0x3d6da977	0.058022942
110	0xbd952e44	-0.07284215
111	0xbd4cf37b	-0.05003689
112	0xbaca0707	-0.0015413471
113	0x3d978511	0.07398427
114	0xbd090532	-0.03345222
115	0x3cce2fff	0.02516937
116	0xbd27bafc	-0.040949807
117	0xbcc9cc50	-0.024633557
118	0xba0cfc9b	-0.00053782173
119	0x3d2f7131	0.042832557
120	0x3dd86ab8	0.1056723
121	0xbd06f4bc	-0.03294824
122	0x3cf221b5	0.029557088
123	0xbb855d27	-0.0040699425
124	0x3d457dfc	0.04821585
125	0x3d048023	0.032348763
126	0x3d73b566	0.059499167
127	0xbc7822a0	-0.015144974
128	0xbdcaac58	-0.09896153
129	0x3d3107f2	0.043220468
130	0x3db5e344	0.08881238
131	0x3e27e8a7	0.16397344
132	0x3e1d9ca7	0.1539179
133	0xbd89687b	-0.06709381
134	0x3dc8a6ad	0.09797416
135	0xbbe95f6b	-0.0071219704
136	0x3e0f9e78	0.14025295
137	0x3d8d84e1	0.0691011
138	0xbe2e0b8f	-0.16996597
139	0x3ca1f221	0.019768776
140	0xbd80d06a	-0.06289752
141	0x3d5c5edf	0.053801414
142	0xbd9bd966	-0.07609825
143	0x3d9bbeb0	0.0760473
144	0xbd3db6f9	-0.046317074
145	0xbe300168	-0.17188036
146	0xbc0ec051	-0.008712844
147	0x3cd7fb39	0.02636491
148	0x3db8645b	0.09003516
149	0xbe1ec6bf	-0.15505503
150	0xbd319ff8	-0.04336545
151	0xbdc784f5	-0.097421564
152	0xbd5cb7ad	-0.053886104
153	0xbde0cf3a	-0.10977025
154	0x3da57f75	0.08080951
155	0xbd806761	-0.06269718
156	0xbd5bf772	-0.05370278
157	0x3dfb11f5	0.122592844
158	0x3e0a8800	0.13528442
159	0xbd807285	-0.06271843
160	0xbdbb3ee8	-0.09142858
161	0xbd3b4550	-0.0457204
162	0xbd11607e	-0.035492413
163	0xbdd03f55	-0.101683296
164	0xbdb39ac6	-0.08769755
165	0x3da7d7df	0.08195471
166	0x3d8d488b	0.06898602
167	0x3cfe7db0	0.031065792
168	0xbc51a324	-0.012795243
169	0xbe12bb15	-0.14329179
170	0xbd1a99f6	-0.037744485
171	0x3d905fdf	0.07049536
172	0x3e09ac56	0.13444647
173	0x3d262b22	0.04056848
174	0xbd86f4af	-0.065896384
175	0xbc81dd45	-0.01585258
176	0xbdea6b4d	-0.11446247
177	0xbe21cbfc	-0.1580047
178	0xbdd83375	-0.1055669
179	0xbe1c9451	-0.15290953
180	0xbd4cb50a	-0.04997734
181	0xbd83bf37	-0.06432956
182	0x3e048612	0.12941769
183	0x3df57bc8	0.119865
184	0xbd93f6cd	-0.07224808
185	0x3b5129f9	0.0031915887
186	0x3db20366	0.086920545
187	0x3e181fc9	0.14855875
188	0x3d46dcff	0.048550602
189	0xbd92bbb6	-0.07164709
190	0x3dc027d5	0.09382597
191	0x3d7e21aa	0.062043823
192	0x3d5de060	0.05416906
193	0xbb596f70	-0.0033177994
194	0x3d4def3d	0.050276984
195	0xbe006b94	-0.12541038
196	0x3cd1709d	0.025566394
197	0x3d352305	0.04422285
198	0x3d8982aa	0.06714375
199	0xbdcfea3f	-0.10152101
200	0xbbf82f25	-0.0075739794
201	0xbdb31bfb	-0.08745571
202	0x3db68e60	0.089138746
203	0xbe0f309e	-0.1398339
204	0x3d35c578	0.044377774
205	0xbda55874	-0.08073512
206	0x3d96db35	0.07366029
207	0x3c8fa613	0.017535245
208	0xbd034bc8	-0.032054693
209	0x3de627ca	0.11238058
210	0x3d89412d	0.067018844
211	0x3d8900ac	0.06689581
212	0xbd44f30e	-0.048083358
213	0x3cc319f9	0.023816096
214	0x3c2e38ea	0.010633687
215	0xbd716f96	-0.058944307
216	0xbc4f0281	-0.012634874
217	0x3daea20d	0.085270025
218	0xbd7d4442	-0.061832674
219	0x3d9e7eeb	0.077390514
220	0x3d8cae76	0.06869213
221	0xbc4eef6f	-0.012630328
222	0xbd0c299b	-0.034219366
223	0x3d60e973	0.054910135
224	0x3d43b6de	0.047781818
225	0x3c8e8022	0.017395083
226	0x3dc44501	0.09583474
227	0x3d1204d9	0.035649154
228	0xbe11b893	-0.14230566
229	0xbdd7eb69	-0.10542948
230	0xbc224665	-0.009904479
231	0x3d7aa80e	0.061195426
232	0xbc9e2443	-0.0193044
233	0x3e08e34c	0.13367957
234	0x3da464c8	0.08027035
235	0x3dc73c3b	0.09728285
236	0x3d30ca5e	0.043161742
237	0x3e1bd3dc	0.15217537
238	0xbe211115	-0.15729173
239	0x3d88a493	0.06672015
240	0xbdb9d9ad	-0.090747215
241	0xbd4ca8fc	-0.049965844
242	0x3e0d330a	0.13789001
243	0xbe064e58	-0.13115823
244	0x3cd37670	0.025813311
245	0xbdf8dca7	-0.12151461
246	0x3d6542cd	0.05597191
247	0x3a5ced2b	0.0008427675
248	0x3de11fe0	0.10992408
249	0xbd00835e	-0.03137528
250	0x3e201a15	0.1563495
251	0xbde8f846	-0.113754794
252	0x3ddeb8a5	0.10875062
253	0x3d132f57	0.03593382
254	0x3d29b062	0.041427977
255	0x3c8848f3	0.016636347

MLP.8.bias f4 [32]
0	0xbcaf4411	-0.021394761
1	0x81e02ebb	-8.235166e-38
2	0x3c839ed2	0.016066942
3	0xbd83d70e	-0.06437503
4	0xbd56308c	-0.05229239
5	0xbd7ca230	-0.06167811
6	0x3db6bfbe	0.08923291
7	0x3dbe0098	0.09277457
8	0xbdb7ee17	-0.08980959
9	0x3dcacdce	0.099025354
10	0x3d3312b2	0.043719
11	0xbd57fa7d	-0.05272912
12	0x3d8184da	0.063241675
13	0x3d1a8d0e	0.037732176
14	0x8294c089	-2.1857155e-37
15	0xbe0c10b4	-0.13678247
16	0xbdc6d9dc	-0.09709522
17	0xbd1f8123	-0.038941514
18	0x3db93663	0.090435766
19	0xbc261fa4	-0.01013938
20	0xbdb3c727	-0.0877822
21	0xbe032965	-0.1280876
22	0xbc2d1866	-0.010564899
23	0x3e0733d7	0.13203369
24	0xbba74cd5	-0.0051055946
25	0xbdcdbc1d	-0.100456454
26	0x3e0547ca	0.13015667
27	0x3c156928	0.0091193095
28	0xbcc3753b	-0.02385961
29	0xbd977411	-0.07395185
30	0x3c85b74e	0.016322758
31	0x3c3471ea	0.011013487

MLP.10.weight f4 [32, 32]
0	0xbd65c46b	-0.056095522
1	0x8184d81a	-4.879923e-38
2	0xbd763bf4	-0.06011577
3	0x3db8fa4c	0.09032115
4	0xbe1592fd	-0.14606853
5	0x3e03a2ad	0.12855025
6	0x3d6937ff	0.056938168
7	0xbd356982	-0.044290073
8	0xbd7a0010	-0.061035216
9	0xbe0a8286	-0.13526353
10	0x3cf1ed1b	0.029532006
11	0xbb8238a1	-0.003974036
12	0xbe06ec29	-0.13176025
13	0x3d3aa004	0.04556276
14	0x829239fb	-2.148605e-37
15	0xbd303d75	-0.04302736
16	0x3de1e19a	0.11029358
17	0xbd147953	-0.036248516
18	0x3c78aa90	0.015177384
19	0xbdcc3989	-0.099719115
20	0x3cfa8e9a	0.030585576
21	0x3dcf5824	0.10124233
22	0xbb96acb2	-0.0045982236
23	0x3d8512c2	0.064977184
24	0xbd6d982f	-0.05800646
25	0x3dbdb52e	0.09263073
26	0xbdfb8407	-0.122810416
27	0x3d662566	0.05618801
28	0x3e0619b0	0.13095737
29	0x3cab4b4e	0.020909932
30	0xbc73dbc8	-0.014883943
31	0x3d6ec9ed	0.05829804
32	0xbda52d0b	-0.08065232
33	0x81d4ebbe	-7.8214774e-38
34	0xbc0b7db0	-0.008513853
35	0x3dcaf423	0.09909847
36	0xbdd4e1f7	-0.10394662
37	0x3b44823e	0.0029984857
38	0xbd180d09	-0.037121806
39	0xbc98c648	-0.018649235
40	0x3d846767	0.06465035
41	0xbd32fcdc	-0.043698177
42	0x3c44297f	0.011972784
43	0xbd3739b6	-0.04473277
44	0xbdec4f24	-0.115385324
45	0xbb3bb010	-0.0028638877
46	0x02a2486d	2.384533e-37
47	0xbd827d7c	-0.063715905
48	0x3c0597cb	0.008153866
49	0x3d320630	0.043462932
50	0xbc891fad	-0.016738737
51	0xbd7cfdcc	-0.061765477
52	0x3e017cdb	0.12645285
53	0x3df2f429	0.11862976
54	0xbe17d464	-0.14827114
55	0xbd6a4cd4	-0.057202175
56	0x3d81e30b	0.06342133
57	0x3e04d320	0.12971163
58	0xbd9e851e	-0.07740234
59	0x3c0add19	0.008475565
60	0x3c98f124	0.018669672
61	0x3d3ce898	0.046120256
62	0xbd737215	-0.05943497
63	0x3dbe20ed	0.09283624
64	0x3e2290ea	0.15875593
65	0x003b2ddb	5.434744e-39
66	0xbb1f8efd	-0.0024346702
67	0xbbbf390f	-0.0058356593
68	0x3dd850c4	0.1056228
69	0x3dd3c71d	0.10340712
70	0xbd37a5f8	-0.044836015
71	0x3d70c74c	0.058783814
72	0x3d28b447	0.04118755
73	0x3c839e68	0.016066745
74	0x3c6e7d42	0.014556231
75	0xbd7cbe0c	-0.06170468
76	0x3d719857	0.058983173
77	0xbc01b511	-0.007916705
78	0x02919282	2.1389926e-37
79	0x3d815553	0.063151024
80	0x3d90b766	0.070662305
81	0x3d8c3a9b	0.068471156
82	0x3d1d4c69	0.03840295
83	0x3c606c86	0.013697749
84	0x3d180cd8	0.037121624
85	0x3bb54d8a	0.005532925
86	0xbda87095	-0.08224598
87	0x3c3c85e7	0.011506534
88	0xbd8e1d9e	-0.06939243
89	0x3d0490f9	0.03236482
90	0x3d3e1059	0.04640231
91	0x3cda882d	0.026676262
92	0xbd2e05e7	-0.042486098
93	0x3cb58655	0.022158781
94	0x3bba079b	0.005677176
95	0x3d9b5827	0.07585173
96	0x3d907def	0.0705527
97	0x01b1a27f	6.52527e-38
98	0xbc83b935	-0.016079525
99	0x3cc0bb18	0.023526713
100	0xbe308830	-0.17239451
101	0xbe1e2871	-0.15445115
102	0xbccac1cd	-0.024750615
103	0x3dd881fb	0.10571667
104	0xbd75d373	-0.060016107
105	0x3e03ec0a	0.1288301
106	0xbcb1f8a8	-0.021725014
107	0x3c27ff13	0.0102536855
108	0x3e179008	0.14801037
109	0xbc529f2d	-0.012855333
110	0x82a3c016	-2.406095e-37
111	0xbb4d1a36	-0.003129614
112	0xbe08c09a	-0.13354722
113	0x3d136fc0	0.035995245
114	0xbde40c6a	-0.1113518
115	0x3d676edd	0.05650221
116	0x3c2814c4	0.010258857
117	0xbd0a1887	-0.033714797
118	0x3cf7330b	0.030175706
119	0x3c929890	0.017895013
120	0x3dbcce64	0.092190534
121	0x3d0a8cc0	0.033825636
122	0xbd81c827	-0.06337004
123	0xbd8364a0	-0.06415677
124	0xbcfab8db	-0.030605724
125	0x3db6e81e	0.089309916
126	0x3ba04e8b	0.0048921756
127	0xbde8af48	-0.11361557
128	0x3dabe3fb	0.08393093
129	0x81b68c56	-6.7057613e-38
130	0x3d6274fb	0.055287343
131	0x3dbefc86	0.09325509
132	0xbe13bdd0	-0.14427876
133	0xbde83894	-0.113389164
134	0x3d8665a5	0.06562356
135	0x3db020e9	0.08600027
136	0x3cca24f9	0.024675833
137	0x3e1a1825	0.15048273
138	0x3d6813df	0.056659576
139	0xbc116902	-0.0088751335
140	0x3e41fc26	0.18943843
141	0x3be82ded	0.007085553
142	0x029b3f8c	2.2811677e-37
143	0x3d84a7b5	0.064773
144	0xbcda8c14	-0.026678123
145	0x3e1a5127	0.1507002
146	0x3dc6dcd3	0.097100876
147	0x3c9b1b51	0.018933924
148	0xbd8650cc	-0.065583795
149	0x3d4c57b0	0.049888313
150	0x3dba2146	0.09088378
151	0x3c1de6f8	0.009637587
152	0x3e1e5cb6	0.15465054
153	0xbd9b4d5f	-0.07583117
154	0xbd2ab76a	-0.041678824
155	0x3d58d0b9	0.05293343
156	0x3dba692e	0.09102093
157	0x3def3bed	0.11681352
158	0x3da41fc6	0.08013873
159	0x3dfcddd2	0.12346996
160	0x3e23bc70	0.15989852
161	0x8195ccad	-5.502765e-38
162	0x3dac5952	0.08415474
163	0x3de584e0	0.112069845
164	0xbde14fd6	-0.110015556
165	0xbd12d9e3	-0.035852324
166	0x3d070cca	0.03297118
167	0x3dd711a3	0.10501411
168	0xbd80b40a	-0.0628434
169	0xbdaa90ae	-0.08328377
170	0x3b016ad0	0.0019747503
171	0xbd1da01c	-0.03848277
172	0xbdb86bda	-0.09004946
173	0xbd013fe9	-0.03155509
174	0x829014c4	-2.1170817e-37
175	0x3b7f61e4	0.003896826
176	0xbdf0bb6e	-0.117544994
177	0x3e7b559a	0.24544373
178	0x3c7a473b	0.015275772
179	0x3d6dca54	0.058054283
180	0x3dc80a2d	0.09767566
181	0xbe51cd4a	-0.20488468
182	0xbe054a30	-0.13016582
183	0xbd2efd16	-0.04272183
184	0xbda67ab4	-0.081288725
185	0x3c45321f	0.012035876
186	0x3b734c86	0.003712447
187	0x39e9b16d	0.00044573416
188	0x3d79dd20	0.061001897
189	0xbe246e97	-0.16057812
190	0x3bb373f3	0.0054764687
191	0x3dfd17bb	0.12358042
192	0x3e04f16a	0.12982717
193	0x01a4e42c	6.0571496e-38
194	0x3d19bcc5	0.03753354
195	0xbd4b3338	-0.049609393
196	0xbc5c3fad	-0.013442916
197	0xbe371e91	-0.17882754
198	0x3dae6375	0.08515064
199	0x3dc43068	0.09579545
200	0xbc0e97f8	-0.008703224
201	0xbd499747	-0.049216535
202	0x3d840d5b	0.0644786
203	0x3d909c48	0.07061058
204	0xbce7e9f9	-0.028309809
205	0x3d9fd1b4	0.078036696
206	0x028717dd	1.9850164e-37
207	0x3d270e5c	0.04078518
208	0xbda7766c	-0.08176884
209	0xbe4eb565	-0.20186384
210	0x3e1ea3d2	0.1549218
211	0x3d0ce168	0.03439465
212	0xbd9eb77c	-0.077498406
213	0x3d45acb9	0.048260424
214	0xbdba4d0c	-0.09096727
215	0x3d81dcbc	0.0634093
216	0xbd6f32de	-0.05839812
217	0xbdde731e	-0.108618006
218	0x3d68fd90	0.05688244
219	0x3c46b5d6	0.012128314
220	0xbdb8a2ef	-0.09015452
221	0xbd0914b9	-0.03346703
222	0x3db57ab4	0.088612944
223	0xbdc3aac6	-0.09554057
224	0x3dfa0229	0.12207443
225	0x01b317f1	6.578857e-38
226	0x3aba895b	0.0014231609
227	0xbc44e49d	-0.012017396
228	0xbe210048	-0.15722764
229	0xbd369ff9	-0.044586156
230	0xbcfd7ecb	-0.030944249
231	0xbe034b9a	-0.12821808
232	0x3bcd8328	0.0062717386
233	0xbe0cd9b1	-0.13754918
234	0xbc0edbc1	-0.008719386
235	0x3d49ef4a	0.04930047
236	0xbcbb3e5c	-0.022856884
237	0xbbe533b1	-0.0069946875
238	0x02940aaf	2.1752778e-37
239	0x3d57a95c	0.052651748
240	0x3df306ff	0.11866569
241	0xbd9b3aa4	-0.07579544
242	0xbda8bddf	-0.0823934
243	0x3ce95562	0.028483097
244	0xbd441874	-0.047874883
245	0x3ce9ad6d	0.028525079
246	0xbe17f77c	-0.14840502
247	0x3e070474	0.13185292
248	0x3de673f0	0.11252582
249	0x3dc6d770	0.0970906
250	0x3d919d06	0.07110028
251	0xbbf552d8	-0.0074866824
252	0x3dd8b853	0.10582032
253	0x3d05385f	0.032524463
254	0x3d58d815	0.052940447
255	0xbd17d9ef	-0.037073072

MLP.10.bias f4 [32]
0	0xbc7ac4d0	-0.015305713
1	0x3db44a8e	0.08803283
2	0x3c7203fc	0.014771458
3	0x3cc41d2c	0.023939691
4	0xbe1df496	-0.15425333
5	0xbca9d808	-0.020732895
6	0xbe0f8a76	-0.14017662
7	0xbbe5f9dc	-0.007018311
8	0xbe086bd9	-0.1332239
9	0xbdf1541b	-0.1178362
10	0xbd044c6d	-0.032299448
11	0xb9837517	-0.00025073506
12	0x3d30db92	0.04317815
13	0x3df2fcfa	0.11864658
14	0xbd1c346b	-0.038135927
15	0xbc46156d	-0.012090069
16	0x3d3420d7	0.04397663
17	0xbbe7e842	-0.007077248
18	0x3d281e61	0.041044597
19	0xbdfd429b	-0.123662196
20	0x3dfea71f	0.124342196
21	0x3d1a3bdf	0.037654754
22	0xbd2195e0	-0.039449573
23	0xbce62d66	-0.02809782
24	0x3d32e52f	0.043675598
25	0xbd0158e8	-0.03157893
26	0xbc4dca95	-0.012560506
27	0x3e18a991	0.14908434
28	0xbe0e6c93	-0.13908605
29	0x3e21223b	0.15735714
30	0xbdf618ad	-0.12016425
31	0x3d304f33	0.04304428

MLP.11.weight f4 [32]
0	0x3f6783e4	0.90435624
1	0x3f6b7838	0.91980314
2	0x3f61e102	0.8823396
3	0x3f5b70e6	0.85719144
4	0x3f6916fd	0.910507
5	0x3f5ca7d9	0.86193615
6	0x3f4d7dc8	0.8027005
7	0x3f3d8f9b	0.7404725
8	0x3f3d3669	0.7391115
9	0x3f59f18c	0.85134196
10	0x3f6d9be6	0.9281601
11	0x3f3079d7	0.6893591
12	0x3f286989	0.65786034
13	0x3f4cd6bb	0.8001515
14	0x3f5b5357	0.8567404
15	0x3f5b8459	0.8574882
16	0x3f5dc065	0.86621696
17	0x3f69e526	0.9136528
18	0x3f4f5847	0.80994076
19	0x3f633ad5	0.88761646
20	0x3f6dddd7	0.92916626
21	0x3f266cf9	0.6501003
22	0x3f6b2653	0.91855353
23	0x3f60b7b8	0.8778033
24	0x3f5daf20	0.86595345
25	0x3f588709	0.8458105
26	0x3f43f586	0.76546514
27	0x3f618328	0.88090754
28	0x3f2df882	0.6795732
29	0x3f6b24db	0.9185311
30	0x3f5aae11	0.85421854
31	0x3f5d516a	0.86452353

MLP.11.bias f4 [32]
0	0xba848c2c	-0.0010112575
1	0x3aa87487	0.0012852111
2	0xbbf0fab8	-0.0073541068
3	0xbb03bd9f	-0.0020102037
4	0x3c12a47b	0.008950348
5	0xbc179d15	-0.00925376
6	0x3b652c03	0.003496886
7	0x3b82bad7	0.003989558
8	0x3c3b00f7	0.011413804
9	0x3c38ec75	0.0112868445
10	0xbc03da31	-0.008047626
11	0x3ad68cb5	0.0016368838
12	0x3b29aa17	0.0025888735
13	0x3c0f6107	0.00875116
14	0xbc80f33c	-0.015740983
15	0x3ba14e3b	0.004922656
16	0x3ba02ae1	0.004887924
17	0x388e8af9	6.796973e-05
18	0xbb3cd3ce	-0.002881277
19	0x3a0830ae	0.0005195242
20	0x3a56f409	0.0008199816
21	0xbb7d783d	-0.0038676404
22	0x3cad1042	0.021125916
23	0x3b932c5b	0.0044913716
24	0x39dadf6f	0.0004174667
25	0x3b5701cd	0.003280747
26	0xb98445a3	-0.00025228885
27	0xbba2cfd4	-0.0049686227
28	0x3c05bd9d	0.008162883
29	0x3c2c182c	0.01050381
30	0x3cceac17	0.025228543
31	0x3a68db49	0.00088827737

MLP.13.weight f4 [4, 32]
0	0x3ddfd64c	0.10929546
1	0xbdfe70c6	-0.124238536
2	0xbd0ef504	-0.034901634
3	0xbd0d860d	-0.03455167
4	0xbdb1820e	-0.08667384
5	0x3d9f4f4a	0.07778795
6	0xbdc20b8e	-0.0947486
7	0xbdc89668	-0.09794313
8	0xbd93ada8	-0.07210857
9	0xbe2027af	-0.15640138
10	0x3e06495f	0.13113926
11	0x3dcf2e43	0.101162456
12	0x3d7194fd	0.058979977
13	0x3cf33055	0.029686132
14	0x3e04fd0d	0.12987156
15	0xbce34092	-0.02774075
16	0x3e0389fa	0.12845603
17	0xbd6ccceb	-0.057812613
18	0x3d56065b	0.052252155
19	0xbd0b7a02	-0.034051903
20	0x3b0d37cc	0.002154815
21	0x3db17a4c	0.086659044
22	0xbc910508	-0.017702594
23	0xbe12c8d0	-0.14334416
24	0xbd3ede33	-0.046598624
25	0xbd009b73	-0.031398248
26	0xbd4f62cd	-0.050631333
27	0x3dd54b0c	0.10414705
28	0xbd546592	-0.051854677
29	0xbda38922	-0.079851404
30	0xbd22e973	-0.039773416
31	0x3da4c3cb	0.08045157
32	0xbdcf9c00	-0.101371765
33	0xbd8427c7	-0.064528994
34	0xbd9fe73c	-0.07807776
35	0xbc32ddf9	-0.01091718
36	0xbd64a816	-0.05582436
37	0x3e0271da	0.12738743
38	0xbd792d9e	-0.06083452
39	0x3bda38c3	0.0066595986
40	0xbd676367	-0.05649128
41	0xbd8de4ce	-0.06928407
42	0x3ba3f245	0.005003246
43	0x3b4d241b	0.0031302038
44	0x3bcc4977	0.0062343436
45	0x3d1540f0	0.036438882
46	0xbd582578	-0.052770108
47	0xbd533a61	-0.051569346
48	0x3ddb2b57	0.10701626
49	0x3da083aa	0.07837613
50	0x3cd73753	0.026271498
51	0x3e11642a	0.14198366
52	0xbbec1992	-0.0072051967
53	0x3bcdc395	0.0062794187
54	0xbce922fa	-0.028459061
55	0x3d2fc397	0.04291114
56	0xbce95b52	-0.028485928
57	0x3d56ad24	0.052411214
58	0xbd1ca907	-0.038247135
59	0xbdd3efc5	-0.10348467
60	0x3c91f178	0.017815337
61	0xbd78d4ec	-0.060749933
62	0xbd65fe63	-0.056150805
63	0xbcfb1710	-0.030650645
64	0x3d9a7083	0.07540991
65	0x3e01f478	0.12690914
66	0x3d9de209	0.077091284
67	0xbda47d2c	-0.08031687
68	0x3dad8b49	0.08473832
69	0x3d89898a	0.067156866
70	0xbd0ab0a3	-0.03385986
71	0xbd4b8897	-0.04969081
72	0xbbb6ebd3	-0.0055823117
73	0x3a90b333	0.0011039734
74	0xbded5f91	-0.115904935
75	0x3cd24525	0.025667736
76	0xbdc742db	-0.097295485
77	0xbd983257	-0.074314766
78	0x3d59920e	0.053117804
79	0x3d86ce43	0.0658231
80	0xbc106688	-0.008813508
81	0x3de994c3	0.11405327
82	0x3d8161dd	0.06317494
83	0xbdf6cb8a	-0.12050541
84	0x3e057e78	0.13036525
85	0x3c4b5b5d	0.012411919
86	0xbe01dc41	-0.12681676
87	0x3dec0a9b	0.1152546
88	0x3dbb1a85	0.091359176
89	0xbcfb1e2e	-0.03065404
90	0x3c926b54	0.017873444
91	0x3d822218	0.06354159
92	0xbcadd91f	-0.021221695
93	0x3dfb76c6	0.122785136
94	0xbdbbaea8	-0.091641724
95	0xbdb7bfbf	-0.089721195
96	0xbd389341	-0.045062307
97	0xbcdcbd80	-0.02694583
98	0x3c0909df	0.00836417
99	0x3cafafd3	0.021446144
100	0xbc14707a	-0.00906002
101	0xbd0ac0c6	-0.03387525
102	0xbaf88787	-0.0018961289
103	0x3cb26385	0.02177597
104	0xbc48aa16	-0.012247583
105	0xbd879295	-0.06619755
106	0xbc6df6fe	-0.01452422
107	0x3c51b7ae	0.01280014
108	0xbd0c170f	-0.034201678
109	0x3becaa1a	0.007222426
110	0xbbecbb7c	-0.0072244983
111	0xbca670c6	-0.020317446
112	0xbb882033	-0.004154229
113	0x3c57bce8	0.013167597
114	0xbd0a22c8	-0.033724576
115	0xbc045949	-0.008077928
116	0x3be35ea3	0.006938772
117	0x3d3b247d	0.045689095
118	0x3cab886d	0.020939076
119	0x3d04c1c3	0.032411348
120	0x3d39a7d1	0.045326058
121	0xbd8fc830	-0.070206046
122	0x3d9bfc91	0.076165326
123	0xbbd1f727	-0.0064076367
124	0x3d93eeb6	0.07223265
125	0x3aee15b3	0.0018164426
126	0xbd503620	-0.050832868
127	0x3d3a4c82	0.04548312

MLP.13.bias f4 [4]
0	0xbd5e5978	-0.054284543
1	0x3db66155	0.08905283
2	0xbe27429b	-0.16334002
3	0x3ae2f55b	0.0017315553
