example/model/polygon_robot/model_500.pth (torch, 24588 bytes, 18 tensors)

MLP.0.weight f4 [32, 2]
0	0x3eb7d624	0.35905564
1	0xbe714d16	-0.23564562
2	0x3de8c48c	0.11365613
3	0xbf18bd54	-0.5966389
4	0xbf41924a	-0.75613844
5	0x3efa875c	0.48931396
6	0xbef5d8c8	-0.48016953
7	0x3ebb782f	0.3661513
8	0x3eb0b2db	0.34511456
9	0xbed13278	-0.40858817
10	0xbf28c923	-0.6593191
11	0xbef16dde	-0.47154135
12	0xbe8141d7	-0.25245544
13	0xbed62501	-0.41825107
14	0x3f23c0ab	0.63965863
15	0xbef448fa	-0.47711927
16	0x3eb754ba	0.3580683
17	0xbe2fe439	-0.17176904
18	0xbd0fbecf	-0.03509408
19	0xbf238385	-0.6387256
20	0x3ee9a10b	0.4563068
21	0x3eb9acc7	0.3626463
22	0x3f1228f7	0.5709376
23	0xbdb70119	-0.08935756
24	0xbecdf741	-0.40227702
25	0x3e0b4288	0.13599598
26	0x3d6611f6	0.056169473
27	0xbef28349	-0.47365788
28	0x3ece929b	0.40346226
29	0xbe7e939d	-0.24860997
30	0x3f162019	0.5864273
31	0x3eec7930	0.4618621
32	0xbf328d7c	-0.6974714
33	0xbefdc61c	-0.49565208
34	0x3ebef882	0.3729897
35	0xbf2e43c2	-0.6807214
36	0x3eec6054	0.46167243
37	0xbf111a6b	-0.56680936
38	0xbce70fa4	-0.0282057
39	0xbddc2c5f	-0.107506506
40	0xbd16b70c	-0.03679566
41	0x3e92ec69	0.28695992
42	0x3ec79392	0.38979775
43	0x3d2f9442	0.042866
44	0x3e60c65c	0.21950668
45	0x3e50fd8e	0.20409223
46	0x3db86fbb	0.09005686
47	0x3e93ba05	0.2885286
48	0x3e11e69e	0.1424813
49	0x3eddf5cb	0.43351588
50	0xbdcdb72a	-0.100447014
51	0x3e97ceb8	0.296499
52	0xbd47adbe	-0.048749678
53	0xbf202c0c	-0.6256721
54	0x3c18774b	0.009305785
55	0xbd7e2956	-0.06205114
56	0xbe2b5711	-0.16732432
57	0xbe612199	-0.21985473
58	0x3e14bb0b	0.14524476
59	0x3e3c2996	0.18375239
60	0x3f2cf542	0.67561734
61	0xbeef740d	-0.46768227
62	0xbd06cf57	-0.03291258
63	0x3d92bbf1	0.07164753

MLP.0.bias f4 [32]
0	0x3e46b349	0.1940433
1	0x3f5042b9	0.8135181
2	0x3dcc993a	0.09990163
3	0x3ea5dcf2	0.3239513
4	0x3f013a22	0.5047933
5	0x3eee51f2	0.46546894
6	0x3ece5f6b	0.40307173
7	0x3e8aa590	0.2707944
8	0x3edd4e8d	0.43223992
9	0x3e088133	0.13330536
10	0xbe6baba9	-0.23014702
11	0xbe4f1d9c	-0.20226139
12	0x3f12b480	0.5730667
13	0xbeac03af	-0.3359656
14	0x3d90a9c3	0.070636295
15	0x3ee4561d	0.4459695
16	0xbed8aae8	-0.4231789
17	0x3e7e8f6a	0.24859396
18	0xbef34618	-0.47514415
19	0xbe8b1356	-0.2716319
20	0xbe5b8324	-0.21436745
21	0x3f053696	0.52036417
22	0x3eda6595	0.42655626
23	0x3e39f6cd	0.18160553
24	0x3f22e1c3	0.63625735
25	0xbf0d12b2	-0.5510665
26	0x3e9fa915	0.31183687
27	0x3eef6315	0.4675528
28	0xbe80da2a	-0.25166446
29	0xbea63a59	-0.3246639
30	0x3e5f9b88	0.21836674
31	0xbecb9019	-0.39758375

MLP.1.weight f4 [32]
0	0x3f76fc22	0.96478474
1	0x3f7dfcf8	0.99214125
2	0x3f5b8915	0.85756046
3	0x3f7428b4	0.9537461
4	0x3f6e645b	0.9312188
5	0x3f695512	0.9114543
6	0x3f6e19f1	0.93008333
7	0x3f64de61	0.89401823
8	0x3f75537c	0.9583051
9	0x3f737a5f	0.951086
10	0x3f71ffab	0.94530743
11	0x3f80ae78	1.0053244
12	0x3f763f5a	0.96190417
13	0x3f7dd6cc	0.9915588
14	0x3f76d5dc	0.96420074
15	0x3f84f64e	1.0387666
16	0x3f672db4	0.9030411
17	0x3f7b400b	0.98144597
18	0x3f6f57b8	0.93493223
19	0x3f75ea0d	0.9606026
20	0x3f7976fb	0.97447175
21	0x3f7ba588	0.98299456
22	0x3f7ceb4f	0.9879655
23	0x3f79fd83	0.97652453
24	0x3f706fa7	0.9392037
25	0x3f784b38	0.96989775
26	0x3f7728d9	0.96546704
27	0x3f77c35a	0.9678246
28	0x3f78774a	0.9705702
29	0x3f7b57a0	0.9818058
30	0x3f7087a3	0.93956965
31	0x3f7cc3cf	0.9873628

MLP.1.bias f4 [32]
0	0x3b5cc5d3	0.0033687248
1	0xbc967118	-0.018364474
2	0xbd459b3c	-0.048243746
3	0xbcb459fa	-0.02201556
4	0xbc168482	-0.009186866
5	0x3cb13f31	0.021636577
6	0xbcfa97e9	-0.030590015
7	0xbcf29716	-0.029613059
8	0xbd14416d	-0.036195207
9	0xba693eec	-0.0008897621
10	0x3b9396b9	0.0045040515
11	0x3d26d960	0.04073465
12	0xbc99f765	-0.018794725
13	0xbc16d91d	-0.009207037
14	0x3c0f9476	0.008763423
15	0xbc8b8aff	-0.017034052
16	0xbd308034	-0.043091014
17	0xbb52405e	-0.0032081823
18	0xbc4474e9	-0.011990764
19	0xbc8c4605	-0.017123232
20	0x3d467a9e	0.04845678
21	0xbbd0387a	-0.006354389
22	0x3d087a4f	0.033319768
23	0xbb3f8c8a	-0.0029228055
24	0x3d004ccf	0.03132325
25	0xba4ef278	-0.0007894407
26	0xbb0a40f1	-0.0021095837
27	0xbbd47b69	-0.006484438
28	0xbc8839ac	-0.016629063
29	0xbb0c0573	-0.0021365553
30	0x3d7675c6	0.06017091
31	0xb9dc0db2	-0.00041971874

MLP.3.weight f4 [32, 32]
0	0xbd8bba03	-0.06822588
1	0x3d2c78b2	0.04210729
2	0x3c329203	0.01089907
3	0xbe1cc659	-0.15310039
4	0x3c6b12c7	0.014347739
5	0xbdcc549d	-0.09977076
6	0x3e2be6cb	0.1678726
7	0xbc4d7bba	-0.012541706
8	0x3e05adf6	0.13054642
9	0x3e0db0d9	0.13836993
10	0xbb284615	-0.0025676538
11	0xbded80af	-0.1159681
12	0x3e1f0201	0.15528108
13	0xbd8b9d72	-0.0681714
14	0xbe1beef8	-0.15227878
15	0x3cd1dff2	0.02561948
16	0xbd5d31e4	-0.054002658
17	0xbd57847e	-0.05261659
18	0xbd19147a	-0.037373044
19	0xbd5d44bc	-0.05402063
20	0x3dea177e	0.11430262
21	0x3ded68b7	0.115922384
22	0xbcf1809b	-0.02948027
23	0x3985fd3f	0.0002555642
24	0x3e2a73a9	0.16645683
25	0xbdf50001	-0.11962891
26	0x3e11bd8f	0.14232467
27	0x3e0703c9	0.13185038
28	0xbdd7789b	-0.105210505
29	0xbd853303	-0.0650387
30	0x3cd99481	0.02656007
31	0x3cde8666	0.027163696
32	0x3d3faa02	0.04679299
33	0x3d541d70	0.051785886
34	0xbd217293	-0.039415907
35	0xbd92ee4c	-0.07174358
36	0xbddcac8c	-0.10775098
37	0xbde7f664	-0.11326292
38	0xbe030c44	-0.12797648
39	0xbdea5227	-0.114414506
40	0xbce3f8a7	-0.027828528
41	0xbd355f10	-0.04428011
42	0xbd76d5ee	-0.060262613
43	0x3d683553	0.05669148
44	0xbd90f198	-0.0707733
45	0xbdc1a2e6	-0.094548985
46	0x3d28ed1d	0.041241754
47	0xbd287013	-0.041122507
48	0xbe014b05	-0.12626274
49	0x3db83613	0.08994689
50	0x3d7f49bd	0.06232618
51	0x3cbe82fd	0.02325582
52	0xbe1f7e96	-0.15575632
53	0x3d6a4e14	0.057203367
54	0xbd3e7cd8	-0.04650578
55	0x3e0beeda	0.13665333
56	0x3da3ee7f	0.08004474
57	0x3d7ef572	0.062245794
58	0xbc81cb5c	-0.01584404
59	0x3d1d22c7	0.038363244
60	0x3dbc6c09	0.092002936
61	0xbd91212b	-0.070864044
62	0xbe1a95b4	-0.1509617
63	0x3e0607aa	0.13088861
64	0x3daac96d	0.083392
65	0xbc831950	-0.01600328
66	0xbd2e6d83	-0.042584907
67	0xbc1839b9	-0.009291106
68	0x3db30370	0.0874089
69	0x3e166664	0.14687496
70	0xbe02a3ba	-0.12757769
71	0x3d50efda	0.05100999
72	0xbd8d43bd	-0.06897686
73	0xbde86d73	-0.11349001
74	0x3dc9f7d4	0.098617226
75	0x3c86492f	0.016392319
76	0xbd188e9a	-0.03724537
77	0xbdde20a8	-0.108460724
78	0xbd8ba970	-0.06819427
79	0xbdd20559	-0.10254926
80	0x3cccf4de	0.025019106
81	0xbd177e3d	-0.036985625
82	0x3c9fa4b4	0.019487716
83	0x3d874f3f	0.06606912
84	0xbe264fee	-0.16241428
85	0x3d823199	0.06357116
86	0xbe0a3275	-0.1349581
87	0x3dafadad	0.08578048
88	0x39b8d939	0.00035257058
89	0xbdfab776	-0.12242024
90	0x3e17b673	0.14815693
91	0x3d686f43	0.056746732
92	0x3d038f13	0.032118868
93	0xbe185b0d	-0.14878483
94	0xbdabc097	-0.08386343
95	0xbdbcc6db	-0.09217616
96	0x3e2e85da	0.17043248
97	0x3bc68e0e	0.0060594147
98	0x3dfaddb4	0.12249318
99	0xbe2ba1c5	-0.16760929
100	0xbc8adfbc	-0.016952388
101	0x3de1693d	0.11006401
102	0x3c4cc85d	0.012498942
103	0xbc9de0b4	-0.019272186
104	0xbe0e31bc	-0.1388616
105	0x3db4203f	0.08795213
106	0xbcd8d499	-0.026468562
107	0x3e43b53a	0.19112101
108	0x3dc5d1b8	0.09659141
109	0xbe240e1d	-0.16021009
110	0x3d9bcbc0	0.076072216
111	0xbe45bbde	-0.19309947
112	0xbdb246ac	-0.08704886
113	0x3ba10835	0.0049143084
114	0x3dd0048c	0.10157117
115	0xbcfa3626	-0.030543398
116	0xbe1bff34	-0.15234071
117	0x3e1ad910	0.15121865
118	0x3cef7c06	0.029233944
119	0x3e1a76f9	0.15084447
120	0x3d488c64	0.048962012
121	0x3e075fa6	0.1322008
122	0xbd1931f3	-0.03740115
123	0xbe5c263a	-0.21498957
124	0x3bc75704	0.006083371
125	0x3db6a855	0.089188255
126	0x3e03947e	0.12849614
127	0x3e079e6e	0.1324403
128	0xbe2a60e8	-0.1663853
129	0xbde90d83	-0.1137953
130	0x3b43ce9b	0.0029877785
131	0x3d6c08b7	0.0576255
132	0xbd48997b	-0.048974495
133	0x3a9f0af2	0.0012133999
134	0x3e072599	0.13197936
135	0x3db9ce1f	0.090725176
136	0x3df27c1d	0.11840079
137	0xbce9c26c	-0.02853509
138	0xbe25ed28	-0.16203749
139	0xbd0724e0	-0.03299415
140	0x3d5e83f8	0.054325074
141	0x3b3b291e	0.0028558443
142	0x3db9c31b	0.090704165
143	0xbdd6073b	-0.10450598
144	0x3d4bc0c1	0.04974437
145	0x3dcfa1f7	0.10138314
146	0x3dfd371d	0.12364028
147	0x3e4f17d8	0.2022394
148	0x3e1af775	0.1513346
149	0xbe3f4d98	-0.18681943
150	0x3da1f7b0	0.07908571
151	0xbcf58020	-0.029968321
152	0x3e19b2ce	0.15009615
153	0x3db8ba0c	0.090198606
154	0xbd02fcde	-0.031979434
155	0x3b69cb9c	0.003567434
156	0x3d1dd306	0.038531326
157	0x3d8eed33	0.06978836
158	0x3cf3a32a	0.029740889
159	0x3d8e0a7c	0.069355935
160	0xbe5115c6	-0.20418462
161	0x3d51f18c	0.051255748
162	0x3e257318	0.16157186
163	0xbd08dee3	-0.033415686
164	0xbe3e645b	-0.1859297
165	0x3d87f813	0.06639113
166	0xbcd2cc33	-0.025732135
167	0xbd8f0f87	-0.069853835
168	0xbe1523a2	-0.14564374
169	0xbc8290bd	-0.015938157
170	0x3dc1316c	0.094332546
171	0x3ca3ed4f	0.020010618
172	0xbc53f3cf	-0.0129365465
173	0x3e0c79fe	0.13718411
174	0xbe522541	-0.20522024
175	0x3d8c157c	0.06840035
176	0x3e224e96	0.1585029
177	0xbe12aa05	-0.1432267
178	0xbd33bcb0	-0.04388112
179	0x3e21c65e	0.15798327
180	0xbe3cb20f	-0.18427299
181	0xbd1c151e	-0.038106076
182	0xbd0b9115	-0.034073908
183	0xbe2d361d	-0.16915174
184	0xbe4149f4	-0.18875867
185	0x3da86033	0.082214735
186	0x3dfc4b6e	0.123190746
187	0x3e013741	0.12618734
188	0xba7fbeb5	-0.00097558956
189	0x3d2ede8d	0.04269271
190	0x3d35483c	0.04425834
191	0x3da6a22a	0.08136399
192	0x3e255e76	0.16149315
193	0xbcede2bf	-0.029038785
194	0xbd89b27b	-0.067234956
195	0x3ddb654f	0.107126825
196	0x3e15a520	0.14613771
197	0xbc52e345	-0.012871568
198	0xbb87513e	-0.004129558
199	0xbd827786	-0.063704535
200	0xbe2ca02e	-0.16857979
201	0x3d7a5479	0.061115716
202	0xbd542636	-0.051794253
203	0x3e12c5d7	0.14333282
204	0xbe22443b	-0.1584634
205	0xbd83e858	-0.064408004
206	0x3df152e3	0.117833875
207	0x3df58c5f	0.11989664
208	0x3cbf965d	0.023387128
209	0x3e03d8c1	0.12875654
210	0xbe16a2da	-0.1471056
211	0xbe0e4938	-0.13895118
212	0xbe08a4e9	-0.13344158
213	0xbdf41910	-0.11918843
214	0x3e2301dd	0.1591868
215	0xbddaf927	-0.10692053
216	0xbd99e53f	-0.07514428
217	0xbe242b08	-0.1603204
218	0x3db69c7d	0.089165665
219	0xbd02d639	-0.03194258
220	0x3daefba8	0.08544093
221	0xbd824b64	-0.06362036
222	0xbdd42da5	-0.103602685
223	0x3c8c69e1	0.01714033
224	0x3d519dcf	0.05117589
225	0xbcc27ec7	-0.023742093
226	0x3d41f459	0.04735217
227	0x3e555443	0.20832925
228	0x3d6de437	0.05807897
229	0x3e22311e	0.15839049
230	0x3d1b450d	0.03790765
231	0x3dd89b41	0.10576487
232	0xbe0554fb	-0.13020699
233	0x3cd02be8	0.025411561
234	0xbd8a49f6	-0.06752388
235	0x3db0f9db	0.08641406
236	0xbd2d0e3f	-0.042249914
237	0xbd3617b6	-0.044456206
238	0xbd83f956	-0.064440414
239	0x3d079b86	0.033107303
240	0xbdca4255	-0.09875933
241	0xbd554f29	-0.052077446
242	0xbdc39db2	-0.09551562
243	0x3d63c6a7	0.05560937
244	0x3dfca6a5	0.123364724
245	0x3c848a09	0.016179102
246	0xbe196f07	-0.1498376
247	0xbdf58202	-0.11987688
248	0x3de29880	0.11064243
249	0x3c5a470e	0.013322605
250	0xbd6386e9	-0.055548582
251	0x3de05660	0.10953975
252	0xbe2c0a5a	-0.16800824
253	0x3df507d5	0.119643845
254	0xba17114e	-0.00057627715
255	0xbcebcb4a	-0.02878346

MLP.3.bias f4 [32]
0	0x3dcab7a0	0.09898305
1	0xbdf88157	-0.121340446
2	0xbe03ed3c	-0.12883466
3	0xbd098120	-0.03357041
4	0x3c46ab38	0.012125783
5	0xbc308fe5	-0.010776495
6	0x3d02303a	0.031784274
7	0x3cad7f34	0.02117882
8	0x3df5ca40	0.12001467
9	0xbe29fd61	-0.16600563
10	0xbd8e375b	-0.06944152
11	0x3cac0371	0.020997735
12	0xbca0236a	-0.019548137
13	0xbd881faf	-0.06646668
14	0xbdf73b58	-0.12071866
15	0xbe3388eb	-0.17532699
16	0xbd335880	-0.043785572
17	0xbc21e16f	-0.009880408
18	0xbd74747a	-0.059681393
19	0x3e1dbf13	0.1540492
20	0xbe133dd6	-0.14379057
21	0xbe164ced	-0.14677782
22	0x3e2630a6	0.16229495
23	0xbc73505d	-0.014850703
24	0x3e071ba4	0.13194138
25	0xbd896cb3	-0.06710186
26	0xbd8dc595	-0.069224514
27	0x3d562540	0.052281618
28	0xbd229024	-0.039688244
29	0x3d3d03a4	0.04614605
30	0xbe0a095c	-0.13480133
31	0x3e19c877	0.15017878

MLP.5.weight f4 [32, 32]
0	0xbc981831	-0.018566223
1	0xbdbf0794	-0.09327617
2	0x3dd84203	0.10559466
3	0xbda45e99	-0.080258556
4	0xbd99f4ee	-0.0751742
5	0xbdc6d89d	-0.097092845
6	0x3e2c80a6	0.1684595
7	0xbe07d6a0	-0.13265467
8	0xbc44dd8b	-0.012015711
9	0xbded105c	-0.11575386
10	0xbe16e2ad	-0.14734907
11	0x3dbff590	0.09373009
12	0xbd851879	-0.064988084
13	0xbb218fa9	-0.0024652279
14	0x3d7f4e66	0.062330626
15	0xbe2a692c	-0.16641682
16	0xbacd2423	-0.0015651028
17	0xbc66f9db	-0.014097656
18	0xbcba5847	-0.022747172
19	0x3db5f49f	0.088845484
20	0xbd9b92d5	-0.07596365
21	0x3db9af76	0.0906667
22	0x3dc3741d	0.09543631
23	0xbde8284e	-0.113358125
24	0xbdf1b7c4	-0.11802629
25	0x3b6b2785	0.003588171
26	0x3b957336	0.0045608534
27	0xbcd7ae29	-0.026328163
28	0x3dc14cc1	0.09438468
29	0xbd840328	-0.064459145
30	0xbd92154b	-0.071329676
31	0xbd72514a	-0.059159555
32	0x3d968754	0.073500305
33	0xbdd2f130	-0.10299909
34	0xbe07abfe	-0.13249204
35	0x3c4af3e6	0.0123872515
36	0xbdd13bb2	-0.10216464
37	0x3e3cf83b	0.18454067
38	0xbdbcd675	-0.09220592
39	0x3ccf56e3	0.025309986
40	0x3dda3669	0.10654909
41	0xbd27eb79	-0.04099605
42	0xbd6e354b	-0.058156293
43	0x3c2b3d99	0.010451698
44	0xbdeadb71	-0.114676364
45	0x3dda6d17	0.106653385
46	0xbc158d19	-0.009127879
47	0x3cf8b75c	0.03036087
48	0x3dc38676	0.09547131
49	0x3d384478	0.044987172
50	0x3d18c5e8	0.037298113
51	0xbe2b7569	-0.16744007
52	0x3ddd2fde	0.108001456
53	0x3e2581e4	0.1616283
54	0x3d885e27	0.06658583
55	0xbc8ee88f	-0.017444877
56	0x3dc90a44	0.09816411
57	0x3dd0aa36	0.10188715
58	0x3dff299c	0.12459108
59	0xbdbe57e7	-0.0929411
60	0xbdd5df45	-0.10442976
61	0x3e14edf4	0.14543897
62	0x3e47496b	0.194616
63	0x3d8b268d	0.06794462
64	0xbddcb918	-0.10777491
65	0xbdf7c1f0	-0.120975375
66	0x3cf8df4c	0.030379914
67	0x3e19f760	0.15035772
68	0x3d63af0f	0.05558687
69	0xbe50281e	-0.20327803
70	0xbdd9e428	-0.106392205
71	0x3cfac32f	0.030610649
72	0x3c54c648	0.012986727
73	0xbd4af613	-0.04955108
74	0x3d00e0a0	0.03146422
75	0xbe38a7d9	-0.18032779
76	0xbde43e02	-0.111446396
77	0xbe2302db	-0.15919058
78	0x3d1f4c40	0.038891077
79	0xbe1789e8	-0.14798701
80	0xbdd708a5	-0.10499696
81	0x3dca6a37	0.0988354
82	0xbc76b876	-0.015058627
83	0x3e0b64fb	0.1361274
84	0xbc49c73e	-0.012315569
85	0xbdcc9945	-0.09990171
86	0xbc56a7eb	-0.013101558
87	0xbd7f482e	-0.062324695
88	0x3cc585f2	0.024111722
89	0x3e325533	0.17415313
90	0xbe273480	-0.16328621
91	0x3cbb19fe	0.022839542
92	0xbd85bf01	-0.06530572
93	0x3e1bd57f	0.15218161
94	0x3e0a49c5	0.13504703
95	0x3dd13907	0.10215955
96	0xbdc7cf2a	-0.0975631
97	0xbe00f1a9	-0.12592186
98	0x3de2c307	0.11072355
99	0xbd76a696	-0.060217462
100	0x3e349d35	0.17638095
101	0x3e66b0ad	0.22528334
102	0x3d95939f	0.07303547
103	0xbd250cf8	-0.04029557
104	0xbc1ef720	-0.009702474
105	0x3c32511d	0.010883597
106	0x3d7e05a4	0.062017098
107	0x3da18a1e	0.07887672
108	0x3de60e33	0.11233177
109	0x3e186473	0.14882068
110	0xbc2ae80a	-0.010431299
111	0xbd8243fa	-0.06360622
112	0xbde0868a	-0.10963161
113	0x3dfb5daf	0.12273728
114	0xbaad0620	-0.0013200678
115	0xbdb87408	-0.09006506
116	0x3d8348a5	0.0641034
117	0x3e0d445b	0.13795607
118	0x3d550566	0.0520071
119	0xbb0004d6	-0.0019534132
120	0xbdd6ee80	-0.10494709
121	0xbd1b8bad	-0.037975002
122	0xbdbb307a	-0.091401055
123	0xbd91aabe	-0.071126446
124	0x3d2c15d8	0.04201302
125	0x3e227232	0.15863875
126	0x3d829b07	0.06377225
127	0x3d863780	0.065535545
128	0xbdbf6524	-0.09345463
129	0x3defba2a	0.1170543
130	0xbdabde1c	-0.083919734
131	0x3d53c7cb	0.05170421
132	0xbc15d8f3	-0.009145963
133	0xbdc117e9	-0.094283886
134	0x3d9bb40f	0.07602703
135	0xbd9e6707	-0.07734495
136	0x3d95ab3a	0.073080495
137	0x3b9e8f5b	0.0048388666
138	0xbc41efa3	-0.011836919
139	0x3df55695	0.11979405
140	0xbd9db960	-0.07701373
141	0xbcdabd76	-0.02670167
142	0x3d0ac502	0.033879288
143	0xbdcedae3	-0.10100343
144	0x3dedc2cf	0.116094224
145	0x3d9a4695	0.07532994
146	0xbdad6362	-0.084662214
147	0x3d945bb0	0.072440505
148	0x3e46d100	0.19415665
149	0x3df224b2	0.11823405
150	0xbe223f93	-0.15844564
151	0xbd8d4598	-0.068980396
152	0xbd519c14	-0.05117424
153	0x3d32aadf	0.043619987
154	0x3d82ea86	0.06392388
155	0x3e262093	0.16223364
156	0xbc842d36	-0.01613484
157	0xbd765d9c	-0.060147867
158	0xbb0b2f40	-0.002123788
159	0x3db2b73d	0.08726356
160	0xbdd055d1	-0.10172618
161	0xbdb34fd1	-0.08755458
162	0x3e3cff59	0.18456782
163	0xbdd09e4a	-0.10186441
164	0xbdfa1467	-0.12210923
165	0xbdda374c	-0.10655078
166	0xbc8320fe	-0.016006943
167	0x3d3426d1	0.04398233
168	0x3d7d6861	0.06186712
169	0xbda4106e	-0.08010946
170	0xbe5a06f7	-0.2129172
171	0x3df3cc66	0.1190422
172	0x3d58cbd0	0.052928746
173	0xbd8fcf5e	-0.07021974
174	0x3d9ef829	0.077621765
175	0xbd8a980a	-0.067672804
176	0x3b80fef6	0.0039366437
177	0xbde3aaec	-0.11116585
178	0x3d3af76d	0.04564612
179	0x3d95bc0e	0.07311259
180	0xbdecfc3a	-0.11571546
181	0x3c95c1c1	0.018280866
182	0x3e072b5d	0.13200136
183	0x3e310ca3	0.17289977
184	0xbc870ca3	-0.016485518
185	0x3d885644	0.06657079
186	0xbdbca34a	-0.092108324
187	0xbd57da3b	-0.052698355
188	0xbdd65c66	-0.10466842
189	0x3d4ed851	0.050499264
190	0x3dd411e3	0.10354974
191	0x3e1cf5fb	0.15328209
192	0x3dc3f270	0.09567726
193	0x3d8f050c	0.069833845
194	0xbdf8c8a1	-0.12147642
195	0x3d84100d	0.06448374
196	0x3d4df733	0.050284576
197	0xba7b0155	-0.00095750886
198	0xbc0827e1	-0.008310289
199	0xbdfa669f	-0.12226605
200	0x3e00ef16	0.12591204
201	0x3d728b1a	0.05921469
202	0x3e2eecd3	0.17082529
203	0x3d624f64	0.055251494
204	0x3db77d22	0.08959414
205	0x3d993dd5	0.07482497
206	0xbd3a64b4	-0.045506194
207	0xbe12b9fb	-0.14328758
208	0x3d7c42a0	0.061586976
209	0x3da1c89a	0.0789959
210	0x3e21083c	0.15725797
211	0xbdbb3d89	-0.09142596
212	0x3db0fc3f	0.08641862
213	0x3dc9045d	0.09815285
214	0xbd203236	-0.039110385
215	0x3dafb604	0.085796386
216	0x3dcb6ce0	0.09932876
217	0x3c8840bc	0.01663243
218	0x3d896c20	0.06710076
219	0xbd976875	-0.073929705
220	0x3e3f0b36	0.1865662
221	0xbdf8ec91	-0.121544965
222	0xbd8fbc04	-0.07018283
223	0x3b70e753	0.0036758974
224	0xbcaac625	-0.020846436
225	0x3d1785ec	0.036992952
226	0x3c0527dd	0.00812718
227	0x3e6280c8	0.22119439
228	0xbe346a57	-0.1761869
229	0xbdfaf877	-0.12254422
230	0xbcbd51c0	-0.02311027
231	0xbddf6bde	-0.10909246
232	0xbc0bd2d6	-0.008534154
233	0xbe141428	-0.14460814
234	0xbdd48f5d	-0.10378907
235	0xbd4a6a34	-0.04941769
236	0xbd4dd31c	-0.050250158
237	0xbe1bddbd	-0.15221305
238	0xbdf418d5	-0.11918799
239	0x3d6bf3cb	0.057605546
240	0xbc845591	-0.016154082
241	0xbdd34a99	-0.10316963
242	0xbe120768	-0.14260638
243	0x3d3fa46c	0.046787664
244	0xbd13c61d	-0.036077607
245	0xbe033b63	-0.12815623
246	0xbc1c9432	-0.009556817
247	0x3e3a79d1	0.18210532
248	0x3e3715f6	0.17879471
249	0xbd439e63	-0.04775847
250	0x3d485f9e	0.048919313
251	0x3d4a6d8d	0.049420882
252	0x3e20c5f4	0.15700513
253	0x3e38ca79	0.18045987
254	0xbda3a55b	-0.079905234
255	0x3d150e3d	0.03639053

MLP.5.bias f4 [32]
0	0xbde9ab17	-0.11409586
1	0x3e28d1e7	0.16486321
2	0x3e095f8b	0.13415353
3	0xbd91f5f9	-0.07126994
4	0x3e15e746	0.14639005
5	0xbe086842	-0.13321021
6	0x3d62291d	0.05521499
7	0x3d28b581	0.04118872
8	0xbd97b6f4	-0.074079424
9	0xbe045356	-0.12922415
10	0xbdec2bb7	-0.115317754
11	0x3da10977	0.078631334
12	0xbe435f99	-0.19079436
13	0x3bb06d57	0.005384128
14	0xbd5e6419	-0.05429468
15	0x3dce1865	0.10063247
16	0x3dbfe6cb	0.09370192
17	0xbbacac91	-0.005269595
18	0x3e12ad50	0.14323926
19	0xbdab123a	-0.08353086
20	0x3d0aaad8	0.033854336
21	0x3db4a84b	0.08821162
22	0xbbc80c9f	-0.00610502
23	0x3e0af2d6	0.13569197
24	0x3d3b9564	0.045796767
25	0x3dddab3c	0.10823676
26	0xbd98917a	-0.074496225
27	0x3dcc4a0f	0.09975063
28	0xbe130a35	-0.14359362
29	0xbda01aa1	-0.07817579
30	0xbac3178d	-0.0014884338
31	0x3c8f5185	0.017494926

MLP.6.weight f4 [32]
0	0x3f7a952b	0.9788386
1	0x3f8004b5	1.0001436
2	0x3f6f3dfd	0.9345396
3	0x3f7bd081	0.98365027
4	0x3f753fe7	0.9580063
5	0x3f7f2f76	0.99681795
6	0x3f793751	0.9735003
7	0x3f7db1bc	0.99099326
8	0x3f7f4c5b	0.99725884
9	0x3f76a521	0.96345717
10	0x3f6deeaf	0.9294233
11	0x3f782e2b	0.96945447
12	0x3f825497	1.0182065
13	0x3f7241ac	0.9463146
14	0x3f7ea946	0.9947704
15	0x3f7c8c55	0.9865163
16	0x3f80c53c	1.0060191
17	0x3f79c8ed	0.97572213
18	0x3f79ec8a	0.97626555
19	0x3f7df656	0.99204004
20	0x3f7f30ee	0.99684036
21	0x3f7fa2af	0.9985761
22	0x3f8322a1	1.0244943
23	0x3f7bc795	0.98351413
24	0x3f72f24f	0.94900984
25	0x3f7c9aed	0.986739
26	0x3f80546c	1.0025764
27	0x3f753091	0.9577723
28	0x3f7e8e54	0.99435925
29	0x3f74959b	0.9554078
30	0x3f7a5fe0	0.97802544
31	0x3f6b106b	0.91821927

MLP.6.bias f4 [32]
0	0x3a81b5eb	0.0009896135
1	0x3d2b94fe	0.041890137
2	0xbcc0f1e5	-0.023552844
3	0x3b4a8f3f	0.0030908135
4	0xbca94077	-0.020660622
5	0x3be87667	0.007094193
6	0xbbc9416e	-0.006141833
7	0xbc9bfbc5	-0.019040952
8	0xbc5eadb4	-0.013591219
9	0xbbb4d8d9	-0.0055190143
10	0x3bac392f	0.0052558403
11	0xbcc6ac0c	-0.02425196
12	0xbc5708de	-0.013124673
13	0xbbe5196b	-0.0069915554
14	0x3ccd781f	0.025081692
15	0x3c0c048c	0.008546006
16	0xbcb672c3	-0.02227152
17	0xbc030227	-0.007996119
18	0xbb74b886	-0.003734143
19	0x3ad949da	0.0016577796
20	0xbc3996ac	-0.011327427
21	0xbc9c05fa	-0.019045819
22	0xbcdb2cbd	-0.026754731
23	0x3b1a485c	0.0023541665
24	0x3ca105bf	0.01965606
25	0xbc3e0a9d	-0.01159921
26	0x3c148a97	0.0090662455
27	0x3cf086e6	0.0293612
28	0x3bd87c79	0.006606635
29	0xbc288a94	-0.010286946
30	0x3a0928b9	0.00052322034
31	0x3bbc8606	0.0057532815

MLP.8.weight f4 [32, 32]
0	0xbddf4b4a	-0.10903032
1	0x3e17f483	0.14839368
2	0x3e36017a	0.17774001
3	0x3d92e797	0.071730785
4	0x3c558251	0.013031558
5	0xbc2a3207	-0.010387904
6	0x3bf8d482	0.0075936923
7	0x3d2d2beb	0.04227821
8	0xbe527cf1	-0.20555474
9	0x3d98ca9e	0.07460521
10	0x3afce219	0.0019293457
11	0x3da44cc8	0.08022457
12	0xbe30a4f8	-0.1725043
13	0x3cf13361	0.029443445
14	0x3d90ad22	0.070642725
15	0xbe1b799d	-0.1518311
16	0xbe66d2c1	-0.22541334
17	0xbe281da0	-0.16417551
18	0x3e21365d	0.15743394
19	0xbde4a5b0	-0.11164415
20	0xbdb2274b	-0.08698901
21	0xbd281344	-0.041033998
22	0x3e301684	0.17196089
23	0x3e3cb86d	0.18429728
24	0x3df6451d	0.12024901
25	0xbe3899ea	-0.18027464
26	0x3e27b380	0.16377068
27	0x3dcc03ff	0.099617
28	0xbdd39023	-0.10330226
29	0xbe0cbe3f	-0.13744448
30	0x3daca3c0	0.0842967
31	0xbd7a150b	-0.061055224
32	0x3a3ba62d	0.0007158246
33	0xba9ca15c	-0.0011949944
34	0xba15f538	-0.00057204394
35	0xb9a23f6c	-0.000309463
36	0xba4436ed	-0.0007484991
37	0xb9f37ee9	-0.00046443127
38	0x38b8c1ef	8.809927e-05
39	0x392f01e4	0.00016690005
40	0x3a2d886e	0.0006619756
41	0xb9c1b0ca	-0.00036943547
42	0x3a0dd065	0.00054097763
43	0xb9141042	-0.00014120436
44	0x3a39ebc6	0.0007092323
45	0x3a6029cc	0.000855115
46	0xba77edfd	-0.0009457765
47	0x3838e5b5	4.408295e-05
48	0x3a65923c	0.00087574474
49	0x3a80b711	0.0009820183
50	0xb9443369	-0.00018711168
51	0xb9be9a8c	-0.0003635477
52	0xb77dde42	-1.5131724e-05
53	0x38138afe	3.5176978e-05
54	0x398b7636	0.0002660022
55	0xba6f481f	-0.00091278733
56	0xb90358d0	-0.00012526219
57	0x399fbf85	0.00030469536
58	0xb995b23f	-0.00028552298
59	0xba6c9fcd	-0.0009026498
60	0x3a79152d	0.00095017516
61	0x397a2526	0.00023855697
62	0xbaa000c8	-0.0012207264
63	0xb825b5ca	-3.950837e-05
64	0xbc66a8ba	-0.0140783135
65	0xbc1cca73	-0.009569752
66	0xbd21a105	-0.0394602
67	0xbdb7b92c	-0.089708656
68	0xbbeb12f2	-0.0071738893
69	0xbcbe9c6b	-0.023267945
70	0xbb04c0a5	-0.0020256427
71	0xbb60044d	-0.003418225
72	0x3d04229a	0.03225956
73	0xbd076c32	-0.033062167
74	0x3c4f7464	0.012662027
75	0xbd65a3d6	-0.05606445
76	0xbc45773e	-0.012052355
77	0xbce63c4d	-0.028104926
78	0x3d118877	0.035530534
79	0xbc82c830	-0.015964597
80	0xbbfc6b11	-0.007703193
81	0xbbd24877	-0.00641733
82	0xbc884039	-0.016632186
83	0x3d5892ca	0.052874364
84	0xbc02558a	-0.007954964
85	0x3bc5966f	0.006029896
86	0x3c8a6e28	0.01689823
87	0xbd15c97b	-0.0365691
88	0x3dc516c9	0.096234865
89	0xbc58b882	-0.013227584
90	0x3cb567d4	0.022144236
91	0x3c2a2ac7	0.0103861755
92	0x3bffc0d8	0.007804971
93	0x3da0a436	0.07843821
94	0x3bff3c7b	0.0077891923
95	0x3d1c44c5	0.03815152
96	0x3e0255bc	0.12728018
97	0xbdf758b0	-0.12077463
98	0x3d2283f7	0.039676633
99	0xbe87ff8c	-0.26562154
100	0x3e2151f3	0.15753917
101	0x3e204251	0.15650298
102	0x3c8642e2	0.016389314
103	0x3c94d9cb	0.018170258
104	0xbbf61a32	-0.007510447
105	0xbd60a22c	-0.05484216
106	0xbe153744	-0.14571863
107	0x3d3c1cd2	0.045925923
108	0xbe024cee	-0.12724659
109	0x3e29a80b	0.1656801
110	0xbe4e1972	-0.20126894
111	0xbdc857bc	-0.09782359
112	0x3cdb87b1	0.026798101
113	0x3e086557	0.13319908
114	0xbe0db901	-0.13840105
115	0x3d8e2bc0	0.069419384
116	0xbdf300e1	-0.11865402
117	0xbd97cd54	-0.0741221
118	0x3d6c7c62	0.05773581
119	0x3d9c1d49	0.07622773
120	0x3e3ee1fe	0.18640897
121	0xbd985b49	-0.07439286
122	0x3e231444	0.159257
123	0xba034c57	-0.0005008629
124	0x3da25670	0.07926643
125	0x3dada932	0.08479537
126	0x3df9d48b	0.121987425
127	0x3d8c1a86	0.068409964
128	0xbdbd33b8	-0.0923838
129	0x3cfb168a	0.030650396
130	0x3dcc1208	0.09964377
131	0x3e245510	0.16048074
132	0x3e2fc813	0.17166166
133	0xbd8da1cf	-0.06915628
134	0x3dbb7b2e	0.09154354
135	0xbb7eac2b	-0.0038859944
136	0x3e1b7676	0.15181908
137	0x3daeb6ac	0.08530936
138	0xbe2fe771	-0.17178132
139	0x3c10b393	0.008831876
140	0xbd7f1346	-0.06227424
141	0x3d445190	0.047929347
142	0xbd94dd9d	-0.07268832
143	0x3da9f2ba	0.082982495
144	0xbd4b2ac8	-0.049601346
145	0xbe2f8c21	-0.17143299
146	0x3ccff519	0.025385426
147	0x3ced7220	0.028985083
148	0x3db42f91	0.08798135
149	0xbe27e827	-0.16397153
150	0xbd326e1d	-0.043562043
151	0xbdeac293	-0.11462893
152	0xbd2ea286	-0.042635463
153	0xbdf098a8	-0.11747867
154	0x3d9de0c3	0.077088855
155	0xbd910dd1	-0.070827134
156	0xbd637a20	-0.05553639
157	0x3e2e7138	0.17035377
158	0x3e058bf3	0.13041668
159	0xbd8aeb7c	-0.06783196
160	0xbdc8f48e	-0.0981227
161	0xbd9599fc	-0.07304761
162	0xbd3dec87	-0.04636815
163	0xbded6131	-0.115908034
164	0xbe025dd2	-0.12731102
165	0x3ddcda49	0.10783822
166	0x3d7166e6	0.058936022
167	0x3d78cc1b	0.060741525
168	0x3ba07f9e	0.0048980257
169	0xbe1a1531	-0.15047146
170	0xbd31abf3	-0.043376874
171	0x3dc00d93	0.09377589
172	0x3e3760e6	0.17908058
173	0x3d827856	0.063706085
174	0xbda399d3	-0.07988324
175	0xbc99985b	-0.018749407
176	0xbdf1f6a0	-0.11814618
177	0xbe2b8b99	-0.16752471
178	0xbe07f217	-0.13275944
179	0xbe359e78	-0.17736232
180	0xbd0b0ab3	-0.03394575
181	0xbdaa36df	-0.08311247
182	0x3e083cd5	0.13304456
183	0x3e093a05	0.13401039
184	0xbd8548c4	-0.065080196
185	0xbc5cb9c3	-0.013472023
186	0x3dff737d	0.124731995
187	0x3e1cf0db	0.15326254
188	0x3d89e934	0.06733933
189	0xbd3f90d8	-0.046768993
190	0x3daf3bbc	0.08556315
191	0x3da77b2a	0.081777886
192	0xb8deded0	-0.00010627287
193	0x3c232834	0.009958316
194	0x3b9e8735	0.0048378953
195	0xbd3f510e	-0.04670816
196	0xbb599c35	-0.003320468
197	0x3c50a5fa	0.012734884
198	0x3c2e02dd	0.0106208
199	0xbd98d39f	-0.074622385
200	0x3b5ad3f4	0.0033390494
201	0xbcc3759e	-0.023859795
202	0x3db3a0fe	0.08770941
203	0xbd6f32c0	-0.05839801
204	0x3be7bc0d	0.007071978
205	0xbce01658	-0.027354404
206	0x3cca253c	0.024675958
207	0x3b42a29e	0.0029698978
208	0xbc75047a	-0.014954681
209	0xbb071e0c	-0.0020617275
210	0x3d0c571b	0.034262758
211	0x3e42fa37	0.19040762
212	0xbd01b592	-0.0316673
213	0xbcb56b65	-0.022145936
214	0x3c66b573	0.014081347
215	0xbd96b8a6	-0.07359438
216	0xbc2c82d5	-0.01052924
217	0xbb95ed3a	-0.0045753988
218	0xbc8859ed	-0.016644442
219	0x3d2e021d	0.042482484
220	0x3dcc1704	0.099653274
221	0x3be83910	0.0070868805
222	0x3c70f405	0.014706616
223	0x3d91e136	0.07123034
224	0x3d773872	0.060356565
225	0x3cf1a924	0.029499598
226	0x3dd83aac	0.10558066
227	0x3d1895df	0.037252303
228	0xbe1f81b1	-0.15576817
229	0xbe117f26	-0.1420866
230	0x3b43ccdd	0.0029876747
231	0x3d46fb81	0.048579697
232	0xbd57d8fa	-0.05269716
233	0x3e11d01a	0.1423954
234	0x3de211d2	0.11038555
235	0x3dcde524	0.10053471
236	0x3d29109b	0.0412756
237	0x3e2e3705	0.17013176
238	0xbe2b5c2a	-0.16734377
239	0x3dc06c2e	0.09395634
240	0xbdf8ba55	-0.12144915
241	0xbd771092	-0.060318537
242	0x3e27a100	0.1637001
243	0xbe061ea1	-0.13097622
244	0x3cee8eb8	0.029120788
245	0xbe19a257	-0.15003334
246	0x3d88c23f	0.066776745
247	0x3bcbbb96	0.0062174303
248	0x3e032f45	0.12811
249	0xbc09d2cb	-0.008412073
250	0x3e29643a	0.1654214
251	0xbe0da31c	-0.13831753
252	0x3dfd1987	0.123583846
253	0x3d77d9f0	0.060510576
254	0x3d537a54	0.051630333
255	0x3d83065a	0.06397696

MLP.8.bias f4 [32]
0	0xbd043126	-0.032273434
1	0xbaa647ec	-0.0012686229
2	0xba8a1e05	-0.0010537511
3	0xbdee0e2a	-0.11623795
4	0xbd840701	-0.064466484
5	0xbdaef07a	-0.08541961
6	0x3c928f8a	0.01789071
7	0x3df01229	0.11722214
8	0xbde968e3	-0.11396959
9	0x3df264d2	0.11835636
10	0xbb89951b	-0.004198683
11	0xbd8f6900	-0.07002449
12	0x3d72909d	0.059219945
13	0x3c98c345	0.0186478
14	0xbb199736	-0.0023436076
15	0xbe160364	-0.14649731
16	0xbde90936	-0.1137871
17	0xbd314204	-0.043275848
18	0x3de6fff9	0.11279292
19	0xb9e45ca5	-0.00043556574
20	0xbdc2b1ea	-0.09506591
21	0xbe0d6634	-0.13808519
22	0xbc2bb473	-0.010480034
23	0x3e18b784	0.14913756
24	0xbc6cf2dd	-0.0144622
25	0xbdf2a0b0	-0.11847055
26	0x3e1b5fb4	0.15173227
27	0xad376169	-1.0423975e-11
28	0xbcb7f4e3	-0.022455638
29	0xbd8f2d15	-0.069910206
30	0xbbceab34	-0.00630703
31	0x3b8920ea	0.004184832

MLP.10.weight f4 [32, 32]
0	0xbd5b7846	-0.0535815
1	0xb74a2b61	-1.2050238e-05
2	0xb9e4b7fe	-0.00043624634
3	0x3dddb3d5	0.10825316
4	0xbe1c1d31	-0.1524551
5	0x3e09cee8	0.13457835
6	0x3d915e5f	0.07098078
7	0xbd3bdd18	-0.04586515
8	0xbe1594c4	-0.14607531
9	0xbe2f8a9d	-0.1714272
10	0x3cf57af4	0.029965855
11	0xbc59a4d8	-0.013283931
12	0xbe12b1e8	-0.14325678
13	0x3d33f41f	0.043933984
14	0x38e20135	0.000107767446
15	0xbd73e438	-0.05954382
16	0x3e0016f0	0.1250875
17	0xbd300996	-0.04297789
18	0x3c83ec83	0.016103989
19	0xb94c65d0	-0.00019492884
20	0x3b66d576	0.0035222447
21	0x3e20e1c4	0.15711123
22	0x3ae579de	0.0017507633
23	0x3da713ba	0.081580594
24	0xbd586957	-0.052834835
25	0x3decc4c4	0.115609676
26	0xbe159e7d	-0.1461124
27	0x2b587948	7.6906927e-13
28	0x3e1acf09	0.1511804
29	0x3cd3125d	0.025765592
30	0xbd25a07e	-0.04043626
31	0x3d866872	0.0656289
32	0xbd9dfec3	-0.077146076
33	0x39c07131	0.00036705428
34	0xbc07d820	-0.008291274
35	0x3dfad722	0.122480646
36	0xbdd55f2f	-0.104185455
37	0x3b9ea4ca	0.0048414217
38	0x390ab0e1	0.00013226598
39	0xbc50eea9	-0.0127522135
40	0x3d7f9eb1	0.0624072
41	0xbd34a0f8	-0.044098824
42	0x3c8b6ecd	0.017020607
43	0xbd0de148	-0.034638673
44	0xbdf3d955	-0.11906687
45	0x3c06d262	0.00822887
46	0xb8e2336f	-0.000107861
47	0xbd83b36d	-0.06430707
48	0x3c5296f3	0.012853372
49	0x3d43fa07	0.047845867
50	0xbb9fb87a	-0.0048742862
51	0x39d06758	0.0003974985
52	0x3e2a8e8e	0.16655943
53	0x3e0f3394	0.13984519
54	0xbe1ac7bf	-0.1511526
55	0xbd70a960	-0.05875528
56	0x3d8494f8	0.06473726
57	0x3e0b122a	0.13581148
58	0xbdb50a46	-0.0883985
59	0x31f60680	7.1602813e-09
60	0x3ce5c0ac	0.028045975
61	0x3d6a5096	0.05720576
62	0xbdacfda2	-0.08446814
63	0x3de16a91	0.11006654
64	0x3e28501c	0.1643681
65	0xab89e0d4	-9.796838e-13
66	0xbd033765	-0.03203525
67	0x3ce24637	0.027621372
68	0x3e0322c4	0.12806231
69	0x3dfab69f	0.122418635
70	0x3c1f8542	0.009736361
71	0x3d94f215	0.07272736
72	0x3d74e58f	0.059789237
73	0x3d532980	0.05155325
74	0xbc813dc8	-0.01577653
75	0xbd6a03d9	-0.057132576
76	0x3d67d9ea	0.056604303
77	0xbc4ca9fa	-0.012491697
78	0x340e87b1	1.3274145e-07
79	0x3d9a7dcb	0.07543524
80	0x3e39ff3b	0.18163769
81	0x3dca1508	0.09867293
82	0x3d3c6a91	0.046000067
83	0x37d2f159	2.5146337e-05
84	0x3d9975f9	0.074932046
85	0xbe438621	-0.19094135
86	0xbd974881	-0.07386876
87	0x3c905d6f	0.017622678
88	0xbd8fd69f	-0.070233576
89	0x3d4465c6	0.04794862
90	0x3d558760	0.052131057
91	0x818731f6	-4.966286e-38
92	0xbd1ec886	-0.038765453
93	0x3baf42c6	0.005348536
94	0xbd26468b	-0.04059462
95	0x3df3541a	0.118812755
96	0x3d9a45c0	0.07532835
97	0xb9854017	-0.00025415487
98	0xbcdf71fc	-0.027276032
99	0x3cea12b4	0.028573371
100	0xbe29d00a	-0.16583267
101	0xbe23122e	-0.15924904
102	0xbd1167da	-0.03549943
103	0x3de9b0d2	0.11410679
104	0xbd83c99c	-0.06434938
105	0x3e1e4061	0.15454246
106	0xbcbd573b	-0.023112884
107	0x3cb163d2	0.021654043
108	0x3e22d534	0.15901643
109	0xbc8d936e	-0.017282214
110	0xb85f9e21	-5.3314612e-05
111	0x3c596564	0.013268802
112	0xbe080abe	-0.13285348
113	0x3d3cd01a	0.0460969
114	0xbdfbf958	-0.12303418
115	0x37811b72	1.5390779e-05
116	0x3e462dd6	0.19353423
117	0xbcb4dcf0	-0.022078007
118	0x3d342da3	0.043988835
119	0x3cb7ef56	0.022452991
120	0x3dc78def	0.097438686
121	0x3d27b796	0.040946566
122	0xbd8de7f5	-0.06929008
123	0xae4e914c	-4.6968027e-11
124	0xbd2a35c1	-0.04155517
125	0x3dc5672f	0.09638821
126	0x3e090f00	0.13384628
127	0xbdfe86b3	-0.124280356
128	0x3daa2ab6	0.08308928
129	0x37abcb86	2.0479561e-05
130	0xbcd6fb75	-0.02624295
131	0x3e0e70b2	0.13910177
132	0xbe17ed1f	-0.14836548
133	0xbdf95453	-0.12174287
134	0x3c4fe95a	0.012689913
135	0x3dab0e62	0.08352353
136	0x3b71d5a3	0.003690102
137	0x3e2394e9	0.15974773
138	0x3c479929	0.012182512
139	0xbaaa9609	-0.0013014685
140	0x3e3ef270	0.1864717
141	0x3bee669b	0.007275415
142	0xb82738ae	-3.986869e-05
143	0x3d8684b2	0.06568278
144	0xbd0dda0f	-0.034631785
145	0x3e1f09fb	0.15531151
146	0x3dda2d5b	0.10653182
147	0x3987ebd4	0.00025924912
148	0xbdde5b11	-0.10857213
149	0x3d4a92be	0.04945635
150	0x3dddff7a	0.10839744
151	0x3afdec4c	0.001937279
152	0x3e1daebe	0.1539869
153	0xbdaa270e	-0.0830823
154	0xbd45a4b0	-0.04825276
155	0x22ca9d97	5.4919064e-18
156	0x3dd793f7	0.10526269
157	0x3e0db86d	0.13839884
158	0xbceec4ff	-0.02914667
159	0x3e164493	0.14674596
160	0x3e26b08e	0.16278288
161	0x39808834	0.00024515542
162	0x3e0f9721	0.14022495
163	0x3e1d15ad	0.153403
164	0xbe032c34	-0.12809831
165	0xbd14a4d2	-0.036289997
166	0xbb835e92	-0.0040090764
167	0x3dc08318	0.09400004
168	0xbdc84250	-0.09778273
169	0xbdb8ce13	-0.090236805
170	0xbbb9dcfd	-0.005672096
171	0xbd8d8ec3	-0.06911995
172	0xbdb391d1	-0.08768047
173	0xbcb6007f	-0.022217033
174	0x3878b82b	5.9299327e-05
175	0xbaf22fec	-0.0018477417
176	0xbe00a288	-0.12562001
177	0x3e63448e	0.2219412
178	0x3cd6a5e5	0.026202152
179	0xb9edacbd	-0.00045332863
180	0x3e038eda	0.12847462
181	0xbe40fbb5	-0.18846019
182	0xbe108f36	-0.1411713
183	0xbd504fd0	-0.050857365
184	0xbdaea2af	-0.08527123
185	0x3c731f30	0.014838979
186	0x3c13acc4	0.0090133585
187	0x9041dc51	-3.8232264e-29
188	0x3d79c1d3	0.06097586
189	0xbe2d76f9	-0.16939916
190	0x3c9d12fb	0.01917409
191	0x3df99cf3	0.12188139
192	0x3e08c07c	0.13354677
193	0xb8a48dbc	-7.8465295e-05
194	0x3b92a6cb	0.0044754497
195	0xbdb755d7	-0.089519195
196	0x3c95b57d	0.018275017
197	0xbe3cc00a	-0.18432632
198	0x3da04336	0.078253195
199	0x3e02d4e2	0.12776521
200	0xbcf279a2	-0.029599015
201	0xbd3bc24d	-0.045839597
202	0x3cfea1d0	0.031083018
203	0x3debc169	0.115114994
204	0xbce9a637	-0.02852164
205	0x3d762b1f	0.060099717
206	0x3533f077	6.703262e-07
207	0x3d6a1acc	0.05715446
208	0xbdcc2648	-0.09968239
209	0xbe530cb4	-0.20610315
210	0x3e1ba98d	0.15201397
211	0x394d302e	0.00019568272
212	0xbe110923	-0.14163642
213	0x3e080bc2	0.13285735
214	0xbdab8ce8	-0.08376485
215	0x3db25676	0.08707897
216	0xbd537937	-0.05162927
217	0xbe18316b	-0.14862601
218	0x3d8b9230	0.068149924
219	0x16376772	1.4815264e-25
220	0xbdae72ee	-0.08518015
221	0xbd8f7230	-0.070042014
222	0x3e35834a	0.17725864
223	0xbde23813	-0.110458516
224	0x3e053dea	0.130119
225	0xb8b6ac10	-8.7104854e-05
226	0xbac3b715	-0.0014931882
227	0xbc1e5e5f	-0.0096660545
228	0xbe1b7b08	-0.15183651
229	0xbd36b34b	-0.04460458
230	0xbbab2c25	-0.0052237683
231	0xbe0c299e	-0.1368775
232	0x3d35d906	0.044396423
233	0xbe181db4	-0.14855081
234	0x3c19c5b1	0.009385512
235	0x3dca9269	0.09891207
236	0xbc89113f	-0.016731856
237	0xbafec32b	-0.0019436827
238	0xb8053edb	-3.176821e-05
239	0x3d9465da	0.07245989
240	0x3e1583b1	0.14601018
241	0xbd8fd708	-0.07023436
242	0xbdbd5a08	-0.09245688
243	0x39bd8be3	0.00036153113
244	0xbd9a69a0	-0.075396776
245	0x3df48b88	0.11940676
246	0xbe2b1700	-0.16707993
247	0x3e15f39e	0.14643714
248	0x3df00697	0.11720007
249	0x3deabd61	0.114619024
250	0x3db137d2	0.08653225
251	0xa9e2f3fa	-1.0078739e-13
252	0x3de4c601	0.11170579
253	0x3d3e34a1	0.04643691
254	0x3db230a4	0.08700684
255	0xbd235cac	-0.0398833

MLP.10.bias f4 [32]
0	0xbc4810d8	-0.012211047
1	0x3dcb640f	0.09931194
2	0x3cd13678	0.025538668
3	0x3ca029f6	0.019551259
4	0xbe1d0943	-0.15335564
5	0xbc830498	-0.015993401
6	0xbe1e9e8f	-0.15490173
7	0xbc2b55b6	-0.010457447
8	0xbe1e5bce	-0.15464708
9	0xbe07ec62	-0.13273767
10	0xbd239699	-0.039938543
11	0xbba3da58	-0.005000394
12	0x3d130279	0.03589103
13	0x3dfbca4c	0.122944444
14	0xbd057060	-0.032577872
15	0xbbca3005	-0.006170275
16	0x3d3cb9ce	0.046075635
17	0x3ad69f2a	0.0016374339
18	0x3d5114ff	0.051045414
19	0xbe0a0745	-0.13479336
20	0x3e0f3dbb	0.13988392
21	0x3d1209bd	0.03565382
22	0xbd56e9ca	-0.052469052
23	0xbcad5d3e	-0.021162625
24	0x3d63c3e2	0.05560673
25	0xbd1e10ab	-0.038590115
26	0xbc1730c6	-0.009227937
27	0x3e295081	0.16534616
28	0xbe1f41ea	-0.15552488
29	0x3e2e4a93	0.17020635
30	0xbe0c916c	-0.13727349
31	0x3d17b986	0.037042163

MLP.11.weight f4 [32]
0	0x3f7f0296	0.9961332
1	0x3f7c91ff	0.9866027
2	0x3f7d287f	0.9888992
3	0x3f7e52fb	0.9934537
4	0x3f7f7da4	0.9980109
5	0x3f7e997a	0.99452937
6	0x3f7993df	0.9749126
7	0x3f75646b	0.9585635
8	0x3f7a1ef5	0.97703487
9	0x3f7f7a0b	0.997956
10	0x3f7f036b	0.9961459
11	0x3f7805eb	0.9688403
12	0x3f7e1783	0.99254626
13	0x3f7b175b	0.9808251
14	0x3f7e062d	0.99228173
15	0x3f7cf205	0.9880679
16	0x3f7f6634	0.99765325
17	0x3f7e108e	0.9924401
18	0x3f7b7bba	0.98235667
19	0x3f7f2a34	0.9967377
20	0x3f7ef6ec	0.9959552
21	0x3f7568bf	0.95862955
22	0x3f7dd4c7	0.991528
23	0x3f7c66fd	0.9859465
24	0x3f7acdf4	0.9797051
25	0x3f85f3ac	1.0464988
26	0x3f8001cb	1.0000547
27	0x3f7c310a	0.9851233
28	0x3f7beddb	0.98409814
29	0x3f7f4e15	0.9972852
30	0x3f7cac54	0.9870045
31	0x3f7de8b1	0.99183184

MLP.11.bias f4 [32]
0	0xba59e9cf	-0.0008312733
1	0x3bab3c5e	0.005225702
2	0xbbced336	-0.0063117994
3	0xbb1eb1cd	-0.0024214864
4	0x3c1c0bd3	0.0095243035
5	0xbb30e1cb	-0.0026990052
6	0xbade71d5	-0.001697118
7	0x3b3ecf1a	0.0029115141
8	0x3abf5b40	0.0014599338
9	0x3bd68aa4	0.006547289
10	0xbc131623	-0.008977446
11	0x3ac2e85b	0.0014870273
12	0xb9c079e4	-0.0003671191
13	0x3a2ece4a	0.00066683127
14	0xbc181cf6	-0.009284249
15	0x3bcc3de3	0.0062329634
16	0x3c24d694	0.010060925
17	0x3b7c8ef1	0.0038537348
18	0x3a80590d	0.0009792164
19	0xb92f4f9e	-0.0001671896
20	0x3a82a519	0.0009967416
21	0xbb97b790	-0.0046300367
22	0x3bfa3d5a	0.007636708
23	0x3bca7d92	0.00617952
24	0x3a370718	0.0006981953
25	0x3b1c922c	0.0023890836
26	0xb88bfbc5	-6.674932e-05
27	0xbbabab86	-0.005238953
28	0x3bb48d59	0.005510014
29	0x3baa4d7d	0.0051972256
30	0x3c11fd75	0.0089105265
31	0xbb9db50e	-0.004812843

MLP.13.weight f4 [4, 32]
0	0x3df6be2b	0.120479904
1	0xbe0ba057	-0.13635384
2	0xbd233a8d	-0.03985076
3	0xbcb3fb18	-0.021970317
4	0xbdc74687	-0.09730249
5	0x3dc22e9c	0.09481546
6	0xbdc48cb9	-0.09597153
7	0xbdd97eba	-0.10619874
8	0xbd9e6c2f	-0.07735478
9	0xbe22801c	-0.15869182
10	0x3e0c17e8	0.13680995
11	0x3dc6ad64	0.097010404
12	0x3d563e3d	0.05230545
13	0x3cf49a64	0.029858775
14	0x3e07c0b5	0.13257106
15	0xbd5ae32a	-0.053439297
16	0x3e04e326	0.12977275
17	0xbd3a447f	-0.04547548
18	0x3d7463c5	0.05966546
19	0xbc1b5227	-0.009480036
20	0x399d148d	0.00029960685
21	0x3dde1126	0.108431146
22	0xbcbdb56a	-0.023157794
23	0xbe17f761	-0.14840461
24	0xbd281afe	-0.041041367
25	0xbce5ee93	-0.028067863
26	0xbd6710fd	-0.056412686
27	0x3dd23aa2	0.102650896
28	0xbd5268de	-0.05136954
29	0xbda8d041	-0.08242846
30	0xbd8117a9	-0.06303341
31	0x3d8db61a	0.06919499
32	0xbdd745f1	-0.10511387
33	0xbd8430d0	-0.06454623
34	0xbd999e01	-0.0750084
35	0xbbfa96a0	-0.0076473504
36	0xbd63d83a	-0.05562613
37	0x3dfce152	0.12347664
38	0xbd84c96b	-0.0648373
39	0xbb7bdfd4	-0.0038432973
40	0xbd7e4405	-0.062076587
41	0xbd907e81	-0.07055379
42	0x3b46044d	0.0030214966
43	0x3d02980f	0.031883296
44	0x3afbe643	0.0019218404
45	0x3d2a6f82	0.04161025
46	0xbd5bd110	-0.053666174
47	0xbd69aa0e	-0.057046942
48	0x3dda9b86	0.10674195
49	0x3dad12e9	0.084508725
50	0x3cd3814d	0.025818491
51	0x3e122e78	0.14275539
52	0xbb746c9e	-0.0037296186
53	0x3c4b6abc	0.012415584
54	0xbcd5cf43	-0.026099807
55	0x3d363d56	0.04449209
56	0xbc8ad0dc	-0.016945295
57	0x3d672f1e	0.05644142
58	0xbd451715	-0.048117716
59	0xbde4890d	-0.11158953
60	0x3c8f74b6	0.017511707
61	0xbd70fbec	-0.058834
62	0xbd4d23fd	-0.05008315
63	0xbd22cc52	-0.039745636
64	0x3da71225	0.08157758
65	0x3e0f5251	0.13996245
66	0x3d9f329b	0.07773324
67	0xbdb1d518	-0.086832225
68	0x3da5caba	0.08095308
69	0x3d95c597	0.07313078
70	0xbd362a1f	-0.044473764
71	0xbd7518a6	-0.05983796
72	0xbbaa7a3d	-0.00520256
73	0x3bbd20c0	0.0057717264
74	0xbdf52aa2	-0.11971022
75	0x3cff8abb	0.031194082
76	0xbdeca2ce	-0.1155449
77	0xbd967b23	-0.07347705
78	0x3d6902e3	0.05688752
79	0x3d87e7b5	0.066359915
80	0xbc06a642	-0.00821835
81	0x3df00682	0.11719991
82	0x3d9933c2	0.07480575
83	0xbe0ad32b	-0.13557117
84	0x3e095eeb	0.13415115
85	0x3cd2afe0	0.02571863
86	0xbe0cdda7	-0.13756429
87	0x3deaf934	0.11473313
88	0x3dcdf1d8	0.10055894
89	0xbcebb0cf	-0.028770832
90	0x3ca84666	0.020541381
91	0x3d747061	0.059677485
92	0xbcdd7877	-0.027034981
93	0x3e00cf92	0.12579182
94	0xbdbac0be	-0.09118794
95	0xbdcafa32	-0.09911002
96	0xbd1fef24	-0.03904642
97	0xbc68a32d	-0.01419906
98	0x3ba9b63d	0.005179195
99	0x3cada4fa	0.021196831
100	0xbbc25ad1	-0.0059312363
101	0xbd04a7f2	-0.032386728
102	0xbc27ecf7	-0.010249368
103	0x3c5c2259	0.0134359235
104	0xbc859742	-0.016307477
105	0xbd50fb12	-0.05102069
106	0x388931dc	6.541956e-05
107	0x3c983b02	0.018582825
108	0xbd024cce	-0.031811528
109	0x3c3ee2f5	0.01165079
110	0xbbe18910	-0.006882794
111	0xbc3a7247	-0.011379785
112	0x3b2634ac	0.0025360985
113	0x3c661551	0.014043168
114	0xbd19be3c	-0.037534937
115	0xbcc0d6fb	-0.02354001
116	0x3bfcfb55	0.007720391
117	0x3d09f85f	0.03368413
118	0x3c227ea1	0.009917886
119	0x3cd95749	0.026530879
120	0x3d2a4716	0.0415717
121	0xbd73776e	-0.05944007
122	0x3d7bda26	0.06148734
123	0x3bb2e87f	0.0054598446
124	0x3d6f3e32	0.058408923
125	0x3bc85d7c	0.00611466
126	0xbd115bc9	-0.035487924
127	0x3d082334	0.033236697

MLP.13.bias f4 [4]
0	0xbd56d5f5	-0.05245014
1	0x3dc907e6	0.0981596
2	0xbe254fdf	-0.1614375
3	0x3bf28d00	0.0074020624
