example/model/polygon_robot/model_2000.pth (torch, 24610 bytes, 18 tensors)

MLP.0.weight f4 [32, 2]
00000000: cd7c b13e 8433 63be 157f e33d 5144 05bf
00000010: 32d6 29bf f5ea da3e 57b9 e6be 89fa bd3e
00000020: ceaa 9b3e 503b bcbe 8012 1cbf 7d08 dfbe
00000030: 58d3 61be 9501 bfbe 2d6c 083f cb47 dabe
00000040: 2837 9c3e ee70 30be b3c2 ecbc f923 0fbf
00000050: fe54 cc3e c382 9c3e fe43 0b3f dcc4 b0bd
00000060: 449e b0be d1e7 fd3d 604d 023d 0959 e0be
00000070: f854 c03e fbbb 7cbe 2c2c 0d3f d722 e73e
00000080: fbcf 21bf 6091 e3be ce90 b23e 2bc9 1dbf
00000090: 7304 dc3e ae19 08bf 77e6 6fbc ddf2 d6bd
000000a0: 97dd 01bd 428a 8f3e 3815 c23e e789 1d3d
000000b0: 0656 5b3e 76a7 383e 8cdc b63d 7414 7a3e
000000c0: 026a 0a3e 1060 b73e a4cb ddbd b343 8a3e
000000d0: 804a 23bd 7814 10bf 7a14 a5bb cd53 85bd
000000e0: ef6b 2bbe 7a42 50be b221 103e 074e 173e
000000f0: 8d73 193f 3ed1 d5be f670 cebc 5b31 813d
0.34665528 -0.2218762 0.11108223 -0.5205737 -0.6634246 0.42757383 -0.45063278 0.37105206
0.3040375 -0.36764002 -0.6096573 -0.43561164 -0.22053277 -0.37305894 0.53290063 -0.426329
0.3051083 -0.1723058 -0.028901434 -0.55914265 0.39908594 0.30568513 0.5440062 -0.08631298
-0.34495747 0.12397731 0.03181207 -0.43817928 0.37564826 -0.24681084 0.55145526 0.45143768
-0.6320798 -0.4444685 0.34876102 -0.6163508 0.42972144 -0.53164184 -0.014642349 -0.10495541
-0.031705465 0.2803517 0.37906814 0.038461592 0.21419534 0.18032631 0.08928785 0.24421865
0.13517001 0.35815477 -0.10829857 0.27004775 -0.03986597 -0.5628123 -0.0050378414 -0.06510124
-0.16740392 -0.20337859 0.14075354 0.14775859 0.5994194 -0.41761202 -0.025200348 0.06308242

MLP.0.bias f4 [32]
00000000: e9d2 d43c 65db 1d3f 9ea8 4c3d a3d2 913e
00000010: d881 c73e c655 513e 3f40 783e c6a7 043e
00000020: 55ae b53e 2c72 a93d 8a50 1fbe 670a 08be
00000030: ed41 833e 880a 7abe 6552 b23b d2d9 8e3e
00000040: 409b 83be 0bc8 383e 1f54 b3be 9ead 82be
00000050: 3a3b ffbd 1f3c ce3e 1e16 833e 0266 1c3e
00000060: f7e7 d93e 39dd e3be 2cab 893e 99bc d43e
00000070: 6b15 57be f72b a8be 7247 23bd 00c2 b4be
0.025979476 0.61662894 0.049965493 0.28481016 0.3896625 0.20442876 0.24243258 0.12954625
0.35484567 0.0827373 -0.15558067 -0.13285218 0.25636235 -0.2441808 0.005441951 0.2790056
-0.25704384 0.1804506 -0.35025117 -0.25523084 -0.124624684 0.40280244 0.25602812 0.15273288
0.42559788 -0.44504717 0.26888406 0.4155014 -0.21004264 -0.32846043 -0.039863057 -0.3530426

MLP.1.weight f4 [32]
00000000: c3d9 4b3f 3d64 573f 25e4 1e3f 766a 4e3f
00000010: 4c23 3b3f 6ff8 3c3f b42a 3b3f 0baa 253f
00000020: 209e 413f b1a4 3f3f 91c8 303f d6fe 5f3f
00000030: 697c 3e3f 84ed 5a3f c92a 433f b912 5e3f
00000040: 39cf 343f 8b48 483f a5f0 4b3f 70b3 323f
00000050: 26e4 603f 09ac 513f b393 513f b9dc 533f
00000060: bfe8 483f 532b 603f e412 503f 63fe 3f3f
00000070: b079 593f fa03 4f3f 3f22 3d3f 01a5 5d3f
0.79629153 0.84137326 0.6206687 0.80631196 0.73100734 0.7381658 0.73112035 0.6471259
0.75631905 0.74860674 0.6905604 0.87498224 0.74408585 0.8551867 0.7623716 0.8674732
0.70628697 0.7823569 0.7966407 0.6980505 0.87848127 0.8190313 0.81865996 0.8275867
0.7848014 0.8756611 0.81278825 0.7499754 0.84951305 0.8086544 0.7388038 0.865799

MLP.1.bias f4 [32]
00000000: 4d0b 413b 77b0 a7bc 2f14 19bd 7e79 b6bb
00000010: 922b db3b dce0 0f3d 08a4 d7bc c482 6dbd
00000020: 50df 2fbd facd 15bb 6f74 ee3b d66b d53c
00000030: 36bf 073b 40cf 3abc 6491 3cba eece e1bc
00000040: befc 70bd e2b1 a63c 996c 23bc 892b 86bc
00000050: 4b2b 533d ab80 a3ba a944 323d 9778 653c
00000060: 61cc 353d f4cc 8fbc 78ad 913b 70fd 8b3a
00000070: a44e bbbc e7f2 a43b 9b9c 6d3d d48d 68bc
0.0029456199 -0.020469887 -0.037372764 -0.005568682 0.0066885436 0.035126552 -0.026323333 -0.057986036
-0.042937577 -0.0022858367 0.0072770636 0.026052397 0.0020713336 -0.011401951 -0.0007193296 -0.027564492
-0.058834784 0.020348493 -0.009974622 -0.016378181 0.05155496 -0.0012474259 0.04352251 0.014005802
0.044384364 -0.017553784 0.004445728 0.0010680389 -0.022864647 0.005033839 0.05801068 -0.014193971

MLP.3.weight f4 [32, 32]
00000000: f46b 7dbd df8c 2f3d 90c7 b4bb cbbd 15be
00000010: 4fd8 da3c ff2e b4bd a69d 1e3e 9fb2 08bb
00000020: fb87 f73d 337f ef3d 08a6 0b3b 95e9 f4bd
00000030: 0d28 1c3e dbfd 94bd 0304 10be 9ced 153d
00000040: 4f0c 3ebd c555 0ebd 46b0 49bd 0d7b 4abd
00000050: fd10 c23d 79d5 db3d c834 9bbc 1f6b 6e3b
00000060: 916c 243e 573a 02be 0228 f03d 9c8d e93d
00000070: fa3c c4bd 2d31 5ebd 7da8 f63c fe63 7e3c
00000080: 0061 053d 85ad 393d 42de c6bc abc6 a2bd
00000090: 34d7 c0bd d3ce ccbd 8219 e5bd 447e c5bd
000000a0: 5240 0ebd ee34 29bd 776e 75bd 14c1 3a3d
000000b0: a9b8 78bd 849d bbbd 68ea e93c 7386 f4bc
000000c0: c406 eabd c165 ba3d 28f1 7f3d 339e db3c
000000d0: b8d2 11be 514e 4b3d a852 18bd d0d2 fa3d
000000e0: 674e ab3d bbff 8c3d 3cfd 1fbc de97 eb3b
000000f0: 8179 ac3d c524 85bd bfdf 05be 1d94 eb3d
00000100: 5b25 993d bed5 2ebb 0006 1abd 9028 d2bb
00000110: fe25 ad3d 9763 0b3e e1b0 c3bd d599 483d
00000120: 3c42 39bd ecc1 c7bd e398 833d 2476 923c
00000130: b42d 0fbd d00d e2bd 8cd3 73bd 6340 d6bd
00000140: c5ff 783c eacc 15bd 1e20 7a3c deb6 a23c
00000150: b7d9 1cbe 7e18 8b3d 0798 dfbd 0856 a03d
00000160: a40c 6a3c 51e7 f2bd 0f97 153e 247a 983d
00000170: f52d 613c 33c1 18be 70ac 9dbd a1de c6bd
00000180: b314 323e ffdd 97ba 30a3 f53d bce0 2cbe
00000190: 2be2 a2bc 885e a43d cc19 99bb aa48 6fbc
000001a0: 2410 04be b30c ad3d ff9b 8abc 8182 593e
000001b0: ba3f 9a3d 6093 17be 2279 b13d cc57 3abe
000001c0: 6610 d6bd 71b2 1b3c 186f e83d 79ae 45bc
000001d0: 4365 16be 1ee4 1a3e 7636 f03c 936b 113e
000001e0: 27ce 3a3d 9960 0c3e 7f9d 17bd ec5e 70be
000001f0: 3ac7 1e3a b8c6 c73d add5 033e ef0b 0f3e
00000200: 198e 1abe 1b39 e5bd f316 f9ba f40f 4c3d
00000210: 9b15 42bd 9e72 0abc 5175 df3d acf1 ae3d
00000220: 5080 bd3d 47de babc 35c9 0dbe 6b8e 0cbd
00000230: 950d 4f3d a3b0 3d3c 453f a73d 6f7c d1bd
00000240: e886 573d 39e1 c93d 68b3 f73d 8505 1c3e
00000250: bf8c 0f3e fab6 37be 3d56 7e3d 592d 03bd
00000260: 3885 083e be57 b23d 42cf edbc 90ce 8ebc
00000270: 786f 613d 9ae3 943d 2c11 ea3c 8d45 973d
00000280: 8ba0 4bbe 76dd 383d c276 243e fd59 f3bc
00000290: bfcc 3ebe a671 5d3d 527c e5bc c1e8 98bd
000002a0: 2980 1cbe aedf 65bc 1cbf be3d ef32 873c
000002b0: 0540 18bc b934 093e d309 4dbe fe0e 6a3d
000002c0: 1e0e 1e3e d76e 12be 7009 2fbd b211 293e
000002d0: 9b6f 31be b6bc 60bd 72e7 19bd fbf5 24be
000002e0: 38cf 3abe f3ff aa3d 29f3 f13d a9c6 bd3d
000002f0: aa3a bb3c adab 493d cc92 163d 5d4f ba3d
00000300: acc5 0e3e 5977 b3bc a78b 5dbd ff57 df3d
00000310: 8d0c 033e 967a 5abc 6932 ebbb 131f 86bd
00000320: 7169 1ebe 5a1e 363d 3d47 0abd 386b fd3d
00000330: bbc6 0cbe f4ce 44bd d26e cd3d ee9b 023e
00000340: 0392 df3c e784 f63d 9cbb 08be f516 cdbd
00000350: 8af5 f4bd ad59 e7bd 7800 0b3e f523 babd
00000360: 70c5 8fbd 9d4f 13be c4d5 8b3d e310 cebc
00000370: c44f aa3d ae4a 5ebd 8829 d9bd f156 a93c
00000380: 1675 103d 1658 fcbc 4426 593d 9986 5c3e
00000390: c498 053d 1a9e 143e bae4 f43c b2e5 a63d
000003a0: 8fdd f0bd a123 923c ea3b 67bd f372 a13d
000003b0: ab31 8fbc 476b 2dbd 4eb2 83bd fb8f 1a3d
000003c0: 44a5 ccbd 88ff 81bd be1a cfbd c001 573d
000003d0: fd76 013e 1de8 843c 367c 0ebe 8021 dbbd
000003e0: 6e91 d83d f16e da3c fd27 79bd d55c 9b3d
000003f0: 298a 1fbe f873 f23d 7bc0 1dbc 21fc 76bb
-0.06187053 0.042858955 -0.0055169538 -0.14623182 0.026714472 -0.08798026 0.15489826 -0.002085842
0.12086483 0.11694183 0.002130868 -0.11958615 0.15249653 -0.072749816 -0.1406403 0.036603555
-0.046398457 -0.034749765 -0.049240373 -0.049433757 0.094758965 0.10734076 -0.018946066 0.0036379767
0.1605704 -0.12717567 0.11726381 0.11403963 -0.09581943 -0.054246116 0.030109638 0.01552677
0.03256321 0.045331497 -0.024275903 -0.07948049 -0.09416047 -0.10000386 -0.11186506 -0.09643224
-0.03472931 -0.041310243 -0.0599198 0.04559429 -0.06072298 -0.09160903 0.028554156 -0.029849267
-0.11427072 0.09101439 0.062485844 0.026808834 -0.14240539 0.049635235 -0.037188202 0.122472405
0.083645634 0.06884714 -0.009764966 0.007189735 0.084216125 -0.06501154 -0.13073634 0.1150286
0.07477828 -0.0026677693 -0.03760338 -0.006413527 0.08454512 0.1361221 -0.09555221 0.04897483
-0.04522918 -0.097537845 0.06425645 0.0178786 -0.034955695 -0.11037791 -0.05952792 -0.104614995
0.015197699 -0.036572374 0.015266446 0.019862588 -0.15317427 0.06791781 -0.10917669 0.07828909
0.01428524 -0.11860526 0.14608406 0.074451715 0.013743867 -0.1491745 -0.076989055 -0.09710432
0.17390709 -0.0011586546 0.11994016 -0.16882604 -0.019883236 0.08025843 -0.0046722647 -0.014604727
-0.12896782 0.08449688 -0.016920088 0.2124119 0.07531686 -0.14802313 0.086656824 -0.18197554
-0.104523465 0.009502993 0.113493145 -0.012065523 -0.14687066 0.15126082 0.029322844 0.14201193
0.04560676 0.13708724 -0.037015434 -0.2347371 0.0006056909 0.097546995 0.1287448 0.13969396
-0.15093268 -0.11192533 -0.0019004032 0.0498199 -0.047383886 -0.008450178 0.10911048 0.08542189
0.09252989 -0.022811068 -0.13846286 -0.034315508 0.050550062 0.011577758 0.081663646 -0.10228812
0.05261889 0.09857411 0.12094766 0.1523648 0.14018534 -0.17940894 0.062093962 -0.03202567
0.13332069 0.08708142 -0.029029492 -0.017432481 0.055037946 0.07269974 0.028572641 0.07386313
-0.19885461 0.045133077 0.16060928 -0.029705996 -0.18632792 0.05406346 -0.028013382 -0.07466269
-0.15283264 -0.01403038 0.09313795 0.01650378 -0.009292607 0.13399018 -0.20023279 0.057143204
0.15435073 -0.14300095 -0.04273361 0.16510656 -0.1732773 -0.05486747 -0.03757424 -0.16109459
-0.1824311 0.083496 0.11813957 0.09266407 0.022855122 0.04923599 0.03676109 0.090971686
0.13942593 -0.021907495 -0.05408826 0.10905456 0.12797756 -0.013334891 -0.00717764 -0.06548896
-0.1546991 0.04446254 -0.033759344 0.12373966 -0.13747685 -0.04804893 0.10030903 0.12754795
0.027291304 0.12037068 -0.13352817 -0.10014144 -0.11960895 -0.11296401 0.13574398 -0.090888895
-0.0702008 -0.14385839 0.06827882 -0.025154537 0.08315995 -0.05427044 -0.106036246 0.02067134
0.03526791 -0.030803721 0.05301501 0.2153572 0.03261639 0.14513436 0.029894222 0.0814928
-0.11761009 0.017839255 -0.056453623 0.07883253 -0.017479738 -0.042338636 -0.06430493 0.037734967
-0.099924594 -0.06347567 -0.101125225 0.052491903 0.12643047 0.016223961 -0.1391457 -0.10699749
0.105746135 0.02666423 -0.06082915 0.07586066 -0.15580048 0.118385255 -0.00962841 -0.0037686902

MLP.3.bias f4 [32]
00000000: 556d bb3d 6785 e3bd b837 12be a8cc efbc
00000010: bb9d 403c 1e5c 00bc ba14 8e3c 8ea1 903c
00000020: 7cbf e53d ff27 0dbe df9d 89bd 3755 0b3a
00000030: 4a30 bdbc a1db 64bd f3a5 dabd 3dfa 39be
00000040: b4d0 15bd 1dac 99bc 6440 1fbd 114f 1f3e
00000050: 5cb1 01be 2466 f5bd 0f2a 2e3e e30b 40bc
00000060: 1bf2 df3d e8e9 4fbd dff7 48bd ab7e 803d
00000070: e969 02bd 9c5e 153d 835d 14be d309 fa3d
0.09151713 -0.11109429 -0.14279068 -0.029272392 0.011756356 -0.007834462 0.017343868 0.01765516
0.11218163 -0.13784789 -0.06719565 0.0005315127 -0.023094315 -0.055873517 -0.106761836 -0.18161865
-0.036575988 -0.018758828 -0.038879767 0.15557505 -0.12665313 -0.119823724 0.17008232 -0.011721584
0.1093485 -0.05076018 -0.049064513 0.0627416 -0.031839285 0.03646718 -0.14488797 0.12208905

MLP.5.weight f4 [32, 32]
00000000: 1816 433c 967d 30bd b4b2 ae3d bbca a8bd
00000010: 4bf9 7cbd 951c ccbd 6b14 253e 2a9f 13be
00000020: e0a1 7e3b c787 42bd 9476 00be e2d2 613d
00000030: 5c6b 2bbd ae5f 4c3b d6ea 3b3d f9fc 0cbe
00000040: 04f1 15bd 7222 253a d2de a33d 09a8 983d
00000050: 2f78 80bd f4ea 8c3d ada8 c33d 314e cabd
00000060: f1f6 d9bd 99c7 b03b 27a6 603c 5397 bdb9
00000070: 405b ce3d 202d 70bd f3cf 4dbd 14ff 0fbd
00000080: 9a8d 973c cbe1 88bd 305e 2ebd fb6e 583b
00000090: b30d a8bd 687c 153e 950c b7bd 892e a03c
000000a0: 8232 853d 562b 6cbc 0147 913b 92a3 bdba
000000b0: fb29 85bd c770 783d efc2 26bc 4a96 103d
000000c0: a359 963d 670b cb3c e7a5 2d3c e87a 18be
000000d0: d74e 2c3d c0f0 fd3d 0273 133d f91f d7bc
000000e0: 35ce a23d 4b01 b13d a84b ba3d fa72 52bd
000000f0: 0f07 9ebd 2b16 e23d 275f 053e 1669 143d
00000100: db3a dcbd c549 95bd 9c6e a33b de1d d83d
00000110: 099a 493d 47a7 3cbe 8ae1 a5bd 6ef2 063d
00000120: afb9 973c 4c26 71bd ba3a 873a 24d6 25be
00000130: ace0 c7bd dcce 03be 84a0 303d 2fa8 05be
00000140: ef94 1fbd a323 b33d da89 8cbd 3fcd 033e
00000150: 1f2b 80bb bdab b6bd e202 96bc 5a41 65bd
00000160: 79ae f33c 8ae0 3c3e 70e3 1cbe b99d d33c
00000170: dc4c 45bd 0771 033e 3682 ea3d c481 943d
00000180: 940c 82bd 150b dfbd eadf d13d 47fd 44bd
00000190: 93f3 233e 21e1 753e 56b4 a53d 0432 4cbd
000001a0: 23ae 333c 0fb3 63bd f366 8c3d 5829 b13d
000001b0: 7271 c83d 21e9 013e 0348 e2bb d0ac a2bd
000001c0: ee0b 87bd 245d d03d 1e9d 4cbd 31a6 a4bd
000001d0: 43da 383d 642c e63d 6aa0 793d 4e0d ea3c
000001e0: ab51 b7bd dec5 05bd ec2a b1bd ced7 67bd
000001f0: f7ad 0c3d ee0a 1a3e a5fb 863d 9f25 8b3d
00000200: 0024 b9bd 340e 9f3d 8f27 1cbd b71b cb3c
00000210: 582d 25bc 07a5 9fbd 2b71 8f3d a9dc a9bd
00000220: cc78 2a3d ea97 4fbd 07dd 843c 0dd5 e73d
00000230: 306b a0bd b403 abbc 983b 3a3d 54ec f3bd
00000240: ec2f 9c3d 9f36 553d 3065 e5bd 9512 6e3d
00000250: 9240 d13d 1623 d93d 9798 15be 45f9 7ebd
00000260: a16b 88bd ae0e 233d 3db2 813d 0746 e73d
00000270: e910 68bc 7b6d 3abd 24f6 de3c fa62 b93d
00000280: e72e 96bd ffe7 97bd 78e9 193e 48e5 eabd
00000290: 99ec d8bd ad20 d4bd 9cdb 693c 5eda 483d
000002a0: b741 5c3d 5ce7 7fbd ab11 06be aad4 e03d
000002b0: bec1 513d 2dc3 5fbd 34e2 983d 316a 80bd
000002c0: acf3 db3c b95f 82bd c6bd 803d f29a ae3d
000002d0: 5500 a8bd 6489 c23c dcef 0e3e 0919 2e3e
000002e0: 913b c2bc 356d b33d 6fb5 adbd 45aa 80bc
000002f0: 7fe9 a3bd 7975 403d ae7d d43d 1585 1e3e
00000300: d823 a33d 3308 733d e13c f3bd 2851 833d
00000310: 76b7 323d f547 d0b9 b7bb 83bc b156 e9bd
00000320: aa84 ee3d e864 273d 43a0 993d de6d 633d
00000330: 1d5e 993d 18c5 813d 22d1 3fbd b559 06be
00000340: 4dd0 f03c 47f1 d83c e07c d83d 7d84 bfbd
00000350: ca6c 503d 0cb1 ca3d 4229 24bd 9b3b ad3d
00000360: a492 c43d 6f5d 8b3c 2048 6e3d be65 bcbd
00000370: 0206 1b3e 3eab f6bd ba40 f1bc def4 4aba
00000380: 629f d8bc 69cf 1c3d a08d 003c c58b 743e
00000390: 4967 13be 6193 e3bd e933 e3bc a951 bfbd
000003a0: 352e 82bc bf63 a8bd a291 7bbd f5c8 4dbd
000003b0: 2c59 1ebd 1812 f6bd e0ea bbbd c33d 713d
000003c0: ad36 b0bc 3d3c d5bd 3f7d 54bd 2541 173d
000003d0: 2cc2 f6bc 8aec cdbd 4eaa b5bc 05ec 0d3e
000003e0: 6a3f 283e e3d2 60bd e0f5 293d 7beb 213d
000003f0: f7a5 1e3e 8d06 413e f3db 9abd 12ea 033d
0.011907123 -0.043088518 0.08530179 -0.08241793 -0.06176118 -0.09966389 0.1612107 -0.14416185
0.003885381 -0.04749277 -0.12545234 0.055132754 -0.041850433 0.003118496 0.045878254 -0.13768376
-0.036606804 0.0006299383 0.08001484 0.07453925 -0.06272923 0.06880751 0.09553657 -0.09878195
-0.106428035 0.0053948876 0.013711489 -0.00036161634 0.10075998 -0.058636785 -0.050247144 -0.03515537
0.018500138 -0.066836916 -0.042570293 0.0033025134 -0.08205738 0.14598238 -0.08937947 0.01955344
0.06503774 -0.014414629 0.004433513 -0.0014468303 -0.06502148 0.060654428 -0.010178312 0.035299577
0.073413156 0.02478571 0.010598636 -0.14890635 0.042067375 0.12399435 0.035998352 -0.026260363
0.07949487 0.08642825 0.090964615 -0.05137918 -0.0771619 0.110393845 0.13024579 0.03623303
-0.10753413 -0.07289461 0.004987551 0.10552572 0.049219165 -0.18423186 -0.08099659 0.032946043
0.018521158 -0.058874413 0.0010317184 -0.1619497 -0.0975965 -0.1287188 0.04312183 -0.13052438
-0.038960394 0.087470315 -0.068622306 0.12871264 -0.0039113904 -0.08919475 -0.018311922 -0.055970527
0.029746281 0.1844503 -0.15321136 0.025832044 -0.048169002 0.12836085 0.11450617 0.07251313
-0.06350055 -0.108907856 0.10247786 -0.048093107 0.16010885 0.24011661 0.08091037 -0.049852386
0.01096681 -0.055590685 0.068555735 0.08650464 0.09787263 0.12686588 -0.006905557 -0.079431176
-0.06594072 0.10174015 -0.049954526 -0.08039511 0.045130026 0.112389356 0.060944 0.028570797
-0.08951124 -0.032659404 -0.08650765 -0.05660229 0.034345593 0.15043232 0.06590966 0.06794285
-0.090400696 0.07766381 -0.038123664 0.024793489 -0.010081612 -0.07795148 0.07004007 -0.08294041
0.041619107 -0.050681986 0.016218675 0.11319933 -0.078329444 -0.02087579 0.04546699 -0.119103104
0.07626328 0.052054044 -0.112009406 0.05812319 0.10217394 0.10602395 -0.1460899 -0.06224944
-0.066611536 0.03980892 0.063328244 0.112926535 -0.014164188 -0.045514565 0.027216978 0.090520814
-0.07333165 -0.074172966 0.15030468 -0.11469513 -0.105920024 -0.10357795 0.01427355 0.049036376
0.053773608 -0.0624765 -0.13092677 0.109780625 0.051210158 -0.054629494 0.0746502 -0.062702544
0.02684959 -0.06365914 0.062861964 0.08525647 -0.08203188 0.023747154 0.13958687 0.17001738
-0.023710044 0.08761064 -0.08481871 -0.01570619 -0.0800352 0.04698703 0.10375534 0.15480454
0.07965821 0.05933399 -0.11876846 0.06411964 0.043631993 -0.00039726464 -0.01608072 -0.11393488
0.116463974 0.040867716 0.075012706 0.0555247 0.07488654 0.06336421 -0.046830304 -0.13120158
0.0293962 0.026482238 0.10570693 -0.09351442 0.050885 0.0989705 -0.04007841 0.084586345
0.09598282 0.017012326 0.058174253 -0.09199093 0.1513901 -0.120443806 -0.02944981 -0.00077421765
-0.026443187 0.03828374 0.007846266 0.23881443 -0.14394869 -0.11112095 -0.027734714 -0.09341747
-0.015891174 -0.0822215 -0.061418183 -0.050240476 -0.03865926 -0.1201517 -0.09175658 0.05889679
-0.021510446 -0.1041188 -0.051877256 0.03692736 -0.030121885 -0.10054882 -0.022175934 0.13859566
0.1643044 -0.054888617 0.04149425 0.039531212 0.15492998 0.18850155 -0.07561483 0.03220565

MLP.5.bias f4 [32]
00000000: a5c8 d0bd 0c77 083e 4149 fa3d c703 8abd
00000010: 3dae 103e 951f 01be 33e0 613d 3e48 033d
00000020: b0c4 8fbd fe2e f7bd f006 dbbd d0ae 923d
00000030: 0e54 3abe f697 673a 52cb 54bd b486 da3d
00000040: 14eb ae3d b74b 11bb f4d2 103e 5619 a3bd
00000050: ad8a 163d 80b7 ac3d 19a1 26bb 0b97 003e
00000060: 6526 1b3d 7fea ca3d 56d2 96bd 0b93 b33d
00000070: 8c25 0cbe 32b3 8ebd 8eda 9cbb 29ff a43c
-0.1019452 0.13326663 0.12221003 -0.06739002 0.14128967 -0.12609704 0.055145454 0.032051317
-0.07019937 -0.1206951 -0.106946826 0.07162249 -0.18196127 0.00088345946 -0.051951714 0.10670224
0.08540931 -0.0022170374 0.14142972 -0.07963817 0.036753345 0.08433437 -0.0025425612 0.12557618
0.037878413 0.09908008 -0.07364337 0.087682806 -0.13686198 -0.069677725 -0.004786796 0.020141201

MLP.6.weight f4 [32]
00000000: 08b3 5b3f 7d7d 523f bbca 2e3f c989 583f
00000010: 6f2a 4e3f 64ad 553f 08a0 5e3f 1925 543f
00000020: 315c 4d3f 1cb4 4f3f 93c5 393f 40d8 4f3f
00000030: 1906 513f cbdd 323f b5b2 5f3f 216e 503f
00000040: 5ee3 5b3f bf6a 503f 0e26 533f abfc 593f
00000050: 4a88 583f 8470 4c3f 5d2e 623f 7a49 5c3f
00000060: f7e4 3f3f f86a 5d3f 94fb 623f 710b 333f
00000070: bc76 5a3f 5850 3c3f dcc8 5f3f d96b 253f
0.85820055 0.8222273 0.6827809 0.84585243 0.805335 0.834677 0.8696294 0.82869107
0.802188 0.811342 0.725671 0.81189346 0.8164993 0.6986968 0.8738206 0.81418043
0.8589381 0.8141288 0.8247994 0.85151166 0.8458296 0.79859185 0.88351995 0.86049616
0.7495875 0.86491346 0.8866513 0.69939333 0.85337424 0.73560095 0.8741586 0.6461769

MLP.6.bias f4 [32]
00000000: 89ee 5abb fc02 583d b97f 70bc 5e14 2e3b
00000010: e6eb 40bc 9a8f f23b 489b 9fbb 44c8 9dbc
00000020: 29f8 1abc f007 5abb 25f3 733b ce3d d9bc
00000030: 9c43 7dbc 19ca 73bb bb47 f73c 8b2a 643c
00000040: 3d92 efbc 0ab7 58bc 9c53 8f3b e876 683b
00000050: e158 53bc 8435 c7bc f2b5 a7bc c915 1abb
00000060: 3a2d a23c c782 6abc 56d4 103c 123f e43c
00000070: cbc5 013b 4424 3bbc 6514 983c 336a 073c
-0.0033406338 0.05273722 -0.014678889 0.0026562433 -0.011774993 0.0074023725 -0.004870806 -0.019260533
-0.00945858 -0.0033268891 0.0037223783 -0.026518729 -0.015458014 -0.0037199317 0.030185571 0.013926159
-0.029244537 -0.013227234 0.0043739807 0.0035471264 -0.012899608 -0.02431751 -0.0204725 -0.002351152
0.019796956 -0.014313406 0.008839687 0.027862106 0.0019801732 -0.011422221 0.018564412 0.008265066

MLP.8.weight f4 [32, 32]
00000000: 5580 ebbd e149 183e 4874 3a3e 61f9 893d
00000010: a976 a03c 0f6c 9dbc e632 93b9 793d 3e3d
00000020: 7585 5ebe 970c b93d 4d16 853b ec16 a93d
00000030: d51c 29be 86cf fc3c fdbe 6d3d 6af6 11be
00000040: ef20 62be 080c 28be 216f 153e 2f0b e4bd
00000050: 76de a6bd 59c1 13bd 2538 2c3e 6a67 453e
00000060: a686 e23d e9aa 3abe d779 2f3e aca3 bd3d
00000070: 4378 f2bd a2ad fdbd 65c3 b93d 8d4d 30bd
00000080: 7b94 d401 18ec ae81 f639 e981 a1a0 3701
00000090: 5e39 b581 181f e880 908a ce81 67f8 b401
000000a0: ed34 c481 c29f c201 e818 ff01 1e10 2700
000000b0: cac8 ff01 2025 fc01 4bc5 0582 e841 fa80
000000c0: 3399 cb01 6d5b 0e02 2fac cb81 361d c081
000000d0: 689e 5200 38a5 8e01 88de a081 515f 1502
000000e0: 8b4b d101 9735 8a81 2265 8f01 2012 9881
000000f0: d86b 4181 92d2 c081 ee34 be81 7a58 c201
00000100: 7e8b e5bc 4850 dcbc 4d75 9bbd b0e8 19be
00000110: 28b7 02bd 5b5e 64bc 6a0e 4e3c e79d 573b
00000120: 93f0 e83c 6a2a 2dbd d9de 3b3d a821 96bd
00000130: 7a4b e7bc 8cd8 2dbd caf2 103d a72c b43b
00000140: c402 a1bc 6afe bfbb d416 8abd f7cf 4a3d
00000150: 9d17 19bc 0d16 7fbb 544b a13c 1ebd 23bd
00000160: ac4a e23d e378 00bd 9eb0 ea3c de87 a13b
00000170: 5328 cdbc d0f5 933d d1b0 253c 8d32 5a3d
00000180: b67d bd3d b2a5 b3bd 3815 133d 7e49 3abe
00000190: cf6f 0a3e fb3a d53d 8f7c 003d 4842 9a3c
000001a0: 0047 8dbc fc38 4abd 4d1b 0abe d049 473d
000001b0: c57a d1bd c905 c33d caad febd 6390 89bd
000001c0: 258e 7d3c a7f2 bf3d 0f0b c7bd 8e0d 723d
000001d0: 0ebb 49bd 062d 3fbd 5c9e 133c bdae 713d
000001e0: a721 173e 6964 58bd 0501 913d 1e2f 9a3b
000001f0: 6553 8f3d b962 3c3d ec31 c73d 9a3e 0a3d
00000200: e543 cbbd 3440 2c3d f395 cd3d 46bd 2e3e
00000210: 70c3 2d3e fcea 92bd 01ac cf3d 1019 26bb
00000220: ef76 123e 719f 983d 3009 36be 7fd8 ad3c
00000230: 3ab0 84bd 0c7f 643d b75b a1bd e890 b03d
00000240: 7ab9 49bd 9e72 35be c724 fe3b 290e a53c
00000250: 477c bb3d 9db9 28be 9bca 4bbd 6983 d0bd
00000260: 1845 6abd b5ba f8bd 059c a53d f853 87bd
00000270: ba7d 72bd 47e8 0f3e 1580 0b3e b898 99bd
00000280: 9b45 c6bd 0c3a 73bd 66f4 2dbd fd0e e7bd
00000290: 5216 debd efb1 c63d 05cf 843d 9c4c 3e3d
000002a0: ec00 57bc e10e 18be 7b18 2bbd f08b b13d
000002b0: e031 1f3e aa2b 6c3d 6652 92bd 026e 9bbc
000002c0: 723d fcbd 8a6b 2abe c2dc eebd 7269 2ebe
000002d0: 1423 4abd 3309 a6bd 078f 0b3e ee77 063e
000002e0: 6eb4 9bbd dd38 b2bb b6f7 d63d 99f6 1f3e
000002f0: 3db6 773d 93c6 83bd 2dc2 be3d 17f7 983d
00000300: 8fd1 373d 7b12 813c ecf2 333d a7e3 06be
00000310: 0ce3 943c 1703 293d b6c4 4f3d a557 dcbd
00000320: 7c08 01bc 7a8d afbd 2a0b 033e 84a8 0bbe
00000330: 466d 823d a670 89bd a1e4 603d 5eda cfbb
00000340: 421f 2dbd 04c7 d23d e098 b13d a527 d23d
00000350: 8f99 bebd b77a bc3b 7793 1e3b c7c8 34bd
00000360: 9996 b4bc 9ee3 d53d f564 85bd 60f7 ab3d
00000370: d5be 8d3d dbfc 46bc 98ea 81ba ae13 b93d
00000380: de98 513d 1950 bc3c c6e2 d13d 7d3f ee3c
00000390: 602d 1dbe f500 02be ed29 b4bb 7243 773d
000003a0: 1bbe e7bc f0e2 103e 475d d33d f907 d73d
000003b0: 0d1e 273d 5743 293e a415 2abe 8746 a43d
000003c0: 78cb d9bd 1de8 60bd 6837 223e fbf8 0abe
000003d0: b121 d73c f14d 17be 7c66 853d 929b 9e3a
000003e0: 3a6a fc3d 7119 a7bc ace1 273e 5fde 02be
000003f0: 3617 f03d eb9b 5a3d 317c 413d b10c 353d
-0.11499087 0.14871933 0.1820842 0.067370184 0.019587832 -0.019216565 -0.00028075947 0.046445344
-0.21730597 0.090356044 0.0040614964 0.08256325 -0.16514905 0.030860674 0.05804347 -0.14254156
-0.22082876 -0.1641084 0.14593174 -0.111349456 -0.081479 -0.036073063 0.16818292 0.1927773
0.110608384 -0.1822926 0.17136322 0.092597336 -0.11839344 -0.123866335 0.09070472 -0.04304271
7.808956e-38 -6.4256283e-38 -8.567385e-38 3.3727037e-38 -6.6571217e-38 -2.131699e-38 -7.5871276e-38 6.6477997e-38
-7.2074974e-38 7.1493586e-38 9.3707945e-38 3.587366e-39 9.3960324e-38 9.262345e-38 -9.827917e-38 -2.2982517e-38
7.4790253e-38 1.045875e-37 -7.4817494e-38 -7.0571577e-38 7.587336e-39 5.239964e-38 -5.9094034e-38 1.0974146e-37
7.6882874e-38 -5.077009e-38 5.267502e-38 -5.586199e-38 -3.5525876e-38 -7.0831815e-38 -6.987093e-38 7.13913e-38
-0.028020617 -0.02689375 -0.07590733 -0.1503017 -0.031912953 -0.013938512 0.012576679 0.0032900514
0.028435027 -0.042276777 0.04586682 -0.07330638 -0.028234232 -0.042442843 0.03538779 0.005498487
-0.019654639 -0.005859186 -0.06742635 0.049514737 -0.009344009 -0.0038923055 0.01968924 -0.039975278
0.11049399 -0.031365287 0.02864867 0.0049295267 -0.025043642 0.072246194 0.010112957 0.053270865
0.09252493 -0.08771838 0.035908908 -0.18192098 0.13519214 0.1041164 0.03136879 0.018830433
-0.01724577 -0.04937075 -0.13486977 0.048654377 -0.102284946 0.09522588 -0.124354914 -0.06716993
0.015475784 0.09372454 -0.09718906 0.059094958 -0.049250655 -0.046673797 0.009009924 0.059004534
0.14758931 -0.052830134 0.070802726 0.004705324 0.06998328 0.045992587 0.09726319 0.033751108
-0.09925059 0.042053416 0.10038366 0.1706439 0.16969085 -0.07173726 0.10140229 -0.0025344528
0.14303182 0.07452286 -0.17776942 0.021221397 -0.06478925 0.055785224 -0.07878821 0.08621389
-0.04924915 -0.17719504 0.007755849 0.020148354 0.091545634 -0.16477056 -0.049753767 -0.101813145
-0.0571948 -0.121449865 0.08086399 -0.06607813 -0.059201933 0.1405345 0.13623078 -0.07499832
-0.09681245 -0.05938153 -0.042469405 -0.11282156 -0.10844101 0.09701907 0.06484798 0.04645978
-0.013122778 -0.14849426 -0.041771393 0.08669269 0.1554637 0.05765883 -0.071446225 -0.018973354
-0.12316407 -0.16642585 -0.116632 -0.17032412 -0.04934986 -0.08107223 0.1362878 0.13131687
-0.076027736 -0.0054389075 0.10496466 0.15621413 0.06047653 -0.064343594 0.0931438 0.07469004
0.044877585 0.015755882 0.04393284 -0.1317278 0.01817467 0.041262712 0.050724708 -0.10758904
-0.007875558 -0.085719064 0.12797228 -0.13638502 0.063684985 -0.06710939 0.054905538 -0.00634317
-0.042266138 0.102918655 0.08671737 0.10261468 -0.09306633 0.0057519334 0.0024196783 -0.04413679
-0.022044467 0.10443805 -0.06513397 0.083967924 0.06921164 -0.012145246 -0.0009911833 0.09036957
0.051171176 0.022987412 0.10248332 0.029083008 -0.1534934 -0.12695678 -0.005498162 0.060367055
-0.028288892 0.1414907 0.103205256 0.104995675 0.040800143 0.16529594 -0.16609818 0.080212645
-0.10634512 -0.05490886 0.15841448 -0.13571541 0.026261183 -0.14775826 0.06513688 0.0012100807
0.123249486 -0.020397874 0.1639468 -0.1278014 0.11723177 0.05337135 0.04723758 0.044201557

MLP.8.bias f4 [32]
00000000: 07a5 d2bc bb2e e081 463d 5d3c 6726 b5bd
00000010: 1c69 64bd a2a8 98bd ea0c 883d 8157 dc3d
00000020: cd0b d0bd 90be dc3d e9d9 853c 18f2 85bd
00000030: 02fc 843d cf4c fb3c c15c 3281 813a 0fbe
00000040: 4e70 debd 8c86 2fbd c420 d43d 6ca9 08bc
00000050: 0c61 c7bd 5f3d 07be 3fed 33bc 22e8 133e
00000060: 90e9 c9bb 6da9 e6bd 6f82 133e 2689 2abc
00000070: 241e b3bc 1e3e 96bd e326 5b3b f462 133c
-0.025713457 -8.235166e-38 0.013503378 -0.08845215 -0.055764303 -0.07454039 0.06643088 0.107588775
-0.10158501 0.107785344 0.01633926 -0.06540316 0.06493379 0.030676274 -3.2759984e-38 -0.13987161
-0.10861264 -0.042852923 0.10357812 -0.008341175 -0.09735307 -0.13207005 -0.010981857 0.1444402
-0.006161876 -0.11262784 0.14405225 -0.010408675 -0.021864958 -0.07336067 0.0033439926 0.00899576

MLP.10.weight f4 [32, 32]
00000000: dc1f 69bd 1ad8 8481 9feb 91bd 1cf1 cc3d
00000010: fa4c 1bbe cc13 073e 21ea 8a3d 7f09 3cbd
00000020: 5d0a b4bd 3553 1fbe 483e f73c d543 18bc
00000030: a26e 0dbe 1423 473d 5f17 f601 889d 4fbd
00000040: 8f94 eb3d c653 20bd 1d2f 813c c8d1 b2bd
00000050: 0142 203b 4185 103e 700e a0ba 5908 943d
00000060: b668 72bd b02d ce3d e39d 0fbe fc2d 7f3d
00000070: 6aa3 0e3e 8227 bf3c e0c9 8abc 5eb5 833d
00000080: 2937 a4bd beeb d481 b4cf 813a 3cd7 e23d
00000090: c692 d4bd 9bd6 663b 16ed e9bc fbfa 85bc
000000a0: 3ca9 883d 4aba 36bd 2ef3 a13c cdf2 27bd
000000b0: 0294 f1bd c71f 13ba 1d87 c801 bf9f 84bd
000000c0: a4fa 303c 7499 363d 5bf0 64bc 6901 2ebd
000000d0: 6a10 273e 9ee6 063e 2524 1abe a65a 6fbd
000000e0: 016c 813d 0dfc 083e ce61 a7bd 6090 703c
000000f0: 37d7 b93c f159 583d 0095 95bd a6e5 ca3d
00000100: 806e 2b3e db2d 3b00 7db6 6ebc e8d3 5a3c
00000110: 8b29 f13d fd9b e83d e623 06bd fb39 943d
00000120: bbd5 893d 995a e83c 8e92 623c 1bf9 81bd
00000130: 1260 7f3d 94f9 333b eda9 dc01 6ff3 903d
00000140: ba8a e53d 768d b83d ab2b 373d cdcf 743c
00000150: a4e6 913d 01d7 14bd d227 aabd 4467 823c
00000160: e26c 8ebd 3035 213d 1c77 583d 5757 2d3c
00000170: 2fa1 28bd 7c5a f93c 4714 a83b 2f84 c73d
00000180: 1863 943d 7fa2 b101 1752 05bd c887 e83c
00000190: c141 30be 029f 20be be6a c7bc 9683 e23d
000001a0: dcaa 87bd 9bbe 0f3e b2de efbc a542 413c
000001b0: 3598 1b3e 64bf 75bc e0b1 af01 95b5 493b
000001c0: e27d 0cbe 7043 243d a608 eebd af50 293d
000001d0: 6814 0d3e 8d27 d7bc 9374 293d 7c38 973c
000001e0: a582 c23d a5f4 173d d77b 90bd bff4 aabd
000001f0: 8118 02bd 829f be3d 6fd0 873d 07ab f7bd
00000200: 3323 ad3d 568c b681 abd2 2e3d b92a f63d
00000210: ed5b 16be 876c f1bd 1386 d93c 7808 b83d
00000220: 127b c83c 84c5 203e 45f8 ba3c e0d1 34bc
00000230: c4bf 423e ac3d bd3b 2967 d901 b498 833d
00000240: 2729 f5bc 82ea 1f3e 8a5a d03d abee 5a3c
00000250: f382 c8bd 613c 593d 6a02 c93d 5883 053c
00000260: 5ca7 1e3e 9d9c a7bd 4eda 39bd 481e ab3d
00000270: ef02 c83d c400 063e 5aee 6d3d 4fad 093e
00000280: 850b 253e adcc 9581 b93d e63d 4c47 0f3e
00000290: 5957 f5bd 2848 1abd aab3 173d cf7d c83d
000002a0: b2ef a8bd 2c46 babd 5e0d d03b c9d5 4abd
000002b0: 4aad b9bd ec2d 06bd 9edc 9881 cb25 3b3b
000002c0: 6caf fbbd 096a 793e 857d 923c e27a 573d
000002d0: 8b6b ed3d 791a 5fbe a937 0bbe 5a2d 4cbd
000002e0: c6f9 acbd 407e f13b 7cd6 bf3b 38d6 073c
000002f0: 3e52 713d 914f 34be 5c54 27bb 154b 013e
00000300: 3063 063e 2ce4 a401 11b7 003d 4b47 98bd
00000310: 0f10 89bb 8cef 3dbe 781b ab3d 08ec e63d
00000320: 3526 7ebc c8f6 43bd 98f0 653d f8ac ac3d
00000330: 05c7 f3bc 2b86 9b3d 45d2 df01 96b2 353d
00000340: 75e9 c4bd 3e8e 58be 284c 213e 3dd8 e83c
00000350: 61a2 02be ad5d c83d d92f c2bd ef16 933d
00000360: 85ce 76bd 4825 18be e131 7b3d 61bf 9ab6
00000370: 1cb9 b9bd a31d 4dbd 3b48 e43d b93c dbbd
00000380: 32a9 003e f117 b301 fc4e afba c4a8 1abc
00000390: daaa 1ebe 67b2 2fbd dfaa f8bc 3c8b 09be
000003a0: e125 ae3c ac1a 12be 2b89 a53b 933a 953d
000003b0: 7bc3 a3bc 0fb9 ddbb 1b06 db01 3237 7d3d
000003c0: 10dd 063e f0ff 98bd e12d b2bd 7ed0 a63c
000003d0: b2f6 6cbd 25a5 983d 2005 23be 6577 0f3e
000003e0: 8873 f23d cf72 ea3d 9dfc ac3d 28a7 edbc
000003f0: 72f9 e93d e005 193d fcfc 613d 7638 2bbd
-0.05691515 -4.879923e-38 -0.07125019 0.100069255 -0.15166083 0.13191146 0.06782938 -0.045907494
-0.08791039 -0.15559085 0.030181065 -0.009293516 -0.13811734 0.048617437 9.0399664e-38 -0.050687343
0.11502945 -0.039142393 0.015769536 -0.08731419 0.0024453404 0.14113332 -0.0012211334 0.07228155
-0.05918189 0.10067308 -0.14025073 0.062299713 0.13929525 0.023334268 -0.016941965 0.064310774
-0.080183335 -7.8214774e-38 0.0009903819 0.11076209 -0.10379557 0.003522313 -0.028555434 -0.016355028
0.06672904 -0.044611253 0.019769277 -0.041003037 -0.117958084 -0.000561234 7.3662275e-38 -0.06475782
0.010801945 0.044579938 -0.013973321 -0.042481814 0.16314855 0.13173911 -0.1505285 -0.05843606
0.06319428 0.133774 -0.08172952 0.014682859 0.02268563 0.05282015 -0.0730381 0.09907083
0.16741371 5.434744e-39 -0.014569876 0.013356186 0.11775502 0.113578774 -0.03274908 0.072376214
0.06730219 0.028363513 0.013828887 -0.06346341 0.06234748 0.0027461993 8.105907e-38 0.07077681
0.112081006 0.090113565 0.04471938 0.014942122 0.07124069 -0.036337856 -0.08308376 0.015918382
-0.069543615 0.039357364 0.052847967 0.0105799055 -0.04116934 0.030438654 0.0051293704 0.09742009
0.07245463 6.52527e-38 -0.03254899 0.028385058 -0.17212583 -0.15685657 -0.02434289 0.11060254
-0.06624386 0.14037554 -0.029280994 0.011795674 0.15194781 -0.014999244 6.4540085e-38 0.0030778397
-0.13719895 0.040103376 -0.11622743 0.04133671 0.13777316 -0.026263976 0.04137094 0.018459551
0.09497575 0.037098546 -0.070548706 -0.08347463 -0.03176165 0.093077675 0.066315524 -0.12093168
0.08453979 -6.7057613e-38 0.042681377 0.120198674 -0.14683504 -0.11788278 0.02655319 0.0898599
0.024472747 0.15700346 0.022823462 -0.011036366 0.19018465 0.005775174 7.986124e-38 0.0642561
-0.02992685 0.15616801 0.10173519 0.013362567 -0.097906016 0.053036097 0.098149136 0.008148991
0.1549353 -0.081841685 -0.045374207 0.08355385 0.097661845 0.1308623 0.058088638 0.13445018
0.16117676 -5.502765e-38 0.112422414 0.13992041 -0.11979551 -0.03766647 0.037036575 0.09789621
-0.08248843 -0.090954155 0.0063492497 -0.049520288 -0.090662554 -0.03275864 -5.615255e-38 0.0028556462
-0.122893184 0.24356855 0.017882118 0.052607425 0.11592778 -0.21787442 -0.13595451 -0.049847938
-0.08446078 0.0073697865 0.005854426 0.00829082 0.058916323 -0.17608477 -0.002553246 0.12626298
0.13123775 6.0571496e-38 0.031424586 -0.07435473 -0.0041828225 -0.18548411 0.083548486 0.11275488
-0.015512039 -0.04784277 0.05613765 0.08431429 -0.029757986 0.0759395 8.2218985e-38 0.044359766
-0.09614841 -0.21148011 0.15751708 0.028423423 -0.12757255 0.09783492 -0.094817825 0.071821086
-0.060255546 -0.14857972 0.061326865 -4.611837e-06 -0.0906851 -0.050077092 0.11146589 -0.10704941
0.12564543 6.578857e-38 -0.001337498 -0.009439651 -0.15494862 -0.042894747 -0.030354915 -0.1343202
0.021258296 -0.14267987 0.005051752 0.07286563 -0.019990673 -0.0067664455 8.0456656e-38 0.061820216
0.13170266 -0.07470691 -0.08700157 0.020363089 -0.057852454 0.07453374 -0.15919924 0.14010389
0.11838442 0.11447679 0.0844662 -0.02901037 0.11424531 0.03735912 0.055172905 -0.041801892

MLP.10.bias f4 [32]
00000000: 57a1 77bc f7fd bd3d 28f3 b63c 15c4 b53c
00000010: 9dbd 1ebe 9cce a6bc 63d0 1abe 7200 efbb
00000020: f781 1abe 7988 07be 8710 1abd 0695 9eba
00000030: bda4 263d c4f9 003e 3c31 23bd 14a8 16bc
00000040: 631b 3d3d 9b01 60bb 780a 383d e0e0 04be
00000050: aeb4 093e 5be9 1c3d b990 32bd c197 cfbc
00000060: 0e93 513d 3a77 0bbd 3b9c 62bc 2bc5 243e
00000070: 5c3f 1abe 8830 2f3e cdce 04be 3ba3 253d
-0.01511415 0.092769556 0.022332743 0.022188226 -0.15502019 -0.02036219 -0.15118556 -0.0072937543
-0.1508864 -0.13235654 -0.037613418 -0.0012098856 0.04068445 0.12595278 -0.039841875 -0.009195346
0.046168696 -0.0034180644 0.04493186 -0.12976408 0.1344783 0.038308483 -0.04359505 -0.025340917
0.051165633 -0.03404925 -0.013831194 0.16090839 -0.15063232 0.17108357 -0.12969513 0.04043887

MLP.11.weight f4 [32]
00000000: a894 743f 8c46 753f 8bc0 703f 3d56 6f3f
00000010: ef61 763f 8a4f 703f 4ef4 663f 8b13 5e3f
00000020: 3e68 5e3f 4ac1 6f3f c6d9 773f f452 583f
00000030: 28fc 593f f89f 643f 1e9f 6f3f c40d 6d3f
00000040: 09c2 713f 3177 753f dc59 693f 476c 733f
00000050: 562d 783f d298 533f 7cba 753f d25b 713f
00000060: f421 6e3f 0bcc 743f a8b2 663f 709b 713f
00000070: 16b7 553f 8d8a 773f e710 6d3f d4c5 6e3f
0.9553933 0.9581077 0.940438 0.93490964 0.96243185 0.93871367 0.9021653 0.8674857
0.8687781 0.9365431 0.9681667 0.84501576 0.85150385 0.8930659 0.9360217 0.9259913
0.944367 0.95884997 0.9115274 0.95087093 0.9694418 0.8265506 0.9598768 0.9428073
0.9302056 0.95623845 0.9011636 0.94377804 0.8348249 0.96695787 0.92603916 0.9327061

MLP.11.bias f4 [32]
00000000: a8c2 0dbb bec7 2a3b 0c6b 01bc 8b48 3abb
00000010: 83f5 1b3c 454b f8bb 239b a939 bb8d 8c3b
00000020: 5e01 f63b f0fc 0a3c f2f6 28bc 2eff e13a
00000030: 31d2 c23a 0496 ce3b 49f0 72bc 97a0 b43b
00000040: 58e3 103c 174f 323b 70e3 efba b505 02b9
00000050: a309 043b f542 53bb 0d6a 853c 7e22 c83b
00000060: 5d54 003b 8400 b03b 09cd 0bbb 55ac 8abb
00000070: 3a75 013c df77 183c 59c7 9c3c 310a deba
-0.0021630917 0.0026058997 -0.007899057 -0.0028424587 0.009518984 -0.007577332 0.00032349778 0.0042893565
0.007507487 0.008483157 -0.010312783 0.0017242187 0.0014863667 0.0063045043 -0.014827796 0.005512308
0.0088432655 0.0027207786 -0.0018302035 -0.00012399892 0.0020147345 -0.0032235954 0.01628592 0.0061076274
0.0019581534 0.005371155 -0.0021331927 -0.0042319694 0.007901484 0.009305923 0.019138025 -0.0016940293

MLP.13.weight f4 [4, 32]
00000000: 5dd8 eb3d 65a7 04be e37a 1abd cc69 07bd
00000010: 3b2d b0bd c603 ad3d f9a6 c1bd 7cfa c5bd
00000020: 5691 94bd a9c4 21be f94b 083e 5e42 cc3d
00000030: dc65 6d3d f757 f13c b205 073e 623f 16bd
00000040: 6c6c 033e 82ff 58bd 2c8e 593d a5d8 babc
00000050: 3351 af3a e582 bf3d 10a0 adbc 982b 15be
00000060: 07ab 33bd 99d5 eabc bd60 53bd d45f d23d
00000070: 7e1f 57bd f05b a6bd 9955 36bd 05d6 9a3d
00000080: d188 d2bd 3451 84bd c7ad 9dbd 6361 16bc
00000090: ab7c 5fbd 937a fb3d f7be 7ebd 6b2d 823b
000000a0: 0bca 70bd 3870 8bbd 884d 883b 8ff9 e93b
000000b0: 9f04 8b3b 080a 1e3d ef32 5cbd 5be4 5bbd
000000c0: 6b65 da3d 7132 a53d fd1d db3c 2342 123e
000000d0: 4846 bfbb 306e 0a3c 1a60 e2bc d40c 323d
000000e0: 94f2 d5bc 8e53 563d 70ac 2ebd 707a dabd
000000f0: 0c4d 993c 7731 75bd 95d4 57bd e1bd 07bd
00000100: b791 9d3d f09c 063e 40d5 9e3d 6d92 a8bd
00000110: 0c40 a93d a02e 8d3d 7bbf 14bd f20d 57bd
00000120: 9735 bcbb 6246 6a3b 937d efbd 7a02 e13c
00000130: c45b cfbd 1f3c 97bd 3c3e 5d3d 1c2d 853d
00000140: 132b 12bc 94f7 e93d 280d 883d e1a1 01be
00000150: febb 063e e308 873c 4a63 04be 73e4 ea3d
00000160: 8a66 bf3d 017d edbc 4aa8 8f3c c8cd 7f3d
00000170: 08d1 b8bc 1c24 fe3d b5f6 b9bd 8f4f bdbd
00000180: b07f 28bd 7009 abbc a97b e63b b43e af3c
00000190: 7f0b edbb 5daf 01bd b000 97bb aaf8 8c3c
000001a0: d8d8 5fbc b2b5 73bd 4dff 1cbc d85a 483c
000001b0: 80b2 0ebd f823 133c 03b0 efbb 7015 6bbc
000001c0: 29f2 3cbb 80a8 603c 4fdc 0bbd 9539 3fbc
000001d0: 025f 023c cda3 2a3d 643f 8a3c eb07 e03c
000001e0: 4ea9 343d ac08 83bd a3b1 8f3d a465 1cbb
000001f0: c5ea 7d3d 2c23 953b b858 3abd 97aa 233d
0.115158774 -0.12954481 -0.03771485 -0.03305988 -0.08602377 0.08447985 -0.09455676 -0.09666917
-0.07254283 -0.15797676 0.13310231 0.09973596 0.05795847 0.02946089 0.13185766 -0.03668154
0.12834328 -0.052978046 0.0531141 -0.022808382 0.001337564 0.09351138 -0.021194488 -0.14567411
-0.043864276 -0.028666304 -0.05160593 0.10272184 -0.052520268 -0.081230044 -0.044515226 0.07560352
-0.10280002 -0.06460801 -0.07699161 -0.009178492 -0.054562252 0.122792386 -0.062193837 0.0039726994
-0.058786433 -0.068085134 0.004159633 0.0071403454 0.0042424942 0.038583785 -0.05375951 -0.053684574
0.10663875 0.080662616 0.026747698 0.14283042 -0.0058372356 0.008449122 -0.027633715 0.043469265
-0.026116647 0.052325778 -0.042644918 -0.10667884 0.018713497 -0.059861626 -0.05269297 -0.033140067
0.076938085 0.13145804 0.07755518 -0.082310535 0.08264169 0.06893659 -0.036315423 -0.052503534
-0.005743693 0.0035747518 -0.11693873 0.027467001 -0.10124925 -0.07384514 0.05401443 0.065027446
-0.0089214025 0.11424175 0.06643134 -0.12659408 0.13157651 0.01648373 -0.12928501 0.114693545
0.0934573 -0.02899027 0.017536301 0.062452108 -0.022560611 0.12409231 -0.09080259 -0.0924369
-0.041137397 -0.020878524 0.0070337844 0.021392204 -0.0072340365 -0.03166138 -0.0046082363 0.017208416
-0.013662539 -0.05949945 -0.009582353 0.01222869 -0.0348382 0.008980744 -0.0073146834 -0.014348373
-0.0028830862 0.0137120485 -0.03414565 -0.0116714435 0.007957222 0.04166012 0.01687593 0.027347526
0.044106774 -0.063981384 0.070163034 -0.0023864293 0.06199147 0.004551312 -0.045494765 0.03995761

MLP.13.bias f4 [4]
00000000: de6f 5dbd d182 bf3d b857 26be 7db1 693b
-0.054061763 0.09351123 -0.162444 0.003565877
