example/model/polygon_robot/model_1500.pth (torch, 24610 bytes, 18 tensors)

MLP.0.weight f4 [32, 2]
0.35368732 -0.22594558 0.111132 -0.54207003 -0.694026 0.44128746 -0.45909405 0.37217313
0.31827584 -0.3784225 -0.6281314 -0.44536114 -0.22965793 -0.38320827 0.5672678 -0.44351092
0.31931862 -0.17358011 -0.031021288 -0.5812536 0.41743958 0.32142824 0.5568095 -0.0883409
-0.36237407 0.12580106 0.034594513 -0.44959176 0.3861246 -0.2500381 0.56374604 0.45798564
-0.6525858 -0.45779532 0.35701436 -0.6362354 0.43971494 -0.5447377 -0.017237324 -0.10536276
-0.032482777 0.28340182 0.3833861 0.04133176 0.21796364 0.18701418 0.09257517 0.2554071
0.14123994 0.37666687 -0.10908708 0.2772755 -0.042592257 -0.5812531 -0.0029558525 -0.064822055
-0.1686402 -0.20999418 0.14233595 0.15590434 0.6260046 -0.4319688 -0.025743166 0.065425076
00000000: 8116 b53e 475e 67be 2d99 e33d 1ac5 0abf
00000010: b0ab 31bf 6ef0 e13e 600e ebbe 7a8d be3e
00000020: 0df5 a23e 98c0 c1be 38cd 20bf 6006 e4be
00000030: 732b 6bbe e033 c4be 7638 113f dd13 e3be
00000040: bb7d a33e fcbe 31be 5b20 febc 09cd 14bf
00000050: a4ba d53e 3e92 a43e 118b 0e3f 13ec b4bd
00000060: 1889 b9be fed1 003e fab2 0d3d e430 e6be
00000070: 20b2 c53e fe04 80be a951 103f 187d ea3e
00000080: dd0f 27bf 2664 eabe 96ca b63e 53e0 22bf
00000090: 5122 e13e ee73 0bbf 4a35 8dbc 6ec8 d7bd
000000a0: a90c 05bd 0b1a 913e 2f4b c43e 7e4b 293d
000000b0: dc31 5f3e a580 3f3e 0d98 bd3d b8c4 823e
000000c0: 34a1 103e 7bda c03e 0c69 dfbd 0ef7 8d3e
000000d0: 3875 2ebd 01cd 14bf fab6 41bb 6dc1 84bd
000000e0: 04b0 2cbe b708 57be 84c0 113e 63a5 1f3e
000000f0: d641 203f 042b ddbe 55e3 d2bc 95fd 853d

MLP.0.bias f4 [32]
0.046835665 0.6717222 0.06612945 0.30171463 0.42187867 0.25195092 0.2715182 0.1496098
0.37816742 0.089891076 -0.18606333 -0.15714382 0.313686 -0.25886697 0.009709599 0.3162451
-0.3032675 0.19165035 -0.37454125 -0.2677301 -0.13458355 0.42937168 0.2907764 0.17376818
0.46997872 -0.47028172 0.2829347 0.43849507 -0.21745141 -0.3421953 -0.010568592 -0.3707368
00000000: c1d6 3f3d fcf5 2b3f e16e 873d 577a 9a3e
00000010: 7b00 d83e b6ff 803e 6f04 8b3e 5033 193e
00000020: 299f c13e d018 b83d 6387 3ebe 4fea 20be
00000030: 749b a03e 368a 84be 0315 1f3c e1ea a13e
00000040: e145 9bbe fd3f 443e dfc3 bfbe eb13 89be
00000050: 45d0 09be 9bd6 db3e a5e0 943e 49f0 313e
00000060: 0da1 f03e c4c8 f0be d1dc 903e 6d82 e03e
00000070: 95ab 5ebe 3934 afbe e327 2dbc 37d1 bdbe

MLP.1.weight f4 [32]
0.8462686 0.8925691 0.66566867 0.8545241 0.7780683 0.7872349 0.7809443 0.7130142
0.81722474 0.8003569 0.7577791 0.91767734 0.7980362 0.89866996 0.8269318 0.92448926
0.75500023 0.8396267 0.84069407 0.7837837 0.90911925 0.8753354 0.87082773 0.8726995
0.8307496 0.9072976 0.85855013 0.82304394 0.89049286 0.86287194 0.7884539 0.90331686
00000000: 0fa5 583f 697f 643f 4369 2a3f 17c2 5a3f
00000010: 7c2f 473f 3a88 493f f7eb 473f 1988 363f
00000020: a435 513f 31e4 4c3f d0fd 413f e7ec 6a3f
00000030: 1a4c 4c3f 3c0f 663f cdb1 533f 54ab 6c3f
00000040: b247 413f c7f1 563f ba37 573f 0ca6 483f
00000050: 0abc 683f fb15 603f 91ee 5e3f 3c69 5f3f
00000060: 01ac 543f a844 683f f1c9 5b3f 02b3 523f
00000070: 57f7 633f 2de5 5c3f 1dd8 493f c63f 673f

MLP.1.bias f4 [32]
0.005369867 -0.02174386 -0.038282853 -0.0099601075 0.0032027077 0.035432015 -0.029525038 -0.04988582
-0.039942846 -0.001558174 0.006882924 0.02764574 -0.006243483 -0.009821215 0.002363808 -0.023439266
-0.054658808 0.016625846 -0.010676552 -0.01636926 0.05060305 -0.0018527163 0.044555172 0.0104698865
0.035828393 -0.011902451 0.00093722716 -0.0022030661 -0.021235676 0.0030192083 0.06605773 -0.008675317
00000000: b6f5 af3b 2e20 b2bc 7bce 1cbd b82f 23bc
00000010: 85e4 513b 2921 113d 7ede f1bc 1355 4cbd
00000020: 1c9b 23bd a53b ccba 278a e13b 5279 e23c
00000030: 2296 ccbb 29e9 20bc 1eea 1a3b b403 c0bc
00000040: eae1 5fbd ed32 883c b4ec 2ebc d418 86bc
00000050: 2545 4f3d d8d6 f2ba 7c7f 363d e389 2b3c
00000060: cbc0 123d 7f02 43bc 40b0 753a 5161 10bb
00000070: 71f6 adbc e9dd 453b 4649 873d eb22 0ebc

MLP.3.weight f4 [32, 32]
-0.06348989 0.04514631 -0.0021806573 -0.14923885 0.02520708 -0.09319128 0.15788007 -0.0037498001
0.1248471 0.120847076 0.0032882155 -0.119154476 0.15488143 -0.073485464 -0.1446673 0.038250215
-0.049086906 -0.038450006 -0.046191733 -0.050576434 0.09928014 0.110403545 -0.02002836 0.004171906
0.16512503 -0.12857433 0.12245906 0.11918574 -0.09872827 -0.057496097 0.030120632 0.017523484
0.036662444 0.04781179 -0.03046666 -0.0799149 -0.09751 -0.10098422 -0.1147207 -0.102162264
-0.031901766 -0.042457387 -0.06302464 0.047208518 -0.06502907 -0.09427555 0.03215897 -0.03499888
-0.11550938 0.09259768 0.061862454 0.024938518 -0.147463 0.051564693 -0.040167402 0.12771347
0.08467659 0.06734393 -0.011010849 0.023042642 0.08744392 -0.06932154 -0.13797328 0.11838813
0.07927196 -0.007222085 -0.03972328 -0.0070305746 0.08609965 0.13933298 -0.10450815 0.05073857
-0.052948385 -0.102304794 0.07215004 0.01919234 -0.036952555 -0.1104338 -0.061829418 -0.108681135
0.017180579 -0.037104916 0.016305763 0.035959076 -0.15766001 0.0670629 -0.11938114 0.08065736
0.009534439 -0.11995925 0.14867659 0.069771595 0.019103725 -0.15061964 -0.078920774 -0.0959292
0.17532778 -0.00013143144 0.12016188 -0.1707063 -0.018742224 0.085495144 -0.0022639288 -0.014964005
-0.1310818 0.08525524 -0.01841652 0.21047749 0.078258395 -0.15135047 0.08628793 -0.18389647
-0.102457784 0.00958472 0.11343815 -0.01678386 -0.14854796 0.15314496 0.029969621 0.14447154
0.047066383 0.13658035 -0.037714105 -0.23851539 0.00090755377 0.09706402 0.12984172 0.13911785
-0.15717989 -0.11389679 -0.00085064414 0.051904485 -0.048922583 -0.0071944143 0.11539195 0.08706596
0.098923564 -0.024698352 -0.14457889 -0.034563098 0.052169766 0.009907769 0.084384836 -0.10374009
0.053248987 0.09969703 0.12265908 0.18393454 0.14438745 -0.18674758 0.0665697 -0.031576216
0.13840288 0.08909247 -0.03035657 -0.014859719 0.05492061 0.074095115 0.028829284 0.07535969
-0.20226227 0.04687923 0.16182065 -0.029889906 -0.18754572 0.05689614 -0.026648315 -0.07467681
-0.15331307 -0.013706063 0.093211815 0.015864097 -0.009089183 0.13556667 -0.2034083 0.058320157
0.15704402 -0.14357255 -0.043826852 0.17117904 -0.1763112 -0.053306747 -0.037972506 -0.16392052
-0.1848081 0.083652034 0.12052141 0.101790585 0.020202434 0.04763888 0.03732964 0.089909196
0.14645158 -0.025315745 -0.05619096 0.110206656 0.13287492 -0.015070879 -0.007153805 -0.06696322
-0.16190691 0.049818058 -0.03849794 0.13000873 -0.14376348 -0.052268077 0.1055902 0.12833205
0.024763668 0.12284559 -0.13712016 -0.11169103 -0.12359683 -0.11560169 0.14490299 -0.09677167
-0.07287328 -0.14765698 0.07529757 -0.02990913 0.08494152 -0.057143264 -0.107112154 0.021945754
0.03864696 -0.028607735 0.053824306 0.21810028 0.036660485 0.14774092 0.03126363 0.08642036
-0.12271108 0.01884911 -0.058708925 0.0818466 -0.020802781 -0.044128124 -0.06583222 0.037645154
-0.101184525 -0.06290011 -0.10233831 0.05532086 0.12726584 0.01699521 -0.14184175 -0.10960668
0.10871855 0.024764283 -0.060455896 0.08593303 -0.16046506 0.11985528 -0.008393629 -0.007382799
00000000: fd06 82bd 56eb 383d 5ce9 0ebb 12d2 18be
00000010: 147f ce3c 12db bebd 50ab 213e 35bf 75bb
00000020: d6af ff3d ac7e f73d 1a7f 573b 4307 f4bd
00000030: 3d99 1e3e 8c7f 96bd aa23 14be 42ac 1c3d
00000040: 5a0f 49bd c17d 1dbd 8b33 3dbd 3c29 4fbd
00000050: 6353 cb3d 411b e23d 8412 a4bc 7cb4 883b
00000060: 8916 293e fda8 03be d1cb fa3d a717 f43d
00000070: 0c32 cabd 0781 6bbd 8bbf f63c 698d 8f3c
00000080: 5c2b 163d 4cd6 433d 3895 f9bc 6caa a3bd
00000090: 53b3 c7bd d1d0 cebd b0f2 eabd 733a d1bd
000000a0: 6dab 02bd cce7 2dbd 1013 81bd b85d 413d
000000b0: f62d 85bd 8a13 c1bd 20b9 033d fc5a 0fbd
000000c0: 2f90 ecbd daa3 bd3d 7c63 7d3d dd4b cc3c
000000d0: 8a00 17be 8035 533d 9386 24bd 52c7 023e
000000e0: ec6a ad3d 9deb 893d d966 34bc ecc3 bc3c
000000f0: cc15 b33d 74f8 8dbd de48 0dbe 7a75 f23d
00000100: 5659 a23d 3da7 ecbb e1b4 22bd bc60 e6bb
00000110: 0355 b03d 4ead 0e3e 5e08 d6bd 3fd3 4f3d
00000120: 68e0 58bd 2d85 d1bd 66c3 933d 4139 9d3c
00000130: 905b 17bd 1e2b e2bd d840 7dbd 3794 debd
00000140: 49be 8c3c 53fb 17bd aa93 853c d349 133d
00000150: a071 21be 4658 893d 197e f4bd b02f a53d
00000160: 5636 1c3c 32ad f5bd ad3e 183e 69e4 8e3d
00000170: 6a7f 9c3c 093c 1abe 37a1 a1bd 8776 c4bd
00000180: 2089 333e dcd0 09b9 6f17 f63d a2cd 2ebe
00000190: 4b89 99bc 1418 af3d 6c5e 14bb 962b 75bc
000001a0: 4f3a 06be 4d9a ae3d 3ede 96bc 6987 573e
000001b0: f045 a03d 9efb 1abe bab7 b03d 5b4f 3cbe
000001c0: 63d5 d1bd 3b09 1d3c 4352 e83d 4e7e 89bc
000001d0: f51c 18be 08d2 1c3e da82 f53c 59f0 133e
000001e0: aec8 403d b8db 0b3e 1b7a 1abd 613d 74be
000001f0: e7e8 6d3a 80c9 c63d 3af5 043e e974 0e3e
00000200: c4f3 20be b842 e9bd c3fd 5eba cc99 543d
00000210: 0c63 48bd 1fbf ebbb 9d52 ec3d a34f b23d
00000220: 7098 ca3d 3354 cabc 7d0c 14be 0992 0dbd
00000230: f7af 553d 3254 223c f5d1 ac3d af75 d4bd
00000240: 9c1b 5a3d f52d cc3d af34 fb3d 5659 3c3e
00000250: 4eda 133e c23a 3fbe b255 883d 1056 01bd
00000260: 7cb9 0d3e 1d76 b63d 57ae f8bc 2e76 73bc
00000270: 6ff4 603d 2ebf 973d 642b ec3c 2e56 9a3d
00000280: d71d 4fbe 6f04 403d 50b4 253e addb f4bc
00000290: fc0b 40be ed0b 693d 914d dabc 28f0 98bd
000002a0: 1afe 1cbe 658f 60bc d6e5 be3d 6cf5 813c
000002b0: ccea 14bc fdd1 0a3e 444a 50be 1ee1 6e3d
000002c0: 26d0 203e af04 13be c983 33bd 8f49 2f3e
000002d0: ec8a 34be 2d58 5abd 0f89 1bbd c8da 27be
000002e0: 563e 3dbe c251 ab3d eed3 f63d 9577 d03d
000002f0: 937f a53c fc20 433d f7e6 183d 5022 b83d
00000300: 67f7 153e f762 cfbc 7e28 66bd 07b4 e13d
00000310: 5d10 083e d9eb 76bc 776a eabb 0324 89bd
00000320: edca 25be 050e 4c3d 04b0 1dbd 0221 053e
00000330: bc36 13be 0d17 56bd ad3f d83d 7a69 033e
00000340: 2ddd ca3c 7896 fb3d 3a69 0cbe 44be e4bd
00000350: 5620 fdbd 94c0 ecbd 7361 143e 3a30 c6bd
00000360: 963e 95bd 6433 17be 9d35 9a3d fe03 f5bc
00000370: d2f5 ad3d 0e0f 6abd 9e5d dbbd 95c7 b33c
00000380: 464c 1e3d c55a eabc e076 5c3d ae55 5f3e
00000390: 4e29 163d 6549 173e 4b0e 003d 28fd b03d
000003a0: f24f fbbd 7369 9a3c c578 70bd 319f a73d
000003b0: 986a aabc b1bf 34bd 0bd3 86bd ce31 1a3d
000003c0: d539 cfbd c6d1 80bd bf96 d1bd 2098 623d
000003d0: fa51 023e 8a39 8b3c f73e 11be 7879 e0bd
000003e0: d5a7 de3d 77de ca3c 9aa0 77bd a8fd af3d
000003f0: f450 24be af76 f53d 6f85 09bc 68eb f1bb

MLP.3.bias f4 [32]
0.09018918 -0.11812059 -0.1422064 -0.02980426 0.012574101 -0.009669985 0.023186637 0.016817294
0.11684124 -0.14481623 -0.06944957 0.0031104712 -0.022781266 -0.05837788 -0.10916167 -0.1773538
-0.042469863 -0.017492624 -0.041803915 0.1579108 -0.14072755 -0.13094445 0.16738427 -0.014494028
0.116898954 -0.054834202 -0.05252654 0.061316907 -0.034687653 0.040035862 -0.14322527 0.12913287
00000000: 1bb5 b83d 35e9 f1bd 8e9e 11be 1028 f4bc
00000010: 9a03 4e3c db6e 1ebc e7f1 bd3c 6cc4 893c
00000020: 764a ef3d b54a 14be 933b 8ebd 0cd9 4b3b
00000030: c79f babc a51d 6fbd 2790 dfbd 3c9c 35be
00000040: e1f4 2dbd b14c 8fbc 953a 2bbd 5eb3 213e
00000050: e21a 10be 4d16 06be c866 2b3e 5c78 6dbc
00000060: b868 ef3d d499 60bd 1226 57bd 7027 7b3d
00000070: a414 0ebd a5fc 233d a5a9 12be 683b 043e

MLP.5.weight f4 [32, 32]
0.0066400785 -0.060768165 0.09341726 -0.08464598 -0.06781869 -0.101792306 0.16322356 -0.14282966
0.0011317354 -0.055356003 -0.1369081 0.06248959 -0.045362223 -0.00011006634 0.04940042 -0.14456137
-0.030676255 -0.0026407612 0.07981955 0.07778002 -0.07102547 0.07614986 0.09381008 -0.10562082
-0.11188424 0.003908478 0.013146744 -0.0033107144 0.10261793 -0.06278847 -0.056043226 -0.04319442
0.037410814 -0.07292259 -0.05874449 0.0076132123 -0.0908488 0.15939195 -0.089251526 0.022310989
0.07710891 -0.01603064 -0.0015698023 0.0020108547 -0.07331748 0.0785803 -0.012241404 0.03857218
0.0842919 0.031333085 0.027352598 -0.15404119 0.064339 0.1403888 0.043925233 -0.02516921
0.08668785 0.09415644 0.10316241 -0.054869853 -0.08259584 0.12093044 0.15158084 0.043825366
-0.110610135 -0.08489795 0.005826049 0.12256895 0.051855084 -0.18912718 -0.08605964 0.033435613
0.018195255 -0.05864716 0.015551461 -0.16776721 -0.10310723 -0.13712966 0.046092935 -0.13601384
-0.048241597 0.09410769 -0.06488131 0.13130479 -0.0011072694 -0.09324104 -0.015955996 -0.058276176
0.034178127 0.18794306 -0.15719101 0.02873445 -0.051946655 0.13815099 0.12624845 0.08287955
-0.07195904 -0.11447039 0.1058813 -0.051280294 0.17117175 0.23923837 0.07705413 -0.047804505
0.0066899946 -0.048042797 0.07515768 0.082404554 0.10172949 0.13999808 -0.009164088 -0.07732552
-0.080440864 0.104831986 -0.054031197 -0.081050664 0.04995432 0.12055381 0.058962833 0.02506024
-0.09437949 -0.035265137 -0.09207583 -0.059137147 0.03478889 0.15286572 0.065508805 0.067238465
-0.0943854 0.09321143 -0.04398523 0.03091267 -0.0077843782 -0.08043574 0.07414955 -0.08170499
0.052980203 -0.039176524 0.015929546 0.1175721 -0.0767315 -0.0211077 0.040308226 -0.114161044
0.08399317 0.05949956 -0.11730919 0.06314353 0.13013779 0.11266907 -0.14925735 -0.062519975
-0.064024426 0.04242573 0.06574651 0.12827082 -0.013898755 -0.049425088 0.023616018 0.09342327
-0.07962834 -0.07819933 0.15968433 -0.11412512 -0.10938869 -0.105131805 0.007100722 0.048230145
0.055328142 -0.06412803 -0.15010566 0.11314703 0.051597845 -0.057884764 0.07447674 -0.06621157
0.023091426 -0.07506938 0.06328097 0.0838083 -0.100414045 0.023245348 0.13845672 0.17132121
-0.023066446 0.08410346 -0.08673961 -0.018948073 -0.08649623 0.047142476 0.10729278 0.15468529
0.08335844 0.06174112 -0.11565104 0.0658718 0.04363878 -0.001088165 -0.011924031 -0.11648831
0.12010265 0.044434022 0.09376331 0.055428647 0.08166555 0.064897254 -0.045541655 -0.13489941
0.034965876 0.049652025 0.116798766 -0.09444723 0.08112904 0.09899881 -0.039840937 0.08561914
0.097702414 0.018303333 0.059856568 -0.092576414 0.16506186 -0.12056276 -0.04226297 0.0008007338
-0.023184558 0.03713641 0.006616381 0.23977487 -0.15685461 -0.11588035 -0.026012512 -0.097171076
-0.013600153 -0.10065588 -0.07294539 -0.054060854 -0.04252164 -0.136585 -0.09821068 0.060521856
-0.024133857 -0.10338458 -0.064173445 0.03883764 -0.031978525 -0.117524855 -0.018605635 0.1552797
0.1698168 -0.053038098 0.04543165 0.04253687 0.15753472 0.1893194 -0.07656299 0.036263216
00000000: 0495 d93b 0ae8 78bd 8c51 bf3d df5a adbd
00000010: 86e4 8abd 7c78 d0bd 1424 273e f041 12be
00000020: bd56 943a fabc 62bd a331 0cbe 16f5 7f3d
00000030: bdcd 39bd 6bd3 e6b8 1858 4a3d e507 14be
00000040: c54c fbbc 9f10 2dbb 6f78 a33d 224b 9f3d
00000050: cd75 91bd 75f4 9b3d 801f c03d ba4f d8bd
00000060: 9023 e5bd b112 803b 7165 573c 92f8 58bb
00000070: 5929 d23d 3e97 80bd 958d 65bd a2ec 30bd
00000080: 153c 193d 7058 95bd 109e 70bd 4178 f93b
00000090: f00e babd a537 233e 81c9 b6bd 89c5 b63c
000000a0: 47eb 9d3d b052 83bc d3c1 cdba 8bc8 033b
000000b0: 7a27 96bd b5ee a03d 2b90 48bc ddfd 1d3d
000000c0: 3ba1 ac3d 1f57 003d 8e12 e03c f9bc 1dbe
000000d0: 2ac4 833d 15c2 0f3e f2ea 333d a92f cebc
000000e0: 6689 b13d 17d5 c03d d046 d33d 36bf 60bd
000000f0: 0228 a9bd 61aa f73d 0238 1b3e 3a82 333d
00000100: 9187 e2bd fade adbd 71e8 be3b 6e05 fb3d
00000110: ff65 543d 8eaa 41be 0940 b0bd c8f3 083d
00000120: 370e 953c 0138 70bd 8ecb 7e3c 2bcb 2bbe
00000130: e229 d3bd b86b 0cbe f2cb 3c3d 3647 0bbe
00000140: fb98 45bd 88bb c03d 7ee0 84bd c374 063e
00000150: cc21 91ba 29f5 bebd 26b6 82bc 00b3 6ebd
00000160: 5dfe 0b3d 2574 403e aef6 20be 8264 eb3c
00000170: 04c6 54bd 7477 0d3e 4647 013e c1bc a93d
00000180: 435f 93bd 746f eabd 4cd8 d83d 490b 52bd
00000190: a647 2f3e e7fa 743e 8ece 9d3d a8ce 43bd
000001a0: be37 db3b 86c8 44bd 45ec 993d b8c3 a83d
000001b0: 8d57 d03d a85b 0f3e f924 16bc d85c 9ebd
000001c0: 2ebe a4bd 27b2 d63d d14f 5dbd e4fd a5bd
000001d0: e79c 4c3d eae4 f63d 0383 713d 224b cd3c
000001e0: 094a c1bd 2d72 10bd 4192 bcbd cb39 72bd
000001f0: cc7e 0e3d d588 1c3e 7b29 863d 52b4 893d
00000200: 224d c1bd a2e5 be3d db29 34bd 913c fd3c
00000210: 1914 ffbb 7ebb a4bd b8db 973d f254 a7bd
00000220: c501 593d 9077 20bd ae7e 823c a4c9 f03d
00000230: 6825 9dbd 0eea acbc 3d1a 253d 44cd e9bd
00000240: 9c04 ac3d d0b5 733d cd3f f0bd 6551 813d
00000250: d742 053e 0bbf e63d ebd6 18be 790a 80bd
00000260: 3d1f 83bd 9ac6 2d3d 1ba6 863d 6d59 033e
00000270: 9bb7 63bc f671 4abd 6176 c13c b354 bf3d
00000280: 2f14 a3bd f826 a0bd 4a84 233e 6eba e9bd
00000290: 2d07 e0bd 584f d7bd 2cad e83b f98c 453d
000002a0: c39f 623d 8e55 83bd 4cb5 19be a1b9 e73d
000002b0: 4358 533d 9318 6dbd 4387 983d ee99 87bd
000002c0: 3b2a bd3c fabd 99bd 7499 813d b0a3 ab3d
000002d0: e1a5 cdbd 076d be3c 99c7 0d3e d46e 2f3e
000002e0: d8f5 bcbc 6f3e ac3d 89a4 b1bd fd38 9bbc
000002f0: ef24 b1bd 7818 413d 51bc db3d d265 1e3e
00000300: d4b7 aa3d 42e4 7c3d 74da ecbd cbe7 863d
00000310: 94be 323d c2a0 8eba 035d 43bc 6c91 eebd
00000320: 61f8 f53d 7300 363d fa06 c03d 2609 633d
00000330: 4540 a73d dae8 843d e389 3abd 1223 0abe
00000340: 6138 0f3d ec5f 4b3d 3134 ef3d 8d6d c1bd
00000350: fb26 a63d e3bf ca3d 4030 23bd 1659 af3d
00000360: 3418 c83d dff0 953c 292c 753d b498 bdbd
00000370: fa05 293e 9ce9 f6bd f01b 2dbd 56e8 513a
00000380: 8bed bdbc 591c 183d 3ace d83b 8b87 753e
00000390: 7f9e 20be ad52 edbd 3118 d5bc a101 c7bd
000003a0: 2dd3 5ebc ac24 cebd 6564 95bd ea6e 5dbd
000003b0: 2c2b 2ebd f0dc 0bbe ae22 c9bd c4e5 773d
000003c0: 5eb4 c5bc 4bbb d3bd 5e6d 83bd 3814 1f3d
000003d0: eafb 02bd dfb0 f0bd d86a 98bc a401 1f3e
000003e0: 75e4 2d3e 7a3e 59bd 8a16 3a3d 243b 2e3d
000003f0: c850 213e f2dc 413e 0fcd 9cbd bd88 143d

MLP.5.bias f4 [32]
-0.107153475 0.143614 0.12695165 -0.06973268 0.14538668 -0.12839654 0.055887405 0.035494912
-0.071422435 -0.12202329 -0.11233755 0.07332506 -0.18500718 4.4770488e-05 -0.051935285 0.106730156
0.08710706 -0.0039821174 0.14440684 -0.0818687 0.035678282 0.08595544 -0.0023433075 0.12994972
0.038760167 0.10112177 -0.07481865 0.091516234 -0.14149666 -0.07293192 -0.0014031716 0.018727237
00000000: 4873 dbbd 8c0f 133e 9dff 013e 02d0 8ebd
00000010: 3fe0 143e 627a 03be 31ea 643d 1d63 113d
00000020: ed45 92bd 59e7 f9bd 3b11 e6bd 732b 963d
00000030: 8672 3dbe f2c7 3b38 18ba 54bd 5795 da3d
00000040: 3065 b23d 6c7c 82bb 63df 133e c7aa a7bd
00000050: 6423 123d 6809 b03d 2d92 19bb 8a11 053e
00000060: fbc2 1e3d ee18 cf3d 853a 99bd dd6c bb3d
00000070: 80e4 10be 555d 95bd a0ea b7ba dd69 993c

MLP.6.weight f4 [32]
0.89543986 0.87246037 0.7580681 0.88967204 0.85648423 0.88495624 0.9061367 0.8812691
0.8612544 0.85729516 0.78088814 0.8621468 0.8756793 0.76148874 0.9136025 0.8687041
0.90093553 0.8656418 0.87594366 0.8986049 0.89339197 0.85695565 0.9279564 0.9003794
0.80929154 0.9090832 0.9263363 0.7656349 0.89922523 0.8011256 0.9098962 0.73309344
00000000: 8c3b 653f 9059 5f3f c010 423f 8cc1 633f
00000010: 8d42 5b3f 7e8c 623f 93f8 673f da9a 613f
00000020: 2b7b 5c3f b277 5b3f 49e8 473f a7b5 5c3f
00000030: 852c 603f edf0 423f dae1 693f 6463 5e3f
00000040: b6a3 663f b39a 5d3f d83d 603f f90a 663f
00000050: 56b5 643f 7261 5b3f 8d8e 6d3f 447f 663f
00000060: bb2d 4f3f adb9 683f 6024 6d3f a600 443f
00000070: a033 663f 9116 4d3f f5ee 683f 03ac 3b3f

MLP.6.bias f4 [32]
-0.002457588 0.05310762 -0.015361147 0.002627147 -0.012316646 0.007955103 -0.0055368883 -0.019311188
-0.010458808 -0.002628682 0.0015597705 -0.027379053 -0.014622877 -0.0031416845 0.030387029 0.013352698
-0.026917687 -0.013748027 0.003280116 0.0031655396 -0.012854231 -0.022026021 -0.02044189 -0.0015112737
0.020355675 -0.014138911 0.00829096 0.027260408 0.0027780295 -0.0110441465 0.016087197 0.0074480125
00000000: 7c0f 21bb 6087 593d 52ad 7bbc 362c 2c3b
00000010: c2cb 49bc 1f56 023c c96e b5bb 7f32 9ebc
00000020: 6c5b 2bbc f745 2cbb 3771 cc3a 094a e0bc
00000030: cb94 6fbc b8e4 4dbb 38ee f83c 46c5 5a3c
00000040: 7b82 dcbc 683f 61bc 37f7 563b f174 4f3b
00000050: 8d9a 52bc ea6f b4bc c075 a7bc ee15 c6ba
00000060: f2c0 a63c e4a6 67bc cfd6 073c 3851 df3c
00000070: 9a0f 363b 82f2 34bc 4cc9 833c 750e f43b

MLP.8.weight f4 [32, 32]
-0.11538046 0.15013006 0.18481873 0.06723104 0.020022394 -0.016077807 0.001836058 0.049110405
-0.21648578 0.09007676 0.0022035323 0.08654711 -0.16775024 0.031428818 0.059216768 -0.14612892
-0.22302039 -0.1665252 0.15101604 -0.11861774 -0.08400275 -0.037236083 0.17071982 0.1926129
0.112777255 -0.18449466 0.17222644 0.094715424 -0.1174798 -0.13163576 0.09091601 -0.046292316
0.0004709524 -0.00055379886 2.415379e-05 0.00053277676 -3.7923965e-05 0.00025715298 -0.00027330843 -3.4944278e-05
-0.00027068585 0.000121235506 4.264091e-05 -1.2867593e-05 -0.00010386102 7.698832e-05 3.064595e-05 -0.00034367671
-4.8614795e-05 6.2197825e-05 -0.00014632837 9.8493965e-06 0.00014623583 0.0014365447 0.00012334711 8.902906e-05
0.00016899391 3.506348e-05 0.0003299686 -0.0012581996 -9.794625e-05 -7.981066e-05 -0.00032463597 -9.550765e-07
-0.028532822 -0.028059423 -0.08796485 -0.16325128 -0.021122932 -0.027125502 0.009290406 0.0104388725
0.034756523 -0.04209043 0.028194208 -0.07319988 -0.027484681 -0.04386877 0.03340463 -0.004763522
-0.014690895 -0.008157736 -0.055316467 0.049384154 -0.016974749 -0.006486046 0.018886022 -0.04952573
0.14008696 -0.031452425 0.046085093 0.010594044 -0.024019754 0.08490228 0.0076309764 0.055761583
0.10424044 -0.09789883 0.037870504 -0.20749949 0.14776966 0.120155685 0.032088067 0.01272768
-0.017900437 -0.055020902 -0.1466973 0.048274 -0.11401706 0.111910425 -0.14017715 -0.0728178
0.017631564 0.10347055 -0.11448537 0.07145541 -0.06338555 -0.04583242 0.009623476 0.06596262
0.16510648 -0.058706183 0.0882594 0.004282743 0.07258217 0.056876425 0.10671333 0.052935623
-0.09847833 0.040459584 0.10247536 0.17117131 0.17260839 -0.071695365 0.09955982 -0.0012317926
0.14382486 0.07748159 -0.17855316 0.020758526 -0.06445493 0.054842632 -0.07866738 0.0879094
-0.049584832 -0.17684117 0.0119517585 0.018282099 0.09097902 -0.16622777 -0.051207762 -0.10327569
-0.056657847 -0.124040835 0.0809358 -0.06655769 -0.060094517 0.1456704 0.13576579 -0.077383004
-0.09823829 -0.06310686 -0.042867035 -0.11490355 -0.112433 0.09894957 0.06332578 0.051099423
-0.012694887 -0.15011263 -0.042935908 0.09142351 0.16136695 0.063575156 -0.075254224 -0.018686902
-0.12273279 -0.16709188 -0.118238136 -0.17555611 -0.04790336 -0.08331398 0.13625999 0.13345844
-0.07615888 -0.009177407 0.11057802 0.1559685 0.063347414 -0.06133166 0.09185218 0.07487861
0.038835544 0.01451209 0.037666336 -0.1302617 0.013414767 0.04037045 0.04395733 -0.10474239
-0.0012383382 -0.086184554 0.13346842 -0.12229635 0.062238 -0.057211075 0.040968522 -0.0075704237
-0.033733338 0.09500865 0.08934573 0.11012962 -0.10313944 0.0032080028 -0.0031098977 -0.04901399
-0.02682203 0.10740987 -0.06279943 0.08895455 0.07827203 -0.015207647 0.011652652 0.091999866
0.05282694 0.024502976 0.103297934 0.029006328 -0.15612093 -0.13262282 -0.0037570337 0.05899987
-0.031142104 0.14260589 0.10706147 0.10520248 0.04081229 0.16829078 -0.16738571 0.083826385
-0.11002393 -0.05578173 0.16163653 -0.13550101 0.027079554 -0.15359813 0.06253929 0.0013265666
0.12649947 -0.0168404 0.16533402 -0.1308344 0.12011556 0.058768626 0.047864575 0.052003495
00000000: 974c ecbd b2bb 193e 1f41 3d3e 6db0 893d
00000010: 0106 a43c 9bb5 83bc e2a7 f03a fe27 493d
00000020: 73ae 5dbe 2a7a b83d 2369 103b 9c3f b13d
00000030: b8c6 2bbe 81bb 003d 488d 723d d2a2 15be
00000040: 755f 64be 9585 2abe f3a3 1a3e dced f2bd
00000050: a209 acbd dd84 18bd 2dd1 2e3e 513c 453e
00000060: c3f7 e63d 2bec 3cbe 215c 303e 29fa c13d
00000070: 4099 f0bd 86cb 06be 2c32 ba3d 039d 3dbd
00000080: 29ea f639 d02c 11ba de9d ca37 0baa 0b3a
00000090: 8c10 1fb8 7dd2 8639 d64a 8fb9 2291 12b8
000000a0: d7ea 8db9 d13f fe38 54d9 3238 e4e1 57b7
000000b0: f6cf d9b8 ca74 a138 d789 0038 822f b4b9
000000c0: bde7 4bb8 3470 8238 b96f 19b9 d63e 2537
000000d0: e256 1939 714a bc3a bd56 0139 1db5 ba38
000000e0: f533 3139 2011 1338 a3ff ac39 2cea a4ba
000000f0: 7e68 cdb8 0660 a7b8 e733 aab9 2e30 80b5
00000100: aabd e9bc e0dc e5bc ea26 b4bd 582b 27be
00000110: 000a adbc 4d36 debc c936 183c ce07 2b3c
00000120: db5c 0e3d 0467 2cbd 8af7 e63c d2e9 95bd
00000130: 8e27 e1bc bdaf 33bd 4bd3 083d 5217 9cbb
00000140: 14b2 70bc 06a8 05bc 8593 62bd 0a47 4a3d
00000150: a10e 8bbc e688 d4bb dcb6 9a3c 7edb 4abd
00000160: f572 0f3e 42d4 00bd b9c3 3c3d a492 2d3c
00000170: 13c5 c4bc 3fe1 ad3d 450d fa3b 4266 643d
00000180: 037c d53d 2f7f c8bd 1a1e 1b3d bf7a 54be
00000190: ee50 173e 2f14 f63d c76e 033d c287 503c
000001a0: f0a3 92bc 995d 61bd d137 16be f5ba 453d
000001b0: c781 e9bd 4b31 e53d 998a 0fbe 8021 95bd
000001c0: 1270 903c 5ee8 d33d 4e77 eabd 3757 923d
000001d0: 49d0 81bd c7ba 3bbd c9ab 1d3c 6917 873d
000001e0: ac11 293e e575 70bd 58c1 b43d 4156 8c3b
000001f0: f6a5 943d 41f7 683d 858c da3d 06d3 583d
00000200: 02af c9bd f3b8 253d 9ade d13d 8847 2f3e
00000210: 41c0 303e 05d5 92bd 05e6 cb3d 1a74 a1ba
00000220: d346 133e abae 9e3d a4d6 36be c90d aa3c
00000230: f200 84bd aba2 603d 5d1c a1bd d809 b43d
00000240: 7719 4bbd da15 35be 4fd1 433c 57c4 953c
00000250: 3553 ba3d 9d37 2abe 3bbf 51bd 3482 d3bd
00000260: 0f12 68bd 1f09 febd abc1 a53d 664f 88bd
00000270: ab25 76bd 9f2a 153e 3006 0b3e fb7a 9ebd
00000280: 2831 c9bd 2b3e 81bd 5895 2fbd 8d52 ebbd
00000290: 4643 e6bd 12a6 ca3d f2b0 813d a14d 513d
000002a0: 37fe 4fbc 20b7 19be 90dd 2fbd 403c bb3d
000002b0: 613d 253e b133 823d e31e 9abd 4615 99bc
000002c0: 545b fbbd 221a 2bbe d626 f2bd fbc4 33be
000002d0: 5036 44bd 85a0 aabd bd87 0b3e 54a9 083e
000002e0: 30f9 9bbd d65c 16bc bb76 e23d 35b6 1f3e
000002f0: 4abc 813d e836 7bbd ff1c bc3d f559 993d
00000300: 0512 1f3d 1ec4 6d3c 0448 1a3d 5363 05be
00000310: 9cc9 5b3c 7c5b 253d 9a0c 343d 2e83 d6bd
00000320: bc4f a2ba 8781 b0bd f2ab 083e 8276 fabd
00000330: 46ed 7e3d 2956 6abd 9cce 273d 5111 f8bb
00000340: f82b 0abd e593 c23d e5fa b63d a38b e13d
00000350: c53a d3bd 5b3d 523b 6dcf 4bbb e5c2 48bd
00000360: e0b9 dbbc b5f9 db3d fd9c 80bd ce2d b63d
00000370: 164d a03d 7f29 79bc c4ea 3e3c 6d6a bc3d
00000380: 1061 583d 77ba c83c de8d d33d ae9e ed3c
00000390: 2ade 1fbe 47ce 07be 9138 76bb d9a9 713d
000003a0: ba1d ffbc 4707 123e 0b43 db3d 6674 d73d
000003b0: ca2a 273d 6b54 2c3e 2967 2bbe 2bad ab3d
000003c0: 3a54 e1bd 627b 64bd 0c84 253e c7c0 0abe
000003d0: f1d5 dd3c d448 1dbe 9914 803d 30e0 ad3a
000003e0: 1489 013e e1f4 89bc 524d 293e 74f9 05be
000003f0: 26ff f53d 5fb7 703d a50d 443d 9e01 553d

MLP.8.bias f4 [32]
-0.026993532 -0.0015006969 0.0073158005 -0.096163206 -0.0566789 -0.07792243 0.05914731 0.110664085
-0.10394284 0.1099639 0.008641847 -0.06777276 0.065100014 0.028805265 -0.00085347117 -0.14128381
-0.111311376 -0.04386365 0.10730481 -0.0083355 -0.09735765 -0.13327697 -0.010986762 0.14713265
-0.0068399725 -0.11306106 0.1461125 -0.012905485 -0.022587113 -0.072309524 -8.234578e-05 0.007502728
00000000: 8a21 ddbc 08b3 c4ba 62b9 ef3b 37f1 c4bd
00000010: 2228 68bd cc95 9fbd 7344 723d daa3 e23d
00000020: fcdf d4bd c134 e13d 8996 0d3c 72cc 8abd
00000030: 2853 853d 05f9 eb3c 7bbb 5fba b4ac 10be
00000040: 38f7 e3bd 5faa 33bd a0c2 db3d 9f91 08bc
00000050: 7363 c7bd c279 08be d201 34bc f1a9 163e
00000060: d921 e0bb 8f8c e7bd 849e 153e 8771 53bc
00000070: 9c08 b9bc 0417 94bd 0eb1 acb8 72d9 f53b

MLP.10.weight f4 [32, 32]
-0.05651186 -0.0003652185 -0.06584715 0.1035614 -0.15242428 0.1329836 0.0658673 -0.046104588
-0.09976938 -0.16069342 0.03111275 -0.010728573 -0.14031444 0.048622075 4.7115573e-06 -0.05344609
0.11693313 -0.040269304 0.015588446 -0.07706082 -0.0022593983 0.14769468 0.0006692174 0.074599475
-0.05967243 0.102351926 -0.14440441 0.05950118 0.14218242 0.023990765 -0.013730612 0.06569847
-0.079882324 2.0398338e-05 -0.002375743 0.113908865 -0.10366801 0.0038495038 -0.025077676 -0.015195275
0.06823007 -0.044887166 0.019418992 -0.039579637 -0.11866274 -0.0003308628 5.5293785e-05 -0.064875774
0.012132639 0.044880502 -0.013154059 -0.04123082 0.1673845 0.13370562 -0.1507367 -0.058841377
0.0634773 0.1344505 -0.083068 0.012611382 0.024425462 0.05395679 -0.07835748 0.10131491
0.16925603 4.4133722e-07 -0.01987835 0.019882815 0.1212991 0.1172158 -0.02270957 0.07646395
0.071559355 0.032496512 0.0062204963 -0.06371281 0.06195602 -0.0002498914 1.0306824e-06 0.07300742
0.13078842 0.09587514 0.045540318 0.012815547 0.076362155 -0.062135752 -0.08029285 0.016119586
-0.069718346 0.040662568 0.053988833 0.010962345 -0.039163526 0.029904276 0.007344703 0.10290722
0.072838195 3.7773898e-05 -0.045531075 0.028768264 -0.1716888 -0.15704033 -0.024500072 0.111889586
-0.06827069 0.14336877 -0.03416105 0.011762391 0.1530656 -0.015649663 5.446796e-05 0.0053497385
-0.13864015 0.041519202 -0.11755195 0.029897334 0.18459192 -0.023373848 0.042173196 0.018606381
0.09576316 0.03829478 -0.069745325 -0.07295324 -0.033303678 0.09364321 0.08973497 -0.12301486
0.08471788 5.324592e-06 0.03221255 0.12640056 -0.14652936 -0.118792534 0.01531964 0.08983024
0.023399448 0.15875313 0.015895652 -0.009786432 0.19016057 0.005293391 4.5884655e-05 0.0640824
-0.029368695 0.15643243 0.10252552 0.006315252 -0.10155786 0.052932218 0.1011744 0.007916774
0.15533139 -0.08229203 -0.04604545 0.08040949 0.10031615 0.13397914 0.03855528 0.13666327
0.16152154 -5.2738873e-05 0.12411698 0.14500391 -0.12160776 -0.03780824 0.0350901 0.09577058
-0.087336145 -0.09238753 0.0031557248 -0.053314514 -0.09060383 -0.032148853 -0.00022928439 0.0026800933
-0.123725414 0.2420176 0.019408772 0.045614734 0.11908587 -0.21368612 -0.13701761 -0.050690234
-0.08508191 0.0076911272 0.0064232037 0.0080056535 0.058889378 -0.17794605 0.003888 0.12713662
0.13131817 0.0005810093 0.024714762 -0.07968305 -0.0014424494 -0.18625315 0.082242064 0.11670771
-0.018747548 -0.047422267 0.052728094 0.0893548 -0.030043017 0.0741654 8.420117e-06 0.045465775
-0.100017264 -0.21299917 0.15675537 0.022436064 -0.13291688 0.11025482 -0.09441631 0.07400632
-0.060309276 -0.15606697 0.062410764 0.0034700243 -0.0905304 -0.054993913 0.124637604 -0.10954081
0.12652154 1.6020858e-05 -0.0005875582 -0.009706581 -0.15462682 -0.04269116 -0.032801684 -0.13564478
0.026780007 -0.14387336 0.0073127113 0.078748584 -0.018992877 -0.006062976 2.8607185e-05 0.064189985
0.1343265 -0.07405662 -0.088043645 0.013892557 -0.06038797 0.088880785 -0.16205625 0.14179088
0.119525306 0.117479436 0.0872336 -0.03356533 0.1146521 0.03884815 0.0594545 -0.043649983
00000000: fb78 67bd cc7a bfb9 dfda 86bd 0018 d43d
00000010: 1c15 1cbe da2c 083e 6fe5 863d 2ad8 3cbd
00000020: e453 ccbd d18c 24be 2ae0 fe3c e6c6 2fbc
00000030: 97ae 0fbe f127 473d f817 9e36 4aea 5abd
00000040: a37a ef3d 6df1 24bd ae66 7f3c 10d2 9dbd
00000050: 6a12 14bb 463d 173e 6b6e 2f3a 9cc7 983d
00000060: 146b 74bd e39d d13d c0de 13be 82b7 733d
00000070: 4598 113e 4888 c43c 5cf6 60bc eb8c 863d
00000080: 5899 a3bd 191d ab37 5ab2 1bbb 0d49 e93d
00000090: e54f d4bd f547 7c3b b36f cdbc 9af5 78bc
000000a0: 35bc 8b3d 9bdb 37bd 9414 9f3c 421e 22bd
000000b0: 7305 f3bd a777 adb9 40eb 6738 97dd 84bd
000000c0: fac7 463c 9ed4 373d 1f84 57bc a6e1 28bd
000000d0: d866 2b3e 20ea 083e b95a 1abe a803 71bd
000000e0: 6300 823d 64ad 093e 8e1f aabd f89f 4e3c
000000f0: e817 c83c cc01 5d3d e379 a0bd 317e cf3d
00000100: 7451 2d3e edf0 ec34 ecd7 a2bc 49e1 a23c
00000110: aa6b f83d d60e f03d 6c09 babc 2299 9c3d
00000120: b68d 923d 101b 053d 4ed5 cb3b dd7b 82bd
00000130: 98c5 7d3d db03 83b9 fa55 8a35 ea84 953d
00000140: 66ed 053e 2f5a c43d 7c88 3a3d 4df8 513c
00000150: c363 9c3d 0f82 7ebd 9470 a4bd 390d 843c
00000160: 7ec8 8ebd cb8d 263d 6523 5d3d 689b 333c
00000170: ef69 20bd d0f9 f43c d6ab f03b 05c1 d23d
00000180: 312c 953d 6a6f 1e38 cb7e 3abd 6cab eb3c
00000190: 30cf 2fbe 2ecf 20be 60b4 c8bc 5e26 e53d
000001a0: 81d1 8bbd 43cf 123e 75ec 0bbd 0bb7 403c
000001b0: 3bbd 1c3e b933 80bc 8774 6438 dc4c af3b
000001c0: aff7 0dbe 0a10 2a3d 14bf f0bd 41eb f43c
000001d0: aa05 3d3e 837a bfbc cdbd 2c3d 696c 983c
000001e0: 7a1f c43d fdda 1c3d a3d6 8ebd 8268 95bd
000001f0: 7069 08bd 03c8 bf3d f8c6 b73d 37ef fbbd
00000200: 9180 ad3d e6a9 b236 4ff1 033d 266f 013e
00000210: cb0b 16be 8049 f3bd 3aff 7a3c ebf8 b73d
00000220: 33b0 bf3c 2e90 223e 9937 823c 4557 20bc
00000230: 74b9 423e 2f74 ad3b 4674 4038 a23d 833d
00000240: 9e96 f0bc d32f 203e e6f8 d13d 2cf0 ce3b
00000250: 91fd cfbd 74cf 583d 8634 cf3d 5bb5 013c
00000260: 310f 1f3e b988 a8bd 279a 3cbd bbad a43d
00000270: 8e72 cd3d d431 093e 24ec 1d3d 75f1 0b3e
00000280: e765 253e ef33 5db8 0b31 fe3d e87b 143e
00000290: 7d0d f9bd d0dc 1abd a3ba 0f3d 5e23 c43d
000002a0: 4bdd b2bd ac35 bdbd 47d0 4e3b 5260 5abd
000002b0: 808e b9bd 84ae 03bd 0f6c 70b9 81a4 2f3b
000002c0: c063 fdbd 76d3 773e 25ff 9e3c 84d6 3a3d
000002d0: 4be3 f33d 89d0 5abe 584e 0cbe 90a0 4fbd
000002e0: 6d3f aebd da05 fc3b bd79 d23b 252a 033c
000002f0: fd35 713d 7d37 36be d1cd 7e3b 1a30 023e
00000300: 4578 063e e04e 183a 9d76 ca3c de30 a3bd
00000310: 9210 bdba 25b9 3ebe 876e a83d 7404 ef3d
00000320: 7594 99bc da3d 42bd 6af9 573d a6ff b63d
00000330: c61c f6bc 07e4 973d 2144 0d37 523a 3a3d
00000340: dad5 ccbd 741c 5abe 7b84 203e d6cb b73c
00000350: 5d1b 08be 47cd e13d 575d c1bd a090 973d
00000360: dc06 77bd 05d0 1fbe 6ea2 7f3d 5969 633b
00000370: 0168 b9bd 4c41 61bd 0042 ff3d ef56 e0bd
00000380: dd8e 013e 8864 8637 5d06 1aba 5a08 1fbc
00000390: 7e56 1ebe eddc 2ebd 0f5b 06bd 77e6 0abe
000003a0: bf61 db3c 8a53 13be 789f ef3b f046 a13d
000003b0: f396 9bbc eeab c6bb 76f9 ef37 0a76 833d
000003c0: e38c 093e ffaa 97bd 3a50 b4bd 9b9d 633c
000003d0: 6059 77bd 2107 b63d 13f2 25be a131 113e
000003e0: afc9 f43d 0f99 f03d 88a7 b23d cd7b 09bd
000003f0: b8ce ea3d 3d1f 1f3d 9086 733d 53ca 32bd

MLP.10.bias f4 [32]
-0.01500972 0.09385632 0.024486637 0.021762779 -0.15465441 -0.020062817 -0.15321037 -0.007380948
-0.15501563 -0.13484082 -0.038346585 -0.0019480254 0.039983448 0.12766273 -0.039750297 -0.007901516
0.0467254 -0.0024546082 0.045871463 -0.13139455 0.13674928 0.037885733 -0.044473656 -0.025056794
0.052879076 -0.034258757 -0.013534469 0.16343223 -0.15376168 0.17299014 -0.13211274 0.03936401
00000000: 54eb 75bc be37 c03d 3398 c83c db47 b23c
00000010: ba5d 1ebe c75a a4bc 2ee3 1cbe e1db f1bb
00000020: 6bbc 1ebe b613 0abe 4f11 1dbd e354 ffba
00000030: afc5 233d 05ba 023e 35d1 22bd 5c75 01bc
00000040: 2263 3f3d 7edd 20bb b7e3 3b3d 4b8c 06be
00000050: 0108 0c3e 122e 1b3d 022a 36bd e843 cdbc
00000060: bb97 583d e952 0cbd adbf 5dbc c75a 273e
00000070: b473 1dbe 5424 313e 9048 07be 283c 213d

MLP.11.weight f4 [32]
0.9677749 0.96653986 0.9551197 0.9530472 0.9735518 0.9560625 0.9250937 0.89644074
0.9017451 0.9575166 0.97697914 0.88584757 0.8973898 0.9195224 0.9546299 0.9426133
0.96165884 0.96917886 0.933744 0.9650309 0.97812134 0.8665852 0.9686971 0.9567738
0.9448406 0.9848481 0.9340669 0.9569219 0.8796197 0.9772263 0.94287527 0.948993
00000000: 19c0 773f 286f 773f ba82 743f e7fa 733f
00000010: b13a 793f 83c0 743f f1d2 6c3f 247d 653f
00000020: c4d8 663f cf1f 753f 4e1b 7a3f e8c6 623f
00000030: 57bb 653f d265 6b3f a062 743f 1b4f 713f
00000040: 462f 763f 1b1c 783f d909 6f3f 440c 773f
00000050: 2966 7a3f 87d8 5d3f 88fc 773f 21ef 743f
00000060: 13e1 713f 011f 7c3f 021f 6f3f d5f8 743f
00000070: c22e 613f 812b 7a3f 4660 713f 35f1 723f

MLP.11.bias f4 [32]
-0.0022446108 0.0029218772 -0.008105597 -0.0028416663 0.0098024765 -0.0068062837 -0.00046645149 0.004448214
0.006417321 0.007808652 -0.010332211 0.001507526 0.0012364608 0.0059035434 -0.01432812 0.0060307467
0.009934827 0.0032433209 -0.0014924487 -0.0002414044 0.0021286348 -0.0032786026 0.015193031 0.0061160433
0.0021140694 0.005854476 -0.0021848246 -0.004248112 0.0074928566 0.008674743 0.01687435 -0.0026201762
00000000: 521a 13bb f77c 3f3b 57cd 04bc 403b 3abb
00000010: 919a 203c 3f07 dfbb 0f8e f4b9 53c2 913b
00000020: 6448 d23b b8df ff3b 6f48 29bc 2e98 c53a
00000030: bd10 a23a 8372 c13b 7ec0 6abc 929d c53b
00000040: afc5 223c e58d 543b 459e c3ba 8021 7db9
00000050: 9180 0b3b d3dd 56bb 31ec 783c 1769 c83b
00000060: 338c 0a3b e7d6 bf3b 462f 0fbb bf33 8bbb
00000070: a386 f53b 8220 0e3c 143c 8a3c 43b7 2bbb

MLP.13.weight f4 [4, 32]
0.117214255 -0.13103658 -0.038081806 -0.032419074 -0.08650686 0.086839795 -0.09435439 -0.09761252
-0.072737776 -0.15827963 0.13352142 0.09941281 0.05785954 0.029554354 0.1321792 -0.038468327
0.12821506 -0.05185891 0.053729806 -0.01954387 0.000935607 0.094605416 -0.021851625 -0.14566767
-0.04269768 -0.028345127 -0.05202857 0.102251165 -0.052752376 -0.08149605 -0.046954673 0.07393475
-0.10334148 -0.06491028 -0.076637685 -0.008464881 -0.053363398 0.12200938 -0.061934922 0.0022898747
-0.059465896 -0.06785214 0.004201236 0.00961647 0.0029729542 0.039016776 -0.05378426 -0.054238517
0.10614667 0.08229286 0.026322434 0.14308085 -0.005640033 0.008781887 -0.026996711 0.043430988
-0.024327997 0.052381773 -0.043811686 -0.10781177 0.018885812 -0.05978965 -0.051177822 -0.03441422
0.077630535 0.13261995 0.07771636 -0.08322135 0.08226311 0.06933428 -0.037130006 -0.053251367
-0.0057407017 0.004393973 -0.11733932 0.02864072 -0.102960825 -0.0737907 0.054340478 0.06499149
-0.008863754 0.114254616 0.0671649 -0.1282194 0.13180688 0.017770085 -0.1299409 0.11441598
0.09431172 -0.028613945 0.017491344 0.0618517 -0.022875194 0.12427456 -0.09069909 -0.09344819
-0.039950248 -0.018174246 0.006088189 0.021916727 -0.0070173447 -0.03148779 -0.005723781 0.01674224
-0.014093063 -0.057652667 -0.008120079 0.012488222 -0.03539033 0.009598228 -0.007410026 -0.013083276
-0.0021399744 0.0143260965 -0.035154376 -0.013380902 0.008078798 0.040076878 0.014352162 0.027052222
0.044099748 -0.0628259 0.06859575 -0.0004991944 0.05981731 0.0051598237 -0.042857625 0.03822449
00000000: 070e f03d 742e 06be abfb 1bbd ddc9 04bd
00000010: 822a b1bd 10d9 b13d e03c c1bd 13e9 c7bd
00000020: 8bf7 94bd 0e14 22be d7b9 083e f198 cb3d
00000030: 20fe 6c3d f91b f23c fc59 073e f790 1dbd
00000040: cf4a 033e 026a 54bd c913 5c3d 771a a0bc
00000050: 8643 753a 7cc0 c13d 2e02 b3bc e829 15be
00000060: c3e3 2ebd 0a34 e8bc e91b 55bd 0f69 d13d
00000070: e012 58bd 67e7 a6bd 8b53 40bd 1a6b 973d
00000080: b3a4 d3bd aeef 84bd 38f4 9cbd 49b0 0abc
00000090: 9493 5abd 0ee0 f93d 79af 7dbd b911 163b
000000a0: 8392 73bd 10f6 8abd 86aa 893b 668e 1d3c
000000b0: e5d5 423b 0ed0 1f3d e24c 5cbd 3529 5ebd
000000c0: 6d63 d93d 2989 a83d 25a2 d73c c983 123e
000000d0: 07d0 b8bb e7e1 0f3c 3528 ddbc b1e4 313d
000000e0: 824b c7bc 458e 563d e273 33bd 6bcc dcbd
000000f0: 6bb6 9a3c fee5 74bd d69f 51bd edf5 0cbd
00000100: c2fc 9e3d 86cd 073e c129 9f3d f56f aabd
00000110: 9079 a83d 22ff 8d3d a215 18bd 1b1e 5abd
00000120: 7f1c bcbb 51fb 8f3b 994f f0bd f19f ea3c
00000130: 20dd d2bd 941f 97bd 1f94 5e3d 421a 853d
00000140: 4739 11bc 53fe e93d c08d 893d f24b 03be
00000150: 62f8 063e 9292 913c 3a0f 05be ed52 ea3d
00000160: 8126 c13d cb67 eabc 024a 8f3c 3558 7d3d
00000170: c264 bbbc a983 fe3d 72c0 b9bd c461 bfbd
00000180: dfa2 23bd 28e2 94bc 6e7f c73b b58a b33c
00000190: c1f1 e5bb 57f9 00bd 8e8e bbbb 0627 893c
000001a0: 97e6 66bc 3425 6cbd 140a 05bc 669b 4c3c
000001b0: 73f5 10bd e341 1d3c cecf f2bb 3d5b 56bc
000001c0: d03e 0cbb 01b8 6a3c 09fe 0fbd 923b 5bbc
000001d0: ef5c 043c a727 243d 5525 6b3c 9f9c dd3c
000001e0: f0a1 343d deaa 80bd ee7b 8c3d 5edc 02ba
000001f0: ff02 753d bd13 a93b 7a8b 2fbd 4891 1c3d

MLP.13.bias f4 [4]
-0.053870745 0.09446215 -0.16231103 0.0041962857
00000000: 92a7 5cbd 5f75 c13d dd34 26be ff80 893b
