example/model/polygon_robot/model_5000.pth (torch, 24610 bytes, 18 tensors)

MLP.0.weight f4 [32, 2]
00000000: 077a a03e 96bd 52be de30 d63d 4917 e1be
00000010: 3c82 0abf 9c07 ba3e 85b6 d3be 7731 b63e
00000020: 1b31 7a3e 47b3 a5be ff99 02bf 00a4 c5be
00000030: a122 3fbe f60e a9be c819 c93e 29ea aabe
00000040: a6bf 7d3e dd39 24be dcbe 8dbc 9a64 f3be
00000050: 0c81 a23e 052f 773e ef4e f33e 3b9f 96bd
00000060: 8591 8dbe 3f07 e13d 2c39 ba3c 1817 ccbe
00000070: ff75 a63e 46b8 65be c392 fa3e 8daf d03e
00000080: 7f94 0bbf 86f1 c6be edd0 9c3e ca34 07bf
00000090: f0c3 bf3e eed4 f1be 8891 a7bb e928 c5bd
000000a0: d5ce f5bc 017b 873e 6fab b53e fa16 023d
000000b0: 1f40 493e f062 203e 1532 973d dc6b 593e
000000c0: 3d91 de3d fb5a 963e 32dc c3bd 5bd8 753e
000000d0: 7e2b 0bbd bc0b fabe 390d 00bc f035 84bd
000000e0: 0ab1 20be 39bc 38be 60aa 0b3e c5ef f73d
000000f0: 4146 f73e 614b bcbe 68b1 b2bc a8a8 5c3d
0.313431 -0.20580134 0.104585394 -0.43963078 -0.5410497 0.3633393 -0.4135019 0.35584614
0.24432795 -0.3236334 -0.5101623 -0.38601685 -0.18665554 -0.33019227 0.39277482 -0.33381775
0.2478014 -0.16037698 -0.017302923 -0.4753769 0.3173908 0.2413903 0.4752116 -0.073545896
-0.27650085 0.1098771 0.02273234 -0.3986137 0.325119 -0.22433576 0.48940095 0.40758935
-0.5452346 -0.38856143 0.30628148 -0.52814925 0.37454176 -0.47232765 -0.005113784 -0.096269436
-0.030005852 0.26461032 0.35482356 0.031760193 0.19653367 0.15662742 0.07382599 0.21232551
0.10867546 0.29366288 -0.09563483 0.24008314 -0.033977024 -0.48837078 -0.0078156525 -0.064556
-0.15692535 -0.18040551 0.13639212 0.12106279 0.48295787 -0.3677626 -0.02181311 0.05387178

MLP.0.bias f4 [32]
00000000: eed9 02ba 5f17 e83e dc83 fd3a f754 683e
00000010: 5a8e 8f3e e977 023e e805 1e3e d190 a03d
00000020: 64f9 8c3e 65bd 323d d56a d3bd e6dc b1bd
00000030: 446a 0b3e 4db8 43be c6a7 c9bb 6003 1e3e
00000040: 3cf2 09be ec66 ff3d 3749 9fbe 375a 42be
00000050: 9606 b7bd 5bb1 a13e 3b72 2f3e bd90 a53d
00000060: c943 a53e dcdb babe aad6 513e 02bc a33e
00000070: 332f 31be 0219 9abe 708f 88bd 0521 9cbe
-0.00049915805 0.4533033 0.0019341665 0.22688662 0.28038293 0.12741055 0.1543194 0.078401215
0.2753402 0.043637652 -0.10323111 -0.08684711 0.13614756 -0.19113274 -0.0061540334 0.15430975
-0.13471311 0.12470803 -0.31110546 -0.18979727 -0.08936803 0.31580624 0.17133419 0.08084247
0.32278278 -0.36495864 0.20492044 0.31979376 -0.17303161 -0.30097204 -0.066679835 -0.30493942

MLP.1.weight f4 [32]
00000000: 4bd0 1c3f c94a 273f d635 fd3e 1caa 273f
00000010: f431 143f 3780 0e3f 839e 0f3f 1e76 e23e
00000020: de64 0d3f c861 153f af84 f63e c807 343f
00000030: c0b6 103f d341 313f abc4 013f 49a0 2e3f
00000040: b12c 0e3f 05a0 173f 4519 233f 808c b93e
00000050: bf82 423f 381d 1d3f 4a55 203f 3fe5 2a3f
00000060: ac09 223f b71d 413f d727 253f 4d16 f13e
00000070: ab51 2c3f 2af6 1d3f 1b2b 163f de85 373f
0.6125533 0.6534849 0.49455136 0.6549394 0.5788872 0.5566439 0.56101245 0.4423074
0.55232036 0.5835233 0.48148105 0.70324373 0.56528854 0.69241065 0.50690717 0.68213326
0.55536944 0.59228545 0.63710433 0.36240005 0.7598075 0.6137271 0.6263014 0.6675605
0.6329601 0.75435966 0.64513916 0.47087327 0.67312115 0.6170374 0.58659524 0.7168864

MLP.1.bias f4 [32]
00000000: 171e beba 8f98 2ebc ea33 0ebd d757 7c3b
00000010: ea30 3b3c 4f85 2c3d 2315 8ebc b8ac 93bd
00000020: 3774 49bd fc12 42bb 2fbd 8a3b f714 8f3c
00000030: edaa bc3c 1784 30bc 7386 eebb fb36 26bd
00000040: bd7c 82bd aedd 063d 6e6c 80bc 1a7a 3dbc
00000050: 34df 393d 1211 033b 9ebe e93c 3e3b 913c
00000060: 1237 4c3d 8c74 13bd f923 833c 0651 ca3b
00000070: 5618 f1bc 8719 3d3c 96bd 123d ea64 dabc
-0.0014504817 -0.01065649 -0.034717478 0.0038504505 0.011425236 0.04211932 -0.017344063 -0.07210678
-0.049183097 -0.0029613366 0.004233978 0.017466052 0.023030723 -0.01077368 -0.007279211 -0.040579777
-0.06371448 0.032926254 -0.015676703 -0.011564756 0.04537888 0.0019999188 0.028533276 0.017728444
0.049857207 -0.03599982 0.016008364 0.0061742095 -0.02943055 0.011541731 0.035825334 -0.026659448

MLP.3.weight f4 [32, 32]
00000000: a5fa 4ebd 842e 2b3d f76e 81bc 0e97 0abe
00000010: c0c1 003d 5662 95bd 70a4 0a3e f3dc a03a
00000020: b49e d23d 2d2f c93d 018b 0dbb ddcb e0bd
00000030: 0edb 083e f063 98bd 8171 edbd 0e12 153d
00000040: 15f3 2fbd 4fd5 b6bc 1011 67bd 1ddc 41bd
00000050: 9c4b a03d 1413 cf3d ae8f dbbb eb6e bd3b
00000060: 51dd 193e 349d f7bd 3e19 d03d d753 c33d
00000070: c0de b7bd 4dd5 4fbd 8734 003d d0f0 463b
00000080: 08f0 983c 3684 0a3d 18c1 27bc ce9b 8abd
00000090: a27b 8bbd f900 bbbd c210 c6bd 9fa0 83bd
000000a0: 25f8 0ebd b5f3 1abd 6835 37bd a961 1d3d
000000b0: 8c1b 25bd 5092 9fbd 002c 793c 6b41 83bc
000000c0: 6412 d4bd df58 8f3d b65d 603d c95d ac3c
000000d0: 7f07 e7bd 7319 1f3d 029b d5bc 521a cc3d
000000e0: ab2c 9b3d 8673 793d b0a4 26bc cbff 69bc
000000f0: 8fb6 8f3d 8671 30bd 3ec2 c4bd 7570 aa3d
00000100: fd42 563d ef0f b33c caf6 e5bc 21ca ac3a
00000110: ffa6 9f3d 936e ee3d e4bc 70bd 3cdd 213d
00000120: 32d1 a7bb 9c5f 99bd 5ea2 103d 7a68 5c3c
00000130: 478e bebc 949b cfbd 945b 3cbd 52b7 b4bd
00000140: 5279 a73b 3576 01bd 5696 c23a ca4a fcbc
00000150: 2e31 05be 4d6b 8f3d 13a5 87bd 05ca 843d
00000160: 9a5d e33c 4bbd eabd 7b9d 053e 93d5 9a3d
00000170: ccd8 1cbc 6981 0ebe 9eca 89bd 7284 d1bd
00000180: f065 253e 54f0 aebb 1d50 ef3d f748 25be
00000190: fa22 c8bc 9ebd 883d 861d 38bc d598 65bc
000001a0: ba6a f8bd ab03 a13d b9dd 30bc 0ced 563e
000001b0: 4225 873d 9296 0abe df0e a83d 4cf0 31be
000001c0: 0763 dcbd 8f49 0c3c 64d2 e63d ca95 c93b
000001d0: 9cb6 0dbe 4ff0 0d3e e3aa dd3c 7df9 073e
000001e0: 0e99 273d 1e92 0b3e 95d7 15bd 0101 43be
000001f0: 62f3 103b 4a17 c93d dfff fa3d cc90 0e3e
00000200: 3f09 f6bd 2e48 cdbd 35e7 73bb 9775 2b3d
00000210: ae02 26bd 284c 48bb 7183 a93d 3b86 933d
00000220: fd0c 6b3d e794 53bc d570 e1bd fc1a 16bd
00000230: 3240 313d cba4 9a3c 1955 813d c0a2 c0bd
00000240: b4fa 5d3d 3da2 b63d 4f27 de3d 02b7 f73c
00000250: 05bd f33d e3b1 0fbe 42bf 1c3d d78f 07bd
00000260: c547 da3d e12e a03d 3dca b5bc 5aab a2bc
00000270: 7a75 613d fa34 7d3d 5f21 c83c a23e 863d
00000280: 71e3 3abe 5764 093d 75b7 1d3e 5259 f5bc
00000290: 9701 38be 2777 363d 8103 09bd 7a80 95bd
000002a0: 84f2 16be 8988 86bc 266a bd3d 6681 903c
000002b0: 29fe 1bbc 69af 013e 887b 3cbe ca75 613d
000002c0: 70cb 103e 76cf 0ebe 3da8 19bd 6bfd e13d
000002d0: 2a61 23be f35e 74bd ab04 0fbd 648a 17be
000002e0: 9e97 30be e8c5 ae3d 916a d63d dad7 603d
000002f0: 0244 fd3c 5d0d 703d 247a 113d 7264 c53d
00000300: 79e4 d53d 4a53 e8ba 0a6e 51bd 70ae b93d
00000310: 2e7a d33d 3bd6 f6bb 54f2 8abb 5ce9 3cbd
00000320: 9991 cabd 7a19 ff3c 223b b0bc af15 c73d
00000330: d53f dfbd 9a14 dabc cce7 983d 8695 e23d
00000340: 4a35 063d 0baf da3d 1346 dfbd fb5d 2ebd
00000350: da3d cdbd 1295 b6bd 9eaa a83d a78a 82bd
00000360: 582b 56bd 26e4 02be 07cb 423d 4bda e0bb
00000370: bf18 833d ca96 21bd ff85 b0bd 07fd b73b
00000380: 7314 db3c 3563 febc 2058 483d 5209 4c3e
00000390: 55b0 d33c 4809 093e f6c2 e13c 71f7 8a3d
000003a0: 6898 bfbd fde3 9e3c 028e 52bd 7564 8b3d
000003b0: 44e4 34bc 986a ffbc 1298 5fbd a54e 053d
000003c0: 791c bbbd 3e7d 66bd 86b0 bcbd 79df 023d
000003d0: e88b e93d a7e1 3c3c 78af 03be dadd cbbd
000003e0: d58f b53d e336 d33c 76f6 5dbd 3b30 373d
000003f0: d0e1 07be bc99 d13d cb86 43bc 47fe 0a38
-0.050532002 0.041792408 -0.015799982 -0.13534185 0.031434774 -0.07294147 0.1353929 0.0012272879
0.102841765 0.09823451 -0.0021597745 -0.10976384 0.13364813 -0.074409366 -0.11593915 0.03639417
-0.04295643 -0.02231851 -0.056412756 -0.047329057 0.07826921 0.10111061 -0.0067004776 0.0057810447
0.15025832 -0.12090531 0.101610646 0.095374756 -0.08978033 -0.05074053 0.031300094 0.0030355938
0.018669143 0.033817492 -0.010238908 -0.06767999 -0.068106905 -0.09131045 -0.09671165 -0.064271204
-0.034904618 -0.037830073 -0.044728667 0.038423214 -0.040309474 -0.07791579 0.015208244 -0.016022405
-0.1035507 0.06999373 0.05477687 0.021040814 -0.11280727 0.03884263 -0.02607489 0.09965958
0.07576879 0.060901187 -0.0101711005 -0.014282177 0.07017242 -0.043077014 -0.09607361 0.08322231
0.05230998 0.021858184 -0.02807178 0.0013182798 0.07795524 0.11642184 -0.05877389 0.039517626
-0.0051213736 -0.07488939 0.035311095 0.0134526435 -0.023261202 -0.10137096 -0.045985773 -0.08824028
0.005110898 -0.03160687 0.0014845829 -0.030797381 -0.13007042 0.07002888 -0.06623282 0.06483845
0.027754594 -0.11461886 0.13048355 0.07560267 -0.009573173 -0.13916554 -0.06728099 -0.1023034
0.16152167 -0.005338708 0.11685202 -0.16141115 -0.02443074 0.066767916 -0.011237508 -0.014013489
-0.121297315 0.07862028 -0.01079505 0.20988864 0.06598903 -0.13534 0.082059614 -0.17376822
-0.107610755 0.00856246 0.112705976 0.0061518895 -0.13839191 0.13861202 0.027059024 0.13278766
0.04091745 0.13629958 -0.03658255 -0.19043352 0.0022117724 0.09818895 0.12255835 0.13922423
-0.12013482 -0.10023533 -0.0037216668 0.04186019 -0.0405299 -0.003056297 0.082770236 0.07203337
0.057385433 -0.012913919 -0.11007849 -0.036646828 0.043274112 0.018877408 0.06315059 -0.09406042
0.054194167 0.08917663 0.10847341 0.030238632 0.11901287 -0.14032702 0.038268335 -0.03309616
0.1065822 0.078214414 -0.022191161 -0.019857097 0.055043675 0.0618181 0.024429975 0.06554915
-0.18250825 0.033542957 0.15402015 -0.029949818 -0.17969356 0.044547226 -0.033450607 -0.072998956
-0.1474095 -0.016422527 0.09248762 0.017639827 -0.009521046 0.1266457 -0.18406498 0.055043973
0.14140105 -0.13946328 -0.03751396 0.11034664 -0.15955034 -0.059660863 -0.03491656 -0.14798886
-0.17245337 0.08533841 0.10469545 0.054893352 0.030916218 0.058606494 0.035516873 0.09638299
0.10443968 -0.0017725017 -0.051130332 0.090664744 0.10326038 -0.0075328625 -0.0042403135 -0.046120986
-0.09891052 0.031140078 -0.021512572 0.09720933 -0.10900847 -0.026621152 0.07466087 0.110636756
0.032765664 0.10677918 -0.109020375 -0.042570096 -0.10021563 -0.08915152 0.08235668 -0.06374102
-0.05228743 -0.12782344 0.047556903 -0.00686196 0.06401204 -0.039450444 -0.08619308 0.00561488
0.02674315 -0.031053165 0.048912168 0.1992543 0.025840918 0.13382447 0.027558785 0.06785477
-0.09355241 0.019395823 -0.05140496 0.0680627 -0.011040751 -0.031178758 -0.054588385 0.032545704
-0.0913629 -0.056271784 -0.09213357 0.0319514 0.11403638 0.011528409 -0.12859905 -0.09954424
0.088653244 0.025783008 -0.05419012 0.04472373 -0.13269734 0.10234401 -0.011933993 3.3138578e-05

MLP.3.bias f4 [32]
00000000: b765 d53d af1b b7bd 45ed 0dbe ac1d bcbc
00000010: fb7b d13b 6ff3 5fb9 5cad 2a3c 5de1 9c3c
00000020: 7e69 c03d 5d1a f0bd 117c 67bd 991e 0139
00000030: 4e93 d2bc 0556 3dbd 28b3 cabd 1862 29be
00000040: 5b68 bcbc a996 a3bc 16d3 06bd 1b62 0c3e
00000050: c3d8 c3bd f0cf a1bd 6a32 2c3e 687c 76bb
00000060: 8d6d ac3d 4107 0bbd 9a0e 37bd 732c 633d
00000070: 31e4 f2bc 607a ed3c 0e63 15be 8fbe be3d
0.10419791 -0.08940827 -0.13860042 -0.022963367 0.0063929535 -0.00021357623 0.010417309 0.01915043
0.09395121 -0.117237784 -0.056514803 0.00012313797 -0.025705006 -0.046224613 -0.098974526 -0.16541326
-0.02299898 -0.019969301 -0.03291615 0.137093 -0.095628284 -0.07900989 0.16816106 -0.0037610773
0.08419333 -0.033942465 -0.04469166 0.055462312 -0.029649826 0.028989017 -0.14588568 0.0931369

MLP.5.weight f4 [32, 32]
00000000: bf7e a13c a4af e9bb 76f4 773d 885c 99bd
00000010: 84df 1abd ba52 adbd 455f 163e abab 0abe
00000020: 379d 763c aa70 eebc b93e 90bd 5b63 c43c
00000030: e5bf b0bc 0724 563b b142 083d f9f3 fabd
00000040: 800b 28bd b5bb 103c 2f8c 2d3d e323 873d
00000050: 2d2b 0bbd 2d05 7d3d 78f2 c03d b9ee 71bd
00000060: 3db0 a7bd a6af 473c f959 8a3c d470 d13b
00000070: 139f c83d 6149 20bd fe74 14bd 0467 a1bc
00000080: 5290 07bd fab7 49bd d762 c33b 6a99 f0bb
00000090: 436a 30bd 503f c83d 92a0 babd 7811 803c
000000a0: 629a 073d ad86 0d3b eb22 c2bb 6ebd 753b
000000b0: d278 22bd 72ad 5e3c ef9b 35bb 196f 033d
000000c0: 607b 163d c88b d43b 3b96 a9bc be57 09be
000000d0: d54e 7a3c e1ba 8a3d 667b 6f3c 03a1 b1bc
000000e0: 1dc4 683d 4f33 6d3d 4de6 333d 5014 3abd
000000f0: 8a13 66bd 92b1 ba3d e997 863d 7372 913c
00000100: 0fd5 d6bd e778 62bd aa7f 2a3c 2e03 4a3d
00000110: bda7 153d 48a3 26be aed2 87bd 1e0e a23c
00000120: ad68 0f3a 8acd 80bd 2477 73bc 3244 06be
00000130: d6cb 8fbd 2f88 b4bd 2700 b93c 12b8 d7bd
00000140: 2bc6 97bc 08d6 853d 3049 70bd 28ad da3d
00000150: 8c7d 1bbb c825 a5bd 416e 0ebd a8fc 54bd
00000160: 8670 1a3b e6c1 143e 20a7 06be b8f3 8c3c
00000170: ee23 06bd 7f6e b73d 43e9 743d 680a 083d
00000180: eedf 18bd 86fb b3bd 1ff3 b53d 93ac 15bd
00000190: 4e12 013e c8ed 703e a0b4 b03d 8f50 43bd
000001a0: d274 473c 9f7a 7bbd 5795 e03c ed3b aa3d
000001b0: 7a26 9a3d be11 ae3d ee51 6b39 f026 8dbd
000001c0: a9a0 f1bc eb29 bf3d 42f6 84bc a5ee 9bbd
000001d0: 1839 193d 1b3d a13d bbce 8c3d 8348 193d
000001e0: 22f6 8fbd 3458 bbbc 99d6 58bd e02a 44bd
000001f0: 2b97 d93c 583c 0e3e 43f8 8f3d 86b8 893d
00000200: 0f35 a8bd 1c63 273d 073a bebc 6a76 853b
00000210: e819 87bc 1528 94bd 0419 343d 97a9 a8bd
00000220: 0309 a8bb 57b8 95bd b769 e33b 1ab9 c03d
00000230: 28a0 a8bd 458d 96bc 81f9 513d 6620 febd
00000240: 272d 363d 8dc9 153d 26ab adbd f710 2e3d
00000250: 11f2 323d e0b2 aa3d dade 0cbe 7f04 76bd
00000260: d743 8bbd 6962 ca3c 53d9 523d c9c8 873d
00000270: a091 9ebc d07a 0fbd ccb0 ea3c 7f81 a13d
00000280: 96d2 4fbd 8f9d 77bd 1cc4 cd3d eee0 e0bd
00000290: 760c babd 7b89 c1bd 5681 e93c 5689 603d
000002a0: 9963 443d ab7b 06bd 17fc 79bd c866 be3d
000002b0: 2bf5 673d 0603 39bd 67ee 903d 9efb 13bd
000002c0: fcbb 973c 02e1 f6bc 4890 5a3d 8d9a b73d
000002d0: 2f5c 19bd 614f e23c 5cb0 103e e3ae 233e
000002e0: d118 aabc 0844 c43d 3bcb 98bd 0d39 26bc
000002f0: 3ff0 4cbd 451c 383d 0676 9e3d 54f6 183e
00000300: c828 853d 4f50 383d bb8b c3bd b601 4b3d
00000310: dfc3 2e3d 271e ba39 99e2 bebc cd0a d7bd
00000320: 969e cc3d 5f30 0b3d f46e 2a3d 8217 633d
00000330: c6c5 223d f04b 683d c8e3 4bbd f9a2 ebbd
00000340: 2c26 073d 7c09 62bc 1d2a a53d 1927 b0bd
00000350: 5610 97bb 9f48 be3d d6a5 23bd 6b04 a23d
00000360: c13b a33d 8b1d a83b 8a47 563d 38c3 b2bd
00000370: f8e6 cf3d 2573 f4bd 7922 573a e4b0 85bb
00000380: 9d7f febc fe50 003d 7813 8f3c 72a4 613e
00000390: 9b09 9cbd a782 a5bd 263b f2bc bc21 aabd
000003a0: 43df 8cbc b3fb 42bd 25f8 aebc 622c bcbc
000003b0: 0cae 95bc 1e88 64bd 62e7 a1bd cc3c 0c3d
000003c0: e457 3ebc 7750 c3bd 86ed babc dacc db3c
000003d0: 79b4 41bc 8ae3 29bd 81a6 f2bc 3eed 923d
000003e0: 74fe 0c3e 06c3 66bd 7ada c63c 8f22 073d
000003f0: b9f3 0b3e 4ebc 343e 936c 7cbd 2d39 c83c
0.019713758 -0.0071315337 0.06053587 -0.07488352 -0.037810817 -0.084630445 0.1468478 -0.13542049
0.015052131 -0.029106457 -0.070432134 0.023973158 -0.021575877 0.0032675283 0.033266727 -0.12253565
-0.041026592 0.008833815 0.042370018 0.06598642 -0.033976723 0.061772514 0.09421247 -0.059065554
-0.08187912 0.012187874 0.016888605 0.006391624 0.09795966 -0.03913248 -0.036244385 -0.019702442
-0.03309662 -0.04924772 0.0059627104 -0.007342507 -0.04307009 0.09777701 -0.091126576 0.01563333
0.033106215 0.0021595166 -0.0059245727 0.0037496942 -0.039666004 0.013591157 -0.0027711352 0.032088373
0.036738753 0.00648639 -0.020701518 -0.13412377 0.015277584 0.067739256 0.014616823 -0.021683222
0.056827653 0.05791026 0.043920804 -0.045429528 -0.056170978 0.091159 0.06571943 0.017754769
-0.104898565 -0.055291083 0.010406414 0.04931944 0.03653692 -0.16273224 -0.06631981 0.019782122
0.0005470615 -0.062892035 -0.014859948 -0.13111952 -0.070213005 -0.088150375 0.02258308 -0.105331555
-0.018527111 0.06534964 -0.058663547 0.10677558 -0.0023725955 -0.08063847 -0.034773115 -0.051998764
0.0023565604 0.14527091 -0.1314969 0.017206058 -0.03274911 0.08956622 0.05979277 0.03321305
-0.03732293 -0.08788209 0.08884262 -0.036541533 0.12604639 0.23528206 0.086282015 -0.04768425
0.012173848 -0.061396237 0.02741496 0.08312211 0.0752687 0.08499478 0.00022441868 -0.06892192
-0.029495554 0.09334167 -0.016230706 -0.07613877 0.037407964 0.07872983 0.06875368 0.03742267
-0.07029368 -0.022869207 -0.05293903 -0.04789245 0.02656134 0.13890207 0.07029774 0.06724648
-0.08213245 0.040866002 -0.023221029 0.004072954 -0.016491845 -0.072342075 0.04396917 -0.08235472
-0.0051280274 -0.07310551 0.0069400924 0.09410305 -0.082336724 -0.01837791 0.051263336 -0.12408523
0.044476654 0.036569167 -0.084799096 0.042496648 0.043687884 0.08334899 -0.13756886 -0.06006288
-0.06800049 0.024705129 0.051476788 0.066300936 -0.019356549 -0.035029233 0.028648756 0.078860275
-0.05073794 -0.060452994 0.100471705 -0.10980402 -0.09084408 -0.094500504 0.028504055 0.054818474
0.047946546 -0.032832783 -0.061031427 0.09296948 0.056630295 -0.0451689 0.07076722 -0.036128633
0.018522255 -0.030136589 0.053360254 0.08965025 -0.03744143 0.027625741 0.14129776 0.15984683
-0.020763787 0.095832884 -0.07460638 -0.010145438 -0.050033804 0.044948835 0.07737355 0.14937717
0.06501919 0.044998463 -0.09548136 0.04956218 0.042667266 0.0003549915 -0.02330141 -0.10500107
0.09991185 0.033981677 0.04160972 0.05544234 0.039739393 0.056713045 -0.049777776 -0.11505694
0.032995388 -0.013796207 0.08064673 -0.08601207 -0.0046101017 0.09291195 -0.039953075 0.07910999
0.079703815 0.005130475 0.05231432 -0.08728641 0.10151476 -0.119360246 0.0008206736 -0.004079925
-0.03106671 0.03132724 0.017465338 0.22035387 -0.076190196 -0.080815606 -0.02956922 -0.083072156
-0.017196303 -0.04760332 -0.021358559 -0.022970382 -0.018271469 -0.055793874 -0.07905461 0.034237668
-0.011617634 -0.09536832 -0.022818338 0.02683108 -0.011822813 -0.041476764 -0.02962041 0.071741566
0.13768941 -0.056338333 0.0242741 0.032991942 0.13667192 0.17649958 -0.061626982 0.024441326

MLP.5.bias f4 [32]
00000000: e3bf b0bd 95a6 cf3d 9c9b c63d f96e 6ebd
00000010: 575f fe3d 08dd eebd 47fd 4e3d 2889 c33c
00000020: de41 8abd adf8 e4bd 7822 b3bd e3d3 813d
00000030: c0e0 23be 4576 b83b 47c7 4ebd dad8 d43d
00000040: 4404 a43d 8af7 7c3b db0d fd3d 353d 90bd
00000050: eb8f 193d cd3d 9f3d d2e4 5fbb c0b0 db3d
00000060: 46c5 143d 0f47 b93d f90e 87bd a610 9a3d
00000070: 28e4 ecbd e871 5fbd cc94 54bc 8008 c13c
-0.086303495 0.10139195 0.09697649 -0.0582113 0.124205284 -0.11663252 0.050534513 0.023869112
-0.067508444 -0.11180244 -0.08746809 0.06339242 -0.16003704 0.005629333 -0.050483014 0.10392924
0.08008626 0.0038599693 0.12356158 -0.07042924 0.037490766 0.077754594 -0.0034163487 0.10727072
0.036320947 0.090467565 -0.06594653 0.07522707 -0.11566955 -0.05455199 -0.012974929 0.023563623

MLP.6.weight f4 [32]
00000000: f5fe 353f f1d1 263f 9924 e93e c533 2b3f
00000010: 9afd 1c3f ba67 243f 229e 323f efdf 213f
00000020: 572a 1a3f 9c0d 1c3f 41b1 093f 66c3 1d3f
00000030: bd0a 1e3f c1ea f33e d7fa 363f 944d 1c3f
00000040: 89cb 313f 3eff 173f ef61 203f 2c6c 2c3f
00000050: 9dbe 2a3f 3d3d 193f 0b3d 363f 83cc 323f
00000060: 8d34 083f d43b 303f 082a 373f 723f f33e
00000070: 65cb 313f 366e f13e 7446 3c3f 0b02 813e
0.7109216 0.65164095 0.45535734 0.6687587 0.61324465 0.64220774 0.6977254 0.6323232
0.60220855 0.60958266 0.53786093 0.6162628 0.61735135 0.4764004 0.714765 0.61055875
0.69451195 0.59373844 0.62649435 0.6735256 0.666971 0.5985907 0.71186894 0.6984331
0.53205186 0.6884129 0.7154851 0.47509342 0.6945098 0.47154397 0.73545 0.2519687

MLP.6.bias f4 [32]
00000000: 9795 f9bb 199e 4b3d 8b7b 61bc 48cb 603b
00000010: d6a7 14bc 8354 c33b 14f0 dbba bb46 a9bc
00000020: 236e 43bc c3e6 09bc f943 003c 62c3 c8bc
00000030: 58cb 73bc fbd5 63bc 3d00 e93c ee9b 763c
00000040: 00cc 18bd 6a96 39bc 9885 e13b 532c ff3b
00000050: afd7 4bbc e97f edbc 32d0 a3bc 69df d8bb
00000060: 4ab7 753c 8117 78bc 820f 3a3c 1c4e 183d
00000070: 6d81 b638 8a74 70bc c04e df3c 070c 273c
-0.0076167095 0.04971132 -0.013762365 0.0034300853 -0.009073218 0.0059610023 -0.0016779923 -0.02066361
-0.011928114 -0.008416834 0.007828706 -0.024507228 -0.014880024 -0.013905997 0.028442496 0.015051825
-0.037303925 -0.011327365 0.0068823807 0.0077872663 -0.01244156 -0.028991656 -0.019996736 -0.0066184294
0.014997313 -0.0151423225 0.011356236 0.037183866 8.702544e-05 -0.014676223 0.02725923 0.010195739

MLP.8.weight f4 [32, 32]
00000000: 4bb2 e1bd 01d0 0c3e 1462 273e db70 893d
00000010: 0c65 533c 6aec f8bc 6448 3cbc 1e06 0d3d
00000020: 4ef9 5fbe 768e b33d f6c3 ff3b b934 893d
00000030: bbf2 1bbe 72d5 dd3c 9f60 623d 3156 06be
00000040: 3453 54be 2278 17be f1bf f63d c0bd a7bd
00000050: 0d80 8bbd 33a2 f7bc 420f 1f3e 6cb3 413e
00000060: 85cc ce3d 3516 28be a304 293e 4b66 a53d
00000070: 45a0 f1bd e1d5 a0bd c40e ae3d 8db7 05bd
00000080: 7b94 d401 18ec ae81 f639 e981 a1a0 3701
00000090: 5e39 b581 181f e880 908a ce81 67f8 b401
000000a0: ed34 c481 c29f c201 e818 ff01 1e10 2700
000000b0: cac8 ff01 2025 fc01 4bc5 0582 e841 fa80
000000c0: 3399 cb01 6d5b 0e02 2fac cb81 361d c081
000000d0: 689e 5200 38a5 8e01 88de a081 515f 1502
000000e0: 8b4b d101 9735 8a81 2265 8f01 2012 9881
000000f0: d86b 4181 92d2 c081 ee34 be81 7a58 c201
00000100: edcd ffbc 4506 e6bc eea6 a2bc 9a47 d1bd
00000110: bae7 14bd f77f 7c3c 99da b53c 0861 81bc
00000120: 5199 893c fc0c 43bd d985 823d eb46 71bd
00000130: f3f0 35bc 5d53 9abc 805b 563d 27a8 bf3c
00000140: eeff e6bc aedd 8bba 2ea8 5ebd d039 1f3d
00000150: 6bfc 783c 329f 18bc 87a7 f1bb 5e08 32bd
00000160: 5da2 153d d7a6 b7bc 5672 90bb c77d 19bb
00000170: 0bb2 6c3c 263b 643d e4ed e53c afdf b83c
00000180: 8b09 923d 9129 75bd 3fb4 0a3d 7e39 c1bd
00000190: 121b c33d 5b34 7d3d ee0f b73c 0fdf f53c
000001a0: 9fdb a0bc 62c7 e6bc 17f2 37bd 8ec8 ab3c
000001b0: 7ed9 9abd dba3 5d3d c72a 8abd 39e5 43bd
000001c0: 66ef fdba c750 8d3d 05bf d8bc 99eb b13c
000001d0: 5634 29bd b311 bebc 7965 d2b9 138a 263d
000001e0: 957d ca3d 5ede febc 8308 d53c dabf bdbb
000001f0: 1265 373d affb f83c 4a92 5e3d cb35 5fbc
00000200: 8546 c9bd c0c0 2e3d b6a1 b23d 7e5f 263e
00000210: f2f9 1a3e 7f17 87bd b3d0 c53d 39eb 01bc
00000220: 921e 0f3e 6910 8c3d 8303 2cbe 3e6d 913c
00000230: ac8f 7fbd e10c 5a3d 4ddb 9abd 4343 983d
00000240: 0fa9 3abd 16b6 2ebe 7bb6 32bc b8c1 e33c
00000250: c672 b63d df9c 1cbe c942 2cbd 8556 c6bd
00000260: 1b06 59bd 0f71 ddbd d3ff a43d 2def 7fbd
00000270: 55a4 57bd 2142 f53d 24c0 093e a958 73bd
00000280: a06b b9bd 22e2 33bd 2300 0dbd 3ffa cbbd
00000290: 40fc acbd 1df5 a23d 2073 8e3d 9e24 f03c
000002a0: 07ed 4bbc 090e 12be fda1 18bd b2dc 8b3d
000002b0: ebaa 063e 0bca 1c3d bba7 86bd 1ac4 78bc
000002c0: 8790 e6bd 1d6a 1fbe 4ea3 d4bd 09e3 19be
000002d0: c873 4abd 4331 7ebd c3a0 023e aa82 f13d
000002e0: c7c2 91bd 1a0b 5c3b 5be8 ad3d ff05 163e
000002f0: b084 3f3d bd5e 92bd e561 bf3d 5f3d 6c3d
00000300: e4bd 563d e74e b9bb 0012 433d ab79 febd
00000310: 74b0 c43c b807 363d aa5b 883d a97d ccbd
00000320: 9cac d9bb c7f3 b2bd 643a ae3d c25b 0ebe
00000330: 4a51 2d3d d120 a7bd e512 993d ed83 9e3c
00000340: 4398 f5bc 8d2d e63d 6cf1 813d 50f6 853d
00000350: 216c 38bd c13b c53c 6ffd 513c 5691 74bd
00000360: fdce 38bc 1777 ab3d 1d5a 7ebd 455d 9c3d
00000370: 24de 8c3d 6293 30bc 5bf6 0fbd 6776 413d
00000380: f0b0 423d 7078 883c d4ea c13d 2eda 143d
00000390: b0af 0fbe 8583 d1bd d135 28bc 29e1 783d
000003a0: 5482 9abc cb62 073e a252 9c3d d540 c33d
000003b0: d83d 323d f06e 193e 38da 1ebe 1aad 843d
000003c0: 228d b5bd e6b3 47bd 5280 093e a60a 05be
000003d0: c607 d03c 0448 efbd 460a 583d f90a 4d3a
000003e0: 72ac dc3d c883 08bd e212 1e3e 3cf0 e1bd
000003f0: eb71 dc3d 563b 0b3d 3a28 253d c451 5e3c
-0.11020335 0.13751222 0.16346008 0.067109786 0.012902509 -0.030386169 -0.011491869 0.034429662
-0.21872446 0.08767407 0.007805343 0.06699509 -0.15229313 0.027079318 0.055267926 -0.13118817
-0.20734864 -0.14791921 0.12048329 -0.08190489 -0.06811533 -0.03022871 0.15533164 0.189161
0.10097603 -0.16414721 0.16505675 0.080761515 -0.11798147 -0.07853294 0.0849891 -0.03264575
7.808956e-38 -6.4256283e-38 -8.567385e-38 3.3727037e-38 -6.6571217e-38 -2.131699e-38 -7.5871276e-38 6.6477997e-38
-7.2074974e-38 7.1493586e-38 9.3707945e-38 3.587366e-39 9.3960324e-38 9.262345e-38 -9.827917e-38 -2.2982517e-38
7.4790253e-38 1.045875e-37 -7.4817494e-38 -7.0571577e-38 7.587336e-39 5.239964e-38 -5.9094034e-38 1.0974146e-37
7.6882874e-38 -5.077009e-38 5.267502e-38 -5.586199e-38 -3.5525876e-38 -7.0831815e-38 -6.987093e-38 7.13913e-38
-0.031226123 -0.028079161 -0.019854989 -0.10218735 -0.036353804 0.015411369 0.022198962 -0.015793338
0.01679674 -0.047619805 0.06373186 -0.058905523 -0.01110481 -0.018838579 0.052333355 0.023395611
-0.028198209 -0.0010670924 -0.054359607 0.038873494 0.0151969 -0.009315299 -0.007374707 -0.04346501
0.036531795 -0.022418423 -0.004408161 -0.0023420916 0.014446746 0.05572047 0.028067537 0.022567598
0.071307264 -0.059854094 0.033863302 -0.09434794 0.095266476 0.06181751 0.022346463 0.03001359
-0.019635973 -0.028171245 -0.04490861 0.020969655 -0.075610146 0.054111343 -0.067464404 -0.047826026
-0.0019373714 0.06900173 -0.026458273 0.021718787 -0.041309677 -0.023201799 -0.00040129924 0.04065902
0.09887234 -0.031111892 0.026005035 -0.0057906928 0.044774123 0.03039345 0.05433873 -0.013623665
-0.09827904 0.04266429 0.0872225 0.16247365 0.15134409 -0.065962784 0.09658947 -0.007929617
0.13976505 0.068390675 -0.16798215 0.017752286 -0.062392876 0.05323494 -0.075613596 0.07434704
-0.045571383 -0.17061648 -0.010907765 0.027802333 0.0890861 -0.15294217 -0.04205588 -0.09684471
-0.05298434 -0.1081258 0.08056607 -0.062483955 -0.052646954 0.11975504 0.13452202 -0.059410725
-0.09053731 -0.04391683 -0.03442396 -0.0995984 -0.0844655 0.07956908 0.06955552 0.029314335
-0.012446648 -0.14263166 -0.03726386 0.06829204 0.13151138 0.03827862 -0.06574961 -0.015183473
-0.11258035 -0.15567823 -0.103827104 -0.15028013 -0.049426824 -0.0620587 0.12756638 0.117925
-0.07117229 0.0033575953 0.08491584 0.14650725 0.0467574 -0.07146976 0.09344844 0.057675716
0.052427188 -0.005655158 0.047624588 -0.1242555 0.02400992 0.044440955 0.066581085 -0.09984905
-0.006642891 -0.08737903 0.08507231 -0.1390219 0.04231385 -0.08160556 0.07474307 0.019350016
-0.02997983 0.11239157 0.06344876 0.06541121 -0.045024995 0.024076344 0.012816771 -0.059708916
-0.011279819 0.08372324 -0.062097657 0.07634977 0.068783075 -0.010777326 -0.035147052 0.047232058
0.047532022 0.016658992 0.09468618 0.036340885 -0.14031863 -0.102301635 -0.010266737 0.060761604
-0.018860973 0.1322128 0.076329485 0.0953385 0.04351601 0.14983726 -0.15512931 0.06478329
-0.088648096 -0.04875555 0.13427857 -0.12992343 0.025394332 -0.11683658 0.052744173 0.00078217644
0.10775079 -0.0333288 0.1543689 -0.11032149 0.10763916 0.033992134 0.040321566 0.013569299

MLP.8.bias f4 [32]
00000000: 70bb adbc bb2e e081 efac 663c bf9d 7abd
00000010: 2734 55bd fe98 75bd 1ba2 bb3d 765b b93d
00000020: ddfb b4bd 209b c83d 0d12 393d b8ea 4ebd
00000030: 4561 803d 89aa 1d3d 89c0 9482 aea3 0bbe
00000040: afc2 c2bd 39c9 1cbd 5100 b53d 60e9 20bc
00000050: 4e00 afbd e385 02be 6449 2abc d330 053e
00000060: 1d37 a8bb 46cd c7bd 18f8 023e ff3d 313c
00000070: 2d94 c3bc 86ca 96bd b96e 8c3c bb6d 383c
-0.021207541 -8.235166e-38 0.0140793165 -0.061185595 -0.05205169 -0.059960358 0.091617785 0.09050648
-0.088371016 0.09795213 0.04518323 -0.050516814 0.06268553 0.038492713 -2.1857155e-37 -0.13636658
-0.09509789 -0.03827784 0.08837951 -0.009821266 -0.0854498 -0.12746386 -0.010393474 0.13006906
-0.005133523 -0.0975595 0.12789953 0.010818004 -0.023874367 -0.07362847 0.01714264 0.0112566305

MLP.10.weight f4 [32, 32]
00000000: 7ef8 63bd 1ad8 8481 3b11 72bd 8076 b53d
00000010: c973 14be ba1b 033e da37 5b3d 6309 34bd
00000020: 33bc 6bbd f33b 07be f80c f23c 7f1a 85bb
00000030: f3d3 05be 1c63 363d fb39 9282 f5e2 2bbd
00000040: 76e8 df3d 2eac 12bd b1ce 7a3c b174 c9bd
00000050: 4a05 0a3d 0710 c43d 0b2d 9dbb 1ad7 823d
00000060: 3f60 6cbd a2ff ba3d a629 f5bd 18d5 5a3d
00000070: 53fd 043e 72c6 a73c d297 3abc d559 6c3d
00000080: 2620 a5bd beeb d481 147d 2cbc aaaf c63d
00000090: 31a0 d4bd 7de1 493b d3c0 1ebd a891 99bc
000000a0: 975c 833d 9bdd 30bd a487 073c b3be 37bd
000000b0: 0662 ebbd fe7d 5cbb 6d48 a202 52cd 81bd
000000c0: 29fe 033c 411b 313d e706 8cbc 4008 82bd
000000d0: 066d f33d 82e6 ed3d 6981 17be 3925 69bd
000000e0: f106 823d d803 043e 4a20 9ebd 1eb1 063c
000000f0: ae0d 943c 2c17 383d 950a 6fbd f0a9 bc3d
00000100: ea2f 213e db2d 3b00 3eb5 213a 3fea 01bc
00000110: e39d d43d fd50 d03d 1d1d 32bd 2e6e 673d
00000120: ac1a 193d 750c 793c 0ed1 663c 83df 7abd
00000130: 88e0 6e3d c645 0bbc 8292 9102 e2d1 7d3d
00000140: cafc 893d dfe8 853d 0ddf 173d 7f8c 593c
00000150: 90d0 013d 4302 113c a724 a7bd ec61 313c
00000160: c682 8ebd 026a ff3c e96a 363d 693b db3c
00000170: 32ce 2fbd b6a0 ae3c ee03 ad3b 9118 953d
00000180: e2cd 8f3d 7fa2 b101 eddf 82bc e1df b73c
00000190: 3065 30be 19b2 1dbe 0ee5 cdbc f6aa d63d
000001a0: 1242 72bd e0ed 013e d47b b1bc 00f3 233c
000001b0: 0df5 163e 3377 4fbc 16c0 a382 e9f5 82bb
000001c0: bd2e 08be 0b4a 113d 30c0 e2bd 63d2 613d
000001d0: 75d4 a23b 0584 0dbd 15f1 e43c 5cc3 913c
000001e0: f7f6 bb3d 91e0 073d 54c7 7cbd 8f8f 78bd
000001f0: e3fd f9bc 3527 b53d 05a9 97ba 5253 e6bd
00000200: 90d0 ab3d 568c b681 8720 643d bf58 b63d
00000210: 73ff 12be a89b e6bd 23e8 8e3d 1d60 ae3d
00000220: 5131 cd3c 6617 193e fd13 763d dcaa efbb
00000230: 87ba 413e 639c fd3b 8c3f 9b02 cc0c 853d
00000240: 9f2b d5bc 9c29 193e 0a97 c53d 9117 9f3c
00000250: 5778 75bd b982 4c3d e04b b83d ce4d 243c
00000260: fb67 1e3e 8315 98bd 9985 28bd ca5b 4f3d
00000270: 5f2e b83d 0977 eb3d d284 a83d 6e8a f93d
00000280: ee7a 233e adcc 9581 0e7f a73d f93e db3d
00000290: 58fc ddbd 834d 11bd 07b1 023d 53d2 d83d
000002a0: feac 78bd 7e98 a7bd abfb b53a 137f 19bd
000002b0: 2b1d b8bd b433 ffbc c414 9082 9490 843b
000002c0: b8e6 eebd 64af 7a3e 2df7 793c 5da5 6e3d
000002d0: 742a c33d 70b2 4abe d40b 04be 2674 2abd
000002e0: cd45 a5bd 6a79 5a3c e0a5 7a3b c68d caba
000002f0: 5b19 7c3d cf77 20be 9c1b be3b 666c fa3d
00000300: cdc8 043e 2ce4 a401 1d06 1b3d 48f4 3abd
00000310: a541 6ebc d05c 35be 110c ae3d 556d be3d
00000320: 599e 02bc b219 4abd cad4 853d 80fc 8e3d
00000330: 04d0 e4bc 7ded 9f3d dd17 8702 57d1 253d
00000340: 4e3f a2bd 6882 4cbe a1b1 1d3e d952 093d
00000350: 2bec 8dbd 717c 2a3d 6b30 b7bd 0c6a 7e3d
00000360: 9a5f 6cbd f0ad d2bd be51 653d 7c7d 523c
00000370: 117d b7bd 9ead ffbc f228 af3d 4114 bebd
00000380: f7d9 f83d f117 b301 c264 1f3b 333f 4fbc
00000390: 1b31 21be 53f6 37bd 14f1 fbbc a32d 02be
000003a0: ae8a 993b edd1 0bbe d777 24bc 49ae 403d
000003b0: b0f0 bdbc 6cb7 dabb af0a 9402 0873 513d
000003c0: f61e ef3d dd18 9bbd 8b4e a7bd d822 ec3c
000003d0: d195 44bd 6015 b93c f380 16be 74db 053e
000003e0: d7b6 e43d b1de c03d e5ca 8b3d 458f debb
000003f0: b48e d43d 8dcf 023d 480a 513d f33c 15bd
-0.055656902 -4.879923e-38 -0.059098464 0.08860493 -0.14497294 0.12803546 0.05352006 -0.043954264
-0.057552528 -0.13206463 0.0295472 -0.0040619965 -0.13069133 0.04452811 -2.148605e-37 -0.04196449
0.1093301 -0.035808735 0.015308068 -0.0983671 0.03369645 0.095733695 -0.0047966293 0.063886836
-0.057708975 0.09130789 -0.119708344 0.05342588 0.1298726 0.020480368 -0.011388736 0.057702858
-0.080627725 -7.8214774e-38 -0.010527868 0.09701474 -0.103821166 0.0030804568 -0.03875811 -0.018746212
0.064141445 -0.04318009 0.008272085 -0.0448596 -0.11493306 -0.0033644433 2.384533e-37 -0.0633799
0.008056202 0.043238882 -0.017093135 -0.0634923 0.11886029 0.116162315 -0.1479546 -0.056920264
0.0634898 0.12892091 -0.077210024 0.008220939 0.01807293 0.044943973 -0.0583597 0.092121005
0.15740934 5.434744e-39 0.000616867 -0.007929384 0.10381677 0.10171697 -0.043484796 0.05650156
0.037378952 0.015200724 0.014087928 -0.061248314 0.0583196 -0.008500522 2.1389926e-37 0.061967738
0.06737669 0.06538557 0.037077952 0.013278126 0.03169304 0.008850637 -0.08161288 0.010826569
-0.06958537 0.031178478 0.04453555 0.026761727 -0.042921253 0.021316867 0.0052800095 0.07280076
0.07021691 6.52527e-38 -0.015975917 0.022445621 -0.172261 -0.1539997 -0.025133636 0.10481827
-0.05914504 0.12688398 -0.021665491 0.010006666 0.14741917 -0.012662697 -2.406095e-37 -0.0039966
-0.13299079 0.035471004 -0.11071813 0.05513228 0.0049691745 -0.03454973 0.027946988 0.01779335
0.09177964 0.033173148 -0.06171353 -0.060683783 -0.03051657 0.08845369 -0.0011570757 -0.11246361
0.083893895 -6.7057613e-38 0.055695083 0.08903646 -0.14355259 -0.11260158 0.0697787 0.08514426
0.02504793 0.14950332 0.060077656 -0.007314069 0.18918811 0.00773959 2.2811677e-37 0.064965814
-0.026021777 0.14957279 0.09647949 0.019420417 -0.05992922 0.049929354 0.08998847 0.010028316
0.15469353 -0.07425978 -0.041143034 0.050624646 0.089932196 0.114973135 0.082284585 0.121846065
0.15964863 -5.502765e-38 0.08178531 0.107053705 -0.108391464 -0.03547431 0.031907108 0.10586991
-0.060711853 -0.081833825 0.0013884207 -0.037474703 -0.08989938 -0.031152584 -2.1170817e-37 0.0040455554
-0.116651 0.24480969 0.015256685 0.05826317 0.09529582 -0.19794631 -0.12895137 -0.041614674
-0.08069954 0.013334611 0.0038245842 -0.0015453629 0.06154762 -0.15670703 0.005801631 0.122277066
0.12967224 6.0571496e-38 0.037847627 -0.04564312 -0.014542018 -0.17711186 0.08498395 0.09298197
-0.007972323 -0.04934091 0.06534727 0.06981754 -0.02793122 0.07808969 1.9850164e-37 0.040482845
-0.07922231 -0.19971621 0.15399791 0.033526275 -0.06929811 0.041622583 -0.08944782 0.062112853
-0.05770836 -0.10287082 0.05598616 0.012847301 -0.089594014 -0.031210717 0.085527316 -0.09281207
0.121509485 6.578857e-38 0.002432153 -0.012649345 -0.15741388 -0.044912647 -0.030754603 -0.12712722
0.0046857214 -0.13654299 -0.010038338 0.04704121 -0.023186058 -0.0066746976 2.1752778e-37 0.051135093
0.11675827 -0.07573102 -0.08169278 0.028825209 -0.04799444 0.0225932 -0.14697628 0.13071996
0.111676864 0.09417475 0.068258084 -0.0067919814 0.10378781 0.031936217 0.051035196 -0.03643508

MLP.10.bias f4 [32]
00000000: 3113 7bbc c8dd b23d 4c53 603c 2341 c53c
00000010: 7185 1dbe 827e a8bc cc79 0dbe 1680 e7bb
00000020: 13f4 04be eb03 ecbd 0182 00bd b880 cc38
00000030: cf5e 313d 60dc ef3d 6945 19bd 9ad9 4bbc
00000040: 157a 323d 3182 f7bb f540 253d 1d67 fbbd
00000050: d5f7 fa3d 4a3a 193d 8988 1fbd c0af e8bc
00000060: c13a 2e3d 24d7 ffbc 62bb 49bc 799e 163e
00000070: d971 0cbe 4a6e 1e3e 9d0a f3bd 064a 313d
-0.0153244 0.08733708 0.0136917345 0.024078911 -0.15382935 -0.020568136 -0.13815993 -0.0070648296
-0.12983732 -0.11524185 -0.03137398 9.751454e-05 0.043303307 0.11711955 -0.03741971 -0.012442017
0.043573458 -0.007553362 0.04034515 -0.12275527 0.122543015 0.037409104 -0.03894857 -0.028404117
0.0425365 -0.031230517 -0.012312742 0.1470889 -0.13715304 0.1547176 -0.11867259 0.043283485

MLP.11.weight f4 [32]
00000000: 405c 653f 78bc 693f 2297 5f3f 1243 583f
00000010: 83ce 663f 6d78 593f 6383 493f e19d 383f
00000020: 4760 383f 108f 563f 96dc 6b3f e2e6 2a3f
00000030: 6d24 213f 3a7a 493f e126 583f a5ad 583f
00000040: a66b 5a3f aafa 673f d5fc 4a3f f1a0 603f
00000050: c011 6c3f beaa 1f3f d443 693f b2fc 5d3f
00000060: 7801 5b3f bf2f 543f 26a0 3e3f 28db 5e3f
00000070: 99c6 283f 6401 693f 3bc4 573f d181 5a3f
0.8959389 0.91303205 0.87339985 0.8447734 0.9015886 0.8494938 0.78716105 0.72115904
0.7202191 0.83812046 0.9213346 0.6675855 0.62946206 0.7870213 0.84434325 0.8463996
0.8532051 0.9061686 0.7929204 0.8774558 0.92214584 0.62369907 0.9111912 0.8671371
0.85549116 0.82885355 0.7446312 0.87053156 0.65928036 0.91017747 0.842838 0.85354334

MLP.11.bias f4 [32]
00000000: 2a54 54ba 6bb9 903a 5317 f2bb 8142 f1ba
00000010: 0d2b 123c aee7 19bc 0a6c 823b 827e 823b
00000020: 42eb 413c ab25 3e3c df7e f6bb 68a1 e33a
00000030: 3b2d 333b 47ab 143c 5633 81bc 5d42 a13b
00000040: 66f5 8e3b 5d8d d0b9 e697 46bb caca 3b3a
00000050: fb2a 023a 0492 83bb 4fde b13c 158c 893b
00000060: 0aca f438 eeeb 473b 5cf4 1438 7f65 a3bb
00000070: 0e34 053c 9e97 2b3c ba9a d23c 06b2 9d3a
-0.00080996996 0.0011041587 -0.0073880344 -0.001840666 0.008921397 -0.009393616 0.0039801644 0.003982366
0.011835875 0.01160566 -0.0075224484 0.0017366828 0.0027340192 0.009074039 -0.01577155 0.004921241
0.00436275 -0.00039778175 -0.003030294 0.0007163702 0.0004965511 -0.004015209 0.02171245 0.0041976073
0.000116724594 0.0030505615 3.5513527e-05 -0.0049864645 0.008130087 0.01047316 0.025708545 0.0012031205

MLP.13.weight f4 [4, 32]
00000000: 3508 de3d 3b58 fdbd 5b7d 0dbd 17b1 0dbd
00000010: 04cc b1bd 55fb 9d3d 5430 c2bd 4b16 cabd
00000020: 5886 93bd 7fd6 1fbe 0805 063e 6c47 d03d
00000030: db55 723d 33f9 f23c 6ba7 043e a5a3 d5bc
00000040: f065 033e f2dc 70bd 8ef8 553d e184 11bd
00000050: bb92 133b 9664 b03d eee4 8cbc 9c6a 12be
00000060: d229 41bd 53ae 01bd 8ea0 4fbd efa4 d53d
00000070: c730 53bd 7d3e a3bd 170e 24bd 84f8 a53d
00000080: 9531 cfbd 4512 84bd 4622 a0bd 5038 36bc
00000090: 413b 66bd cf4d 033e e3f1 78bd de69 de3b
000000a0: d239 66bd 0382 8ebd e6e2 a73b cc10 4f3b
000000b0: bf83 cb3b 2321 143d 3b9f 57bd cfbe 53bd
000000c0: 3da0 db3d c2b2 a03d 8c62 d73c 19aa 113e
000000d0: b824 f2bb b3bf ce3b 4317 eabc 91c1 2d3d
000000e0: 7dc9 e7bc 7273 573d cfa0 1abd 1751 d3bd
000000f0: 9413 903c b42f 79bd ad76 67bd 8256 f9bc
00000100: b416 9a3d 6545 013e dcea 9d3d 6e6f a4bd
00000110: bb82 ae3d ca23 893d 6e96 09bd d689 4bbd
00000120: b583 b6bb 6356 5d3a 8f50 edbd eae0 d13c
00000130: 9c56 c8bd 7d54 98bd 1a66 593d 592f 873d
00000140: 90db 10bc c6a9 e93d 70d9 803d 881f f5bd
00000150: 2857 053e 337e 3f3c 6079 01be fc85 ec3d
00000160: 7ae9 ba3d 6624 fdbc 0995 923c c337 823d
00000170: aaac acbc 9b08 fb3d a60a bcbd f56b b7bd
00000180: 81f5 3abd c414 e3bc 6b85 073c ce33 b13c
00000190: 0277 1fbc 1586 0cbd b563 d3ba e0d1 b83c
000001a0: 193c 46bc fdb8 89bd e5f8 78bc d5f2 543c
000001b0: 74b9 08bd f027 e93b 0c35 eebb 27a9 adbc
000001c0: 8c89 8bbb e488 573c f130 0bbd 3dd9 ffbb
000001d0: 775f e23b 8ee5 3b3d c695 ac3c 7859 093d
000001e0: b405 3b3d 1cdf 91bd f1c9 9d3d f1e5 d6bb
000001f0: eef1 973d f296 c53a 7435 53bd ba34 3d3d
0.10841409 -0.12370344 -0.034543376 -0.034592714 -0.08681491 0.077139534 -0.09481874 -0.09867533
-0.072033584 -0.15609168 0.13087857 0.10169873 0.05916391 0.029659843 0.1295449 -0.026079008
0.12831855 -0.05880446 0.052238993 -0.035527114 0.0022517878 0.08612935 -0.017199006 -0.14298481
-0.047159024 -0.03166039 -0.050690226 0.10431849 -0.05156019 -0.07970903 -0.0400525 0.08104041
-0.10116879 -0.06448797 -0.07819037 -0.011121824 -0.056208853 0.1282265 -0.060777556 0.0067875227
-0.056207485 -0.069583915 0.005123484 0.0031595705 0.0062107737 0.036164414 -0.05264209 -0.05169564
0.107239224 0.07846595 0.026292108 0.14225043 -0.007389631 0.0063094734 -0.028575545 0.042420927
-0.02829432 0.05260033 -0.037751015 -0.10318201 0.01758746 -0.06083651 -0.056509662 -0.030436758
0.075238615 0.12624128 0.077108115 -0.08029066 0.085210286 0.06696279 -0.033590727 -0.049691997
-0.0055699 0.00084433536 -0.11587631 0.025619943 -0.097821444 -0.0743799 0.053075887 0.06600828
-0.00884141 0.11409335 0.06291473 -0.11968905 0.13021529 0.011687803 -0.12643957 0.11548993
0.09126563 -0.030901145 0.017893331 0.06358292 -0.021078426 0.12257501 -0.091817185 -0.08956138
-0.045644287 -0.027719863 0.008271555 0.021631148 -0.0097329635 -0.034307558 -0.0016127737 0.022561014
-0.012099289 -0.06724737 -0.01519606 0.012997349 -0.033379987 0.0071153566 -0.0072695073 -0.021198822
-0.00425834 0.013155196 -0.03398222 -0.0078078792 0.006908353 0.045873217 0.021067511 0.03353259
0.045659736 -0.07122633 0.07704533 -0.006558173 0.07419191 0.0015074892 -0.05156465 0.046192862

MLP.13.bias f4 [4]
00000000: 3472 5ebd 6914 b53d 8763 27be c806 ce3a
-0.05430813 0.088417836 -0.1634656 0.0015718574
