example/model/polygon_robot/model_0.pth (torch, 24032 bytes, 18 tensors)

MLP.0.weight f4 [32, 2]
000000 95 7b b1 3e a7 20 66 be 78 df dd 3d 98 e8 1a bf
       0.34664598 -0.22473393 0.10833639 -0.6051116
000010 e9 06 30 bf 77 2f 0c 3f df c8 fb be 76 2d ba 3e
       -0.68760544 0.54759926 -0.4917669 0.3636281
000020 e4 14 b1 3e 4c 61 d7 be 23 cb 28 bf 84 fd f2 be
       0.3458625 -0.4206642 -0.6593496 -0.47459042
000030 0e 32 77 be f2 d2 df be 1b 5c 25 3f 5c 9a fe be
       -0.24140188 -0.43715626 0.64593667 -0.49727142
000040 ec b7 bd 3e b9 72 2f be 7b 39 10 bd fb c0 25 bf
       0.37054384 -0.17133607 -0.035211068 -0.6474759
000050 4b 7c f8 3e 52 25 c6 3e 84 58 0a 3f 13 e2 97 bd
       0.48532328 0.38700348 0.54041314 -0.07416167
000060 ac 76 cf be 5c 73 f5 3d ca 98 7d 3d e7 00 ed be
       -0.40520227 0.11984894 0.06191329 -0.4628975
000070 a3 b2 ce 3e 2e 28 7c be e0 86 1c 3f ab 63 cd 3e
       0.40370664 -0.24624702 0.611433 0.40115103
000080 0d cd 24 bf c2 64 16 bf 31 71 bd 3e 4c 63 25 bf
       -0.6437538 -0.58747494 0.3700042 -0.6460464
000090 70 6e f4 3e bd 54 18 bf 50 2e dd bc 66 e6 da bd
       0.47740507 -0.595043 -0.026999623 -0.10688476
0000a0 33 3e 07 bd 80 65 90 3e 91 9b cf 3e 50 8c 1a 3d
       -0.033018302 0.28202438 0.40548375 0.03773147
0000b0 47 14 4b 3e 6b 23 58 3e 35 cd c1 3d 96 93 98 3e
       0.19831954 0.21107261 0.09462968 0.298001
0000c0 cf dd 18 3e df 5f 01 3f 5d 66 d3 bd 85 9d a2 3e
       0.14928363 0.5053691 -0.103222586 0.31760803
0000d0 2f ea 11 bd 1a 98 24 bf 9d da e6 3c a8 a6 34 bd
       -0.035623726 -0.6429459 0.028180415 -0.04410425
0000e0 ae 60 34 be 09 d1 61 be 0b d8 0c 3e 7a 64 4a 3e
       -0.17615005 -0.22052397 0.13754289 0.19764891
0000f0 af d1 26 3f b8 0a f5 be eb ed 62 bd b1 83 9b 3d
       0.651637 -0.4785974 -0.055402678 0.075934775

MLP.0.bias f4 [32]
000000 78 c6 e3 3e 7b e8 2d 3f 48 32 9a bd db 42 e6 3d
       0.44487357 0.6793286 -0.07529122 0.112432204
000010 c0 18 e5 3e 52 3e 23 3f 99 82 13 3f 92 00 03 3f
       0.44745445 0.6376697 0.5762115 0.51172745
000020 fd ae cd 3e 9f 7e 7c 3e 61 fd 8b be 82 6e 97 be
       0.40172568 0.24657677 -0.2734175 -0.29576498
000030 f7 e8 2e 3f b7 20 bd be af c3 9c 3e 74 c8 e2 3e
       0.68324226 -0.36939022 0.30618045 0.4429356
000040 0d 4c cc bd 2b 3a 9f 3e 64 cb d3 be e1 87 a6 be
       -0.09975443 0.31099066 -0.41366112 -0.32525542
000050 5e 2e cd be 70 ed 09 3f 88 ff 03 3f bd e0 bc 3d
       -0.40074438 0.53877926 0.51561785 0.09222553
000060 55 d5 20 3f 9a 88 1a bf e7 67 44 3e 08 6a ec 3e
       0.6282552 -0.6036469 0.1918026 0.46174645
000070 e4 1f 81 be ef bd a5 be 04 96 03 3f c3 5c 7e be
       -0.25219643 -0.3237147 0.5140078 -0.24840073

MLP.1.weight f4 [32]
000000 c2 ca 80 3f 79 6d 80 3f fd 77 7f 3f 2d 9a 7f 3f
       1.0061877 1.0033408 0.9979246 0.9984463
000010 30 4d 7f 3f 7a 9d 7f 3f 28 07 80 3f cf 76 7f 3f
       0.99727154 0.99849665 1.0002184 0.9979066
000020 d5 53 7f 3f a0 90 80 3f f2 7b 80 3f 8e 64 7f 3f
       0.9973729 1.0044136 1.0037825 0.9976281
000030 41 2e 80 3f 99 6d 80 3f 30 73 7e 3f 1e 78 80 3f
       1.0014116 1.0033447 0.9939451 1.0036657
000040 9e 29 80 3f cc 48 7f 3f 39 35 7f 3f 84 43 7f 3f
       1.00127 0.99720454 0.99690586 0.99712396
000050 a3 07 80 3f 03 7b 80 3f 81 56 80 3f cd 53 7f 3f
       1.000233 1.003754 1.0026399 0.99737245
000060 bb 81 7f 3f 0d 19 80 3f 32 80 80 3f 1f 63 7f 3f
       0.9980733 1.0007645 1.0039122 0.9976062
000070 3b 21 80 3f 8e 90 80 3f ac 5d 80 3f 9c 3b 80 3f
       1.0010141 1.0044115 1.0028586 1.0018191

MLP.1.bias f4 [32]
000000 0c 8b 61 3b 49 92 f1 bb 45 28 4d bb d0 e9 10 3b
       0.0034415154 -0.007372175 -0.003130452 0.002211202
000010 27 48 a7 3a a3 ac 98 3b 40 35 98 ba f2 39 e2 3a
       0.0012762592 0.004659252 -0.001161255 0.0017259701
000020 61 a9 99 3a be 2a e6 bb b7 37 ce ba 5b ff 68 3b
       0.0011723452 -0.0070241382 -0.0015733157 0.0035552594
000030 17 05 7e 3b 3c fe ae bb 87 49 e1 ba 17 a7 47 3b
       0.0038760358 -0.0053403657 -0.001718805 0.0030464584
000040 25 bc 11 3a 1b 53 06 ba 8f cb 43 bb d1 86 a8 3b
       0.0005559347 -0.0005124078 -0.002987597 0.0051430245
000050 1a 21 98 3b e2 88 0b bb 7c 68 90 3b d7 d6 78 bb
       0.004642618 -0.0021291305 0.0044069868 -0.0037969851
000060 6d a3 33 3b 25 4d 7f 3b a3 78 ac bb dd 0e 40 bb
       0.0027410642 0.0038955894 -0.0052634045 -0.0029305734
000070 99 0b ec b9 2e 78 7b 3b 27 74 31 3b 08 b0 2c 3b
       -0.0004502207 0.0038371193 0.0027077289 0.002635004

MLP.3.weight f4 [32, 32]
000000 48 04 70 bd 07 00 40 3d 96 37 a1 3c c2 c2 1e be
       -0.058597833 0.046875026 0.019679826 -0.15503982
000010 99 26 19 3c 55 12 f6 bd f0 b3 27 3e eb ec 69 bc
       0.009347581 -0.12015215 0.16377234 -0.014277677
000020 18 ad 16 3e 4e e5 1b 3e 53 f9 bb bb 29 d0 ad bd
       0.14714468 0.15224192 -0.005736509 -0.08486969
000030 2d 3f 05 3e e6 0e 73 bd e6 cd 0c be 54 cf cf 3c
       0.13012381 -0.05934038 -0.13750419 0.025367416
000040 8e 6d 98 bd 4b 20 77 bd 4d 24 ca bc 3b 0e a1 bd
       -0.07442771 -0.06033353 -0.024675513 -0.07864042
000050 f9 ca f1 3d 1f 5d 08 3e 21 0d 0f bd 36 69 13 bc
       0.11806292 0.13316773 -0.03492463 -0.008997252
000060 2b 3f 19 3e 13 dc f2 bd 2f da 1d 3e 9b 90 ec 3d
       0.14965503 -0.11858382 0.15415262 0.11551019
000070 73 0c ff bd 82 5f 8f bd f3 68 fa 3c 88 4e c4 3c
       -0.124535464 -0.070006385 0.030567622 0.023963228
000080 13 dc 3c 3d 7f 1a 66 3d cf 96 e0 bc fa 38 2b bd
       0.046108317 0.056177612 -0.027415661 -0.041802384
000090 3f 4d f4 bd 38 64 fd bd 00 2e 0b be 70 49 04 be
       -0.11928796 -0.12372631 -0.13591766 -0.12918639
0000a0 c3 05 e3 bc db 5c 50 bd 72 61 52 bd 60 a8 30 3d
       -0.027712708 -0.050869804 -0.051362462 0.043129325
0000b0 a5 c7 ac bc 98 ca dd bd a3 5f 00 3d 9d 51 06 bd
       -0.021091292 -0.10829657 0.031341206 -0.032792676
0000c0 7e 98 0f be ee c4 90 3d d7 16 cc 3c bb e3 4b bc
       -0.14023015 0.07068811 0.024913235 -0.012444432
0000d0 c8 1d 1e be 32 05 89 3d 8e c4 13 bd c2 e1 15 3e
       -0.15441048 0.06690444 -0.03607612 0.14636901
0000e0 bf 87 ad 3d af 3a 63 3d 19 c2 c0 bc da 9f cf 3d
       0.08473157 0.055475887 -0.023530053 0.10137911
0000f0 53 57 a6 3d b6 05 9a bd cb 52 2f be 5e 8e 02 3e
       0.081221245 -0.075206205 -0.17121427 0.12749621
000100 ae 1e 92 3d 8d 73 a7 bc 14 72 30 bd 52 78 22 bc
       0.07134758 -0.020440841 -0.043077543 -0.009916382
000110 0c 67 b1 3d 9a e5 18 3e f2 82 26 be c8 6f 34 3d
       0.08662233 0.14931336 -0.16260889 0.044051915
000120 ca f6 b7 bd d3 d4 01 be f7 e0 16 3e 24 31 50 3c
       -0.08982618 -0.12678842 0.14734255 0.012707029
000130 eb 7e 0c bd 3f e5 b9 bd 5f e9 a1 bd 7a 8d a4 bd
       -0.034300726 -0.09076928 -0.0790584 -0.08034797
000140 ed 96 48 3d 06 af d4 bc 5f 49 0f 3d a9 55 df 3d
       0.04897206 -0.025962364 0.03498208 0.1090501
000150 33 34 27 be c7 aa 2b 3d 58 8b 14 be 15 ca af 3d
       -0.16328506 0.041910913 -0.1450628 0.08583466
000160 2a 9f 8a bb df 31 03 be e6 17 0a 3e d7 13 9b 3c
       -0.0042303996 -0.12811993 0.13485679 0.018930359
000170 31 1d 7f 3d ed e9 06 be 3e 63 bc bd 76 16 a5 bd
       0.0622837 -0.13175173 -0.091986164 -0.08060925
000180 17 f1 2e 3e 0d 6e 93 3c 6f d3 ff 3d 3e 50 24 be
       0.17084156 0.017996812 0.124915 -0.16046235
000190 7f 19 45 bc c6 5b fa 3d 90 c0 b3 3c 67 52 a8 bc
       -0.0120300045 0.12224536 0.021942407 -0.020547105
0001a0 2a d0 0b be a4 2d bd 3d 03 6b ac bc 25 51 26 3e
       -0.13653627 0.09237221 -0.02104712 0.16241892
0001b0 80 a6 fe 3d a6 1e 2f be 4f a2 8a 3d fc 93 34 be
       0.12434101 -0.17101535 0.06769239 -0.17634577
0001c0 54 74 ae bd be a5 9d 3b 9d d5 b1 3d ee 8c 84 bd
       -0.085182816 0.004811018 0.086833216 -0.06472193
0001d0 2c ed 26 be 64 3d 21 3e 8a 73 0d 3d 4f c1 17 3e
       -0.16301411 0.15746075 0.034534015 0.14819835
0001e0 a8 b3 47 3d a8 ad f3 3d a1 af 08 bd 1a 6a 24 be
       0.048755318 0.11898357 -0.033370618 -0.160561
0001f0 2d 47 8b bb a7 4a 97 3d 28 55 ff 3d a3 a3 e9 3d
       -0.004250428 0.07387286 0.12467414 0.11408164
000200 db 23 1f be 28 d9 ec bd f7 cc 2a 3a f7 13 5e 3d
       -0.15541022 -0.11564857 0.00065155275 0.05421826
000210 a4 2b 18 bd 20 6c c3 3c 35 89 0e 3e 27 1d c2 3d
       -0.037150994 0.023855269 0.13919528 0.094782166
000220 a5 cb 0e 3e 7f 21 2a bd 4d 50 26 be 42 ca 81 bd
       0.13944872 -0.04153585 -0.1624157 -0.06337406
000230 db 79 8e 3d 02 c3 15 3b 93 00 be 3d ae 13 a3 bd
       0.06956836 0.002285183 0.09277453 -0.07962738
000240 3d 73 f9 3c 70 f3 ea 3d f3 16 08 3e 28 13 6e 3d
       0.030450458 0.11472213 0.13290004 0.058123738
000250 bf 00 15 3e a1 e1 21 be 43 f2 ca 3d 15 fb c5 bc
       0.14551066 -0.15808727 0.09909489 -0.024167577
000260 8e 9c 1f 3e 87 4c a2 3d 0d 38 37 bd 66 92 8b 3d
       0.15587065 0.07924753 -0.04473119 0.06815033
000270 70 ca af bb 89 50 86 3d ab 5d 09 3d 91 dd 23 3d
       -0.0053647086 0.065583296 0.033536594 0.040006224
000280 8d e9 17 be 39 3b f3 3c f5 14 06 3e 78 c0 8e bd
       -0.14835186 0.029691326 0.13093932 -0.06970304
000290 cd c8 23 be e7 f4 50 3d b6 c6 6c bd 27 a2 08 bd
       -0.15994568 0.051014807 -0.057806693 -0.033357766
0002a0 80 46 aa bd 8f 68 44 bd 62 3c 02 3e 62 f5 76 3d
       -0.08314228 -0.047951277 0.12718347 0.06029261
0002b0 52 e2 60 bd bc 94 fa 3d 97 46 1e be 26 ac fe 3d
       -0.054903336 0.122354 -0.15456615 0.124351785
0002c0 e0 81 ce 3d 86 12 07 be 44 37 21 bb 62 1f bb 3c
       0.100833654 -0.1319066 -0.0024599591 0.022842113
0002d0 1b 29 33 be e1 b9 0e 3d a8 7b 75 3b 28 4c 19 be
       -0.17496149 0.034845237 0.0037457738 -0.14970458
0002e0 55 d8 2f be 5a 55 b9 3d a1 2f bb 3d 2a cc 0e 3e
       -0.17172368 0.09049483 0.09139944 0.1394507
0002f0 38 11 af bd c1 84 84 3d 1c ea ae 3d ce 52 72 3d
       -0.08548206 0.06470633 0.085407466 0.059161
000300 ad 70 26 3e f5 48 88 bc cc 3d 77 bd fb 39 f6 3d
       0.1625392 -0.016636351 -0.06036167 0.12022778
000310 55 5e 17 3e 2a 78 45 bc d8 e9 b0 ba f6 25 87 bd
       0.14782079 -0.012052575 -0.0013497425 -0.06599037
000320 95 d5 2e be f9 e7 98 3d 22 2e 6c bd 89 4b 14 3e
       -0.17073663 0.0746612 -0.057661183 0.1448194
000330 c4 c9 19 be 08 62 66 bd 96 70 ee 3d d1 f9 da 3d
       -0.15018374 -0.056245834 0.11642568 0.1069218
000340 6b 8d ed 3c 6f 8e f6 3d 7e fe 32 be f1 21 1e be
       0.028998097 0.12038886 -0.17479894 -0.15442635
000350 a0 9a 10 be 84 1c fa bd fc 04 1c 3e e5 1e f4 bd
       -0.14121485 -0.1221247 0.15236276 -0.11919955
000360 c1 0f c0 bd 10 a2 2a be a2 40 d2 3d ba c0 85 bc
       -0.09378005 -0.16663384 0.10266234 -0.01632725
000370 62 c0 ac 3d 5f b9 96 bd 29 ca d9 bd 36 81 32 3c
       0.084351316 -0.073595755 -0.10634262 0.010895064
000380 62 ad 9b 3d 96 5e 29 bc 4a 6c a5 3a d5 11 20 3e
       0.076014295 -0.010337492 0.0012620774 0.15631802
000390 49 c7 c8 3d 37 fb 19 3e 3b 74 05 3d 2b 51 15 3e
       0.098036356 0.15037237 0.03258155 0.14581744
0003a0 a2 47 e9 bd a4 9a e1 3c 55 cb 81 bd 5c b9 ee 3d
       -0.11390616 0.027539559 -0.06337611 0.11656448
0003b0 aa 2a 06 be f5 96 28 bd 34 91 10 bd 1f 33 18 3d
       -0.13102213 -0.04115959 -0.035294726 0.037158128
0003c0 4a d6 df bd 89 d4 95 bc 72 53 39 bd 77 21 7f 3d
       -0.10929544 -0.018289821 -0.045245595 0.062287774
0003d0 3a fb cc 3d 7d 88 d0 3c 54 23 1b be 49 cf 06 be
       0.10008855 0.025455708 -0.15150195 -0.1316501
0003e0 04 7f e2 3d c8 f9 84 bc 67 f2 5f bd 94 3f 93 3d
       0.110593826 -0.016232386 -0.054674532 0.07189861
0003f0 f9 4d 37 be 4e 58 ec 3d 60 e9 27 3d 6b 77 83 bd
       -0.17900838 0.1154028 0.040994048 -0.064192615

MLP.3.bias f4 [32]
000000 91 0b c9 3d 1a 34 b0 bd 71 61 bc bd 14 ea 5d bd
       0.09816659 -0.086036876 -0.09198273 -0.054178312
000010 7f fd 51 3d 57 33 ee bb 13 09 77 3d 3b 7c ed 3c
       0.051267143 -0.007269304 0.06031139 0.028989902
000020 12 65 f5 3d f2 4b 14 be b4 42 14 bd 67 92 47 3d
       0.11982168 -0.14482096 -0.036196426 0.048723605
000030 79 da c3 bc 3d af c6 bd 2d 24 e6 bd b3 61 12 be
       -0.023907887 -0.09701393 -0.11237369 -0.14295082
000040 77 4c 3a bd 62 db da 3c d7 f5 48 bd b7 cd 0e 3e
       -0.04548308 0.026715938 -0.049062576 0.13945661
000050 97 51 10 be fa 2b 07 be 85 01 1e 3e 92 1f 4e bc
       -0.14093624 -0.1320037 0.15430267 -0.012580769
000060 1e 5e 1c 3e 50 e0 da bd 98 f9 2b bd 8e 3b 58 3d
       0.15270278 -0.106873155 -0.041986078 0.05279117
000070 09 9d 58 bd 7c e7 54 3d 55 b9 03 be 56 77 0e 3e
       -0.052884135 0.051978573 -0.12863667 0.1391271

MLP.5.weight f4 [32, 32]
000000 16 50 ba bd 4f 83 a8 bd 36 f7 b3 3d 62 19 a6 bd
       -0.090973064 -0.0822817 0.08787386 -0.0811031
000010 fc a7 bb bd 75 e6 94 bd 4e 3e 1e 3e c9 10 14 be
       -0.091629 -0.07270519 0.15453455 -0.14459528
000020 d8 07 48 bd 78 85 2b be 89 55 14 be d9 ff d2 3d
       -0.048835605 -0.16750133 -0.14485754 0.10302705
000030 66 4c 9e bd 0b 79 dc 3c e3 56 8b 3d 04 70 21 be
       -0.077294156 0.026913187 0.06803682 -0.15765387
000040 11 a1 53 3c e6 e4 02 bd 56 5a 18 be 11 37 c0 3d
       0.012916819 -0.031956576 -0.1487821 0.09385503
000050 d5 52 aa bd 06 79 96 3d 34 a4 b8 3d d9 81 01 be
       -0.0831658 0.07347302 0.09015694 -0.12647189
000060 2d c1 07 be 80 41 62 bc fc 9b aa bb 3e 74 3e bd
       -0.13257284 -0.013809562 -0.005206583 -0.046497576
000070 a1 c9 8a 3d af 7a 8e bd 2b b4 c5 bd b2 a9 8b bd
       0.06776739 -0.06956994 -0.09653505 -0.06819476
000080 67 e2 e5 3d fe 8e ee bd 08 35 24 be 89 c8 a5 3c
       0.112248234 -0.11648367 -0.16035855 0.020237224
000090 78 8e cf bd 9a 9a 31 3e d7 2f f3 bd b6 e1 b6 3c
       -0.10134596 0.17344132 -0.11874359 0.022324424
0000a0 05 2f d8 3d d2 e2 38 3d e4 43 16 be 2a c3 35 3c
       0.10555843 0.045138188 -0.14674336 0.011093894
0000b0 d7 80 0e be dc c8 b5 3d cf b3 2b bc 14 56 57 3d
       -0.13916336 0.088762015 -0.010479881 0.052572325
0000c0 5d 03 bb 3d 41 f6 e3 3c 8c c1 82 3d 35 6a 2f be
       0.09131501 0.027827384 0.063845724 -0.17130359
0000d0 cd 11 c2 3d 61 7e 27 3e b7 0b 92 3d 8d 8d c4 bc
       0.094760515 0.16356803 0.07131141 -0.023993278
0000e0 56 d7 8d 3d 70 b5 91 3d da 5d 06 3e 0d 47 08 be
       0.06925838 0.071146846 0.13121739 -0.13308354
0000f0 fb 10 ee bd dc 12 16 3e cf e6 24 3e db ca 9e 3d
       -0.116243325 0.14655632 0.16103671 0.07753535
000100 00 36 6c bd 31 38 07 be 58 94 c9 3d c0 13 71 3d
       -0.057668686 -0.13205029 0.098427474 0.058856726
000110 87 4f 97 3d 91 05 31 be c3 8d a4 bd 91 f6 19 3d
       0.073882155 -0.1728728 -0.080348514 0.03758866
000120 c2 14 e0 3c e0 e2 92 3b b0 66 92 bd 54 b7 1d be
       0.027353648 0.004482612 -0.07148492 -0.15401965
000130 75 b1 88 bd ae 2c 20 be 8e f9 16 3d 54 cf dd bd
       -0.06674472 -0.15642044 0.036859088 -0.1083056
000140 04 9d c5 bd 2e 6f fb 3d 57 cb 90 3d 8e 4b 20 3e
       -0.09649089 0.12277065 0.07070034 0.15653822
000150 fd 29 6a bc 6b 3b ac bd 10 40 c5 3b 1e ec 51 bd
       -0.014292237 -0.084097706 0.0060195997 -0.05125057
000160 15 28 8a ba 35 2f 32 3e da 7d 18 be 4d 7a 7e 3d
       -0.001054051 0.1740082 -0.14891759 0.062128354
000170 a2 74 19 bd 6a b1 1f 3e be bd 14 3e e2 51 02 3e
       -0.037464745 0.15595022 0.14525506 0.12726548
000180 b6 a2 99 bd e1 ae 02 be 79 df 08 3e ce c6 c5 bc
       -0.07501738 -0.12762024 0.13366498 -0.024142649
000190 a5 5f 36 3e 95 15 2d 3e 77 77 a0 3d 02 12 51 bd
       0.17809923 0.16902764 0.07835286 -0.051042564
0001a0 8d a3 28 ba c1 91 87 3d c1 ca 0b 3c 99 28 95 3d
       -0.00064330624 0.06619597 0.008532227 0.07283134
0001b0 39 e6 ef 3d fc 79 ed 3d 8a e1 9e bc a6 01 33 bd
       0.11713833 0.11595532 -0.019394655 -0.043702744
0001c0 94 82 1d be e6 97 11 3e ff d8 a9 3b 22 49 f4 bd
       -0.15381843 0.14218101 0.0051833387 -0.119280115
0001d0 72 0c 96 3d b7 4d 00 3e 11 a1 29 3d 5e 04 1a bc
       0.073265925 0.12529646 0.04141337 -0.009400455
0001e0 bf 9f b0 bd 15 49 07 bd ff e3 63 bd d9 d0 a2 bd
       -0.08624219 -0.03302868 -0.055637356 -0.07949991
0001f0 ce b7 79 3d c6 a4 21 3e 45 80 82 3d c4 3e 76 3d
       0.060966305 0.15785512 0.06372122 0.06011845
000200 db 01 83 bc a4 56 11 3e 67 44 e0 bd 65 77 7f 3d
       -0.015992096 0.14193207 -0.10950547 0.062369723
000210 6e 4d 33 bb 16 17 bc bd d4 f7 c9 3d de 7a 90 bd
       -0.0027359384 -0.09184091 0.098617226 -0.07054685
000220 e9 98 98 3d e0 0c b6 3c 39 db 86 bd a3 d5 07 3e
       0.0745104 0.022222936 -0.06584782 0.1326509
000230 39 42 9b bd ee d5 82 bc 6b 33 17 3d 55 cf b9 bd
       -0.0758099 -0.01597115 0.03691427 -0.090727486
000240 26 9a 1b 3e 2d aa 79 3d 7a 64 18 bd 3a 5a b4 3d
       0.15195522 0.060953308 -0.037205197 0.08806272
000250 ea 4c 26 3e e9 7a 17 3e be e8 10 be 8e 56 3f bd
       0.16240278 0.1479298 -0.14151284 -0.046713404
000260 1e 50 78 bd 5c 56 9d 3c ca bb 89 3d 2f 0a 0e 3e
       -0.06062328 0.019206218 0.06725271 0.13871072
000270 e5 27 c0 bc 68 b2 71 bd 7d 2f 4c bd e8 d6 b8 3d
       -0.023456523 -0.059008032 -0.049849976 0.09025365
000280 ef 61 0f be ce 80 9c bd 1f f0 31 3e a1 3c 91 bd
       -0.14002202 -0.07641755 0.17376755 -0.07091642
000290 b2 74 0f be 8c 33 02 be 1b 87 73 bb 5c 89 a2 3c
       -0.1400936 -0.12714976 -0.0037159387 0.019840889
0002a0 98 c8 8d 3d c2 bc f5 bd 4f a1 22 be 8b db de 3d
       0.06923026 -0.11998893 -0.15881847 0.10881718
0002b0 8c 3e 4e 3d 98 bb ca bd 26 3e 92 3d 60 7b d0 bd
       0.050352618 -0.09899062 0.0714076 -0.10179782
0002c0 e1 34 00 bc ec a5 16 be c8 03 62 3d f6 69 c0 3c
       -0.007825107 -0.14711732 0.055179387 0.023488026
0002d0 e7 b7 03 be 92 58 f7 bc 5f 72 f5 3d ca 3b 15 3e
       -0.12863122 -0.0301936 0.11984705 0.14573589
0002e0 e3 c6 80 bc 69 2f 11 3d 19 c5 f1 bd 30 c8 b1 bd
       -0.015719837 0.035445604 -0.118051715 -0.08680761
0002f0 31 75 27 be 24 fb 41 3d 11 a6 ef 3d 7d 35 1b 3e
       -0.16353299 0.047358647 0.117015965 0.15157123
000300 b6 a9 bd 3d 48 86 96 3d 4d 7f 01 be ca f0 45 3d
       0.092608854 0.07349831 -0.12646218 0.048325337
000310 33 5e 84 3d 7a 2a 02 3b 42 8b 85 bc 43 29 02 be
       0.064632796 0.0019861744 -0.016301755 -0.12711053
000320 fd d1 fd 3d 7a 7b 85 3d 45 0f 04 3e 7e 98 5b 3d
       0.12393568 0.06517692 0.1289645 0.053612225
000330 39 c8 d2 3d 50 fa a0 3d 6c 32 32 bd 71 63 09 be
       0.10292096 0.07860243 -0.043505117 -0.1341684
000340 a9 ea 61 3d 15 5d a3 3d 00 37 2e 3e 50 e7 a8 bd
       0.05515543 0.07976738 0.17013168 -0.08247244
000350 a5 e7 b2 3d e6 69 e0 3d 2c cb 17 bd a0 e9 b6 3d
       0.08735589 0.109576985 -0.037058994 0.08931279
000360 01 47 ab 3d 77 93 5e 3c bb f2 ac 3d 13 41 84 bd
       0.08363152 0.013584963 0.08444735 -0.064577244
000370 43 7b 37 3e 58 74 f7 bd 2d d1 b2 bd 8b 47 29 3c
       0.17918114 -0.12082738 -0.08731303 0.010331999
000380 cb 8e 54 b9 15 7e 0d 3d 4e fe a4 bc c8 d1 f7 3d
       -0.0002027109 0.03454407 -0.020140793 0.121005595
000390 fb 83 32 be 22 c8 f9 bd e3 44 c2 bc de 95 b9 bd
       -0.17433159 -0.121963754 -0.023714488 -0.09061788
0003a0 b8 4e 33 bd 2f 2d 2c be 43 68 d3 bd 51 de d8 bc
       -0.043776244 -0.16814111 -0.10322621 -0.026473196
0003b0 2b 6f 47 bd 32 27 18 be dc 31 05 be b6 bd 58 3d
       -0.048690002 -0.14858702 -0.13007301 0.052915297
0003c0 98 43 08 3d 45 a1 df bd 40 23 0e be 83 3b d1 3d
       0.033267587 -0.109194316 -0.13880634 0.10216429
0003d0 65 68 38 bd 8b d4 58 bd e2 f1 75 bc ff a1 2f 3e
       -0.045021433 -0.05293707 -0.015011283 0.1715164
0003e0 4c 82 27 3e 2e ec 68 bd c9 2a 18 3d b9 fa 7a 3d
       0.16358298 -0.056865864 0.037150178 0.061274264
0003f0 18 cb 16 3e 33 14 1a 3e 43 81 b0 bd e6 f7 c6 3c
       0.14725912 0.15046768 -0.08618405 0.024288129

MLP.5.bias f4 [32]
000000 8a a1 f9 bd e1 fd 1e 3e 36 05 25 3e 50 7a 89 bd
       -0.12189014 0.15526535 0.16115269 -0.067127824
000010 0c f9 1d 3e d3 47 0e be ef 3b 6b 3d d7 8b 30 3d
       0.15427035 -0.13894586 0.057430204 0.04310211
000020 34 a0 7b bd 12 f7 03 be 73 ce 13 be 23 b7 b8 3d
       -0.06143208 -0.12887219 -0.14434223 0.090193056
000030 2e 44 36 be d2 fc 42 3c 6b 67 95 bd 1f b0 aa 3d
       -0.17799446 0.011901097 -0.07295116 0.08334374
000040 d6 f4 e5 3d 8b 86 03 bd 32 42 15 3e 8b 59 a0 bd
       0.112283394 -0.032110732 0.14576033 -0.07829579
000050 bd d6 31 3d f0 58 e3 3d 5a 85 b4 3c 00 c3 03 3e
       0.04341768 0.11100948 0.022036243 0.12867355
000060 fc 1c fd 3c 84 93 e5 3d be 64 ab bd 5c a4 ae 3d
       0.03089761 0.11209777 -0.083688244 0.08527443
000070 5d ff 2a be 03 28 9f bd ce cf e2 3b 4a 2b 82 3c
       -0.16698976 -0.077713035 0.006921745 0.015889782

MLP.6.weight f4 [32]
000000 01 70 7f 3f ff 99 80 3f da 5d 80 3f 71 51 7f 3f
       0.9978028 1.0046996 1.0028641 0.99733645
000010 55 60 7e 3f b7 6f 7e 3f 16 2d 7f 3f 97 7a 7f 3f
       0.9936574 0.99389213 0.9967817 0.9979643
000020 34 ed 7e 3f 69 85 80 3f 3c 2b 80 3f 96 4a 80 3f
       0.99580693 1.0040714 1.0013194 1.0022762
000030 48 58 80 3f a6 6f 7f 3f ef d3 7e 3f af b4 7f 3f
       1.0026941 0.99779737 0.99542135 0.99885076
000040 5b 83 80 3f 58 b9 80 3f 71 0d 81 3f f6 4d 7f 3f
       1.0040087 1.0056562 1.0082227 0.99728334
000050 e7 8c 80 3f 56 33 7f 3f 69 35 80 3f f2 74 7f 3f
       1.0043 0.9968771 1.00163 0.9978782
000060 6c b4 7e 3f 68 2e 80 3f f3 8a 80 3f de 47 80 3f
       0.9949405 1.0014162 1.0042404 1.0021932
000070 12 e4 7f 3f 0f c5 7f 3f c5 24 7f 3f 03 5f 7f 3f
       0.9995738 0.9991006 0.9966548 0.9975435

MLP.6.bias f4 [32]
000000 55 52 2f 3b a4 e1 87 3b 5a e9 18 3b 02 57 42 3b
       0.0026751955 0.0041467715 0.0023332448 0.0029653911
000010 11 57 d7 bb 54 98 42 3b 0b c7 08 bb 61 ef 4c bb
       -0.0065716584 0.0029692845 -0.0020870592 -0.003127061
000020 96 9d a1 ba d6 f1 fd 3a 46 4b 62 39 ea 1e 3c bb
       -0.001233029 0.0019374441 0.00021581081 -0.002870495
000030 6f a2 b4 ba 75 1a 51 3b 7d d0 b1 3b 4b fe 80 bb
       -0.0013781319 0.0031906639 0.005426465 -0.003936564
000040 fa 99 be bb 3a 59 2e bb 01 d4 15 ba e0 2c a4 3a
       -0.0058166953 -0.0026603476 -0.000571549 0.0012525581
000050 2f 50 b6 ba 30 27 10 bb 7c 8e 38 3b 3d 68 bb ba
       -0.0013909395 -0.0021996014 0.00281611 -0.0014298033
000060 0e 5a 31 3b 67 a8 97 bb b8 52 31 3b fd 6b 7a 3b
       0.0027061733 -0.0046282294 0.002705736 0.0038211339
000070 83 21 09 bb 33 20 a5 bb 75 fd 62 bb e2 4b c7 3a
       -0.0020924516 -0.005039239 -0.0034635935 0.001520511

MLP.8.weight f4 [32, 32]
000000 e3 18 d0 bd 2f 36 06 3e 30 0e 1e 3e 23 cd d0 3d
       -0.10160997 0.13106607 0.154351 0.10195377
000010 fd 25 da bb 36 fc fb bb 20 ef b0 ba 46 b7 0f 3d
       -0.0066573606 -0.007689978 -0.0013498999 0.035086893
000020 49 c4 0d be 73 fa 9b 3d 81 c8 81 3b 54 01 a7 3d
       -0.13844408 0.07616129 0.0039606695 0.0815455
000030 ea 93 18 be 13 03 98 3c 5f b9 ac 3d 98 e0 23 be
       -0.14900175 0.018556153 0.08433794 -0.16003644
000040 48 d5 2c be 63 f3 0f be 43 1f 23 3e 32 ca d3 bd
       -0.16878235 -0.14057688 0.15929894 -0.103413
000050 09 8b b0 bd 04 8e 43 bd 70 be 12 3e 3f 8e 1a 3e
       -0.08620269 -0.04774286 0.14330459 0.15093325
000060 3c 80 16 3e 69 50 20 be 3f 8b 1a 3e 09 ec d8 3d
       0.14697355 -0.15655674 0.1509218 0.10591895
000070 92 c8 92 bd eb a5 ff bd 62 81 88 3d 68 fb b6 bd
       -0.07167162 -0.12482818 0.06665303 -0.08934671
000080 53 05 9b 3a 16 47 22 bd 8e f1 1b be d3 72 96 3d
       0.0011827148 -0.039618574 -0.15228865 0.0734612
000090 8c 0b 9c 3d 48 c2 78 3d cf 1d f9 bd 4e 49 62 3d
       0.0761939 0.060732156 -0.12163889 0.05524569
0000a0 10 ca 8f ba 13 d6 b5 3d 8d c0 ce bd c9 fc d7 bc
       -0.0010970253 0.08878722 -0.1009532 -0.026365655
0000b0 cc 14 87 3c 2b 80 2d 3c 01 60 f1 bc 57 92 14 3e
       0.016489409 0.01058964 -0.029464724 0.14508949
0000c0 fc f8 23 be d5 21 1f 3e bb 42 54 bd 63 07 a0 3d
       -0.16012949 0.1554025 -0.05182145 0.07813909
0000d0 d6 28 10 3b 6e d3 24 3e 44 b9 7a bd 4e 0b aa 3d
       0.0021996996 0.16096279 -0.06121184 0.083029374
0000e0 dd 56 bd bd dd 52 e3 3d 4e bf fc 3d 18 e0 ee bd
       -0.092450835 0.11099789 0.12341176 -0.11663836
0000f0 76 fe d7 3d 14 a9 1f be 48 48 5e bd f8 6b 5b bd
       0.105465814 -0.15591842 -0.05426815 -0.053569764
000100 3d 40 b3 3d 20 c0 95 bc 94 87 31 3d a7 db 23 38
       0.08752487 -0.018280089 0.043342188 3.9066796e-05
000110 90 71 44 bd d4 04 f5 3d bf 3c 31 bc 31 54 0d 3e
       -0.047959864 0.119638115 -0.010817706 0.13801648
000120 0e e9 a7 bd 1c ec 42 3d 89 a9 09 3c d2 c9 a4 bd
       -0.081987485 0.047588453 0.008402237 -0.08046307
000130 43 34 a3 bb 81 9b d7 bd 85 e5 b5 bd 3b a2 24 3e
       -0.0049805953 -0.10527707 -0.08881668 0.16077511
000140 a6 55 87 3d c2 90 22 3e a3 ec e8 bd ba 50 30 3a
       0.06608133 0.15875533 -0.1137326 0.00067258964
000150 c1 de 03 3e d3 7d ad bc 1d b1 10 be d2 6e 7d bd
       0.12877943 -0.021178162 -0.14130063 -0.061873265
000160 d3 58 c9 bd 23 da 15 3e 6d 53 61 bd 74 e7 1c be
       -0.09831395 0.14633994 -0.0550112 -0.15322667
000170 aa 61 9b bc 50 91 c7 3d 7e 3a fb bb 82 74 50 bd
       -0.018967468 0.09744513 -0.007666885 -0.05089236
000180 cc 81 02 3e 98 6a ef bd 74 f9 2d 3d 13 b3 2a be
       0.12744826 -0.11690253 0.042474225 -0.16669874
000190 04 23 13 3e 4f 4f 31 3e bb f9 86 bc 62 d0 b2 bd
       0.14368826 0.1731541 -0.016476503 -0.08731152
0001a0 cd 28 12 3d 21 c8 26 bd 7f fe 03 be 54 9d c8 3c
       0.035683442 -0.0407182 -0.12890051 0.024489082
0001b0 00 03 f5 bd fe 65 d5 3d 01 a7 21 be a3 11 e0 bd
       -0.11963463 0.10419844 -0.15786363 -0.10940864
0001c0 e6 e2 57 3c bd 41 28 3e 65 46 03 be d9 d7 ab 3d
       0.013176655 0.16431327 -0.12819822 0.08390779
0001d0 68 d5 cf bd c6 e5 eb bd 4c 6d a9 3d 67 11 9d 3d
       -0.10148126 -0.11518435 0.082728 0.07669335
0001e0 11 08 32 3e 61 d2 ec ba 2f 33 2b 3e 06 01 91 ba
       0.1738589 -0.0018068069 0.16718744 -0.0011062927
0001f0 f0 10 a8 3d f7 e0 fe 3d e8 ac 07 3e a4 49 c5 3b
       0.082063556 0.124452524 0.13249552 0.0060207415
000200 b1 85 ba bd 33 15 f6 3c ed 86 ce 3d 55 5b 12 3e
       -0.09107531 0.030039405 0.10084329 0.14292653
000210 50 c4 31 3e 08 b9 77 bd 02 a2 c0 3d 42 c1 8e bb
       0.17360044 -0.060479194 0.094059005 -0.004356534
000220 e6 03 13 3e 0f e4 cb 3d 2e c0 2c be f5 4e 8e 3a
       0.14356956 0.09955608 -0.16870186 0.0010857271
000230 c7 e7 7c bd 8f f9 7a 3d e0 6c 90 bd 9f 59 8f 3d
       -0.061744478 0.061273154 -0.07052016 0.06999516
000240 b1 0e 75 bd 1f bd 31 be a6 47 08 3d 8c a3 2c 3d
       -0.059828464 -0.173573 0.033271454 0.042148158
000250 2d 7b 90 3d 3a a0 25 be dd 15 12 bd 36 53 ea bd
       0.07054744 -0.16174403 -0.03566538 -0.114416525
000260 f8 4a 29 bd fa ab 00 be d4 66 ae 3d 28 70 8e bd
       -0.04133126 -0.12565604 0.08515707 -0.06954986
000270 5f f8 4b bd 79 71 26 3e ae 00 07 3e 6c 1b 5c bd
       -0.049797412 0.16254224 0.13183853 -0.05373709
000280 94 af c0 bd ee 9a a5 bd a6 ba 8b bd 89 7e d0 bd
       -0.09408489 -0.08086191 -0.0682271 -0.10180385
000290 cc 29 0b be 9f 55 d6 3d e5 e9 84 3d 0e 4d b8 3c
       -0.13590163 0.1046555 0.06489924 0.02249768
0002a0 87 be 6d 3b 7f 6b 31 be 85 47 11 bd 7e 98 a4 3d
       0.0036276893 -0.17326163 -0.035468597 0.08036898
0002b0 9e 19 31 3e dc 2a 41 3d 29 6e 8c bd 21 89 aa bb
       0.17294928 0.047160015 -0.06856949 -0.0052043353
0002c0 99 7e ca bd 2b 15 23 be ee ef 0a be ab 88 25 be
       -0.09887428 -0.15926044 -0.13568088 -0.16165416
0002d0 42 af d7 bc b7 e7 94 bd 0a ce e9 3d 72 2f d7 3d
       -0.026328687 -0.072707586 0.11416252 0.10507096
0002e0 b6 02 7d bd f2 3b 42 3c b7 5e e7 3d c9 c6 1f 3e
       -0.061770163 0.011855112 0.11297362 0.15603174
0002f0 4f 25 a3 3d 5d 88 e2 bc cd d5 9e 3d f4 ff b0 3d
       0.079661004 -0.027652914 0.07755623 0.08642569
000300 b5 3b 48 bd a0 b2 f4 3d a6 c6 85 bc 13 47 27 bb
       -0.048885066 0.119481325 -0.016330075 -0.0025524541
000310 12 8f 13 3e 4f 76 c9 3d 7a d9 74 bd 31 a0 0c be
       0.14410046 0.09837019 -0.059777714 -0.13732983
000320 f9 83 50 bd b9 c8 7c bd e9 c9 1c 3e aa 96 1d 3d
       -0.05090711 -0.06171486 0.15311398 0.038473763
000330 e8 01 76 3c 08 23 25 bc d7 b7 11 3c 0f 61 1d be
       0.015015103 -0.010079153 0.0088939285 -0.15369056
000340 36 fb 19 3e 92 9f 98 3d c1 a7 ab 3b ee 7c 76 bc
       0.15037236 0.074523106 0.0052385037 -0.015044434
000350 ca a2 9f bd 2c 3b 7f 3d 37 50 b4 bd c5 43 e5 3d
       -0.077947214 0.06231229 -0.08804362 0.11194567
000360 90 5f f4 3c a2 d5 b1 bd 7e 7c ac 3d 48 1d 95 38
       0.029830724 -0.08683325 0.084221825 7.110328e-05
000370 14 5b e9 b1 06 79 23 3d ab 57 22 be 79 1b 1d 3e
       -6.791547e-09 0.03991034 -0.15853755 0.15342511
000380 f6 c0 77 3d f1 48 0c 3d 3b ce d5 3d f4 d5 53 3d
       0.060486756 0.03424925 0.10439726 0.051717713
000390 43 cc 21 be 95 08 14 be c3 82 bc bb b1 15 d0 3c
       -0.15800576 -0.14456399 -0.0057528927 0.025400968
0003a0 da 61 3f bd 36 dc 0e 3e f6 f7 d9 3d 00 d2 cb 3d
       -0.046724178 0.13951191 0.10642998 0.09952164
0003b0 b5 e9 13 3d a7 41 28 3e e8 7d 2b be fb 95 d2 3d
       0.036111552 0.16431294 -0.16747248 0.10282513
0003c0 2a ed ea bd 4a e9 88 bd 03 bc 27 3e 17 42 f1 bd
       -0.11471017 -0.06685121 0.16380315 -0.11780184
0003d0 4c 47 e9 3c 07 0a 1d be 3b e0 67 3d fd 59 04 3c
       0.02847638 -0.15335856 0.056610327 0.0080780955
0003e0 97 a0 04 3e c8 25 bc bb ae c7 1e 3e 32 be 00 be
       0.12951885 -0.0057418086 0.1550586 -0.12572554
0003f0 c6 5b fe 3d 34 d8 8c 3d 9c 2d 65 3d 86 63 89 3d
       0.12419848 0.06877175 0.0559517 0.06708436

MLP.8.bias f4 [32]
000000 34 0f 4d bd 58 2e 39 ba 90 54 24 3e 2e e4 e2 bd
       -0.050063327 -0.00070640957 0.16047883 -0.11078678
000010 19 1d 86 bd 53 12 bc bd 07 02 f9 bc 1d e8 fc 3d
       -0.06548519 -0.091831826 -0.030396475 0.123489596
000020 76 56 0e be 19 91 0e 3e 62 3d ff bd 1a 2b e0 bd
       -0.1390017 0.13922538 -0.1246288 -0.10945721
000030 ef 6e 89 3d 66 d4 e4 3c d3 6f ac bc ee 4c 15 be
       0.06710612 0.02793331 -0.021049416 -0.14580128
000040 45 a5 e3 bd 22 ae 55 bd 3b d0 f6 3d 16 a6 d9 3c
       -0.11115507 -0.05216802 0.120514356 0.026568454
000050 d2 8f c6 bd a9 73 0e be 51 52 9e bc 19 f3 00 3e
       -0.096954 -0.13911308 -0.01932636 0.12592734
000060 36 2c 13 bd 00 64 e9 bd 5d d2 29 3e 0a eb 6a 3d
       -0.035930835 -0.113960266 0.16584153 0.057353057
000070 40 8e 80 bc 5e 43 92 bd 7a 60 1f bd d7 b4 09 3b
       -0.01569283 -0.071417555 -0.038910367 0.002101233

MLP.10.weight f4 [32, 32]
000000 94 2f 38 bd 70 e3 3b bd 01 be f6 bc d5 a2 f9 3d
       -0.04496725 -0.0458712 -0.030119898 0.12189261
000010 c6 76 1f be 84 57 17 3e a3 c6 35 bc ce 1b 20 bd
       -0.15572652 0.14779478 -0.011094722 -0.039089017
000020 90 df 26 be 6e 00 16 be 00 f8 00 3e cf df 05 3e
       -0.1629622 -0.14648601 0.12594604 0.13073657
000030 b2 2a 13 be dc aa 05 3e 3d 5a 88 3d d6 8f 8b bd
       -0.14371756 0.13053459 0.066578366 -0.06814544
000040 aa 16 ee 3d a9 f1 4a bc 3a 3d bd 3c 92 c9 00 3d
       0.116254166 -0.012386718 0.023100484 0.031442232
000050 e9 b2 4b bc 68 d6 fa 3d b2 b2 cd 3a fe d7 91 3d
       -0.012432792 0.12247926 0.0015693514 0.07121275
000060 67 31 f5 bc d7 4f 00 3e 5d 0d 0a be 49 38 37 3e
       -0.029930783 0.12530456 -0.1348166 0.17892565
000070 ba ed 24 3e 3c 00 c7 3c 36 f5 1d 3d 79 3e 43 3d
       0.1610631 0.024292104 0.03856393 0.047667
000080 9f 4f 9f bd 2d 86 74 3d 06 58 d8 3d 6f 45 10 3e
       -0.077788584 0.059698272 0.10563664 0.14088987
000090 4f 24 d0 bd 63 40 2a bb a0 c6 a6 bc d7 98 2c bb
       -0.10163175 -0.002597832 -0.020358384 -0.0026336217
0000a0 3e 1f 50 3d e2 c8 ff bc a9 d2 a8 bb 77 81 02 be
       0.050811045 -0.031223718 -0.005152066 -0.127447
0000b0 61 c7 f3 bd 2b 37 93 bd 94 8e d0 bd dd 32 84 bd
       -0.11903263 -0.07188257 -0.101834446 -0.06455014
0000c0 9d f9 71 3b 38 49 2a 3d 88 3b f4 b9 7d 1a 1c be
       0.0036922463 0.041573733 -0.0004658366 -0.1524448
0000d0 cc 92 27 3e ba 90 0a 3e a3 d6 1a be af 8c 8f bd
       0.16364592 0.13531771 -0.1512094 -0.07009255
0000e0 2e a5 41 3d 6a 03 06 3e 37 79 b9 bd c4 36 c3 3d
       0.04727667 0.1308724 -0.09056323 0.0953193
0000f0 95 39 d0 3c eb 5b 71 3d 7c 73 bc bd b1 c3 08 3e
       0.025418082 0.05892555 -0.092017144 0.133559
000100 d0 14 27 3e 20 a2 04 bd bb e9 c4 3d a2 96 21 3b
       0.16316533 -0.032381177 0.09614893 0.0024656435
000110 56 44 0e 3e c1 65 fa 3d ab 4c 06 3e d1 f0 9b 3d
       0.13893256 0.12226439 0.13115184 0.076142915
000120 48 0a 81 3d db 53 8c 3d ab 81 19 be 71 e8 23 3e
       0.06300789 0.06851932 -0.1499087 0.16006638
000130 cd 89 84 3d 88 fc 0b be 1f 41 f9 3c df 08 ae 3d
       0.06471596 -0.13670552 0.03042656 0.08497786
000140 0f ed 29 3e 5c fb 16 3e 11 6c 3d 3d e4 5d 14 bd
       0.16594337 0.14744323 0.04624564 -0.036222354
000150 bc f8 88 3d 39 8b e7 bd a5 86 88 bd e0 6f 51 3d
       0.06688067 -0.113058515 -0.066663064 0.051132083
000160 79 c3 4d bd ca 23 80 3d 40 dc 59 3d a6 b0 84 3d
       -0.050235245 0.06256826 0.053188562 0.064790055
000170 32 28 32 bd ee 71 2b bc 75 a1 25 be 71 73 f7 3d
       -0.043495364 -0.010464175 -0.16174872 0.120825656
000180 c8 c7 9e 3d c7 56 a6 bc 74 90 af b9 f9 9f 67 3c
       0.07752949 -0.02030505 -0.00033486227 0.014137262
000190 7f bc 24 be b1 f1 22 be eb 89 a7 3d a4 ac e5 3d
       -0.1608753 -0.1591251 0.08180603 0.11214569
0001a0 b4 d0 74 bd ac bd 1a 3e e1 11 4b bc 48 3b c6 bd
       -0.059769347 0.15111417 -0.012394399 -0.09679276
0001b0 03 0a 26 3e 72 2e 60 bd 73 bc 53 3d 84 08 b9 3c
       0.16214757 -0.054731794 0.05169339 0.022587068
0001c0 c7 d6 f5 bd 60 04 8d 3d 42 db 0a be b2 d3 24 bd
       -0.12003856 0.068856 -0.13560203 -0.04024095
0001d0 af f6 31 3e 6d c6 84 bb f9 14 3b 3d 9e 96 1e 3d
       0.17379259 -0.0040519745 0.045674298 0.03871786
0001e0 1f 23 e6 3d 25 aa 57 3d 42 f7 79 bd 07 69 21 3e
       0.112371676 0.052652497 -0.06102682 0.15762721
0001f0 94 6b 30 bd f4 b8 c8 3d 36 91 a1 3d 1b 4b 00 be
       -0.043071344 0.09800902 0.07889025 -0.1252865
000200 4b 29 99 3d 34 71 c7 b8 01 c1 04 33 4a 08 1d 3e
       0.07478579 -9.510145e-05 3.090918e-08 0.15335193
000210 93 e3 18 be 10 6b 03 be 71 8a c8 bd c3 cb b6 3d
       -0.14930563 -0.1283381 -0.097920306 0.08925583
000220 73 30 82 bc 7f f6 2a 3e ea fe f0 3d db 12 cb ba
       -0.015892243 0.16695593 0.11767371 -0.001549329
000230 bc c2 37 3e a3 4c be bd 4e 7d a4 2e 15 30 87 3d
       0.17945379 -0.09291961 7.480115e-11 0.06600968
000240 b4 d0 45 bd ec 60 1d 3e 1c 9e de 3d 64 98 0e 3e
       -0.048294738 0.15369004 0.10870001 0.1392532
000250 b5 b1 ea bd 3c 31 52 3d 13 de df 3d b2 a3 3d 39
       -0.11459676 0.051316485 0.10931029 0.00018085426
000260 6f 77 11 3e 4a 53 a4 bd 18 34 4c bd b4 0c 80 3c
       0.14205717 -0.08023699 -0.049854368 0.015631057
000270 61 22 ce 3d e0 30 04 3e 5d a9 2e be 3a 00 22 3e
       0.10065151 0.1290927 -0.17056794 0.15820399
000280 48 87 27 3e 6f 59 fc 3d 15 6e 0a 3e 70 69 25 3e
       0.163602 0.123217456 0.13518555 0.16153502
000290 87 4d 00 be 41 6b 1b bd be 0d a1 3d 44 e0 b2 3d
       -0.12529574 -0.037944082 0.07863949 0.087341815
0002a0 09 3e 9e bd 48 79 a4 bd 6f 99 4e 3d ab 36 0a 3d
       -0.07726676 -0.08030945 0.050439294 0.03374354
0002b0 27 7d ab bd 68 8a 11 3e 3e d5 63 bd 95 22 d9 bb
       -0.0837348 0.14212954 -0.055623285 -0.006626437
0002c0 dc 39 02 be a8 9b 22 3e 1e 02 05 3d 3b 0d 09 3e
       -0.12717384 0.1587969 0.032472722 0.13383953
0002d0 ce c2 09 3e 7b 23 2e be aa 8a 0b be a4 71 62 bc
       0.13453218 -0.17005722 -0.13627115 -0.013821039
0002e0 ba 17 ac bd a8 d6 31 3d 5d ce ee 3b c6 2c 1f be
       -0.08402963 0.043417603 0.007287784 -0.15544423
0002f0 5d d2 87 3d b9 ff 24 be 83 43 8a 3c b8 d6 ee 3d
       0.066319205 -0.16113175 0.016877895 0.11662048
000300 00 6e 06 3e 51 6b a1 af 97 6d 9e 3d 57 69 fb bd
       0.13127899 -2.9361982e-10 0.07735746 -0.12275951
000310 00 14 f8 3c 30 f5 2f be d6 c9 08 3e 4a 23 0f 3e
       0.030282974 -0.17183375 0.13358244 0.13978305
000320 69 3e 34 bd 63 3c 31 bd 11 ed 9f bd 3b d6 1f 3e
       -0.04400483 -0.04327048 -0.07808889 0.15609066
000330 47 28 fa bc 3f 07 20 3e b2 33 01 3e 2e d9 95 3d
       -0.030536784 0.15627764 0.12617376 0.07316814
000340 b4 77 cd bd 9d 24 27 be ca e7 19 3e ac f1 e6 bd
       -0.10032597 -0.1632256 0.15029827 -0.11276564
000350 8e 78 0f be b8 12 0b 3e 1e 14 9e bd 27 05 dd 3d
       -0.14010832 0.1358136 -0.07718681 0.10791998
000360 fd df 09 bd a9 d3 11 be ba cf a7 3d bf 18 b6 3d
       -0.033660877 -0.14240898 0.081939176 0.08891439
000370 5d 4d 99 bd 36 9c b7 bd 53 40 9c bc 46 b0 c8 bd
       -0.07485459 -0.08965342 -0.01907364 -0.097992465
000380 b5 f1 04 3e 15 b8 b9 bd 4f 95 64 bd 3a 42 9f bc
       0.12982829 -0.09068314 -0.055806454 -0.019440759
000390 a3 4c 1e be 44 48 55 bd ad a7 1e be b2 b0 10 be
       -0.15458922 -0.05207087 -0.1549365 -0.14129904
0003a0 db 99 2b 3d a8 83 25 be 2f 28 0e 3e 27 6c fb bd
       0.041894775 -0.16163504 0.13882516 -0.12276488
0003b0 83 23 a8 bc 97 f8 98 3d 0b 04 34 bd e7 d6 9b 3d
       -0.020524746 0.0746929 -0.04394917 0.07609349
0003c0 ca f5 21 3e 36 1c 51 bd 31 a0 d2 bd b6 69 d2 bc
       0.15816417 -0.051052295 -0.1028446 -0.025685173
0003d0 a3 03 ab bd 98 47 1f 3e e2 40 32 be 9f 92 05 3e
       -0.08350303 0.15554655 -0.17407563 0.13044213
0003e0 e1 18 d7 3d 2f 98 c2 3d a4 67 ab 3d db 9e 17 3d
       0.10502792 0.09501683 0.08369377 0.03701673
0003f0 28 bf d4 3d ec 5a 53 3d 95 d1 28 3e 06 2a 00 bd
       0.10388023 0.05160038 0.16486199 -0.031290077

MLP.10.bias f4 [32]
000000 ae 22 2b bc 93 22 d2 3d 3a 8f 11 3d 6e 08 99 3c
       -0.01044528 0.10260501 0.035536982 0.018680777
000010 3c 6b 1d be 68 c8 2b bc 2c 32 1d be 89 c6 8e bc
       -0.15372938 -0.010484792 -0.1535117 -0.017428653
000020 f6 57 26 be cf ac 0a be 6b 9c 10 bd 28 a8 19 bc
       -0.16244492 -0.13542484 -0.03530542 -0.0093784705
000030 4f de 05 3d 63 b4 01 3e 10 1a b5 bc 4f 9b e0 bb
       0.032682713 0.12666468 -0.022107154 -0.0068544517
000040 6b ff 17 3d bc 66 23 3b b9 55 62 3d d3 a8 0e be
       0.03710882 0.002493306 0.055257533 -0.13931589
000050 e7 a0 12 3e 32 c8 19 3d 17 56 7c bd eb d7 b2 bc
       0.14319192 0.037544437 -0.06160554 -0.021831473
000060 9a 82 76 3d 13 5c 33 bd 0f d9 df bb 78 c0 31 3e
       0.060183145 -0.04378898 -0.0068312953 0.17358577
000070 a3 7b 27 be f2 df 20 3e 4a df 14 be 24 5a 2b 3d
       -0.16355757 0.15710428 -0.14538303 0.04183401

MLP.11.weight f4 [32]
000000 15 3f 7f 3f ca 53 7f 3f 70 29 80 3f 64 4e 80 3f
       0.9970563 0.99737227 1.0012646 1.0023923
000010 65 7d 80 3f d9 fe 7f 3f e8 ff 7f 3f 80 9c 80 3f
       1.0038267 0.9999824 0.99999857 1.004776
000020 ba 22 80 3f c7 aa 7f 3f 7b 77 80 3f 97 05 80 3f
       1.0010598 0.9986996 1.0036463 1.0001706
000030 91 41 7f 3f 3d 8a 7f 3f a1 55 7f 3f 7e 76 80 3f
       0.9970942 0.9982031 0.99740034 1.0036161
000040 6c 84 80 3f 9c a1 7f 3f fd 44 80 3f 46 55 80 3f
       1.0040412 0.9985597 1.0021054 1.0026023
000050 30 52 80 3f 79 91 7f 3f 56 60 7f 3f 28 6a 7f 3f
       1.0025082 0.9983135 0.9975637 0.99771357
000060 36 07 80 3f 9e 8e 80 3f 3e 19 80 3f f9 46 80 3f
       1.0002201 1.0043523 1.0007703 1.0021659
000070 2c 48 80 3f 90 43 80 3f 06 6c 80 3f 6e 6f 80 3f
       1.0022025 1.0020618 1.0032966 1.0034006

MLP.11.bias f4 [32]
000000 87 52 25 3b 31 15 87 3a d4 5b 57 3a 77 db 1d bb
       0.0025226192 0.0010305998 0.00082152826 -0.002408711
000010 09 32 d3 3a a9 cf 19 3b 6b 08 a0 ba 83 8b 1b bb
       0.0016112934 0.0023469722 -0.001220954 -0.0023734279
000020 69 ec 20 bb 3f 04 cb 3a bc e4 93 ba 36 ab 90 3a
       -0.0024554974 0.0015488936 -0.0011283378 0.0011037353
000030 e8 02 09 bb 5d 4d dc ba 60 57 31 3b 04 43 be 3a
       -0.0020906273 -0.0016807724 0.0027060136 0.0014515822
000040 05 c8 de ba 2d c8 40 3b f1 98 18 3b 99 b7 16 bb
       -0.0016996866 0.002941619 0.002328452 -0.0022997616
000050 76 0b 2a 3b 63 72 87 ba aa 82 f5 ba 9c 08 43 3b
       0.0025946773 -0.0010333773 -0.0018730958 0.002975977
000060 63 f4 17 3b 6e 81 04 bb 46 f3 01 3b 94 ea f9 3a
       0.0023186437 -0.0020218748 0.001982884 0.0019067102
000070 32 be fb ba e2 23 eb 3a 48 6d 69 bb b9 bc 2d bb
       -0.0019206463 0.0017939771 -0.0035618115 -0.0026510193

MLP.13.weight f4 [4, 32]
000000 12 53 f4 3d c7 f0 22 be 68 4c 13 bd e0 cd 0c bc
       0.11929907 -0.15912162 -0.03596154 -0.008594006
000010 97 94 c6 bd 27 2f d2 3d 6f c3 d1 bd 51 30 d8 bd
       -0.0969631 0.102629 -0.10242354 -0.105560906
000020 af 50 ba bd b5 e0 27 be e3 1e 00 3e 2a 80 cf 3d
       -0.090974204 -0.16394313 0.12511782 0.10131867
000030 86 9f 44 3d 0b 53 11 3d 67 b6 05 3e fe 3e 81 bd
       0.048003696 0.035479587 0.13057862 -0.06310843
000040 b8 27 08 3e d4 27 24 bd 0a 84 7e 3d b6 91 cb bb
       0.13296402 -0.040077046 0.06213764 -0.0062124385
000050 6d e1 c2 3b 5e 76 fd 3d f9 41 f2 bc 86 31 17 be
       0.005947283 0.123760924 -0.029572474 -0.14764985
000060 d1 74 e5 bc be 4a ab bc 21 d7 a5 bd b3 f0 dc 3d
       -0.028009804 -0.020909663 -0.08097673 0.10788097
000070 e0 03 77 bd 38 43 9f bd 99 b2 b5 bd c1 e6 81 3d
       -0.06030643 -0.07776493 -0.088719554 0.06342841
000080 fd 2d 0a be fa 05 f7 bd 11 e1 03 be 71 e5 17 3c
       -0.13494106 -0.12061687 -0.12878825 0.009271012
000090 a3 12 36 be 9e 23 11 3e 75 a6 e8 bd 55 5c 98 3b
       -0.17780547 0.14173743 -0.11359874 0.0046496787
0000a0 20 ec c1 bd 4f e9 be bd 3c 3e f2 3d 4e 92 d8 3d
       -0.094688654 -0.09321844 0.118282765 0.105747804
0000b0 df 71 15 bc 4f 80 51 3d 70 81 97 bd 7f 3f 2a be
       -0.009121387 0.051147755 -0.07397735 -0.16625784
0000c0 98 4f 30 3e 44 76 11 3e 30 c1 24 3c 8f c5 21 3e
       0.17217863 0.14205271 0.010055825 0.15798019
0000d0 ce 6d 94 bc 3a 64 01 3e bf 5a 49 bd ed 62 ba 3d
       -0.018118765 0.1263589 -0.049158808 0.091009
0000e0 e3 51 4e bd 0b 32 7a 3d 58 1f b1 bd 7b 7f 31 be
       -0.050371062 0.06108288 -0.086485565 -0.17333786
0000f0 b8 10 d7 3d dd 14 e2 bd 80 f8 60 bd 28 8d 1d bc
       0.10501236 -0.110391356 -0.054924488 -0.009616174
000100 4a 49 a9 3d 86 d8 13 3e 2a 7f 9f 3d 08 a3 af bd
       0.08265932 0.14438066 0.077879265 -0.085760176
000110 b9 96 a9 3d 38 a4 c7 3d 25 2f 66 bd 14 bf d9 bd
       0.08280701 0.09748119 -0.056197304 -0.106321484
000120 12 58 c7 bb 00 fd da 3a a9 d5 fc bd 3a 85 68 3d
       -0.006083497 0.001670748 -0.1234544 0.05676768
000130 74 8b d7 bd 66 71 93 bd 94 d1 7e 3d 18 a7 8c 3d
       -0.105246454 -0.071993634 0.062211588 0.06867808
000140 f3 51 f1 bb c6 a3 f8 3d 47 68 b5 3d 10 37 16 be
       -0.0073645054 0.12140612 0.0885778 -0.14669442
000150 cb 29 0c 3e 8e 8c 02 3d a3 6c 12 be 96 71 fc 3d
       0.13687818 0.031872325 -0.14299254 0.12326352
000160 3a 66 ed 3d 52 b6 44 bc 1c 46 de 3c df eb 78 3d
       0.11591764 -0.012006359 0.02713304 0.06077182
000170 18 b4 06 bd 2e 5d 03 3e 8b 52 bd bd ae d7 d1 bd
       -0.032886595 0.12828514 -0.092442594 -0.10246216
000180 ae 27 c8 3d 4a 15 75 3a 43 c7 b7 3d e0 94 9b bd
       0.09773193 0.00093491806 0.08973553 -0.07596755
000190 20 95 bf 3d d4 df b2 bd 61 bc 0b 3e e8 cd e7 bd
       0.09354615 -0.08734098 0.1364608 -0.113185704
0001a0 ed 94 0e be 59 56 a2 3d 0c 99 2f bd 30 19 f2 bd
       -0.13923998 0.07926626 -0.042870566 -0.118212104
0001b0 1d 28 8a bc 88 9d a6 2e a9 e1 6c bd 08 0b 99 3d
       -0.01686483 7.576789e-11 -0.057832394 0.07472807
0001c0 16 78 11 bc a9 53 5b bb a3 6f e4 bd 77 cd 33 38
       -0.008878728 -0.0033466613 -0.111541055 4.286828e-05
0001d0 bd 71 c5 3b 87 b2 97 2f fc f3 11 bd 39 c7 21 be
       0.0060255216 2.759359e-10 -0.035633072 -0.15798654
0001e0 23 66 e1 2e 6d 45 8f bd 5d e6 fa bd 28 a3 76 bd
       1.02499585e-10 -0.06995664 -0.122509696 -0.06021419
0001f0 27 4b 06 3d 97 c9 cc bd fa eb 13 3e cc 9b 9b 3d
       0.032786515 -0.09999388 0.14445487 0.07598075

MLP.13.bias f4 [4]
000000 3c b3 3e bd cf 01 08 3e 14 4a 23 be 48 cd 0c be
       -0.04655765 0.1328194 -0.15946227 -0.13750184
