example/model/polygon_robot/model_3000.pth (torch, 24610 bytes, 18 tensors)

MLP.0.weight f4 [32, 2]
0	0x3eaad488	0.33365273
1	0xbe5cd62b	-0.21566074
2	0x3ddfe6cb	0.10932692
3	0xbef84512	-0.48490196
4	0xbf1cc9bd	-0.6124533
5	0x3ecd7771	0.4013019
6	0xbedf8f05	-0.43663803
7	0x3ebbcd52	0.36680084
8	0x3e8e77cc	0.27825773
9	0xbeb1fc34	-0.34762728
10	0xbf125f4b	-0.57176656
11	0xbed52909	-0.4163287
12	0xbe52acb3	-0.20573692
13	0xbeb5cafc	-0.35506427
14	0x3ef23ccd	0.47312012
15	0xbec7afed	-0.39001408
16	0x3e8f3976	0.27973527
17	0xbe2b4c7b	-0.16728394
18	0xbcbdd6dd	-0.023173744
19	0xbf057bbb	-0.5214192
20	0x3ebaeb68	0.36507726
21	0x3e8e7e1e	0.27830595
22	0x3f047ec6	0.5175594
23	0xbda58fe5	-0.08084086
24	0xbea19625	-0.31559864
25	0x3df53b10	0.11974156
26	0x3cdecb32	0.0271965
27	0xbed7740c	-0.42080724
28	0x3eb60ede	0.35558218
29	0xbe75db4d	-0.24009438
30	0x3f073ad5	0.52824146
31	0x3ede3c6b	0.4340547
32	0xbf18894d	-0.59584504
33	0xbed767b7	-0.42071316
34	0x3ea9ad23	0.33139905
35	0xbf14ae04	-0.58078027
36	0x3ed158b0	0.40887976
37	0xbf01e645	-0.5074199
38	0xbc211592	-0.009831803
39	0xbdd20cfd	-0.102563836
40	0xbcfd2234	-0.030900098
41	0x3e8c602c	0.27417123
42	0x3ebdc34e	0.37063068
43	0x3d11a249	0.035555158
44	0x3e54bc33	0.20774917
45	0x3e2e5954	0.17026263
46	0x3da903cb	0.082526766
47	0x3e6a25ce	0.22865984
48	0x3e007389	0.12544073
49	0x3ea7f844	0.328066
50	0xbdd48924	-0.1037772
51	0x3e8316bd	0.25603285
52	0xbd190f5b	-0.03736816
53	0xbf080ab7	-0.5314135
54	0xbbf236e4	-0.0073917974
55	0xbd862525	-0.065500535
56	0xbe283b5c	-0.16428894
57	0xbe45c5be	-0.19313714
58	0x3e0f27a6	0.13979968
59	0x3e0b40cb	0.13598935
60	0x3f0cd322	0.55009663
61	0xbecb44f9	-0.3970106
62	0xbcc1a5b8	-0.023638591
63	0x3d7108a0	0.058846116

MLP.0.bias f4 [32]
0	0x3c00c44d	0.007859302
1	0x3f091ca2	0.53559315
2	0x3cb102e1	0.021607818
3	0x3e8571d2	0.260634
4	0x3eac2595	0.33622423
5	0x3e1ef470	0.15522933
6	0x3e455e74	0.19274312
7	0x3dd6c301	0.10486413
8	0x3ea1d1c0	0.3160534
9	0x3d884850	0.066544175
10	0xbe0351c9	-0.12824167
11	0xbdcfd90f	-0.101488225
12	0x3e435c38	0.19078147
13	0xbe5db85c	-0.21652359
14	0xba8c3042	-0.0010695534
15	0x3e5eafdf	0.21746777
16	0xbe4cbd55	-0.199941
17	0x3e21cb8d	0.15800305
18	0xbeab7e48	-0.33494782
19	0xbe710994	-0.2353881
20	0xbde3b553	-0.11118569
21	0x3ebacd58	0.3648479
22	0x3e5c16c0	0.21493053
23	0x3df20404	0.11817172
24	0x3ec0d82d	0.3766493
25	0xbed20cf4	-0.41025507
26	0x3e7917eb	0.2432553
27	0x3ec220da	0.3791569
28	0xbe46d4dd	-0.19417138
29	0xbea32752	-0.31865937
30	0xbd821f3a	-0.06353612
31	0xbeac67a9	-0.33672836

MLP.1.weight f4 [32]
0	0x3f374e4b	0.7160384
1	0x3f428635	0.75986034
2	0x3f0f673a	0.56016886
3	0x3f3d0a88	0.73844194
4	0x3f28f672	0.66001046
5	0x3f27a910	0.65492344
6	0x3f278a5d	0.654455
7	0x3f0d1f4e	0.5512589
8	0x3f290881	0.660286
9	0x3f2bc409	0.67096
10	0x3f179fa4	0.5922797
11	0x3f4d680f	0.80236906
12	0x3f29a80c	0.66272044
13	0x3f487fa6	0.78319776
14	0x3f27027b	0.6523816
15	0x3f47c9f4	0.7804253
16	0x3f22f9f9	0.6366268
17	0x3f319ca0	0.69379616
18	0x3f3a35a8	0.7273812
19	0x3f0dd447	0.55402035
20	0x3f540d3d	0.828327
21	0x3f3ae87b	0.7301099
22	0x3f3c425c	0.73538756
23	0x3f41ac43	0.75653476
24	0x3f37723d	0.7165869
25	0x3f52ee52	0.823949
26	0x3f3da4f2	0.7407981
27	0x3f212e0d	0.6296089
28	0x3f46c800	0.77648926
29	0x3f39c32f	0.7256345
30	0x3f2b418b	0.66896886
31	0x3f4dd1db	0.8039834

MLP.1.bias f4 [32]
0	0xba1e54d6	-0.0006039863
1	0xbc8853c4	-0.016641505
2	0xbd18f081	-0.037338737
3	0xb9342e64	-0.0001718342
4	0x3c2551ee	0.010090334
5	0x3d155352	0.036456414
6	0xbcb8b956	-0.022549313
7	0xbd8968dd	-0.06709454
8	0xbd3c95f2	-0.046041436
9	0xbb8ebdd6	-0.0043561263
10	0x3b9d9759	0.004809302
11	0x3cbbf550	0.022944123
12	0x3c4811f2	0.01221131
13	0xbc30994e	-0.010778738
14	0xbb8e1d73	-0.0043370067
15	0xbd0c0d9d	-0.03419267
16	0xbd8290ed	-0.06375299
17	0x3cd5a235	0.026078323
18	0xbc434155	-0.011917432
19	0xbc64f8a6	-0.013975298
20	0x3d4e8d5c	0.05042778
21	0x3a607385	0.00085621356
22	0x3d1c521f	0.038164254
23	0x3c7c36db	0.015393938
24	0x3d566194	0.05233915
25	0xbcd9aea5	-0.026572535
26	0x3c20a709	0.009805449
27	0x3b876318	0.004131686
28	0xbcdad290	-0.026711732
29	0x3c2480b4	0.010040451
30	0x3d450535	0.04810067
31	0xbca9aa81	-0.020711185

MLP.3.weight f4 [32, 32]
0	0xbd6aae90	-0.057295382
1	0x3d2f122a	0.042741932
2	0xbc2bb10e	-0.010479225
3	0xbe118e7c	-0.1421451
4	0x3cf17ffc	0.029479973
5	0xbda695a5	-0.08134011
6	0x3e16ec32	0.14738539
7	0x39042f68	0.00012606161
8	0x3deb47d0	0.114883065
9	0x3ddda4e2	0.108224645
10	0x395cfb65	0.00021074487
11	0xbdee6f2a	-0.116422966
12	0x3e148f13	0.14507703
13	0xbd997d6b	-0.07494625
14	0xbe06346f	-0.1310594
15	0x3d19c059	0.037536953
16	0xbd3941cd	-0.04522877
17	0xbcf00eb3	-0.029303884
18	0xbd570444	-0.052494302
19	0xbd516580	-0.05112219
20	0x3db2b08d	0.08725081
21	0x3dd85654	0.10563341
22	0xbc51b4e7	-0.012799478
23	0x3ba98392	0.005173155
24	0x3e207ed7	0.15673386
25	0xbe006a66	-0.12540588
26	0x3de06be4	0.109580785
27	0x3ddc0b92	0.10744394
28	0xbdc078da	-0.093980506
29	0xbd58a3e7	-0.052890684
30	0x3cfe6004	0.031051643
31	0x3c11393f	0.008863746
32	0x3ccb651b	0.024828484
33	0x3d2cae9e	0.042158715
34	0xbc8b623c	-0.017014615
35	0xbd9b4994	-0.07582393
36	0xbdacb68d	-0.08433256
37	0xbdc4bbb8	-0.09606117
38	0xbdd84278	-0.10559553
39	0xbdad78b5	-0.08470289
40	0xbd19345a	-0.037403442
41	0xbd24566b	-0.040121477
42	0xbd6004a2	-0.05469192
43	0x3d28fe51	0.04125816
44	0xbd516bef	-0.051128324
45	0xbdb2cfdb	-0.087310515
46	0x3cad1391	0.021127494
47	0xbcbef1c0	-0.023308635
48	0xbddfee91	-0.10934175
49	0x3dad090f	0.084489934
50	0x3d725692	0.05916459
51	0x3cdafe47	0.026732577
52	0xbe06f94f	-0.13181041
53	0x3d36e0e3	0.044648062
54	0xbd053885	-0.032524604
55	0x3de98124	0.11401585
56	0x3da82797	0.08210676
57	0x3d888b85	0.06667236
58	0xbc161f1d	-0.009162691
59	0xbb80a414	-0.0039258096
60	0x3da3675b	0.07978698
61	0xbd6c5ab5	-0.057703692
62	0xbdf1d795	-0.11808697
63	0x3dd1edd7	0.102504425
64	0x3d869130	0.06570661
65	0x3c037f29	0.008025923
66	0xbd07467a	-0.033026196
67	0xbb63fa77	-0.003478674
68	0x3da87044	0.08224538
69	0x3e032ac2	0.1280928
70	0xbda176b5	-0.0788397
71	0x3d3b4a97	0.04572543
72	0xbce1176d	-0.02747699
73	0xbdb2dcb2	-0.087335005
74	0x3d4d4b77	0.050120797
75	0x3c853ed9	0.01626532
76	0xbcf909da	-0.030400205
77	0xbddcd338	-0.10782474
78	0xbd5f2be1	-0.054485206
79	0xbdc7f4a4	-0.09763458
80	0x3c26f911	0.010191218
81	0xbd112a1f	-0.03544056
82	0x3c2c3907	0.010511643
83	0xbc254e2e	-0.01008944
84	0xbe13d930	-0.14438319
85	0x3d901cae	0.0703672
86	0xbdb9d2dd	-0.09073422
87	0x3d94e95a	0.07271071
88	0x3ca9bc40	0.020719647
89	0xbdeec52d	-0.11658702
90	0x3e10dc97	0.14146648
91	0x3da7e12d	0.08197246
92	0x3b335e66	0.0027369498
93	0xbe16d943	-0.14731316
94	0xbd9665db	-0.07343646
95	0xbdce3aa9	-0.10069782
96	0x3e2e73f1	0.17036416
97	0xbb2d97f8	-0.0026488286
98	0x3df31788	0.118697226
99	0xbe2a6dd6	-0.16643462
100	0xbcb16c1c	-0.021657996
101	0x3d94f8c9	0.072740145
102	0xbc0935c1	-0.008374632
103	0xbc60bee3	-0.013717386
104	0xbe009ee7	-0.12560616
105	0x3da8c58f	0.08240806
106	0xbc631649	-0.013860294
107	0x3e5a7948	0.21335328
108	0x3d90b93e	0.07066582
109	0xbe124263	-0.14283137
110	0x3db09f96	0.086241886
111	0xbe36134f	-0.17780803
112	0xbddc7367	-0.10764199
113	0x3c1eddf6	0.009696474
114	0x3de966c5	0.11396555
115	0xbb89286c	-0.004185727
116	0xbe137849	-0.14401354
117	0x3e16f55d	0.14742036
118	0x3ceb95d9	0.028757976
119	0x3e0d6d17	0.13811146
120	0x3d331c94	0.043728426
121	0x3e0c6a01	0.13712312
122	0xbd15a14d	-0.03653078
123	0xbe6463c3	-0.22303681
124	0x39dabdd9	0.00041721648
125	0x3dc91a0e	0.09819423
126	0x3e01e445	0.12684734
127	0x3e0f8445	0.140153
128	0xbe0e00b1	-0.13867451
129	0xbdddb49b	-0.108254634
130	0xbb4d5e36	-0.0031336672
131	0x3d3d880f	0.046272334
132	0xbd38d79b	-0.045127492
133	0xbc0022c5	-0.00782079
134	0x3dc911ab	0.09817823
135	0x3da64500	0.081186295
136	0x3da13955	0.07872263
137	0xbc9cee6e	-0.01915666
138	0xbe0253ca	-0.12727275
139	0xbd0deee4	-0.034651652
140	0x3d41e727	0.047339585
141	0x3c71fe63	0.014770123
142	0x3d9a5351	0.075354226
143	0xbdcbc2d8	-0.09949273
144	0x3d5b067b	0.053472977
145	0x3dc306f0	0.095228076
146	0x3def5f91	0.1168815
147	0x3dbf2f9e	0.09335254
148	0x3e0777fd	0.13229366
149	0xbe29c7e5	-0.1658016
150	0x3d5855a4	0.05281605
151	0xbd05726f	-0.032579836
152	0x3dfc17ca	0.12309225
153	0x3dac2039	0.084045835
154	0xbcda9dc8	-0.026686564
155	0xbcaf3d37	-0.021391494
156	0x3d682836	0.056678973
157	0x3d8edcf6	0.06975739
158	0x3ce0fa39	0.027463065
159	0x3d93095a	0.07179518
160	0xbe451d81	-0.19249536
161	0x3d25cd8c	0.040479228
162	0x3e21dcda	0.15806904
163	0xbcf390ff	-0.029732225
164	0xbe3caf47	-0.18426238
165	0x3d4c506b	0.04988138
166	0xbcf84745	-0.030307421
167	0xbd986a9a	-0.07442208
168	0xbe1b71bb	-0.15180103
169	0xbc73cf01	-0.014880897
170	0x3dbede4a	0.09319742
171	0x3c8a0c5e	0.0168516
172	0xbc18ff9a	-0.009338284
173	0x3e069089	0.13141073
174	0xbe46e75b	-0.19424193
175	0x3d6419d1	0.055688683
176	0x3e193ecf	0.14965366
177	0xbe11452a	-0.1418654
178	0xbd267e01	-0.04064751
179	0x3e1a6195	0.15076287
180	0xbe2b8eb1	-0.16753651
181	0xbd6d8339	-0.05798647
182	0xbd173d78	-0.036923856
183	0xbe1fb976	-0.15598091
184	0xbe36e478	-0.17860591
185	0x3dacd3cb	0.08438834
186	0x3de75972	0.11296357
187	0x3d9be43c	0.076118916
188	0x3ce1242d	0.02748307
189	0x3d5a0cc5	0.053234834
190	0x3d13e4db	0.036106925
191	0x3dc02297	0.093815975
192	0x3e00e7e0	0.12588453
193	0xbc80c79e	-0.015720185
194	0xbd53fc7e	-0.051754467
195	0x3dd616d3	0.10453572
196	0x3df21b51	0.118216164
197	0xbc2e0dfc	-0.010623451
198	0xbbdc1586	-0.006716433
199	0xbd779533	-0.06044502
200	0xbe0b6e0f	-0.13616203
201	0x3d18bdd7	0.03729042
202	0xbcde6da2	-0.027151886
203	0x3de74d87	0.11294084
204	0xbe01342d	-0.1261756
205	0xbd27e59d	-0.04099046
206	0x3db9323d	0.09042785
207	0x3dfc9f6d	0.123350956
208	0x3cf813e3	0.03028292
209	0x3deb5f75	0.11492816
210	0xbe01a6bd	-0.12661262
211	0xbd9ee17c	-0.077578515
212	0xbde42dc5	-0.11141542
213	0xbdd6f6f2	-0.1049632
214	0x3dee9781	0.11649991
215	0xbda2e3c0	-0.07953596
216	0xbd80ce08	-0.06289297
217	0xbe0bb692	-0.13643864
218	0x3d6d97d9	0.05800614
219	0xbc7f24ec	-0.015572768
220	0x3d9d8b0c	0.07692537
221	0xbd42d441	-0.047565702
222	0xbdceb265	-0.1009262
223	0x3c87f7d1	0.01659766
224	0x3cf8d54b	0.030375144
225	0xbd07e9ea	-0.033182062
226	0x3d57a6b1	0.052649204
227	0x3e575394	0.21027976
228	0x3ce3cc22	0.027807299
229	0x3e0f52b8	0.13996398
230	0x3ce5cb0e	0.028050926
231	0x3d97e92c	0.07417521
232	0xbddcca59	-0.10780782
233	0x3c8fc641	0.01755059
234	0xbd5aab08	-0.053385764
235	0x3d97f20e	0.07419215
236	0xbc52e78a	-0.012872586
237	0xbd1c5e0f	-0.03817564
238	0xbd7a9c49	-0.0611842
239	0x3d14fece	0.036375813
240	0xbdc701ef	-0.09717166
241	0xbd7f3633	-0.062307548
242	0xbdca4a9a	-0.0987751
243	0x3d3b5261	0.04573286
244	0x3dfbb3e9	0.122901745
245	0x3c6d704a	0.014492104
246	0xbe0a2f6b	-0.13494651
247	0xbdd3c9b8	-0.10341209
248	0x3dcb0689	0.09913356
249	0x3ce6ce13	0.028174436
250	0xbd74d1a4	-0.05977024
251	0x3d7a332e	0.061083965
252	0xbe1658a2	-0.14682248
253	0x3de9abc8	0.11409718
254	0xbc47a91f	-0.012186318
255	0x39a0526b	0.00030578984

MLP.3.bias f4 [32]
0	0x3dc2deeb	0.095151745
1	0xbdd44728	-0.103651345
2	0xbe14474f	-0.14480327
3	0xbcdfe3ec	-0.027330361
4	0x3c02ac07	0.007975585
5	0xbb84f869	-0.004057933
6	0x3c4c7d73	0.012481081
7	0x3c95fd2f	0.018309204
8	0x3dd6b593	0.10483851
9	0xbe047e37	-0.12938772
10	0xbd7640b8	-0.060120314
11	0xbaacd5f7	-0.0013186325
12	0xbcbe1f27	-0.023208214
13	0xbd558d96	-0.05213698
14	0xbdd535fc	-0.10410687
15	0xbe37fccd	-0.1796753
16	0xbd02ea6c	-0.031961843
17	0xbca8bc0b	-0.020597478
18	0xbd14fe9d	-0.03637563
19	0x3e17eff3	0.14837627
20	0xbde318fd	-0.110887505
21	0xbdcbaefb	-0.09945484
22	0x3e2f4dd6	0.17119536
23	0xbbd7f2fd	-0.0065902458
24	0x3dca1000	0.09866333
25	0xbd32210b	-0.043488543
26	0xbd47f2fa	-0.048815705
27	0x3d78319d	0.06059419
28	0xbd0e08b9	-0.034676287
29	0x3d03cc09	0.032177005
30	0xbe15da64	-0.1463409
31	0x3ddfde27	0.10931044

MLP.5.weight f4 [32, 32]
0	0x3c8cfd27	0.017210556
1	0xbcca8416	-0.024721187
2	0x3d9be7cb	0.076125704
3	0xbda45218	-0.08023471
4	0xbd510720	-0.051032186
5	0xbdc52d1a	-0.09627743
6	0x3e2003c9	0.15626444
7	0xbe131896	-0.14364848
8	0x3c0b09a5	0.008486186
9	0xbd0fa899	-0.035072897
10	0xbdcf98df	-0.1013658
11	0x3d240344	0.040042177
12	0xbd06fea7	-0.0329577
13	0x3b5fa5a3	0.0034125827
14	0x3d1ffa9d	0.039057363
15	0xbe04ace3	-0.12956576
16	0xbd2e24dc	-0.04251562
17	0x3b7858b5	0.003789467
18	0x3d892b71	0.06697739
19	0x3d8e4ab7	0.069478445
20	0xbd4827a9	-0.048865948
21	0x3d82b373	0.063818835
22	0x3dc23aa1	0.09483839
23	0xbdaca1b6	-0.084292814
24	0xbdc6d0f0	-0.097078204
25	0x3c081801	0.008306504
26	0x3c3c017c	0.011474963
27	0x3b49afe4	0.0030775005
28	0x3dccb5ef	0.099956386
29	0xbd51f13e	-0.051255457
30	0xbd31757e	-0.04332494
31	0xbce15295	-0.027505198
32	0xbc12024c	-0.00891168
33	0xbd6d09b1	-0.05787057
34	0xbc8642c4	-0.016389258
35	0xbb0387fb	-0.0020070064
36	0xbd7f277b	-0.06229351
37	0x3dfd1071	0.123566516
38	0xbdb6551f	-0.08902954
39	0x3c9aefbc	0.018913142
40	0x3d43708a	0.047714747
41	0xbbd6487a	-0.0065394016
42	0xbb6d18f3	-0.00361782
43	0xbaeab60a	-0.0017907035
44	0xbd51d6b9	-0.051230166
45	0x3d04565d	0.032308925
46	0xbba0147b	-0.004885254
47	0x3d06b96d	0.03289168
48	0x3d68688c	0.05674033
49	0x3c889ad6	0.016675394
50	0xbc42ce4d	-0.011890006
51	0xbe0f8615	-0.14015992
52	0x3cc94dff	0.024573324
53	0x3dc27ce2	0.09496476
54	0x3cd31e3d	0.025771255
55	0xbcd10451	-0.025514754
56	0x3d8d9100	0.06912422
57	0x3d97a64a	0.07404764
58	0x3d90f540	0.07078028
59	0xbd422bf1	-0.047405187
60	0xbd87455d	-0.06605027
61	0x3dcc4ecd	0.099759676
62	0x3dc9c16d	0.09851346
63	0x3cdd498d	0.02701261
64	0xbdd546f9	-0.104139276
65	0xbd7f664a	-0.06235341
66	0x3c34e1a3	0.011040124
67	0x3da227ca	0.079177454
68	0x3d3567a4	0.044288293
69	0xbe33988e	-0.17538664
70	0xbd946ba2	-0.07247092
71	0x3cec30a3	0.028831786
72	0x3c4d2359	0.012520635
73	0xbd78df87	-0.060760047
74	0xbc62acbb	-0.013835127
75	0xbe1a4a83	-0.15067486
76	0xbdadf00b	-0.0849305
77	0xbde7638a	-0.112982824
78	0x3d1b48e1	0.0379113
79	0xbdf4daf6	-0.11955826
80	0xbcdff3f5	-0.027338007
81	0x3da23331	0.0791992
82	0xbd8cb298	-0.068700016
83	0x3df7b98e	0.120959386
84	0xbb68eb71	-0.0035540725
85	0xbdae00f6	-0.08496277
86	0xbcc90ef6	-0.024543267
87	0xbd5bce2b	-0.053663414
88	0x3c95173a	0.018199552
89	0x3e30ff8f	0.17284988
90	0xbe14eddb	-0.1454386
91	0x3cace2da	0.021104265
92	0xbd205a2a	-0.039148487
93	0x3de7eaef	0.11324107
94	0x3dbf0a73	0.09328165
95	0x3d63bd1f	0.05560028
96	0xbd53ac09	-0.051677737
97	0xbdcb8e6e	-0.09939276
98	0x3dc60fac	0.09670958
99	0xbd2e18b9	-0.042504046
100	0x3e12e038	0.14343345
101	0x3e7591f1	0.23981453
102	0x3dad384a	0.08458002
103	0xbd4f130e	-0.05055528
104	0x3c47ac55	0.012187083
105	0xbd77534d	-0.060382176
106	0x3d508447	0.0509074
107	0x3db6a6cf	0.08918535
108	0x3db69f32	0.08917083
109	0x3ddd1790	0.1079551
110	0xbb6250e1	-0.003453307
111	0xbd9c9ea2	-0.07647444
112	0xbd45746b	-0.048206728
113	0x3dcaa2b1	0.09894312
114	0xbce072c8	-0.027398482
115	0xbda1f0ab	-0.07907232
116	0x3d26bc04	0.04070665
117	0x3dc10527	0.09424811
118	0x3d843b48	0.064566195
119	0x3d075157	0.033036556
120	0xbda69561	-0.081339605
121	0xbce7b3f9	-0.02828406
122	0xbd910b59	-0.070822425
123	0xbd5693ce	-0.05238705
124	0x3d023adb	0.03179441
125	0x3e1593fa	0.1460723
126	0x3d8baef0	0.06820476
127	0x3d8b8aae	0.068135604
128	0xbdb16c5e	-0.086632475
129	0x3d6d67fc	0.057960495
130	0xbcfacd31	-0.030615421
131	0x3c6ee0fb	0.014580007
132	0xbc550fad	-0.013004226
133	0xbd98e348	-0.074652255
134	0x3d6f6c74	0.05845304
135	0xbda9edd2	-0.08297314
136	0x3c8eb6dd	0.01742118
137	0xbd853b47	-0.06505447
138	0x3bf8a32f	0.0075878124
139	0x3dd8e458	0.10590428
140	0xbda62522	-0.08112551
141	0xbca4d6c6	-0.020121943
142	0x3d567c1e	0.05236446
143	0xbdfb9bba	-0.12285562
144	0x3d810331	0.06299437
145	0x3d3d7437	0.04625341
146	0xbdd09bda	-0.10185976
147	0x3d5159fd	0.05111121
148	0x3d8f3d16	0.06994073
149	0x3dc3fba1	0.09569479
150	0xbe107a71	-0.14109208
151	0xbd7ab4a1	-0.061207417
152	0xbd901924	-0.07036045
153	0x3d0ed775	0.034873445
154	0x3d70c261	0.058779124
155	0x3dbd8f34	0.092558295
156	0xbc7c6bd4	-0.015406568
157	0xbd240719	-0.04004583
158	0x3d01e19d	0.031709302
159	0x3dafc81e	0.08583091
160	0xbd7f823b	-0.062380057
161	0xbd8b5b93	-0.06804576
162	0x3e09697f	0.1341915
163	0xbdeb3de8	-0.11486417
164	0xbdcbd0d1	-0.09951938
165	0xbdcd6991	-0.10029901
166	0x3cb5feeb	0.02221628
167	0x3d536533	0.051610183
168	0x3d4c7928	0.04992023
169	0xbd540027	-0.051757958
170	0xbdd9d7f2	-0.106368914
171	0x3dd26813	0.10273757
172	0x3d581b97	0.052760687
173	0xbd4e7a6b	-0.050409716
174	0x3d975a49	0.073902674
175	0xbd59beb0	-0.05316037
176	0x3ce0583a	0.02738582
177	0xbd4510a3	-0.04811157
178	0x3d84bd7f	0.06481456
179	0x3db43113	0.08798423
180	0xbd72efd5	-0.059310753
181	0x3cce6fc0	0.02519977
182	0x3e100536	0.14064488
183	0x3e2aa998	0.16666257
184	0xbcc66417	-0.024217648
185	0x3dbae0fd	0.09124944
186	0xbda63a6b	-0.08116611
187	0xbc536d96	-0.012904545
188	0xbd8c65bb	-0.06855341
189	0x3d3bc096	0.04583796
190	0x3dbebd9d	0.093135096
191	0x3e1d2cdb	0.15349142
192	0x3d9774e9	0.07395346
193	0x3d5f35b1	0.054494563
194	0xbde9c18b	-0.114138685
195	0x3d74b8cc	0.05974655
196	0x3d319e31	0.043363754
197	0x3982df66	0.00024961977
198	0xbc963fb8	-0.01834093
199	0xbde2b197	-0.11069029
200	0x3de2a0cd	0.110658266
201	0x3d1aa42c	0.037754223
202	0x3d5dddec	0.05416672
203	0x3d648f06	0.05580046
204	0x3d7abfeb	0.061218183
205	0x3d77eb68	0.060527235
206	0xbd484d49	-0.04890183
207	0xbdfc8b82	-0.123312965
208	0x3cdb0fb6	0.02674089
209	0xba0d8c62	-0.0005399642
210	0x3dbc7cc2	0.09203483
211	0xbdbaf639	-0.091289945
212	0x3c8963b7	0.01677118
213	0x3dc73fc1	0.09728957
214	0xbd23fc8c	-0.04003577
215	0x3da90997	0.08253782
216	0x3dbb4ab5	0.091451086
217	0x3c546023	0.012962374
218	0x3d649abb	0.055811625
219	0xbdb7d6a6	-0.08976488
220	0x3e052633	0.13002853
221	0xbdf5d13b	-0.12002798
222	0xbc0f1399	-0.0087327
223	0xbb32ea3d	-0.0027300261
224	0xbcfac3d9	-0.030610966
225	0x3d0fea81	0.03513575
226	0x3c399eb4	0.011329342
227	0x3e6e2759	0.23257197
228	0xbded7bf6	-0.11595909
229	0xbdca77b5	-0.098861136
230	0xbcf2d221	-0.029641213
231	0xbdb3887c	-0.08766267
232	0xbc8b57fe	-0.017009731
233	0xbd7e423f	-0.062074896
234	0xbd369e8d	-0.0445848
235	0xbd1fb435	-0.03899022
236	0xbcf86fac	-0.030326687
237	0xbdba2507	-0.09089094
238	0xbdae76ce	-0.08518754
239	0x3d48adc2	0.048993833
240	0xbc881818	-0.016613051
241	0xbdd1b355	-0.10239283
242	0xbd2bb74a	-0.041922845
243	0x3d09bd7c	0.033627972
244	0xbca9c03e	-0.020721551
245	0xbd8efb7a	-0.06981559
246	0xbcdc936b	-0.026925763
247	0x3de2609b	0.11053582
248	0x3e1e6481	0.15468027
249	0xbd65239c	-0.055942163
250	0x3d0d02fb	0.03442667
251	0x3d13a9ee	0.03605073
252	0x3e181e54	0.1485532
253	0x3e3dad00	0.18523026
254	0xbd90668c	-0.07050809
255	0x3cdac704	0.026706226

MLP.5.bias f4 [32]
0	0xbdc3fc1c	-0.095695704
1	0x3df2efdb	0.11862155
2	0x3de6dd23	0.11272647
3	0xbd820172	-0.06347932
4	0x3e0944c7	0.13405143
5	0xbdfa9f20	-0.12237382
6	0x3d5c0552	0.05371601
7	0x3ce2f845	0.027706275
8	0xbd8da3e5	-0.06916026
9	0xbdefdfa4	-0.11712578
10	0xbdca2f8f	-0.09872352
11	0x3d8bb99e	0.06822513
12	0xbe31e914	-0.17374068
13	0x3b67f6d8	0.0035394933
14	0xbd51a4a3	-0.0511824
15	0x3dd98503	0.10621073
16	0x3da9d93d	0.08293388
17	0x39a24a49	0.00030954395
18	0x3e09308b	0.13397424
19	0xbd9c0823	-0.076187395
20	0x3d190cb4	0.03736563
21	0x3da7336d	0.081641056
22	0xbb2cf132	-0.002638888
23	0x3df0784a	0.11741693
24	0x3d197197	0.037461843
25	0x3dc3e3f7	0.09564965
26	0xbd92195e	-0.07133745
27	0x3da77872	0.0817727
28	0xbe02e299	-0.12781753
29	0xbd81a5cb	-0.063304506
30	0xbbf39566	-0.007433581
31	0x3cb00b00	0.02148962

MLP.6.weight f4 [32]
0	0x3f4c2c70	0.79755306
1	0x3f3f1273	0.74637526
2	0x3f12ac6b	0.5729434
3	0x3f452ce1	0.77021605
4	0x3f3888f7	0.7208399
5	0x3f4077b9	0.7518268
6	0x3f4d55a8	0.80208826
7	0x3f3db25b	0.74100274
8	0x3f35bece	0.7099427
9	0x3f39d196	0.7258543
10	0x3f24623a	0.6421238
11	0x3f3abca5	0.729441
12	0x3f397a15	0.7245191
13	0x3f191fd8	0.59814215
14	0x3f4e7e0a	0.8066107
15	0x3f398aad	0.7247723
16	0x3f49d1d1	0.7883578
17	0x3f39592b	0.72401685
18	0x3f3d8c04	0.7404177
19	0x3f46a402	0.77594006
20	0x3f4457fd	0.7669676
21	0x3f34ded1	0.7065249
22	0x3f4f5825	0.8099387
23	0x3f4aeb8f	0.79265684
24	0x3f275ad3	0.6537296
25	0x3f49e44e	0.7886399
26	0x3f5156c6	0.8177303
27	0x3f195a6e	0.5990361
28	0x3f48b38e	0.7839898
29	0x3f1f1be9	0.6215196
30	0x3f50b038	0.8151889
31	0x3ef8a044	0.48559773

MLP.6.bias f4 [32]
0	0xbbc1a641	-0.0059097116
1	0x3d58f693	0.052969526
2	0xbc57b66e	-0.013166053
3	0x3b41e7bd	0.002958759
4	0xbc28a51a	-0.0102932695
5	0x3bd6c06f	0.0065537016
6	0xbb5b0376	-0.003341881
7	0xbc9ee562	-0.019396488
8	0xbc2783db	-0.010224308
9	0xbb929205	-0.0044729733
10	0x3baa96cd	0.005205965
11	0xbccd427f	-0.025056122
12	0xbc7875e6	-0.015164828
13	0xbbc7e36e	-0.00610011
14	0x3cf645be	0.030062553
15	0x3c7a7a5a	0.01528796
16	0xbd067c69	-0.03283349
17	0xbc544245	-0.012955253
18	0x3bb0b86d	0.005393079
19	0x3b90cc45	0.004418882
20	0xbc502051	-0.012703017
21	0xbcd5551b	-0.026041558
22	0xbca20bae	-0.01978096
23	0xbb8e7359	-0.0043472466
24	0x3c970572	0.018435214
25	0xbc6e97b0	-0.014562532
26	0x3c1d588b	0.00960363
27	0x3d0296d0	0.031882107
28	0x3a82c8e0	0.0009978078
29	0xbc556cd8	-0.013026439
30	0x3cc75951	0.024334582
31	0x3c1837c0	0.009290636

MLP.8.weight f4 [32, 32]
0	0xbde95875	-0.11393825
1	0x3e1529e8	0.14566767
2	0x3e342e83	0.17595868
3	0x3d8a4e8b	0.06753262
4	0x3c9144d8	0.017733023
5	0xbcc27908	-0.023739353
6	0xbb92c8cc	-0.0044795033
7	0x3d28f437	0.041248526
8	0xbe604296	-0.219004
9	0x3db85b2b	0.09001764
10	0x3bb7490c	0.0055934247
11	0x3d9c2587	0.07624345
12	0xbe2508d5	-0.1611665
13	0x3cf0ceb0	0.029395431
14	0x3d678add	0.056528915
15	0xbe0ca70f	-0.13735603
16	0xbe5dd11c	-0.216618
17	0xbe225f03	-0.15856557
18	0x3e0a79ce	0.13523027
19	0xbdc866e2	-0.09785248
20	0xbd9bbb33	-0.07604065
21	0xbd0e6095	-0.034760077
22	0x3e269e29	0.16271271
23	0x3e451417	0.19245945
24	0x3ddab076	0.106781885
25	0xbe3470c8	-0.17621148
26	0x3e2d91ca	0.16950145
27	0x3db56047	0.08856254
28	0xbdf3bf3f	-0.11901712
29	0xbdd954b7	-0.10611861
30	0x3db7cdec	0.08974823
31	0xbd1c0309	-0.038088832
32	0x01d4947b	7.808956e-38
33	0x81aeec18	-6.4256283e-38
34	0x81e939f6	-8.567385e-38
35	0x0137a0a1	3.3727037e-38
36	0x81b5395e	-6.6571217e-38
37	0x80e81f18	-2.131699e-38
38	0x81ce8a90	-7.5871276e-38
39	0x01b4f867	6.6477997e-38
40	0x81c434ed	-7.2074974e-38
41	0x01c29fc2	7.1493586e-38
42	0x01ff18e8	9.3707945e-38
43	0x0027101e	3.587366e-39
44	0x01ffc8ca	9.3960324e-38
45	0x01fc2520	9.262345e-38
46	0x8205c54b	-9.827917e-38
47	0x80fa41e8	-2.2982517e-38
48	0x01cb9933	7.4790253e-38
49	0x020e5b6d	1.045875e-37
50	0x81cbac2f	-7.4817494e-38
51	0x81c01d36	-7.0571577e-38
52	0x00529e68	7.587336e-39
53	0x018ea538	5.239964e-38
54	0x81a0de88	-5.9094034e-38
55	0x02155f51	1.0974146e-37
56	0x01d14b8b	7.6882874e-38
57	0x818a3597	-5.077009e-38
58	0x018f6522	5.267502e-38
59	0x81981220	-5.586199e-38
60	0x81416bd8	-3.5525876e-38
61	0x81c0d292	-7.0831815e-38
62	0x81be34ee	-6.987093e-38
63	0x01c2587a	7.13913e-38
64	0xbd0dad91	-0.034589354
65	0xbca0987f	-0.019603966
66	0xbd55366e	-0.05205386
67	0xbe0a90e8	-0.1353184
68	0xbd18a4ba	-0.03726647
69	0xbada9989	-0.0016677837
70	0x3c458eda	0.012057984
71	0xbc2927dc	-0.010324445
72	0x3c79d3cf	0.015248253
73	0xbd503bcf	-0.050838288
74	0x3d6ed421	0.05830777
75	0xbd7ca03b	-0.061676245
76	0xbcbb608f	-0.022873191
77	0xbcfd0e10	-0.030890495
78	0x3d0c7a39	0.034296248
79	0x3cbb348b	0.022852203
80	0xbc9d7de1	-0.019225063
81	0xbbe60ac2	-0.0070203254
82	0xbd8764f4	-0.06611052
83	0x3d365282	0.04451228
84	0x3bb5ff06	0.005554083
85	0xbb509d70	-0.0031832121
86	0x3c92ac32	0.017904375
87	0xbd130951	-0.035897557
88	0x3da3c81d	0.07997153
89	0xbce75f67	-0.028243734
90	0x3bf05bb0	0.0073351488
91	0xbad2d059	-0.0016083821
92	0xbc1ddf17	-0.009635708
93	0x3d718022	0.058960088
94	0x3c9195ea	0.01777168
95	0x3d1ee7a1	0.038795117
96	0x3daee0b2	0.08538951
97	0xbd9995ce	-0.07499276
98	0x3d0b907c	0.034073338
99	0xbe12eca5	-0.14348085
100	0x3df52c77	0.119713716
101	0x3da5288e	0.08064376
102	0x3d015ec5	0.03158452
103	0x3ccbdfd9	0.024887012
104	0xbcf4862d	-0.029849136
105	0xbd2e93fb	-0.042621594
106	0xbdcde30a	-0.1005307
107	0x3d1459f7	0.03621861
108	0xbdbd7cd8	-0.09252328
109	0x3d964599	0.073374934
110	0xbdc47911	-0.09593404
111	0xbd6fc803	-0.058540355
112	0x3b81656b	0.0039488575
113	0x3db2fcaf	0.08739602
114	0xbd7c36a8	-0.06157556
115	0x3d248525	0.04016604
116	0xbd323b9c	-0.04351388
117	0xbd09dfa2	-0.03366054
118	0xba497161	-0.0007684436
119	0x3d4e3003	0.050338756
120	0x3e023c3e	0.12718293
121	0xbd283b4c	-0.041072175
122	0x3d373272	0.044725843
123	0x3b6c87c4	0.0036091665
124	0x3d7f63fe	0.06235122
125	0x3d26df7e	0.040740483
126	0x3da0980a	0.07841499
127	0xbad3c8b6	-0.0016157839
128	0xbdcd08e6	-0.10011463
129	0x3d344c9c	0.044018373
130	0x3dc370b9	0.095429845
131	0x3e2d1c57	0.16905342
132	0x3e27c6fb	0.16384499
133	0xbd919203	-0.07107928
134	0x3dd0948f	0.10184585
135	0xbb7ab7a1	-0.0038256424
136	0x3e110bb8	0.14164627
137	0x3d92b9d9	0.07164354
138	0xbe346438	-0.17616355
139	0x3cc8800a	0.024475116
140	0xbd834abb	-0.06410738
141	0x3d6406ad	0.05567043
142	0xbda1043d	-0.078621365
143	0x3da7c19c	0.08191225
144	0xbd44de9e	-0.048063867
145	0xbe342957	-0.17593895
146	0x39cf875a	0.00039582961
147	0x3caa84a5	0.020815203
148	0x3dbc061d	0.091808535
149	0xbe244d0c	-0.16045016
150	0xbd448ede	-0.04798781
151	0xbdcb2b79	-0.09920401
152	0xbd683553	-0.05669148
153	0xbdeb5eb0	-0.114926696
154	0x3da62638	0.081127584
155	0xbd8302d1	-0.063970216
156	0xbd6ae83c	-0.057350382
157	0x3e06cb20	0.13163424
158	0x3e0c0dcc	0.13677138
159	0xbd940863	-0.07228162
160	0xbdc1bd4c	-0.09459934
161	0xbd57cb46	-0.05268409
162	0xbd218107	-0.03942969
163	0xbddbb54e	-0.107279405
164	0xbdcac6c6	-0.09901194
165	0x3db9d78c	0.090743154
166	0x3d895b22	0.06706835
167	0x3d20c89e	0.039253823
168	0xbc685ef4	-0.014182795
169	0xbe154daf	-0.14580415
170	0xbd24f9f0	-0.04027742
171	0x3da279e7	0.07933407
172	0x3e14c4a6	0.1452814
173	0x3d4e93c9	0.050433908
174	0xbd8c02d5	-0.06836478
175	0xbc91bdcb	-0.017790696
176	0xbdf6f5c8	-0.12058598
177	0xbe288a78	-0.16459072
178	0xbde4ff79	-0.1118154
179	0xbe26eb98	-0.1630081
180	0xbd4dc5b9	-0.05023739
181	0xbd96954a	-0.073526934
182	0x3e09de53	0.13463716
183	0x3e029173	0.12750797
184	0xbd9ad7d4	-0.07560697
185	0xba1395fc	-0.00056299544
186	0x3dc4ea20	0.09614968
187	0x3e1d15e7	0.15340386
188	0x3d5dc4e0	0.054142833
189	0xbd8f4e01	-0.069973
190	0x3dc11eb3	0.094296835
191	0x3d90fcb8	0.07079452
192	0x3d5a374d	0.053275395
193	0x3bfe82b9	0.007767048
194	0x3d5f6f52	0.054549523
195	0xbe0453cb	-0.1292259
196	0x3cd5f5c3	0.026118165
197	0x3d28faf4	0.041254953
198	0x3d84d56b	0.06486019
199	0xbde61e3a	-0.11236234
200	0xbc1e9349	-0.00967867
201	0xbdb40356	-0.08789699
202	0x3de5308d	0.11190901
203	0xbe1483c4	-0.1450339
204	0x3d63490f	0.055489596
205	0xbd9a87b6	-0.07545416
206	0x3d8b03f9	0.06787867
207	0x3bd158e4	0.0063887704
208	0xbd24238d	-0.040072966
209	0x3ddfaa41	0.10921145
210	0x3da50a4c	0.080586046
211	0x3da41016	0.08010881
212	0xbd842355	-0.064520516
213	0x3ca620ff	0.020279406
214	0x3b00faf1	0.0019680823
215	0xbd57eab1	-0.052714054
216	0xbca97808	-0.020687118
217	0x3dc7bfd6	0.09753387
218	0xbd82216e	-0.063540325
219	0x3da70b79	0.08156485
220	0x3d8fd666	0.07023315
221	0xbc75597a	-0.014974946
222	0xbcc13f7c	-0.023589842
223	0x3dabb7d8	0.08384675
224	0x3d4a94eb	0.049458425
225	0x3ca8f3df	0.0206241
226	0x3dcbf7f9	0.099594064
227	0x3d07f804	0.03319551
228	0xbe17e0f5	-0.14831908
229	0xbdf2b793	-0.1185142
230	0xbbdf8618	-0.006821405
231	0x3d7b5c46	0.061367296
232	0xbcd227b3	-0.025653696
233	0x3e0d3f48	0.13793671
234	0x3dbfc966	0.093645856
235	0x3dd2b87e	0.10289095
236	0x3d2a07fc	0.04151152
237	0x3e23f67c	0.16011995
238	0xbe274b91	-0.1633742
239	0x3d9907e2	0.07472207
240	0xbdcccbda	-0.09999819
241	0xbd589cb7	-0.05288383
242	0x3e1a33e3	0.15058856
243	0xbe0ac748	-0.13552582
244	0x3cddab09	0.027059095
245	0xbe0b955f	-0.136312
246	0x3d81f3fc	0.063453645
247	0x3a9ef457	0.0012127262
248	0x3def6192	0.11688532
249	0xbccb1067	-0.024788095
250	0x3e25e2cd	0.16199799
251	0xbdfd9c95	-0.12383381
252	0x3de7ccc7	0.11318355
253	0x3d355183	0.04426719
254	0x3d372898	0.044716448
255	0x3d042f52	0.03227169

MLP.8.bias f4 [32]
0	0xbcbba569	-0.022906022
1	0x81e02ebb	-8.235166e-38
2	0x3c9dabf4	0.019247033
3	0xbd9e0a99	-0.07716865
4	0xbd5c5d2b	-0.05379979
5	0xbd8c3736	-0.06846468
6	0x3da13dd8	0.07873124
7	0x3dcedd8d	0.10100851
8	0xbdc3bec6	-0.095578715
9	0x3dd3d4fa	0.103433564
10	0x3d0e291d	0.034707177
11	0xbd785f40	-0.060637712
12	0x3d8437e6	0.06455974
13	0x3d0c451a	0.034245588
14	0x81325cc1	-3.2759984e-38
15	0xbe0d73b6	-0.13813671
16	0xbdd50ed5	-0.104032196
17	0xbd282107	-0.041047122
18	0x3dc74f4b	0.09731921
19	0xbc258ad4	-0.0101039
20	0xbdc27c91	-0.094964154
21	0xbe054c22	-0.13017324
22	0xbc3184e7	-0.010834909
23	0x3e0e3334	0.1388672
24	0xbba5a6e0	-0.0050552934
25	0xbddcde46	-0.10784583
26	0x3e0e1a99	0.13877334
27	0x39ead4a4	0.00044790388
28	0xbcbeaafc	-0.023274891
29	0xbd985b1e	-0.07439254
30	0x3c200b97	0.009768388
31	0x3c1ee09b	0.009697105

MLP.10.weight f4 [32, 32]
0	0xbd693b33	-0.056941222
1	0x8184d81a	-4.879923e-38
2	0xbd8a69f1	-0.06758488
3	0x3dc370cf	0.09543001
4	0xbe196a32	-0.14981917
5	0x3e05ae7c	0.13054842
6	0x3d8d536b	0.06900676
7	0xbd3a5d32	-0.045499034
8	0xbd97ec7a	-0.07418151
9	0xbe15c0a2	-0.14624265
10	0x3cee95e1	0.029124202
11	0xbbc3ebd9	-0.005979043
12	0xbe0a6d18	-0.13518178
13	0x3d45f58c	0.048329875
14	0x01f6175f	9.0399664e-38
15	0xbd402c28	-0.04691711
16	0x3de82958	0.11336011
17	0xbd1a9174	-0.03773637
18	0x3c7ce56b	0.015435557
19	0xbdc57a0c	-0.09642419
20	0x3c884ac8	0.016637221
21	0x3dfaea84	0.122517616
22	0xbb55d988	-0.003263088
23	0x3d8b7176	0.0680875
24	0xbd72a5a9	-0.059240017
25	0x3dc4ffed	0.096191265
26	0xbe092beb	-0.1339566
27	0x3d83696f	0.06416594
28	0x3e0a365d	0.134973
29	0x3cb98587	0.022646679
30	0xbcc09039	-0.02350627
31	0x3d7c2928	0.061562687
32	0xbda4eb8d	-0.0805274
33	0x81d4ebbe	-7.8214774e-38
34	0xbb3763ff	-0.0027983186
35	0x3dd8c112	0.105837
36	0xbdd5031a	-0.10400982
37	0x3b44dc72	0.0030038622
38	0xbd0369ec	-0.032083437
39	0xbc92f139	-0.01793729
40	0x3d868ddb	0.065700255
41	0xbd378a81	-0.044809822
42	0x3ca79c44	0.020460255
43	0xbd34182f	-0.043968376
44	0xbdef4067	-0.11682206
45	0xba11c06d	-0.0005559985
46	0x01c8871d	7.3662275e-38
47	0xbd8445ad	-0.06458602
48	0x3c1b66e6	0.009484982
49	0x3d34b44d	0.04411726
50	0xbc7b210a	-0.015327701
51	0xbd5513a3	-0.05202068
52	0x3e1a2088	0.15051472
53	0x3e0133a3	0.12617354
54	0xbe194a73	-0.14969806
55	0xbd6d8803	-0.05799104
56	0x3d818c65	0.06325606
57	0x3e07a02d	0.13244696
58	0xbda0edaf	-0.078578345
59	0x3c232ab4	0.009958912
60	0x3ca74d82	0.0204227
61	0x3d4e2152	0.050324745
62	0xbd876eed	-0.06612954
63	0x3dc46b20	0.09590745
64	0x3e27ee39	0.16399468
65	0x003b2ddb	5.434744e-39
66	0xbc3e17df	-0.011602371
67	0x3b8f95c6	0.004381868
68	0x3de58776	0.11207478
69	0x3ddf78fc	0.10911748
70	0xbd29f421	-0.041492585
71	0x3d881f4c	0.066465944
72	0x3d66afef	0.056320127
73	0x3caeadc9	0.021323102
74	0x3c92500d	0.017860437
75	0xbd81cfea	-0.063384846
76	0x3d7b8209	0.061403308
77	0xba388b12	-0.0007039766
78	0x01dca9ed	8.105907e-38
79	0x3d89e764	0.067335874
80	0x3db4f415	0.088356175
81	0x3da54acc	0.08070907
82	0x3d2f06ce	0.0427311
83	0x3c837d22	0.016050879
84	0x3d72fd59	0.059323642
85	0xbc4310b3	-0.011905837
86	0xbdace869	-0.08442766
87	0x3c67fa97	0.014158866
88	0xbd8d2c75	-0.06893245
89	0x3d150d4b	0.03638963
90	0x3d545d53	0.051846813
91	0x3c4eb615	0.012616654
92	0xbd2cf5bc	-0.042226538
93	0x3cdc2665	0.026873777
94	0x3be71f56	0.007053296
95	0x3db34827	0.08753996
96	0x3d92a3bc	0.07160136
97	0x01b1a27f	6.52527e-38
98	0xbc9a53a4	-0.018838711
99	0x3cdbf58c	0.026850484
100	0xbe30e320	-0.17274141
101	0xbe1fab8e	-0.15592787
102	0xbcd55d5f	-0.0260455
103	0x3dde30cc	0.10849151
104	0xbd8225a0	-0.06354833
105	0x3e0a6df9	0.13518514
106	0xbccd8d1c	-0.0250917
107	0x3c3028c4	0.010751907
108	0x3e198511	0.14992167
109	0xbc6c47d5	-0.014421423
110	0x01afb1e0	6.4540085e-38
111	0xb8a11685	-7.681273e-05
112	0xbe0b0897	-0.13577496
113	0x3d1bd416	0.038044058
114	0xbde932e7	-0.11386662
115	0x3d5c1c13	0.05373771
116	0x3d541d38	0.051785678
117	0xbcf58fc5	-0.029975781
118	0x3d19433e	0.037417643
119	0x3c95203b	0.018203845
120	0x3dbf9578	0.09354681
121	0x3d1171e5	0.03550901
122	0xbd8bb3c6	-0.068213984
123	0xbda12159	-0.07867689
124	0xbcf9af46	-0.030479085
125	0x3dbb8a45	0.09157232
126	0x3d14ab98	0.036296457
127	0xbdf156d6	-0.11784141
128	0x3dacb6dd	0.08433316
129	0x81b68c56	-6.7057613e-38
130	0x3d4f08f8	0.050545663
131	0x3dddf352	0.10837425
132	0xbe159076	-0.14605889
133	0xbded6138	-0.11590809
134	0x3d36e854	0.04465516
135	0x3db59760	0.08866763
136	0x3cca311c	0.02468162
137	0x3e1dbbe7	0.1540371
138	0x3d1e59a1	0.038659696
139	0xbc4dbf3c	-0.012557801
140	0x3e42dce0	0.1902957
141	0x3bd65812	0.0065412605
142	0x01d96729	7.986124e-38
143	0x3d83b87d	0.06431673
144	0xbce77202	-0.028252605
145	0x3e1e0ac9	0.15433802
146	0x3dcc4240	0.09973574
147	0x3c8589cd	0.01630106
148	0xbdaf31b4	-0.08554402
149	0x3d4d3535	0.05009957
150	0x3dc0de5f	0.09417414
151	0x3c10d971	0.008840905
152	0x3e1e991d	0.15488096
153	0xbda34157	-0.07971447
154	0xbd320805	-0.04346468
155	0x3d8df129	0.06930763
156	0x3dc14548	0.094370425
157	0x3dfea094	0.124329716
158	0x3d937596	0.07200162
159	0x3e04e081	0.12976266
160	0x3e247b5b	0.16062681
161	0x8195ccad	-5.502765e-38
162	0x3dc66cdf	0.09688734
163	0x3e036da9	0.12834801
164	0xbdecb5f2	-0.11558141
165	0xbd17d544	-0.03706862
166	0x3d1605d8	0.036626667
167	0x3dd08fd4	0.10183683
168	0xbd972cbf	-0.073815815
169	0xbdb44f0e	-0.08804141
170	0x3bc2e78b	0.005948012
171	0xbd2fc4af	-0.04291218
172	0xbdb956c4	-0.09049752
173	0xbd05e05a	-0.03268466
174	0x8198dc9e	-5.615255e-38
175	0x3b61701a	0.0034399093
176	0xbdf72eac	-0.12069449
177	0x3e7be535	0.24599154
178	0x3c826dad	0.015921438
179	0x3d809b4f	0.06279623
180	0x3ddb6e39	0.10714383
181	0xbe5fc4a4	-0.21852356
182	0xbe08fd7a	-0.13377944
183	0xbd41a2d6	-0.047274433
184	0xbdaac043	-0.08337452
185	0x3c07600e	0.008262647
186	0x3b837fd5	0.0040130415
187	0x3c35c29a	0.01109376
188	0x3d7332b5	0.05937453
189	0xbe2f590f	-0.17123817
190	0xba6aa468	-0.000895089
191	0x3e015ad0	0.12632298
192	0x3e059d25	0.13048227
193	0x01a4e42c	6.0571496e-38
194	0x3d1b18c4	0.037865415
195	0xbd81e9c7	-0.063434176
196	0xbc1b200c	-0.00946809
197	0xbe3c378a	-0.18380561
198	0x3daee4b4	0.085397154
199	0x3dd687ab	0.10475095
200	0xbc419e5a	-0.011817539
201	0xbd46877d	-0.048469055
202	0x3d7088bc	0.05872415
203	0x3d99f4ef	0.075174205
204	0xbcf0ebcb	-0.02940931
205	0x3d9eaa6e	0.07747351
206	0x01dfd245	8.2218985e-38
207	0x3d2bc7e6	0.041938685
208	0xbdb82dec	-0.08993134
209	0xbe550d54	-0.20805866
210	0x3e20e1ea	0.1571118
211	0x3d0f00ab	0.034912746
212	0xbdde01d3	-0.10840192
213	0x3d97975f	0.074019186
214	0xbdc22d9f	-0.09481358
215	0x3d8b84ae	0.06812416
216	0xbd7726e9	-0.060339842
217	0xbe0689c4	-0.13138491
218	0x3d7281c8	0.0592058
219	0x3b9e799f	0.0048362757
220	0xbdbac66a	-0.09119876
221	0xbd2ac055	-0.04168733
222	0x3dcedf66	0.101012036
223	0xbdd3f42b	-0.10349306
224	0x3dfdf3f3	0.12400045
225	0x01b317f1	6.578857e-38
226	0x3979d4da	0.00023825784
227	0xbc22a09f	-0.00992599
228	0xbe1fe7a3	-0.15615706
229	0xbd321f0c	-0.04348664
230	0xbcf53248	-0.029931203
231	0xbe06eb7f	-0.13175772
232	0x3c5544a2	0.013016852
233	0xbe0ff8e2	-0.14059785
234	0xba9424ab	-0.0011302432
235	0x3d743b65	0.059626956
236	0xbcb08899	-0.02154951
237	0xbbf7ab08	-0.0075582303
238	0x01db061b	8.0456656e-38
239	0x3d6c5384	0.057696834
240	0x3e008cc8	0.12553704
241	0xbd9abb5b	-0.075552665
242	0xbdadfadf	-0.084951155
243	0x3cd5f13c	0.026116006
244	0xbd559bc1	-0.05215049
245	0x3d571b41	0.052516226
246	0xbe1d1be0	-0.15342665
247	0x3e0b8cb3	0.13627891
248	0x3decd750	0.11564505
249	0x3ddb9278	0.10721296
250	0x3da3f9f0	0.08006656
251	0xbc800af1	-0.015630217
252	0x3de5cf03	0.11221125
253	0x3d0eb70b	0.034842532
254	0x3d63f2c4	0.05565144
255	0xbd22642c	-0.039646313

MLP.10.bias f4 [32]
0	0xbc78fc07	-0.015196807
1	0x3db96ebe	0.090543255
2	0x3c9a462e	0.018832292
3	0x3cbcc66b	0.023043832
4	0xbe1ec9c0	-0.15506649
5	0xbcac5315	-0.02103571
6	0xbe166632	-0.14687422
7	0xbbe6c069	-0.00704198
8	0xbe138fc8	-0.14410317
9	0xbe01e71f	-0.12685822
10	0xbd11861e	-0.035528295
11	0xba460762	-0.0007554201
12	0x3d2cd635	0.04219647
13	0x3dfcb3be	0.123389706
14	0xbd22f7d4	-0.03978713
15	0xbc2f6737	-0.010705761
16	0x3d3918f9	0.04518983
17	0xbbabfe2b	-0.005248805
18	0x3d30d8b9	0.043175433
19	0xbe01ff38	-0.12695014
20	0x3e055c46	0.13023481
21	0x3d1d3a0a	0.03838543
22	0xbd29b70b	-0.04143433
23	0xbcdb70d4	-0.0267872
24	0x3d43d94a	0.047814645
25	0xbd079356	-0.033099495
26	0xbc58ce6e	-0.01323281
27	0x3e1fddd5	0.15611966
28	0xbe14dd42	-0.14537528
29	0x3e2a49d1	0.16629721
30	0xbe008c43	-0.12553506
31	0x3d2c43b3	0.04205675

MLP.11.weight f4 [32]
0	0x3f6edbb3	0.93303984
1	0x3f710f7a	0.9416424
2	0x3f6a04d8	0.9141364
3	0x3f6664ad	0.8999737
4	0x3f70b1c2	0.94021237
5	0x3f6798d1	0.90467554
6	0x3f5b9b24	0.857836
7	0x3f4f5a0f	0.80996794
8	0x3f4f160d	0.8089302
9	0x3f65f251	0.8982287
10	0x3f7372e1	0.95097166
11	0x3f459027	0.77173084
12	0x3f42ff16	0.7617048
13	0x3f59656b	0.84920377
14	0x3f669100	0.90065
15	0x3f653725	0.8953727
16	0x3f6925d3	0.9107334
17	0x3f705e79	0.93894154
18	0x3f5df58e	0.8670281
19	0x3f6c40cc	0.9228637
20	0x3f73c792	0.95226395
21	0x3f3f1af4	0.746505
22	0x3f71404d	0.9423874
23	0x3f6a0014	0.9140637
24	0x3f66dc32	0.9017974
25	0x3f67ff40	0.90623856
26	0x3f573be9	0.8407579
27	0x3f6aa449	0.9165693
28	0x3f4246cc	0.7588928
29	0x3f72472a	0.9463984
30	0x3f64e804	0.8941653
31	0x3f670244	0.9023783

MLP.11.bias f4 [32]
0	0xbae1a84a	-0.0017216292
1	0x3b01ea92	0.0019823653
2	0xbbf73f6e	-0.007545403
3	0xbb2c1edc	-0.002626351
4	0x3c184eee	0.009296162
5	0xbc0dd611	-0.008656994
6	0x3adec494	0.0016995841
7	0x3b84b28e	0.0040496057
8	0x3c1cd653	0.009572583
9	0x3c1ee1fa	0.009697432
10	0xbc1ebb1e	-0.009688167
11	0x3ac6314e	0.0015120895
12	0x3b06370a	0.0020479583
13	0x3bf47469	0.0074601662
14	0xbc7d073e	-0.015443621
15	0x3ba686da	0.0050819935
16	0x3be539fe	0.0069954386
17	0x3ad94d2a	0.0016578783
18	0xbb1cd89b	-0.0023932818
19	0x388a65a4	6.599285e-05
20	0x3ad881f8	0.0016518226
21	0xbb5c20c4	-0.0033588866
22	0x3c99fcfc	0.01879739
23	0x3bb296e9	0.005450119
24	0x3ab78916	0.0014002647
25	0x3b90251d	0.0043989555
26	0xbab44d30	-0.0013755914
27	0xbb97056b	-0.0046088
28	0x3c0890c4	0.008335296
29	0x3c274e74	0.010211576
30	0x3cb97290	0.022637635
31	0xb9a5b973	-0.00031609423

MLP.13.weight f4 [4, 32]
0	0x3de664fb	0.11249729
1	0xbe016969	-0.12637867
2	0xbd14d4e3	-0.036335837
3	0xbd0a9421	-0.033832673
4	0xbdb08a7e	-0.08620165
5	0x3da52ae7	0.080648236
6	0xbdc19834	-0.094528586
7	0xbdc55fde	-0.09637426
8	0xbd93fa38	-0.0722546
9	0xbe2115c2	-0.15730956
10	0x3e0735f3	0.13204174
11	0x3dcc3ed4	0.09972921
12	0x3d70ced4	0.058790997
13	0x3cf26d79	0.029593216
14	0x3e06259d	0.13100286
15	0xbd06624a	-0.03280858
16	0x3e03b669	0.12862553
17	0xbd5febd7	-0.054668274
18	0x3d55a053	0.05215485
19	0xbceb1703	-0.028697496
20	0x3adb7e95	0.0016746098
21	0x3db7bef0	0.08971965
22	0xbca07627	-0.01958759
23	0xbe13e558	-0.14442956
24	0xbd3765c0	-0.04477477
25	0xbcf38243	-0.0297252
26	0xbd50f8a2	-0.051018365
27	0x3dd3e58a	0.103465155
28	0xbd57ba23	-0.05266775
29	0xbda4eb0a	-0.08052643
30	0xbd25357f	-0.04033422
31	0x3da00464	0.078133374
32	0xbdd1381d	-0.10215781
33	0xbd844c0e	-0.06459819
34	0xbd9ef7d8	-0.07762116
35	0xbc25f9ed	-0.010130388
36	0xbd607b00	-0.054804802
37	0x3dfec79c	0.12440416
38	0xbd7b1b1a	-0.061305143
39	0x3bb28dd9	0.0054490385
40	0xbd6bc327	-0.05755916
41	0xbd8c62a0	-0.06854749
42	0x3b93da00	0.0045120716
43	0x3b8cd0e8	0.0042973645
44	0x3bc8c16d	0.006126574
45	0x3d19b0e8	0.037522227
46	0xbd5a9fd5	-0.053375084
47	0xbd551ab6	-0.052027427
48	0x3dda424e	0.10657178
49	0x3da101bd	0.0786166
50	0x3cd9653e	0.026537534
51	0x3e1125b9	0.14174546
52	0xbbd330cd	-0.0064450265
53	0x3be8d807	0.0071058306
54	0xbce5c385	-0.028047333
55	0x3d338732	0.043830104
56	0xbce8b5fe	-0.028407093
57	0x3d540982	0.05176688
58	0xbd2460da	-0.040131427
59	0xbdd6c216	-0.10486238
60	0x3c97b90c	0.018520854
61	0xbd76f754	-0.060294464
62	0xbd5f669b	-0.05454121
63	0xbd0171cf	-0.031602677
64	0x3d9bbc91	0.076043256
65	0x3e04501e	0.12921187
66	0x3d9e3a0c	0.07725915
67	0xbda5ae51	-0.08089889
68	0x3daab0ec	0.083345264
69	0x3d8af97b	0.06785866
70	0xbd0f016b	-0.03491346
71	0xbd4f373b	-0.05058978
72	0xbbb9de61	-0.0056722616
73	0x3b18250e	0.0023215446
74	0xbdee028f	-0.11621582
75	0x3cd55231	0.026040168
76	0xbdc61245	-0.096714534
77	0xbd97ae57	-0.074062996
78	0x3d5ac8ca	0.053414144
79	0x3d855edc	0.065122336
80	0xbc0fa216	-0.008766672
81	0x3de98de8	0.114040196
82	0x3d83dd33	0.06438675
83	0xbdfd21ce	-0.12359963
84	0x3e06164c	0.13094443
85	0x3c6e7ba0	0.014555842
86	0xbe0306ef	-0.12795614
87	0x3deac8e3	0.11464097
88	0x3dbc796d	0.09202848
89	0xbcf40713	-0.02978853
90	0x3c915703	0.017741686
91	0x3d815f83	0.063170455
92	0xbcb16fce	-0.021659758
93	0x3dfcf453	0.12351289
94	0xbdbaa377	-0.0911321
95	0xbdb9b841	-0.09068347
96	0xbd300d76	-0.042981587
97	0xbcc46012	-0.023971591
98	0x3c043956	0.008070311
99	0x3cac91bd	0.021065587
100	0xbbf16625	-0.007366913
101	0xbd055626	-0.03255286
102	0xbb483888	-0.0030551273
103	0x3c991b94	0.018689908
104	0xbc50e2ce	-0.012749387
105	0xbd80166c	-0.06254277
106	0xbc481e51	-0.012214259
107	0x3c451cc5	0.012030785
108	0xbd10da57	-0.035364475
109	0x3c02fe96	0.007995268
110	0xbbeae2c1	-0.0071681445
111	0xbc8b0026	-0.016967844
112	0xbb7013f2	-0.0036632982
113	0x3c5c21b7	0.013435773
114	0xbd08cf80	-0.033401012
115	0xbc1cc2fc	-0.009567972
116	0x3bf5e073	0.007503563
117	0x3d3480ea	0.044068255
118	0x3c9f6192	0.019455705
119	0x3cef4ebb	0.029212346
120	0x3d370977	0.04468676
121	0xbd8882d0	-0.066655755
122	0x3d9593cf	0.07303583
123	0xbba31272	-0.004976564
124	0x3d86d28f	0.065831296
125	0x3b59b1a4	0.0033217454
126	0xbd4575c5	-0.048208017
127	0x3d2f16a4	0.0427462

MLP.13.bias f4 [4]
0	0xbd5dc3e9	-0.054141913
1	0x3dbb32c9	0.09140546
2	0xbe26c327	-0.16285382
3	0x3b27484f	0.0025525277
