example/model/polygon_robot/model_2500.pth (torch, 24610 bytes, 18 tensors)

MLP.0.weight f4 [32, 2]
00000000: 58fb ad3e 34bc 5fbe ae69 e23d 418d 00bf
00000010: 010f 23bf 7dc5 d33e e501 e3be b90a bd3e
00000020: cfc3 943e b202 b7be 523b 17bf 1308 dabe
00000030: faaf 59be be68 babe b771 003f e4f8 d0be
00000040: 7b6f 953e 5de5 2dbe c293 d4bc 0501 0abf
00000050: 513c c33e af6f 953e 2af4 073f 4d56 abbd
00000060: 54af a8be 1cf1 f93d ef7f ee3c c4ad dbbe
00000070: 3a06 bb3e 0a3f 79be 4860 0a3f 14b3 e23e
00000080: 580f 1dbf 2219 ddbe 3003 ae3e 9f21 19bf
00000090: a198 d63e 5afd 04bf 306b 4bbc 12be d4bd
000000a0: 5934 ffbc 6ff3 8d3e 41ec bf3e f083 163d
000000b0: fa5a 583e c42f 333e c616 af3d 3b80 713e
000000c0: ca2b 063e bf1c af3e 0e5c d9bd e58e 863e
000000d0: 228b 1dbd a2e4 0bbf 631e d2bb 6ebc 85bd
000000e0: f00c 2abe 6295 4abe c598 0f3e d6c5 103e
000000f0: 72be 123f fe5d d0be 21f8 c8bc 70ce 793d
0.33980823 -0.21849138 0.11055313 -0.50215536 -0.6369477 0.4136161 -0.44337383 0.36922243
0.2905564 -0.35744244 -0.5907489 -0.42584285 -0.21258536 -0.36408037 0.50173515 -0.40814888
0.29186615 -0.16982026 -0.025949363 -0.53907806 0.38131955 0.2918677 0.5310694 -0.0836607
-0.32946265 0.12204191 0.029113738 -0.4290601 0.36528188 -0.24340454 0.54053164 0.4427725
-0.6135154 -0.43183237 0.33986807 -0.59816927 0.41913322 -0.51949084 -0.012415692 -0.103878155
-0.031152891 0.27724788 0.37484935 0.03674692 0.21128455 0.1749869 0.085492656 0.23584072
0.13102642 0.3420162 -0.10613261 0.26280895 -0.038462766 -0.5464574 -0.006412314 -0.06530081
-0.16606498 -0.19783548 0.1402312 0.14137968 0.57321846 -0.4069671 -0.02453238 0.06098789

MLP.0.bias f4 [32]
00000000: 1a6f 7e3c 2cc2 123f a494 133d ebb8 8b3e
00000010: 90e9 b83e 7bee 333e 5097 5b3e e1bd ec3d
00000020: 079c aa3e d0dd 973d 959e 0dbe 82aa ebbd
00000030: e9d3 603e db71 6abe 062b c23a c9ff 7b3e
00000040: 711f 66be 0b3f 2d3e 8d6f aebe 49bf 7abe
00000050: dc66 f0bd b45c c43e e8c3 6e3e 251e 083e
00000060: 4aea cb3e 9cf3 dabe b41c 823e caef ca3e
00000070: a898 4ebe 4880 a4be 8440 58bd fb42 b0be
0.015529418 0.5732753 0.036030427 0.2728952 0.36115694 0.17571442 0.2144444 0.11559654
0.33322164 0.07415354 -0.13830025 -0.11507131 0.21955837 -0.22894995 0.0014813847 0.24609293
-0.22472931 0.1691858 -0.34069481 -0.24487032 -0.11738369 0.38351977 0.2331692 0.13292749
0.39827186 -0.42763984 0.25412524 0.3963607 -0.20175421 -0.3212912 -0.052795902 -0.34426102

MLP.1.weight f4 [32]
00000000: 94fb 403f 077f 4c3f 1057 163f dd02 453f
00000010: 5f55 313f 5bc0 313f 19ad 303f 8858 183f
00000020: 244b 343f 7bcd 343f c221 233f a472 563f
00000030: eb53 333f 0c3f 513f b657 343f 402c 523f
00000040: 56fe 2a3f 9512 3c3f 848c 423f c79e 1f3f
00000050: ce25 5a3f 3dad 453f 9056 463f 8d3a 4a3f
00000060: 5b77 3f3f f43c 593f 1351 463f f5dc 2f3f
00000070: 60d3 4f3f 6081 433f df49 333f d760 553f
0.7538388 0.7988133 0.58726597 0.76957494 0.6927089 0.69434136 0.69014126 0.5951009
0.70427155 0.7062604 0.63723385 0.8376868 0.70049924 0.81736827 0.70446336 0.8209877
0.66794336 0.73465854 0.7599566 0.6235165 0.85213935 0.77217466 0.77475834 0.7899559
0.74791497 0.8485863 0.7746746 0.6869653 0.8118191 0.76369286 0.70034593 0.8335089

MLP.1.bias f4 [32]
00000000: 8d82 253a 9ae5 95bc bac2 18bd 5957 18bb
00000010: 6741 203c 5828 113d cb46 c1bc 9aa0 80bd
00000020: 7ac8 34bd 7f5d 67bb b047 d33b ab3f ce3c
00000030: de0f 083c 3860 42bc 92d8 47bb d58b febc
00000040: 2e7d 7ebd 60ba c03c 0ee3 2abc f867 80bc
00000050: e7ed 523d 756c 1fb8 9ca0 2b3d 5d96 723c
00000060: af43 4d3d 4630 babc ec02 fc3b 62ba 2f3b
00000070: 027c cbbc 6a52 fd3b 2bd0 583d 6811 93bc
0.0006313704 -0.01829796 -0.03729508 -0.0023245423 0.009781218 0.035438865 -0.023593327 -0.06280632
-0.0441365 -0.003530353 0.006447755 0.025176844 0.008304564 -0.011863761 -0.0030494076 -0.031072536
-0.0621311 0.02352637 -0.010430111 -0.015674576 0.051496413 -3.8009563e-05 0.041901216 0.014806357
0.050113376 -0.022728097 0.007690778 0.0026813974 -0.024839405 0.007730772 0.0529329 -0.017952636

MLP.3.weight f4 [32, 32]
00000000: 3dfc 73bd 2084 2e3d 3ec5 06bc f6a2 13be
00000010: 7272 e63c d79c acbd 15ec 1a3e 5c6d 54ba
00000020: 7b40 f13d 787f e63d 0437 8b3a cd0d f2bd
00000030: 7252 183e 5204 97bd 2b1c 0bbe 9c8c 163d
00000040: 6163 3abd 681a 03bd eaa1 50bd 78eb 4dbd
00000050: 8a20 ba3d fa8b d93d 493a 83bc b90a 8e3b
00000060: b520 223e 9047 01be 3bc0 e73d 267f e23d
00000070: 49f8 c1bd d95c 5abd a0a3 fb3c adef 473c
00000080: 9d2e ea3c a351 333d b019 a7bc 4686 9fbd
00000090: c03a b7bd ee47 c9bd 99d6 debd 79bd b9bd
000000a0: 15ce 15bd e24e 26bd 0994 6abd b5f8 313d
000000b0: 6617 65bd 1811 b7bd 3215 cb3c a1ca d6bc
000000c0: d855 e5bd aeda b43d d1eb 793d 097c e03c
000000d0: 5fac 0cbe ba06 413d 9498 0ebd f7db f13d
000000e0: a3ae a93d 1782 8b3d 1211 17bc 30ff c4b9
000000f0: ff05 a83d 184e 7bbd 2734 ffbd 7ef2 df3d
00000100: a5d3 8f3d 127d 273b 7089 10bd ddba adbb
00000110: 1ea3 aa3d 5da7 073e 14ac b1bd cbbb 413d
00000120: 7821 15bd ec57 bdbd 3d24 683d 4673 8a3c
00000130: d36c 06bd 9853 e0bd 24eb 69bd 64c9 cebd
00000140: 7d79 503c 2ddb 14bd d01f 5e3c 0182 723b
00000150: 412c 18be a22c 8e3d dad2 cbbd 0ff3 9a3d
00000160: 6ee0 923c e897 f0bd b047 133e 6741 a23d
00000170: 9356 013c 3eec 17be cdee 99bd 79f3 cabd
00000180: f350 303e 19cf f6ba 82a4 f43d 1982 2bbe
00000190: 3f8b aabc 8223 9c3d c881 d7bb fa62 68bc
000001a0: f836 02be 1e25 ab3d 1b10 7dbc 6a3e 5a3e
000001b0: a16f 953d 5ad5 14be 1d33 b13d 6734 38be
000001c0: 37bd d9bd 686d 1d3c 23c2 e83d 3568 06bc
000001d0: aff8 14be 7015 193e 02c3 ed3c d74b 0f3e
000001e0: 86c2 363d 3083 0c3e 86e6 15bd 1a78 6abe
000001f0: eabb c339 b946 c83d 7ec0 023e a44f 0f3e
00000200: 4e03 14be 6a30 e2bd caa1 41bb 4004 433d
00000210: bc74 3dbd 4cd4 0ebc 91d4 d23d b466 ab3d
00000220: ca7f af3d 51e5 acbc 697e 07be dad7 0bbd
00000230: 642a 473d 0e3b 5c3c 18ad a13d 6c06 cebd
00000240: f2c7 573d 30f1 c63d a37c f43d 4b0b fd3d
00000250: 8485 0b3e f7e1 30be a722 6b3d 4bb4 04bd
00000260: dd16 033e d47f af3d 7f57 e6bc f229 a8bc
00000270: f664 653d 0dff 923d 35bf e83c 01d7 953d
00000280: f266 48be 6fde 2f3d 7116 233e c8e1 f2bc
00000290: d492 3dbe abd3 543d 00f0 eebc 59af 98bd
000002a0: d2dd 1bbe 601a 6dbc b1d7 be3d db8a 873c
000002b0: d724 17bc 5bb7 073e d709 4abe 87cb 663d
000002c0: 13a6 1b3e 34c1 11be bb65 2bbd bb40 213e
000002d0: 1680 2ebe fbae 66bd 4022 18bd 2942 22be
000002e0: 61a6 38be 257c ab3d a49b ec3d 9182 ad3d
000002f0: 0992 cd3c 9536 513d 58dc 143d 889f bc3d
00000300: c8a0 073e dc89 a0bc fa56 57bd f194 db3d
00000310: d46b fb3d e22e 41bc e244 ebbb 79fd 81bd
00000320: f9f0 15be ab09 253d d034 f5bc 67ab f13d
00000330: 4fbe 06be ff48 36bd 87e3 c23d 82cc 003e
00000340: df18 f03c 838f f03d 4e6e 05be 847b b4bd
00000350: 9cdd ebbd 3287 e0bd 4e55 013e 6a1a aebd
00000360: 72b9 88bd 2514 0fbe 0f92 7f3d d17f adbc
00000370: 2646 a53d e737 4dbd a30e d5bd 54fd 9f3c
00000380: 416c 063d 75ef 02bd 3fa5 573d b4ea 593e
00000390: 21cb f73c 4fe2 113e d1aa ec3c 051c 9f3d
000003a0: 62b5 e5bd 4d99 903c 6295 60bd 5cb7 9c3d
000003b0: 3e9d 76bc a6b8 24bd fc0f 80bd 1e10 183d
000003c0: 4800 cabd 8aed 80bd 0cbb ccbd 77c4 473d
000003d0: f059 ff3d 8db6 7d3c cd4f 0cbe 7f6e d7bd
000003e0: 4bb4 d13d f79d df3c 5339 77bd eb66 8b3d
000003f0: fa10 1bbe 79fb ed3d 3555 30bc 2b98 f6ba
-0.059566725 0.042606473 -0.008225737 -0.14417633 0.028130744 -0.08428352 0.1512912 -0.0008103454
0.11779877 0.112547815 0.0010621254 -0.118190385 0.148752 -0.07373871 -0.13584964 0.03675519
-0.04550493 -0.032007605 -0.050935663 -0.05027339 0.090882376 0.106224015 -0.016019003 0.0043347743
0.15832789 -0.12624955 0.11315962 0.11059408 -0.09471185 -0.053311203 0.03071767 0.012203139
0.02858668 0.043779027 -0.020397991 -0.077892825 -0.089467525 -0.098281726 -0.10880775 -0.09069342
-0.03657349 -0.040602572 -0.057270084 0.043450076 -0.055930518 -0.08938807 0.02479038 -0.026219668
-0.11198014 0.08830772 0.061015908 0.027402895 -0.1373763 0.047125556 -0.03481348 0.11809533
0.082852624 0.06811922 -0.0092203785 -0.00037574163 0.08204269 -0.061353773 -0.12461119 0.109349236
0.0702279 0.0025556725 -0.03528732 -0.005301817 0.083318934 0.13247438 -0.086753994 0.047298234
-0.03640887 -0.092452854 0.056675185 0.01690067 -0.032818627 -0.10953444 -0.057109013 -0.10097006
0.012724278 -0.036341835 0.013557389 0.0037003758 -0.14860632 0.06942107 -0.09952326 0.07565891
0.017929282 -0.11747724 0.14382815 0.07922631 0.007894176 -0.14836213 -0.07516251 -0.0990972
0.1721838 -0.001883003 0.1194544 -0.16748847 -0.02081835 0.0762396 -0.0065767504 -0.014183754
-0.12716281 0.08356689 -0.015445734 0.21312872 0.07296682 -0.14534512 0.08652327 -0.1798874
-0.10631793 0.009608604 0.11365154 -0.008203556 -0.1454799 0.14949584 0.029023651 0.13993774
0.044619106 0.13721919 -0.036596797 -0.22897378 0.00037333305 0.09779114 0.12768742 0.13995224
-0.14454386 -0.110443905 -0.0029545897 0.047611475 -0.046253905 -0.008717608 0.1029445 0.083691984
0.08569296 -0.02110544 -0.13231815 -0.0341414 0.04862441 0.013441814 0.07894343 -0.100598186
0.052680917 0.097139716 0.11937835 0.123556696 0.13625151 -0.17273699 0.057406094 -0.032398503
0.1280169 0.08569303 -0.028117893 -0.020527814 0.056004487 0.07177553 0.028411487 0.07316399
-0.1957052 0.04293674 0.1592653 -0.029648677 -0.18513042 0.051959675 -0.029167175 -0.0745532
-0.15221336 -0.01447162 0.093184836 0.016545704 -0.009225092 0.13253538 -0.19730316 0.056346443
0.15200071 -0.14233857 -0.041845065 0.15747349 -0.17041048 -0.056319218 -0.03714204 -0.1584555
-0.18032219 0.08373288 0.115531236 0.08472169 0.025094049 0.051077444 0.03634295 0.09210116
0.13244927 -0.019596986 -0.05257318 0.10721768 0.12276426 -0.011790963 -0.0071798423 -0.06347174
-0.14642705 0.040292423 -0.02993241 0.118002705 -0.13158534 -0.04450321 0.09516054 0.12578014
0.029308734 0.11746123 -0.13030359 -0.08812621 -0.11516878 -0.109632865 0.12630197 -0.08501132
-0.06675996 -0.13972528 0.06239515 -0.021179112 0.080700204 -0.05010214 -0.10403182 0.019529976
0.032818083 -0.031966645 0.052647825 0.21280938 0.030248227 0.14246486 0.028890045 0.07769016
-0.11216237 0.017651225 -0.054829963 0.076521605 -0.015052138 -0.040215157 -0.06253049 0.037124746
-0.09863335 -0.06295307 -0.09996614 0.048771348 0.12468326 0.015485418 -0.13702317 -0.10519122
0.10239466 0.027297003 -0.060357403 0.068067394 -0.15143195 0.1162023 -0.010762502 -0.001881366

MLP.3.bias f4 [32]
00000000: a43d bf3d e16a dbbd 2e3a 13be c1fa e8bc
00000010: dcbe 223c 9e93 bbbb c910 633c 56de 943c
00000020: b884 dd3d 17a8 08be 6439 81bd aed8 14ba
00000030: 65d1 b9bc 69a6 5cbd bd91 d9bd 45d9 3abe
00000040: ece6 0dbd d1a3 a4bc 74c2 1abd 20a3 1b3e
00000050: 3f3c eebd 4468 e0bd 05e0 2f3e e8dd 16bc
00000060: 63f0 d43d 3b84 40bd bfdc 49bd 8acc 7e3d
00000070: 42af 03bd 0889 0c3d b77a 15be 115c ec3d
0.09337929 -0.10713745 -0.14377663 -0.028439881 0.0099332 -0.0057243844 0.013858982 0.018172424
0.1081633 -0.13345371 -0.063097745 -0.000567804 -0.022682855 -0.05386964 -0.106235005 -0.18246944
-0.034644052 -0.020097645 -0.0377831 0.15198946 -0.11632585 -0.10957387 0.171753 -0.00920818
0.10397413 -0.047001105 -0.049282786 0.062206782 -0.03214956 0.03431037 -0.14597593 0.11540998

MLP.5.weight f4 [32, 32]
00000000: 9d2d 683c cde0 06bd 7517 a43d 5c80 a6bd
00000010: ae22 67bd 2af8 c8bd 1327 223e 3ada 13be
00000020: 5a80 cd3b db9c 23bd 7b1d eabd c586 433d
00000030: 7340 19bd a00d 7d3b ea53 2d3d 104a 07be
00000040: a9ed 24bd 6d5a 263b f84e 993d 3ebd 923d
00000050: 6146 60bd cc71 863d ca20 c33d 72d3 bbbd
00000060: 84b5 d0bd f535 dd3b aa24 4c3c ff25 c93a
00000070: 93d4 cc3d df8d 60bd 9fe6 3cbd aa92 fbbc
00000080: 513b 633b 59c2 7dbd eb50 fabc 8a2d 063a
00000090: b7c0 93bd 2980 093e dba0 b6bd f633 9b3c
000000a0: 4c6b 633d 4354 2bbc 8d51 df3a 90ea 4dbb
000000b0: 7c02 70bd 94e0 353d c8f0 efbb 52ff 053d
000000c0: 8bf1 843d e2f8 a53c 08cb a4ba d787 13be
000000d0: 2420 f73c 4410 de3d b140 f83c 435c d6bc
000000e0: 578f 973d 60bb a33d f79d a53d f2a5 4bbd
000000f0: d72c 93bd 0c7a d43d 85c7 e63d b9b1 fc3c
00000100: 9209 d9bd 6404 89bd 26ce cd3b 1912 bc3d
00000110: 04ab 3f3d 41c7 37be 50b7 9dbd dea8 fe3c
00000120: fd57 833c a857 72bd 8d46 2ebc 25d2 1fbe
00000130: 4bff babd bfd4 f6bd dc78 273d 6252 ffbd
00000140: 4ea9 05bd 9aed a93d 7580 8ebd ff0a 003e
00000150: 7cb2 91bb 47cc b1bd 7541 b0bc 6a11 5fbd
00000160: eb6e c73c b533 373e 6ac1 18be 3096 c03c
00000170: c636 32bd 9331 f63d 6afc d23d 6a77 823d
00000180: 5654 6dbd 4102 d5bd cb5c c93d a8d4 38bd
00000190: a7f8 1a3e fce2 753e 3cd7 a93d a421 4ebd
000001a0: d18d 483c 1f66 71bd 3b44 7c3d 7e14 b43d
000001b0: a9e6 be3d 0235 ee3d 09e0 9abb 7686 a1bd
000001c0: e1c1 62bd 1a2a ce3d 9537 1dbd 69d5 a2bd
000001d0: c0e5 2a3d d69b d23d 5cdd 803d ecf2 fb3c
000001e0: 2ea6 aebd 8566 f9bc 2782 a1bd 055a 5dbd
000001f0: 6500 073d 22be 173e dfd3 893d 0dda 8b3d
00000200: c2ce b6bd 31db 863d 98d7 0fbd 6f9f a03c
00000210: 0a60 40bc a614 9cbd 9912 823d 210b aabd
00000220: 54ab ec3c 6f7f 70bd ef09 303c b5e8 df3d
00000230: 9888 a4bd d0de a9bc 0213 4d3d 4177 f8bd
00000240: dc7d 8e3d 1510 463d 9e6a ddbd d06b 5e3d
00000250: 1a1d aa3d 5c91 cd3d 8e18 13be cf70 7dbd
00000260: f189 8cbd 40e9 183d 0834 7a3d 7515 d13d
00000270: bbe5 76bc 5de5 2ebd c770 f63c 37c3 b33d
00000280: da2d 8abd 6c4b 91bd 5877 113e 0097 ebbd
00000290: fa91 d2bd 5ff8 d0bd 0349 973c 1409 4d3d
000002a0: af4d 543d c016 6cbd 7050 f6bd cdc1 d93d
000002b0: b8a8 533d 1861 56bd a2c0 983d fb70 6bbd
000002c0: 57e4 e93c d306 60bd 7a2d 853d 583c b13d
000002d0: 866a 8dbd e079 c73c 3274 0f3e 1a7f 2c3e
000002e0: f636 c6bc fcde b73d 664d aabd 95a9 67bc
000002f0: 093a 97bd 4b48 3e3d 45cb c93d 9b18 1e3e
00000300: 9958 9d3d 7195 693d 1555 f2bd 8c78 7e3d
00000310: 3b18 323d 4a25 8ab8 fb23 8fbc f1c3 e5bd
00000320: 346b e83d f3b9 203d efa4 833d 9d28 633d
00000330: 205c 8b3d 4c09 7d3d 37ea 44bd 3a2b 02be
00000340: 2068 db3c 45a8 1c3c a4bf c73d 2326 bdbd
00000350: dec1 013d 542e c93d 86a3 23bd 84f2 aa3d
00000360: 51c8 c03d eb80 783c 2a18 693d ee84 babd
00000370: abf2 0e3e 822a f6bd b270 96bc cda9 fdba
00000380: ceb0 e8bc ee84 1a3d e6ad 1e3c edad 713e
00000390: 16b7 04be c2ce d6bd efdc eabc e6be b8bd
000003a0: 63ed 8abc c7b0 91bd 12e2 59bd 7cf1 39bd
000003b0: e0b0 0dbd 633a d6bd 8bb7 b3bd 52ef 593d
000003c0: cb93 9cbc 2743 d5bd a491 44bd d9cb 103d
000003d0: 4b73 d0bc 4b47 adbd 5212 cbbc 0444 fd3d
000003e0: 9567 233e 632d 64bd b97a 1c3d d1b4 173d
000003f0: 143c 1b3e 68c3 3f3e 39f4 96bd 07e2 ee3c
0.014171031 -0.03292923 0.080122866 -0.08129951 -0.056429558 -0.098129585 0.15835218 -0.14438716
0.006271404 -0.03994451 -0.11431404 0.047735948 -0.03741498 0.0038612857 0.042316355 -0.13211846
-0.040265713 0.0025383488 0.07485765 0.07165001 -0.05475462 0.06564674 0.095277384 -0.09171189
-0.10190871 0.006750817 0.012459913 0.0015346407 0.10001483 -0.0548228 -0.046118375 -0.030709583
0.0034672807 -0.061952922 -0.030556163 0.000511848 -0.07214492 0.13427795 -0.089173995 0.018945675
0.05552225 -0.010457101 0.0017037854 -0.0031420328 -0.05859612 0.044403628 -0.0073224045 0.032714196
0.06491383 0.020260278 -0.0012572715 -0.14407288 0.030166693 0.10842946 0.030304285 -0.02616704
0.07400387 0.07994723 0.0808677 -0.049718805 -0.07186287 0.10374841 0.11268524 0.030846464
-0.105975285 -0.066902906 0.0062806783 0.09183139 0.046793953 -0.17947103 -0.0770098 0.031086382
0.016033167 -0.059165627 -0.010636938 -0.15607508 -0.091307245 -0.12052297 0.040886745 -0.12466885
-0.032632165 0.08297272 -0.06958095 0.12504195 -0.004446326 -0.08681541 -0.021515587 -0.054459967
0.024344882 0.17890818 -0.14917532 0.023509115 -0.043509267 0.12021174 0.103020504 0.06370433
-0.057941757 -0.104008205 0.09832152 -0.04512468 0.15133916 0.24012369 0.08293006 -0.05032505
0.012240843 -0.05893528 0.061588507 0.08792971 0.09321339 0.11631204 -0.004726414 -0.078869745
-0.05536068 0.10066624 -0.038383085 -0.07950861 0.041723013 0.102836296 0.06292221 0.030755483
-0.0852779 -0.030444393 -0.07886153 -0.054040927 0.03295936 0.14818624 0.06729864 0.06828699
-0.08926155 0.06584776 -0.035117716 0.019607274 -0.0117416475 -0.07621126 0.063512035 -0.08302904
0.02889029 -0.05871528 0.010744556 0.10933057 -0.08033866 -0.020736128 0.050066955 -0.12132121
0.069575995 0.04835518 -0.10811351 0.054302037 0.08306332 0.10037491 -0.14364836 -0.06187516
-0.06862248 0.03733182 0.061084777 0.10209171 -0.01506942 -0.042699207 0.030083073 0.08777469
-0.06747027 -0.07094464 0.14205682 -0.1150341 -0.10281749 -0.10203623 0.018467432 0.050057486
0.051831897 -0.057638884 -0.12027061 0.10632668 0.051674575 -0.05233869 0.07458617 -0.057480793
0.028551264 -0.054694008 0.065028146 0.08654088 -0.06905083 0.024350107 0.14009169 0.1684536
-0.02419613 0.08978078 -0.08315544 -0.014139553 -0.07384116 0.046455663 0.09853224 0.15439074
0.07682914 0.057027284 -0.11832634 0.06212668 0.04348014 -6.5872984e-05 -0.017473212 -0.112190135
0.113485724 0.039239835 0.06427943 0.055458654 0.06804681 0.061776444 -0.048074927 -0.12711802
0.02678305 0.009561603 0.097533494 -0.092357896 0.031679027 0.098232895 -0.03995087 0.083470374
0.09413207 0.015167455 0.05690781 -0.091073856 0.13959758 -0.120198265 -0.018364284 -0.0019352973
-0.02840462 0.037724428 0.009685015 0.23601504 -0.12960467 -0.10488655 -0.028669802 -0.09020786
-0.016958898 -0.07113796 -0.053194113 -0.045396313 -0.03459251 -0.10460355 -0.087752424 0.05320675
-0.019113442 -0.10413199 -0.047990456 0.035350654 -0.025445601 -0.08460864 -0.02478901 0.123664886
0.15957482 -0.055707347 0.038202975 0.037037674 0.15159637 0.18726885 -0.073708005 0.029160513

MLP.5.bias f4 [32]
00000000: af93 cabd 7968 003e 2191 f03d 04e7 85bd
00000010: f689 0c3e f672 febd d26f 5f3d dd87 f33c
00000020: 2b71 8ebd 704a f3bd 9913 d2bd aa07 8f3d
00000030: 9e3c 36be faee 0d3b ac2b 53bd e18c da3d
00000040: baf7 ab3d f665 62ba a30f 0d3e 2379 9fbd
00000050: 55c0 183d 7830 aa3d 8131 29bb 98f7 f73d
00000060: 9236 193d abfb c63d 5d92 94bd 7e92 ad3d
00000070: d37e 07be 0b9d 87bd d548 cabb da93 aa3c
-0.0989145 0.12539853 0.11746431 -0.06538203 0.13724503 -0.12424271 0.05455 0.02972787
-0.06955179 -0.11879432 -0.10257644 0.06983884 -0.17796561 0.0021657334 -0.05155532 0.10671402
0.083968595 -0.0008636409 0.13775496 -0.07786777 0.037292797 0.08310026 -0.002581686 0.12107772
0.037405558 0.097159706 -0.07254479 0.08475207 -0.13231973 -0.066217504 -0.006173233 0.020822454

MLP.6.weight f4 [32]
00000000: 9f91 533f 4913 483f 9043 1f3f 9b72 4e3f
00000010: a4a5 423f c085 4a3f a0cf 553f c454 483f
00000020: d2a8 403f 8447 443f c459 2e3f 4fe8 443f
00000030: 555a 443f 593d 253f 7ccd 563f 3952 443f
00000040: f77c 523f 4a7b 443f b18f 473f a1a2 4f3f
00000050: bbe3 4d3f 33bb 3f3f 2b47 583f ea26 533f
00000060: c22d 333f 9328 533f 7ce3 593f e470 253f
00000070: eef3 503f a403 2d3f 10e6 573f b5cb 103f
0.82644075 0.78154427 0.6221247 0.80643624 0.76034 0.79110336 0.83519936 0.7825434
0.752576 0.76671624 0.6810572 0.76916975 0.76700336 0.64546734 0.83907294 0.7668796
0.8222193 0.76750624 0.7795363 0.81107527 0.80425614 0.7489502 0.84483594 0.82481253
0.69991696 0.82483786 0.8511274 0.6462538 0.8162221 0.6758368 0.8433542 0.5656083

MLP.6.bias f4 [32]
00000000: d0ef 9ebb 64dd 573d d181 63bc 51be 3c3b
00000010: 6587 37bc 8f5c e13b b277 87bb 679f 9ebc
00000020: 834c 1dbc ecd6 7cbb bb88 953b d8a2 d2bc
00000030: bf74 7ebc 98f0 98bb 0f90 f73c 2b16 723c
00000040: 83c2 ffbc 0049 57bc ed8f a23b fbd6 803b
00000050: 8f0c 52bc 91cf cebc 1cc8 a5bc fc8b 6fbb
00000060: b34f 9c3c 3c17 6dbc c7cf 153c c019 f33c
00000070: de49 b03a c673 47bc 0a6f af3c 5e16 113c
-0.004850365 0.05270137 -0.013885931 0.002879996 -0.011201714 0.006877489 -0.004134142 -0.019363118
-0.009600761 -0.0038580252 0.0045634187 -0.025712416 -0.015530764 -0.004667353 0.03022006 0.014775793
-0.03122068 -0.013139963 0.004961005 0.0039318777 -0.012820377 -0.02524546 -0.020237021 -0.0036551943
0.019080972 -0.014470872 0.009143776 0.029675364 0.0013449749 -0.012173599 0.021415252 0.00885543

MLP.8.weight f4 [32, 32]
00000000: 3378 eabd fcd7 163e ab7f 373e 4173 8a3d
00000010: 28d3 9a3c 3ceb afbc 81c2 0fbb 8acd 323d
00000020: 7228 5fbe 5df4 b83d 1be7 a53b afba a13d
00000030: 8df9 26be 512e f73c 6178 6a3d dde8 0ebe
00000040: 2b0f 60be 415e 25be d47a 0f3e 7836 d5bd
00000050: fdb7 a1bd 8bf3 11bd fb4c 293e 1d51 453e
00000060: 9ab5 de3d 27e4 37be 8c5c 2e3e a4a8 b93d
00000070: e848 f3bd 1bfa eabd 14ee b83d 72b7 26bd
00000080: 7b94 d401 18ec ae81 f639 e981 a1a0 3701
00000090: 5e39 b581 181f e880 908a ce81 67f8 b401
000000a0: ed34 c481 c29f c201 e818 ff01 1e10 2700
000000b0: cac8 ff01 2025 fc01 4bc5 0582 e841 fa80
000000c0: 3399 cb01 6d5b 0e02 2fac cb81 361d c081
000000d0: 689e 5200 38a5 8e01 88de a081 515f 1502
000000e0: 8b4b d101 9735 8a81 2265 8f01 2012 9881
000000f0: d86b 4181 92d2 c081 ee34 be81 7a58 c201
00000100: 7eec edbc 2392 b5bc ca47 7bbd 2d1a 13be
00000110: e975 f2bc 7b53 e2bb ceed 783c eee2 31bb
00000120: 828f a43c e68b 4bbd 47e7 593d 5da2 8cbd
00000130: fae7 d4bc 41f2 16bd 1233 103d b140 923c
00000140: 0925 afbc 34db dfbb 45cc 87bd e94a 423d
00000150: 1685 f0ba 0904 38bb 115d 913c fdd8 12bd
00000160: b973 c43d 9801 08bd f227 6a3c 103e 3439
00000170: f8cf 86bc 644f 7b3d 1171 4a3c 6839 3c3d
00000180: 3582 b33d 9e6d a5bd 5ef7 0e3d 858a 27be
00000190: b08a 013e dce1 b93d 45b3 fd3c 5758 ba3c
000001a0: 360a cebc 64a0 3cbd 4231 f1bd a5ed 333d
000001b0: 88af c2bd a744 aa3d 4782 debd 997b 7fbd
000001c0: d450 2b3c ee59 b93d 5956 9fbd 55af 473d
000001d0: 3c83 36bd cca9 25bd 39d8 233b e6f2 5d3d
000001e0: 0297 0b3e af77 40bd 6f04 623d 3b2a b23b
000001f0: 40f2 873d 91e3 303d af19 b33d a911 853c
00000200: 8baa ccbd 9863 313d f102 c93d 81df 2d3e
00000210: a026 2b3e 7170 93bd 3b4c d13d c898 46bb
00000220: 27ab 113e b374 943d 6665 35be dcac bc3c
00000230: f44b 84bd ad78 653d c0dc a1bd 57bf ac3d
00000240: fd2f 47bd 9a17 35be 3dfc 843b 0b37 a63c
00000250: 3bda bb3d 0830 26be 16ab 47bd cc69 cdbd
00000260: 0383 6abd e0cc f0bd 105d a53d c860 85bd
00000270: 67ed 6fbd 6cf2 0a3e e1f7 0b3e b0c1 96bd
00000280: f0d0 c3bd d0dd 64bd fc39 29bd d4f6 e0bd
00000290: 93bc d4bd 15fa c03d 818f 873d 081e 2f3d
000002a0: afd4 67bc 19be 16be 1946 28bd 5eca a93d
000002b0: 03d4 193e 4ff2 5c3d 5057 8ebd 2ea4 98bc
000002c0: f2ad fabd 067d 29be 68d9 e9bd c257 2abe
000002d0: 69de 4abd 3a4c 9ebd 90d8 0a3e 2dd3 043e
000002e0: d1e1 9bbd e7c5 06bb dadd cd3d 7f82 1e3e
000002f0: 8c84 6a3d b961 8abd 3938 c03d f01f 963d
00000300: ac69 4c3d 40df 463c 1bcf 4d3d cb12 06be
00000310: 55bf b83c 1ef1 213d 0c59 713d 0ea8 e4bd
00000320: 97fa 04bc 1379 b2bd d798 f83d 66f8 11be
00000330: 8630 783d 6dca 94bd 894d 803d 1f67 ddba
00000340: 0283 2fbd c71d d73d 70fb ac3d aaaf bb3d
00000350: 1d02 a3bd 34d7 643c 8595 8b3b bd14 48bd
00000360: 9d8e bbbc bc19 d43d 6a8a 83bd e68b a83d
00000370: 012b 903d 46c4 60bc 8b27 61bc 086a b73d
00000380: 3ac4 4d3d 1297 b23c 5cfe ce3d 9d79 023d
00000390: 8f6e 1abe eb20 fbbd 4d0e c3bb 19c1 793d
000003a0: 8cdc dabc 81ff 0e3e 8612 ca3d 0e40 d53d
000003b0: 72b6 293d 8905 273e 5b1a 29be 1405 9f3d
000003c0: f15d d3bd 2ec6 5dbd a004 1e3e fe1d 0bbe
000003d0: b0b7 d93c 39b2 11be 7e9c 833d 1dc8 b63a
000003e0: 3551 f53d 3717 bdbc e1dd 263e a16d 01be
000003f0: 5765 eb3d 9e36 473d 6ce3 3c3d a970 1a3d
-0.114487074 0.14730829 0.17919795 0.06760264 0.018899515 -0.021474473 -0.0021936002 0.04365305
-0.21792772 0.090309836 0.0050629503 0.07896935 -0.16306134 0.030173453 0.05724371 -0.13956018
-0.21880786 -0.16149236 0.14011699 -0.1041078 -0.07896421 -0.03563265 0.16533272 0.19269224
0.108744815 -0.17958127 0.17027491 0.09065369 -0.1187914 -0.11473485 0.09029785 -0.04070229
7.808956e-38 -6.4256283e-38 -8.567385e-38 3.3727037e-38 -6.6571217e-38 -2.131699e-38 -7.5871276e-38 6.6477997e-38
-7.2074974e-38 7.1493586e-38 9.3707945e-38 3.587366e-39 9.3960324e-38 9.262345e-38 -9.827917e-38 -2.2982517e-38
7.4790253e-38 1.045875e-37 -7.4817494e-38 -7.0571577e-38 7.587336e-39 5.239964e-38 -5.9094034e-38 1.0974146e-37
7.6882874e-38 -5.077009e-38 5.267502e-38 -5.586199e-38 -3.5525876e-38 -7.0831815e-38 -6.987093e-38 7.13913e-38
-0.029043432 -0.02216441 -0.06134776 -0.14365454 -0.02959724 -0.0069069243 0.015193416 -0.0027143317
0.020087961 -0.049693964 0.05319908 -0.06866906 -0.025989521 -0.036852125 0.035204954 0.017853113
-0.021379964 -0.006831551 -0.06630758 0.04743472 -0.001835021 -0.0028078577 0.017744573 -0.035851467
0.09592385 -0.033204645 0.01429175 0.00017189258 -0.01645659 0.06135501 0.012356059 0.045953184
0.087650694 -0.080775484 0.034903876 -0.16361435 0.12650561 0.090762824 0.030969271 0.022747202
-0.025151353 -0.046051398 -0.11776973 0.043927807 -0.09506136 0.08313876 -0.10864692 -0.06237373
0.010456283 0.09050356 -0.077801414 0.048751194 -0.04455875 -0.040445134 0.0025000705 0.054186724
0.13631824 -0.04698914 0.05518001 0.005437163 0.066380024 0.043185774 0.08745133 0.016243773
-0.09993466 0.04330787 0.09815014 0.16979791 0.16713953 -0.07199181 0.10219618 -0.0030303467
0.14225446 0.07248821 -0.17714462 0.023031645 -0.064597994 0.05602329 -0.07903433 0.08434933
-0.04862975 -0.17684785 0.0040583895 0.020289918 0.091724835 -0.1622926 -0.048747145 -0.10029945
-0.05725385 -0.11757827 0.08074391 -0.065126 -0.058576014 0.13569039 0.13668777 -0.07361162
-0.09561336 -0.0558756 -0.041315064 -0.10984579 -0.1038753 0.09422699 0.06619168 0.04275325
-0.014149829 -0.14720954 -0.041082475 0.082905516 0.15022282 0.05394202 -0.06950247 -0.018632974
-0.12240209 -0.16551599 -0.1141842 -0.1663504 -0.049528513 -0.07729383 0.13559175 0.12971182
-0.076114304 -0.0020564736 0.100520805 0.15479468 0.057255313 -0.0675692 0.093857236 0.0733031
0.049905464 0.012138188 0.05024634 -0.13093106 0.022552172 0.039536588 0.058922812 -0.111648664
-0.008116386 -0.08714499 0.12138527 -0.14254913 0.06059315 -0.07265172 0.06264789 -0.0016891694
-0.04284955 0.105037265 0.084463954 0.09164365 -0.079593875 0.013967324 0.0042597675 -0.048847903
-0.022895152 0.10356471 -0.06422885 0.082298085 0.07039452 -0.01371867 -0.013742338 0.08955771
0.050235964 0.021800552 0.10107109 0.03185426 -0.15081237 -0.12262138 -0.0059526325 0.060975168
-0.026716493 0.13964655 0.09866814 0.10412608 0.04143376 0.16310705 -0.1651396 0.077646405
-0.10320652 -0.054144077 0.15431452 -0.1358566 0.026576847 -0.14228143 0.06426333 0.0013945136
0.1197838 -0.023082359 0.16295578 -0.12639476 0.114939384 0.04863607 0.046115324 0.037705097

MLP.8.bias f4 [32]
00000000: bf3b c6bc bb2e e081 aca2 883c 3e5f a9bd
00000010: db0c 60bd 5894 92bd 9afc 943d 0992 d53d
00000020: 2af6 c9bd 0e4d d83d 7757 ce3c 2e29 81bd
00000030: d4ca 843d b84f 053d c15c 3281 0d28 0ebe
00000040: bae8 d9bd be90 2cbd 7946 cd3d d28d 15bc
00000050: 164d c6bd 8f1c 06be 063f 36bc e305 113e
00000060: a1ef babb 909d e1bd 371d 113e c25f a3bb
00000070: 4a55 b8bc 4697 97bd 7a2e e53b 6ef1 1b3c
-0.024198411 -8.235166e-38 0.01667913 -0.08270119 -0.05469976 -0.071572006 0.072747424 0.104282446
-0.09861405 0.10561572 0.02518819 -0.063066825 0.06483999 0.03254673 -3.2759984e-38 -0.13882466
-0.10640092 -0.042130224 0.10023207 -0.009128051 -0.09682672 -0.13096832 -0.011123424 0.14162402
-0.0057048355 -0.11016381 0.14171301 -0.0049857805 -0.022501606 -0.074019 0.006994066 0.009518011

MLP.10.weight f4 [32, 32]
00000000: 5d61 69bd 1ad8 8481 c62c 96bd efcc c73d
00000010: ec83 1abe bb49 063e 689d 923d 28bd 3bbd
00000020: 7ed3 a4bd 7651 1abe 7371 ef3c e970 f1bb
00000030: 1fc6 0bbe 9be9 463d 5f17 f601 27e8 46bd
00000040: ab5f ea3d 4f1d 1dbd 8070 803c cedd bfbd
00000050: 5f1f 303c 7828 073e 9527 2bbb 8d56 8f3d
00000060: ff65 72bd c556 c93d 16a3 0cbe 2409 833d
00000070: 4221 0c3e 58d3 bc3c 95b6 b4bc acb4 803d
00000080: bda4 a4bd beeb d481 cb49 5f39 994e de3d
00000090: d8d0 d4bd 7718 523b ac78 fabc 9f6c 8dbc
000000a0: d817 873d e661 37bd 819a a73c b433 2fbd
000000b0: 4c66 f0bd 03ac b1b9 1d87 c801 2180 84bd
000000c0: 7640 293c 269f 353d 3418 70bc f6c7 3cbd
000000d0: 581a 213e 1446 043e b0c8 19be 4f55 6ebd
000000e0: b850 813d 4457 083e 1e17 a4bd c85c 463c
000000f0: 3bd3 ae3c 31e8 533d 6c79 8ebd 5fc6 c73d
00000100: cda6 293e db2d 3b00 7af3 5abc f9fa 183c
00000110: 3beb ea3d ee90 e33d 2416 1ebd 1957 8d3d
00000120: 8598 7d3d 6311 c93c ebe7 863c d681 82bd
00000130: e388 7d3d d929 713b eda9 dc01 a747 8d3d
00000140: 9930 cc3d 5a7b ae3d 0eb5 333d 7778 813c
00000150: 5e6e 863d 3ebd aabc 6383 acbd 0cae 763c
00000160: bee9 8dbd f7a9 1a3d b799 563d 8993 1b3c
00000170: f07f 2cbd d74f ec3c 5827 c93b f3d9 bd3d
00000180: b491 933d 7fa2 b101 c2a3 bfbc 3f11 e33c
00000190: 04ad 30be 3c32 20be ee03 d4bc d432 e03d
000001a0: 9fa0 84bd 3b05 0d3e a610 e2bc 3338 363c
000001b0: 7485 1a3e b490 6fbc e0b1 af01 b62d b03a
000001c0: 7dc1 0bbe 46c8 1f3d 009c ebbd b07b 483d
000001d0: 2379 b53d 8e16 e7bc e6b3 233d 76dc 953c
000001e0: c7f9 c03d 48db 133d 778f 8ebd 6557 a9bd
000001f0: 9cf2 fcbc df16 bd3d 2817 513d c36b f4bd
00000200: 0eed ac3d 568c b681 7314 403d 5423 eb3d
00000210: d500 16be de57 efbd c856 143d 30f2 b63d
00000220: c306 cb3c f823 1f3e 7c44 fe3c 73ca 47bc
00000230: b8d9 423e da1c d43b 2967 d901 f6d6 833d
00000240: 10bd edbc ef17 1f3e 3d88 ce3d 933e 7d3c
00000250: f00d bdbd ccd1 543d 65d4 c43d 74a5 0a3c
00000260: 738b 1e3e deeb a5bd e70c 36bd 8bd6 a13d
00000270: 7855 c43d 04ab 023e 07cc 8b3d 2e9b 073e
00000280: 54cf 243e adcc 9581 3085 d53d f1e4 083e
00000290: 6969 f1bd 7465 19bd 08ac 153d f808 cd3d
000002a0: 4b13 a0bd 4635 b7bd 1d1c 103c 42f1 3bbd
000002b0: a58a b9bd e1bb 07bd 9edc 9881 da03 483b
000002c0: 91aa f9bd 38db 7a3e 5804 893c 40b6 753d
000002d0: f294 e43d 6052 61be eb61 0abe 4f98 47bd
000002e0: f0db abbd a705 013c 595b 9f3b 70a3 303c
000002f0: 2a77 713d bbdf 31be a8fd 8abb fbfd 003e
00000300: 1906 063e 2ce4 a401 63b8 143d 3f13 8dbd
00000310: 3fa0 e2bb 1e51 3dbe 9eb1 ad3d 9508 de3d
00000320: c9b2 5fbc 985d 45bd f06c 643d 0a2f a23d
00000330: 8d18 f2bc 6919 9e3d 45d2 df01 2534 303d
00000340: 8ada bdbd 5f04 57be 052a 213e 4f0b 043d
00000350: f622 f4bd ec95 b03d b2dc c1bd d85c 8f3d
00000360: 4dee 77bd 32ea 0fbe 04e4 753d 9d5f 643a
00000370: d53b babd 16c9 3abd 8a26 d63d b1f8 d7bd
00000380: 35ad ff3d f117 b301 abeb 2c3a 7a71 19bc
00000390: bd2e 1fbe 0790 30bd 4e89 edbc 1e2c 08be
000003a0: 5b76 8a3c e421 11be d34a 2a3b b361 873d
000003b0: b556 aabc d005 e7bb 1b06 db01 1099 743d
000003c0: 8bb3 033e dddc 99bd 0130 b0bd ae43 c73c
000003d0: 52dc 62bd 7544 813d 1ba0 1fbe 7690 0d3e
000003e0: e4ae ef3d b628 e33d 9d9e a83d 01bd d7bc
000003f0: b0c0 e83d 75b0 133d 4a5e 543d 7ee8 25bd
-0.05697762 -4.879923e-38 -0.073327586 0.09755885 -0.15089387 0.13114063 0.07158929 -0.04583469
-0.080481514 -0.15070137 0.029228901 -0.0073681963 -0.13649796 0.048562627 9.0399664e-38 -0.04856124
0.114440285 -0.03835803 0.015678644 -0.09368478 0.010749667 0.13199031 -0.0026116122 0.0699893
-0.059179302 0.09831003 -0.13734087 0.06398228 0.13684562 0.023049995 -0.022059718 0.062844604
-0.08039234 -7.8214774e-38 0.00021294427 0.10854835 -0.10391396 0.003205804 -0.030575119 -0.017263709
0.06596345 -0.044771098 0.020459415 -0.042773917 -0.117382616 -0.0003388823 7.3662275e-38 -0.06469751
0.01033031 0.04434123 -0.014654208 -0.046089135 0.15732706 0.12917358 -0.15017962 -0.058186825
0.06314224 0.13314539 -0.08012222 0.012107082 0.021340957 0.051735107 -0.06956753 0.09754633
0.16567536 5.434744e-39 -0.013363713 0.00933718 0.11470648 0.111116275 -0.038595334 0.06901378
0.061913032 0.024544423 0.016468009 -0.063724205 0.061898123 0.0036798625 8.105907e-38 0.06898432
0.09970207 0.08519621 0.04387384 0.015804512 0.065640196 -0.02084219 -0.084234975 0.015056144
-0.069293484 0.037759747 0.052392688 0.009495624 -0.0421142 0.028846664 0.0061387233 0.09270086
0.07205525 6.52527e-38 -0.023393515 0.027718185 -0.172535 -0.15644163 -0.02588078 0.10947195
-0.064759485 0.13771527 -0.02759583 0.011121797 0.15089971 -0.014621902 6.4540085e-38 0.0013441357
-0.13648029 0.039009355 -0.11504364 0.048946083 0.088609956 -0.028208997 0.039966486 0.0182936
0.09422641 0.036097795 -0.069609575 -0.08268622 -0.030877404 0.09232878 0.051047474 -0.119346164
0.08443652 -6.7057613e-38 0.046894502 0.11481348 -0.14648755 -0.11686681 0.036215574 0.08932912
0.024783498 0.15541065 0.031038515 -0.012194264 0.19028366 0.006473166 7.986124e-38 0.06437485
-0.029020816 0.15536474 0.10084579 0.015456813 -0.09231174 0.05195789 0.096108235 0.008462299
0.15482883 -0.08101629 -0.0444459 0.07902249 0.09586614 0.1276055 0.068260245 0.1324279
0.16094714 -5.502765e-38 0.10425794 0.13368584 -0.117876835 -0.03745027 0.036541015 0.10011476
-0.0781618 -0.08945708 0.008795765 -0.04588438 -0.090596475 -0.03313816 -5.615255e-38 0.0030519874
-0.12190736 0.24497688 0.016725704 0.05998826 0.111612216 -0.2200408 -0.13513915 -0.048729237
-0.08391559 0.007874883 0.0048631844 0.010781154 0.058951534 -0.17370503 -0.004241664 0.12596886
0.13088264 6.0571496e-38 0.036308657 -0.068884365 -0.0069160755 -0.18487975 0.084811434 0.10841481
-0.013653466 -0.04818496 0.055767953 0.07919128 -0.029552722 0.0771969 8.2218985e-38 0.04301848
-0.09270199 -0.20997761 0.15738685 0.032237347 -0.11920731 0.08622345 -0.094659224 0.070001304
-0.060529996 -0.14054182 0.060031906 0.0008711757 -0.09093443 -0.045601927 0.104565695 -0.10545481
0.124842085 6.578857e-38 0.00065963966 -0.009365434 -0.15545173 -0.043106105 -0.028996136 -0.1329808
0.01690214 -0.14173084 0.002598454 0.066104315 -0.020793298 -0.0070502535 8.0456656e-38 0.059716284
0.12861459 -0.075128295 -0.08602906 0.024324264 -0.055385895 0.06311885 -0.15588419 0.13824639
0.117032796 0.11091749 0.08233378 -0.026335241 0.11364877 0.036056954 0.051847734 -0.040504925

MLP.10.bias f4 [32]
00000000: d214 78bc 0dbe bb3d ee53 a73c 0903 b93c
00000010: 50be 1ebe db99 aabc 32b0 18be e7e8 e9bb
00000020: e0e0 16be a00a 05be c94e 16bd 280d 73ba
00000030: 3c1d 2a3d d354 ff3d 18d9 22bd 989a 24bc
00000040: 7218 3b3d 392d 90bb 107a 343d 1960 03be
00000050: af87 073e ef54 1d3d e13f 2ebd d57e d5bc
00000060: e689 4a3d a658 0abd 19f0 5bbc 296f 223e
00000070: 1867 17be a0e9 2c3e be91 02be 8b32 293d
-0.015141683 0.09167109 0.020425763 0.022584455 -0.15502286 -0.020825317 -0.14910963 -0.00713836
-0.1473422 -0.12992334 -0.03669623 -0.0009271675 0.041531786 0.12467351 -0.039757818 -0.010046624
0.04567761 -0.004399922 0.04406172 -0.12829627 0.13235353 0.038411077 -0.04254139 -0.026061455
0.049447916 -0.033775948 -0.013423943 0.15862717 -0.14785421 0.16885996 -0.12750909 0.041307967

MLP.11.weight f4 [32]
00000000: 94b6 713f f433 733f 9053 6d3f c0d5 6a3f
00000010: 098f 733f a701 6c3f dd30 613f 9eb1 563f
00000020: 2e82 563f 07c3 6a3f 95a8 753f 3c77 4e3f
00000030: 3e48 4e3f 34ca 5e3f 0a0b 6b3f b019 693f
00000040: b66f 6d3f a7e3 723f b5ab 633f 61d1 6f3f
00000050: f7fe 753f fc35 493f 8483 733f 09b3 6d3f
00000060: 637c 6a3f e73c 6e3f 38e3 5e3f f82b 6e3f
00000070: bc73 4b3f 60f0 743f 17ee 683f 67da 6a3f
0.9441922 0.9500115 0.9270563 0.91732407 0.9514013 0.9219002 0.87965184 0.8386477
0.8379239 0.9170384 0.9596036 0.8065069 0.8057898 0.8702729 0.9181372 0.9105482
0.9274858 0.9487862 0.8893388 0.9367886 0.9609217 0.78598 0.9512255 0.9285131
0.9159605 0.9306168 0.8706546 0.9303584 0.7947347 0.95679283 0.90988296 0.91739506

MLP.11.bias f4 [32]
00000000: 6aa0 00bb ee6d 163b 69f0 fdbb 8009 37bb
00000010: 4e34 1a3c 7a20 07bc b74f 7c3a 87bc 873b
00000020: 88d7 0c3c ab42 143c 7c75 25bc 23e9 d03a
00000030: f4ff ea3a 9a3b df3b 8c08 78bc f032 aa3b
00000040: 936a 013c ecfb 0f3b 5fe2 0abb b29a 29b8
00000050: 53a1 ef3a a7b1 57bb ab93 8f3c 0fc4 bd3b
00000060: f9b4 d93a 108e 9b3b c413 eaba c28b 90bb
00000070: ba5d 053c 7a65 203c 0865 ac3c 245c 82ba
-0.0019626864 0.0022953707 -0.0077496064 -0.0027929246 0.0094118845 -0.008247489 0.00096249155 0.0041423473
0.0085963085 0.009049098 -0.010098811 0.0015938621 0.0017929063 0.006812525 -0.0151387565 0.0051940605
0.007898944 0.0021970225 -0.0021192057 -4.043681e-05 0.0018282331 -0.0032912286 0.017526468 0.0057911943
0.001660972 0.00474716 -0.0017858674 -0.0044111917 0.008140022 0.009789819 0.02104427 -0.0009945673

MLP.13.weight f4 [4, 32]
00000000: 6fd6 e83d 201e 03be 3bad 17bd f9cd 08bd
00000010: bd4d b0bd a5e0 a83d e293 c1bd 2641 c5bd
00000020: ed5a 94bd ca72 21be 79a5 073e dbe3 cb3d
00000030: a6df 6e3d 74eb f13c 5b92 063e cebf 0ebd
00000040: d7a2 033e c470 5bbd 0959 573d f33e d3bc
00000050: 58b8 c93a 190c bc3d 16c8 a6bc cc90 14be
00000060: 636a 35bd 586c eebc de7a 52bd 402d d33d
00000070: 83b7 57bd 419c a5bd b9e5 2cbd e576 9d3d
00000080: 5910 d2bd a257 84bd a06e 9ebd d984 1ebc
00000090: 3bbf 60bd 3784 fd3d 7a47 7dbd 225e 943b
000000a0: a01a 6ebd e210 8cbd ed7e 8c3b 9225 b53b
000000b0: d84f b53b d6e0 1b3d 86a1 5bbd 8511 59bd
000000c0: 046a da3d 59d6 a23d efea da3c 15c2 113e
000000d0: ba5f c7bb f893 013c f52f e5bc 8487 333d
000000e0: a25b e2bc 12fd 543d a593 28bd 21b6 d8bd
000000f0: 2d0b 993c ece6 75bd 7e4c 5cbd 8c0b 04bd
00000100: 3b90 9c3d 977f 053e a483 9e3d 4f15 a7bd
00000110: c7de a93d 8914 8c3d cbcd 11bd 1844 53bd
00000120: 9498 babb 2bd7 3b3b 00b1 eebd ecb7 d93c
00000130: dc0b cabd 7e78 97bd 46f6 5b3d e527 853d
00000140: 7132 11bc 71d4 e93d a3e7 853d 8f15 00be
00000150: 756c 063e c060 7d3c 72b6 03be 9fee ea3d
00000160: 27e6 bd3d 314b f1bc d923 913c a0bf 803d
00000170: 8ff3 b4bc 0398 fd3d 6536 babd 9c6b bbbd
00000180: f8ac 2cbd 4217 babc 5c72 fb3b 0091 ac3c
00000190: 51f2 ecbb 586d 03bd eacb 73bb c4d0 8f3c
000001a0: c3a5 57bc f586 7abd b11a 33bc cf8a 453c
000001b0: 1de2 0ebd 4d05 0a3c d9e0 ebbb 8398 80bc
000001c0: a915 52bb 9e0a 5c3c 8da4 09bd d3ca 2bbc
000001d0: 8063 fd3b df29 303d 3515 983c 20b3 e63c
000001e0: fe54 353d 00d2 85bd 01cd 923d 942b 7fbb
000001f0: 5925 833d f9bd 7f3b faad 40bd 750d 2a3d
0.11369025 -0.1280446 -0.03703044 -0.033399556 -0.086085774 0.082459725 -0.094520345 -0.09631567
-0.07243905 -0.15766445 0.13246717 0.09955569 0.058318757 0.029531218 0.13141768 -0.034850888
0.12855087 -0.05357434 0.052575145 -0.025786852 0.0015390022 0.09181995 -0.02035908 -0.1450836
-0.04429091 -0.029104397 -0.051386707 0.10311365 -0.052665245 -0.08086444 -0.042211268 0.07688693
-0.10257024 -0.06462027 -0.07735944 -0.009675228 -0.05486987 0.123787336 -0.061835743 0.004527823
-0.05813086 -0.06839158 0.0042875917 0.0055281604 0.0055331998 0.038056217 -0.053620838 -0.052995224
0.10664752 0.0795104 0.026723353 0.14234193 -0.0060844095 0.007908814 -0.02797697 0.04383041
-0.027631585 0.05199916 -0.04115643 -0.10581613 0.018682087 -0.060034677 -0.053783886 -0.032237574
0.07644697 0.13036953 0.07739952 -0.08158361 0.082944445 0.06839854 -0.03559665 -0.05157861
-0.0056944583 0.0028662186 -0.11654854 0.026576959 -0.09865543 -0.07396029 0.05370166 0.0650175
-0.008862124 0.11417473 0.06538322 -0.12508224 0.1312731 0.0154649615 -0.12862566 0.114712946
0.09272414 -0.0294548 0.017717289 0.062865496 -0.022088794 0.123825096 -0.09092406 -0.09151384
-0.042157143 -0.022716168 0.007673545 0.021065235 -0.007231035 -0.0320867 -0.00372004 0.017555602
-0.013162079 -0.06116386 -0.010931657 0.01205702 -0.034883607 0.008424115 -0.007198435 -0.015697723
-0.0032056367 0.013430266 -0.033604193 -0.010485369 0.0077328086 0.04300868 0.0185648 0.028161585
0.044270508 -0.06534195 0.07168008 -0.0038935887 0.06403608 0.0039023145 -0.047040917 0.04151674

MLP.13.bias f4 [4]
00000000: 3994 5dbd 0453 bd3d 798c 26be a86d 433b
-0.054096434 0.092443496 -0.16264524 0.002982
