example/model/polygon_robot/model_4000.pth (torch, 24610 bytes, 18 tensors)

MLP.0.weight f4 [32, 2]
00000000: ad47 a53e b671 57be 7c85 db3d df62 ebbe
00000010: 80c2 12bf 91c8 c23e 0556 d9be c80d b93e
00000020: b5ea 843e d229 abbe c8bf 09bf b6c7 ccbe
00000030: c09c 48be 9a05 afbe 8e4e db3e 8099 b8be
00000040: 8a21 863e de66 27be d45d a2bc bfd7 fdbe
00000050: edae ad3e bce8 833e bf56 fd3e bdfc 9dbd
00000060: 5996 96be 283e ea3d 822a c83c e042 d1be
00000070: 59ae ad3e 70ce 6dbe b0ed 013f bdda d63e
00000080: 7e4e 11bf df48 cebe 1fe4 a23e ed46 0dbf
00000090: 22c3 c73e 09d7 f9be f54f efbb d482 ccbd
000000a0: 7c11 fabc 0bbb 893e 3e74 b93e ad5d 093d
000000b0: 47d5 4e3e c57c 263e dd2d 9f3d 79e5 603e
000000c0: 5d5f ef3d 166e 9e3e 5530 ccbd 3039 7d3e
000000d0: 5523 11bd 510e 02bf 22fd 01bc ec56 85bd
000000e0: 7462 24be e954 3ebe 86a0 0d3e e79f 023e
000000f0: 9f3f 033f 9904 c3be e980 bbbc 62d0 653d
0.32281247 -0.21039471 0.107188195 -0.4597387 -0.57328033 0.38043645 -0.4244844 0.36143327
0.25960317 -0.33430344 -0.5380826 -0.39996117 -0.19591045 -0.3418396 0.4283337 -0.3605461
0.26197463 -0.16347834 -0.019820131 -0.49578664 0.3392252 0.257635 0.49480245 -0.077142216
-0.2941158 0.114376366 0.024434332 -0.40871334 0.3392208 -0.23223281 0.5075331 0.4196376
-0.56760395 -0.4028997 0.31814668 -0.5518635 0.39016062 -0.4879687 -0.007303233 -0.09985891
-0.030525915 0.26900515 0.36221498 0.0335366 0.20198546 0.16258533 0.077724196 0.21962537
0.11688111 0.30943364 -0.09970156 0.24728847 -0.035434086 -0.50803095 -0.007933887 -0.0651072
-0.16053182 -0.18587078 0.13830766 0.1275631 0.51268953 -0.38089445 -0.022888618 0.056106932

MLP.0.bias f4 [32]
00000000: 78a7 1a3b 33e9 f93e d809 023c 3176 783e
00000010: 4084 9b3e de56 0c3e d3a4 2e3e ba1d b83d
00000020: 2863 963e e88c 623d cc1a ecbd cf6e bbbd
00000030: d607 213e 493e 4dbe ad19 84bb e950 3c3e
00000040: 72b9 27be d215 103e 1391 a5be 8764 5abe
00000050: b65a cfbd 7f2a ad3e 8c37 433e 30bc c53d
00000060: 0cdb af3e 5ef9 c4be 9ff7 633e e87a b23e
00000070: 2904 3bbe 6d55 9ebe a389 84bd 3396 a2be
0.0023598354 0.4881073 0.007936917 0.24263836 0.30374336 0.13705012 0.17055063 0.08990045
0.29372525 0.05531016 -0.115285486 -0.091519944 0.15725645 -0.20043291 -0.004031381 0.1839024
-0.16379336 0.14070824 -0.32337245 -0.2132741 -0.101247236 0.33821484 0.19064158 0.096550345
0.34346807 -0.38471502 0.22262429 0.34859395 -0.18263306 -0.3092455 -0.064715646 -0.31755218

MLP.1.weight f4 [32]
00000000: 4e6c 283f 3c24 333f a0b1 053f ccd9 303f
00000010: 780d 1d3f b1ba 183f 9325 1a3f 8f6e fa3e
00000020: 8e25 193f f6d1 1e3f 3e32 073f fa34 3f3f
00000030: 1c83 1b3f 685d 3b3f de1e 123f 98ef 383f
00000040: b9b7 163f c196 223f c309 2d3f 5d3c e53e
00000050: e646 4a3f c0c5 293f 4f72 2c3f bbe7 343f
00000060: b959 2b3f 560e 493f 48f6 2f3f 94a7 0a3f
00000070: 8d28 383f 310d 2a3f 061d 1f3f 447d 413f
0.6579026 0.69977164 0.5222416 0.6908233 0.61348677 0.5965987 0.60213584 0.48912475
0.5982293 0.62039125 0.5281104 0.7469021 0.6074693 0.731894 0.5707835 0.7224059
0.5887409 0.6351128 0.6759302 0.44772616 0.7901443 0.6631737 0.6736192 0.7066609
0.6693378 0.785375 0.6873517 0.54161954 0.71936876 0.6642638 0.6215366 0.75581765

MLP.1.bias f4 [32]
00000000: 39d8 9fba baaf 5ebc d5de 13bd 6f14 193b
00000010: e031 343c ed92 203d 6f68 a2bc f6ee 92bd
00000020: 8fa9 44bd de25 85bb f8db 873b d3a3 a73c
00000030: 3259 993c f9fb 2dbc 211b c9bb 3049 1abd
00000040: 140c 84bd acfb f33c 1fec 6bbc 2061 4fbc
00000050: 4852 423d 99dd c43a cbaf 083d d8b7 8b3c
00000060: 886b 553d 6ed3 02bd 638e 563c 3bf8 b13b
00000070: 3471 eabc 9dc0 373c 4497 263d c174 c8bc
-0.0012195177 -0.013591701 -0.03610118 0.0023358127 0.010998219 0.03920262 -0.019825188 -0.071744844
-0.048013266 -0.004063352 0.0041460954 0.02046386 0.01871929 -0.010619157 -0.006137267 -0.037667453
-0.06447616 0.029783092 -0.014399557 -0.012657434 0.04744175 0.0015019655 0.033370774 0.017055437
0.052104503 -0.031939916 0.013095471 0.0054312027 -0.028618433 0.011215356 0.040671602 -0.024469735

MLP.3.weight f4 [32, 32]
00000000: 634c 5cbd 5d2f 2b3d 5c8e 5fbc a21f 0ebe
00000010: 3ac5 f83c 3d54 9cbd 7d97 103e e169 653a
00000020: 1be3 dd3d 5d0f d23d 11c7 a2ba c430 e8bd
00000030: 5260 0e3e c00d 99bd e658 fcbd 74be 173d
00000040: 4c72 33bd 5f03 d0bc 5664 5fbd e039 4abd
00000050: 2f9b a83d 6f41 d33d 1343 19bc 0bb2 b53b
00000060: 03cf 1c3e 4e39 fbbd a4a3 d63d 8420 cf3d
00000070: 1790 bbbd 7f94 52bd 8e5a 003d 77c6 c43b
00000080: 0a77 ae3c a098 1b3d 142e 54bc c3e8 92bd
00000090: 0a07 9bbd fbf9 bfbd ebff cebd 4a63 97bd
000000a0: 2a74 15bd 38e7 1fbd 4348 4abd 5593 223d
000000b0: 0e36 39bd 1806 a9bd d785 913c 43c1 9cbc
000000c0: 8b24 dabd dbbd 9d3d 4fd4 693d 6f63 c63c
000000d0: 423b f9bd 48db 2a3d b3c0 ecbc a30c da3d
000000e0: 8afa a13d 5fad 823d fa40 1ebc e926 2cbc
000000f0: 71e7 983d a1fa 4cbd 30c6 d9bd fc00 bd3d
00000100: 4428 6d3d e740 843c 0593 f3bc a91d f1b9
00000110: 947b a33d a578 f83d 3ace 89bd 5147 2d3d
00000120: b0ff 6ebc 35c0 a3bd 9c9d 293d 3f3c 6e3c
00000130: d8d1 d5bc 992c d5bd 3b90 4cbd 4b67 bbbd
00000140: 3a3f e33b 113b 08bd 3c78 b13b 22cb c8bc
00000150: c2d5 0bbe 4d35 903d a6ff 9cbd a267 8b3d
00000160: f3c4 c93c f42b ecbd fbec 0a3e 51b7 a23d
00000170: 2763 8dbb 479a 12be 6403 90bd 0531 d0bd
00000180: e2c0 293e dd39 77bb b8fa f03d 4bba 27be
00000190: b9e3 bcbc 35de 8d3d f67b 24bc 4a11 62bc
000001a0: d17c fcbd 5f8e a43d 3223 47bc c3d6 583e
000001b0: 065b 8b3d ca45 0ebe f279 ac3d 36a4 33be
000001c0: 6f74 dcbd 8f0a 173c 12e0 e73d 744b cb3a
000001d0: a182 10be 542b 123e 380c e53c 7d92 0a3e
000001e0: 26a1 2d3d 3cd0 0b3e eb5d 15bd 0395 53be
000001f0: 365e b33a 5eb2 c83d 5443 ff3d 68e8 0e3e
00000200: d800 04be 3861 d4bd 1850 5dbb bdd4 343d
00000210: 10b7 2dbd 1ad3 afbb 1a76 b83d 019a 9c3d
00000220: e157 8a3d c2b9 7fbc 6f4d f2bd a20f 14bd
00000230: a52c 3a3d a3a5 8a3c 22d9 8c3d 0d0d c6bd
00000240: 1419 5d3d 49cb bc3d 4f8f e53d 3200 4e3d
00000250: 09eb ff3d 7134 1bbe 2e26 383d c62c 07bd
00000260: e326 ea3d 6908 a53d c9c9 c4bc afb6 a1bc
00000270: 3bd2 633d 7536 853d eacf d13c 1005 8b3d
00000280: cd93 3fbe baf2 163d 5ea4 1f3e 01a5 f4bc
00000290: 412f 3abe 3709 3f3d 56ca 03bd 77f3 96bd
000002a0: c714 19be c391 80bc 5177 be3d b655 8e3c
000002b0: e881 1bbc c5f7 033e cb67 41be 1b03 633d
000002c0: 3571 143e 5af8 0fbe ac59 1fbd 6eea 053e
000002d0: be27 27be a424 71bd 9dd6 12bd a659 1bbe
000002e0: ce83 33be 41a5 ad3d 7553 de3d 8d36 843d
000002f0: 687a f03c 10de 653d c7b4 123d 48df c23d
00000300: 6278 ea3d 0de6 04bc 6f04 52bd cd26 c83d
00000310: d227 e23d 6a5d 0fbc 9214 acbb ad13 5abd
00000320: e2fe eebd 10b1 0b3d 3fb1 c5bc 58f4 d53d
00000330: 88d1 efbd 5b3a 06bd a075 a83d 0173 ef3d
00000340: 7d0b 023d 1d29 e33d 6be7 f0bd cd98 71bd
00000350: a853 d8bd 8a44 c6bd 6ca7 c83d 861c 92bd
00000360: df0a 6dbd 84d2 06be 2217 563d 7012 26bc
00000370: c8eb 8f3d d891 31bd 94ab bfbd b20c 303c
00000380: 3d54 e63c b5e5 05bd 703a 503d 9f5e 513e
00000390: 3fcf d63c 89a4 0b3e 632c e13c b355 903d
000003a0: 80fb ccbd b15e 963c 86ff 54bd bd18 913d
000003b0: f8d2 3cbc 0f66 0cbd 1870 6cbd 9d2c 0d3d
000003c0: 98ec c0bd 39fb 72bd d140 c3bd 3c3e 203d
000003d0: ba52 f23d f400 513c c0d0 06be 0c61 cfbd
000003e0: c116 bf3d d7b8 df3c 9262 6abd aa28 533d
000003f0: d468 0ebe f51d de3d ec70 4bbc e2bd 8a3a
-0.053783786 0.041793216 -0.013644781 -0.13879254 0.030367482 -0.07633255 0.14120288 0.0008751434
0.108343326 0.102568366 -0.0012418946 -0.11337426 0.13903931 -0.07473326 -0.123216435 0.037046865
-0.043810174 -0.025392232 -0.054539047 -0.0493716 0.08232724 0.10315215 -0.009354371 0.005544906
0.15313344 -0.122667894 0.10480431 0.10113624 -0.09158342 -0.05141115 0.03133636 0.006005104
0.021296997 0.03798735 -0.012950439 -0.07173302 -0.07569702 -0.09373852 -0.10107406 -0.07391985
-0.036487736 -0.039038867 -0.04938532 0.039691288 -0.045217566 -0.082531154 0.017764015 -0.019135123
-0.10651501 0.07702228 0.05708724 0.024217336 -0.12169506 0.04171303 -0.02890048 0.106469415
0.07909115 0.06380724 -0.009659046 -0.010507324 0.07466019 -0.050043706 -0.106335044 0.092287034
0.05789973 0.01614423 -0.02973319 -0.000459892 0.07982555 0.12132386 -0.06728788 0.04230434
-0.014587328 -0.07995645 0.041410074 0.014540731 -0.026101038 -0.10408897 -0.049942236 -0.09150561
0.0069350274 -0.033259455 0.0054159444 -0.024510924 -0.13655761 0.07041416 -0.076659486 0.06806876
0.024630046 -0.11531821 0.13566963 0.07945121 -0.0043147984 -0.14316665 -0.07031897 -0.101656
0.16577485 -0.0037723698 0.11766571 -0.16379659 -0.023057805 0.06927148 -0.01003932 -0.013798067
-0.12328494 0.08034968 -0.012154387 0.21175675 0.06804471 -0.1389381 0.08421697 -0.1754311
-0.107643954 0.009218826 0.11322035 0.0015510158 -0.14112331 0.14274341 0.027959928 0.13532443
0.04239001 0.13653654 -0.03646652 -0.20662312 0.0013684693 0.09799646 0.12464014 0.13955843
-0.12890947 -0.103701055 -0.0033769663 0.044148196 -0.04241091 -0.0053657414 0.09006901 0.076465614
0.06755043 -0.015608253 -0.118311755 -0.03614772 0.045452733 0.016924685 0.06877352 -0.09670458
0.053978994 0.09218461 0.112089746 0.050293155 0.12496001 -0.15156724 0.044958286 -0.033001684
0.11433198 0.08058245 -0.024022 -0.01974043 0.055620413 0.065045275 0.025611836 0.06788075
-0.18708725 0.036852576 0.15590045 -0.029863836 -0.18182088 0.046639647 -0.032175384 -0.07370656
-0.14949332 -0.015694505 0.093001015 0.017374855 -0.009491421 0.12887485 -0.1888725 0.055422883
0.1449631 -0.14059582 -0.038903877 0.13077709 -0.16323754 -0.058872834 -0.035849202 -0.15170917
-0.17530748 0.08478785 0.10855762 0.06455717 0.029355243 0.05611998 0.035816934 0.09515244
0.114487424 -0.008111489 -0.05127376 0.09773026 0.11042751 -0.008750299 -0.0052514756 -0.05324142
-0.11669709 0.034104407 -0.02413237 0.104469955 -0.11709887 -0.032770496 0.0822556 0.11691857
0.031749237 0.11091826 -0.117628895 -0.058983613 -0.10562831 -0.096810415 0.09797558 -0.07134347
-0.057871696 -0.13166243 0.052268155 -0.010136232 0.070273936 -0.043351978 -0.09358898 0.010745214
0.02811634 -0.03268977 0.05083698 0.20446251 0.02622187 0.13636984 0.027486986 0.07047596
-0.10008907 0.0183557 -0.0520015 0.070847966 -0.011524908 -0.03427702 -0.05772409 0.034466375
-0.09420127 -0.059321616 -0.09533847 0.03912185 0.11832185 0.012756575 -0.1316557 -0.10125932
0.09330512 0.027309818 -0.05722291 0.051552452 -0.13907176 0.108455576 -0.012417059 0.0010585154

MLP.3.bias f4 [32]
00000000: 5a18 cc3d 8e1d c4bd 9ba4 11be 15a0 ccbc
00000010: 4bc7 de3b 9516 f4ba 141c 373c 40e6 963c
00000020: 856f ca3d faa2 fcbd 79db 6fbd 2797 92ba
00000030: b7ed c9bc 2391 48bd 7d6e cfbd ad93 31be
00000040: a8ed dbbc 6d5e a7bc 4a1c 0cbd b8c2 113e
00000050: e44d d5bd 9cdd b3bd e921 2e3e 72d8 9fbb
00000060: 769d b83d b12e 1cbd 0f63 40bd 7358 6c3d
00000070: bd25 03bd a667 f93c bead 15be 15e6 cc3d
0.09965582 -0.095759496 -0.14222948 -0.024978677 0.00679866 -0.0018622453 0.011176128 0.018420339
0.09884552 -0.12335773 -0.058558915 -0.0011183963 -0.024649484 -0.04896654 -0.10128496 -0.1734149
-0.026846722 -0.020430768 -0.034206666 0.14234436 -0.10415247 -0.08782503 0.17005123 -0.004878097
0.09014408 -0.038130466 -0.04696947 0.05770154 -0.032018412 0.030444931 -0.14617059 0.10004822

MLP.5.weight f4 [32, 32]
00000000: 3377 973c 230a 73bc efa5 883d 304d 9ebd
00000010: c744 2dbd 7305 b8bd 4583 1a3e 4af7 0ebe
00000020: 7c00 4c3c 7cb6 f2bc dbe6 a8bd f6e8 fa3c
00000030: 717e d8bc 1096 833b 4d18 103d 8462 00be
00000040: fe5e 32bd ab93 be3b acd4 583d 8e70 8a3d
00000050: cbf7 24bd 0a49 813d 49b8 c03d 184e 8fbd
00000060: 66eb b4bd 32e4 2b3c 51b1 6c3c ff23 9b3b
00000070: 74fd ca3d 5456 37bd fa1a 23bd 1e82 bdbc
00000080: f9c6 bfbc db9a 55bd 0c8b 0cba 606d 9dbb
00000090: dad4 4ebd 108c dc3d 07f1 b7bd b415 8c3c
000000a0: 3eef 1c3d 3879 033a 68d0 c0bb f510 883a
000000b0: df72 31bd ccc5 9a3c 3e8c 4fbb ac3e 053d
000000c0: 50bd 373d bcf3 313c b73a 7abc aced 0bbe
000000d0: 28fd 9c3c 4a4a 9f3d a7ee 9d3c 708f c5bc
000000e0: a472 7e3d 2687 843d 9835 5e3d 5c5e 3abd
000000f0: bdbc 75bd 4fc2 c13d d3ab a13d 515f b03c
00000100: 82c7 d6bd 5610 70bd 2117 343c 3cea 7d3d
00000110: fce3 233d 11f1 2cbe fbad 8cbd 994f c43c
00000120: aeee cd3b 7572 83bd 41ce 8dbc 6ce7 0fbe
00000130: adcf 9fbd d7d7 ccbd 5265 f73c e9c6 e6bd
00000140: ea0f b7bc f5a3 913d 4d9e 86bd 762c e83d
00000150: cd03 39bb 6241 a9bd 2b59 f8bc 2078 58bd
00000160: 71ae 193c f5a0 223e 72f4 0dbe e29a 913c
00000170: 5720 14bd af4e ce3d 9487 983d 7b9a 2e3d
00000180: 096a 32bd 55df bdbd e8a0 bd3d e47f 1ebd
00000190: 5d1e 073e 69ef 723e 8180 b03d 7c37 4bbd
000001a0: 5862 453c a766 7cbd 5876 193d a797 b13d
000001b0: 4f48 a63d 3d73 c23d 965f c8ba efa6 95bd
000001c0: f559 17bd f518 c43d d933 a2bc 8fbb 9fbd
000001d0: f7b7 203d 93ff ab3d 3039 893d a0ad 123d
000001e0: 9a92 99bd ea55 cfbc 2689 7abd e7bd 4fbd
000001f0: 8677 e93c a7dc 113e 64f1 8d3d 209b 8a3d
00000200: 6fa4 aabd ebc3 403d be0d cfbc f06c 0e3c
00000210: 5c52 79bc 76c2 95bd dffb 4f3d f082 a9bd
00000220: 7f21 543b a8ee 8fbd 1af9 fc3b a6bc cb3d
00000230: 6a1f a7bd a31c 9ebc d344 583d 4689 febd
00000240: eecc 5a3d 868e 283d fdd6 bbbd ab5e 3d3d
00000250: cdc8 5e3d 8d4f b53d 443c 0ebe 19d1 77bd
00000260: 2572 8dbd 4347 f53c 3faf 5f3d 8b4d 9e3d
00000270: 46d6 8cbc 8e41 18bd e7d1 f43c 6612 a83d
00000280: 82ae 63bd 0002 83bd 9b49 ec3d 7079 e6bd
00000290: c687 c1bd 52da c6bd 28a4 d33c 8d13 5c3d
000002a0: 28f1 473d 6712 26bd 84ed a3bd 5c77 c73d
000002b0: 4745 5e3d ce03 43bd b82a 943d 3731 32bd
000002c0: fe38 b53c d76a 1fbd 481a 753d 4319 b73d
000002d0: a637 3fbd 5284 dc3c 5e99 103e ce53 273e
000002e0: ee30 b9bc c36e bf3d 57a7 9ebd 7ebb 41bc
000002f0: 3488 71bd 6937 3a3d a09e ab3d bae4 1a3e
00000300: de32 8c3d 4df1 4b3d e6eb dabd cacd 5e3d
00000310: cbd6 303d 5ab2 da39 c9b2 b1bc b687 dcbd
00000320: 57af d63d f9c8 0f3d a9e3 303d 6cb0 643d
00000330: 762d 4a3d 3129 703d d0ac 4abd 0ff5 f2bd
00000340: ad8b f43c 0d58 20bc 5aca ac3d 4da8 b5bd
00000350: 7dff 9e3a cdeb c23d 1f6a 24bd 257c a53d
00000360: c4b7 ae3d ceeb 083c 0bd2 5c3d 2d15 b4bd
00000370: 8506 e93d 7552 f5bd 2466 92b9 f96c 64bb
00000380: 2d8a 00bd 4a38 093d e109 743c 934e 673e
00000390: 17be bbbd 792e b4bd 2815 f5bc 9e08 afbd
000003a0: cac2 88bc 01c9 60bd 75bb 04bd bc01 e1bc
000003b0: a1f6 c1bc c793 8cbd fdb4 a7bd dc99 253d
000003c0: e545 5fbc bda5 c9bd da9e 08bd badd f23c
000003d0: 274d 7cbc d703 5bbd 1252 ecbc a329 b53d
000003e0: 8ac5 143e c163 66bd da9d ea3c 3c2c 0f3d
000003f0: 521e 123e fb8b 383e 9999 85bd e42f cb3c
0.018489456 -0.01483396 0.06672274 -0.07729566 -0.04230192 -0.08985414 0.15089138 -0.13961521
0.012451287 -0.029628031 -0.08247157 0.030628663 -0.02642748 0.0040156916 0.035179425 -0.1253758
-0.043547623 0.0058159432 0.052937195 0.06759749 -0.040275376 0.06312759 0.094101496 -0.06997317
-0.08833961 0.010491418 0.014446572 0.0047345157 0.099116236 -0.044760063 -0.03982065 -0.023133334
-0.023410307 -0.052149635 -0.0005361296 -0.0048042983 -0.05049596 0.10768902 -0.08981519 0.017100193
0.038314097 0.00050153164 -0.005884219 0.001038103 -0.04332244 0.018893145 -0.0031669284 0.03253047
0.044858277 0.010861333 -0.015272788 -0.13664883 0.019163683 0.077778414 0.019278837 -0.024116248
0.06212105 0.0647109 0.05425033 -0.045500144 -0.059994448 0.094608895 0.07894101 0.021529825
-0.10487272 -0.05860933 0.0109918425 0.06199096 0.040012345 -0.16888835 -0.06869122 0.023963736
0.0062845564 -0.06418315 -0.017310264 -0.14053124 -0.07803283 -0.10002106 0.03019968 -0.11268408
-0.022346456 0.071113504 -0.06573162 0.11336605 -0.0028231025 -0.08264424 -0.030315956 -0.052848935
0.009379969 0.15881713 -0.1386278 0.01777405 -0.036163654 0.100736015 0.074477345 0.042627793
-0.043558154 -0.09271113 0.09259206 -0.038696185 0.13195176 0.2372414 0.0861826 -0.04961346
0.012047373 -0.061621334 0.037466377 0.086715035 0.081192605 0.09494636 -0.0015287276 -0.07307231
-0.036951024 0.09575073 -0.019800114 -0.07799446 0.039237943 0.08398356 0.06700361 0.035810113
-0.07498665 -0.025309522 -0.06116595 -0.050718214 0.028499376 0.14244328 0.06930807 0.06767869
-0.083321445 0.047061842 -0.025275107 0.008692965 -0.01521739 -0.07312481 0.050777312 -0.082769275
0.0032368598 -0.07027942 0.007720125 0.09948091 -0.08160289 -0.019300764 0.05280001 -0.124285266
0.053418092 0.041151546 -0.09171865 0.04623286 0.054390717 0.08853064 -0.13890177 -0.060502145
-0.06906537 0.029941207 0.054610487 0.07729634 -0.017192017 -0.037171893 0.029885245 0.08206634
-0.055586345 -0.06396866 0.11537477 -0.11253631 -0.09449725 -0.0970961 0.025835112 0.053729583
0.04881397 -0.040544894 -0.08004287 0.09739563 0.054265287 -0.04761105 0.072347105 -0.043503966
0.022121903 -0.03892025 0.059839517 0.08940365 -0.04668393 0.026918564 0.14121005 0.16340563
-0.02260634 0.09347298 -0.07746761 -0.011824487 -0.058967784 0.045463 0.08379865 0.15126315
0.0684564 0.04979067 -0.10689525 0.054395474 0.043173593 0.00041713082 -0.021691697 -0.10768072
0.10482662 0.03510377 0.043185864 0.05583231 0.04935976 0.058633033 -0.049481213 -0.118631475
0.029851759 -0.009786618 0.08437033 -0.088699915 0.0012130585 0.09517632 -0.040140267 0.08080319
0.08531144 0.0083570015 0.05391125 -0.087931015 0.113781966 -0.11978618 -0.0002792339 -0.0034854992
-0.031381775 0.033500947 0.014894933 0.22588567 -0.09167116 -0.087979265 -0.029917315 -0.085465655
-0.016694445 -0.054879192 -0.032405335 -0.027466647 -0.023677172 -0.06864124 -0.08188818 0.040429935
-0.013627504 -0.09846065 -0.033354618 0.029646743 -0.015399254 -0.05347046 -0.028847728 0.08845832
0.1452848 -0.056247476 0.028639723 0.034954295 0.14269379 0.18022148 -0.06523437 0.02480311

MLP.5.bias f4 [32]
00000000: 8f6f b9bd 3757 de3d 1dfb d43d f254 78bd
00000010: 2dcd 033e 2f18 f4bd 3d33 543d e2b2 ce3c
00000020: de35 8cbd 88b1 eabd a418 bdbd 914c 863d
00000030: 0784 2abe bc57 a13b ec45 50bd 912b d73d
00000040: df0b a73d 6dcb 273b 0d15 033e 5160 95bd
00000050: 2b2d 193d 1a60 a33d 4935 4abb 7ff2 e43d
00000060: fc10 173d c272 be3d 68ce 8bbd 345d 9f3d
00000070: 5882 f7bd 814d 70bd c94c 30bc 3976 bf3c
-0.09054481 0.10856479 0.103994586 -0.060627885 0.12871237 -0.11918675 0.051806677 0.025231782
-0.06846212 -0.11459643 -0.092332155 0.06557573 -0.16651927 0.004923789 -0.050847933 0.105063565
0.08156561 0.002560343 0.12800999 -0.072937615 0.03739659 0.07977314 -0.0030854514 0.11179065
0.036881432 0.09299232 -0.06826478 0.07781449 -0.12085408 -0.058667663 -0.0107604945 0.023371803

MLP.6.weight f4 [32]
00000000: bbd4 3f3f b059 313f 45d3 003f ee8a 363f
00000010: 83dc 283f b75f 303f 489c 3e3f 799c 2d3f
00000020: 9bc6 253f e31e 293f 8020 153f 4078 2a3f
00000030: 21c4 293f d73d 073f e82d 413f 67f9 283f
00000040: 1567 3c3f 4ae3 263f 3242 2d3f b3e5 373f
00000050: 68ef 353f fc24 253f 1861 413f 6a83 3d3f
00000060: 8f9b 153f cc48 3b3f dcca 423f 5245 073f
00000070: 91f4 3b3f c55c 093f 1321 453f 81f2 b53e
0.74933976 0.6927748 0.5032237 0.7130574 0.65961474 0.6889605 0.74457216 0.67816883
0.6475617 0.66062754 0.58252716 0.66589737 0.66314894 0.52828735 0.7546067 0.6600556
0.7359479 0.65190566 0.6767913 0.7183487 0.7106843 0.6450956 0.7553878 0.74028647
0.5844049 0.73157954 0.7609079 0.5284015 0.73420054 0.5365718 0.7700359 0.35536578

MLP.6.bias f4 [32]
00000000: 4c7f eabb fc99 523d a193 5ebc bc42 533b
00000010: 18e2 1bbc 24de cb3b 98f1 28bb 0257 a5bc
00000020: f03d 3abc 9eb8 d7bb 37b8 e03b b7e0 c8bc
00000030: 89d2 77bc 624c 25bc ed3e ef3c 6fea 793c
00000040: 70d9 11bd a179 46bc 16bb c93b ac6a cd3b
00000050: 9a38 50bc 6f45 e1bc 2442 a2bc 90ed bbbb
00000060: 40ca 893c 20e1 73bc 4e55 313c 7ee6 0f3d
00000070: 4f3b 243a 3b88 64bc f9b5 d73c fa90 213c
-0.0071562883 0.051416382 -0.013585002 0.0032235822 -0.009514354 0.0062215496 -0.0025778767 -0.02018309
-0.011367306 -0.0065832874 0.0068578976 -0.024521215 -0.015125879 -0.010089012 0.02920481 0.015253647
-0.035607755 -0.0121139595 0.0061563356 0.00626882 -0.012708807 -0.027498929 -0.019806929 -0.0057351068
0.016820073 -0.014885217 0.010823561 0.035131924 0.0006264941 -0.0139484955 0.026331889 0.009861225

MLP.8.weight f4 [32, 32]
00000000: 8c3e e5bd dbe2 103e 5a0a 2d3e 2e01 8b3d
00000010: 48be 763c 7b06 e6bc 16b6 09bc dfd1 183d
00000020: 8ba1 60be 5308 b63d dc1f dd3b eea5 923d
00000030: 5d43 20be 13e0 e53c bd8c 633d 080e 09be
00000040: 7eb5 58be baa2 1cbe 63a4 013e 743b b6bd
00000050: 6572 92bd 7243 04bd c599 223e 577f 433e
00000060: 4e61 d43d e97b 2dbe 9f39 2b3e 04e0 ac3d
00000070: e3df f2bd 4e64 babd 9cd0 b23d 6973 11bd
00000080: 7b94 d401 18ec ae81 f639 e981 a1a0 3701
00000090: 5e39 b581 181f e880 908a ce81 67f8 b401
000000a0: ed34 c481 c29f c201 e818 ff01 1e10 2700
000000b0: cac8 ff01 2025 fc01 4bc5 0582 e841 fa80
000000c0: 3399 cb01 6d5b 0e02 2fac cb81 361d c081
000000d0: 689e 5200 38a5 8e01 88de a081 515f 1502
000000e0: 8b4b d101 9735 8a81 2265 8f01 2012 9881
000000f0: d86b 4181 92d2 c081 ee34 be81 7a58 c201
00000100: b422 12bd 46fe a3bc 1f7c 06bd 4ee4 f4bd
00000110: e2eb 13bd 8018 023c 215e 503c db6e 8ebc
00000120: 7518 843c 77fc 48bd b81b 833d 8179 70bd
00000130: 1615 60bc 0fce bebc 6809 273d 17cc c03c
00000140: d9bb a6bc 7180 96bb 6ccf 7cbd 46fc 2b3d
00000150: a1fb 2f3c 72ce debb 3bfb 2f3b 4677 2dbd
00000160: c7ee 683d 6c80 dabc e013 d3b9 fb3d f6b7
00000170: 6bbc fe3b 591c 7b3d e770 d33c 9a9e ee3c
00000180: cd44 9e3d be9f 88bd 4e13 0c3d 4e4e efbd
00000190: 1ebc da3d 2a56 903d a6fc d83c bce6 e93c
000001a0: f55f cebc e5da 0cbd d8b7 86bd 2fab d93c
000001b0: 0196 a9bd 7001 803d ff2e a3bd 7950 58bd
000001c0: 3d6d afb9 1005 a23d caad 2bbd 1c81 ea3c
000001d0: b264 27bd 3e91 ddbc 78d5 77ba 3482 383d
000001e0: 0800 e73d ebfd 10bd 0fc9 0b3d bec5 caba
000001f0: 371c 583d a122 0f3d 9ad8 853d e2c9 6cbc
00000200: 3fab cbbd 55aa 323d f9cd b93d 9b79 293e
00000210: c6b9 203e d9fd 8bbd ad9b cb3d 0070 c9bb
00000220: 530f 103e 9d29 8f3d b12a 30be a5d3 af3c
00000230: f8d0 81bd 9188 5f3d d143 9dbd da8e 9f3d
00000240: 889a 40bd 4f60 31be 909d c4bb 930b cb3c
00000250: c5f5 b93d b2b1 20be ef03 37bd 2dc5 c8bd
00000260: 8b17 60bd a648 e4bd 2bde a53d b6a0 81bd
00000270: f6d4 60bd a8eb 003e e11a 0b3e ee6f 87bd
00000280: 3ba8 bcbd a9d7 44bd 90c4 15bd f57d d4bd
00000290: 91ec babd 5ff9 ad3d d83f 8b3d e40e 083d
000002a0: 093f 61bc 6356 13be 97ab 1cbd f8c7 953d
000002b0: 4334 0d3e 3632 323d 08c1 87bd cf9e 87bc
000002c0: 39d1 eebd 5aff 23be ca84 dcbd 8ac4 1fbe
000002d0: e84a 4fbd dcef 88bd 4b4e 063e dfb4 fa3d
000002e0: 8bd9 95bd cec3 113b 89b7 b73d 90fd 193e
000002f0: 1cb5 4d3d 5e14 92bd 235a c03d 0d96 863d
00000300: bd31 673d f858 c639 d3b3 593d 8688 01be
00000310: 10b5 dc3c 1ad4 323d 23d8 8a3d af7f d7bd
00000320: c5b2 22bc 5d5d b3bd 1976 c63d 6233 11be
00000330: 07c4 463d 8eb1 a1bd 9d5e 923d 927f 6c3c
00000340: 6fc3 0ebd 24e6 e43d e689 953d c9bb 8f3d
00000350: 9b55 5abd 228c bf3c 4a22 bd3b 20fa 69bd
00000360: 7efc 75bc eb7c b43d a9f3 7cbd 5c1f a23d
00000370: 7d16 8e3d 1a28 6abc b1a8 05bd 8bdf 873d
00000380: 80fb 453d 1e43 963c 5712 c73d 6e31 0f3d
00000390: 75b4 13be 3b97 dfbd dde6 16bc be99 7a3d
000003a0: 9613 b4bc 7085 0a3e add1 ad3d 90d0 ca3d
000003b0: 486c 2e3d 7875 1e3e 42f1 22be e896 8d3d
000003c0: 84cb bfbd fb62 50bd f438 113e c39a 07be
000003d0: 09d9 d63c 3107 01be deaf 703d 1438 8d3a
000003e0: e50f e63d 2043 efbc 3358 223e 6fd8 f0bd
000003f0: 613b e13d 8a18 1d3d 53ee 2d3d 5122 aa3c
-0.111935705 0.14149038 0.1689848 0.067873344 0.015060015 -0.028079262 -0.008405229 0.037309524
-0.21936624 0.088883065 0.0067481827 0.07160555 -0.15650697 0.028060948 0.05555414 -0.13384259
-0.21162984 -0.1529645 0.12660365 -0.088980585 -0.07150725 -0.032290883 0.15878971 0.19091545
0.10370122 -0.16941799 0.167212 0.08441165 -0.11859109 -0.09101163 0.08731195 -0.035510454
7.808956e-38 -6.4256283e-38 -8.567385e-38 3.3727037e-38 -6.6571217e-38 -2.131699e-38 -7.5871276e-38 6.6477997e-38
-7.2074974e-38 7.1493586e-38 9.3707945e-38 3.587366e-39 9.3960324e-38 9.262345e-38 -9.827917e-38 -2.2982517e-38
7.4790253e-38 1.045875e-37 -7.4817494e-38 -7.0571577e-38 7.587336e-39 5.239964e-38 -5.9094034e-38 1.0974146e-37
7.6882874e-38 -5.077009e-38 5.267502e-38 -5.586199e-38 -3.5525876e-38 -7.0831815e-38 -6.987093e-38 7.13913e-38
-0.035677627 -0.020018708 -0.032833215 -0.11957608 -0.036113627 0.007940412 0.012717755 -0.017386844
0.016124943 -0.049068894 0.06401771 -0.058709625 -0.013676902 -0.023291616 0.040780455 0.023534818
-0.020353245 -0.004592948 -0.06172125 0.041988634 0.010741145 -0.0067995125 0.0026852626 -0.042350076
0.05686834 -0.026672564 -0.00040259864 -2.9354347e-05 0.007773926 0.06130633 0.025810672 0.029128361
0.077279665 -0.066710934 0.034198098 -0.11684857 0.10680412 0.070476845 0.02648766 0.028552406
-0.02519224 -0.03438844 -0.06578034 0.026570885 -0.08280564 0.06250274 -0.07967948 -0.05281112
-0.0003345999 0.07911122 -0.041913785 0.028626017 -0.040867515 -0.027046796 -0.00094541116 0.045046046
0.11279303 -0.035398405 0.03412729 -0.0015470309 0.052761283 0.034945134 0.06535454 -0.0144524295
-0.09944772 0.043619473 0.09072489 0.16550295 0.15695867 -0.06835527 0.09941802 -0.0061473846
0.14068346 0.06990359 -0.17203785 0.021463225 -0.06338686 0.0545736 -0.076789506 0.07790919
-0.047022372 -0.17321895 -0.006000228 0.024785792 0.0908008 -0.15692785 -0.044681486 -0.09803233
-0.054709952 -0.11146669 0.08099016 -0.06329481 -0.054890595 0.12589896 0.13584472 -0.06613146
-0.09211775 -0.048057232 -0.03656441 -0.10375587 -0.09127153 0.084948294 0.067992866 0.033217326
-0.013747939 -0.14388423 -0.03824958 0.07313532 0.13789468 0.043504916 -0.06628615 -0.016555218
-0.11661 -0.16015378 -0.10767515 -0.15602317 -0.050608546 -0.066863745 0.13115804 0.1224153
-0.07316884 0.0022241953 0.089705534 0.15038133 0.050221547 -0.07132791 0.09392192 0.06571589
0.05644392 0.0003783179 0.05315001 -0.12649736 0.026941806 0.043659307 0.06779506 -0.105224006
-0.009930317 -0.08758042 0.09690494 -0.14179757 0.04852679 -0.07895194 0.07146952 0.014434712
-0.03485435 0.11176708 0.07301693 0.07018239 -0.053304296 0.02338225 0.00577191 -0.057123303
-0.015013812 0.08812889 -0.06175581 0.079161376 0.06937883 -0.0142917875 -0.03263158 0.06634434
0.048335552 0.01834255 0.09720295 0.03495925 -0.14424308 -0.10917517 -0.0092103155 0.061181776
-0.021981996 0.13527465 0.08487258 0.099030614 0.042583734 0.15474498 -0.15912345 0.06913549
-0.093649894 -0.050875645 0.14181882 -0.1324263 0.026226537 -0.126004 0.05876147 0.0010774159
0.112335004 -0.029206812 0.15853958 -0.117600314 0.10997654 0.03835348 0.04246361 0.020768316

MLP.8.bias f4 [32]
00000000: cac7 b1bc bb2e e081 0e80 9f3c 898f 8bbd
00000010: 7143 58bd abad 82bd 2896 ae3d 0f3f c33d
00000020: f489 bbbd 734c cd3d b8e9 293d bf21 62bd
00000030: cf48 823d 9934 163d c15c 3281 2a86 0cbe
00000040: 775a cbbd fdfe 21bd 7dc9 bd3d 04f9 31bc
00000050: 3146 b9bd 61da 03be 9932 2ebc 2263 093e
00000060: 758c a7bb 2df8 d2bd 44f8 073e d99a da3b
00000070: 6d12 c3bc 7c4f 98bd 3a00 6e3c 5280 2f3c
-0.021701712 -8.235166e-38 0.01947024 -0.068144865 -0.052798692 -0.06380781 0.08524734 0.09533512
-0.09157172 0.10024347 0.041482657 -0.055207964 0.063615434 0.036671255 -3.2759984e-38 -0.13723055
-0.09929364 -0.039549816 0.092669465 -0.010862593 -0.09046591 -0.12876274 -0.010632181 0.13416722
-0.0051131793 -0.10301242 0.132783 0.0066712913 -0.023812497 -0.074370354 0.014526421 0.010711746

MLP.10.weight f4 [32, 32]
00000000: e94e 67bd 1ad8 8481 8039 80bd 29ac bc3d
00000010: 4be6 16be 0839 043e 7133 803d 6d02 37bd
00000020: d0f0 84bd 8402 0ebe f297 e83c cd2d 89bb
00000030: ea08 08be 8466 3e3d 5f17 f601 3309 35bd
00000040: f6f8 e33d f83d 16bd e81f 783c 60f1 ccbd
00000050: 5d4d d63c 90f9 dc3d 1460 8ebb 5e42 873d
00000060: a9f4 6ebd ddb5 c03d 7489 01be cd8a 723d
00000070: 3c43 073e 2ca6 ae3c 63a4 a5bc b23f 723d
00000080: f823 a5bd beeb d481 e2d5 dabb 5ea0 cf3d
00000090: 6e11 d5bd b07a 413b 815b 10bd cabc 97bc
000000a0: 5f37 853d afa5 34bd fb8a 833c 6a0b 37bd
000000b0: ec3d edbd 8562 1dbb 1d87 c801 9b22 83bd
000000c0: 8a42 083c 94f2 323d 2224 85bc cc4a 73bd
000000d0: 0081 093e 2093 f83d 3b5a 18be 1d58 6bbd
000000e0: f9c9 813d a4b9 053e fb11 9fbd 06bb 0f3c
000000f0: 9972 9d3c 16df 413d c3fe 7cbd 6fc1 bf3d
00000100: ef11 243e db2d 3b00 0c99 d6bb f253 3cbb
00000110: 0e5c dc3d 4e5c d73d 06d8 35bd a751 7a3d
00000120: 77ee 3a3d a1d7 8e3c 7968 8a3c 98fb 7ebd
00000130: 6fa4 743d 45f3 d6bb eda9 dc01 78fa 833d
00000140: 4bf4 983d c788 933d 8c27 233d b890 803c
00000150: a8ea 333d da1b 033a cf3f aabd 1038 493c
00000160: 47c5 8dbd 5416 0a3d a2ea 453d 3317 be3c
00000170: 2172 2dbd 0e73 bd3c bfee ce3b fbb6 a23d
00000180: 7940 913d 7fa2 b101 d7f8 83bc 13a7 c93c
00000190: a396 30be f6b0 1ebe daaf d0bc 3a82 da3d
000001a0: 016d 7abd de08 063e e89b b7bc 0939 2c3c
000001b0: 173b 183e 40ef 56bc e0b1 af01 bd7e 0fbb
000001c0: e759 09be c3fd 153d e1ae e5bd 070e 6a3d
000001d0: dc12 903c 1901 07bd 4f09 053d 27a3 933c
000001e0: 2db3 bd3d ac25 0d3d 979a 85bd e774 91bd
000001f0: 3ffa fabc 83b5 b83d c0d7 6f3c 9615 ebbd
00000200: 5d09 ac3d 568c b681 ed24 5e3d e607 c93d
00000210: ee74 14be 9bde e9bd 31ed 713d e8f0 b13d
00000220: 2eb8 c63c 4129 1b3e 53e6 513d 8c63 29bc
00000230: 8538 423e 70d5 d43b 2967 d901 a15c 843d
00000240: 71e5 e0bc 6589 1b3e 8e8a c83d 43a6 983c
00000250: accd 93bd fa41 4c3d 1941 bc3d 9a4d 173c
00000260: c055 1e3e 936f 9ebd 0cec 2cbd a225 6d3d
00000270: 4cbd bc3d f8bd f33d 176b 9e3d f563 003e
00000280: 0401 243e adcc 9581 5375 b33d 6073 f03d
00000290: cc35 e5bd 3a85 14bd e156 0c3d 770b d53d
000002a0: 0c92 86bd 4c9a adbd cfff 373b 35ca 22bd
000002b0: a8b7 b8bd cad5 02bd 9edc 9881 4ab1 703b
000002c0: aba9 f2bd 37ab 7b3e 9cdf 7b3c 926e 6d3d
000002d0: 9392 ce3d b87c 57be 4a91 06be 5e1f 34bd
000002e0: a0dd a7bd 2903 313c 47d0 723b bc78 8f3b
000002f0: b6bd 773d dd36 28be f837 873b 660f ff3d
00000300: 4031 053e 2ce4 a401 f17e 1b3d f6dc 5cbd
00000310: d551 42bc c8c6 38be 4101 af3d dcbe ca3d
00000320: 5665 1bbc a2b5 48bd 4830 803d 835a 933d
00000330: b4ce eabc cfad 9f3d 45d2 df01 c92d 293d
00000340: 2afb acbd bbac 50be ef87 1f3e 3f11 123d
00000350: 39b9 b3bd d92f 643d bce9 bcbd 6707 853d
00000360: 5978 71bd e317 ecbd 6e78 6c3d 14f8 1e3c
00000370: f054 b9bd b088 13bd 95ca be3d 26ca c8bd
00000380: ee4c fb3d f117 b301 b55e 9c3a 28a8 3abc
00000390: c99b 20be 0c3f 35bd 149a febc a071 04be
000003a0: 48d5 043c edef 0dbe 4f52 c9bb fd3a 553d
000003b0: d2fd b7bc 9975 eabb 1b06 db01 0f55 5e3d
000003c0: b682 f73d 4634 9bbd da6d aabd 5196 e63c
000003d0: 2fc1 48bd dfa5 103d 039a 19be c964 083e
000003e0: 4e5e e83d 0763 cd3d 6892 973d 17b2 1cbc
000003f0: 3131 dd3d aa63 083d 8ee5 603d c37c 1abd
-0.05647174 -4.879923e-38 -0.06260967 0.092125244 -0.14736287 0.1291238 0.06259812 -0.044680048
-0.06491244 -0.13868147 0.028392766 -0.004186368 -0.1328465 0.046484485 9.0399664e-38 -0.044198226
0.1113147 -0.03668019 0.015144326 -0.10006976 0.026159937 0.10789788 -0.0043449495 0.066044554
-0.058338795 0.09409688 -0.1265009 0.059214402 0.13209242 0.021319471 -0.020219987 0.059142776
-0.08063501 -7.8214774e-38 -0.006678329 0.101380095 -0.10403715 0.002952259 -0.035243515 -0.018522639
0.06504702 -0.04410332 0.016057482 -0.04468862 -0.11584076 -0.002401502 7.3662275e-38 -0.06403085
0.008316645 0.04368837 -0.016252581 -0.059397504 0.13428116 0.12137437 -0.1487817 -0.05745708
0.06337351 0.13059098 -0.077671014 0.008772617 0.019219683 0.047331892 -0.061766397 0.093630664
0.16022466 5.434744e-39 -0.0065490063 -0.0028736559 0.107597455 0.105156526 -0.04439547 0.061113026
0.045637574 0.017436804 0.01689552 -0.062251657 0.05972713 -0.0065597617 8.105907e-38 0.064442575
0.0746847 0.072038226 0.039832637 0.015694007 0.043924958 0.00050014036 -0.08312952 0.012281433
-0.06922393 0.0337127 0.048319466 0.023204422 -0.04234517 0.023126151 0.006315082 0.07945057
0.07092375 6.52527e-38 -0.016109867 0.0246158 -0.17244963 -0.15497193 -0.025474478 0.1066937
-0.06113911 0.1308932 -0.02241321 0.010511645 0.14866291 -0.013118565 6.4540085e-38 -0.002189561
-0.13413201 0.03661896 -0.11214996 0.057142284 0.017587118 -0.03296003 0.03247958 0.018022133
0.09262691 0.034459755 -0.06523626 -0.071023755 -0.030636905 0.090189956 0.014638841 -0.114787266
0.084002234 -6.7057613e-38 0.054234434 0.0981596 -0.1449773 -0.11419412 0.059064094 0.08688527
0.024257746 0.15152456 0.051245045 -0.010338675 0.18966873 0.0064951703 7.986124e-38 0.0646298
-0.027453156 0.1518913 0.09792052 0.018633967 -0.07216963 0.049867608 0.09192104 0.00923481
0.15462399 -0.07736125 -0.0422173 0.057897218 0.09215793 0.11901468 0.077352695 0.1253813
0.16016012 -5.502765e-38 0.08762612 0.11740756 -0.111919016 -0.036259867 0.03426254 0.10402577
-0.06570825 -0.084766954 0.0028076058 -0.03974362 -0.09019405 -0.031942166 -5.615255e-38 0.0036726766
-0.11848768 0.24577032 0.015373137 0.057966776 0.100865506 -0.2104367 -0.13141361 -0.043975227
-0.081965685 0.010803976 0.0037050413 0.0043784063 0.060483657 -0.16427179 0.004126545 0.12454109
0.13007069 6.0571496e-38 0.037962858 -0.053921662 -0.011860331 -0.18044579 0.08545161 0.09899685
-0.00948461 -0.049001344 0.06259209 0.07194998 -0.028663017 0.07796823 8.2218985e-38 0.04130343
-0.08446343 -0.20378391 0.15579198 0.03566098 -0.08775563 0.055709694 -0.09224269 0.064955525
-0.058952663 -0.115279935 0.05773204 0.009702701 -0.09049404 -0.036019027 0.09315983 -0.09804182
0.122705325 6.578857e-38 0.001193008 -0.011392631 -0.15684427 -0.04424958 -0.03107933 -0.1293397
0.008107491 -0.13861056 -0.006143845 0.05205821 -0.022459898 -0.007155132 8.0456656e-38 0.054280337
0.12085478 -0.0757833 -0.08321734 0.028147848 -0.04901236 0.035314437 -0.15000157 0.13319696
0.11346112 0.100286536 0.07400972 -0.009563944 0.10800398 0.033298172 0.05490642 -0.03771664

MLP.10.bias f4 [32]
00000000: 0796 7abc cee4 b53d 7fb3 823c 73d7 c13c
00000010: db50 1ebe 3d74 aabc a8c1 11be 973c e6bb
00000020: 450f 0cbe 8d11 f7bd 053e 08bd 4ef9 f7b9
00000030: 25cd 2f3d 7814 f63d cd38 1ebd a34a 3fbc
00000040: 2ed7 353d 6444 d5bb 133a 2b3d 1250 ffbd
00000050: 244a 013e 131f 1b3d 3b87 24bd 5c7e e2bc
00000060: a314 383d d87e 03bd dfe4 52bc 30eb 1a3e
00000070: b184 10be 4303 243e 8a73 f9bd 4f3b 2f3d
-0.015294558 0.08881532 0.015954731 0.023662305 -0.15460531 -0.02080738 -0.1423403 -0.007026266
-0.136777 -0.120638944 -0.03326227 -0.00047297258 0.04292025 0.12015623 -0.03862839 -0.01167551
0.044394664 -0.006508397 0.04180343 -0.12466444 0.12625939 0.03787143 -0.04016803 -0.027648143
0.044941556 -0.03210339 -0.01287195 0.1512878 -0.14113118 0.16016869 -0.121802405 0.04278117

MLP.11.weight f4 [32]
00000000: 7fe0 693f ff4f 6d3f 3a69 643f e6f0 5e3f
00000010: ba8d 6b3f 2a28 603f 53f4 513f cf24 433f
00000020: 44b9 423f 17b8 5d3f 5b7d 6f3f 7dda 363f
00000030: 06b4 303f ffa5 503f 6cdc 5e3f 569f 5e3f
00000040: e866 613f 8cfa 6b3f 8c14 543f ec24 663f
00000050: 1bc9 6f3f 661f 2e3f 262b 6d3f 54b8 633f
00000060: 05a1 603f c35a 5d3f 5700 4a3f a36d 643f
00000070: 231a 343f 9d70 6d3f b7ee 5d3f 396b 603f
0.9135818 0.9270019 0.89223063 0.8708633 0.9201313 0.87561285 0.82013434 0.7622804
0.7606394 0.86609024 0.9355065 0.71427137 0.69024694 0.8150329 0.8705509 0.8696188
0.8804765 0.9217918 0.8284385 0.8990009 0.9366624 0.6801666 0.92643964 0.8895314
0.87745696 0.86466616 0.7890677 0.8922979 0.7035238 0.9274996 0.86692375 0.8766361

MLP.11.bias f4 [32]
00000000: c48a a9ba 3624 c43a d4d3 f1bb c211 10bb
00000010: 5191 133c d665 14bc bcb7 423b 9781 833b
00000020: 665e 313c 72a0 323c 3b55 0cbc 3d90 cc3a
00000030: 5738 1e3b 9912 093c b66b 80bc 27f3 a13b
00000040: 51d0 b23b 89bb 133a 2a0c 32bb e699 b439
00000050: 2a4e 903a 2aa6 74bb f594 a63c 933c 9e3b
00000060: 5ee4 3a3a 72a4 673b 6ada 24ba e66f a1bb
00000070: 99b7 053c ef22 2b3c f3be c83c e3a9 0e3a
-0.0012935032 0.0014964405 -0.007379988 -0.002198324 0.009006814 -0.009057483 0.0029711565 0.004013251
0.010825729 0.010902511 -0.008565242 0.0015606951 0.0024142468 0.00836625 -0.01567636 0.004942316
0.005456962 0.000563555 -0.0027167895 0.0003444694 0.0011009623 -0.0037330487 0.0203347 0.0048289984
0.0007129366 0.003534582 -0.000628865 -0.0049266694 0.008161449 0.010445341 0.024505114 0.0005442185

MLP.13.weight f4 [4, 32]
00000000: 4a0f e23d 099f ffbd cae1 10bd 5b97 0cbd
00000010: 9823 b1bd 503d a13d a0f2 c1bd 2779 c7bd
00000020: 0ee0 93bd 9777 20be dba4 063e 6f04 ce3d
00000030: 1784 713d cd1a f33c ad60 053e a764 f2bc
00000040: e3ac 033e a328 68bd 382f 563d 0985 04bd
00000050: f934 043b 7e6c b33d 72e3 95bc 854c 13be
00000060: b2d3 3cbd c478 fdbc d1df 4fbd ead2 d43d
00000070: aec3 55bd 0af3 a3bd 9ec2 22bd e83a a33d
00000080: 3f12 d0bd df1f 84bd 91a1 9fbd e1e4 2ebc
00000090: e27d 63bd c677 013e 5a02 7abd e483 d53b
000000a0: 59ce 68bd 6c61 8dbd 2f4d 9e3b 58c6 613b
000000b0: 3d18 cc3b 3dbc 163d 5fdb 58bd 7361 53bd
000000c0: dbef da3d 9688 a03d b389 d73c 453a 113e
000000d0: bcfc e3bb 5678 d83b aa5d e8bc 946c 313d
000000e0: 66ab e9bc c20e 563d 264b 1fbd 7ac8 d4bd
000000f0: 6abd 933c 763b 78bd 5a5a 64bd f40d fdbc
00000100: b4e2 9a3d 84c8 023e bfe6 9d3d 63c9 a4bd
00000110: ec95 ac3d f00a 8a3d eb3c 0cbd b465 4cbd
00000120: 017f b7bb 1e85 bc3a 468b edbd 3019 d33c
00000130: c004 c7bd 860e 98bd 8902 5a3d 5f63 863d
00000140: 0bf4 0fbc ea9d e93d 1550 823d f9db f8bd
00000150: deaf 053e a0f4 573c 5e59 02be 05ad eb3d
00000160: 5991 bb3d 26d8 f8bc b14a 923c 19f4 813d
00000170: 8b8e afbc aaf0 fb3d 9b4f bbbd d453 b8bd
00000180: 520f 36bd 8934 d5bc 7b38 083c 656e ae3c
00000190: 708b 0abc 50bc 08bd 8a15 14bb 0de8 aa3c
000001a0: c914 4cbc b73a 85bd 7dd4 60bc cedc 4e3c
000001b0: 0eba 0ebd 20c5 f23b c789 ecbb e321 9ebc
000001c0: 0245 83bb bbd0 563c 5f87 09bd bec5 0abc
000001d0: b3e1 e73b f00e 3a3d dd8b a83c ea0c ff3c
000001e0: ee79 383d 675a 8dbd 56fe 993d 5e7c c9bb
000001f0: a798 8f3d 5b7c 123b 6819 4dbd aa06 373d
0.110380724 -0.124815054 -0.03537158 -0.03432403 -0.08649367 0.078730226 -0.09470105 -0.09739905
-0.072204694 -0.1567062 0.13148825 0.100594394 0.05896386 0.029675866 0.1302516 -0.02958901
0.1285892 -0.05667938 0.052291125 -0.032353435 0.0020173176 0.087609276 -0.018296931 -0.14384659
-0.046100326 -0.030941375 -0.050750557 0.10391791 -0.052188568 -0.080053404 -0.039736383 0.0797022
-0.1015973 -0.064513914 -0.07794488 -0.010674686 -0.055539973 0.12643346 -0.0610374 0.0065159667
-0.056837413 -0.069033474 0.0048309783 0.0034450497 0.0062284754 0.03680061 -0.052943584 -0.051606607
0.1069028 0.07838552 0.026310777 0.14182384 -0.0069576185 0.006606142 -0.028364975 0.04331644
-0.028524112 0.052260168 -0.038890027 -0.103898 0.018034656 -0.06060358 -0.05575023 -0.030890442
0.075627714 0.12771803 0.07710027 -0.08046224 0.08427033 0.067403674 -0.034237783 -0.04990168
-0.005599857 0.0014382934 -0.1159883 0.025768846 -0.09717703 -0.07424645 0.053225074 0.06561922
-0.008786212 0.11407073 0.06362931 -0.121513315 0.1305537 0.013180882 -0.12729403 0.1150761
0.09158582 -0.030376505 0.017857881 0.06345386 -0.021430274 0.123017624 -0.09146043 -0.09000364
-0.044448204 -0.026026027 0.008314247 0.021292875 -0.008456096 -0.033382714 -0.0022595846 0.020862604
-0.012456127 -0.065053396 -0.013722536 0.012625886 -0.034845404 0.007408753 -0.007218573 -0.019303268
-0.004006029 0.013111289 -0.033576366 -0.008469997 0.007076466 0.0454244 0.020574505 0.031134088
0.045038156 -0.069020085 0.07519214 -0.006148859 0.07011538 0.0022351954 -0.050073057 0.04468409

MLP.13.bias f4 [4]
00000000: 7842 5ebd 11f5 b73d 611c 27be 4f31 013b
-0.05426261 0.089822896 -0.1631942 0.0019713228
