example/model/polygon_robot/model_3500.pth (torch, 24610 bytes, 18 tensors)

MLP.0.weight f4 [32, 2]
0.32798776 -0.21294788 0.10835442 -0.47161803 -0.59166867 0.39035553 -0.43046427 0.36417946
0.2686866 -0.34046412 -0.554144 -0.40808252 -0.20092928 -0.34815 0.44958368 -0.37503585
0.270651 -0.16535765 -0.021335261 -0.50767875 0.35174644 0.2676006 0.5055159 -0.078842744
-0.304457 0.11700342 0.025818307 -0.41431773 0.3471869 -0.2362286 0.51736164 0.4264464
-0.58079654 -0.4113822 0.32467538 -0.5656106 0.3993291 -0.49711615 -0.008513287 -0.101324745
-0.030650644 0.27151808 0.3663109 0.034438502 0.20478062 0.16629685 0.0799522 0.22377609
0.12109428 0.3182851 -0.10201285 0.2511991 -0.03631932 -0.51907104 -0.0077255103 -0.06535312
-0.16238365 -0.18918599 0.13920671 0.13158396 0.53052014 -0.38844195 -0.023478137 0.057386786
00000000: 03ee a73e 020f 5abe ece8 dd3d eb77 f1be
00000010: 9977 17bf aedc c73e d065 dcbe bb75 ba3e
00000020: 4a91 893e 5051 aebe 62dc 0dbf 31f0 d0be
00000030: 68c0 4dbe b840 b2be d52f e63e b304 c0be
00000040: c592 8a3e 8453 29be 49c7 aebc 3cf7 01bf
00000050: 1c18 b43e f202 893e 7d69 013f 4e78 a1bd
00000060: cae1 9bbe 7d9f ef3d ea80 d33c 7421 d4be
00000070: 7bc2 b13e e9e5 71be d071 043f 2f57 da3e
00000080: 15af 14bf b0a0 d2be da3b a63e dbcb 10bf
00000090: dd74 cc3e 0286 febe 507b 0bbc 5983 cfbd
000000a0: 0f17 fbbc 6b04 8b3e 1a8d bb3e 630f 0d3d
000000b0: 03b2 513e b949 2a3e fbbd a33d 8f25 653e
000000c0: 4700 f83d 44f6 a23e 1dec d0bd 2b9d 803e
000000d0: 91c3 14bd d7e1 04bf 4726 fdbb dbd7 85bd
000000e0: e647 26be f9b9 41be 348c 0e3e f2bd 063e
000000f0: 2bd0 073f dde1 c6be 3955 c0bc 680e 6b3d

MLP.0.bias f4 [32]
0.0053909086 0.51088715 0.01435038 0.25138345 0.31937605 0.14619005 0.18137956 0.09721076
0.3045233 0.0618652 -0.1204143 -0.09630651 0.17317496 -0.2074931 -0.0018137376 0.20028707
-0.1808519 0.14972757 -0.32894358 -0.22504117 -0.107606895 0.35151234 0.20289353 0.10667098
0.35973984 -0.3977915 0.2333648 0.3638884 -0.18807083 -0.31404376 -0.06437734 -0.3267582
00000000: 38a6 b03b 80c9 023f db1d 6b3c 55b5 803e
00000010: 4285 a33e d8b2 153e 90bb 393e 6f16 c73d
00000020: 7aea 9b3e 5d66 7d3d c69b f6bd 593c c5bd
00000030: c754 313e 1279 54be efba edba 0e18 4d3e
00000040: 3e31 39be 2f52 193e 4b6b a8be 3171 66be
00000050: 0161 dcbd 6df9 b33e 52c3 4f3e 5176 da3d
00000060: d22f b83e 54ab cbbe 2ff7 6e3e 954f ba3e
00000070: a495 40be 58ca a0be 44d8 83bd da4c a7be

MLP.1.weight f4 [32]
0.6848598 0.7277529 0.5395622 0.7128308 0.6347692 0.62358284 0.6267247 0.51780504
0.6269618 0.64329183 0.5582277 0.77266896 0.63298595 0.7553522 0.6096611 0.7483228
0.6108592 0.6622153 0.69969314 0.49847177 0.8081309 0.69421226 0.70278853 0.7297035
0.69139045 0.80353 0.7124694 0.5829307 0.7464247 0.69292986 0.64335823 0.7787039
00000000: f952 2f3f 044e 3a3f c020 0a3f 147c 363f
00000010: 3c80 223f 20a3 1f3f 0871 203f df8e 043f
00000020: 9280 203f c6ae 243f 03e8 0e3f a2cd 453f
00000030: 5e0b 223f c35e 413f c012 1c3f 1592 3f3f
00000040: 4561 1c3f f186 293f 171f 333f b137 ff3e
00000050: abe1 4e3f e5b7 313f f3e9 333f d9cd 3a3f
00000060: f7fe 303f 24b4 4d3f 6564 363f f23a 153f
00000070: b015 3f3f da63 313f 20b3 243f 2459 473f

MLP.1.bias f4 [32]
-0.00064840395 -0.015002019 -0.03664745 0.0012227929 0.0104503175 0.038058367 -0.02093859 -0.07047653
-0.046888385 -0.004255364 0.0040013236 0.021557963 0.015674662 -0.010464499 -0.005189257 -0.036251314
-0.064071625 0.028245397 -0.013282697 -0.013144397 0.048751567 0.0011839637 0.035441387 0.016365059
0.052283667 -0.029637698 0.011439834 0.0049836775 -0.02781597 0.010775563 0.043920454 -0.02286448
00000000: a7f9 29ba 07cb 75bc a31b 16bd 1f46 a03a
00000010: cf37 2b3c 17e3 1b3d 6887 abbc 0056 90bd
00000020: 090e 40bd 9570 8bbb 891d 833b 539a b03c
00000030: 2668 803c 4a73 2bbc a50a aabb 427c 14bd
00000040: fc37 83bd e462 e73c ab9f 59bc 995b 57bc
00000050: b9af 473d 3b2f 9b3a fd2a 113d 0410 863c
00000060: 6627 563d c2ca f2bc 246e 3b3c 1e4e a33b
00000070: 51de e3bc fd8b 303c efe5 333d 4a4e bbbc

MLP.3.weight f4 [32, 32]
-0.055584986 0.04197089 -0.012171325 -0.14040951 0.02991205 -0.078491315 0.14437152 0.00055634935
0.111730926 0.10516735 -0.0006011786 -0.11509568 0.14208867 -0.07494454 -0.12717421 0.03721316
-0.044523936 -0.02734988 -0.053602085 -0.05044599 0.08484918 0.10462029 -0.010879681 0.0054446985
0.15490587 -0.12387613 0.10686179 0.10431522 -0.09296058 -0.051904388 0.031180235 0.00748734
0.022914901 0.04021896 -0.014736298 -0.073674776 -0.079851545 -0.09491515 -0.10327319 -0.07923805
-0.03709411 -0.03949823 -0.052034587 0.040419992 -0.048016965 -0.0848534 0.019320369 -0.02111694
-0.10797713 0.08079927 0.05809893 0.025517872 -0.12672214 0.043138385 -0.0306636 0.11008013
0.08059028 0.06518306 -0.009267196 -0.007434282 0.07718733 -0.053892814 -0.112033546 0.097167656
0.061538626 0.012404211 -0.031150041 -0.0018937192 0.080935724 0.124440074 -0.07263386 0.043939594
-0.020680951 -0.08329457 0.04534599 0.015334713 -0.028078603 -0.105949014 -0.052193347 -0.094085924
0.008370498 -0.034298144 0.007854884 -0.018432742 -0.14027858 0.07051394 -0.083032034 0.07020518
0.022991708 -0.11579423 0.13851142 0.081261955 -0.0010394127 -0.14524423 -0.07189104 -0.10121459
0.16793136 -0.0030394704 0.11821353 -0.16503923 -0.022349216 0.070855916 -0.009236553 -0.0138137685
-0.124490395 0.081366524 -0.012998325 0.21247642 0.06939217 -0.14088611 0.0851519 -0.17642628
-0.10764461 0.009535768 0.11347471 -0.001276887 -0.14263198 0.14499617 0.028399004 0.13667539
0.043124996 0.13673101 -0.036389653 -0.21450755 0.0009391574 0.09791792 0.12564304 0.13978897
-0.13372074 -0.10582825 -0.0032165328 0.045257844 -0.043680515 -0.0065472815 0.094103776 0.078740284
0.072953135 -0.01730169 -0.122772664 -0.03560395 0.04648285 0.015775213 0.07187164 -0.0981404
0.05383295 0.09365079 0.11427383 0.06838639 0.12848091 -0.15836091 0.048806988 -0.032778997
0.118687615 0.08218174 -0.025238622 -0.020180317 0.056064636 0.067188516 0.026410395 0.06960938
-0.18967892 0.038633987 0.1569351 -0.029809637 -0.18299192 0.048138075 -0.031282794 -0.074073315
-0.15061131 -0.015288216 0.09310915 0.017092284 -0.009415498 0.13007344 -0.19147883 0.055535637
0.14721183 -0.14122239 -0.039732277 0.1407652 -0.16527966 -0.05844325 -0.036372703 -0.15375485
-0.17686373 0.08457059 0.11071059 0.070164636 0.028479777 0.054667473 0.03594823 0.09447818
0.12010187 -0.012160387 -0.051515948 0.10115015 0.114214465 -0.00945641 -0.005856083 -0.056900326
-0.12638652 0.035672467 -0.02570334 0.10861237 -0.121598646 -0.036706686 0.08633233 0.11987586
0.030991634 0.11283449 -0.12210055 -0.06832706 -0.10825795 -0.100752026 0.10701125 -0.075372376
-0.060480736 -0.13369533 0.05492443 -0.0125167025 0.073490776 -0.045297537 -0.097265095 0.013747174
0.029113231 -0.033230066 0.051774606 0.20720936 0.026716147 0.13803904 0.027685992 0.07212657
-0.10392256 0.017970681 -0.052593216 0.07245014 -0.01208127 -0.036006782 -0.05938762 0.035359893
-0.09563668 -0.060817473 -0.096914865 0.04295766 0.120570876 0.013460336 -0.13337202 -0.102345474
0.095958166 0.027971901 -0.058561854 0.05559136 -0.14268321 0.11148874 -0.012404753 0.0012458949
00000000: 15ad 63bd abe9 2b3d 3d6a 47bc 83c7 0fbe
00000010: 1e0a f53c 0ec0 a0bd 21d6 133e f9d7 113a
00000020: 2fd3 e43d fb61 d73d 6a98 1dba 49b7 ebbd
00000030: b17f 113e 867c 99bd f539 02be d46c 183d
00000040: bb5e 36bd db0c e0bc dc8d 5bbd 74a0 4ebd
00000050: 68c5 ad3d 2a43 d63d b140 32bc 7169 b23b
00000060: a59f 1e3e c5b2 fdbd 5bda da3d 38a3 d53d
00000070: 1e62 bebd b299 54bd b16d ff3c 5c58 f53b
00000080: 08b8 bb3c a3bc 243d 8370 71bc cde2 96bd
00000090: 3589 a3bd e062 c2bd e580 d3bd 8f47 a2bd
000000a0: feef 17bd e5c8 21bd 3822 55bd 6f8f 253d
000000b0: 70ad 44bd 9fc7 adbd c045 9e3c 6ffd acbc
000000c0: 1d23 ddbd 167a a53d 25f9 6d3d db0a d13c
000000d0: 73c3 01be e0b1 303d 3b32 fbbc b171 e13d
000000e0: 840c a53d b27e 853d 70d5 17bc 479b f3bb
000000f0: 6414 9e3d b6be 5cbd d871 e5bd d6ff c63d
00000100: ed0f 7c3d 083b 4b3c 5f2e ffbc ac36 f8ba
00000110: a1c1 a53d 70da fe3d 10c1 94bd 01fa 333d
00000120: 196b a9bc 5896 aabd b8bc 393d 733e 7b3c
00000130: 1905 e6bc ccfb d8bd b1c8 55bd 1fb0 c0bd
00000140: 6a24 093c 367c 0cbd c5b1 003c 4300 97bc
00000150: 30a5 0fbe 9d69 903d b30c aabd bcc7 8f3d
00000160: 1b59 bc3c 8625 edbd f0d5 0d3e ab6c a63d
00000170: e73c 88ba e7ba 14be 9c3b 93bd 9849 cfbd
00000180: 33f6 2b3e da31 47bb ef19 f23d 0b00 29be
00000190: b415 b7bc e81c 913d e954 17bc 2553 62bc
000001a0: d2f4 febd 7ea3 a63d edf6 54bc 6b93 593e
000001b0: 7b1d 8e3d 7344 10be 1f64 ae3d 17a9 34be
000001c0: c774 dcbd e93b 1c3c 6e65 e83d 385d a7ba
000001d0: 1e0e 12be e079 143e 07a5 e83c a2f4 0b3e
000001e0: d6a3 303d 3703 0c3e 510d 15bd dea7 5bbe
000001f0: c931 763a 3189 c83d 92a8 003e d724 0f3e
00000200: 17ee 08be 7bbc d8bd 77cc 52bb 4a60 393d
00000210: 57ea 32bd 948a d6bb 7bb9 c03d 9642 a13d
00000220: 7468 953d 46bc 8dbc 3c70 fbbd 73d5 11bd
00000230: cd64 3e3d 053b 813c 7031 933d d6fd c8bd
00000240: f07f 5c3d fccb bf3d 6608 ea3d 2a0e 8c3d
00000250: 8090 033e 5d29 22be d6e9 473d 4543 06bd
00000260: 7e12 f33d e64e a83d 3ac1 cebc 3151 a5bc
00000270: 08a4 653d 229a 893d 9d5a d83c 5d8f 8e3d
00000280: 313b 42be ac3e 1e3d 98b3 203e 5733 f4bc
00000290: 3c62 3bbe 6e2c 453d 6322 00bd c0b3 97bd
000002a0: da39 1abe 6d7b 7abc 03b0 be3d 1e05 8c3c
000002b0: 7643 1abc f931 053e 0713 44be 5679 633d
000002c0: b3be 163e 9a9c 10be 50be 22bd c124 103e
000002d0: 123f 29be 3062 6fbd 8bfb 14bd e971 1dbe
000002e0: c41b 35be 5833 ad3d 3cbc e23d 7ab2 8f3d
000002f0: 6c4e e93c 00eb 5f3d 743e 133d c77d c13d
00000300: f8f7 f53d 5c3c 47bc 6302 53bd cf27 cf3d
00000310: 46e9 e93d 0fef 1abc 62e4 bfbb 5110 69bd
00000320: 786b 01be 4b1d 123d d08f d2bc 2a70 de3d
00000330: b608 f9bd c059 16bd 01cf b03d 7a81 f53d
00000340: 2be2 fd3c c515 e73d da0f fabd 0fef 8bbd
00000350: 58b6 ddbd 1457 cebd b728 db3d d55c 9abd
00000360: a6ba 77bd 6ee7 08be 70f8 603d db12 4dbc
00000370: 5582 963d e989 39bd ec32 c7bd d43b 613c
00000380: df7e ee3c 401c 08bd 9c11 543d b12e 543e
00000390: d2db da3c 1b5a 0d3e bccd e23c 18b7 933d
000003a0: 5ad5 d4bd 4037 933c fc6b 57bd bd60 943d
000003b0: 85f0 45bc d97b 13bd 6f40 73bd 89d5 103d
000003c0: 2add c3bd be1b 79bd 4d7b c6bd 5ff4 2f3d
000003d0: dded f63d be88 5c3c ad92 08be 819a d1bd
000003e0: b785 c43d 5425 e53c 8ede 6fbd c4b3 633d
000003f0: 8c1b 12be 3554 e43d 4e3d 4bbc 4c4d a33a

MLP.3.bias f4 [32]
0.09731915 -0.09930969 -0.14370923 -0.026038604 0.0072815283 -0.0029217906 0.011820483 0.018258864
0.101856045 -0.125732 -0.059018716 -0.0011952657 -0.023762513 -0.05058978 -0.10262395 -0.17566518
-0.02927271 -0.020028317 -0.03461423 0.14534089 -0.10760849 -0.09278097 0.17050442 -0.0051704664
0.093840785 -0.040299635 -0.048123203 0.058951188 -0.03363478 0.031491827 -0.14631382 0.10449293
00000000: 434f c73d e162 cbbd 8328 13be e94e d5bc
00000010: e399 ee3b 837b 3fbb b3aa 413c 9d93 953c
00000020: e799 d03d e4bf 00be 9cbd 71bd 76aa 9cba
00000030: 9aa9 c2bc 3b37 4fbd 812c d2bd 93e1 33be
00000040: 53cd efbc 6d12 a4bc a7c7 0dbd 3ed4 143e
00000050: d761 dcbd f303 bebd b698 2e3e 046d a9bb
00000060: 992f c03d 3b11 25bd d61c 45bd cd76 713d
00000070: a0c4 09bd 93fd 003d 4ad3 15be 6400 d63d

MLP.5.weight f4 [32, 32]
0.018230349 -0.019605478 0.07137434 -0.07844007 -0.046046615 -0.09295426 0.15336655 -0.14168832
0.010696666 -0.031518053 -0.09118932 0.0347334 -0.029084256 0.003782222 0.03706876 -0.12727049
-0.04335831 0.004813694 0.06054663 0.06858606 -0.04399599 0.06341949 0.094373964 -0.076611266
-0.09243566 0.009584942 0.012749397 0.0042280913 0.09991746 -0.04788933 -0.041606292 -0.024993628
-0.0168003 -0.054597173 -0.0067170463 -0.0035060046 -0.05568487 0.11466137 -0.088990405 0.017816406
0.04235661 -0.002385285 -0.0056460146 -0.0006941266 -0.046347916 0.023794433 -0.004045534 0.03320521
0.049769614 0.013693066 -0.013615908 -0.13839605 0.021811686 0.08530758 0.022105051 -0.024975542
0.065409 0.06917756 0.06178765 -0.046138518 -0.062365957 0.09675221 0.08792572 0.023862714
-0.1037976 -0.05953088 0.012235537 0.069849804 0.042125903 -0.17197135 -0.06915423 0.02637565
0.009427797 -0.062394477 -0.014096736 -0.14545117 -0.08121709 -0.106307015 0.03376108 -0.11576735
-0.02525485 0.075099915 -0.06728043 0.11704437 -0.0027202454 -0.083529025 -0.02744541 -0.05307972
0.0136153195 0.1661162 -0.14186905 0.019028971 -0.037412263 0.10681081 0.08366878 0.048567675
-0.04717197 -0.0957599 0.09467221 -0.04034078 0.13683715 0.23852168 0.08559391 -0.050259076
0.012212951 -0.061063506 0.04297703 0.088020876 0.08501049 0.10049124 -0.0025353744 -0.0746556
-0.041926432 0.097166955 -0.02234657 -0.0785925 0.040051576 0.088694416 0.06594346 0.034447
-0.07800092 -0.026797691 -0.06541899 -0.051737934 0.030008882 0.1442425 0.06873453 0.067934744
-0.084694065 0.051952563 -0.02794056 0.01151383 -0.014216906 -0.07375207 0.05428963 -0.08294236
0.009563228 -0.06808822 0.007423216 0.102453515 -0.08159184 -0.019769209 0.052813984 -0.12378395
0.058292303 0.043666676 -0.09645904 0.048460882 0.061772104 0.091823794 -0.13971362 -0.060836848
-0.06974956 0.032362245 0.056691293 0.084431276 -0.016476046 -0.03860542 0.031076193 0.08387621
-0.05864096 -0.06587267 0.12478903 -0.113681406 -0.096946284 -0.09873367 0.024386803 0.052684244
0.049314197 -0.046283036 -0.09327427 0.099867746 0.053535964 -0.04898344 0.07319786 -0.048429225
0.024444811 -0.04326662 0.06269395 0.08876538 -0.05202857 0.02605174 0.14097033 0.1649652
-0.023343882 0.09240883 -0.079351686 -0.01241033 -0.06386914 0.04569706 0.08805499 0.15243155
0.07106549 0.052229922 -0.11107321 0.057003736 0.043319948 0.00035464982 -0.020007009 -0.10909471
0.10759508 0.036104217 0.045918103 0.05582396 0.0550615 0.05954791 -0.049287725 -0.12081327
0.028197188 -0.006340481 0.08852118 -0.0899876 0.0060531283 0.09627549 -0.040093873 0.081609845
0.08839161 0.010336621 0.05484347 -0.088543594 0.12153234 -0.119974844 -0.0036820644 -0.0031633007
-0.031424448 0.034254458 0.013062502 0.22889471 -0.10306755 -0.093312 -0.029912032 -0.0864086
-0.016859228 -0.056903526 -0.037495248 -0.032506824 -0.02695672 -0.07863486 -0.083484516 0.044819295
-0.015063753 -0.10041781 -0.038763452 0.03149328 -0.017803114 -0.060627222 -0.028107332 0.098771006
0.14969458 -0.056155276 0.03123068 0.035369795 0.1457516 0.1825695 -0.06779032 0.025326055
00000000: d057 953c ab9b a0bc b62c 923d 30a5 a0bd
00000010: 609b 3cbd ce5e bebd 1f0c 1d3e be16 11be
00000020: 1241 2f3c 1319 01bd 77c1 babd 9c44 0e3d
00000030: 1b42 eebc 28df 773b 69d5 173d 3253 02be
00000040: 7c98 31bd 31bc 9d3b beff 773d d976 8c3d
00000050: 2435 34bd 14e2 813d 2347 c13d 5ee6 9cbd
00000060: e84e bdbd 290a 1d3c d9e2 503c cd8b 8a3b
00000070: 86a1 cc3d 9a27 44bd 5c6b 2abd 70bf ccbc
00000080: c8a0 89bc 49a1 5fbd ab1a dcbb ffc4 65bb
00000090: d115 64bd 95d3 ea3d 9a40 b6bd b6f3 913c
000000a0: 207e 2d3d 7152 1cbb 3402 b9bb 0cf6 35ba
000000b0: 50d7 3dbd 8bec c23c 6690 84bb 3002 083d
000000c0: 39db 4b3d e258 603c 4215 5fbc b2b7 0dbe
000000d0: 6cae b23c beb5 ae3d a715 b53c 8299 ccbc
000000e0: 27f5 853d f7ac 8d3d 0c15 7d3d befb 3cbd
000000f0: 7273 7fbd 0626 c63d 6612 b43d bd7b c33c
00000100: d693 d4bd a7d6 73bd 9077 483c 6a0d 8f3d
00000110: 368c 2c3d 4219 30be bca0 8dbd bf11 d83c
00000120: 0c77 1a3c 5a91 7fbd fff5 66bc 27f1 14be
00000130: 2555 a6bd 7eb7 d9bd 0f49 0a3d 6f17 edbd
00000140: 42e3 cebc fccd 993d 52ca 89bd f5b4 ef3d
00000150: 2546 32bb 4411 abbd 32d5 e0bc 1f6a 59bd
00000160: ca12 5f3c 5d1a 2a3e 1f46 11be a5e2 9b3c
00000170: 9a3d 19bd a0bf da3d 8a5a ab3d e6ee 463d
00000180: 6537 41bd c41d c4bd 81e3 c13d 603c 25bd
00000190: 0a1f 0c3e 073f 743e dc4b af3d 76dc 4dbd
000001a0: d418 483c ba1d 7abd af08 303d 4a44 b43d
000001b0: fb19 ae3d 5ace cd3d 8628 26bb 09e5 98bd
000001c0: 0dbb 2bbd 78ff c63d 2710 b7bc 1bf5 a0bd
000001d0: 1f0d 243d 6ba5 b53d 5d0d 873d 4c18 0d3d
000001e0: f2be 9fbd d586 dbbc 64fa 85bd 28eb 53bd
000001f0: 30d5 f53c 4eb4 133e b0c4 8c3d 5f21 8b3d
00000200: 1574 adbd 36cc 543d 9ae3 e4bc 81a4 3c3c
00000210: 07ee 68bc 530b 97bd ce5e 5e3d afdd a9bd
00000220: 16af 1c3c d671 8bbd 733e f33b 26d3 d13d
00000230: 9f19 a7bd 09f3 a1bc 7a53 583d 7182 fdbd
00000240: e9c3 6e3d d4db 323d 518c c5bd eb7e 463d
00000250: bf04 7d3d 1d0e bc3d 1611 0fbe 0f30 79bd
00000260: dbd8 8ebd 468e 043d 2135 683d 4eea ac3d
00000270: c6f8 86bc b820 1ebd 8093 fe3c 4ac7 ab3d
00000280: 8131 70bd 40e8 86bd 6491 ff3d ccd1 e8bd
00000290: c68b c6bd e134 cabd d5c6 c73c 6fcb 573d
000002a0: affd 493d 4893 3dbd 9506 bfbd 7687 cc3d
000002b0: 8748 5b3d dca2 48bd c2e8 953d b95d 46bd
000002c0: 7c40 c83c 5738 31bd b065 803d a0ca b53d
000002d0: e91b 55bd 756a d53c 875a 103e a3ec 283e
000002e0: ab3b bfbc d740 bd3d 2383 a2bd b254 4bbc
000002f0: d3cd 82bd d72c 3b3d 2d56 b43d 0417 1c3e
00000300: c98a 913d 0bef 553d 5a7a e3bd c07c 693d
00000310: 4270 313d 4bf0 b939 bde5 a3bc 0c6d dfbd
00000320: cf5a dc3d 04e2 133d 9f14 3c3d aaa7 643d
00000330: 2b88 613d 82e8 733d ede1 49bd f36c f7bd
00000340: cafd e63c cfc3 cfbb 984a b53d 6b4b b8bd
00000350: 5259 c63b 162c c53d 7939 24bd 1023 a73d
00000360: a906 b53d ee5a 293c 8ca3 603d 5856 b5bd
00000370: f3e5 f83d 5fb5 f5bd ca4e 71bb 614f 4fbb
00000380: ecb6 00bd 674e 0c3d 1b04 563c 6063 6a3e
00000390: 1415 d3bd 5d1a bfbd 140a f5bc fef6 b0bd
000003a0: 5d1c 8abc ac13 69bd 9e94 19bd e025 05bd
000003b0: 57d4 dcbc 500b a1bd eef9 aabd 7094 373d
000003c0: f6cd 76bc daa7 cdbd 6dc6 1ebd 19ff 003d
000003d0: d6d7 91bc 4054 78bd 5941 e6bc 7448 ca3d
000003e0: 8949 193e 1303 66bd 7cd7 ff3c ebdf 103d
000003f0: e83f 153e 80f3 3a3e a7d5 8abd 9678 cf3c

MLP.5.bias f4 [32]
-0.09287758 0.11319955 0.10840952 -0.061946694 0.13126874 -0.12066721 0.052694466 0.026212905
-0.0689005 -0.116038494 -0.09525815 0.066880174 -0.17024846 0.004219952 -0.050943136 0.105578
0.082098685 0.0014554898 0.13079713 -0.074454926 0.037341956 0.08068556 -0.0029584165 0.114490435
0.037342787 0.094375044 -0.069726214 0.07971782 -0.12401105 -0.06094925 -0.00912817 0.022418147
00000000: 9a36 bebd 2ad5 e73d cf05 de3d d1bb 7dbd
00000010: 506b 063e 5f20 f7bd 27d6 573d 72bc d63c
00000020: b51b 8dbd 97a5 edbd b416 c3bd 79f8 883d
00000030: 9d55 2ebe 8647 8a3b c0a9 50bd 4739 d83d
00000040: 5b23 a83d 22c6 be3a afef 053e d37b 98bd
00000050: e1f3 183d 793e a53d fee1 41bb f679 ea3d
00000060: c0f4 183d b447 c13d 9ecc 8ebd 1943 a33d
00000070: 81f9 fdbd eca5 79bd 528e 15bc 43a6 b73c

MLP.6.weight f4 [32]
0.7720476 0.7177976 0.5343377 0.7397306 0.6883558 0.7181689 0.7719062 0.70706314
0.67593706 0.6914934 0.6100854 0.6956687 0.6911869 0.56066316 0.77906495 0.6899762
0.76030517 0.68631095 0.7066143 0.7452885 0.7366208 0.67320675 0.7810165 0.76501197
0.61665285 0.75817186 0.78784615 0.56111544 0.75711507 0.57660306 0.79089385 0.4174066
00000000: e9a4 453f 95c1 373f 5bca 083f fc5e 3d3f
00000010: 1638 303f ebd9 373f a59b 453f 1702 353f
00000020: 360a 2d3f b605 313f 8f2e 1c3f 5817 323f
00000030: a0f1 303f 9f87 0f3f cd70 473f 48a2 303f
00000040: 5ca3 423f 13b2 2f3f ade4 343f 3acb 3e3f
00000050: 2e93 3c3f 4757 2c3f b3f0 473f d3d7 433f
00000060: f6dc 1d3f 8d17 423f 49b0 493f 43a5 0f3f
00000070: 4bd2 413f 429c 133f 0578 4a3f 51b6 d53e

MLP.6.bias f4 [32]
-0.0065590213 0.05208958 -0.013171389 0.003053828 -0.009895955 0.0063944007 -0.002963129 -0.019847969
-0.010877568 -0.0056653568 0.006188886 -0.024636382 -0.015243209 -0.008167199 0.029676544 0.015290577
-0.03435111 -0.012458463 0.005714276 0.005316808 -0.012747986 -0.026809478 -0.019810125 -0.005061983
0.017648432 -0.014658926 0.010259134 0.03370423 0.0008492712 -0.01352752 0.02542794 0.009618344
00000000: 0fed d6bb e25b 553d cfcc 57bc bb22 483b
00000010: a522 22bc 1f88 d13b 0e31 42bb 3598 a2bc
00000020: d437 32bc 75a4 b9bb 23cc ca3b 3dd2 c9bc
00000030: a7be 79bc b7cf 05bc 391c f33c 5485 7a3c
00000040: c0b3 0cbd 951e 4cbc d23e bb3b 9e38 ae3b
00000050: eedc 50bc 8d9f dbbc d848 a2bc fede a5bb
00000060: 7293 903c fe2b 70bc ed15 283c 720d 0a3d
00000070: a0a1 5e3a 88a2 5dbc 414e d03c 4296 1d3c

MLP.8.weight f4 [32, 32]
-0.11289105 0.14367802 0.17225456 0.06767269 0.016288534 -0.026450476 -0.006289806 0.0389955
-0.21927592 0.08904828 0.0062810727 0.07377546 -0.15874033 0.028640224 0.055844847 -0.1353078
-0.2139192 -0.15576641 0.13101025 -0.09282642 -0.07368983 -0.033542007 0.1607871 0.19151883
0.10501385 -0.17258638 0.16825303 0.086684674 -0.118557066 -0.09887533 0.088533506 -0.03634999
7.808956e-38 -6.4256283e-38 -8.567385e-38 3.3727037e-38 -6.6571217e-38 -2.131699e-38 -7.5871276e-38 6.6477997e-38
-7.2074974e-38 7.1493586e-38 9.3707945e-38 3.587366e-39 9.3960324e-38 9.262345e-38 -9.827917e-38 -2.2982517e-38
7.4790253e-38 1.045875e-37 -7.4817494e-38 -7.0571577e-38 7.587336e-39 5.239964e-38 -5.9094034e-38 1.0974146e-37
7.6882874e-38 -5.077009e-38 5.267502e-38 -5.586199e-38 -3.5525876e-38 -7.0831815e-38 -6.987093e-38 7.13913e-38
-0.036800556 -0.017329674 -0.041929957 -0.12740262 -0.036488976 0.0039703343 0.010554726 -0.016136521
0.016239094 -0.05042445 0.063429 -0.060618024 -0.017616631 -0.025816208 0.034045227 0.025663242
-0.016546201 -0.0073723583 -0.06785618 0.044820685 0.0074526584 -0.0063079563 0.011270367 -0.038223498
0.06665452 -0.028371664 0.0025905075 2.0024863e-06 -0.0025330754 0.05919617 0.022207066 0.03370175
0.08156695 -0.070671424 0.0341015 -0.12948792 0.11305491 0.07524652 0.029260602 0.02726945
-0.027830482 -0.038254146 -0.081865124 0.030586872 -0.087499745 0.067418545 -0.08731681 -0.05581327
0.0011779377 0.08390689 -0.05100052 0.033529002 -0.042158373 -0.030140428 -0.0005776449 0.047421675
0.119952865 -0.038110785 0.039084066 0.000996063 0.05773323 0.03795803 0.07145112 -0.011055589
-0.09975442 0.043889098 0.09298609 0.16723818 0.16032983 -0.06958482 0.10059791 -0.0050430843
0.14113721 0.07088642 -0.1741457 0.023092777 -0.06369437 0.055256657 -0.07773653 0.07974205
-0.047508035 -0.17453378 -0.0030803059 0.022963373 0.09134881 -0.15855637 -0.04625468 -0.098616436
-0.055622805 -0.113107465 0.08112322 -0.0637613 -0.05605322 0.1288724 0.13628913 -0.06942485
-0.09309212 -0.050527714 -0.037917588 -0.1054055 -0.09512767 0.087999575 0.06721806 0.035981778
-0.014454196 -0.1446836 -0.039136495 0.076100364 0.14144038 0.04694663 -0.06712764 -0.01722382
-0.1186303 -0.16246228 -0.10986969 -0.15936288 -0.050588284 -0.06989622 0.13298093 0.12515813
-0.07423471 0.00085048995 0.09288939 0.15179163 0.051878877 -0.070788786 0.094016574 0.06843351
0.05551768 0.0041949493 0.05458848 -0.12783748 0.02666231 0.04214726 0.06709381 -0.10892025
-0.011035913 -0.08785231 0.10517975 -0.14364237 0.05234117 -0.07728582 0.07024321 0.010962632
-0.03789038 0.111165084 0.078740485 0.07463609 -0.057881456 0.021658689 0.002156842 -0.05528685
-0.018046368 0.09205163 -0.06232846 0.0805911 0.070394136 -0.014257786 -0.02906681 0.07612698
0.048899528 0.019379592 0.09835846 0.033996865 -0.14627573 -0.113773175 -0.008201448 0.061170697
-0.02446568 0.13663179 0.08936486 0.101012886 0.041988265 0.1571885 -0.16087614 0.07183951
-0.096641004 -0.051703304 0.14639765 -0.13381368 0.026841788 -0.13097452 0.06100451 0.00094956125
0.1147571 -0.02699312 0.16050117 -0.12059114 0.1117471 0.041235864 0.043461327 0.02628752
00000000: 6c33 e7bd 5520 133e 8063 303e fb97 8a3d
00000010: 886f 853c abae d8bc b81a cebb bfb9 1f3d
00000020: de89 60be f25e b63d 75d1 cd3b 9717 973d
00000030: d38c 22be e79e ea3c 91bd 643d 218e 0abe
00000040: a20d 5bbe 3b81 1fbe 8d27 063e c71b bebd
00000050: b2ea 96bd 5863 09bd 60a5 243e 831d 443e
00000060: 8011 d73d 7cba 30be 864a 2c3e bc87 b13d
00000070: 0cce f2bd 267f cabd 0e51 b53d bae3 14bd
00000080: 7b94 d401 18ec ae81 f639 e981 a1a0 3701
00000090: 5e39 b581 181f e880 908a ce81 67f8 b401
000000a0: ed34 c481 c29f c201 e818 ff01 1e10 2700
000000b0: cac8 ff01 2025 fc01 4bc5 0582 e841 fa80
000000c0: 3399 cb01 6d5b 0e02 2fac cb81 361d c081
000000d0: 689e 5200 38a5 8e01 88de a081 515f 1502
000000e0: 8b4b d101 9735 8a81 2265 8f01 2012 9881
000000f0: d86b 4181 92d2 c081 ee34 be81 7a58 c201
00000100: 2ebc 16bd f6f6 8dbc bfbe 2bbd d575 02be
00000110: 7775 15bd 9419 823b bbed 2c3c bd30 84bc
00000120: d907 853c de89 4ebd 10e7 813d 9b4a 78bd
00000130: c150 90bc 837c d3bc 0273 0b3d b83b d23c
00000140: e68b 87bc d393 f1bb 2ef8 8abd e595 373d
00000150: 6e35 f43b f9b2 cebb 58a7 383c 3e90 1cbd
00000160: 2a82 883d b16b e8bc 81c5 293b 7462 0636
00000170: f401 26bb af77 723d 98eb b53c d90a 0a3d
00000180: 930c a73d 2ebc 90bd 04ae 0b3d 7b98 04be
00000190: 5589 e73d d91a 9a3d eeb3 ef3c 2e64 df3c
000001a0: c0fc e3bc 61b0 1cbd e7a8 a7bd 5291 fa3c
000001b0: 1133 b3bd bc12 8a3d 28d3 b2bd 759c 64bd
000001c0: 0865 9a3a 60d7 ab3d ece5 50bd b555 093d
000001d0: 42ae 2cbd 0fe9 f6bc 186d 17ba 3b3d 423d
000001e0: d9a9 f53d 0e1a 1cbd 9d16 203d 548e 823a
000001f0: ae79 6c3d e179 1b3d f754 923d 8022 35bc
00000200: 0c4c ccbd 0ec5 333d 7e6f be3d 7c40 2b3e
00000210: 812d 243e 7c82 8ebd 4706 ce3d 7540 a5bb
00000220: 4686 103e e62c 913d 4053 32be 102d bd3c
00000230: 3272 82bd ce54 623d 5434 9fbd cd4f a33d
00000240: c997 42bd fcb8 32be f5de 49bb af1d bc3c
00000250: 1615 bb3d 9a5c 22be 8c75 3dbd 6af7 c9bd
00000260: bdd4 63bd e3a4 e7bd ee23 a63d 4995 82bd
00000270: 1098 65bd 20f7 033e 618f 0b3e 9e2e 8ebd
00000280: 15a7 bebd 26f6 4ebd 794f 1bbd d7de d7bd
00000290: 4cd2 c2bd 1f39 b43d 9fa9 893d a161 133d
000002a0: 4bd1 6cbc f027 14be 974d 20bd 82da 9b3d
000002b0: bfd5 103e 1c4b 403d 377a 89bd f818 8dbc
000002c0: 71f4 f2bd 835c 26be 5c03 e1bd 0630 23be
000002d0: a935 4fbd c025 8fbd 272c 083e 7429 003e
000002e0: 5e08 98bd 6af3 5e3a cb3c be3d 446f 1b3e
000002f0: f27e 543d b6f9 90bd c38b c03d de26 8c3d
00000300: 8266 633d c975 893b 2c98 5f3d d4e7 02be
00000310: eb6a da3c 9ba2 2c3d 7b68 893d 9411 dfbd
00000320: f9cf 34bc e9eb b3bd 7b68 d73d fc16 13be
00000330: b263 563d 0748 9ebd acdb 8f3d 9c9c 333c
00000340: f132 1bbd 85aa e33d b142 a13d ceda 983d
00000350: 1b15 6dbd 906d b13c ce59 0d3b 7774 62bd
00000360: fad5 93bc 9185 bc3d 214c 7fbd f20c a53d
00000370: cd2a 903d 7d99 69bc 851d eebc 76e8 9b3d
00000380: df4a 483d f3c1 9e3c 2970 c93d 4c40 0b3d
00000390: 4ec9 15be e901 e9bd 5e5f 06bc 208e 7a3d
000003a0: 406c c8bc 34e9 0b3e ec04 b73d d8df ce3d
000003b0: e3fb 2b3d 06f6 203e b7bc 24be 9820 933d
000003c0: b8eb c5bd d8c6 53bd 44e9 153e 7406 09be
000003d0: 4fe3 db3c 2f1e 06be dddf 793d faeb 783a
000003e0: c505 eb3d ad20 ddbc 6b5a 243e 7df8 f6bd
000003f0: aadb e43d f0e6 283d 8104 323d ed58 d73c

MLP.8.bias f4 [32]
-0.02217068 -8.235166e-38 0.021431588 -0.0724654 -0.05336872 -0.06612603 0.08186343 0.09806977
-0.0934626 0.10170976 0.038650956 -0.057865735 0.06400002 0.035478313 -3.2759984e-38 -0.13764253
-0.101572916 -0.04014691 0.09486657 -0.011144161 -0.092714064 -0.12951776 -0.010694061 0.13644472
-0.0051046815 -0.10546198 0.13571124 0.0040374068 -0.02355001 -0.07462047 0.012312103 0.010140763
00000000: 499f b5bc bb2e e081 4c91 af3c bd68 94bd
00000010: 2999 5abd 166d 87bd 04a8 a73d ced8 c83d
00000020: 5269 bfbd 354d d03d 7750 1e3d 9f04 6dbd
00000030: 7112 833d b551 113d c15c 3281 2af2 0cbe
00000040: 7605 d0bd 1671 24bd 6749 c23d 0096 36bc
00000050: dfe0 bdbd 4ea0 04be 2536 2fbc 2ab8 0b3e
00000060: 2c45 a7bb 73fc d7bd e3f7 0a3e 394c 843b
00000070: f3eb c0bc 9ed2 98bd b4b8 493c 7125 263c

MLP.10.weight f4 [32, 32]
-0.056707 -4.879923e-38 -0.065119244 0.09380827 -0.14862883 0.1298608 0.065872684 -0.04504824
-0.0692129 -0.14225015 0.02825328 -0.004780604 -0.13396278 0.047390573 9.0399664e-38 -0.045447227
0.11232816 -0.037182923 0.015272087 -0.09822331 0.021835929 0.11499534 -0.003915091 0.06697127
-0.058703788 0.09527718 -0.1302122 0.061741233 0.13341148 0.021954168 -0.02318976 0.060325984
-0.08059342 -7.8214774e-38 -0.004827171 0.10355274 -0.10406613 0.0029396098 -0.033746403 -0.0183223
0.06522658 -0.044444397 0.019093392 -0.044641078 -0.1162848 -0.0016075784 7.3662275e-38 -0.06434826
0.008735301 0.04390382 -0.015737548 -0.056121267 0.1425772 0.123847656 -0.14930135 -0.057686165
0.063314445 0.131556 -0.077961385 0.00928824 0.019727837 0.048725154 -0.06407612 0.094691746
0.16199505 5.434744e-39 -0.008928011 0.0005168567 0.10962428 0.106978156 -0.04276661 0.06360415
0.05062074 0.01920743 0.018684685 -0.062865146 0.06058349 -0.0041225115 8.105907e-38 0.065799534
0.080228895 0.076234736 0.04132493 0.016335387 0.051539894 -0.0056850417 -0.084224634 0.01321898
-0.069001146 0.035098556 0.050281875 0.016566372 -0.04250076 0.024864683 0.006437276 0.083446436
0.07128022 6.52527e-38 -0.016977841 0.025756195 -0.17256498 -0.15545626 -0.025964271 0.10758544
-0.06224106 0.13296735 -0.023551099 0.010794804 0.14927478 -0.013658645 6.4540085e-38 -0.001129517
-0.13482808 0.03732951 -0.11296801 0.055695057 0.029838292 -0.03171221 0.034888394 0.018146023
0.09307307 0.03497056 -0.06679947 -0.07657685 -0.030542787 0.090965375 0.025157763 -0.11619758
0.084119044 -6.7057613e-38 0.05279217 0.10306653 -0.14562778 -0.115051135 0.05178879 0.08779358
0.024119548 0.15267703 0.045299217 -0.011788329 0.18995662 0.0063348524 7.986124e-38 0.06443473
-0.028010983 0.15312113 0.098830335 0.01750026 -0.079274185 0.049690537 0.09294644 0.008969716
0.15467829 -0.07859489 -0.042829618 0.06388185 0.09318361 0.12148833 0.075001776 0.12760289
0.16042463 -5.502765e-38 0.09158601 0.12286664 -0.11373713 -0.0366736 0.03571416 0.1030399
-0.06919566 -0.08632478 0.0037595343 -0.04112363 -0.090303905 -0.03223364 -5.615255e-38 0.0035300408
-0.11947382 0.24585283 0.0155455815 0.061052 0.10421349 -0.21486536 -0.13256875 -0.04554669
-0.0826497 0.009453948 0.0037560964 0.007862539 0.059987746 -0.16784409 0.0014988122 0.12538211
0.13028258 6.0571496e-38 0.03813167 -0.058479287 -0.010509676 -0.1821032 0.085607216 0.1019885
-0.010721882 -0.04874569 0.060780622 0.073536195 -0.029061105 0.07779145 8.2218985e-38 0.04168813
-0.08714736 -0.20574427 0.15654434 0.03534943 -0.09844212 0.06389739 -0.093528025 0.066623926
-0.059609935 -0.12261597 0.058506403 0.007020765 -0.09082884 -0.038679738 0.09726531 -0.10057609
0.12333683 6.578857e-38 0.0008522591 -0.010705271 -0.15647002 -0.04387809 -0.030437961 -0.13053119
0.010249239 -0.13963477 -0.0032702321 0.0554224 -0.022053069 -0.007318863 8.0456656e-38 0.05600677
0.12313489 -0.075666524 -0.08402821 0.02705205 -0.050883327 0.043205377 -0.15161698 0.13471033
0.11446721 0.10368632 0.07707436 -0.011941232 0.11018927 0.03408408 0.056114793 -0.03853435
00000000: 9945 68bd 1ad8 8481 3d5d 85bd 8d1e c03d
00000010: 2832 18be 3bfa 043e 42e8 863d 8184 38bd
00000020: 7ebf 8dbd 06aa 11be 6c73 e73c 9da6 9cbb
00000030: 8a2d 09be 9e1c 423d 5f17 f601 df26 3abd
00000040: 4e0c e63d 1f4d 18bd c737 7a3c 4e29 c9bd
00000050: 43e1 b23c ad82 eb3d 2a4a 80bb 3c28 893d
00000060: 6273 70bd af20 c33d 5956 05be 60e4 7c3d
00000070: 059d 083e 3ad9 b33c 74f8 bdbc 6118 773d
00000080: 2a0e a5bd beeb d481 3f2d 9ebb 7513 d43d
00000090: a020 d5bd 78a6 403b ab39 0abd a618 96bc
000000a0: 8395 853d 540b 36bd bf69 9c3c 90d9 36bd
000000b0: ba26 eebd 61b5 d2ba 1d87 c801 05c9 83bd
000000c0: 821e 0f3c 7ed4 333d 08ec 80bc 6adf 65bd
000000d0: c2ff 113e d7a3 fd3d 74e2 18be 5448 6cbd
000000e0: 01ab 813d 9eb6 063e 38aa 9fbd b42d 183c
000000f0: 469c a13c 0794 473d 573a 83bd bfed c13d
00000100: 08e2 253e db2d 3b00 cb46 12bc aa7d 073a
00000110: b282 e03d 5d17 db3d 0a2c 2fbd e542 823d
00000120: b157 4f3d e658 9d3c a010 993c 71bf 80bd
00000130: 6526 783d 2216 87bb eda9 dc01 e8c1 863d
00000140: 0c4f a43d f520 9c3d 5444 293d cad1 853c
00000150: 7f1b 533d 9649 babb f77d acbd 6c94 583c
00000160: 7950 8dbd 81c3 0f3d 5ef4 4d3d 33b6 873c
00000170: 4715 2ebd 05b1 cb3c c9ef d23b f7e5 aa3d
00000180: 5dfb 913d 7fa2 b101 1d15 8bbc a8fe d23c
00000190: e0b4 30be ed2f 1fbe 06b3 d4bc c155 dc3d
000001a0: 7bf0 7ebd 9828 083e 3cee c0bc b1dc 303c
000001b0: 7ddb 183e 82c8 5fbc e0b1 af01 4d0c 94ba
000001c0: 5f10 0abe d4e6 183d c65b e7bd 8020 643d
000001d0: 6f6f f43c aae4 01bd 22e7 0e3d f8a6 943c
000001e0: 189d be3d 4a3d 0f3d 29ce 88bd 53d4 9cbd
000001f0: de34 fabc 0e4c ba3d a717 ce3c fff8 edbd
00000200: 9b46 ac3d 568c b681 9a3c 583d 8b14 d33d
00000210: 731f 15be ee9f ebbd 7b20 543d 1fcd b33d
00000220: 5c96 c53c 5e57 1c3e ac8b 393d d623 41bc
00000230: fd83 423e 9894 cf3b 2967 d901 5bf6 833d
00000240: 4a77 e5bc c9cb 1c3e 8f67 ca3d b55c 8f3c
00000250: 815a a2bd 4e88 4b3d b45a be3d b7f5 123c
00000260: fc63 1e3e 5cf6 a0bd 1c6e 2fbd 7dd4 823d
00000270: 0cd7 be3d e0ce f83d 889a 993d 55aa 023e
00000280: 5b46 243e adcc 9581 7291 bb3d 81a1 fb3d
00000290: 03ef e8bd 0f37 16bd 0349 123d 9506 d33d
000002a0: 74b6 8dbd 0ccb b0bd 8562 763b 4071 28bd
000002b0: 41f1 b8bd 6c07 04bd 9edc 9881 4258 673b
000002c0: b1ae f4bd d8c0 7b3e e5b2 7e3c a911 7a3d
000002d0: e26d d53d aa05 5cbe 1ac0 07be 2a8f 3abd
000002e0: 3f44 a9bd bbe4 1a3c d728 763b e1d1 003c
000002f0: b6b5 753d 52df 2bbe cb73 c43a 2b64 003e
00000300: cc68 053e 2ce4 a401 f42f 1c3d fa87 6fbd
00000310: c730 2cbc 4379 3abe d652 af3d 59df d03d
00000320: d5aa 2fbc 90a9 47bd 1af5 783d 259a 963d
00000330: 8e11 eebc 2051 9f3d 45d2 df01 2cc1 2a3d
00000340: 517a b2bd a0ae 52be 294d 203e 90ca 103d
00000350: 069c c9bd a3dc 823d 9f8b bfbd 2072 883d
00000360: 8c29 74bd 151e fbbd 69a4 6f3d 720e e63b
00000370: 7904 babd a56e 1ebd 0933 c73d d6fa cdbd
00000380: 0598 fc3d f117 b301 246a 5f3a 2965 2fbc
00000390: ad39 20be 83b9 33bd 0859 f9bc f8a9 05be
000003a0: 6dec 273c 6bfc 0ebe 6451 56bb 9902 633d
000003b0: a3a8 b4bc 13d3 efbb 1b06 db01 5b67 653d
000003c0: 252e fc3d 0df7 9abd fb16 acbd 439c dd3c
000003d0: 096b 50bd 1ff8 303d 7b41 1bbe 81f1 093e
000003e0: c96d ea3d 7e59 d43d 29d9 9d3d 28a5 43bc
000003f0: e9aa e13d c09b 0b3d a0d8 653d 32d6 1dbd

MLP.10.bias f4 [32]
-0.015222197 0.08964541 0.017230531 0.023360102 -0.15491098 -0.02087905 -0.14456396 -0.0070205927
-0.14025126 -0.123467 -0.034363434 -0.0006967728 0.042582992 0.121668324 -0.03918972 -0.011248827
0.044752184 -0.0058796383 0.042508855 -0.12576737 0.12819485 0.038140133 -0.04083181 -0.02720769
0.046314824 -0.03263359 -0.012998349 0.15353544 -0.14310534 0.16321474 -0.12357767 0.04248634
00000000: 8666 79bc 0398 b73d 0b27 8d3c af5d bf3c
00000010: fca0 1ebe 8b0a abbc 9308 14be 000d e6bb
00000020: 079e 0fbe 44dc fcbd acc0 0cbd a2a7 36ba
00000030: 816b 2e3d 3e2d f93d 6685 20bd 004d 38bc
00000040: 114e 373d fba9 c0bb c41d 2e3d 29c9 00be
00000050: 8345 033e d438 1c3d 423f 27bd a9e2 debc
00000060: 9db4 3d3d cdaa 05bd 07f7 54bc 6538 1d3e
00000070: 358a 12be c421 273e 4a16 fdbd 2806 2e3d

MLP.11.weight f4 [32]
0.92305386 0.93424106 0.90277874 0.88493174 0.9300294 0.8894289 0.8385961 0.78523445
0.7839245 0.88179487 0.94307864 0.7415557 0.7246421 0.83126813 0.88511956 0.8821571
0.895462 0.9301861 0.84719175 0.91077626 0.9443152 0.7123522 0.9343443 0.901472
0.8893036 0.88469636 0.81411624 0.90410495 0.72951436 0.9367367 0.88025236 0.8892186
00000000: 424d 6c3f 6c2a 6f3f 821c 673f e38a 623f
00000010: 6816 6e3f 9db1 633f 3cae 563f 2005 493f
00000020: 47af 483f 4fbd 613f 9a6d 713f 98d6 3d3f
00000030: 2582 393f fdcd 543f 3297 623f 0cd5 613f
00000040: ff3c 653f ad20 6e3f 8fe1 583f a228 693f
00000050: a4be 713f b75c 363f 3031 6f3f dec6 663f
00000060: 67a9 633f 767b 623f ec69 503f 6c73 673f
00000070: 74c1 3a3f facd 6f3f 3858 613f d5a3 633f

MLP.11.bias f4 [32]
-0.0015288367 0.0017216194 -0.0074884235 -0.0024098093 0.009091884 -0.008818992 0.0023497336 0.004017695
0.010172768 0.010348313 -0.009136046 0.0015235938 0.002235721 0.007930472 -0.015600116 0.004973552
0.0061517935 0.0010929974 -0.0025465677 0.00020132572 0.0013651008 -0.003564154 0.01955083 0.005154102
0.0010313184 0.003939169 -0.0010206716 -0.0048172185 0.008228765 0.010344027 0.02360831 0.00015655048
00000000: 3f63 c8ba f6a7 e13a 7361 f5bb e4ed 1dbb
00000010: 20f6 143c 897d 10bc fdfd 193b dea6 833b
00000020: aeab 263c f88b 293c 5baf 15bc 53b3 c73a
00000030: 2d85 123b cfee 013c a197 7fbc 2ef9 a23b
00000040: fc94 c93b e842 8f3a 51e4 26bb f61a 5339
00000050: 2fed b23a 9594 69bb 1029 a03c bee3 a83b
00000060: 4e2d 873a 2514 813b 0ec8 85ba c2d9 9dbb
00000070: f1d1 063c fe79 293c 3766 c13c b327 2439

MLP.13.weight f4 [4, 32]
0.11141451 -0.12550291 -0.035871055 -0.03395682 -0.08635313 0.07965591 -0.0946437 -0.09685573
-0.07225179 -0.15700606 0.13174695 0.100106835 0.05902183 0.029640933 0.13063376 -0.031326756
0.12865253 -0.05559013 0.05222567 -0.030681474 0.0018613072 0.08874461 -0.018899307 -0.14415552
-0.04548868 -0.03024397 -0.05100589 0.103731975 -0.052454654 -0.08029078 -0.040054325 0.07895874
-0.101826265 -0.06453317 -0.07779512 -0.01042852 -0.055279173 0.12530532 -0.061223086 0.006024781
-0.057166502 -0.06883636 0.00463197 0.0039569316 0.006289553 0.03719349 -0.053174656 -0.051758483
0.10680226 0.07845303 0.026436182 0.14168248 -0.0066921636 0.0069835577 -0.028213056 0.04362971
-0.028538058 0.052014537 -0.039541546 -0.104285896 0.0182553 -0.060418792 -0.055185992 -0.031162653
0.07582741 0.12848468 0.077156946 -0.08062609 0.083817124 0.06763594 -0.034598943 -0.050239023
-0.0056347554 0.0018467008 -0.11607955 0.025883127 -0.09699967 -0.07416419 0.053328447 0.06537911
-0.008782657 0.114081204 0.06403022 -0.12256803 0.13074848 0.013916721 -0.12767118 0.11488661
0.09181055 -0.030099032 0.01782476 0.063325375 -0.021563368 0.12326041 -0.09130429 -0.09033142
-0.043790333 -0.025087086 0.008198689 0.021141198 -0.007885284 -0.032913502 -0.0026162595 0.019891094
-0.012629092 -0.063868664 -0.012990447 0.012277405 -0.035372473 0.007657415 -0.0072012306 -0.018319959
-0.0037634065 0.013212731 -0.03332979 -0.0088702245 0.0072804685 0.044925947 0.02012129 0.030041428
0.044816885 -0.067776754 0.07412324 -0.005735861 0.06794386 0.0027410695 -0.04926525 0.043753274
00000000: 4a2d e43d d683 00be 87ed 12bd 4e16 0bbd
00000010: e9d9 b0bd a322 a33d 8ed4 c1bd 4c5c c6bd
00000020: bff8 93bd 32c6 20be ace8 063e d004 cd3d
00000030: e0c0 713d 8bd1 f23c dbc4 053e 7c50 00bd
00000040: 7dbd 033e 7ab2 63bd 96ea 553d b757 fbbc
00000050: 1bf7 f33a bcbf b53d b8d2 9abc 819d 13be
00000060: 5752 3abd 34c2 f7bc 8deb 50bd 6e71 d43d
00000070: b1da 56bd 7e6f a4bd 0110 24bd 1fb5 a13d
00000080: 4a8a d0bd f729 84bd 0c53 9fbd 62dc 2abc
00000090: 6a6c 62bd 0a50 003e 0fc5 7abd 876b c53b
000000a0: 6c27 6abd 14fa 8cbd c8c7 973b 26a9 813b
000000b0: 9818 ce3b 3358 183d abcd 59bd b400 54bd
000000c0: 25bb da3d fbab a03d b190 d83c 3615 113e
000000d0: f049 dbbb 54d6 e43b 111f e7bc 11b5 323d
000000e0: a5c8 e9bc 320d 553d 51f6 21bd d893 d5bd
000000f0: 248c 953c b279 77bd b50a 62bd d248 ffbc
00000100: 674b 9b3d 7d91 033e 7604 9e3d 4b1f a5bd
00000110: 50a8 ab3d b684 8a3d 9fb7 0dbd 6fc7 4dbd
00000120: c1a3 b8bb ff0c f23a 1dbb edbd da08 d43c
00000130: c3a7 c6bd 65e3 97bd ee6e 5a3d 7ce5 853d
00000140: 22e5 0fbc 68a3 e93d 4722 833d f304 fbbd
00000150: eee2 053e f502 643c 3cbc 02be ac49 eb3d
00000160: 2b07 bc3d 3f92 f6bc 3b05 923c bcb0 813d
00000170: a9a5 b0bc f46f fc3d befd babd aeff b8bd
00000180: 7e5d 33bd 6f83 cdbc cb53 063c 4e30 ad3c
00000190: 4731 01bc 4fd0 06bd 8d75 2bbb a6f2 a23c
000001a0: 40ea 4ebc 93cd 82bd e2d5 54bc 2b27 493c
000001b0: bae2 10bd 0deb fa3b 4df8 ebbb bd13 96bc
000001c0: 7ca3 76bb 367a 583c d184 08bd 6b54 11bc
000001d0: ff90 ee3b 4504 383d 67d5 a43c 7119 f63c
000001e0: e991 373d 8ace 8abd edcd 973d e4f3 bbbb
000001f0: 2726 8b3d 84a3 333b 5cca 49bd a236 333d

MLP.13.bias f4 [4]
-0.054196704 0.090652935 -0.16303015 0.0022395228
00000000: 5dfd 5dbd 3fa8 b93d 60f1 26be f5c4 123b
